PINNS/HeatEq/models/checkpoints_Adam/best_dict.pt (torch, 57789 bytes, 43 tensors)

layers.input.weight f4 [20, 2]
0	0x3f2b6c05	0.669617
1	0x3f03a397	0.51421493
2	0xbeffff82	-0.49999624
3	0x3e6c31fb	0.23065941
4	0xbeef2509	-0.46707943
5	0xbf7ac5f2	-0.9795829
6	0x3de819da	0.11333056
7	0x3ea84e3c	0.32872188
8	0xbe9119f3	-0.2834011
9	0x3e3c5e12	0.1839526
10	0x3e992c9f	0.29916856
11	0x3ef0e7f4	0.47051966
12	0xbf20a0a8	-0.6274514
13	0x3d1bb739	0.03801653
14	0xbf3ec7d3	-0.7452366
15	0x3cea2c7e	0.028585669
16	0x3f232eb0	0.63743114
17	0x3e5bc65e	0.2146239
18	0x3eeb4d9d	0.45957652
19	0xbe394e51	-0.18096282
20	0x3ea6603c	0.32495296
21	0x3e18397f	0.14865683
22	0xbd31fedc	-0.043455943
23	0x3f201b58	0.62541723
24	0x3f08ff4e	0.53514564
25	0xbf0eb305	-0.5574191
26	0x3ef930ac	0.48669946
27	0xbf1e08a5	-0.6173194
28	0xbd192e9a	-0.03739796
29	0xbf35f881	-0.7108231
30	0xbe0acf3b	-0.13555615
31	0xbf236584	-0.63826776
32	0x3d66cc4a	0.05634717
33	0xbeb3e01c	-0.3513192
34	0x3efa8391	0.48928502
35	0xbe4dea5b	-0.20108931
36	0x3ec540e7	0.3852608
37	0xbf3d1ade	-0.7386912
38	0xbf0cece1	-0.5504895
39	0x3f14d265	0.58133537

layers.input.bias f4 [20]
0	0x3f1e4b06	0.61833227
1	0x3e653b97	0.22386013
2	0xbebbb347	-0.36660215
3	0x3c37dc7f	0.011222004
4	0xbf1daa3e	-0.61587894
5	0xbf08463f	-0.5323219
6	0x3e8cd0c3	0.27503023
7	0x3e2f5b71	0.17124726
8	0x3e51eee6	0.20501289
9	0xbf188800	-0.5958252
10	0x3f11c5e0	0.5694256
11	0x3d8e0969	0.069353886
12	0x3f1bf4a7	0.60920185
13	0xbdf2bc6a	-0.118523434
14	0xbe53ecdb	-0.20695822
15	0x3e93aa89	0.28841045
16	0x3ebf4edb	0.3736485
17	0xbea0e244	-0.31422627
18	0xbf2d4231	-0.67679125
19	0x3db90d13	0.09035697

layers.hidden_0.weight f4 [20, 20]
0	0x3e19c821	0.1501775
1	0x3d3a9cc1	0.04555965
2	0x3e64a930	0.22330165
3	0xbccd4270	-0.025056094
4	0x3e8a9310	0.27065325
5	0x3eab1be7	0.33419725
6	0x3daab53e	0.083353505
7	0x3d4ceee0	0.050032496
8	0x3dac1490	0.084023595
9	0x3df9d0ed	0.121980526
10	0x3d9e5b85	0.077323
11	0x3dbb7610	0.09153378
12	0xbe5eec1b	-0.21769755
13	0xbe4be4c1	-0.19911481
14	0x3d9915f6	0.07474892
15	0xbe63e7c0	-0.22256374
16	0xbe204928	-0.15652907
17	0xbd1eeedb	-0.03880201
18	0x3dc8e8f6	0.09810059
19	0x3e0b30f8	0.13592899
20	0xbe4835df	-0.195518
21	0xbda7df58	-0.08196896
22	0xbe2e5805	-0.17025764
23	0xbdca4b84	-0.09877685
24	0xbd845e9e	-0.06463359
25	0x3dddc96f	0.10829436
26	0xbc81a03a	-0.015823472
27	0xbeec2b93	-0.46126994
28	0x3e3e563c	0.18587583
29	0xbddbc3e6	-0.10730724
30	0xbe119fd4	-0.14221126
31	0xbcd2a11f	-0.025711594
32	0x3ea5092b	0.32233557
33	0x3dd99916	0.10624902
34	0x3e02e2ea	0.12781873
35	0xbdd911ea	-0.1059912
36	0xbcbf9f28	-0.023391321
37	0xbad1aeba	-0.0015997507
38	0xbd1fcf42	-0.039016016
39	0xbbbab613	-0.0056979745
40	0x3bc2e111	0.00594724
41	0x3ddb9a55	0.10722796
42	0xbd90c9c8	-0.07069737
43	0x3b56f15f	0.0032797677
44	0xbdc92ade	-0.098226294
45	0x3e63d3b5	0.22248729
46	0xbe17db1d	-0.14829679
47	0xbd221dda	-0.03957925
48	0xbb992c0a	-0.0046744393
49	0xbe0b05a3	-0.13576369
50	0x3e163581	0.14668848
51	0xbe2a8bac	-0.16654843
52	0xbdf2cf73	-0.11855974
53	0x3e648bba	0.22318926
54	0xbe154ff9	-0.14581288
55	0xbcacce66	-0.021094512
56	0xbcf1162b	-0.029429516
57	0x3d86c28a	0.06580074
58	0xbdf10f7d	-0.11770532
59	0xbe32dbbb	-0.17466633
60	0xbdd01f49	-0.10162217
61	0x3e2f53e9	0.17121853
62	0x3c988627	0.018618656
63	0xbe8041a6	-0.25050086
64	0xbced1b04	-0.028943546
65	0xbe67f76e	-0.2265298
66	0x3e18c2b1	0.14918019
67	0x3e80bfd7	0.25146362
68	0xbe133b25	-0.1437803
69	0x3e228711	0.15871836
70	0xbe35843e	-0.17726228
71	0x3cfc2761	0.030780496
72	0xbc5be9d6	-0.01342245
73	0x3e493fe7	0.19653283
74	0xbe3c74ef	-0.18403982
75	0x3e189841	0.1490183
76	0x3db20b20	0.08693528
77	0xbbe79ceb	-0.0070682666
78	0xbd1c82d4	-0.038210705
79	0x3e0b1c09	0.13584913
80	0xbdff658b	-0.1247054
81	0x3dab88eb	0.083757244
82	0xbe1cba18	-0.15305364
83	0xbe1e5feb	-0.15466277
84	0x3e31d1c3	0.17365174
85	0x3d0ffa2b	0.03515069
86	0x3e7ba6ca	0.24575344
87	0x3dc94a3c	0.09828612
88	0xbe02f8be	-0.127902
89	0xbe2d966c	-0.16951913
90	0xbe4df064	-0.20111233
91	0xbd0be754	-0.03415616
92	0xbe49e325	-0.19715555
93	0xbd769742	-0.060202844
94	0xbd9fc3ad	-0.07800994
95	0x3d932061	0.0718391
96	0xbe078eb9	-0.13238038
97	0xbd2dd185	-0.04243614
98	0x3d216bfd	0.039409626
99	0xbdad7876	-0.08470242
100	0x3d1929b6	0.037393294
101	0xbe2edb9c	-0.17075962
102	0x3e232d6c	0.15935296
103	0xbc8fa071	-0.01753256
104	0x3b7c25f5	0.0038474773
105	0x3d00faac	0.03148906
106	0xbd53ebd8	-0.05173859
107	0xbda38d9a	-0.07985993
108	0xbe02311a	-0.12714043
109	0x3e0824b5	0.13295253
110	0xbd377a00	-0.044794083
111	0xbe50b6fd	-0.20382304
112	0x3e8726d9	0.26396826
113	0xbd0e5d91	-0.0347572
114	0x3dca40af	0.09875619
115	0x3dd55e98	0.10418433
116	0x3e800235	0.25001684
117	0x3e30110c	0.17194003
118	0x3e3140c8	0.17309868
119	0xbeaed678	-0.34148002
120	0xbddcf3b7	-0.107886724
121	0xbe4718d5	-0.19443066
122	0xbe02b007	-0.12762462
123	0xbe4142ba	-0.1887311
124	0xbe261ed1	-0.16222693
125	0xbe49c64f	-0.19704555
126	0xbdc43620	-0.09580636
127	0xbdbf4e61	-0.093411215
128	0xbbc53097	-0.0060177553
129	0x3d0c08e1	0.034188155
130	0x3b8da61e	0.004322781
131	0xbcdbd4dd	-0.0268349
132	0x3ead172f	0.3380675
133	0xbafd0836	-0.0019304815
134	0xbd6e622b	-0.05819909
135	0xbe219331	-0.15778805
136	0x3e641321	0.22272922
137	0x3bb6ef0e	0.0055826968
138	0xbe03924a	-0.12848774
139	0x3de9ee4b	0.11422404
140	0x3e4c1d2b	0.19933002
141	0x3dd752ae	0.10513817
142	0xbe1e1683	-0.15438275
143	0x3e43edf5	0.19133742
144	0x3c44697f	0.011988043
145	0x3e0a1ca7	0.13487493
146	0x3dbc4677	0.091931276
147	0xbd961de6	-0.073299214
148	0xbdfdd6ca	-0.123944834
149	0xbcaf23b9	-0.021379339
150	0x3e13ac9c	0.14421314
151	0x3b41d530	0.0029576533
152	0x3de7c5da	0.11317034
153	0xbe4121f7	-0.18860613
154	0xbe84c946	-0.2593481
155	0x3b7eea99	0.0038897155
156	0x3e0d03cf	0.13770984
157	0xba84e0af	-0.0010137762
158	0xbca1bed1	-0.019744309
159	0x3e4bfe4d	0.19921227
160	0x3e133973	0.14377384
161	0xbd8e7775	-0.06956378
162	0x3de3942a	0.111122444
163	0x3e852dbc	0.26011455
164	0xbc8ece42	-0.017432336
165	0xbd04357c	-0.03227757
166	0xbdc1c43d	-0.094612576
167	0x3dc4edc9	0.096156664
168	0x3e8f15ab	0.2794622
169	0x3dd38366	0.10327797
170	0xbd0ba08e	-0.034088664
171	0x3e0124ac	0.12611645
172	0x3dc3d629	0.09562332
173	0xbe41ac96	-0.18913493
174	0x3e179b8d	0.14805432
175	0xbb85764a	-0.004072939
176	0xbead2054	-0.33813727
177	0x3d57f79f	0.052726384
178	0x3e0f8837	0.14016806
179	0xbdcd4e0c	-0.10024652
180	0x3e48d5bc	0.19612783
181	0x3e0db62c	0.13839024
182	0xbe0c21c9	-0.13684763
183	0xbda91453	-0.0825583
184	0xbcf6e3ea	-0.030137975
185	0xbe7df3dc	-0.24800056
186	0x3d406aec	0.04697697
187	0x3e00975c	0.12557739
188	0xbd88add6	-0.066737816
189	0xbdeb04ff	-0.11475562
190	0xbccd4e80	-0.025061846
191	0xbd7841ba	-0.060609557
192	0x3b61745f	0.0034401638
193	0x3e441a2e	0.19150612
194	0x3e5bc404	0.21461493
195	0xbe14f37f	-0.14546011
196	0x3e4938af	0.1965053
197	0x3d900d15	0.07033745
198	0x3e33d694	0.17562324
199	0x3e4a3b0f	0.19749092
200	0x3e11434d	0.1418583
201	0x3d98b3f5	0.07456199
202	0xbe1b55d3	-0.15169458
203	0xbce53c3e	-0.027982827
204	0xbc4dffd8	-0.012573205
205	0x3dd8c47f	0.10584354
206	0xbde9d082	-0.11416723
207	0xbc45a46c	-0.012063127
208	0x3e21026b	0.15723579
209	0xbdb999cf	-0.0906254
210	0x3d0e501d	0.03474437
211	0xbe2f5190	-0.17120957
212	0xbdc91f51	-0.09820426
213	0x3e5a6c63	0.21330409
214	0xba95f2cd	-0.0011440158
215	0xbdd93b2f	-0.106069915
216	0xbe3c2137	-0.18372045
217	0xbdc0dea9	-0.09417469
218	0x3d07d011	0.033157412
219	0x3ddd8d07	0.108179145
220	0x3d26a6cb	0.04068641
221	0xbe33d2a1	-0.17560817
222	0xbdcfcbaa	-0.10146268
223	0xbdd1ab81	-0.1023779
224	0x3e27d87a	0.16391173
225	0xbe4063b6	-0.18788037
226	0xbe7d8392	-0.24757221
227	0xbd746872	-0.05966992
228	0x3cd1e04e	0.025619652
229	0xbb1c02fd	-0.0023805492
230	0xbda0ea2e	-0.07857166
231	0x3e798d60	0.24370337
232	0x3e92c25a	0.28663903
233	0x3d1f4a0f	0.038888987
234	0xbe76f1ad	-0.2411563
235	0xbde8b997	-0.113635235
236	0x3e92dfd4	0.28686392
237	0xbe1c66f4	-0.15273649
238	0xbe524432	-0.20533827
239	0xbc8aca99	-0.01694231
240	0xbe3f7c7c	-0.18699831
241	0xbd579452	-0.052631684
242	0x3c6cc5e4	0.014451478
243	0xbe83f4ca	-0.25772697
244	0xbe6c1d6a	-0.23058096
245	0xbd340cb2	-0.04395742
246	0x3a9b50e6	0.0011849671
247	0xbe1792f1	-0.14802147
248	0x3d29675e	0.041358344
249	0xbe105c4a	-0.14097705
250	0x3d60c976	0.054879628
251	0x3de8c895	0.11366383
252	0xbd4e54f2	-0.05037398
253	0xbdef46f1	-0.11683453
254	0xbe7a9542	-0.24471
255	0x3e3c8701	0.18410875

layers.hidden_0.bias f4 [20]
0	0xbc839fd8	-0.01606743
1	0xbc48875c	-0.012239303
2	0x3cd8697d	0.026417488
3	0xbe348409	-0.17628492
4	0xbc65e904	-0.014032606
5	0xbe3f143f	-0.18660067
6	0x3e078402	0.1323395
7	0x3dcb179b	0.09916612
8	0x3e31e293	0.17371587
9	0xbdfaeb51	-0.12251914
10	0xbe4576d7	-0.19283615
11	0x3d547d8f	0.051877555
12	0xbe55ed55	-0.20891316
13	0x3dcf0797	0.101088695
14	0x3e1a6289	0.1507665
15	0xbe05de20	-0.13073015
16	0x3e051728	0.12997115
17	0x3e2446ac	0.16042584
18	0x3d440028	0.04785171
19	0xbd42360d	-0.047414828

layers.hidden_1.weight f4 [20, 20]
0	0xbaa23fab	-0.0012378594
1	0x3e414832	0.18875197
2	0x3e0eda8d	0.13950558
3	0x3ce96f85	0.02849556
4	0xbe159ec7	-0.1461135
5	0xbd893a6a	-0.06700595
6	0x3d075f51	0.033049885
7	0x3da76409	0.08173377
8	0x3d1d4f3d	0.038405646
9	0x3d827dd2	0.063716546
10	0xbe6240a4	-0.22094971
11	0x3e21e330	0.15809321
12	0x3e50e485	0.20399673
13	0x3e5f0553	0.21779375
14	0xbe3e768b	-0.18599908
15	0xbe18254b	-0.14857976
16	0x3d1f28fc	0.038857445
17	0xbe080c64	-0.13285977
18	0xbe7295e2	-0.23689988
19	0xbe27a71b	-0.1637234
20	0x3e0b2004	0.13586432
21	0x3d5b1c5a	0.053493835
22	0xbda7637b	-0.08173271
23	0x3ded4a58	0.115864456
24	0x3e0b99fa	0.13632956
25	0xbe22adba	-0.15886584
26	0x3d340996	0.043954454
27	0xbc235bf5	-0.009970655
28	0xbe1e1e2b	-0.15441196
29	0x3e1fc675	0.15603049
30	0xbe6e544b	-0.23274343
31	0x3e4cdc3d	0.20005889
32	0x3e5d8ec3	0.2163649
33	0x3e3d98a0	0.18515253
34	0xbe02394f	-0.12717174
35	0xbcab420a	-0.020905513
36	0xbe5cffa4	-0.21581894
37	0xbe913348	-0.28359437
38	0x3da36edf	0.07980131
39	0xbde79eae	-0.113095626
40	0x3d9737e8	0.0738371
41	0xbe0e79f9	-0.13913716
42	0xbdea2b83	-0.114340805
43	0x3d5273fd	0.051380146
44	0x3e280ee6	0.16411933
45	0x3e68cd0b	0.22734468
46	0x3df68ca7	0.12038546
47	0xbe05b27b	-0.13056366
48	0xbcb78b2d	-0.022405231
49	0xbda72a5d	-0.08162377
50	0x3e2bc7f5	0.16775496
51	0x3c73354b	0.014844249
52	0x3dd75cc8	0.105157435
53	0xbe308b10	-0.17240548
54	0x3e39f23f	0.18158816
55	0x3d8fa8f5	0.07014648
56	0xbe02cd52	-0.12773636
57	0x3d53fb80	0.05175352
58	0xbcf6da00	-0.030133247
59	0x3dfbe24a	0.122990206
60	0x3d932f92	0.07186808
61	0xbaf53ff0	-0.0018711071
62	0xbe551eec	-0.20812577
63	0x3da61b46	0.08110671
64	0x3e3b282f	0.18277048
65	0x3d43b174	0.047776654
66	0xbe6f83f5	-0.23390181
67	0x3b75e173	0.0037518411
68	0xbdf99f67	-0.12188607
69	0x3e52e86e	0.20596477
70	0x3e0e6708	0.13906491
71	0x3de10138	0.109865606
72	0x3c5c3b11	0.013441817
73	0x3e1397fd	0.14413448
74	0xbe159289	-0.1460668
75	0x3e3b8b04	0.18314749
76	0xbdad15ab	-0.084513985
77	0xbe87e6e7	-0.26543352
78	0x3ddc1f45	0.10748152
79	0xbd42964e	-0.047506623
80	0x3e6d0a12	0.23148373
81	0xbeb935af	-0.3617377
82	0xbe04cddd	-0.12969156
83	0xbdc69875	-0.096970476
84	0xbd88e3cd	-0.066840746
85	0x3d70b7cd	0.058769036
86	0xbdbb85c7	-0.091563754
87	0x3db5867b	0.08863541
88	0x3db46a00	0.088092804
89	0x3e5f8bc1	0.21830656
90	0x3ec83372	0.3910175
91	0x3dd1d0ae	0.102448806
92	0xbd89b74c	-0.06724414
93	0xbd17cc5a	-0.03706012
94	0xbe587535	-0.21138461
95	0x3db635ee	0.08897005
96	0x3e735b85	0.2376538
97	0xbd005f65	-0.031340975
98	0xbde75a28	-0.11296493
99	0xbe71d6cd	-0.23617096
100	0x3e5df8c2	0.21676925
101	0xbccadb8f	-0.024762897
102	0xbd540624	-0.05176367
103	0x3e8e5134	0.27796328
104	0xbc6e8f42	-0.0145605225
105	0xbe85b246	-0.26112574
106	0x3e636836	0.22207722
107	0x3d3d7473	0.046253633
108	0xbcef4b3c	-0.02921068
109	0x3cb76923	0.022389
110	0xbe4a3afc	-0.19749063
111	0xbd20f3e2	-0.039295085
112	0x3ddf0c62	0.10891034
113	0xbd47a12a	-0.048737682
114	0x3dcfa56a	0.10138972
115	0x3daa689b	0.08320733
116	0x3e47d5b0	0.19515109
117	0xbda9bd60	-0.082880735
118	0x3e0ff3f2	0.14057902
119	0xbd8f0363	-0.06983068
120	0x3e4aab55	0.1979192
121	0x3c124cdc	0.0089294575
122	0xbdaa2bfd	-0.08309171
123	0xbd4c7619	-0.049917314
124	0x3e1dcf5e	0.15411136
125	0x3e02ac55	0.12761052
126	0x3c9e5983	0.019329792
127	0x3e140dd7	0.14458404
128	0xbde39a72	-0.111134425
129	0x3dd62892	0.10456957
130	0x3de4dac3	0.11174538
131	0x3e22de91	0.15905215
132	0x3dcead65	0.10091666
133	0x3d1518c9	0.03640059
134	0xbde0b5e8	-0.10972196
135	0x3b44f2d8	0.0030051973
136	0xbddd7bbb	-0.10814615
137	0xbe19237d	-0.14954944
138	0x3e22fefd	0.15917583
139	0xbdb13344	-0.08652356
140	0x3e008b54	0.1255315
141	0x3e230eea	0.15923658
142	0x3d518fde	0.051162593
143	0x3e858cfb	0.26084122
144	0xbe45ab23	-0.19303565
145	0x3d497331	0.04918212
146	0x3e243f5b	0.16039793
147	0x3e2b4f43	0.16729455
148	0x3cd0861e	0.025454577
149	0x3e0b3976	0.13596138
150	0xbc4ea900	-0.012613535
151	0x3e2e8fff	0.17047118
152	0xbdc1fd7c	-0.094721764
153	0x3b555f43	0.0032558
154	0x3d8c8b71	0.06862534
155	0xbd920413	-0.07129683
156	0x3dddf076	0.1083688
157	0xbd353130	-0.044236362
158	0xbe2c977f	-0.16854666
159	0xbe3aced6	-0.18242964
160	0xbd526183	-0.051362526
161	0x3e1a6413	0.15077238
162	0xbe5a34f7	-0.21309267
163	0x3cf9e24c	0.030503415
164	0x3c2a17e8	0.010381676
165	0xbe13d4e9	-0.14436688
166	0xbd45cab6	-0.048289023
167	0x3d9656a7	0.073407464
168	0x3e3cc024	0.18432671
169	0xbcc5f6ba	-0.0241655
170	0xbe7d9edd	-0.24767633
171	0x3e179cb3	0.1480587
172	0x3cd95574	0.026530005
173	0x3d888b1f	0.0666716
174	0xbcdf4bdd	-0.027257854
175	0x3e03156e	0.12801144
176	0x3e1954b7	0.14973722
177	0xbe940c83	-0.28915796
178	0xbdb22853	-0.086990975
179	0xbcd96446	-0.026537072
180	0xbe404781	-0.18777277
181	0x3dce44ac	0.10071692
182	0x3e777410	0.24165368
183	0x3e445780	0.19174004
184	0xbd891660	-0.06693721
185	0x3e7a2fa9	0.24432243
186	0x3da1a4c5	0.078927554
187	0x3c380365	0.011231278
188	0xbd5c530c	-0.053790137
189	0xbd0ed89a	-0.034874536
190	0x3e3150a1	0.17315914
191	0x3d724b99	0.059154127
192	0x3e34b629	0.17647614
193	0xbd65f436	-0.0561411
194	0x3dbc1fc2	0.09185745
195	0xbc2cf327	-0.010556019
196	0xbd533ac9	-0.051569734
197	0x3e421b58	0.18955743
198	0x3dbd22de	0.09235166
199	0xbb7080ed	-0.003669794
200	0x3d940c0a	0.07228859
201	0x3e198986	0.14993867
202	0xbd60ed54	-0.054913834
203	0x3c8afdcb	0.016966721
204	0x3dc5054a	0.096201494
205	0x3db40ecd	0.087918855
206	0xbdc7b321	-0.09750963
207	0xbc49a584	-0.012307528
208	0x3cec358c	0.028834127
209	0x3e6375fc	0.22212976
210	0x3e33805a	0.17529431
211	0x3d2f4008	0.042785674
212	0xbe1ac44b	-0.15113942
213	0x3e06922e	0.131417
214	0xbe07d4cb	-0.13264768
215	0xbe0149d6	-0.12625822
216	0x3de3c123	0.11120822
217	0x3ccf5ee4	0.025313802
218	0x3d28b967	0.04119244
219	0x3e4194a5	0.1890436
220	0x3e174322	0.14771703
221	0x3dfa53ef	0.1222304
222	0x3def036c	0.116705745
223	0xbdc5c334	-0.09656373
224	0x3e41094c	0.18851203
225	0x3e533b85	0.20628174
226	0x3ccb9fa6	0.0248564
227	0x3d9178a2	0.07103087
228	0x3d32e7fb	0.043678265
229	0x3e618561	0.22023536
230	0x3d1e1b6b	0.038600367
231	0x3d52a28e	0.051424555
232	0x3e535a08	0.20639813
233	0xbc8f0c87	-0.017462028
234	0x3df3d705	0.11906246
235	0xbe01694b	-0.12637822
236	0xbe2401db	-0.16016333
237	0x3c8ec981	0.017430069
238	0x3caf153c	0.02137243
239	0x3e5a4169	0.21314014
240	0x3c92900c	0.017890953
241	0x3c9e92c2	0.019357089
242	0x3dabe5bf	0.0839343
243	0x3dd57bf4	0.10424033
244	0xbc9b3b24	-0.018949099
245	0x3d2da0d3	0.042389702
246	0xbe80a3db	-0.25125012
247	0x3e10f7c2	0.14157012
248	0x3d3dc546	0.046330713
249	0x3e2cd70b	0.16878907
250	0x3dd5b002	0.104339615
251	0xbe4e9379	-0.20173444
252	0xbd6a2e05	-0.057172794
253	0x3dd8f0ea	0.10592826
254	0x3e7b53a4	0.24543625
255	0x3d366619	0.04453096

layers.hidden_1.bias f4 [20]
0	0xbe0cdc9e	-0.13756034
1	0xbe325d5c	-0.17418426
2	0x3cda2b82	0.026632074
3	0xbdd71334	-0.105017096
4	0xbe1d7322	-0.15375951
5	0xbe526a88	-0.20548451
6	0x3dce8e55	0.100857414
7	0xbe1fa744	-0.1559115
8	0x3d34c500	0.044133186
9	0xbdf47374	-0.119360834
10	0xbdcfaff8	-0.10140985
11	0x3e51bc44	0.20481974
12	0x3e1da92c	0.15396565
13	0x3dee10fe	0.11624335
14	0xbe02bde1	-0.12767746
15	0xbccb4ee5	-0.024817893
16	0xbd62c8e2	-0.055367358
17	0xbe0807c2	-0.1328421
18	0x3d9f30af	0.077729575
19	0xbdfdaa38	-0.12385982

layers.hidden_2.weight f4 [20, 20]
0	0xbe0e0daa	-0.138724
1	0xbe81acdd	-0.25327197
2	0xbe1f9326	-0.15583476
3	0x3d5f9a95	0.05459078
4	0x3bfe21d5	0.007755498
5	0xbde970cc	-0.113984674
6	0x3defa20b	0.11700829
7	0xbe81052c	-0.25199258
8	0xbd5f8921	-0.054574136
9	0x3d5ab394	0.053393915
10	0x3dfcc003	0.12341311
11	0x3e502905	0.20328148
12	0xbd33f3f6	-0.04393383
13	0xbd2c7895	-0.042107183
14	0xbdff78ba	-0.12474199
15	0xbdf26a42	-0.11836673
16	0xbe14c646	-0.1452876
17	0x3e3e2b61	0.18571235
18	0x3d98b510	0.0745641
19	0x3c8175e9	0.015803294
20	0xbdec57da	-0.11540194
21	0x3e02b594	0.12764579
22	0xbe43e591	-0.19130541
23	0x3d6c9939	0.057763312
24	0xbd6db930	-0.058037937
25	0x3e8a1efb	0.2697676
26	0xbe26df83	-0.162962
27	0x3e148fcb	0.14507978
28	0x3e10a47c	0.14125246
29	0xbe22b6e3	-0.15890078
30	0xbe53190c	-0.20615023
31	0xbc877b87	-0.016538395
32	0xbe0a5f4b	-0.13512914
33	0xbe456576	-0.19276986
34	0x3cc27340	0.023736596
35	0x3b8946d4	0.0041893516
36	0x3e391964	0.18076092
37	0x3e27c493	0.16383581
38	0x3d1c63f8	0.038181275
39	0x3e69a6a6	0.22817478
40	0xbe672f02	-0.22576526
41	0xbdbc9c5b	-0.0920951
42	0x3e1fd2c1	0.1560774
43	0x3e58ab65	0.21159132
44	0x3e782a1f	0.24234818
45	0xbe6d31ea	-0.23163572
46	0xbd929eb8	-0.071591794
47	0xbe27cc5a	-0.16386548
48	0xbd6e04f7	-0.058110204
49	0x3ce9fed9	0.028563904
50	0x3e73e065	0.23816068
51	0xbdd07638	-0.101787984
52	0x3e1221aa	0.14270654
53	0x3ea139e4	0.3148948
54	0xbbca52d6	-0.0061744256
55	0xbc5e59a2	-0.013571175
56	0x3e4c253a	0.19936076
57	0x3e5a90f1	0.21344353
58	0xbdbeeac7	-0.09322124
59	0xbe525ea4	-0.20543915
60	0x3de54449	0.11194665
61	0xbe18872b	-0.14895312
62	0xbd384090	-0.044983447
63	0xbe20c978	-0.15701854
64	0x3d0d017f	0.034425255
65	0x3df0ee0d	0.117641546
66	0x3d5af9fd	0.053461064
67	0xbe59176f	-0.21200345
68	0x3cac8474	0.021059252
69	0x3de35957	0.111010246
70	0x3e51e977	0.20499216
71	0x3d7aa7f0	0.061195314
72	0x3e4d0150	0.20020032
73	0x3e89cf71	0.26916078
74	0x3e10ac26	0.1412817
75	0x3d0cc696	0.034369074
76	0x3e398da3	0.18120436
77	0x3dbb5a3c	0.0914807
78	0xbcdda1e2	-0.02705473
79	0xbe70ac1e	-0.23503157
80	0x3c22c41b	0.0099344505
81	0xbddc0327	-0.10742789
82	0x3dbe8480	0.09302616
83	0x3e221487	0.15828143
84	0x3e4371a0	0.19086313
85	0xbe8c3806	-0.27386492
86	0xbd2ebd84	-0.042661205
87	0xbe2014a6	-0.15632877
88	0xbe538a39	-0.20658197
89	0x3d8de638	0.06928676
90	0x3d01f58d	0.031728316
91	0x3d13a609	0.036047015
92	0x3e73fd5b	0.23827116
93	0x3e1baedf	0.15203427
94	0xbd53b833	-0.051689338
95	0x3e537325	0.20649393
96	0x3e258b36	0.16166386
97	0x3d3c0a2a	0.04590813
98	0xbbe800b8	-0.007080164
99	0xbe1737cb	-0.14767377
100	0x3e6ab995	0.22922356
101	0x3dd2e2eb	0.102971874
102	0xbe3464aa	-0.17616525
103	0x3d0b8770	0.03406471
104	0x3dafead7	0.08589714
105	0x3e46ced8	0.19414842
106	0x3e5c09e0	0.21488142
107	0x3e30a281	0.1724949
108	0xbd10f94a	-0.03539399
109	0xbe4210b7	-0.18951689
110	0x3cbf3def	0.023344962
111	0xbdfa5269	-0.1222275
112	0xbd0e487d	-0.0347371
113	0x3e6b9659	0.23006572
114	0x3b975284	0.004617991
115	0xbe010f77	-0.12603556
116	0x3c95fc90	0.018308908
117	0x3ced1bd2	0.02894393
118	0x3e46b983	0.19406705
119	0x3e8ded58	0.2772014
120	0xbe6691d8	-0.22516572
121	0x3dee18dc	0.11625835
122	0xbdb83043	-0.0899358
123	0xbde1714e	-0.11007939
124	0xbe4ffeda	-0.20312062
125	0xbe7366f0	-0.23769736
126	0xbe29941e	-0.16560408
127	0xbe25f793	-0.16207723
128	0xbc3d6e74	-0.011561979
129	0x3e69478d	0.227812
130	0xbdf2558b	-0.11832722
131	0xbdab9c6d	-0.08379445
132	0x3e17bedd	0.14818902
133	0xbd2ebc97	-0.042660322
134	0x3e16cc26	0.14726314
135	0x3e19ff57	0.1503881
136	0xbe241ef3	-0.16027431
137	0x3d9c9754	0.07646051
138	0xbe542024	-0.20715386
139	0xbe863e55	-0.2621943
140	0xbd3013b1	-0.04298753
141	0xbe524d5e	-0.20537326
142	0xbbbbb3e6	-0.0057282327
143	0x3e6b4d82	0.22978786
144	0x3d097793	0.0335613
145	0xbe75b1e1	-0.23993637
146	0xbc7f4cdb	-0.015582289
147	0x3d9acfa3	0.07559135
148	0xbd398494	-0.045292452
149	0x3d8e8bba	0.069602445
150	0xbe20d003	-0.1570435
151	0x3e23794f	0.15964244
152	0x3d3bae2b	0.045820396
153	0x3e91be74	0.28465617
154	0xbe038b3a	-0.1284608
155	0xbe37b5c5	-0.17940433
156	0xbe3a895e	-0.18216464
157	0xbd1fbebf	-0.03900027
158	0xbe538c8f	-0.20659088
159	0xbe301f26	-0.17199382
160	0x3debdb68	0.11516458
161	0xbe2dd5d9	-0.16976108
162	0xbe38b939	-0.18039407
163	0xbc3d6018	-0.011558555
164	0xbdc31dd4	-0.09527174
165	0xbe9c8bd1	-0.3057542
166	0x3d9e6bfe	0.077354416
167	0xbbeb663d	-0.0071838186
168	0x3daee9c5	0.08540682
169	0xbdda5195	-0.10660092
170	0x3e827dea	0.2548669
171	0x3de96f5e	0.11398195
172	0xbe1c37af	-0.15255617
173	0xbe23dd4e	-0.1600239
174	0x3e0094f2	0.12556818
175	0xbd4d0b3f	-0.050059553
176	0xbc8ffe02	-0.017577175
177	0x3e2a8e22	0.16655782
178	0xbd536eec	-0.051619455
179	0xbc138f94	-0.0090064
180	0x3df6e66d	0.12055669
181	0xbdb65a59	-0.08903951
182	0xbe0f0b11	-0.13969065
183	0x3c90faa6	0.017697643
184	0xbdd6589e	-0.10466121
185	0xbe4991bb	-0.19684498
186	0xbcc11fe1	-0.023574771
187	0xbe0e2e67	-0.13884889
188	0xbdc3b468	-0.09555894
189	0xbde4f6da	-0.11179896
190	0x3eac3de9	0.33640984
191	0xbdd942c5	-0.106084384
192	0xbd6bbe15	-0.057554323
193	0x3e2dae71	0.16961075
194	0x3dd9574a	0.10612352
195	0xbe218608	-0.15773785
196	0x3de038f0	0.1094836
197	0x3e1c9c89	0.15294088
198	0x3e4d0e3e	0.20024964
199	0xbd14445e	-0.036198013
200	0x3da64d43	0.08120205
201	0xbd0d7677	-0.034536805
202	0xbe2e7b85	-0.17039306
203	0xbe2fa3b4	-0.17152292
204	0xbd09e2d8	-0.0336636
205	0x3c072fb9	0.008251124
206	0x3d01a5b5	0.03165217
207	0x3e190835	0.14944537
208	0xbe4da175	-0.20081122
209	0x3de54f4d	0.11196766
210	0x3d188f89	0.03724626
211	0x3e3c4f90	0.18389726
212	0x3e0c61c9	0.13709177
213	0x3e73bfd2	0.23803642
214	0xbe91713c	-0.28406703
215	0xbe0687dd	-0.13137765
216	0x3c135c29	0.008994141
217	0xbd6cac53	-0.05778153
218	0x3df3218e	0.118716344
219	0xbe65d7bf	-0.22445582
220	0xbe6b3370	-0.2296884
221	0xbe9a707f	-0.30163953
222	0x3cc42a3a	0.023945916
223	0x3e42eafb	0.1903495
224	0xbe2d4123	-0.16919379
225	0xbdc3769e	-0.09544109
226	0x3d5cb3f6	0.05388256
227	0xbe64a132	-0.22327116
228	0xbd68b690	-0.05681473
229	0x3dee5bd3	0.11638608
230	0x3df8952a	0.12137826
231	0x3e4dc518	0.20094717
232	0x3e2f5ad6	0.17124495
233	0x3e190fd4	0.14947444
234	0x3c281094	0.010257859
235	0xbe181b84	-0.14854246
236	0xbcd6b9f4	-0.026211716
237	0x3de154db	0.11002513
238	0xbd1893e2	-0.037250407
239	0xbe1f9067	-0.15582429
240	0x3e086353	0.13319139
241	0x3e4957dd	0.19662423
242	0x3d11152d	0.035420585
243	0x3e3c827d	0.18409152
244	0xbe31e46f	-0.17372297
245	0xbe05cfd6	-0.13067564
246	0xbd0526a8	-0.03250757
247	0xbd199ecb	-0.037504952
248	0x3e12a970	0.14322448
249	0xbdd946d9	-0.10609216
250	0xbd799d08	-0.060940772
251	0x3e413e5c	0.18871444
252	0x3d7b51d4	0.061357334
253	0x3e0ec16e	0.13940975
254	0x3e868e74	0.26280558
255	0xbe2ed0da	-0.17071858

layers.hidden_2.bias f4 [20]
0	0xbd9dc0a0	-0.07702756
1	0xbcefa8c8	-0.029255286
2	0xbde4c553	-0.11170449
3	0x3b49cf98	0.0030793902
4	0x3e5fa93b	0.218419
5	0xbd8b6c5f	-0.068077795
6	0xbe0abb18	-0.13547933
7	0x3e15e0fc	0.14636606
8	0xbe3e63fb	-0.18592827
9	0xbbbd5f82	-0.0057792077
10	0xbda98da0	-0.08278966
11	0x3dc11c29	0.09429199
12	0x3d538a71	0.0516457
13	0x3c90e8fb	0.017689219
14	0xbe2224e1	-0.1583438
15	0xbd8b2f81	-0.0679617
16	0xbe3f2bc2	-0.18669036
17	0xbcf633f7	-0.030054076
18	0xbe19d3ae	-0.15022156
19	0x3e5f819f	0.2182679

layers.hidden_3.weight f4 [20, 20]
0	0xbdd7bca2	-0.10534026
1	0xbe5a624d	-0.21326561
2	0x3de531ab	0.11191114
3	0xbd1fa5e1	-0.038976554
4	0x3d203763	0.03911532
5	0xbd995063	-0.07486036
6	0x3c13ee69	0.009029009
7	0xbd4e4bb0	-0.05036515
8	0xbd93cd28	-0.07216865
9	0x3c26f3b5	0.01018994
10	0xbbf21822	-0.0073881308
11	0x3e4682d5	0.19385846
12	0x3e27adc5	0.16374882
13	0xbe08aba8	-0.13346732
14	0xbe4754a3	-0.1946588
15	0xbdae8a13	-0.08522429
16	0x3dec1124	0.11526707
17	0x3e1cc1a5	0.15308245
18	0xbbdcce34	-0.0067384485
19	0xbe61f65b	-0.22066633
20	0xbe50c7cd	-0.20388718
21	0x3e21618c	0.15759867
22	0x3d25c0c2	0.04046703
23	0xbe622e24	-0.22087914
24	0xbe26ee53	-0.16301851
25	0xbd7c7cea	-0.061642565
26	0xbe711346	-0.23542508
27	0x3de88a81	0.113545425
28	0x3e6aaed5	0.22918256
29	0x3e10dcf9	0.14146794
30	0x3da35e89	0.079770155
31	0xbe54209a	-0.20715562
32	0x3e6360f5	0.22204955
33	0x3dc72dde	0.09725545
34	0xbd854e0d	-0.06509028
35	0xbe2e3f11	-0.17016245
36	0xbd5245ae	-0.051335983
37	0x3e27e933	0.16397552
38	0xbe5968f6	-0.21231446
39	0xbe7a6632	-0.24453047
40	0x3ded7531	0.11594618
41	0x3b0331b7	0.0020018646
42	0xbd247552	-0.040150948
43	0xbdd38f14	-0.10330024
44	0x3bf19fe1	0.0073737954
45	0xbdc7b5fc	-0.09751508
46	0x3def1912	0.11674704
47	0xbcd16be0	-0.025564134
48	0x3e5b8440	0.21437168
49	0x3e3503bd	0.17677207
50	0x3e6f0d16	0.23344836
51	0x3e3d0a68	0.18461001
52	0x3e29b3f7	0.16572557
53	0x3d8972ca	0.067113474
54	0x3bbc5c10	0.0057482794
55	0x3e559a45	0.2085963
56	0xbe2ae162	-0.16687539
57	0xbd2a8a18	-0.041635603
58	0x3e6a3733	0.2287262
59	0xbdf90d30	-0.121607184
60	0x3e0cab4b	0.13737218
61	0xbe1db0cb	-0.15399472
62	0x3c99b927	0.018765045
63	0xbc94c15c	-0.018158607
64	0xbdf21310	-0.11820042
65	0x3d118fee	0.035537653
66	0x3d816f0a	0.06320007
67	0xbb1e84e5	-0.0024188098
68	0xbe26ad1c	-0.16276973
69	0xbe0b6304	-0.1361199
70	0xbd3432b8	-0.04399368
71	0x3e611229	0.21979584
72	0x3de3adf1	0.11117161
73	0xbe6a97b3	-0.22909431
74	0x3e442d62	0.19157937
75	0xbe19be2f	-0.15013956
76	0x3e056fcd	0.1303093
77	0x3e19f45a	0.15034619
78	0x3e399391	0.18122698
79	0x3e04598a	0.12924781
80	0x3e806cec	0.250831
81	0xbe8b066a	-0.2715333
82	0xbc1309c5	-0.008974497
83	0xbde8af7c	-0.11361596
84	0x3ea04dd9	0.31309393
85	0xbdaff643	-0.085918926
86	0x3dabc6b3	0.08387508
87	0x3db7961f	0.0896418
88	0xbc00292c	-0.007822316
89	0x3e594021	0.2121587
90	0xbcb89a9b	-0.02253466
91	0x3e9cd363	0.30630025
92	0xbe730d4e	-0.23735544
93	0x3e0a5231	0.13507916
94	0xbd9450be	-0.07241963
95	0xbda78d07	-0.08181196
96	0x3d260260	0.04052961
97	0xbc9854b4	-0.018595077
98	0x3b615789	0.003438445
99	0xbd9335fe	-0.071880326
100	0xbe5b4229	-0.21411957
101	0xbce7909b	-0.028267195
102	0xbe77042a	-0.24122682
103	0x3e155ad6	0.14585432
104	0xbe121fd8	-0.1426996
105	0xbe105995	-0.14096673
106	0x3d7f201b	0.062286478
107	0xbe13dd37	-0.14439856
108	0xbe0a30e8	-0.13495219
109	0xbe5f41d0	-0.21802449
110	0x3e2f174b	0.1709873
111	0x3d9188e8	0.07106191
112	0x3e6152da	0.22004262
113	0xbe2ea90a	-0.17056671
114	0x3e34d3df	0.17658947
115	0xbe4300a6	-0.19043216
116	0x3bce5810	0.006297119
117	0xbe48c201	-0.19605257
118	0xbe2c42f0	-0.1682241
119	0x3da93197	0.08261412
120	0x3de5b99e	0.11217044
121	0xbe70abb3	-0.23502998
122	0x3e3a4a6c	0.18192452
123	0xbc7e7522	-0.015530856
124	0x3df7a940	0.12092829
125	0xbdd5cfd4	-0.10440031
126	0xbd603923	-0.05474199
127	0x3e07e297	0.13270031
128	0x3e1637ca	0.1466972
129	0x3dd37b9f	0.10326313
130	0x3ca2b82f	0.019863216
131	0x3db2004b	0.08691462
132	0x3e345cd7	0.1761354
133	0xbcfbaddc	-0.030722551
134	0xbdee875d	-0.11646912
135	0x3c867c81	0.01641679
136	0xbe34836a	-0.17628255
137	0x3d8c6a9d	0.06856272
138	0xbc86f789	-0.016475456
139	0xbe0e7b59	-0.13914241
140	0x3ddb323e	0.10702942
141	0x3da18fea	0.078887776
142	0xbd9d638e	-0.07685004
143	0x3d2f8f2d	0.042861152
144	0xbe95b86e	-0.2924227
145	0x3e0ccfe2	0.13751176
146	0xbda00f53	-0.07815423
147	0xbe846223	-0.25856122
148	0xbdd1be07	-0.10241323
149	0xbb8372ae	-0.0040114736
150	0xbe7111fc	-0.23542017
151	0xbe831d49	-0.2560828
152	0x3e0c4aab	0.13700359
153	0xbd131f09	-0.03591827
154	0x3c1484f3	0.009064901
155	0x3d3724f0	0.04471296
156	0xbe01b096	-0.12665018
157	0xbe865aa1	-0.2624102
158	0xbe33bedf	-0.1755328
159	0x3c65f59d	0.01403561
160	0x3e5f1fc6	0.21789464
161	0x3da2e147	0.079531245
162	0x3e165683	0.14681439
163	0x3e834b3f	0.25643346
164	0x3e8a5f9c	0.2702607
165	0x3e459762	0.19296029
166	0x3e22d483	0.1590138
167	0x3d3d417c	0.04620503
168	0xbdef6354	-0.11688867
169	0x3db752bd	0.08951328
170	0xbd74e238	-0.05978605
171	0xbd00c36a	-0.03143636
172	0x3b83aabd	0.0040181563
173	0xbc840fdf	-0.01612085
174	0x3e2e29f2	0.17008188
175	0x3db17286	0.08664422
176	0x3df49ac1	0.119435795
177	0x3e1b4f1f	0.15166901
178	0x3e171429	0.14753784
179	0x3dee1040	0.11624193
180	0xbe0fc131	-0.1403854
181	0x3d9c0601	0.07618333
182	0xbe132759	-0.14370479
183	0x3d0805bd	0.033208597
184	0x3e0a95b0	0.13533664
185	0xbd682c4d	-0.056682874
186	0xbdac89a1	-0.08424688
187	0x3d3ca56d	0.0460562
188	0xbdc7795b	-0.097399436
189	0x3d8f1ed1	0.069883
190	0x3dc8a339	0.09796757
191	0x3e526154	0.2054494
192	0x3d5f617c	0.054536328
193	0xbda49346	-0.08035903
194	0xbe06cb40	-0.13163471
195	0xbdc77e43	-0.097408794
196	0x3dab3537	0.08359759
197	0xbd73b565	-0.059499163
198	0x3e8b4c19	0.27206495
199	0xbcf62a52	-0.030049477
200	0xbe2e360f	-0.17012809
201	0xbd66c71b	-0.056342226
202	0x3dccf5c4	0.100078136
203	0x3d4bf013	0.0497895
204	0x3e598863	0.21243434
205	0x3e40f586	0.1884366
206	0x3dd8871f	0.10572647
207	0x3e955f17	0.2917411
208	0xbe54d294	-0.20783454
209	0x3d971321	0.073766954
210	0x3d29f67b	0.041494828
211	0x3d2ac5bc	0.04169248
212	0xbe2c9fa4	-0.16857773
213	0x3e04426e	0.12915966
214	0xbc75eb1b	-0.015009667
215	0x3e424929	0.18973221
216	0xbdc2a5f3	-0.095043086
217	0xbbfc0368	-0.0076908357
218	0x3e60158f	0.21883224
219	0x3d926a85	0.07149223
220	0x3df77e28	0.12084609
221	0x3d1bc7e0	0.038032413
222	0x3e5c3938	0.21506202
223	0xbe00f778	-0.12594402
224	0x3d4bfb9b	0.049800497
225	0xbda8afee	-0.08236681
226	0xbc2e3af3	-0.010634172
227	0x3da545fc	0.08069989
228	0xbdc1b16e	-0.0945767
229	0xbe166ee1	-0.14690734
230	0x3e7b4cc4	0.24541003
231	0x3d68c48a	0.05682806
232	0x3d4a056d	0.04932158
233	0x3e1e0b95	0.15434106
234	0x3e4a9168	0.1978203
235	0x3e73b311	0.23798777
236	0x3e3ce226	0.18445644
237	0x3e00e1db	0.12586157
238	0x3e1c01d9	0.1523508
239	0x3d4f20e7	0.050568487
240	0xbe2c2445	-0.1681071
241	0xb950c863	-0.00019911076
242	0xbd2d141f	-0.042255517
243	0x3d9877c0	0.074447155
244	0xbbc615d9	-0.006045085
245	0xbe2ad1f7	-0.16681658
246	0xbd6b402d	-0.05743425
247	0xbe196697	-0.14980541
248	0x3de36baf	0.111045234
249	0x3aaa81a0	0.0013008602
250	0x3e0bc9b6	0.13651165
251	0x3dec6063	0.11541822
252	0xbcc99d71	-0.024611207
253	0xbe2310fa	-0.15924445
254	0x3e68708a	0.2269918
255	0x3d489ef7	0.048979726

layers.hidden_3.bias f4 [20]
0	0xbc971cee	-0.018446412
1	0x3d13fd5e	0.0361303
2	0x3dafaad7	0.08577507
3	0x3ddbdda2	0.107356325
4	0x3dd06bf3	0.1017684
5	0xbe6e4e96	-0.23272166
6	0xbe235ccd	-0.1595337
7	0xbdf63afd	-0.1202297
8	0x3be02548	0.006840382
9	0x3e53aeb1	0.20672108
10	0x3d6a56b5	0.057211597
11	0x3e02968a	0.12752739
12	0x3d9187c4	0.07105973
13	0xbdd41923	-0.10356357
14	0xbe01e0f0	-0.12683463
15	0xbc87627a	-0.01652645
16	0x3e129457	0.143144
17	0xbdb96382	-0.09052183
18	0x3e135bb3	0.14390449
19	0xbe4d2675	-0.20034201

layers.hidden_4.weight f4 [20, 20]
0	0xbce29dda	-0.02766316
1	0x3db7a946	0.08967833
2	0xbcccd0e4	-0.02500195
3	0xbe3f3df0	-0.18675971
4	0xbe601670	-0.21883559
5	0xbdef09f6	-0.11671822
6	0x3de72e9a	0.112881854
7	0x3e7896f4	0.24276334
8	0xbe17dc41	-0.14830114
9	0x3d987135	0.074434675
10	0x3e0b485f	0.13601826
11	0x3e0202a9	0.12696327
12	0xbe8ad06a	-0.27112132
13	0xbc304046	-0.0107575115
14	0x3d15caba	0.03657029
15	0x3d205e7c	0.039152607
16	0x3d8a9fe9	0.06768782
17	0x3e323092	0.1740134
18	0x3d981cbd	0.074273564
19	0x3d2f3f65	0.042785067
20	0xbcfd317d	-0.030907387
21	0xb9273811	-0.00015947247
22	0x3d819f5d	0.06329224
23	0xbdcd0477	-0.10010617
24	0xbd672225	-0.056429047
25	0x3d7fd3d3	0.06245787
26	0x3cbf909a	0.023384381
27	0xbe8794f9	-0.26480845
28	0x3de8a6e8	0.1135996
29	0x3de80698	0.11329383
30	0x3e2d5f3e	0.16930863
31	0x3e832d4c	0.25620496
32	0xbd3e5797	-0.04647025
33	0xbe6bb094	-0.23016578
34	0x3cc30e5b	0.023810556
35	0xbd7a9d62	-0.06118525
36	0xbe442520	-0.19154787
37	0xbe60dc3c	-0.21959013
38	0x39f246cf	0.00046210593
39	0x3e65c051	0.22436644
40	0x3e4eb095	0.20184548
41	0xbe5c4021	-0.21508838
42	0x3d78d6bd	0.060751665
43	0x3e017c58	0.1264509
44	0x3ac4c54a	0.001501241
45	0xbe330578	-0.17482555
46	0x3ddc13bd	0.10745952
47	0x3e27af45	0.16375454
48	0x3e1cca8a	0.15311638
49	0xbc247c98	-0.010039471
50	0x3e5afc4c	0.21385306
51	0xbceff8b1	-0.02929339
52	0x3e61e8a7	0.22061406
53	0xbe63ddc4	-0.22252566
54	0xbd12bc09	-0.035823856
55	0x3e28f4d0	0.16499639
56	0x3d8256c2	0.06364204
57	0xbe48778e	-0.19576856
58	0xbe07107f	-0.13189887
59	0xbd3f3a76	-0.046686612
60	0xbce3e194	-0.027817525
61	0xbd23a0bd	-0.039948214
62	0xbe54d8a3	-0.20785765
63	0x3d67d0d0	0.056595623
64	0xbd9324b2	-0.071847335
65	0x3e28fd7d	0.16502948
66	0xbe5cf641	-0.21578313
67	0xbd832c37	-0.06404918
68	0x3e70fd7d	0.23534198
69	0xbd96e517	-0.07367914
70	0x3da303ad	0.079596855
71	0x3d68a325	0.05679621
72	0x3e6fce81	0.23418619
73	0xbe2bc60b	-0.16774766
74	0xbd167b4a	-0.03673867
75	0xbe408a1f	-0.18802689
76	0x3d1cc099	0.038269613
77	0x3b5ed1cf	0.0033999567
78	0xbd97a944	-0.07405332
79	0x3e22daa3	0.15903716
80	0x3c1c2962	0.009531351
81	0xbd1d3888	-0.03838399
82	0xbe32450e	-0.17409155
83	0x3e09b40c	0.13447589
84	0x3dcd8908	0.10035902
85	0xbe727de1	-0.23680831
86	0x3deb8cd0	0.11501467
87	0xbd982a9a	-0.074300006
88	0x3d9cbed5	0.07653586
89	0xbda172a4	-0.07883194
90	0x3e6597a0	0.22421122
91	0xbda1f6e7	-0.07908421
92	0xbd042420	-0.032261014
93	0x3d912f77	0.07089131
94	0xbc99a05a	-0.01875322
95	0x3e73bc57	0.23802315
96	0xbd1c8a41	-0.038217787
97	0x3dc40406	0.0957108
98	0x3d1a269b	0.037634473
99	0x3d8c3645	0.068462886
100	0x3da0b45f	0.07846903
101	0xbe59c214	-0.21265441
102	0x3dd46874	0.10371485
103	0x3dd2bcfc	0.10289952
104	0xbe1fb725	-0.15597208
105	0x3e8ca52f	0.27469775
106	0xbe44ad4d	-0.19206734
107	0x3e3e40df	0.18579434
108	0xbe37f854	-0.17965823
109	0xbbd535a3	-0.006506638
110	0xbe73a554	-0.23793536
111	0xbda07312	-0.07834448
112	0xbbfbf6ef	-0.007689349
113	0x3dd903e6	0.10596447
114	0x3d87c211	0.06628812
115	0xbb3ee8fe	-0.0029130573
116	0xbe1f42c7	-0.15552817
117	0xbce39f66	-0.027785968
118	0x3dc69bfc	0.096977204
119	0x3d4f847f	0.050663467
120	0x3e5d364d	0.21602745
121	0x3daf8642	0.085705295
122	0xbe2e9071	-0.17047288
123	0x3e762212	0.24036434
124	0x3e5b5782	0.214201
125	0xbe6d76b2	-0.2318981
126	0xbe2cef6b	-0.16888206
127	0xbe443607	-0.19161235
128	0x3d4cc65b	0.049993854
129	0xbd7c6dd5	-0.06162818
130	0x3e4362fc	0.19080728
131	0xbd842443	-0.06452229
132	0xbe4e3bde	-0.20140025
133	0x3e34fe2e	0.17675087
134	0x3e837c85	0.25680938
135	0x3e7bfd86	0.2460843
136	0x3ac51dcc	0.0015038787
137	0xbd22902a	-0.039688267
138	0x3df1f1fc	0.11813733
139	0xbe19c1fa	-0.15015402
140	0x3e09a669	0.13442387
141	0xbd9e499d	-0.07728884
142	0x3e4d0ad9	0.2002367
143	0xbe21f835	-0.1581734
144	0x3ab51519	0.0013815492
145	0xbe8af80b	-0.27142367
146	0x3e2a5524	0.16634041
147	0xbdfae8f6	-0.12251465
148	0x3e7a6a69	0.24454655
149	0x3d6d1918	0.05788526
150	0xbc99727e	-0.018731352
151	0xbe1fd9a8	-0.15610373
152	0x3e47e609	0.19521345
153	0xbd6a1d39	-0.057156775
154	0x3c9ef1ff	0.019402502
155	0xbcf4cc24	-0.029882498
156	0x3db6ae3f	0.089199536
157	0xbe58722e	-0.21137306
158	0xbd54f1f8	-0.051988572
159	0x3e1340b6	0.14380154
160	0xbb6401df	-0.0034791154
161	0xbdf2d21f	-0.11856484
162	0x3e731cb6	0.23741421
163	0xbe311680	-0.1729374
164	0x3e8a5bc1	0.27023128
165	0x3e291417	0.1651157
166	0xbde64f49	-0.11245591
167	0xbd719fff	-0.058990475
168	0x3e08e440	0.1336832
169	0x3e0fd8d9	0.14047565
170	0xbc6c5a5f	-0.014425843
171	0x3e44b91c	0.19211239
172	0x3d248a60	0.040171027
173	0x3ddea037	0.10870402
174	0x3e0bb87e	0.13644597
175	0x3de96f7e	0.113982186
176	0x3de10939	0.10988087
177	0xbe851212	-0.2599035
178	0xbe80d244	-0.2516042
179	0xbe313643	-0.17305855
180	0xbd1cd83f	-0.038292166
181	0x3e2b7a3a	0.16745844
182	0x3dd81a25	0.10551862
183	0xbccdc7f9	-0.025119768
184	0x3c78ab16	0.015177509
185	0xbde22e26	-0.11043958
186	0x3e4fc697	0.202906
187	0xbe8f1d57	-0.27952072
188	0x3e648257	0.22315346
189	0x3e3f0837	0.18655477
190	0x3b36e366	0.0027906536
191	0x3e379698	0.1792854
192	0xbe0cefa1	-0.13763286
193	0x3e487ffb	0.1958007
194	0xbe1479de	-0.14499614
195	0x3e7d58b7	0.24740873
196	0xbdf773f2	-0.12082662
197	0xbb4f68e8	-0.0031648222
198	0xbe665775	-0.224943
199	0x3e2c6e74	0.1683901
200	0xbe82e0eb	-0.25562224
201	0x3d9cd44e	0.076576814
202	0xbe264b15	-0.16239579
203	0xbddbfeb0	-0.10741937
204	0xbde46f53	-0.11154046
205	0xbdd88cb1	-0.1057371
206	0xbe0c50fc	-0.13702768
207	0x3e3e7d68	0.18602526
208	0x3dbd83d7	0.09253662
209	0xbdcaed18	-0.09908503
210	0x3e04ae2d	0.12957068
211	0xbe20ea38	-0.15714347
212	0xbdfcddb2	-0.123469725
213	0x3e1c356f	0.15254758
214	0x3e16bb72	0.14719942
215	0xbe5f54c7	-0.21809684
216	0xbe2e785e	-0.17038104
217	0xbdd4eb40	-0.10396433
218	0xbe012e1c	-0.12615246
219	0x3e2a4c1a	0.16630593
220	0x3d579c55	0.052639324
221	0xbd2097f1	-0.039207403
222	0xbe29f229	-0.16596283
223	0x3d1a67e1	0.037696723
224	0x3cb931aa	0.02260669
225	0x3e946cdd	0.28989306
226	0xbe8750b7	-0.26428768
227	0x3c30fb19	0.010802054
228	0x3d2fa150	0.04287845
229	0x3e37f351	0.17963912
230	0xbe03ddbe	-0.12877557
231	0xbcf30ea0	-0.02967006
232	0x3e2e918f	0.17047714
233	0xbdc058cc	-0.09391937
234	0xbd8187da	-0.0632474
235	0xbe4204d6	-0.18947157
236	0x3d248724	0.040167943
237	0xbd74a875	-0.059730966
238	0xbd5d6f86	-0.054061435
239	0x3e3fab93	0.18717794
240	0xbd608d2d	-0.054822136
241	0x3de0a0ea	0.10968192
242	0x3c949b82	0.018140558
243	0xbe5da394	-0.21644431
244	0x3d40df34	0.047087863
245	0x3e69a558	0.2281698
246	0x3e1693ed	0.14704867
247	0x3e4ecef0	0.20196128
248	0x3d664a4f	0.05622321
249	0x3e583bda	0.21116582
250	0x3d2cc039	0.042175505
251	0xbe6c0f90	-0.23052812
252	0xbe3cc143	-0.18433098
253	0x3e80d853	0.25165042
254	0xbe0a6d6f	-0.13518308
255	0x3da4dc12	0.080497876

layers.hidden_4.bias f4 [20]
0	0xbe470379	-0.19434918
1	0x3e1d3fb9	0.1535634
2	0xbbd89c5e	-0.0066104373
3	0x3bb6bdc0	0.005576819
4	0xbda03aea	-0.07823737
5	0x3e1d49de	0.1536021
6	0xbe36fa77	-0.17868982
7	0x3d1f7ab7	0.03893539
8	0x3e0ff19f	0.14057015
9	0x3e382002	0.1798096
10	0xbe0545b0	-0.13014865
11	0x3c64803d	0.01394659
12	0xbd7ecbd4	-0.062206104
13	0x3e21e462	0.15809777
14	0xbe233559	-0.1593832
15	0xbe1df923	-0.1542707
16	0x3e573f6b	0.21020286
17	0x3b80e601	0.0039336686
18	0xbdea1fd3	-0.11431851
19	0x3de26289	0.1105395

layers.hidden_5.weight f4 [20, 20]
0	0x3e4a8af0	0.19779563
1	0xbda8ad18	-0.0823614
2	0xbccf58fc	-0.025310986
3	0xbe100b95	-0.14066918
4	0x3e39b5c8	0.1813575
5	0xbd961f56	-0.073301956
6	0x3cf637e1	0.030055942
7	0x3e8dcce0	0.2769537
8	0x3e80d686	0.25163668
9	0x3da161d8	0.0787999
10	0xbdf11f89	-0.11773593
11	0xbc56c7c3	-0.01310915
12	0xbe479ab1	-0.19492604
13	0x3d0bf0bd	0.034165133
14	0xbddf89fe	-0.10914992
15	0x3e6057af	0.21908449
16	0xbe04d0f2	-0.12970331
17	0x3d032704	0.03201963
18	0x3e27b7b4	0.16378671
19	0x3e6e9c54	0.23301822
20	0x3e2345b4	0.15944558
21	0xbd460c21	-0.04835141
22	0xbd0e21ee	-0.034700327
23	0xbe1335c5	-0.1437598
24	0xbe15034e	-0.14552042
25	0x3e76bd79	0.24095716
26	0x3db7a1a8	0.0896638
27	0x3db846d4	0.089978844
28	0xbe4fe538	-0.20302284
29	0xbd93b27e	-0.07211779
30	0xbe1c1dfc	-0.15245813
31	0x3e4d565d	0.20052476
32	0xbdb73a38	-0.08946651
33	0xbe3692af	-0.17829393
34	0x3e240cf1	0.16020562
35	0xbdcc4cbe	-0.09975575
36	0x3d4d63d8	0.050144047
37	0x3d7d73a7	0.061877873
38	0x3db578eb	0.08860954
39	0xbda7c2ab	-0.08191427
40	0xbd61b645	-0.055105466
41	0x3c73246a	0.014840225
42	0x3c0b0318	0.008484624
43	0x3dbc919a	0.09207459
44	0xbdaaf1ed	-0.08346925
45	0xbe6a46a3	-0.22878508
46	0x3db81e5c	0.089901656
47	0x3e8383ea	0.2568658
48	0xbd44d675	-0.048056085
49	0xbca8a18a	-0.02058484
50	0xbe656369	-0.22401203
51	0xbe09707b	-0.13421814
52	0x3c452a4b	0.012034009
53	0xbdaa40f5	-0.08313171
54	0x3cbc42dc	0.0229811
55	0x3d4278fa	0.047478653
56	0x3e3c8a48	0.18412125
57	0x3d93bad2	0.072133675
58	0xbd45ab82	-0.048259266
59	0x3d2a6aa9	0.041605625
60	0x3dbc48a4	0.091935426
61	0x3d921bb4	0.0713419
62	0x3e50724e	0.20356104
63	0x3d22551f	0.03963196
64	0x3d7ab39e	0.061206453
65	0xbe8caa2c	-0.2747358
66	0x3e1faf62	0.15594247
67	0x3e82f73a	0.25579244
68	0x3ded047b	0.1157312
69	0x3d07f1a4	0.03318943
70	0x3d62b328	0.055346638
71	0x3daed5ff	0.0853691
72	0x3e1f3e05	0.15551002
73	0x3e72f80d	0.23727436
74	0x3ade6312	0.0016966781
75	0x3e8532cd	0.2601532
76	0xbe3cdca5	-0.18443544
77	0x3dd63bff	0.10460662
78	0x3cfcc48e	0.030855443
79	0x3d8020b7	0.0625624
80	0x3d603a62	0.05474318
81	0xbd5cb35c	-0.053881988
82	0xbdcbd721	-0.09953142
83	0xbe39f12f	-0.1815841
84	0x3e09c26a	0.1345307
85	0x3dc7eb81	0.09761716
86	0x3ca1a237	0.01973067
87	0x3c3a6de3	0.011378738
88	0xbe6a8f51	-0.22906233
89	0xbe7c490f	-0.24637245
90	0x3c5a211e	0.01331356
91	0x3dfdb809	0.123886175
92	0x3e313f56	0.17309317
93	0xbd4f2cc8	-0.050579816
94	0xbe19e11e	-0.15027282
95	0x3daf1625	0.085491456
96	0xbe5e7458	-0.21724069
97	0x3d8d1ad5	0.068898834
98	0xbe0b948f	-0.1363089
99	0xbc48e2ef	-0.012261136
100	0x3da1d183	0.07901289
101	0xbd4a1183	-0.049333107
102	0xbe1cbf73	-0.15307407
103	0x3e6c2a35	0.23062976
104	0x3e3e7b73	0.1860178
105	0x3e8db402	0.27676398
106	0xbd1f2396	-0.038852297
107	0x3de30f44	0.11086896
108	0x3e364513	0.17799787
109	0xbda8f2be	-0.082494244
110	0x3e40a1ba	0.18811694
111	0xbddf44b5	-0.10901777
112	0x3e58f895	0.21188577
113	0xbe861c0e	-0.2619328
114	0xbcb6dbd8	-0.022321627
115	0xbdd414ab	-0.103555046
116	0xbc5657e2	-0.013082476
117	0x3c84065f	0.01611632
118	0xbe14a9b5	-0.14517863
119	0xbe5d7bea	-0.216293
120	0xbe75d568	-0.2400719
121	0x3e32461b	0.17409556
122	0x3e51e7c7	0.20498572
123	0x3e4e561d	0.20150037
124	0xbe308690	-0.17238832
125	0x3d46f476	0.04857298
126	0x3e8a2cc6	0.26987284
127	0x3dbf0cf6	0.09328644
128	0x3e5887d4	0.21145564
129	0x3e3a5372	0.18195894
130	0x3d76543f	0.060138937
131	0x3d9df646	0.077129886
132	0xbe08cb4a	-0.13358799
133	0x3e8bc8bb	0.27301583
134	0xbd0d7143	-0.034531843
135	0xbe056ef0	-0.130306
136	0x3e8205c5	0.25395027
137	0xbd784156	-0.060609184
138	0xbd3b977c	-0.045798764
139	0xbc8b9ac6	-0.017041575
140	0xbd6f7f85	-0.05847122
141	0xbe0e6f17	-0.13909565
142	0x3e19de40	0.15026188
143	0x3d1ff971	0.039056245
144	0xbd97f930	-0.074205756
145	0xbc95ff93	-0.018310344
146	0x3d4bb1b3	0.049730014
147	0xbe866733	-0.2625061
148	0xbe1617ab	-0.14657466
149	0xbe1e0118	-0.15430105
150	0x3dcb063a	0.09913297
151	0x3e0a5ca6	0.13511905
152	0x3e6826fa	0.22671118
153	0xbdd115c2	-0.10209228
154	0xbca18f39	-0.019721614
155	0xbde33c96	-0.1109554
156	0xbe812093	-0.25220165
157	0xbe01b11e	-0.12665221
158	0xbe0ab4b9	-0.13545503
159	0x3d82f82e	0.06394993
160	0x3e52339f	0.20527504
161	0xbc874bfc	-0.016515724
162	0xbe6abb3a	-0.22922984
163	0xbca9c368	-0.02072306
164	0xbda5746f	-0.080788486
165	0x3e86224a	0.26198035
166	0xbe80b2c0	-0.25136375
167	0xbd504f13	-0.05085666
168	0xbe6f39e6	-0.2336193
169	0xbe61423f	-0.21997927
170	0xbdf32bdb	-0.11873599
171	0xbc8a0d16	-0.016851943
172	0xbe3e4f83	-0.18585019
173	0xbd3a0310	-0.045413077
174	0xbde762b5	-0.11298124
175	0xbd69418d	-0.05694728
176	0xbdcf9372	-0.10135545
177	0xba086491	-0.0005202974
178	0x3de07436	0.109596655
179	0xbcb44199	-0.022003936
180	0xbdd7f650	-0.10545027
181	0xbe2ff5a3	-0.17183547
182	0xbdb6f8f8	-0.08934206
183	0x3df1bc7c	0.11803529
184	0x3e175bbf	0.14781092
185	0x3e3c64e4	0.18397862
186	0xbdef1d61	-0.116755255
187	0xbd4bba0c	-0.049737975
188	0xbd75e943	-0.06003691
189	0x3e068498	0.13136518
190	0x3e7b6797	0.24551235
191	0x3ddd296d	0.10798917
192	0x3e1d66f8	0.1537131
193	0x3e150f48	0.1455661
194	0xbe6ead2c	-0.23308247
195	0xbe6e0ce1	-0.232471
196	0x3e033ac3	0.12815385
197	0x3e1aef9e	0.15130469
198	0xbd27b679	-0.040945504
199	0x3cc26d34	0.023733713
200	0x3e50a36f	0.20374845
201	0xbf0a4138	-0.54005766
202	0xbe19ab6b	-0.15006797
203	0xbe8813e8	-0.26577687
204	0xbe35095f	-0.17679356
205	0xbe5ccb42	-0.21561912
206	0x3e3af0ba	0.18255892
207	0x3e7413bd	0.23835655
208	0x3d811bd3	0.06304135
209	0x3e31f918	0.17380178
210	0xbd0010ed	-0.03126614
211	0xbecdc480	-0.4018898
212	0x3ddbd561	0.10734058
213	0xbe798911	-0.24368693
214	0x3abaecbe	0.0014261228
215	0xbd6b193b	-0.05739711
216	0xbc737f8f	-0.014861955
217	0xbe57507c	-0.21026796
218	0xbdbec61c	-0.0931513
219	0xbd42a8bf	-0.04752421
220	0x3e3020de	0.17200038
221	0x3b3122c3	0.0027028776
222	0x3e38ce9a	0.18047562
223	0xbe45631e	-0.19276091
224	0x3e4c895b	0.19974272
225	0xbcf1c6c7	-0.02951373
226	0x3c33586f	0.010946377
227	0x3e804047	0.2504904
228	0xbd310ff5	-0.04322811
229	0xbe167ff8	-0.14697254
230	0xbda694d7	-0.08133858
231	0xbe594f76	-0.21221718
232	0x3e06a5e8	0.13149226
233	0xbda62cc3	-0.08114006
234	0x3d912518	0.07087153
235	0x3e3ee9ed	0.18643923
236	0x3e4dc6a7	0.20095311
237	0xbcf1fd3a	-0.029539693
238	0x3c98699a	0.018605042
239	0x3e2d1df5	0.16905959
240	0x3e5f1525	0.2178541
241	0xbd2360bb	-0.03988717
242	0x3e21a166	0.15784225
243	0x3c7290f4	0.014805067
244	0xbd241628	-0.040060192
245	0xbe2391ff	-0.15973662
246	0xbdfaa4e8	-0.122384846
247	0x3ddfd436	0.10929148
248	0xbdef7ff5	-0.11694328
249	0xbd31540b	-0.04329304
250	0xbe64a89a	-0.22329941
251	0xbc45960e	-0.012059702
252	0xbcc33aca	-0.023831744
253	0x3ddfb92b	0.1092399
254	0x3de41048	0.11135918
255	0x3c9379c4	0.018002398

layers.hidden_5.bias f4 [20]
0	0xbd42dd49	-0.047574315
1	0x3e3e405f	0.18579243
2	0xbe418e51	-0.18901946
3	0xbd43c26c	-0.047792837
4	0xbe03048a	-0.127947
5	0xbd7cb0da	-0.061692096
6	0x3e0b1edd	0.13585992
7	0xbdf041cb	-0.11731299
8	0x3daf8b51	0.08571494
9	0xbe1c47af	-0.1526172
10	0x3e2919f5	0.16513808
11	0x3e64cc2e	0.22343513
12	0xbe0261b7	-0.12732588
13	0xbe1fbeaf	-0.15600084
14	0xbdce267f	-0.10065936
15	0xbb2fd71d	-0.0026831098
16	0xbdf35378	-0.11881155
17	0xbe570e45	-0.21001537
18	0xbd65e7a6	-0.05612912
19	0xbd2cc45d	-0.042179454
