PINNS/HeatEq/models/checkpoints_Adam/best_dict.pt (torch, 66941 bytes, 43 tensors)

layers.input.weight f4 [20, 2]
0	0x3d282315	0.04104908
1	0xbe814a69	-0.25252083
2	0xbe5205c5	-0.20510013
3	0x3f120c07	0.570496
4	0x3cb9b14a	0.022667546
5	0x3f240ab1	0.64078814
6	0x3f206da0	0.62667274
7	0x3f064025	0.52441627
8	0x3f240a22	0.6407796
9	0xbf1e8c6d	-0.6193302
10	0x3d7844a2	0.06061233
11	0x3df6cb93	0.120505475
12	0xbf0564e4	-0.5210707
13	0xbf36c5ea	-0.7139574
14	0x3f29c532	0.6631652
15	0xbd601235	-0.054704864
16	0x3f1d1bb7	0.61370414
17	0x3ef58737	0.47954723
18	0x3ebb3908	0.3656695
19	0x3e5fbdc5	0.21849735
20	0x3ee8e370	0.4548602
21	0x3f042d27	0.51631397
22	0xbe00b9e3	-0.1257091
23	0xbdaa34c4	-0.083108455
24	0x3e0e68b4	0.13907129
25	0xbd74e300	-0.059786797
26	0xbeaae6c0	-0.33379173
27	0x3efb4702	0.49077612
28	0x3eafd680	0.34343338
29	0xbf220c34	-0.6329987
30	0xbe8866bb	-0.26640877
31	0xbd736c6e	-0.05942958
32	0x3f1eeddd	0.620817
33	0xbe571d0c	-0.21007174
34	0x3ef6af7d	0.48180762
35	0x3ef5df01	0.480217
36	0x3f35e273	0.7104866
37	0xbde97401	-0.11399079
38	0xbe1a66d7	-0.15078293
39	0x3ee35821	0.44403175

layers.input.bias f4 [20]
0	0xbf0b62cb	-0.5444762
1	0xbf05c0f0	-0.52247524
2	0xbe975ae6	-0.29561538
3	0x3df8fb0e	0.1215726
4	0x3f1e00b9	0.6171985
5	0xbf245441	-0.6419106
6	0x3ebc711d	0.3680505
7	0x3efaf642	0.49016005
8	0x3ddb8a21	0.107197054
9	0x3f36e657	0.7144522
10	0x3ebb4a16	0.3657996
11	0xbf18d574	-0.59700704
12	0x3ed2232c	0.4104246
13	0xbdf56582	-0.11982252
14	0xbf41609d	-0.75538045
15	0xbf1b6b10	-0.6071024
16	0x3ca1c891	0.019748958
17	0xbef94820	-0.4868784
18	0x3f0658a7	0.5247902
19	0x3eda093a	0.42585164

layers.hidden_0.weight f4 [20, 20]
0	0xbdebe691	-0.115185864
1	0x3e23cd27	0.15996228
2	0x3e8937fd	0.26800528
3	0xbdfc23de	-0.123115286
4	0xbe3deffa	-0.18548575
5	0xbd8732e2	-0.06601502
6	0x3e207a43	0.15671639
7	0xbd93fec8	-0.0722633
8	0xbded9c3e	-0.116020665
9	0xbe309a94	-0.17246467
10	0xbd1aca2e	-0.03779047
11	0x3e0e1286	0.13874254
12	0x3e34d402	0.17659
13	0x3e326bb3	0.17423896
14	0x3e16fc60	0.14744711
15	0x3d9f681d	0.0778353
16	0xbd3d0453	-0.046146702
17	0x3c07bdc3	0.008284989
18	0x3c95d66c	0.01829072
19	0x3e4cdc0b	0.20005815
20	0x3dff48c8	0.12465054
21	0x3c5ab5a4	0.013348971
22	0x3e37f6dc	0.17965263
23	0x3cb94c4b	0.022619387
24	0xbcfc600a	-0.030807514
25	0xbd65140e	-0.05592733
26	0xbe4cf41d	-0.20014997
27	0xbe57fd38	-0.21092689
28	0xbd63aff1	-0.055587713
29	0xbe8c6b21	-0.27425483
30	0xbe91a131	-0.28443292
31	0x3df8206d	0.1211556
32	0xbd4c88c4	-0.049935117
33	0x3e5ba085	0.21447952
34	0x3e8abce5	0.2709724
35	0x3e499b6c	0.19688195
36	0xbe4eab17	-0.20182453
37	0x3c665347	0.014057941
38	0xbe31d0d3	-0.17364816
39	0x3d97bb31	0.07408751
40	0xbdcd249d	-0.10016749
41	0x3e061f3e	0.13097855
42	0x3d466f75	0.048446137
43	0xbd0a770f	-0.03380495
44	0x3cd112c0	0.025521636
45	0xbdd75b60	-0.10515475
46	0xbd67e672	-0.056616254
47	0x3e7867e1	0.24258377
48	0x3d48cd90	0.049024165
49	0x3e0348ec	0.12820786
50	0x3e134a10	0.14383721
51	0x3e0c754b	0.13716619
52	0x3c984fce	0.018592741
53	0xbe4c8358	-0.19971979
54	0xbe541772	-0.20712069
55	0xbe42eec3	-0.19036393
56	0xbdce6071	-0.100769885
57	0x3e01536f	0.12629484
58	0x3e92c14f	0.28663108
59	0x3bead9ad	0.0071670623
60	0x3be37fdb	0.006942732
61	0x3e56564d	0.20931359
62	0xbe08985d	-0.13339372
63	0xbdd2e1aa	-0.10296948
64	0xbe27c0bd	-0.16382118
65	0xbcc5d539	-0.024149524
66	0xbccccc30	-0.024999708
67	0x3d61f67d	0.05516671
68	0xbe300e16	-0.17192873
69	0xbdfb9242	-0.12283756
70	0xbdc1bf5a	-0.094603255
71	0x3e2fd69a	0.17171708
72	0x3db3a347	0.08771377
73	0xbd22d0da	-0.039749958
74	0xbb8fa16c	-0.0043832567
75	0xbdafcc5e	-0.08583902
76	0xbd02f422	-0.031971104
77	0x3db084b9	0.08619065
78	0xbe63fd00	-0.2226448
79	0xbddf6849	-0.10908563
80	0x3d12675a	0.035743095
81	0xbdc4a740	-0.09602213
82	0x3d8c2f04	0.06844905
83	0xbe3a97e4	-0.18222004
84	0x3a0f397e	0.0005463584
85	0xbd010405	-0.031497974
86	0xbe41ba9f	-0.18918847
87	0xbe59fcce	-0.21287844
88	0x3cecfbe2	0.0289287
89	0x3dc9aa88	0.098469794
90	0xbe747bb7	-0.23875318
91	0x3e321242	0.17389777
92	0xbd886f3b	-0.066618405
93	0x3e016488	0.12636006
94	0x3e78a875	0.24283011
95	0xbd2aea74	-0.0417275
96	0x3dffdb11	0.124929555
97	0x3e1b7d91	0.15184619
98	0xbd066311	-0.03280932
99	0x3e160de2	0.14653733
100	0x3e57507f	0.210268
101	0x3dab46f8	0.083631456
102	0x3ceb51a7	0.028725458
103	0x3d4f57b1	0.05062074
104	0xbe5e1d03	-0.21690755
105	0x3dcef302	0.10104944
106	0x3d42cbe8	0.04755774
107	0xbea2dbe8	-0.318084
108	0x3d46596e	0.04842513
109	0x3bf351eb	0.007425537
110	0x3cbac70a	0.022799987
111	0xbe1140bb	-0.14184849
112	0xbe862b2e	-0.26204818
113	0xbd4ad0dd	-0.049515594
114	0x3e83912c	0.25696695
115	0xbd0cc859	-0.034370754
116	0xbe3cce01	-0.18437959
117	0xbe3e1967	-0.18564378
118	0xbde6f4dd	-0.11277173
119	0x3e2b2e2b	0.1671683
120	0xbde71ff3	-0.11285391
121	0xbd160582	-0.036626346
122	0x3db462ae	0.08807884
123	0x3c599974	0.013281215
124	0x3c98d706	0.018657219
125	0x3e2ffccb	0.17186277
126	0x3e189518	0.14900625
127	0x3dbc187d	0.09184358
128	0xbe5d995e	-0.21640536
129	0xbda2859b	-0.079356395
130	0xbd8ace6f	-0.06777655
131	0x3d2de767	0.04245701
132	0xbe2487f8	-0.16067493
133	0x3ded0a30	0.11574209
134	0xbd6c324f	-0.057665166
135	0x3e18e2c0	0.14930248
136	0x3e063694	0.13106757
137	0xbdd6ed2b	-0.10494455
138	0xbe889cbf	-0.26682088
139	0x3e1cc270	0.15308547
140	0xbe0a1117	-0.13483082
141	0xbde79523	-0.113077424
142	0x3d382ae4	0.04496278
143	0x3de5bff6	0.11218254
144	0x3e07467e	0.13210484
145	0x3e2fe71e	0.17178008
146	0x3e29de0a	0.16588607
147	0x3def39fc	0.116809815
148	0xbe81a71d	-0.2532281
149	0xbdf429b2	-0.11922015
150	0xbdd4ff28	-0.1040023
151	0x3e598da8	0.21245444
152	0x3d8382aa	0.064214066
153	0xbdd97692	-0.106183186
154	0x3e285351	0.16438033
155	0xbcc32ad0	-0.023824126
156	0xbda2b8be	-0.07945393
157	0x3d7c54e9	0.061604414
158	0xbe98a458	-0.29812884
159	0xbe89e4d0	-0.26932383
160	0x3e69119d	0.22760625
161	0x3d2405d5	0.040044624
162	0x3dee3d23	0.11632755
163	0xbdd79626	-0.105266854
164	0xbdb796c7	-0.08964305
165	0xbdc614da	-0.09671946
166	0x3d89c94d	0.06727848
167	0x3df87e75	0.12133495
168	0xbdb1334f	-0.086523645
169	0xbe6b5c11	-0.2298434
170	0xbe6da2f2	-0.2320669
171	0xbdba9cb1	-0.09111918
172	0x3e1be64e	0.15224573
173	0x3d0f1713	0.034934115
174	0x3dec233e	0.115301594
175	0x3e43f611	0.19136836
176	0xbdd22283	-0.10260489
177	0xbd4ab1bc	-0.049485907
178	0xbce95e9a	-0.028487492
179	0xbe17af5e	-0.14812991
180	0xbdf4ff7e	-0.11962794
181	0x3c8894ab	0.016672453
182	0xbd571a0a	-0.052515067
183	0xbd6ad0ce	-0.057328038
184	0x3e6bf60e	0.23043081
185	0x3d52bfbd	0.051452387
186	0x3d1a280d	0.03763585
187	0xbc3dd81d	-0.01158717
188	0x3e10b51b	0.14131586
189	0x3e7f449e	0.24928519
190	0xbc0dadec	-0.008647423
191	0x3df7e9b1	0.1210512
192	0x3e7c7f86	0.24658021
193	0x3e0480fd	0.1293983
194	0xbe7c20fb	-0.24621956
195	0xbe416111	-0.18884684
196	0x3d8349c4	0.06410554
197	0xbe41fb94	-0.18943626
198	0xbdbf3106	-0.09335522
199	0xbdf62020	-0.12017846
200	0x3ae863a7	0.0017729894
201	0xbe1e50ff	-0.15460585
202	0x3e0ead26	0.13933238
203	0xbe5f8900	-0.21829605
204	0xbc0a1878	-0.008428685
205	0x3e8ac867	0.2710602
206	0xbdfc58ab	-0.123215996
207	0x3bdbe015	0.0067100623
208	0xbda8ac8e	-0.08236037
209	0xbe1dfeed	-0.15429278
210	0xbe924ddf	-0.28575036
211	0x3e81f55e	0.25382513
212	0x3e106e5b	0.14104597
213	0xbd78345b	-0.060596805
214	0xbb7bf87b	-0.0038447666
215	0x3e20c36e	0.1569955
216	0xbdc24355	-0.09485499
217	0xbe7fc9de	-0.2497935
218	0xbe23f261	-0.16010429
219	0x3e19eaad	0.15030928
220	0x3df145ac	0.11780867
221	0x3ab8b60e	0.0014092342
222	0x3e41a006	0.189087
223	0xbe0aea51	-0.13565947
224	0xbdf3ea79	-0.119099565
225	0x3e5b88bb	0.21438877
226	0x3e115a95	0.1419471
227	0xbd2bb84b	-0.041923802
228	0xbbc7c312	-0.0060962522
229	0xbe791608	-0.2432481
230	0x3dd39a55	0.10332171
231	0x3e1f3d22	0.15550664
232	0xbde0b089	-0.109711714
233	0xbdd53052	-0.10409607
234	0x3df61c0d	0.12017069
235	0x3be092f0	0.006853454
236	0x3e22922a	0.1587607
237	0xbd90d1ac	-0.07071242
238	0xbdb1a1cd	-0.08673439
239	0xbd8ac141	-0.067751415
240	0xbdc22590	-0.09479821
241	0xbe550b14	-0.20805007
242	0x3e1aa00d	0.15100117
243	0xbc0f394e	-0.00874169
244	0xbe4e8507	-0.20167933
245	0xbdf07cc2	-0.11742546
246	0xbe892841	-0.26788524
247	0xbd833c1c	-0.06407949
248	0x3de4be50	0.11169112
249	0x3d998f70	0.07498062
250	0x3d68a174	0.0567946
251	0xbd44b882	-0.048027523
252	0x3d9a51ab	0.07535108
253	0xbe28c017	-0.16479526
254	0x3e325083	0.17413525
255	0x3d1a4546	0.03766372

layers.hidden_0.bias f4 [20]
0	0x3d544077	0.05181929
1	0xbe9458a6	-0.28973883
2	0x3e1e68a4	0.15469605
3	0xbde3dd44	-0.111261874
4	0xbd807cc0	-0.06273794
5	0xbe6047c2	-0.21902373
6	0x3e0807dd	0.1328425
7	0xbe8bfd83	-0.27341852
8	0xbcba3c78	-0.022733912
9	0xbb2ca82a	-0.002634535
10	0xbe83d034	-0.25744784
11	0x3c78a35d	0.015175668
12	0xbe5d5048	-0.21612656
13	0xbe7956cf	-0.24349521
14	0x3c945399	0.018106269
15	0x3e4da141	0.20081045
16	0x3e6eabcd	0.23307724
17	0xbe72f16f	-0.23724912
18	0x3e90cdc3	0.28281984
19	0xbea4c623	-0.32182416

layers.hidden_1.weight f4 [20, 20]
0	0x3e2896ca	0.16463771
1	0x3e5acab8	0.21366394
2	0xbe0a23f0	-0.13490272
3	0x3d884765	0.066542424
4	0x3bd75460	0.0065713376
5	0x3e2ff36d	0.17182703
6	0x3dde45ec	0.1085318
7	0x3e742bee	0.23844883
8	0x3da46115	0.080263294
9	0x3db87290	0.09006226
10	0xbcc97d99	-0.024596022
11	0x3e88fee1	0.26756957
12	0x3e44219a	0.19153443
13	0x3e7479d6	0.23874602
14	0xbda83b9e	-0.08214496
15	0x3cd852c7	0.026406659
16	0xbe3c31a3	-0.1837831
17	0x3d22df7f	0.039763924
18	0x3d2b7c6a	0.041866697
19	0x3cf80110	0.030273944
20	0x3e551733	0.20809631
21	0x3e0c8dd7	0.13725983
22	0x3dfe4728	0.12415916
23	0x3e6767e2	0.22598222
24	0x3dd166d4	0.10224691
25	0x3e96183b	0.2931536
26	0xbcf7cb3b	-0.030248275
27	0x3e12ed10	0.14348245
28	0x3dee2e30	0.11629903
29	0xbdec4e6f	-0.115383975
30	0xbd0d0212	-0.034425803
31	0x3e706306	0.23475274
32	0xbe1c222a	-0.15247408
33	0x3e773dca	0.24144664
34	0xbe32611f	-0.17419861
35	0xbcb610f1	-0.022224875
36	0xbe0ab446	-0.13545331
37	0x3e9c2c5a	0.30502588
38	0x3cf53084	0.02993036
39	0x3e7bc985	0.24588592
40	0x3e0f9a71	0.14023758
41	0x3dc259bc	0.09489772
42	0xbc82f47a	-0.015985716
43	0x3b442d59	0.0029934256
44	0xbe1fe036	-0.15612873
45	0x3e97040b	0.29495272
46	0x3e004db0	0.12529635
47	0xbe52d202	-0.20587924
48	0x3e1977a8	0.14987051
49	0x3e5c4d47	0.21513854
50	0x3dd4a484	0.10382941
51	0x3e21ef78	0.15814006
52	0x3e346649	0.17617144
53	0xbdcaacb6	-0.09896223
54	0xbc241a0a	-0.010015974
55	0xbe13cb43	-0.14433007
56	0xbe942f17	-0.28942177
57	0x3e8624fe	0.26200098
58	0xbe73ee31	-0.23821332
59	0x3e2aee45	0.16692455
60	0xbd0826b2	-0.033240028
61	0x3e743402	0.23847964
62	0xbd67c82a	-0.056587376
63	0x3df6ff68	0.120604336
64	0x3e01b194	0.12665397
65	0x3e3a1dfd	0.18175502
66	0xbdacc485	-0.084359206
67	0x3e3fe434	0.18739396
68	0x3e25a36c	0.16175622
69	0x3e652e10	0.22380853
70	0x3dd60549	0.10450227
71	0xbcb3491f	-0.021885453
72	0x3e83c75c	0.25738037
73	0x3ddfe1d4	0.10931745
74	0xbd6c9837	-0.05776235
75	0xbe59836f	-0.21241544
76	0xbd884bc8	-0.06655079
77	0x3c08e402	0.008355143
78	0xbe9ed1cb	-0.31019434
79	0x3e46d4b2	0.19417074
80	0xbcb2d2a5	-0.021828959
81	0x3c657bb9	0.014006549
82	0x3dbd458d	0.092417814
83	0x3cc9f0ec	0.024651013
84	0x3d346267	0.044039156
85	0x3d2feb2b	0.042948883
86	0x3e5a732c	0.21332997
87	0xbe853cf4	-0.26023066
88	0x3d4dc705	0.050238628
89	0xbe81ef05	-0.2537767
90	0xbe982b44	-0.2972051
91	0x3d0795ff	0.03310203
92	0x3e2ec6e8	0.17068064
93	0x3df07dd1	0.117427476
94	0x3e2d60de	0.16931483
95	0x3e7bdc1e	0.24595687
96	0x3e414bab	0.18876521
97	0xbe0793b3	-0.13239937
98	0xbb708bf2	-0.0036704508
99	0xbe4a7c56	-0.19773993
100	0x3e1531d6	0.14569792
101	0x3c5fe3e8	0.013665177
102	0x3e1b11ff	0.15143584
103	0xbd94bf3e	-0.07263039
104	0x3e30a517	0.17250477
105	0x3db3b6f4	0.0877513
106	0x3d69a81d	0.05704509
107	0xbde88e67	-0.11355286
108	0x3d8783df	0.06616949
109	0x3d161ee3	0.03665055
110	0x3dd2567c	0.10270402
111	0x3c021fc4	0.007942144
112	0x3e66cb6a	0.22538534
113	0xbdc7fc0f	-0.09764873
114	0xbe243ba6	-0.16038379
115	0xbe6435a1	-0.22286083
116	0x3da28e2e	0.07937275
117	0x3da45fbe	0.08026074
118	0x3db39489	0.08768565
119	0x3d837a2c	0.06419787
120	0xbd28c464	-0.041202918
121	0x3d674308	0.05646041
122	0x3dba2739	0.090895124
123	0x3d2b23d6	0.041782223
124	0xbdfa4575	-0.12220279
125	0xbe621943	-0.22079949
126	0x3e2ac9ad	0.16678496
127	0xbe1647fc	-0.14675897
128	0xbe714f42	-0.2356539
129	0xbde9d90c	-0.114183515
130	0xbdb7f060	-0.08981395
131	0xbe81efc0	-0.25378227
132	0xbe7c6cd5	-0.24650891
133	0x3da648ec	0.081193775
134	0xbe3c1a10	-0.18369317
135	0x3e2548bc	0.16141027
136	0xbdfeb6ec	-0.12437233
137	0xbe15acc1	-0.14616682
138	0x3ea2a09c	0.3176316
139	0xbdb96411	-0.09052289
140	0x3b86bf12	0.004112133
141	0xbe054a88	-0.13016713
142	0xbd06a320	-0.032870412
143	0xbc2d569e	-0.010579733
144	0xbd8c5f70	-0.06854141
145	0xbe13d2ff	-0.14435957
146	0x3c50a4f9	0.012734645
147	0xbe7536d8	-0.23946702
148	0xbdb61abe	-0.088918194
149	0xbb00974c	-0.001962143
150	0xbe8d0e93	-0.27550182
151	0xbe24fd0a	-0.16112152
152	0x3ddf5cf1	0.10906399
153	0x3e2905e2	0.1650615
154	0xbe3bc64c	-0.18337363
155	0xbda74a88	-0.081685126
156	0xbd96f492	-0.07370867
157	0xbe1872cf	-0.14887546
158	0x3db62fd0	0.08895838
159	0xbdedb507	-0.11606794
160	0xbc422a37	-0.011850885
161	0x3e003bf6	0.12522873
162	0xbe6c4d6e	-0.23076412
163	0x3b4eac3a	0.003153576
164	0xbcadd776	-0.021220904
165	0x3dc67dd1	0.09691966
166	0xbdec0a4d	-0.11525402
167	0x3e23131a	0.15925255
168	0x3e0d7ac6	0.13816366
169	0x3c9fe32f	0.01951751
170	0x3e6e3bc9	0.23264994
171	0x3d26c682	0.040716656
172	0xbabb0ec1	-0.0014271365
173	0xbdb68470	-0.08911979
174	0x3d94069a	0.07227822
175	0xbd6493e9	-0.05580512
176	0xbe563287	-0.20917712
177	0x3d6bf5cf	0.05760747
178	0xbe34061c	-0.17580456
179	0x3d0b5fcf	0.034026917
180	0x3ccf4804	0.025302894
181	0xbdef35f2	-0.11680211
182	0x3dd7b9c1	0.105334766
183	0xbdd2a4e1	-0.102853544
184	0x3e170c36	0.14750752
185	0x3bf65149	0.007517014
186	0xbd19eea3	-0.037581097
187	0xbb8eb3e1	-0.0043549393
188	0xbdf6b401	-0.12046052
189	0x3b11eb2d	0.002226542
190	0x3dc3d5c1	0.09562255
191	0x3cd933e8	0.026514009
192	0xbdfe53de	-0.1241834
193	0xbe7fcd07	-0.24980555
194	0x3d9f3eef	0.077756755
195	0xbe026896	-0.12735209
196	0x3e64c497	0.22340618
197	0xbd992299	-0.07477302
198	0x3e02902e	0.12750313
199	0x3dd77e0f	0.10522091
200	0xbe51add4	-0.20476466
201	0x3c89181f	0.016735135
202	0xbb9d80b6	-0.0048066033
203	0xbe2f080f	-0.17092918
204	0xbce6987c	-0.028148882
205	0x3e0e10ac	0.13873547
206	0x3e51866d	0.20461436
207	0xbde57ff4	-0.11206046
208	0xbdc0e817	-0.094192676
209	0xbbf0723c	-0.0073378365
210	0x3e0bbf3f	0.13647173
211	0xbe2684bc	-0.16261572
212	0xbe14cdc9	-0.14531626
213	0xbe33c0b8	-0.17553985
214	0xbe010db1	-0.12602879
215	0xbe015873	-0.12631397
216	0x3e0c140e	0.13679525
217	0x3defed44	0.11715177
218	0x3e3e7401	0.1859894
219	0x3da78c4e	0.08181058
220	0x3e85a93d	0.2610568
221	0x3d86f91c	0.065904826
222	0xbe9132bc	-0.2835902
223	0x3e5b3bb8	0.214095
224	0x3de643fe	0.11243437
225	0x3cec2005	0.028823862
226	0x3de89f00	0.11358452
227	0xbddf6dbb	-0.10909601
228	0x3d0dbe1f	0.03460514
229	0x3e20cff8	0.15704334
230	0x3e1949dc	0.14969581
231	0x3e5a5453	0.2132123
232	0x3e0a9ff6	0.13537583
233	0x3e33db92	0.17564228
234	0x3a93647c	0.0011245157
235	0xbe4e14bd	-0.20125099
236	0xbe7fe5d8	-0.24990022
237	0x3e5cc42c	0.21559209
238	0xbe426f3b	-0.18987744
239	0xbda87c2a	-0.082268074
240	0x3e09854a	0.13429752
241	0xbd5f3c30	-0.05450076
242	0xbe0605ed	-0.13088198
243	0x3e699041	0.22808935
244	0x3e3ab3f4	0.18232709
245	0xbdd7bab1	-0.105336554
246	0x3d8778bd	0.06614826
247	0xbd417ca7	-0.04723802
248	0x3cb702ce	0.022340205
249	0xbe1dfc3b	-0.1542825
250	0x3e21cdcd	0.15801163
251	0xbdc2aa09	-0.09505088
252	0x3df4905d	0.119415976
253	0x3e4e219c	0.20130008
254	0xbd913e16	-0.0709192
255	0xbc8c2b00	-0.017110348

layers.hidden_1.bias f4 [20]
0	0xbe5ab7ad	-0.21359129
1	0xbe5d44eb	-0.21608321
2	0xbd8b23c2	-0.0679393
3	0xbdf90833	-0.12159767
4	0xbdd1a15a	-0.102358535
5	0x3d2519f5	0.040307958
6	0x3bf2e09e	0.0074120304
7	0x3e2a8de8	0.16655695
8	0xbc0e7c5d	-0.008696643
9	0x3de3cba8	0.11122829
10	0x3e4fe70c	0.20302981
11	0x39a6f4ec	0.00031844468
12	0x3ab4df40	0.0013799444
13	0xbd9b9445	-0.075966395
14	0xbde0e89a	-0.10981865
15	0x3e1b33c6	0.15156469
16	0x3d7ec534	0.062199786
17	0x3d1cf241	0.03831697
18	0xbe29798b	-0.16550271
19	0x3daf9f40	0.085752964

layers.hidden_2.weight f4 [20, 20]
0	0xbe8c809b	-0.27441868
1	0x3d549370	0.05189842
2	0x3ddce410	0.10785687
3	0xbe5ce879	-0.21573056
4	0xbd2ae332	-0.041720577
5	0xbe090124	-0.13379341
6	0xbdeaab3a	-0.1145844
7	0x3cf026c8	0.029315367
8	0xbe0fe074	-0.14050466
9	0x3e5e4b05	0.21708305
10	0x3e4c6268	0.19959414
11	0x3e1ff26d	0.15619822
12	0xbd991cb0	-0.07476175
13	0x3e56b100	0.20965958
14	0xbe7a3ce8	-0.24437296
15	0x3d4fe8ed	0.050759245
16	0x3e60c429	0.21949829
17	0xbda61006	-0.08108525
18	0xbd90b271	-0.07065285
19	0x3e5d60eb	0.21619003
20	0x3af21fae	0.0018472576
21	0xbdd70f5d	-0.10500977
22	0xbe4f344f	-0.20234798
23	0xbe237d8e	-0.15965864
24	0xbd70041e	-0.058597676
25	0x3c3879a6	0.011259472
26	0x3e355b32	0.1771057
27	0x3d579d33	0.05264015
28	0x3d988de9	0.07448942
29	0xbdb8c989	-0.09022815
30	0xbdf66fb4	-0.120330244
31	0xbe32bdb8	-0.17455184
32	0xbe1bd8b4	-0.15219384
33	0x3c18039d	0.009278205
34	0xbe8f061e	-0.27934355
35	0x3d9f8cbf	0.07790517
36	0x3d8c33ba	0.068458036
37	0x3e5149e6	0.20438346
38	0xbddb3cb9	-0.10704941
39	0x3d31ce4e	0.043409638
40	0x3e5918d8	0.21200883
41	0x3e05aff5	0.13055404
42	0x3e5476b1	0.20748402
43	0x3dcea80a	0.10090645
44	0xbdb6c0c1	-0.08923484
45	0x3d134560	0.035954833
46	0x3dedbdfd	0.11608503
47	0x3e02c9a5	0.12772234
48	0x3e58e1a7	0.2117983
49	0x3d05104d	0.03248625
50	0x3e1c8398	0.15284574
51	0x3d6c4b07	0.05768874
52	0xbe1464f7	-0.1449164
53	0xbb94371a	-0.00452317
54	0x3e9d24b1	0.30692056
55	0xbd9d7879	-0.07688994
56	0xbe093c75	-0.13401969
57	0xbd7ce795	-0.06174429
58	0x3e7fc24f	0.24976467
59	0x3e455077	0.19268976
60	0xbdd7b3bf	-0.10532331
61	0x3d59d6bf	0.053183313
62	0x3d038b96	0.03211554
63	0xbe0bbfb1	-0.13647343
64	0xbdf561fb	-0.11981579
65	0x3e017680	0.1264286
66	0x3e574ee6	0.21026191
67	0x3db4969e	0.088177904
68	0xbd3fef75	-0.046859223
69	0x3d9daefc	0.07699391
70	0x3d36cca4	0.044628754
71	0xbdd5a61e	-0.10432075
72	0xbd6437b7	-0.055717196
73	0xbdfa45e4	-0.12220362
74	0xbe22e9a5	-0.15909441
75	0x3d855c44	0.06511739
76	0x3db31dd5	0.087459244
77	0x3e3d9e7d	0.1851749
78	0x3d5e4c91	0.05427224
79	0x3de5f760	0.11228824
80	0x3e89b8dd	0.26898852
81	0x3e853a51	0.26021054
82	0x3e332729	0.17495407
83	0x3da7e303	0.08197596
84	0x3e473b77	0.19456278
85	0x3e8f7a57	0.28023025
86	0x3c3afd52	0.011412935
87	0xbd4450f5	-0.04792877
88	0xbd01e42e	-0.03171175
89	0xbe7524af	-0.23939775
90	0xbe072e8f	-0.13201354
91	0x3e465e4a	0.19371906
92	0xbe517e89	-0.20458426
93	0xbe679858	-0.22616708
94	0x3e68f083	0.22747998
95	0xbe251a0f	-0.16123222
96	0xbe296edf	-0.165462
97	0x3e04947c	0.12947267
98	0x3db6b71a	0.089216426
99	0x3d97cf3b	0.07412573
100	0xbe953404	-0.29141247
101	0xbe3ef9b7	-0.18649946
102	0xbe0bab5d	-0.13639589
103	0xbe453fb7	-0.19262587
104	0xbe7018e5	-0.23446997
105	0xbe086e98	-0.13323438
106	0x3db4bf69	0.08825571
107	0x3ce1c285	0.027558574
108	0x3dc779f4	0.097400576
109	0xbab6cfc8	-0.0013947422
110	0x3e8b01a6	0.27149695
111	0xbe363fb0	-0.17797732
112	0x3d76d540	0.060261965
113	0x3e94073d	0.28911772
114	0x3dd68660	0.10474849
115	0xbe6c59a7	-0.23081075
116	0xbe0802bc	-0.13282293
117	0x3dda750f	0.106668584
118	0x3cd89e14	0.026442565
119	0x3d9f5574	0.07779971
120	0xbdcf1425	-0.10111264
121	0x3e2e244a	0.1700603
122	0xbc8bf456	-0.017084282
123	0xbd19efe8	-0.037582308
124	0xbbd62cb4	-0.0065360907
125	0xbdac8537	-0.08423846
126	0x3bc5c09b	0.0060349233
127	0xbe2d4d3c	-0.16923994
128	0xbd034690	-0.032049716
129	0xbe8f1446	-0.27945155
130	0xbd9cdb99	-0.076590724
131	0x3e4f9703	0.2027245
132	0x3afde8ab	0.0019371709
133	0xbe58bbd1	-0.21165396
134	0x3e1f1e31	0.15538861
135	0xbdfd3b05	-0.12364773
136	0xbb49a706	-0.003076972
137	0xbddc60ab	-0.107606255
138	0x3e268bfd	0.16264339
139	0x3cc08065	0.023498723
140	0xbd837b3c	-0.064199895
141	0x3e3c4388	0.18385136
142	0xbd947b08	-0.07250029
143	0x3e10122a	0.14069429
144	0xbdc36d5f	-0.09542345
145	0xbd9df5e7	-0.07712918
146	0x3d35aad6	0.044352375
147	0xbdf1349f	-0.11777615
148	0x3d173938	0.036919802
149	0xbe1a452c	-0.1506545
150	0xbd2c0906	-0.042000793
151	0xbc9a0fbe	-0.018806335
152	0xbda5a032	-0.080871955
153	0xbc05b513	-0.008160847
154	0xbe6484f3	-0.22316341
155	0xbca76e47	-0.020438327
156	0x3d420145	0.047364492
157	0xbe16ea6c	-0.14737862
158	0xbd8f044a	-0.0698324
159	0x3dbbcd6e	0.09170042
160	0xbd67b2e0	-0.056567073
161	0x3e0fb6bc	0.14034551
162	0x3c086169	0.008324006
163	0x3e08857e	0.13332173
164	0xbe1828b0	-0.14859271
165	0x3db083cb	0.086188875
166	0x3cd949f7	0.026524527
167	0x3e3f2b1b	0.18668787
168	0xbe042bbd	-0.1290731
169	0xbd77b1a3	-0.060472142
170	0x3e7f737b	0.24946396
171	0x3ddbd898	0.10734671
172	0xbe10f5e3	-0.14156298
173	0x3d801bc8	0.06255299
174	0x3e02660b	0.12734239
175	0x3cd060d0	0.025436789
176	0xbdbf64ca	-0.09345396
177	0xbd880420	-0.06641412
178	0xbe7c15ac	-0.24617642
179	0x3d5d5acf	0.05404168
180	0x3e187c5a	0.14891186
181	0xbd601073	-0.054703187
182	0x3d829e55	0.06377856
183	0x3cb67820	0.022274077
184	0xbe07725a	-0.13227215
185	0x3bf02c2e	0.0073294854
186	0x3ce508c7	0.027958287
187	0x3de5685f	0.11201548
188	0x3e205e47	0.15660964
189	0xbd712f5c	-0.058883056
190	0x3c4f5667	0.012654877
191	0x3e2ab01e	0.16668746
192	0x3d9412a8	0.07230121
193	0x3d438af1	0.047739927
194	0xbca0e335	-0.01963959
195	0xbde8bb2e	-0.11363827
196	0x3da13c54	0.07872835
197	0x3d471584	0.048604503
198	0xbd08180f	-0.03322607
199	0x3a234898	0.0006228774
200	0x3d4a71a0	0.049424767
201	0xbd1c2ffa	-0.03813169
202	0xbe7068de	-0.23477504
203	0xbe80169c	-0.2501725
204	0xbe81c1fe	-0.25343317
205	0x3db1405c	0.08654854
206	0x3e4a7604	0.19771582
207	0x3e562e96	0.20916209
208	0xbd515316	-0.051104628
209	0x3de5cbb7	0.11220496
210	0x3baccf4c	0.005273735
211	0xbe940d9d	-0.28916636
212	0xbe4240ce	-0.18970034
213	0x3df40c57	0.11916416
214	0x3d2b6486	0.041843913
215	0x3e66dfe7	0.2254635
216	0xbd1a063d	-0.037603606
217	0xbaa9d644	-0.0012957533
218	0xbd5a822e	-0.053346805
219	0xbd67bc55	-0.05657609
220	0xbdcec658	-0.10096425
221	0xbd4d65e3	-0.050145995
222	0x3e53ad9a	0.20671692
223	0x3d340c5f	0.04395711
224	0x3d9b8897	0.07594412
225	0x3dcd176e	0.100142345
226	0x3e14d65a	0.14534894
227	0xbd95ba46	-0.073109195
228	0x3c8cb36e	0.017175402
229	0xbe4670b6	-0.19378933
230	0x3e072de8	0.13201106
231	0x3e09cba0	0.13456583
232	0x3e0786b4	0.13234979
233	0xbb887744	-0.004164608
234	0x3dd306c9	0.103040285
235	0xbe26396c	-0.16232842
236	0xbda142af	-0.07874047
237	0x3d4deb6d	0.050273348
238	0xbe3ab72a	-0.18233934
239	0xbe100cf1	-0.14067437
240	0xbe9757e1	-0.29559234
241	0xbe641c56	-0.22276434
242	0xbe828d01	-0.25498202
243	0xbdc82143	-0.09771969
244	0xbe84fa17	-0.25972053
245	0x3e0644a2	0.13112119
246	0x3e6c7055	0.23089726
247	0x3e22c18d	0.15894146
248	0x3e3e7b45	0.18601711
249	0xbd7bce6e	-0.061476164
250	0x3dcbd74d	0.09953175
251	0xbd69b67e	-0.057058804
252	0x3c1afc61	0.009459586
253	0x3ddbe28b	0.10736569
254	0xbd082847	-0.033241536
255	0x3e3dd00d	0.18536396

layers.hidden_2.bias f4 [20]
0	0x3e8b0e3e	0.27159303
1	0x3e5dbadd	0.21653314
2	0xbea38fcd	-0.3194565
3	0x3dfc8505	0.12330059
4	0xbe50597c	-0.20346636
5	0x3e7ae280	0.24500465
6	0xbe8be26a	-0.27321178
7	0xbdb53257	-0.08847492
8	0xbd705b29	-0.058680687
9	0xbdab5197	-0.083651714
10	0x3d223387	0.03959992
11	0x3e0b8bdf	0.13627575
12	0x3e5e61e6	0.21717033
13	0x3dde86dd	0.10865567
14	0x3dcc7918	0.09984034
15	0x3e8778df	0.26459405
16	0xbddceefc	-0.1078777
17	0x3e47eafe	0.19523236
18	0xbdfdb8a8	-0.12388736
19	0xbe0871a5	-0.13324602

layers.hidden_3.weight f4 [20, 20]
0	0x3e0afdba	0.13573352
1	0x3e86e1d6	0.26344174
2	0xbe146d2e	-0.14494774
3	0x3e6b048a	0.2295095
4	0xbe058e5b	-0.13042586
5	0x3c223ff2	0.009902941
6	0xbde8ae54	-0.113613755
7	0xbbf99167	-0.0076162103
8	0xbdb22922	-0.08699252
9	0x3d1f0a42	0.038828142
10	0x3e3c18d1	0.18368842
11	0x3ca6bf57	0.02035491
12	0x3bd0067f	0.0063484306
13	0xbddb5979	-0.10710425
14	0x3e699b78	0.22813213
15	0x3e74c50f	0.23903297
16	0x3c39e4fb	0.011346097
17	0xbda10b62	-0.07863499
18	0x3db4dcb6	0.0883116
19	0xbcc329a4	-0.023823567
20	0x3ea0f68f	0.3143811
21	0xbd844b42	-0.06459667
22	0xbe844673	-0.25834998
23	0xbdc7a90a	-0.097490385
24	0xbda11124	-0.078645974
25	0xbc87a9a3	-0.016560381
26	0xbde3f89c	-0.11131403
27	0x3d9b8552	0.07593788
28	0xbdbb0201	-0.091312416
29	0xbdefa6ed	-0.117017604
30	0x3e031335	0.12800296
31	0xbcbd3093	-0.023094451
32	0x3e333f69	0.17504658
33	0xbe71da99	-0.23618545
34	0x3dc7d21b	0.09756871
35	0x3e65c029	0.22436585
36	0xbdbcd0f4	-0.09219542
37	0x3e95d2f9	0.29262522
38	0xbdb7c63d	-0.08973358
39	0xbb19a467	-0.0023443939
40	0x3e015309	0.12629332
41	0x3e0ddbb8	0.13853347
42	0xbd675a0b	-0.056482356
43	0x3e07bd59	0.13255824
44	0x3d7c0e15	0.061536867
45	0xbd17fa89	-0.037104163
46	0xbcebaa5a	-0.028767753
47	0x3c8b7a91	0.017026218
48	0x3d2d2617	0.042272653
49	0x3d85822d	0.0651897
50	0xbe440bb9	-0.19145097
51	0x3d9b8c87	0.07595163
52	0xbdb91f69	-0.09039194
53	0x3e4b9907	0.19882594
54	0xbe18b818	-0.14913976
55	0x3d7b5fcc	0.061370656
56	0x3e2849db	0.16434424
57	0xbda91664	-0.08256224
58	0xbd20886c	-0.039192602
59	0xbe341f32	-0.17590025
60	0x3d1b683a	0.037941195
61	0x3da4f36c	0.080542415
62	0xbd3665e3	-0.04453076
63	0x3dabf5dd	0.08396504
64	0xbda77b5d	-0.081778266
65	0x3e138ca1	0.14409114
66	0x3cd6cd50	0.026220948
67	0x3df45346	0.11929946
68	0x3cbc946f	0.023019997
69	0xbd0f1558	-0.034932464
70	0x3c89e372	0.016832087
71	0x3e4eb87f	0.20187567
72	0xbd248c3b	-0.040172797
73	0x3d4feb97	0.050761785
74	0xbdb082dd	-0.0861871
75	0x3e7fd3b4	0.24983102
76	0xbe9b35cf	-0.3031449
77	0x3e9fb284	0.31190884
78	0xbe0c5876	-0.1370562
79	0x3e508550	0.20363355
80	0xbd93945c	-0.07206032
81	0xbc3844b2	-0.011246847
82	0x3ea18d46	0.31553096
83	0x3bec155a	0.0072046937
84	0x3e969a4d	0.29414597
85	0xbcbf648f	-0.02336338
86	0xbdc9c94f	-0.0985285
87	0xbde2ee7b	-0.11080643
88	0xbe0c4daa	-0.13701501
89	0xbc7c36be	-0.015393911
90	0xbc65ec00	-0.014033318
91	0x3c7edca2	0.015555533
92	0xbd6255cd	-0.055257607
93	0x3dc7d659	0.097576804
94	0x3c48b2c4	0.012249652
95	0xbd6b9ce1	-0.05752266
96	0xbde5ee66	-0.112271115
97	0xbe698aec	-0.228069
98	0x3e086392	0.13319233
99	0x3c9886f9	0.018619047
100	0xbdd74f92	-0.10513224
101	0x3d68b7f4	0.056816056
102	0xbd6c792f	-0.057732757
103	0xbe18b485	-0.14912613
104	0xbe11aa47	-0.14225112
105	0x3df79104	0.120882064
106	0xbe3d9bfb	-0.18516533
107	0xbd53513e	-0.05159115
108	0x3e1d569e	0.15365073
109	0xbd39d785	-0.04537155
110	0xbea14e5b	-0.31505093
111	0x3d04f0f3	0.03245635
112	0x3e3a01ce	0.18164751
113	0x3cc40be0	0.023931444
114	0xbd4975fb	-0.04918478
115	0xbe930e8e	-0.28722042
116	0x3e204596	0.15651545
117	0xbca88e5c	-0.020575695
118	0x3d91bb06	0.0711575
119	0xbdd971fe	-0.106174454
120	0x3ce897bb	0.028392663
121	0xbda0add6	-0.078456566
122	0x3c87d64f	0.016581682
123	0x3dd5e2a3	0.10443618
124	0x3e8629b6	0.26203698
125	0xbe78e05a	-0.24304333
126	0x3d8ce8e0	0.06880355
127	0xbd8e710d	-0.069551565
128	0x3e8ea819	0.27862623
129	0xbe800567	-0.25004122
130	0xbe0265ac	-0.12734097
131	0xbe64e09c	-0.22351307
132	0xbdb8961c	-0.09013006
133	0xbe318d36	-0.17339024
134	0xbe28167b	-0.16414826
135	0xbddca146	-0.10772948
136	0xbe194166	-0.14966354
137	0x3c01a2c1	0.007912339
138	0x3d71f3df	0.059070464
139	0x3e0960b2	0.13415793
140	0x3cda222c	0.026627623
141	0xbd2df8cb	-0.042473596
142	0x3dbbb7ec	0.0916594
143	0xbda7b1ab	-0.08188184
144	0xbdcaafbd	-0.09896801
145	0x3d375a5d	0.04476391
146	0x3e0e2c2e	0.1388404
147	0x3e3a3942	0.18185905
148	0x3e096cef	0.13420461
149	0xbe04280a	-0.12905899
150	0x3e00e2d6	0.12586531
151	0xbc540e0e	-0.012942804
152	0xbe554ed5	-0.20830853
153	0x3c27e850	0.010248259
154	0x3d778788	0.060431987
155	0xbde8e6a1	-0.11372114
156	0x3e000578	0.12502086
157	0xbd29a09b	-0.04141293
158	0x3e098d0c	0.13432711
159	0x3de65ecd	0.112485506
160	0x3e97dcd6	0.29660672
161	0x3e3f325c	0.18671554
162	0x3e058cca	0.13041988
163	0xbdea9b97	-0.11455458
164	0x3d70f2b0	0.058825195
165	0x3e836124	0.2566005
166	0xbcbc158a	-0.02295949
167	0xbd92d7c6	-0.07170062
168	0xbcb4b123	-0.022057122
169	0xbcbf842b	-0.023378452
170	0x3e492668	0.19643557
171	0xbda964ac	-0.08271155
172	0x3d1561f9	0.036470387
173	0xbe28f44d	-0.16499443
174	0x3dc3d9b7	0.0956301
175	0x3e87ee53	0.26549014
176	0xbe4b05ae	-0.19826385
177	0x3e0a3e8c	0.13500422
178	0x3de33b95	0.11095349
179	0x3c92b184	0.017906912
180	0x3e8fcaba	0.28084356
181	0xbe2e91b3	-0.17047767
182	0xbc553788	-0.013013728
183	0x3e856bd7	0.26058838
184	0xbd4cdda4	-0.05001606
185	0x3e104c82	0.14091685
186	0xbe31f55d	-0.17378755
187	0xbe83a7fa	-0.25714093
188	0x3d8c6f83	0.06857207
189	0xbdf43a61	-0.119251974
190	0xbe07d3fd	-0.13264461
191	0x3e15f223	0.14643149
192	0x3ce71919	0.02821021
193	0x3e09aa91	0.13443972
194	0xbe0fdb17	-0.1404842
195	0x3dc2807c	0.09497163
196	0xbe1af9a4	-0.15134293
197	0x3dd2c6d5	0.102918305
198	0xbe23e700	-0.16006088
199	0xbd9ea8de	-0.077470526
200	0x3e7f24fe	0.24916455
201	0x3e2f326d	0.1710908
202	0x3d86dca8	0.065850556
203	0x3d790348	0.060794145
204	0xbe39a5ab	-0.18129604
205	0x3d59921c	0.053117856
206	0xbe3979c0	-0.1811285
207	0x3dccfc89	0.10009105
208	0x3e4340fb	0.19067757
209	0x3bb82bd1	0.0056204577
210	0xbdff2f09	-0.12460143
211	0x3db4ccff	0.088281624
212	0x3e403b4b	0.18772618
213	0x3de69b86	0.112601325
214	0x3deecdb1	0.11660326
215	0x3db10cae	0.086449966
216	0xbdd7dbb6	-0.105399534
217	0x3d79abdc	0.060954913
218	0x3e98abb1	0.2981849
219	0x3cc64354	0.024202026
220	0xbdbc181d	-0.09184287
221	0xbe4ae2f5	-0.1981314
222	0x3d767391	0.060168806
223	0x3dfc21dd	0.123111464
224	0x3e0a6668	0.13515627
225	0xbd78eab2	-0.060770698
226	0x3e12fc7f	0.14354132
227	0x3d871512	0.06595816
228	0x3e4761e3	0.19470935
229	0xbe111d8d	-0.14171429
230	0xbd26fb18	-0.040766805
231	0xbe33ab99	-0.17545928
232	0xbe423aec	-0.1896779
233	0xbd351da0	-0.044217706
234	0xbe7d10c8	-0.24713433
235	0xbdeacc40	-0.11464739
236	0x3e91bf16	0.284661
237	0xbe60d5f4	-0.21956617
238	0xbe30fd76	-0.17284188
239	0x3e3bb425	0.18330438
240	0xbd167853	-0.036735844
241	0x3e25fbe7	0.16209374
242	0x3ce6dceb	0.028181514
243	0xbe0411c1	-0.12897398
244	0xbdf7026d	-0.120610096
245	0x3e80cb24	0.25154984
246	0xbe85499c	-0.26032722
247	0x3db41b44	0.08794263
248	0xbdabc6ae	-0.083875045
249	0xbcb76075	-0.022384861
250	0xbe2449db	-0.16043799
251	0xbd6c9bf7	-0.057765927
252	0xbde91821	-0.11381555
253	0xbe06c320	-0.13160372
254	0xbdf3933a	-0.118933156
255	0xbe2e7a54	-0.17038852

layers.hidden_3.bias f4 [20]
0	0x3e548e7d	0.2075748
1	0x3e6cbce9	0.23118939
2	0x3e1f4d37	0.15556799
3	0x3e93bcbd	0.28854933
4	0xbd4654a8	-0.04842058
5	0xbe3f1d11	-0.18663432
6	0xbd93646f	-0.071968906
7	0x3bc12046	0.00589374
8	0x3e831f51	0.2560983
9	0x3e5cf393	0.21577291
10	0x3b8f4ca2	0.004373149
11	0xbe8da4d6	-0.27664822
12	0xbdac7548	-0.08420807
13	0x3e7d76dc	0.24752373
14	0xbe843aad	-0.25826016
15	0xbddf641b	-0.109077655
16	0x3d22325c	0.039598808
17	0x3c0872ef	0.008328184
18	0xbe7af8bb	-0.24508946
19	0xbca4f459	-0.020136045

layers.hidden_4.weight f4 [20, 20]
0	0x3d0d103d	0.034439314
1	0x3e4848d6	0.19559035
2	0x3e3b9758	0.18319452
3	0x3e7572b7	0.23969541
4	0x3b80c5b4	0.003929818
5	0xbc116cb3	-0.008876014
6	0xbe74beb0	-0.23900867
7	0xbe34659e	-0.17616889
8	0x3de6f0ca	0.112763956
9	0xbd6b27b4	-0.05741091
10	0x3d0b095a	0.033944465
11	0xbbadda02	-0.0053055296
12	0xbd459d13	-0.0482455
13	0x3e6cac32	0.23112562
14	0xbdb1cc00	-0.08681488
15	0x3d74a416	0.059726797
16	0x3d744ad5	0.059641678
17	0x3e8ee236	0.2790696
18	0xbe52c3a1	-0.20582439
19	0x3c7cb1ae	0.0154232215
20	0xbdb78a2a	-0.089618996
21	0xbe64ac06	-0.22331247
22	0x3e40a566	0.18813094
23	0xbe11e964	-0.14249188
24	0xbd1af7a1	-0.037833814
25	0xbdbb6443	-0.09149983
26	0x3e788324	0.24268776
27	0x3d46ab77	0.048503365
28	0xbe95d087	-0.29260656
29	0xbe5b7627	-0.2143179
30	0xbe0e1c37	-0.1387795
31	0x3e323f29	0.17406906
32	0x3db4eaf5	0.08833877
33	0xbe8ec5e0	-0.27885342
34	0x3e725e64	0.2366882
35	0xbb9d27bd	-0.004795997
36	0xbd61147e	-0.054951183
37	0xbe2bad55	-0.1676534
38	0x3e0fe878	0.14053524
39	0x3d8e2d7b	0.069422685
40	0xbd1e8b01	-0.038706783
41	0xbe05c201	-0.13062288
42	0xbd7ebad6	-0.0621899
43	0xbd8b6c2d	-0.06807742
44	0x3ccd3892	0.025051389
45	0x3e589f63	0.21154551
46	0xbcd02df4	-0.025412537
47	0xbd9af453	-0.075661324
48	0x3d3b2794	0.04569204
49	0xbe88008f	-0.26562926
50	0xbd17d3e2	-0.0370673
51	0x3e01eede	0.12688777
52	0x3d9c3112	0.07626547
53	0xbd9c1aab	-0.07622274
54	0x3cdcd03f	0.026954768
55	0x3e6e1674	0.23250753
56	0xbe9b3670	-0.3031497
57	0xbdf493f0	-0.11942279
58	0x3d6dc764	0.05805148
59	0x3e3e5767	0.18588029
60	0x3da182f1	0.07886303
61	0x3d809a99	0.06279487
62	0xbde3a191	-0.11114801
63	0xbe647c36	-0.22313008
64	0xbdbf45a1	-0.093394525
65	0x3e158a32	0.14603499
66	0xbe1361a7	-0.1439272
67	0xbde05994	-0.10954586
68	0x3e0a6a8d	0.13517208
69	0xbd1eee98	-0.03880176
70	0xbd92af0e	-0.07162295
71	0x3d2fb9ba	0.042901732
72	0xbdcd9359	-0.1003787
73	0x3cce6088	0.025192514
74	0xbcd3b098	-0.025841042
75	0xbd91f83e	-0.071274266
76	0xbd6b9947	-0.057519224
77	0xbdea3093	-0.11435046
78	0xbdcbc9e9	-0.09950621
79	0x3e3991b8	0.18121994
80	0x3e3c3469	0.18379368
81	0xbd6fe1c2	-0.05856491
82	0xbdc07995	-0.0939819
83	0xbd63d187	-0.055619743
84	0x3cbb9b4c	0.0229012
85	0xbd6b11dc	-0.05739008
86	0xbe4ec86e	-0.20193645
87	0x3e0401b9	0.12891282
88	0xbc403203	-0.011730674
89	0x3cb006f3	0.021487689
90	0xbc676a8f	-0.014124527
91	0x3d830f5a	0.063994125
92	0xbdc013fc	-0.09378812
93	0xb9950d92	-0.00028429605
94	0xbe3fe2c6	-0.18738851
95	0xbc3c28f0	-0.01148437
96	0x3e8c1046	0.27356166
97	0x3b13b145	0.002253608
98	0xbe91f051	-0.2850366
99	0x3ce59736	0.028026205
100	0xbd93c4dd	-0.07215283
101	0x3d1c99e2	0.03823269
102	0xbd24861c	-0.04016696
103	0x3e04f27c	0.12983125
104	0xbdefda15	-0.11711518
105	0xbd5a9593	-0.0533653
106	0x3dfc9f0c	0.12335023
107	0xbe35ca43	-0.17752938
108	0xbdb2b7b7	-0.08726447
109	0xbca3411e	-0.019928511
110	0xbdf02820	-0.11726403
111	0xbd5e1367	-0.054217722
112	0xbd06281e	-0.032753102
113	0x3e574322	0.21021703
114	0xbcec5c87	-0.028852714
115	0xbd22dbae	-0.039760284
116	0xbe46355d	-0.19356294
117	0xbe5d4c3e	-0.21611115
118	0x3dd234bf	0.10263967
119	0x3e4d4b5e	0.20048282
120	0xbe007d9f	-0.1254792
121	0xbe6a40be	-0.2287626
122	0x3d804ec8	0.06265026
123	0x3d9231c1	0.07138396
124	0x3dcbd068	0.0995186
125	0xbd26254f	-0.040562924
126	0xbe368bf7	-0.1782683
127	0x3e3a2e2e	0.18181679
128	0xbd45713c	-0.04820369
129	0x3e0199d2	0.12656334
130	0xbbf9d5ea	-0.0076243775
131	0xbd8cc0e4	-0.068727285
132	0x3d6ca361	0.057772998
133	0x3daa706a	0.083222225
134	0xbdeaf599	-0.11472625
135	0x3d4f5739	0.05062029
136	0x3e1d71f2	0.15375498
137	0xbe03ab8d	-0.1285841
138	0x3e44670e	0.19179937
139	0x3e9aaba5	0.3020908
140	0x3ea61fdc	0.32446182
141	0x3ea6a1e5	0.3254539
142	0xbe1d9c7c	-0.15391725
143	0x3e0d08b5	0.13772853
144	0xbe38a233	-0.18030624
145	0xbe08041f	-0.13282822
146	0xbde41eb3	-0.11138668
147	0x3e0609d3	0.13089685
148	0x3ea2d9fb	0.3180693
149	0x3e87d935	0.26532903
150	0x3e977ff8	0.2958982
151	0xbe5496c9	-0.20760645
152	0xbb3e255c	-0.0029013967
153	0x3e95651d	0.29178706
154	0xbe7c3778	-0.24630535
155	0xbd977f14	-0.07397285
156	0x3e0ea496	0.13929972
157	0xbbb1ad96	-0.0054223044
158	0xbea4b8dc	-0.32172287
159	0xbc8544e8	-0.016268209
160	0x3e2bbd08	0.16771328
161	0xbc5bf531	-0.013425157
162	0xbe755bb5	-0.23960765
163	0x3d64b2f7	0.055834737
164	0xbe5e1af1	-0.21689965
165	0xbce6c61d	-0.02817064
166	0x3dd687bd	0.10475109
167	0x3df745d3	0.12073865
168	0x3cc6b099	0.02425413
169	0xbe5279ba	-0.20554247
170	0xbd1708ec	-0.036873743
171	0x3e2d86d6	0.16945967
172	0xbdf3886e	-0.11891256
173	0x3e0ca761	0.13735725
174	0xbe33fe26	-0.17577419
175	0xbc541526	-0.012944495
176	0x3d92fbf2	0.07176961
177	0x3dc84d7d	0.09780405
178	0x3ddd7176	0.108126566
179	0xbe91d724	-0.28484452
180	0x3deec659	0.116589256
181	0xbdec2492	-0.11530413
182	0x3e0e23fd	0.13880916
183	0x3e874f2c	0.2642759
184	0x3de599b5	0.11210958
185	0x3db746bb	0.08949038
186	0xbe2bafae	-0.16766235
187	0xbdb4e312	-0.08832373
188	0xbd4f20a3	-0.050568234
189	0xbda36c56	-0.07979648
190	0x3b3a8b7e	0.0028464491
191	0xbe61de6b	-0.22057502
192	0xbdbd9f10	-0.092588544
193	0x3d9dd7d7	0.07707184
194	0xbe9cfe3b	-0.30662712
195	0xbce0b0c2	-0.027428035
196	0x3e8e9448	0.27847505
197	0xbd80c437	-0.06287425
198	0xbd9f66a3	-0.07783248
199	0x3d150f45	0.036391515
200	0x3e85f483	0.2616311
201	0x3e854b9d	0.2603425
202	0x3df71b04	0.120657
203	0xbd695f86	-0.056975864
204	0xbe29295b	-0.16519682
205	0xbde09be6	-0.10967235
206	0xbe390340	-0.18067646
207	0xbd64fe83	-0.055906784
208	0x3e396058	0.18103158
209	0xbdc0b8d2	-0.09410252
210	0x3e6b725d	0.22992845
211	0xbea03649	-0.31291416
212	0xbda3e9e1	-0.08003593
213	0x3e828137	0.25489208
214	0x3da14668	0.07874757
215	0xbe9eba93	-0.3100172
216	0x3bce007a	0.006286678
217	0x3e0d0b50	0.13773847
218	0x3db76294	0.08954349
219	0x3cb10014	0.021606483
220	0xbd15accb	-0.03654174
221	0xbe305b50	-0.17222333
222	0x3dd88ebb	0.10574099
223	0xbe2c5ca1	-0.1683221
224	0x3e0f91e4	0.14020497
225	0xbe14080b	-0.14456193
226	0xbde382c3	-0.11108925
227	0xbd9fb831	-0.077988036
228	0x3e701a9a	0.23447648
229	0x3e15352d	0.14571066
230	0x3e01384d	0.12619133
231	0xbb431827	-0.0029769035
232	0xbe0e5017	-0.1389774
233	0x3c9d80af	0.0192264
234	0xbe7850b7	-0.2424954
235	0xbe00b1d4	-0.12567836
236	0xbd63cdb2	-0.05561609
237	0xba1c740a	-0.0005968219
238	0x3d5241ff	0.05133247
239	0x3da52e08	0.080654204
240	0x3daca2e2	0.08429505
241	0xbd970f98	-0.07376021
242	0x3da031a3	0.078219675
243	0xbe1ea7f9	-0.15493764
244	0x3bd9e57d	0.0066496716
245	0xbcb7254c	-0.022356652
246	0x3d9f593d	0.07780693
247	0xbdf3f467	-0.119118504
248	0xbdb552fb	-0.08853718
249	0xbe7f9c06	-0.24961862
250	0xbdcd844d	-0.10035
251	0xbe28fca7	-0.16502629
252	0x3e610b5e	0.21976992
253	0xbd698cef	-0.05701917
254	0xbc83127c	-0.016000025
255	0x3e2887ef	0.16458105

layers.hidden_4.bias f4 [20]
0	0x3e45e0ad	0.19323988
1	0x3dd83b59	0.10558195
2	0xbe457240	-0.19281864
3	0xbd9e94b2	-0.07743205
4	0x3e26f1c3	0.16303162
5	0x3c6c042c	0.0144052915
6	0xbdf156e4	-0.11784151
7	0x3e0e915a	0.13922635
8	0x3e451e15	0.19249757
9	0x3e8f3485	0.27969757
10	0x3e8a3f78	0.27001548
11	0x3c4955c6	0.012288516
12	0xbc098569	-0.008393624
13	0x3dacb72e	0.08433376
14	0x3e0aba63	0.13547663
15	0xbe5f4764	-0.21804577
16	0xbdfb3b9a	-0.122672275
17	0xbe69cc89	-0.2283193
18	0x3db36111	0.08758748
19	0xbd7341d7	-0.05938896

layers.hidden_5.weight f4 [20, 20]
0	0xbb8e8170	-0.0043489262
1	0xbe70eaed	-0.23527117
2	0xbe7d765b	-0.2475218
3	0x3e8e2089	0.27759197
4	0x3e8038c5	0.25043312
5	0x3b0e6333	0.0021726608
6	0xbdd07d9e	-0.101802096
7	0x3e80c374	0.2514912
8	0x3d6cb024	0.05778517
9	0xbcac0449	-0.020998137
10	0xba78e6b8	-0.0009494829
11	0x3e89a8c1	0.26886562
12	0x3d870012	0.0659181
13	0xbd1bad03	-0.038006794
14	0xbd9582a3	-0.073003076
15	0xbe14691c	-0.14493221
16	0xbdf0bc13	-0.11754622
17	0xbe9b34f6	-0.30313843
18	0x3ca68ae1	0.020329894
19	0x3e6313e8	0.22175562
20	0xbde39bd4	-0.11113706
21	0xbda4e0b6	-0.08050673
22	0xbd9374e1	-0.07200027
23	0x3d669981	0.056298736
24	0x3e8064b4	0.2507683
25	0xbe3ffd67	-0.18749009
26	0x3e38cdd5	0.18047269
27	0xbd3cf8f1	-0.046135847
28	0x3e24964d	0.1607296
29	0xbc7544ba	-0.014969999
30	0x3e913371	0.2835956
31	0x3d7d0568	0.061772734
32	0xbe5cc8ac	-0.21560925
33	0x3e4daf25	0.20086344
34	0x3dcafcd4	0.099115044
35	0xbe6d6095	-0.23181374
36	0xbe3bc0c3	-0.18335252
37	0xbe90dbc9	-0.28292683
38	0x3e2ef07c	0.17083925
39	0xbd11d4c8	-0.035603315
40	0x3d5389cc	0.051645085
41	0x3d8620e6	0.06549244
42	0xbe98802a	-0.2978528
43	0x3e1ec783	0.15505795
44	0x3ca9332a	0.02065428
45	0xbe7be96a	-0.24600759
46	0x3ddf46b6	0.10902159
47	0x3ea71d7d	0.32639685
48	0x3df28d7e	0.11843394
49	0x3ea259c1	0.31709102
50	0x3e7dd749	0.24789156
51	0xbdf49383	-0.11942198
52	0x3d3c3d25	0.04595675
53	0xbd355f10	-0.04428011
54	0x3e8269fd	0.25471488
55	0xbdc5b4de	-0.09653638
56	0xbdcc60b2	-0.09979381
57	0x3c0f4e52	0.0087467
58	0x3e0aa616	0.1353992
59	0x3d37fed1	0.044920746
60	0xbd972798	-0.07380599
61	0xbcbbae62	-0.0229103
62	0x3e768640	0.2407465
63	0xbe0c655f	-0.13710545
64	0xbea61c8e	-0.3244366
65	0xbc1d5956	-0.009603819
66	0xbe252e59	-0.16130961
67	0xbea4e672	-0.32207066
68	0xbd43f5b5	-0.047841746
69	0xbe3eb789	-0.186247
70	0xbe78a735	-0.24282534
71	0xbd1bc44e	-0.038029008
72	0xbd095672	-0.033529706
73	0x3ddf7d6a	0.10912593
74	0xbe8ab519	-0.27091292
75	0xbd80a8d3	-0.06282201
76	0xbc586627	-0.013207949
77	0xbdbeaeb0	-0.09310663
78	0x3decdd86	0.1156569
79	0x3db76a48	0.089558184
80	0x3e3f53a1	0.18684246
81	0x3e048aaa	0.12943521
82	0xbe799c05	-0.24375923
83	0xbd4e3e45	-0.050352354
84	0xbd405c27	-0.046962883
85	0xbe770a7a	-0.2412509
86	0xbe376b29	-0.17911972
87	0x3e9229c2	0.28547484
88	0x3dd822cd	0.10553513
89	0x3d4808c5	0.04883649
90	0x3d368b72	0.04456658
91	0xbc50d2df	-0.012745588
92	0xbe87142e	-0.26382583
93	0x3e8b3922	0.27192026
94	0x3e7876b8	0.24264038
95	0xbd7cf593	-0.061757635
96	0xbe9c0a67	-0.30476686
97	0xbd98671c	-0.074415416
98	0x3e00de0b	0.12584703
99	0x3c3139db	0.0108170165
100	0xbbc222fd	-0.005924581
101	0x3d804c99	0.0626461
102	0x3ce1d123	0.027565544
103	0xbe83f408	-0.2577212
104	0x3de9c926	0.11415319
105	0x3d2b5c39	0.041835997
106	0x3d780857	0.06055483
107	0xbe7c4386	-0.24635133
108	0xbda4ddb5	-0.080501
109	0xbe98da9e	-0.29854292
110	0x3ddfebbf	0.10933637
111	0xbd843dc9	-0.06457097
112	0x3d514ea4	0.05110039
113	0xbda5a1b9	-0.08087487
114	0xbd624241	-0.055238966
115	0x3ea17324	0.31533158
116	0x3df2752d	0.11838756
117	0x3dba6736	0.09101717
118	0x3d7f0b26	0.06226649
119	0x3dbc5d4f	0.09197485
120	0x3deadc96	0.11467855
121	0x3d3e4747	0.046454694
122	0x3d828970	0.063738704
123	0x3db48880	0.08815098
124	0x3e12c40c	0.14332598
125	0xbd38db2a	-0.045130886
126	0xbc6e3e0a	-0.014541158
127	0xbb191c10	-0.0023362674
128	0x3e06b57e	0.13155171
129	0xbdbd58c4	-0.09245446
130	0xbe01bf99	-0.12670745
131	0x3e946e68	0.28990483
132	0xbe3d726e	-0.18500683
133	0xbbdb4b7e	-0.006692349
134	0x3e87aba2	0.26498133
135	0xbd644507	-0.055729892
136	0xbc5bcf0f	-0.013416066
137	0x3db4b294	0.088231236
138	0x3d9a7c9c	0.075432986
139	0xbdaa8687	-0.0832644
140	0xbe7b2191	-0.24524523
141	0xbd9225b3	-0.07136097
142	0x3e274e08	0.1633836
143	0x3baeb3ae	0.005331478
144	0x3d9da3fe	0.07697295
145	0x3c4aca72	0.012377368
146	0x3ddcd2e6	0.10782413
147	0x3cff7189	0.031182067
148	0x3d5bb51b	0.053639513
149	0x3de7420d	0.11291895
150	0xbd9a35cb	-0.075297914
151	0xbca5dc18	-0.02024655
152	0xbdea65d6	-0.11445205
153	0xbe951971	-0.29120973
154	0xbe6cdb71	-0.23130585
155	0x3e2b029c	0.16700214
156	0x3e6e0971	0.23245789
157	0x3e3fa0d6	0.18713698
158	0x3cf588c0	0.029972434
159	0x3df79e07	0.12090688
160	0xbe10892c	-0.14114827
161	0x3e86850d	0.26273385
162	0xbe3ff82a	-0.18747011
163	0x3d59c81f	0.053169366
164	0x3da987a3	0.08277824
165	0x3d85319b	0.06503602
166	0x3dedf267	0.116185
167	0xbe65ff68	-0.22460711
168	0xbd14b450	-0.036304772
169	0x3d90f863	0.07078626
170	0xbe173dba	-0.1476964
171	0x3d1eece5	0.03880014
172	0xbd776864	-0.06040229
173	0x3e5c018f	0.2148497
174	0x3e3b08c7	0.18265067
175	0xbe5bcb41	-0.21464254
176	0x3e122fbe	0.14276025
177	0x3e50986b	0.20370643
178	0xbe517069	-0.20453037
179	0xbe207738	-0.15670478
180	0xbcab5ec2	-0.020919207
181	0xbe60dfc8	-0.21960366
182	0xbc8b950d	-0.017038846
183	0x3e009ac9	0.12559046
184	0x3e46605a	0.19372693
185	0x3bcee1a0	0.0063135177
186	0x3d3fab47	0.046794202
187	0x3e1177de	0.14205882
188	0x3e8800e3	0.26563177
189	0x3d0b672e	0.034033947
190	0xbd1d05c8	-0.03833559
191	0x3db1b807	0.086776786
192	0x3c9beb51	0.019033106
193	0x3e8c88e0	0.27448177
194	0x3dd3ae16	0.10335939
195	0x3d04bea0	0.032408357
196	0xbe9241b5	-0.28565755
197	0xbe8ac3d7	-0.2710254
198	0xbca04bd2	-0.019567404
199	0x3e86f0d1	0.26355603
200	0xbc079ad7	-0.008276663
201	0x3d5edfb4	0.05441256
202	0xbdd762b7	-0.10516875
203	0x3e5e562f	0.21712564
204	0x3da45656	0.0802428
205	0x3d8509d9	0.06496019
206	0xbdf30e97	-0.11868017
207	0x3dc0fd8f	0.094233625
208	0x3e7480bb	0.23877232
209	0x3df2e4a7	0.11860018
210	0x3e4ce913	0.20010786
211	0xbd84787a	-0.064682916
212	0xbe670ae1	-0.22562744
213	0x3dea5e96	0.11443822
214	0x3cca0ff5	0.024665812
215	0x3daa9933	0.08330002
216	0xbc71e0e6	-0.014763093
217	0xbe5e46d1	-0.21706702
218	0x3d239881	0.03994036
219	0xbe3703d5	-0.17872556
220	0x3cb2a62c	0.021807753
221	0xbdded145	-0.10879759
222	0x3b9ff84b	0.0048818938
223	0x3e07fa99	0.13279189
224	0x3e64e55b	0.22353117
225	0xbd164b3a	-0.036692835
226	0xbd663ab5	-0.05620833
227	0x3e9eb2af	0.309957
228	0xbd3200b0	-0.043457687
229	0x3e73dda8	0.23815024
230	0x3e0dfcf7	0.1386603
231	0x3df1573a	0.11784215
232	0xbe9428ef	-0.2893748
233	0x3cdf8aae	0.027287807
234	0x3e1d4019	0.15356483
235	0xbe7a2a08	-0.24430096
236	0xbe9d86b5	-0.30766836
237	0xbe4e7c5e	-0.2016463
238	0x3e5af91f	0.21384095
239	0x3e1778e9	0.14792217
240	0x3e3b98b4	0.1831997
241	0xbe4ae937	-0.19815527
242	0x3d34d5bf	0.044149157
243	0xbc82206f	-0.015884606
244	0x3e043115	0.12909348
245	0x3db57f18	0.08862132
246	0xbe238ea2	-0.15972379
247	0x3e7c3682	0.24630168
248	0x3d251707	0.040305164
249	0x3e32d283	0.17463116
250	0x3e083acf	0.13303684
251	0x3d323c45	0.04351451
252	0xbe043814	-0.12912017
253	0xbd92b61c	-0.07163641
254	0x3ba9f501	0.0051866774
255	0xbcf57270	-0.029961795

layers.hidden_5.bias f4 [20]
0	0xbd8168ed	-0.06318841
1	0xbccbf457	-0.024896784
2	0xbd3828e8	-0.044960886
3	0xbea875c3	-0.32902345
4	0x3ce7051a	0.028200675
5	0xbc654d82	-0.01399553
6	0x3ea0423a	0.31300527
7	0xbe6f2bc7	-0.23356543
8	0xbe10c6e3	-0.1413837
9	0x3e8ba57a	0.27274686
10	0xbe1842f8	-0.14869297
11	0x3d91b378	0.07114309
12	0x3d201cd7	0.039090004
13	0x3e2e5a74	0.17026693
14	0x3e76f269	0.2411591
15	0x3b109c75	0.0022065912
16	0x3dcc4dbb	0.099757634
17	0xbcf17365	-0.02947397
18	0x3d9ca241	0.07648135
19	0xbcffdb17	-0.0312324
