PINNS/HeatEq/models/checkpoints_Adam/best_dict.pt (torch, 50941 bytes, 43 tensors)

layers.input.weight f4 [20, 2]
000000 b9 fa 85 bc 0b e1 18 be 41 55 ce be 08 f1 1b bf
       -0.016354905 -0.14929597 -0.4029942 -0.6091466
000010 4e 87 89 bd d2 f5 f8 3e bc 70 46 bf cc 89 a7 3e
       -0.067152604 0.48625046 -0.7751577 0.32722318
000020 18 62 c3 3e 51 78 89 3e a6 f9 1e 3f 7b ce b6 3e
       0.38160777 0.26849607 0.62099683 0.35704407
000030 a2 71 16 bf b3 1f 06 3f 70 49 29 3f 5c d5 03 3f
       -0.5876714 0.5239212 0.6612768 0.51497436
000040 66 85 20 bf b7 64 e0 3e e0 28 26 3e e8 c9 69 3d
       -0.6270355 0.4382684 0.1622653 0.05707732
000050 09 78 62 3f ec a7 8a be 41 3c 6e 3f d3 e1 6b be
       0.8846441 -0.2708124 0.9306069 -0.23035364
000060 8d e8 cb bd 18 3c 23 3f 14 23 3d 3f 8b ef b3 be
       -0.09956465 0.6376357 0.7388165 -0.35143694
000070 58 7c 08 bf 2e be aa be 51 3e 97 3e 36 bb de be
       -0.53314734 -0.3334822 0.2953973 -0.43502206
000080 cc 01 9b 3e 5e b1 21 3f 40 dc 58 3f e0 ea ac 3d
       0.30274808 0.63161266 0.84711075 0.08443236
000090 76 de 2f 3f 4d f4 84 3d 0c 06 49 3f 1c 12 bd 3e
       0.68698823 0.06491909 0.7852485 0.3692788

layers.input.bias f4 [20]
000000 79 08 1f bf fd 60 e1 3e b2 f4 0c bf e4 60 ad 3d
       -0.62122303 0.4401931 -0.55060875 0.08465746
000010 91 61 1d bf 99 af ef 3e 85 46 20 3e 67 70 23 3f
       -0.61477 0.46813658 0.15651901 0.6384339
000020 2b 49 d7 3e 6c c7 29 3e 63 5a b4 be fb c8 0a be
       0.4204801 0.1657998 -0.3522521 -0.1355323
000030 5c b5 b1 3e bb 51 ea be f6 ba 93 be 66 84 fc 3e
       0.3470868 -0.4576548 -0.28853577 0.49319762
000040 55 45 2b 3f ce c8 2f 3d 44 2b 56 3e c4 66 a4 3e
       0.6690267 0.04291611 0.20914942 0.32109654

layers.hidden_0.weight f4 [20, 20]
000000 36 1e 0a 3e 38 1f 6e 3e 78 43 e1 bd a1 3f 45 be
       0.13488087 0.23254097 -0.10999197 -0.19262554
000010 06 1d 90 3d 7b 51 92 bd ee 56 f4 bd 21 0a 0c bd
       0.07036786 -0.071444474 -0.11930643 -0.034189347
000020 f2 8e 1e be 56 d1 6a be 62 18 12 be ac f7 e0 3d
       -0.15484217 -0.22931418 -0.14267114 0.1098474
000030 1c 06 62 3e 39 a4 8f bd b3 d3 41 3e c4 89 3c 3e
       0.22072643 -0.07013745 0.18928413 0.18411928
000040 72 af 61 3d 06 fb f1 bc 54 ec c9 3c b4 d1 4d be
       0.05509896 -0.029538643 0.024648823 -0.20099527
000050 53 b8 34 be 83 21 ff bd 66 6c 25 3e 02 27 90 3e
       -0.17648439 -0.12457564 0.16154632 0.2815476
000060 c5 5a a9 bd e9 ec e6 3c 55 8c 55 bd 52 90 af bd
       -0.08269266 0.02818914 -0.052135784 -0.08572449
000070 33 a8 20 3d 20 9c 47 be 48 8e 88 be bb f5 66 be
       0.039222907 -0.1949315 -0.26671052 -0.22554676
000080 12 b1 31 be 40 42 aa 3d fb 1b f7 bd 22 bd d4 3d
       -0.17352703 0.083134174 -0.12065884 0.10387637
000090 c2 60 49 be 97 04 8d bc 8f 5d 95 bb aa 72 72 be
       -0.19665816 -0.017214103 -0.004558272 -0.23676553
0000a0 9f b4 37 be ef 25 ea 3d f3 81 f1 3d 16 ed 49 be
       -0.17939995 0.114330165 0.11792364 -0.19719347
0000b0 c4 04 80 3e 9c 0c 50 3e 54 a1 6e bd d4 4f 88 3d
       0.25003636 0.2031731 -0.058259323 0.06655851
0000c0 49 cc e8 bd 30 7c 26 3e 3c 6b 8c bd 01 9f 7e bd
       -0.11367089 0.16258311 -0.06856391 -0.062163357
0000d0 d8 4c 37 be 77 d5 27 3e 08 7e ba bd ab 55 24 3e
       -0.17900407 0.16390024 -0.0910607 0.16048305
0000e0 68 d6 23 be 6b e2 a6 3e 1a 5a a6 3d 75 ba 7f 3e
       -0.15999758 0.32594618 0.08122654 0.24973471
0000f0 fc 0b 5c 3e d2 36 0f 3e 22 5d 2f 3e 4c d0 84 3d
       0.21488947 0.13985756 0.17125371 0.06485042
000100 ae d6 dc 3d 3b 91 7f 3d 3d 3a 8c 3d ee c3 c9 3c
       0.107831344 0.062394362 0.068470456 0.02462956
000110 dc e7 18 3e ae cc 19 be ee c1 98 3b 49 59 8e be
       0.14932197 -0.15019485 0.00466179 -0.27802494
000120 b2 d8 77 bd f6 9a ca 3c 57 be 8d 3d 0b 35 84 be
       -0.06050939 0.024732094 0.0692107 -0.2582172
000130 bd 58 dd bd 0e 49 28 be 83 26 c5 bc db 61 6b be
       -0.10807941 -0.16434118 -0.024066215 -0.22986548
000140 cc 77 9a bd 4c a8 4d bd 90 f2 f8 bc 21 76 aa 3c
       -0.07542381 -0.05020933 -0.0303891 0.020808281
000150 fd 62 1b bd ce 8e 4c be 78 a7 f8 3d e2 7e 2d 3e
       -0.0379362 -0.1997635 0.12141317 0.16942933
000160 d0 52 4d 3e 0a d6 7a bd bd 92 2f 3d 71 50 0d bd
       0.20051122 -0.06123928 0.04286455 -0.034500543
000170 f7 77 4c bc f7 e7 e4 3d f0 48 30 3e f9 75 00 be
       -0.012479774 0.11177056 0.17215323 -0.12545003
000180 6a 48 c1 3d b3 90 9b 3c 82 10 3a bd 1b 29 39 3e
       0.0943764 0.018989896 -0.0454259 0.18082087
000190 fa cd 48 bd 62 d1 4e 3e c9 d6 16 bc 3a a5 12 3e
       -0.04902456 0.2019706 -0.009206482 0.14320841
0001a0 fd c0 b1 3d c1 58 54 be 5c f8 44 3e bf 9a 00 3e
       0.08679388 -0.20736982 0.19235367 0.12559031
0001b0 d5 ba cf 3d bd 86 11 be 60 26 19 be 72 88 39 be
       0.10143057 -0.14211555 -0.14956045 -0.18118456
0001c0 c1 8e d8 bc dc bb 22 bc 91 20 f6 3d 69 85 0d bd
       -0.026435258 -0.0099324845 0.1201793 -0.034551058
0001d0 a4 6f c1 bd 58 67 e5 bd cf a1 82 be 7e eb 9c 3d
       -0.09445122 -0.11201352 -0.25514075 0.07662104
0001e0 3e 8c 0f be 02 dc 28 3e d8 36 91 3b a6 2a 1d be
       -0.14018342 0.16490176 0.0044315867 -0.153483
0001f0 aa 3f 05 3e 76 d4 a2 3d 14 c1 4a 3d 23 5b b8 3d
       0.13012567 0.0795068 0.04950054 0.09001758
000200 7b 89 36 3e 4f b6 c5 bd 25 95 4a 3e eb 1b 85 3e
       0.17825882 -0.09653913 0.19783457 0.25997862
000210 87 47 17 3e 6b 79 d7 bd c5 3c 00 bd fc 0e ba 3d
       0.1477338 -0.105212055 -0.031307954 0.09084889
000220 3f 3c 74 3e b3 c2 dc 3d 52 b8 8a 3c 23 ae 00 3e
       0.23851107 0.107793234 0.016933594 0.12566428
000230 cd 3d e6 bd 54 89 76 be 17 97 15 3e 67 29 a3 3d
       -0.11242256 -0.24075824 0.14608417 0.07966881
000240 58 77 65 bc 50 7b e6 3d 07 46 d7 bc 8c 8e b9 3d
       -0.014005505 0.11253989 -0.026278509 0.09060392
000250 39 60 ac bd 50 a3 cc bd 7e e1 22 3d 4b 68 2e bd
       -0.084167905 -0.09992087 0.039765827 -0.04257993
000260 72 9c 61 be 62 58 af 3d 38 ce 00 3e ee 1a 87 3d
       -0.22032335 0.085617796 0.12578666 0.06596933
000270 db 2b 85 bc b0 29 21 3e 45 c1 1a 3e 90 ac 6c 3e
       -0.016256263 0.15738559 0.15112789 0.23112702
000280 0b 69 9b 3d 96 42 34 3e f1 33 df 3d c7 7d 69 3e
       0.07588395 0.17603526 0.10898579 0.22801886
000290 5b 2d 08 be 14 25 6e be 6f 65 5f 3c 69 2c 0a 3e
       -0.13298552 -0.23256332 0.0136350235 0.13493504
0002a0 4a 20 2f 3b 00 bf 48 3e 46 6c 22 be 76 09 c7 bc
       0.0026722127 0.1960411 -0.15861616 -0.024296504
0002b0 c0 3f ce 3d b4 7b 88 3d 40 02 08 3d 4a 0c 18 bd
       0.10070753 0.066642195 0.03320527 -0.037121095
0002c0 d7 64 46 3e 0a 99 1c be 05 4f 41 bd ab 56 5e 3d
       0.19374405 -0.15292755 -0.0471945 0.05428187
0002d0 a7 de e1 bd bb 9c 9e 3d 61 79 04 be 82 29 07 3d
       -0.11028796 0.07744738 -0.12936927 0.03299857
0002e0 a5 e8 0f 3e 6c 62 2e be c4 49 23 3e a8 c9 8c bd
       0.1405359 -0.17029732 0.15946108 -0.068744004
0002f0 dc d3 6c bd db 0b 43 3d 25 55 37 bc 0c 86 2d 3e
       -0.057819232 0.047618728 -0.011189734 0.16945666
000300 7c 7d 0c be 7d e3 3a bd 43 38 2e bd 23 82 08 be
       -0.13719743 -0.045627106 -0.042534124 -0.13330893
000310 7a 36 4f be 29 e7 ee 3d 0c 72 2e 3e dc 35 03 3e
       -0.20235625 0.11665184 0.17035693 0.12813514
000320 c9 ac d8 3c e7 00 02 bc 54 6a 12 be 6e d4 7b 3e
       0.026449578 -0.007934785 -0.14298373 0.24592754
000330 cd 1d 76 3e d1 17 a4 3d ed 3b 77 3e 92 bd 39 3e
       0.24034806 0.08012355 0.24143954 0.18138722
000340 a3 2b 96 3d 29 2d f1 3d dd 61 82 be 49 c2 24 3d
       0.07332542 0.11776192 -0.2546529 0.040224347
000350 54 3c 21 3e fa 78 75 be a6 f4 78 3e 23 16 e1 3d
       0.1574567 -0.2397193 0.24312076 0.1099055
000360 36 7e d5 3d ee c8 64 be dd 1d 4d be 17 2f 43 3d
       0.104244635 -0.22342274 -0.20030923 0.04765233
000370 69 29 73 be f9 ca d6 3d aa f0 2b bd 91 89 81 bd
       -0.23746265 0.10487933 -0.041977562 -0.06325067
000380 96 0c ff 3d a5 01 52 be 69 98 7c 3e 47 2b 94 bc
       0.124535725 -0.2050844 0.24667515 -0.018087042
000390 56 89 1c be dc a5 20 3e 7d 87 71 be 23 ee 2e be
       -0.15286765 0.1568827 -0.23586841 -0.1708303
0003a0 03 51 48 3e c0 6e aa 3d 64 2e b7 3d 8b a5 4c be
       0.19562154 0.08321905 0.08944395 -0.19985025
0003b0 27 7e c2 3d 97 7f ad be 19 b8 85 be 7e 5c 2b be
       0.09496718 -0.33886406 -0.26117018 -0.16734502
0003c0 8d e2 c0 bd e0 50 31 be eb 91 08 be 77 a1 18 be
       -0.09418211 -0.17316008 -0.13336913 -0.14905344
0003d0 6b a8 35 3b 36 ce 33 3d 71 85 96 bd 8a dc ac bd
       0.0027718793 0.04389783 -0.07349671 -0.08440502
0003e0 31 31 f2 3c b2 2f bb 3d f6 88 74 3e 65 f7 d4 bb
       0.029564472 0.091399565 0.23880371 -0.0064992183
0003f0 d3 03 2a 3e 3b 5f 16 3e e6 d5 8e 3c 62 33 c2 3d
       0.16603021 0.14684765 0.01743598 0.09482457

layers.hidden_0.bias f4 [20]
000000 52 3a 54 be 87 f5 06 be d1 95 87 bd 0c 7e 47 3e
       -0.20725372 -0.13179599 -0.06620372 0.19481677
000010 45 34 3c be ef 39 cf 3c 9f 7d 37 bd a1 3d 31 3e
       -0.18379314 0.02529618 -0.044797536 0.17308666
000020 d2 c3 f9 3c ae 8f 9d bd 1b fb f3 3d 2f 62 65 bc
       0.030488882 -0.0769342 0.11913129 -0.01400046
000030 c7 9d c6 3d a4 b8 2e be 13 ea 77 bc 21 07 f8 3d
       0.096980624 -0.17062622 -0.015131491 0.12110735
000040 c4 f4 6e bc cc 35 90 bc 17 f4 63 bd 8e 98 20 be
       -0.014584724 -0.017603777 -0.055652704 -0.15683195

layers.hidden_1.weight f4 [20, 20]
000000 a8 80 29 3e 07 47 6b be 76 7d 5b 3e 6e 0d 6e bd
       0.16552985 -0.22976314 0.21434578 -0.058118276
000010 6c 15 32 3e 62 17 ba 3c 8f 6e 9f 3d 01 82 6b bc
       0.17390984 0.022716228 0.07784759 -0.014374257
000020 b3 53 14 3e 56 bc 86 3d f4 5e a3 3d bf d7 d8 3d
       0.14485054 0.06578891 0.07977095 0.10588025
000030 d6 26 22 3e e2 b2 6f bd b7 b7 58 bd 7e c7 7e bc
       0.15835127 -0.058520205 -0.05290958 -0.015550492
000040 10 f3 1c 3d 61 9c 80 be a5 35 6b 3d 90 bd 09 3e
       0.03831774 -0.25119308 0.057424206 0.13451219
000050 52 a4 59 bd 7c bf 8d 3d 31 37 c0 3c 21 bb ab 3d
       -0.053135224 0.06921288 0.023463817 0.083853014
000060 33 80 62 3d 9f 2c 24 3e a5 58 4a 3e eb 1a 1c 3e
       0.05529804 0.16032647 0.19760378 0.15244643
000070 ee c6 78 bd 02 6a 0d bb 4a 83 83 be 95 41 c8 3b
       -0.06073659 -0.0021578078 -0.25686103 0.0061113336
000080 28 a9 f3 bd 48 81 1c 3e 03 87 c2 bb 59 7e 3b be
       -0.11897498 0.15283692 -0.005936505 -0.18309917
000090 f6 9c 45 be e0 ce cc bd ec 90 d0 bc 9e fd f9 3d
       -0.19298157 -0.10000396 -0.02545973 0.12206577
0000a0 60 05 d3 3d 5f 13 0c 3e ff 5d 6e 3d 82 97 dc bd
       0.103037596 0.13679264 0.05819511 -0.10771085
0000b0 5e 68 13 3e 7c 8d 8d bd 4e f6 97 bd f7 38 59 be
       0.14395282 -0.06911752 -0.07420026 -0.21213137
0000c0 2b 2b 03 3e f1 e8 75 3d c2 f9 f6 3d 0e 25 8e 3e
       0.12809436 0.060036603 0.12059356 0.27762645
0000d0 d8 84 4b bd d4 99 79 3d 86 44 10 be a2 26 e7 3d
       -0.049687237 0.060937718 -0.1408864 0.112866655
0000e0 ec 38 1f be c4 75 98 3d 04 44 08 be da 50 29 bd
       -0.15549058 0.07444337 -0.13307196 -0.04133687
0000f0 d1 d8 3b 3e 67 e2 16 bd 86 b8 15 bd c0 ab 22 be
       0.18344428 -0.036837008 -0.03655293 -0.1588583
000100 42 22 01 3e f4 12 5b 3e dd 1e 83 bd 70 6c 39 be
       0.12610725 0.21393949 -0.06402371 -0.18107772
000110 7e 8f 1e 39 bd 3b 91 3c 1e 33 5d 3e 69 57 c0 bd
       0.00015121509 0.01772868 0.21601531 -0.09391672
000120 b6 ae 1c 3e 4b a2 16 bd f5 c2 3d be 24 27 74 3e
       0.15301022 -0.03677587 -0.18531401 0.23843056
000130 f9 15 18 be ad f2 7d 3e 42 58 dd 3d c6 a6 2f 3e
       -0.14852132 0.24799605 0.108078495 0.17153463
000140 d1 fb 17 be 05 59 89 bb b3 e1 14 3d de 09 5a bd
       -0.14842154 -0.00419152 0.036348056 -0.053232066
000150 fd 46 26 be 34 d1 5f be 32 4d e1 bb e5 b3 0d 3e
       -0.16238017 -0.21857148 -0.0068756575 0.13838156
000160 c8 89 65 3d 34 ba 1b 3e c3 95 4b be cb 41 18 be
       0.0560396 0.1520775 -0.19881348 -0.14868848
000170 67 2f d7 bd 9d 2e 6b bd 33 00 63 3e fa 7e 18 bd
       -0.10507088 -0.0574175 0.22168045 -0.03723047
000180 52 6c 85 3e a8 40 80 3a 53 c5 81 3d db f6 2a 3e
       0.26059204 0.0009784894 0.06336465 0.1669573
000190 30 eb 0f be 22 e7 7b 3e 4f 41 7d be f3 f3 d9 bd
       -0.1405456 0.24599889 -0.24731945 -0.10642233
0001a0 cb 41 13 3e cf 05 7d 3e 1c d1 1c be 96 f2 12 be
       0.14380567 0.24709247 -0.15314144 -0.14350352
0001b0 03 c2 d7 bd ff a9 1f 3e 74 fc 81 3d 1c d6 19 3e
       -0.10535052 0.15592192 0.0634698 0.15023082
0001c0 40 0a 6c be 58 0d fb 3d 64 c6 63 be 62 0f f1 bd
       -0.23050785 0.122584045 -0.22243649 -0.11770512
0001d0 62 9c cf 3d 69 a3 03 3d 39 95 83 3d ab 11 5c bd
       0.101372495 0.032138262 0.06424946 -0.053727787
0001e0 8b 71 ad 3d 87 99 67 3a 39 11 78 be d5 43 0c be
       0.08468922 0.0008834828 -0.2422532 -0.13697751
0001f0 d1 81 92 bb 2a 6e 77 bd 48 f2 1d be 2a 66 ba bd
       -0.0044710417 -0.060407795 -0.15424454 -0.091015175
000200 8c b0 82 3d 79 26 43 3e 3f f9 ac 3d 47 74 09 3e
       0.0638133 0.19057645 0.084459774 0.13423263
000210 0a 19 d9 ba 12 8d 0c 3d 50 8c 0c 3c f1 08 41 3e
       -0.0016563248 0.034314223 0.008578375 0.18851067
000220 2b cb 26 be 11 ac 75 3e d5 b3 2e be 5a 3d 48 3d
       -0.1628844 0.2399142 -0.17060788 0.048886634
000230 df 7b 26 3e 1e 54 19 be c6 93 5f be 6b 25 bd 3d
       0.1625819 -0.14973494 -0.21833715 0.092356525
000240 bd 11 03 bb 61 c1 5f 3e 49 08 39 be 1c 77 16 be
       -0.0019999587 0.21851112 -0.18069567 -0.14693874
000250 59 e2 a5 bd 0f f3 a8 bd b9 d3 5e 3d 2a 6b 6f 3e
       -0.08099813 -0.08249485 0.054401133 0.23380724
000260 98 04 6f bd 2b 4c 2d 3d 86 03 78 be 95 72 3b 3d
       -0.05835399 0.042308968 -0.24220094 0.04576357
000270 79 2e e2 3c 3f cc 19 3e 45 82 cc bd 83 ea ff bd
       0.02761005 0.1501932 -0.099857844 -0.124959014
000280 9f 72 a3 bc 5c 38 55 be 5b 94 92 3e 7a 8a 1b be
       -0.019952117 -0.2082228 0.2862881 -0.15189543
000290 54 5c ea bd 57 57 30 3e d5 50 73 3e 93 3c 02 be
       -0.114433914 0.17220818 0.23761304 -0.1271842
0002a0 32 9d fa bd 46 66 8d bd 07 2a 0e be 6e 85 95 3d
       -0.12237014 -0.06904273 -0.1388322 0.0730084
0002b0 20 14 82 3e 8f 7d 3c 3e eb ac c5 3c 8c 4f 58 be
       0.2540598 0.18407272 0.024130305 -0.21124095
0002c0 12 78 43 3c 97 6d 2e bd 6f 85 84 bc 35 bc 4d be
       0.011930482 -0.04258498 -0.016176907 -0.20091327
0002d0 40 96 1d 3e 98 09 65 3d 58 b4 3b 3e 81 f5 7a 3d
       0.15389347 0.055917352 0.18330514 0.061269287
0002e0 e0 43 27 3e b0 0b 26 bd 91 7f a2 3d d2 9c 44 3e
       0.16334486 -0.04053849 0.079344876 0.19200447
0002f0 a1 b3 5a be 26 91 75 be 1d 73 15 3e 98 60 25 bd
       -0.21357585 -0.23981151 0.14594693 -0.040375322
000300 8b 17 04 3e f1 7b 31 be 50 d3 4d 3e c7 da 70 be
       0.12899606 -0.17332436 0.2010014 -0.23520957
000310 ed c5 45 3e 1d dc f5 3b e9 ff 87 3e 6e ee 8e bc
       0.19313784 0.007503046 0.2656243 -0.017447677
000320 c1 34 22 3c 71 13 ca bc a9 e7 40 3e 0d e3 0f 3e
       0.009900273 -0.024667474 0.18838371 0.14051457
000330 06 d4 1d bc 2c 05 6f be 84 12 85 bd 12 9a bb 3c
       -0.00963307 -0.23341817 -0.06497672 0.022900615
000340 ae 8e e9 bc 50 04 7e 3d db fd 08 be d3 34 4f be
       -0.028510418 0.06201583 -0.13378088 -0.20234995
000350 73 ab 80 3e d9 60 8f bd d0 80 ea 3d 8c c9 4a bd
       0.25130805 -0.07000894 0.1145035 -0.049508616
000360 1c df 2c 3e ac 26 95 3d c6 9c 02 be 25 06 44 3e
       0.16881984 0.07282767 -0.12755117 0.19142969
000370 c6 94 37 3e f3 57 28 bd df 3e 1c be d8 11 eb bd
       0.17927846 -0.0410995 -0.15258358 -0.11478013
000380 34 09 99 bd 59 7a 2f 3c ba 57 f9 3c 95 7d ad bd
       -0.074724585 0.010710322 0.03043734 -0.084712185
000390 e9 03 df 3d 68 d0 b6 bd 6a d4 16 be e7 b0 89 bd
       0.10889418 -0.08926469 -0.14729467 -0.067231946
0003a0 aa 23 32 3c 62 71 2e 3c c2 91 c4 bc f6 f1 78 be
       0.010872761 0.01064715 -0.023995284 -0.24311051
0003b0 c4 9c 03 3e 29 1f 49 be d2 a9 a2 bd ae 36 44 be
       0.1285277 -0.19640793 -0.07942547 -0.19161484
0003c0 2b dd 89 bd f5 57 6a be 39 dd 6d 3e 68 25 5b be
       -0.067316376 -0.22885115 0.23228921 -0.21400988
0003d0 1c d1 af bd d3 6e 99 b9 8a 7f c8 3d 1d 0a fe bd
       -0.08584806 -0.00029265005 0.09789951 -0.12404273
0003e0 6c 56 1f 3e 53 84 2d 3e cb bf 5e 3c 25 e7 29 be
       0.15560311 0.16945009 0.013595532 -0.16592081
0003f0 11 e7 18 be a1 38 19 be 4e c8 1c bd a5 00 47 be
       -0.14931895 -0.14963008 -0.038276963 -0.1943384

layers.hidden_1.bias f4 [20]
000000 19 c8 b0 bd 5b e1 4b be 00 2f 53 bd 82 0d 17 be
       -0.086319156 -0.19910185 -0.051558495 -0.14751247
000010 ca 31 0f 3d dd 61 3a 3d 40 be 02 be 9c 24 06 3e
       0.034959592 0.045503486 -0.12767887 0.13099903
000020 8c 2c c3 bd cf c7 3a be f4 d0 14 3e 9f e2 77 bd
       -0.09529981 -0.18240283 0.14532834 -0.060518857
000030 89 b6 31 3d d0 61 4e 3e 5f c9 60 bd 9c fe d0 3d
       0.04338697 0.201545 -0.054879542 0.10204813
000040 43 2a 06 be e0 27 b6 3b 9a 3d fd 3c a8 d0 33 3d
       -0.13102059 0.0055589527 0.030913163 0.043900162

layers.hidden_2.weight f4 [20, 20]
000000 c5 63 38 bc 4b 97 5a be 66 36 00 be 21 cc b6 3d
       -0.011254256 -0.21346776 -0.12520751 0.08925653
000010 22 2d 76 3e cf c6 4a be 4c 98 a2 bd 2f 8c 95 be
       0.24040654 -0.19802402 -0.079392046 -0.29208514
000020 2a 83 62 bd 73 be 13 3e 84 c8 1a 3e cc 60 41 3e
       -0.05530087 0.1442812 0.15115553 0.18884581
000030 25 9d b8 bd c9 f5 75 bc 8a b4 25 be 31 30 79 3e
       -0.09014348 -0.015012213 -0.16182151 0.2433479
000040 4a bb 50 be 8c a2 d2 bd 45 69 5c be ef 43 40 3e
       -0.20383945 -0.102849096 -0.21524532 0.18775915
000050 ca af 55 be f0 3c 5d 3d e3 80 f0 bd f7 51 37 be
       -0.2086784 0.054013193 -0.11743333 -0.17902361
000060 fe 04 97 ba 33 95 12 3d b0 9f a8 bd e9 f8 c9 bd
       -0.0011521874 0.03578682 -0.08233583 -0.09861929
000070 60 ca 56 3e 13 dd 14 3e 88 5c 55 3e e1 ec 9c 3d
       0.20975637 0.14537458 0.20836079 0.076623686
000080 b6 be 54 3e 2b b2 ca 3d 38 ec 32 3e e1 13 f2 3c
       0.20775875 0.09897264 0.17472923 0.029550495
000090 5b 5c 98 bc 0f 67 10 3e 3c 0a 28 be 20 e1 44 3e
       -0.018598726 0.14101814 -0.16410154 0.19226503
0000a0 e8 3f 85 bc 02 3b 90 bd 7b cf 04 bd 1b b2 22 3d
       -0.016265824 -0.07042505 -0.03242443 0.039720636
0000b0 7c b3 39 be 43 75 5e 3e ec 4d 3e bc cb 3a b4 bd
       -0.18134874 0.2172442 -0.011615258 -0.08800276
0000c0 8f 28 7a be 4e 70 2a be 48 8e 96 bd 38 8a 4b be
       -0.24429534 -0.16644403 -0.07351357 -0.19876945
0000d0 57 98 46 3d 5e 52 c4 bd 26 94 7f 3d 62 c2 dc 3b
       0.048485126 -0.09586023 0.062397145 0.0067370394
0000e0 e1 02 c2 bd c9 ec 5e 3e af 08 b4 bd da c3 09 3d
       -0.09473205 0.21770014 -0.08790719 0.033634044
0000f0 2a c0 8c bc 75 b6 cc bd eb 88 c8 3d 31 e1 59 3d
       -0.017181475 -0.099957384 0.0979174 0.053193275
000100 53 a8 42 3e 77 7c ff bd 2a 1a 48 be 9b db 16 be
       0.19009523 -0.12474912 -0.19541231 -0.1473221
000110 6e e5 52 3c 1d b0 26 3d 72 1b 55 3e 3f c7 4a be
       0.012872083 0.0406953 0.20811251 -0.19802569
000120 c4 85 0b 3e 94 9e 62 3d 4e 88 22 be 8f 87 c4 bd
       0.13625246 0.055327013 -0.15872309 -0.09596168
000130 61 61 1c be 5b 3a 5c be d3 1c 80 be 5d ae 64 3e
       -0.15271522 -0.21506636 -0.2502199 0.2233214
000140 ab c6 8c bd 2a 35 c2 bd ac 5a 00 be 5f 18 80 bd
       -0.068738304 -0.094827965 -0.12534589 -0.062546484
000150 cc 8b fa 3d 52 90 ad 3c ec cc 23 3e 35 36 f2 3d
       0.122336954 0.021186981 0.1599614 0.118267454
000160 66 6c 42 be 73 ef 05 3d 98 60 2a 3e 8e 4a 1f be
       -0.18986663 0.03269906 0.1663841 -0.15555784
000170 2b 22 af bd 99 6f 83 be a5 b7 ee bd b1 93 3c be
       -0.08551439 -0.2567108 -0.11656121 -0.18415715
000180 07 f1 62 3e 0c 8c 8f bc d0 df b1 3b 6c 92 01 be
       0.22162257 -0.017522834 0.005428292 -0.12653512
000190 e3 b9 4d bd 3b ce 63 be a5 b7 e3 bc 04 f3 55 bd
       -0.050226104 -0.2224664 -0.02779753 -0.05223371
0001a0 42 46 02 3e 40 ad 8f bc 7c 61 29 be ff e1 98 3d
       0.12722114 -0.017538667 -0.16541094 0.0746498
0001b0 79 01 3a 3e 46 36 3a 3e ed eb 4e bd be 5b ba 3d
       0.18164624 0.18184766 -0.050517965 0.0909953
0001c0 c8 f5 c3 bd 14 b0 6b 3d 32 cd 4e bd 52 fd ba bd
       -0.095683634 0.057540968 -0.05048866 -0.09130348
0001d0 92 cd 63 be 8e dd 28 3e da 87 3c 3e a6 cf e6 bd
       -0.22246388 0.16490766 0.18411198 -0.112700745
0001e0 f6 c8 ad 3d 5b 5a 94 3d de 71 01 3d c8 fd a6 bd
       0.08485596 0.072437964 0.031602733 -0.08153874
0001f0 fd a2 49 3e a7 83 27 be 42 dc 65 be 58 7b 91 be
       0.19691081 -0.16358815 -0.22447303 -0.28414416
000200 50 9c 61 3e 9b a5 81 3e 10 3a 48 bd 40 2c 23 3c
       0.22032285 0.2532166 -0.048883498 0.0099592805
000210 5f 0e c0 3d 31 c7 82 3e b1 db 53 be 1d 72 e1 3c
       0.09377741 0.25542596 -0.20689274 0.027520234
000220 15 9c 91 be 5d c6 81 be f3 1b 76 be 84 c2 81 3e
       -0.28439394 -0.25346652 -0.240341 0.25343716
000230 9c 44 43 bd 94 4a 02 3c a0 eb 37 3d 6d 6c 2a 3c
       -0.047672853 0.007952351 0.044902444 0.010401827
000240 7f df dd 3c 75 52 c2 3d 64 20 48 be 7c 7a 66 bd
       0.02708411 0.09488384 -0.19543606 -0.056269154
000250 9e dd 38 bd 07 7f 6c bd 6e 9d 66 3e 41 8b ca 3d
       -0.045133226 -0.05773833 0.22520992 0.09889842
000260 67 e4 42 3e b3 ea cf bd d9 4c 19 3e 78 2a a6 3d
       0.19032441 -0.10152187 0.14970721 0.08113569
000270 fc 8d 34 be 79 b7 5f be ef 8d 76 be 02 3e cb bd
       -0.17632288 -0.21847333 -0.24077581 -0.099239364
000280 e8 31 d0 3d 62 af 86 be d2 c4 4b be ae 26 fa bd
       0.10165769 -0.2630568 -0.198993 -0.12214409
000290 76 0f 4c 3e b1 96 79 bc e9 24 ca bc 96 8a f2 bd
       0.19927773 -0.015233682 -0.024675803 -0.118428394
0002a0 e3 66 c7 3d 4f c1 cd bd 29 8e 7f 3e fb 6a 70 bd
       0.09736421 -0.10046636 0.24956574 -0.058695775
0002b0 f3 b1 2c 3e 2e 9e a9 3d b3 a4 15 be 44 40 74 3e
       0.16864757 0.082821235 -0.14613609 0.2385264
0002c0 6d f5 a1 bd b2 ac 93 be 79 3a 0b 3e 86 68 34 3d
       -0.079081394 -0.28842694 0.13596524 0.044044994
0002d0 c0 f2 dd bd ac 18 32 3d fb 58 a8 3e 72 7f f3 bc
       -0.108373165 0.04348056 0.32880387 -0.029723857
0002e0 69 f7 86 be 58 90 0e be a1 56 1f 3d 8d 4e 1e bc
       -0.26360634 -0.1392225 0.038900975 -0.009662283
0002f0 9b 7e cd bc 63 b7 41 be 53 25 a5 3d e6 fd 3f be
       -0.025084784 -0.18917613 0.0806376 -0.18749198
000300 49 db 1a be 18 e4 48 be 58 3d 0d 3e 13 51 4f be
       -0.15122713 -0.19618261 0.13792932 -0.20245771
000310 37 ea f6 bd 7e a1 6f 3e 1f f5 bd 3d d7 4c 73 be
       -0.12056392 0.23401448 0.09275269 -0.23759781
000320 53 3f 4a bd 93 5e 46 be 70 39 8e 3d bf f4 71 3e
       -0.049376797 -0.19372015 0.06944549 0.2362852
000330 f2 93 59 3d fa f2 e7 3d cf 2e c6 bd d6 a1 9e 3e
       0.053119607 0.11325641 -0.09676897 0.30982846
000340 21 f9 1f be 53 6d 12 be 5e c6 99 3d e5 e7 d9 bd
       -0.15622379 -0.14299516 0.07508539 -0.106399335
000350 19 a5 60 be 1f 22 2e be ec d3 66 3d 0d 48 96 be
       -0.2193798 -0.17005204 0.05635445 -0.29351845
000360 2f f0 76 3e 14 9f 02 bd 9d 0a 97 3d a6 1d 42 be
       0.2411506 -0.03188999 0.07375071 -0.18956622
000370 17 9a d3 bd 49 77 98 3d 5d 32 7c be 57 c5 20 3e
       -0.10332125 0.07444627 -0.24628587 0.15700279
000380 01 a1 0d 3e 80 0f c2 bd 7b ae 05 3e 55 07 15 bc
       0.1383095 -0.09475613 0.1305484 -0.009095986
000390 7e 48 56 3e ca 14 7c 3e d0 d2 2e bd 8b 45 81 3d
       0.20926091 0.24617305 -0.042681515 0.063120924
0003a0 74 58 ef 3d 9b b6 67 3e 26 3d b4 3d b7 be 9a 3d
       0.11686793 0.22628252 0.08800726 0.07555907
0003b0 7e 45 28 be 0b 38 be 3d 0c 60 04 3c e5 c6 88 bd
       -0.16432759 0.09288033 0.00807954 -0.06678561
0003c0 57 3d 01 be bc 37 4b be 64 6c 0f 3e 82 fe 3b be
       -0.12621056 -0.1984548 0.14006191 -0.18358806
0003d0 63 82 7f 3d ba 2e ac 3d 0a c0 ed bd 11 58 75 3e
       0.062380206 0.0840735 -0.11608894 0.23959376
0003e0 74 8a 25 3d 55 ca 3d bc 53 3e ec 3b a0 f4 0d bd
       0.040415242 -0.011583884 0.007209578 -0.03465712
0003f0 c7 44 b2 bc 54 41 35 be 31 87 38 be 52 69 d7 bc
       -0.021761311 -0.17700702 -0.18020321 -0.026295338

layers.hidden_2.bias f4 [20]
000000 4e 81 80 bc 3b 5e e8 3d 71 14 86 bd e9 46 38 be
       -0.015686657 0.11346098 -0.06546868 -0.179958
000010 f8 91 0e 3e 0b 7f 14 3e 84 49 04 be 46 68 c1 3d
       0.1392287 0.14501588 -0.12918669 0.09443717
000020 a1 0c 9a bd e3 31 b8 3c df 0c f0 bd 18 f6 28 3e
       -0.0752194 0.022484725 -0.11721205 0.16500127
000030 a1 bc 86 3d a2 d7 76 3d b0 30 71 be 45 14 62 be
       0.06578947 0.060264237 -0.23553729 -0.22078045
000040 af c9 f0 3d ef 6c 07 3e 51 d5 a6 bc 37 cf 1a be
       0.11757218 0.13225149 -0.020365389 -0.15118109

layers.hidden_3.weight f4 [20, 20]
000000 6a 77 f1 bb 0d 92 18 3e a9 96 13 be 1c 07 14 be
       -0.0073689716 0.14899464 -0.14412941 -0.14455837
000010 1a 4f 85 bc b4 84 09 be ea c5 8a bd fe 4e ed bd
       -0.01627307 -0.13429528 -0.0677603 -0.11587332
000020 67 3f f1 bd 58 d6 3e 3e 97 d1 8d 3e d5 6c 96 3b
       -0.11779671 0.18636453 0.27698967 0.0045906105
000030 67 ec 20 be 2e 9c 78 3e d3 17 fa 3d 97 22 0b 3e
       -0.1571518 0.24278328 0.12211575 0.13587414
000040 3b 40 89 3e 39 a2 1e 3e 74 2b cd bc c9 cb 7e 3e
       0.26806816 0.1549157 -0.025045134 0.24882425
000050 df 21 6c bd 36 d7 1a bd 44 36 60 3e d6 ee 59 be
       -0.05764949 -0.037802897 0.218957 -0.21282515
000060 1a b8 1e be 3f 9b 2c be 79 26 a1 3c 50 e1 36 be
       -0.15499917 -0.16856097 0.019671666 -0.17859387
000070 b2 8d 94 bd 04 ed 72 3e ee 12 1c 3b 4b 83 1d 3e
       -0.07253589 0.23723227 0.0023814994 0.15382116
000080 bc 56 75 3e 70 e0 55 3e c5 6c 7a 3d 6b 4b 54 3d
       0.23958868 0.20886397 0.061138887 0.051829737
000090 95 38 62 3e 94 b5 45 3e ed 9d 24 be 19 af f1 3d
       0.22091897 0.19307548 -0.16075869 0.11800975
0000a0 7e 0c 99 be 9b 74 3c be 85 f4 9d bd ea a2 8a be
       -0.29892343 -0.18403856 -0.07712654 -0.2707742
0000b0 9b c7 24 3e 78 d2 f1 bd 55 7d 94 be bd df 41 be
       0.16091768 -0.11807722 -0.2900187 -0.18933006
0000c0 c9 8f 33 be 3a d3 ea bd 30 ac 8d bd c0 44 e5 3d
       -0.17535318 -0.114660695 -0.06917608 0.11194754
0000d0 1e 88 ae bd 61 b2 2c 3e 72 d5 3e 3e 40 a4 53 bd
       -0.08522056 0.16864921 0.1863611 -0.051670313
0000e0 83 98 ed 3d 41 19 0c 3e a5 12 1a 3e ea f5 0e be
       0.11601355 0.13681509 0.15046175 -0.13960996
0000f0 13 20 81 bd 6b e1 a2 bc bf b1 be 3d 0f a0 0e be
       -0.06304946 -0.019882878 0.09311246 -0.13928245
000100 b9 d5 d5 3d 68 89 1f 3e 96 a4 82 be af 12 8a bd
       0.10441155 0.1557976 -0.25516194 -0.06741845
000110 f8 f1 c4 3d b1 dc 49 be 24 7f 9a 3d 55 3b b7 bc
       0.096164644 -0.19713093 0.075437814 -0.022367159
000120 21 20 2f bd 61 2b 4c be c5 51 82 bd e8 4f 1e be
       -0.04275525 -0.19938423 -0.063632526 -0.1546017
000130 0c cc 63 3e d4 4b a7 3b 3b 00 f6 3d 30 40 c7 3d
       0.22245806 0.005105475 0.12011763 0.0972904
000140 53 aa b3 3d 6e 2b 32 3e 50 e2 34 be 14 67 a8 bd
       0.08772721 0.1739938 -0.17664456 -0.082227856
000150 7c 90 00 3e 7c 1c 04 be 31 3d ae 3c 67 2b 53 3e
       0.12555116 -0.12901491 0.021269413 0.20622025
000160 47 06 8b 3e cd 9f 92 3d e9 7e 85 be be b2 28 3e
       0.27153227 0.07159386 -0.26073387 0.16474435
000170 66 2d a7 3d be d6 26 be 5f bf 21 be 4d 56 d7 bd
       0.08162956 -0.16292855 -0.15795659 -0.105145074
000180 f5 e2 2b be 36 20 57 be 70 6e fd bd af 31 b9 bc
       -0.16785796 -0.21008381 -0.1237458 -0.022606699
000190 c9 f4 0c 3e 82 26 87 bd 58 98 80 be 91 d1 0b 3e
       0.13765253 -0.06599142 -0.2511623 0.13654162
0001a0 f4 2e 06 be 23 fe 43 bd d7 d5 43 3e b0 39 45 be
       -0.13103849 -0.047849786 0.19124542 -0.19260287
0001b0 14 42 47 3e 77 1b 28 3e 69 09 88 be 26 7f 45 bd
       0.194588 0.16416727 -0.2656968 -0.04821696
0001c0 75 5c e3 3d a1 15 ac 3d be 6e 3a be 57 15 e1 3c
       0.11101619 0.08402563 -0.18206307 0.027475996
0001d0 7a 61 11 be 0b 53 97 bd b9 24 b7 bd b9 a1 12 be
       -0.1419734 -0.07388886 -0.08942551 -0.14319505
0001e0 4c bb 8b be 11 18 85 3d 79 f8 e7 3d b4 e8 0a 3d
       -0.27291334 0.06498731 0.11326689 0.03391333
0001f0 05 a0 0f 3d 95 a2 1b be d6 ef 3a bd d1 73 ee 3d
       0.035064716 -0.15198739 -0.04563888 0.11643184
000200 6a 0a d6 bd 45 84 dc bd b7 d5 70 3e 7c d2 cd bd
       -0.10451205 -0.10767416 0.23519026 -0.10049912
000210 01 70 06 3e c7 74 45 3d d0 e1 89 bc 43 e2 d3 bd
       0.13128664 0.04820707 -0.016831309 -0.103458904
000220 5a b2 95 3e b2 e5 04 3e a7 94 51 3e 24 1f 30 3e
       0.29237634 0.12978247 0.20466863 0.17199379
000230 19 02 3a 3e bd 5a fe 3d ec 6e 1b 3e 17 86 b2 3d
       0.18164863 0.12419651 0.15179032 0.08716982
000240 79 ab 1a be 14 ee f4 bc 55 73 d8 3d 75 48 d1 3d
       -0.15104474 -0.02989868 0.10568873 0.10218898
000250 0b 09 89 3e 2d 4b cf bd 9b 47 b6 bc 54 a6 cf 3d
       0.26764712 -0.101217605 -0.022250941 0.101391464
000260 9b bc 12 3e ad 3d 68 be b3 3a ed bd b7 2a 07 3e
       0.1432976 -0.22679777 -0.115834616 0.13199888
000270 0c 48 7f 3a fb ea 48 3e 02 86 55 bd c4 0d 0c be
       0.0009738214 0.19620888 -0.052129753 -0.13677126
000280 37 9c 94 bd 5c 94 e9 3d 12 83 0e be c8 27 57 be
       -0.07256358 0.114052504 -0.13917187 -0.21011269
000290 42 74 27 be 2b 39 86 bb 75 9a 79 be 56 51 0b 3e
       -0.16352943 -0.0040961704 -0.24375327 0.13605246
0002a0 37 10 1f be 5c 05 80 3e 2c 61 14 3e ac b1 ac bd
       -0.15533529 0.2500409 0.14490193 -0.08432326
0002b0 59 05 73 3e 8a 3b 94 3d d4 e5 05 3e 36 ff 54 3d
       0.23732509 0.07237919 0.13075954 0.0520012
0002c0 e7 e9 b0 bc 20 66 0d 3e 4b 07 31 3e d5 0d 96 bd
       -0.021595908 0.13808489 0.17287938 -0.07326857
0002d0 33 0e 81 3c 3d ff 59 be b6 64 9d 3d fb 50 f5 3d
       0.015753841 -0.21288772 0.07685225 0.119783364
0002e0 44 21 0b 3e 56 1e 0a 3d 78 e9 85 bd 76 75 d9 bd
       0.13586909 0.033720337 -0.06538671 -0.10618107
0002f0 38 ea 59 bc f3 b2 e6 3d 0a 5e 48 3e ae 03 86 3d
       -0.013300471 0.112646006 0.19567123 0.065436706
000300 6c 86 5b 3e 98 29 3a 3d 69 7c 12 bd 3c bb d9 3d
       0.21437997 0.045449823 -0.035763178 0.10631415
000310 eb 40 27 3d ee 82 51 3e 1a 48 08 be 79 88 ca 3c
       0.040833395 0.20460102 -0.13308755 0.024723278
000320 ad 62 8a 3e 02 bd 0b be bb 02 61 bd 39 4c 8c 3e
       0.2702841 -0.1364632 -0.054934245 0.27401903
000330 0a be 69 be 0a b6 16 3e cb fe 55 3e 5d 08 1e 3d
       -0.228264 0.1471788 0.20897977 0.038582195
000340 75 8e b9 bd ec 29 b9 3d 89 8a d2 bd 75 3b 2e 3e
       -0.09060375 0.09041199 -0.1028033 0.17014869
000350 5b 0e 05 be 95 64 09 bd cc b7 05 bc 35 c2 3e be
       -0.12993757 -0.033543188 -0.008161496 -0.18628772
000360 b6 9f 63 be 5b 25 34 be a4 6b 41 3d a4 88 0f 3e
       -0.22228894 -0.17592375 0.047221795 0.14016968
000370 73 78 25 3e 4d a8 53 3e 7d e3 12 3e ef a6 44 3e
       0.16159229 0.2066967 0.14344592 0.19204305
000380 7c 4b 5e be c4 d6 51 3e 7f b5 70 3e b1 c9 e4 3c
       -0.21708483 0.20492083 0.23506735 0.027928205
000390 36 09 12 be 68 57 3a be b5 c1 ce 3d b3 a9 7c 3e
       -0.14261326 -0.18197405 0.100955404 0.2467411
0003a0 ba de 0c bc 03 9f f7 bd 0d ed 35 be fa 01 fe bd
       -0.008598024 -0.12090876 -0.17766209 -0.12402721
0003b0 98 39 4d be af 8b 0f 3e 66 64 47 be 7a 5f 67 be
       -0.20041502 0.14018129 -0.19471893 -0.22595015
0003c0 d2 63 90 bd 2c 80 ae bd 80 b8 05 bd e8 4c a1 3d
       -0.07050289 -0.085205406 -0.032646656 0.07875997
0003d0 fb f5 be ba 6c 75 b8 3d 81 c9 89 be 99 0d b5 bd
       -0.0014569158 0.090067714 -0.26911548 -0.08840484
0003e0 27 52 b9 bd 4b 95 3f be ab b0 be bd 77 ac 4d be
       -0.090488724 -0.18709294 -0.093110405 -0.20085321
0003f0 75 85 1e be e4 89 8b bd 42 83 43 3e ed 9f fa 3d
       -0.15480597 -0.0681341 0.1909304 0.12237535

layers.hidden_3.bias f4 [20]
000000 70 85 24 3e 99 f6 91 bd ad d7 f2 3c b2 1e 3f 3e
       0.16066527 -0.07127113 0.029643858 0.18664053
000010 ca 46 51 bd 8c a7 48 3e 31 a3 06 bd e6 7c 5c 3e
       -0.0510929 0.19595164 -0.032870475 0.2153202
000020 1d 85 10 be 87 94 df bd e3 be 66 bc 3b 1d fa bd
       -0.14113279 -0.10917001 -0.014083597 -0.122126065
000030 5b 05 fd bd 99 50 1a be bc 67 2c 3e 77 ef 1d 3e
       -0.12354537 -0.15069808 0.16836447 0.1542338
000040 ad 0d 10 3d 2c a1 12 3e c3 62 f9 bd 8c 0d e7 bd
       0.035169292 0.14319295 -0.121770404 -0.11281881

layers.hidden_4.weight f4 [20, 20]
000000 68 c8 83 be 57 33 43 be c3 08 8e be 05 52 b4 bd
       -0.25738835 -0.19062553 -0.2774106 -0.088047065
000010 ea b8 77 3d de b6 4f 3d 45 7a 5a 3d 4d a6 62 3e
       0.060479082 0.050711505 0.05333926 0.22133751
000020 9d 5c 31 be 25 4f 2f be e2 ae cb 3d c2 ff e8 3c
       -0.17320485 -0.17120035 0.099454656 0.028442267
000030 c2 17 7b bd e6 03 b8 bd 0e eb 39 be 59 2c 80 3e
       -0.061301954 -0.089851186 -0.18156072 0.25033835
000040 b8 ef 8f bd 63 35 86 3c f8 b5 80 3d a8 cc e4 bd
       -0.070281446 0.016382879 0.06284708 -0.111718476
000050 7c 90 10 be a4 e4 c5 3c 2d f3 13 3e 46 b1 8f 3d
       -0.14117616 0.024156876 0.14448233 0.07016234
000060 77 5c e9 bd d4 03 b1 bc af 00 45 bd 0c b0 0f bd
       -0.113945894 -0.02160827 -0.048096355 -0.03508
000070 34 3f 02 3e be 5f cd 3d aa 14 6d be cb a1 36 be
       0.12719423 0.10028027 -0.23152414 -0.17835157
000080 5b 77 ef 3c 4b 8d db bd 1d 77 3a 3c 55 16 33 3d
       0.029231718 -0.10720309 0.011380938 0.04372247
000090 2c ba 2e 3d 3b 49 c1 3c 84 4f 48 3e 6b 32 30 3e
       0.042658016 0.02359449 0.19561583 0.17206733
0000a0 fd 20 4f be 29 94 15 3e ea f3 75 be f4 1c 41 be
       -0.20227428 0.146073 -0.24018827 -0.18858701
0000b0 97 f9 52 3e 12 54 28 be d7 06 d9 bd e8 fe d6 bd
       0.20603023 -0.1643832 -0.10597008 -0.10497838
0000c0 7f ab 67 be f6 d0 33 bd 1c b5 c9 bd 8f ca 7f 3e
       -0.22624014 -0.043900453 -0.09848997 0.24979614
0000d0 e3 7e c9 3d f3 5c 6c 3e d0 64 07 be 48 07 35 be
       0.09838655 0.23082332 -0.1322205 -0.17678559
0000e0 b2 d5 0a be c5 16 4e 3e 7b b5 d8 3d da a8 09 be
       -0.13558081 0.20125873 0.1058149 -0.13443318
0000f0 5d 7a fc bd ce fd 24 bd e9 4f f0 bd 49 fc 3f be
       -0.123280264 -0.04028111 -0.11733992 -0.18748583
000100 27 51 51 bc 10 63 98 be 29 5b d0 3d 87 4d 95 3c
       -0.012775696 -0.2976308 0.101736374 0.018225444
000110 e9 7b 72 3e fe 42 d2 bd d4 69 7d bd 5a c9 75 be
       0.2368008 -0.10266684 -0.061868504 -0.24002591
000120 1d 35 80 3e 6f 67 bf 3c db 30 10 be d6 c8 37 3e
       0.25040522 0.02336475 -0.14081137 0.17947707
000130 cd 6b 1e 3e ba 6b 15 be dd 89 94 be fa be eb bb
       0.1547081 -0.14591876 -0.2901143 -0.007194397
000140 e0 9c ea bd 40 44 84 be 5c 16 e4 3c 2f ae c8 3d
       -0.11455703 -0.2583332 0.027842693 0.09798848
000150 2c d0 91 3e 2c a2 85 3e 98 67 71 3d 4f 1f 9d 3c
       0.28479135 0.2610029 0.058936685 0.019179968
000160 b6 ea 0e be b0 1c 87 be fb 60 f1 bd 89 c0 7f 3e
       -0.13956723 -0.26389074 -0.11786076 0.2497579
000170 f4 6a 4e be d6 d7 73 3e 59 76 ac 3d d2 1d 66 3d
       -0.20157987 0.23812804 0.084210105 0.056180783
000180 2c 09 32 be fe de be 3d 34 75 a2 3d 23 fa 6f 3d
       -0.17386311 0.09319876 0.07932511 0.05858816
000190 1d f0 12 3e f3 04 a1 3d fa 47 8e 3e 89 81 61 3e
       0.14349408 0.07862272 0.2778929 0.2202207
0001a0 b0 a2 65 be 6c e5 68 be f7 9e 96 bd b7 07 c9 3d
       -0.22425342 -0.22743767 -0.07354539 0.098159246
0001b0 79 57 fd 3d 66 e2 0d 3e e6 f6 49 be e3 17 e1 3d
       0.123702 0.13855895 -0.1972309 0.10990884
0001c0 c0 5d 30 3c 77 2b 3e be 5d cd 02 be 84 4d c7 bd
       0.010764539 -0.18571268 -0.12773652 -0.09731582
0001d0 f7 e4 4b be cc f7 9a 3d 98 c4 f4 bd ae 17 1a be
       -0.19911562 0.07566795 -0.1195156 -0.15048096
0001e0 d3 34 7e be c7 8c 43 be c4 51 e7 bb f4 f9 42 3d
       -0.24824838 -0.19096671 -0.007059308 0.047601655
0001f0 b6 0a c0 bd 45 58 7b 3e 2d 64 5e bd cf e2 ef 3d
       -0.09377043 0.24545391 -0.054294754 0.11713182
000200 e0 eb 4b be 6c a7 54 be 5c 4f 23 be b9 63 82 3e
       -0.19914198 -0.20766991 -0.15948242 0.25466707
000210 4a 99 21 3c 53 61 75 3e 72 f8 fc 3c ce 15 fb 3c
       0.009863207 0.23962907 0.030880187 0.030650046
000220 40 57 bb 3d 0a 28 35 be 27 11 4e 3d d6 06 2d bd
       0.09147501 -0.17691055 0.050309326 -0.042242847
000230 e3 54 88 3c fc 66 80 be 7d a0 ad 3d 01 34 d4 bd
       0.01664204 -0.2507857 0.08477876 -0.103614815
000240 83 eb 7b 3e 98 0b 7e 3e 4c e1 67 be 07 07 d6 bd
       0.2460156 0.2480911 -0.22644538 -0.10450559
000250 dc d1 5b be 0e 1d 24 be 3c ae 83 3e b0 28 51 bd
       -0.21466774 -0.16026708 0.25718868 -0.051064193
000260 11 91 24 be 4b b1 55 3e d8 59 04 3e 0b f1 2d 3e
       -0.16070963 0.20868413 0.12924898 0.16986482
000270 e6 26 17 be 74 33 c2 3b e7 21 c3 3d de d9 72 be
       -0.14760932 0.005926544 0.09527951 -0.23715922
000280 46 1e ad bd 21 77 75 bd 35 4d 0d be 12 24 64 3e
       -0.0845304 -0.059928063 -0.13798983 0.22279385
000290 fd a8 38 be 2c 8e 31 be 56 c8 7e 3e 66 f7 6d be
       -0.18033214 -0.1733939 0.2488111 -0.23238906
0002a0 3a 3e b1 3c 46 21 3a 3e d2 17 f8 3d 89 90 81 be
       0.021636117 0.18176755 0.12113918 -0.25305584
0002b0 e9 9f c5 3d b5 ed 09 be 38 b6 d5 3d f7 f4 a9 3d
       0.09649641 -0.13469584 0.10435146 0.082986765
0002c0 40 3c 8c 3d 8a 79 8c be ec 9b 4e be f8 7a 46 3e
       0.06847429 -0.27436477 -0.20176667 0.19382846
0002d0 8e 48 13 be 72 46 35 bd d5 5c 6f be ed 3b e7 3d
       -0.14383146 -0.044256635 -0.23375256 0.11290727
0002e0 86 90 48 3e 26 bb 19 be 6f 02 7f be 2a a5 42 bd
       0.19586381 -0.15012798 -0.24903272 -0.047520794
0002f0 92 74 e6 bd 99 5c 67 be 5c cc 91 3d c3 a2 10 3c
       -0.11252703 -0.22593917 0.071190566 0.008827868
000300 82 6e 76 3e 40 c3 f7 3c bd 47 90 bd ce 7b c7 3d
       0.24065593 0.03024447 -0.07044933 0.09740411
000310 bb ba 9a 3e c7 1d cc bd fb 66 f1 bd 9e 8c 6f bd
       0.3022059 -0.09966617 -0.1178722 -0.058483712
000320 9e c3 41 3e ad 53 72 3e 82 ac 34 3e 5b 82 53 be
       0.18922278 0.23664732 0.17643932 -0.20655195
000330 2d 75 05 bd 60 54 83 bd 12 36 68 3e cb 36 4d be
       -0.03258245 -0.06412578 0.22676876 -0.20040433
000340 4c 79 c5 bd 0e 0c 96 3e fd 77 30 3e d8 32 ac 3d
       -0.09642276 0.29306072 0.17233272 0.08408135
000350 07 9d cf 3d bb be 11 bd c0 c8 22 3e 37 43 89 3d
       0.101373725 -0.035582285 0.15896893 0.06702273
000360 d3 ff 4d bd b7 98 cf 3a 90 ad c5 3d c4 75 97 3e
       -0.0502928 0.0015838359 0.09652245 0.29582036
000370 6a ab 06 be 52 33 27 be 23 2f 3e 3d 57 07 fa 3d
       -0.13151327 -0.16328171 0.04643167 0.12208431
000380 6d 36 f1 3b f2 da 9a 3d 04 40 db 3d 25 ac 1b bb
       0.0073612244 0.07561292 0.107055694 -0.002375373
000390 fe fd 1d be 32 97 69 be e7 91 38 3e bc 36 b5 3d
       -0.15428922 -0.22811583 0.18024407 0.088483304
0003a0 c6 1d 91 3c c1 24 3a be 46 1b 10 be c2 eb 76 3e
       0.017714392 -0.18178083 -0.14072904 0.24113372
0003b0 05 14 f7 bc 91 94 26 3e 5a 63 23 be 60 7f b6 ba
       -0.030160913 0.16267611 -0.15955868 -0.0013923459
0003c0 c9 0e c1 3d de 8e 90 be a2 52 62 bd 7b bd 6f be
       0.09426648 -0.28234 -0.055254586 -0.23412125
0003d0 bd c3 8c 3e c4 88 88 3d 31 b7 7e 3d 6f 6a c6 3c
       0.27493086 0.06666711 0.062186424 0.024220673
0003e0 c2 d3 3e be 82 69 70 be fa 37 c3 3d 23 d3 82 3e
       -0.18635467 -0.23477748 0.09532161 0.2555171
0003f0 43 95 5c 3e c3 a3 e5 3c e7 25 7d be cb d7 4d be
       0.21541314 0.02803219 -0.2472149 -0.2010185

layers.hidden_4.bias f4 [20]
000000 42 d4 7c bd 8f 97 35 be e9 ad e9 bd 71 67 96 bb
       -0.061725862 -0.17733596 -0.11410124 -0.004589968
000010 7c 0a cf 3c 30 9b 9c bd 78 76 96 bd 1e 73 df 3c
       0.025273554 -0.07646787 -0.07346815 0.027276572
000020 ff eb 25 bd c6 94 1c 3e ee 32 40 be 3b 73 ef 3d
       -0.040508267 0.15291128 -0.18769428 0.116919
000030 6e 3d 9e bd 51 98 a6 bc 6d 19 9d bd ef b5 ea bc
       -0.077265605 -0.020336302 -0.07670865 -0.028651206
000040 4c 02 00 3e 99 b7 f0 bd e9 fd c9 3d b2 99 58 bd
       0.12500876 -0.117537685 0.09862883 -0.05288095

layers.hidden_5.weight f4 [20, 20]
000000 03 dc 62 3c 18 b9 04 3d 55 80 64 3e 30 22 a4 3d
       0.0138464 0.03240308 0.2231458 0.08014333
000010 7c 1b b9 bd 76 f5 4f 3d 54 cb bc bd 61 23 fc 3c
       -0.09038445 0.0507712 -0.09218469 0.030778589
000020 50 1b 84 3e 38 b4 aa bd 68 31 57 3c 38 0c d5 bd
       0.25802088 -0.08335155 0.013134338 -0.10402721
000030 7c 55 13 be ff 8d f5 3d 63 dc d1 3d eb 38 5b 3e
       -0.14388078 0.11989974 0.102471136 0.21408431
000040 6f 4b 0e 3e 35 a4 19 be 79 14 27 3e 0d f3 13 bc
       0.13895963 -0.15004046 0.16316403 -0.009030116
000050 46 bb 60 3e 20 fe ba bd ea 24 49 be 94 16 d9 bd
       0.21946439 -0.09130502 -0.19642988 -0.106000096
000060 c2 e0 19 3e ad f5 65 bd 7b 9a 00 bd a2 ee 41 3d
       0.15027145 -0.056142498 -0.031397324 0.04734672
000070 f6 f8 56 be 04 8f 8c 3d 7e 6d 28 be d0 f8 ce 3d
       -0.20993409 0.068632156 -0.16448018 0.10106051
000080 d4 14 77 bd a8 95 bd 3d 2a 1a eb bd 64 1d 90 be
       -0.060322598 0.0925706 -0.114796 -0.28147423
000090 73 c1 a9 bd 24 54 d9 bd ad 0a f5 bb 9e c3 ef bd
       -0.08288851 -0.10611752 -0.0074780793 -0.11707233
0000a0 50 09 57 3e 3a 3d 6f be 87 3b ec 3c 4b d6 0a 3e
       0.20999646 -0.233632 0.028836979 0.13558309
0000b0 36 13 3a 3e 76 c5 da 3d f4 61 39 3d 91 86 8d 3c
       0.18171391 0.10682194 0.04525943 0.01727608
0000c0 db 0e b1 3c e0 1e 5e 3d d7 f5 49 be de 6d f1 3d
       0.021613529 0.054228663 -0.19722687 0.11788534
0000d0 f0 cd ab 3d 86 7d 1d 3e bc db ff 3d f4 b6 8a 3d
       0.08388889 0.15379915 0.12493083 0.06773177
0000e0 fb 51 1e 3d ef 61 6f bd ba e4 56 be be 3d 96 bc
       0.0386524 -0.058443006 -0.2098569 -0.018339988
0000f0 9c b3 28 3e 4e a1 63 3e 48 33 33 bd 66 a8 2e bd
       0.16474766 0.22229502 -0.043750077 -0.042641066
000100 dd 93 f4 3c e7 16 49 be 6e 1d 91 bd 3c 63 4f be
       0.029855663 -0.19637643 -0.070856914 -0.20252699
000110 2f 0e 98 bd 3a ec 52 be 4f 3e 9a bd 7a ab f9 bd
       -0.0742458 -0.20597926 -0.07531416 -0.1219091
000120 5f ee 7d be 8d 30 84 3d 9c 4c bf bd 0c 1d 91 bc
       -0.24797963 0.06454573 -0.09340784 -0.017714046
000130 1a d7 24 be c8 73 6f 3c 06 1a db 3c 43 b5 91 bc
       -0.1609768 0.014615007 0.026745807 -0.017786628
000140 0f 38 a7 3c 03 5f 3c be cc a7 10 3d 9b 22 d2 bd
       0.020412473 -0.18395619 0.035316274 -0.10260507
000150 b6 04 27 3e eb 9c 65 be a8 6a 14 3e 24 6b f7 3d
       0.16310391 -0.2242314 0.14493811 0.12080982
000160 78 2d 2c be d2 59 0b be cb 45 89 bd 3b 8f e4 3d
       -0.1681422 -0.13608482 -0.06702765 0.111601315
000170 ea 4d 81 3d 79 dd 28 be f1 0f 8e 3d 7d a0 da 3d
       0.06313689 -0.16490735 0.06936634 0.10675142
000180 71 1d fd bd 98 d3 b4 bd 3f 0c 8b be 28 b2 01 be
       -0.12359131 -0.08829421 -0.2715778 -0.12665617
000190 4c a5 9a 3d 7e 1b 07 3e 58 e0 43 be 9f 44 20 3e
       0.07551059 0.13194081 -0.19128549 0.15651177
0001a0 66 0e 00 3e 2d 8c e6 3d d9 ce bc 3c f9 06 da 3d
       0.12505493 0.11257205 0.023047851 0.10645861
0001b0 d4 17 8f bd 09 94 08 3d 7e c6 41 be 91 99 1f 3e
       -0.06986967 0.033344302 -0.18923375 0.15585925
0001c0 39 50 c2 3d 50 e0 5a 3e e7 b3 13 3e 57 40 6f 3e
       0.094879575 0.21374631 0.14424096 0.23364387
0001d0 7f 0c 13 3d 68 57 51 be c5 77 4b be 1c 33 f7 3c
       0.03590059 -0.20443499 -0.19869907 0.030175738
0001e0 6a 17 71 be 20 7a 81 bd 5f cd 5a be e8 09 7c 3e
       -0.23544088 -0.063221216 -0.21367405 0.24613154
0001f0 f4 3a 83 bd a7 a6 75 3d 1e 58 29 be 55 7a 4c be
       -0.06407729 0.059973385 -0.1653752 -0.19968541
000200 c4 e5 b0 bd c5 cd d3 bd bb 68 9e bd 3d 38 68 bd
       -0.08637574 -0.10341982 -0.077348195 -0.056694258
000210 e6 84 95 3d c8 2c 3c 3e 31 4a 91 3e d2 f4 c3 3c
       0.07300739 0.18376458 0.28376916 0.02392045
000220 f3 82 1e be 70 29 fe bd df 10 34 bc 4d 0c 3e 3e
       -0.1547964 -0.12410247 -0.0109903505 0.1855938
000230 cb 9f 7b bd 84 36 2a 3d 05 f4 3c bc c7 b3 9a 3d
       -0.061431687 0.041555896 -0.011532788 0.07553821
000240 71 2b 7a bd 0e 55 60 3d 5b 7a be bd 6b 94 0b be
       -0.061076585 0.054768614 -0.09300681 -0.13630836
000250 a3 f9 1b 3d b6 e5 13 be 51 b1 81 3e 32 bd 51 3d
       0.03807987 -0.14443097 0.25330594 0.05120582
000260 24 15 53 be 75 9f 0d 3e 8a 5b 77 3e 6a 3d 05 3e
       -0.20613533 0.1383036 0.24156013 0.13011709
000270 33 17 f6 3c 6a d1 26 3e b2 77 80 3e be 0a f1 bd
       0.03004036 0.16290823 0.2509132 -0.11769627
000280 a5 8f 83 3e 96 4c af bd 10 4f c7 bd c9 a8 59 be
       0.2569553 -0.085595295 -0.09731877 -0.21255793
000290 ef dc 80 bd d8 eb 8a be 9a 69 d9 bd 39 87 82 3d
       -0.0629214 -0.2713306 -0.10615845 0.06373448
0002a0 80 18 c9 bd bd 25 dd 3d 6a 0b ba bd ea fe 24 be
       -0.09819126 0.10798214 -0.09084208 -0.16112867
0002b0 ad ce 5f 3e a8 2d c2 bb 8e 5e e9 bd 51 02 2e 3e
       0.21856184 -0.005925853 -0.11394988 0.16993071
0002c0 25 52 09 be 60 99 3d 3e 0c 18 71 be f1 d2 1f be
       -0.13410242 0.18515539 -0.2354433 -0.15607812
0002d0 7c aa c3 bd 1e 05 76 3e 47 6c 5f bd 15 a8 47 3e
       -0.09554002 0.2402539 -0.05454662 0.19497712
0002e0 1d 85 77 3c a6 85 59 bd 97 ff f3 3d 76 5f 1f bd
       0.01510742 -0.053105973 0.11913984 -0.038909398
0002f0 a1 f9 0d bd ed 97 35 3d 4c f3 7f 3e cf d3 71 be
       -0.034661893 0.04433434 0.24995154 -0.23615955
000300 44 ad 08 3e 4b 4e 15 3e 09 89 04 3d 19 5c 47 3e
       0.13347346 0.14580648 0.03235725 0.19468726
000310 3c 2b 09 be 0c 1a a7 3d e9 3b 7e 3e 6b 69 6b 3e
       -0.13395399 0.08159265 0.24827541 0.22989433
000320 45 8d fe 3c b7 96 1f 3e cc 3a 2a 3b 4d 69 c4 bd
       0.031073222 0.15584837 0.0025974987 -0.09590397
000330 f4 c8 02 be 9d b7 27 3d 8e 0a e8 3d 27 70 25 be
       -0.1277197 0.04094659 0.11330138 -0.16156064
000340 db d8 1c be 09 8b a0 3d 10 15 20 3c be b3 49 3e
       -0.15317099 0.07839019 0.009770647 0.19697472
000350 61 26 ca bd 78 c2 15 be 9e 31 e7 3d bc bb 51 bd
       -0.098706014 -0.14624965 0.112887606 -0.051204428
000360 80 aa b0 3b ff 27 42 3e 73 be 40 3e 1e 30 f5 bb
       0.005391419 0.1896057 0.1882265 -0.0074825427
000370 8d 86 3a 3d 4d e2 b8 bd cd 84 26 be 84 00 bf 3c
       0.045538474 -0.090275384 -0.16261597 0.023315676
000380 d8 81 0c 3d 09 ea c3 3c 47 2b ca bd 4b b8 39 3b
       0.034303516 0.023915308 -0.09871536 0.0028338607
000390 75 1e 0c 3e 33 b5 49 3e e3 2f 50 3e 0d ea 5b 3d
       0.13683493 0.19698028 0.20330767 0.053690005
0003a0 02 ff 8a 3d 5e e1 80 3d 50 68 11 3e 22 be fe 3d
       0.0678692 0.062929854 0.14199948 0.12438609
0003b0 75 d2 d6 bb 39 60 f2 bd 5f e5 ff 3d 50 e4 b9 bd
       -0.00655585 -0.11834759 0.12494921 -0.0907675
0003c0 db 1d 43 be 4e d0 50 bd 5c a3 4f be 2e 41 9f 3b
       -0.19054358 -0.050979905 -0.2027716 0.004860065
0003d0 bc 3e 26 3e 99 f2 cb 3d dc 1a 47 3d 38 cf 58 be
       0.16234869 0.09958381 0.0486096 -0.21172798
0003e0 ec df 0b 3e 2f 94 09 be b1 7b 3b be 24 eb b4 3d
       0.13659638 -0.13435434 -0.18308903 0.08833912
0003f0 fe b2 22 be dc 0c 47 bd f4 7b 87 3d e4 af 31 3c
       -0.15888593 -0.048596248 0.06615439 0.010845158

layers.hidden_5.bias f4 [20]
000000 ac c7 29 3d 94 d5 0d 3e a3 79 27 3e f2 84 45 bd
       0.041450188 0.13851005 0.16354994 -0.04822249
000010 a6 3d 31 3e 3e ff 7a 3e 7b 0c ab 3b e9 cb 66 be
       0.17308673 0.2451143 0.0052199936 -0.22538723
000020 35 3e 04 3e 68 36 d6 bd 62 b3 bb 3d b7 19 8c bd
       0.12914355 -0.10459596 0.09165074 -0.06840842
000030 15 bc 21 3d 50 e6 29 be 61 8f 8d 3d 01 da b4 3d
       0.03948601 -0.16591763 0.06912113 0.088306434
000040 df 20 62 bc 35 93 25 3e 64 b6 47 bb 1e f4 0d be
       -0.013801782 0.16169436 -0.0030473704 -0.13862655
