PINNS/HeatEq/models/checkpoints_Adam/Gen_4_Loss_0.0137489447.pt (torch, 67009 bytes, 43 tensors)

layers.input.weight f4 [20, 2]
000000 c2 89 2c 3f 26 d6 03 3f 18 67 02 bf 72 eb 63 3e
       0.673977 0.5149864 -0.5093856 0.22257784
000010 aa b2 f6 be 64 9a 74 bf 2e 89 e7 3d 1d 28 a9 3e
       -0.48183185 -0.9554808 0.11305462 0.33038417
000020 69 ae 96 be c0 a3 33 3e 8a 1b 99 3e f1 ff f1 3e
       -0.2942994 0.17542934 0.29903823 0.4726558
000030 04 4e 21 bf af 22 14 3d e9 c9 42 bf 48 f6 c6 3c
       -0.6300967 0.03616589 -0.7608934 0.024287358
000040 fd 93 22 3f 12 68 5c 3e c2 25 ef 3e 95 d0 36 be
       0.6350706 0.21524075 0.46708494 -0.17853005
000050 25 94 a5 3e d6 12 19 3e fb c1 41 bd 81 2c 1f 3f
       0.32339588 0.14948592 -0.047304135 0.6217728
000060 da 4b 0b 3f fe 38 0d bf 5a 0f ff 3e 3b 8f 1c bf
       0.54412615 -0.5516509 0.498164 -0.6115605
000070 d7 ca 1d bd 63 36 38 bf 43 19 03 be 43 69 21 bf
       -0.03852352 -0.7195799 -0.12802605 -0.6305124
000080 b2 75 73 3d 60 14 b3 be f7 20 ff 3e cc e4 49 be
       0.059438415 -0.34976482 0.49829838 -0.19716185
000090 42 48 c4 3e a4 97 3d bf 04 cb 0e bf 97 f9 13 3f
       0.38336378 -0.7405951 -0.5577853 0.5780272

layers.input.bias f4 [20]
000000 9d da 1e 3f dc 9d 63 3e 06 6b b7 be 16 d9 3f 3c
       0.6205233 0.22228187 -0.3582384 0.011709472
000010 8e a8 1e bf 55 4e 08 bf 7e 04 8d 3e 59 f4 30 3e
       -0.61975944 -0.53244525 0.2754249 0.17280711
000020 6c 9a 51 3e 8b b1 18 bf cb dd 11 3f d8 8a 8e 3d
       0.20469064 -0.5964591 0.56979054 0.06960076
000030 39 3c 1c 3f 54 50 ec bd 15 cd 51 be 6b ce 94 3e
       0.6102939 -0.11538759 -0.20488389 0.29063734
000040 95 48 bf 3e fc b3 a0 be ab 2e 2d bf 91 91 b6 3d
       0.37360063 -0.31387317 -0.67649335 0.08914483

layers.hidden_0.weight f4 [20, 20]
000000 cc 4c 16 3e 34 7d 3a 3d 40 14 68 3e 3b fa ec bc
       0.14677733 0.04552956 0.22663975 -0.028927913
000010 60 2b 8c 3e e7 7e a6 3e be 02 b1 3d 0e 43 58 3d
       0.27376842 0.32518694 0.08643101 0.052798323
000020 f2 85 a4 3d ae f3 fc 3d 2e 12 98 3d 0c b0 b1 3d
       0.080333605 0.12351166 0.074253425 0.086761564
000030 7f 77 64 be df ad 49 be 42 a4 a2 3d 01 c5 5c be
       -0.22311209 -0.19695233 0.07941486 -0.21559526
000040 6d 0e 28 be bb 8a 1c bd bf 91 cf 3d 3f de 09 3e
       -0.16411753 -0.03821824 0.10135221 0.13463686
000050 58 a8 47 be d9 1d ab bd e8 2c 2f be bb f4 c6 bd
       -0.19497812 -0.08355302 -0.17106974 -0.097146474
000060 03 ec 85 bd 85 1c ec 3d 01 02 0d bd 01 37 f2 be
       -0.06539156 0.11528877 -0.03442574 -0.4730759
000070 fb 1d 40 3e 98 bb db bd c8 a7 10 be 89 78 d1 bc
       0.18761437 -0.1072914 -0.14126503 -0.025570171
000080 79 cf a4 3e c3 51 d8 3d e5 99 02 3e 8d 42 d8 bd
       0.3218954 0.1056247 0.12754019 -0.105595686
000090 a7 47 ff bc 93 ce f7 b9 00 ef 20 bd 1f 48 a0 bb
       -0.031162096 -0.0004726542 -0.03929043 -0.00489141
0000a0 73 ca c2 3b b5 1b db 3d 92 3b 90 bd eb 55 32 3b
       0.005944544 0.10698644 -0.07042612 0.0027211856
0000b0 14 ef c8 bd 06 a8 62 3e d1 70 0e be 47 59 08 bd
       -0.098112255 0.22134408 -0.13910224 -0.033288267
0000c0 06 bc af bb ca 90 0a be 79 e0 15 3e 95 fc 29 be
       -0.0053629903 -0.13531795 0.14636411 -0.16600259
0000d0 ef 52 ef bd dd 61 65 3e d1 ba 15 be e1 33 ba bc
       -0.1168574 0.22400613 -0.14622046 -0.022729816
0000e0 77 14 b3 bc 46 3c 87 3d 40 33 f1 bd 16 45 34 be
       -0.021860344 0.06603293 -0.11777353 -0.17604479
0000f0 4b 04 d0 bd c9 46 2d 3e 3b 57 93 3c 12 b0 80 be
       -0.10157069 0.16921534 0.01798593 -0.2513433
000100 f0 a1 f0 bc 7e 53 6f be fb 5f 12 3e 3a ec 7b 3e
       -0.029374093 -0.23371693 0.14294426 0.24601832
000110 53 d0 12 be 77 17 23 3e 19 84 35 be cf 66 f6 3c
       -0.14337282 0.1592692 -0.17726173 0.03007832
000120 48 d4 30 bc 7f d6 4a 3e 2a ae 3c be f5 fa 1a 3e
       -0.010792799 0.19808386 -0.18425813 0.15134795
000130 54 45 bc 3d 53 93 b8 bb ac ea 1b bd 50 20 09 3e
       0.09192911 -0.005632797 -0.038065597 0.13391232
000140 e1 a0 ff bd 22 b9 ae 3d 21 4e 1c be d0 75 1f be
       -0.12481857 0.08531405 -0.15264179 -0.15572286
000150 de 3f 32 3e 26 77 f9 3c 62 1c 85 3e 2c 39 dd 3d
       0.17407176 0.030452322 0.25998217 0.1080192
000160 ac f5 03 be de ec 2d be 49 74 4e be 8e 1b 0c bd
       -0.12886685 -0.16984889 -0.20161547 -0.034205966
000170 c1 a2 49 be 85 88 75 bd 1a 37 9f bd a0 ed 91 3d
       -0.19690992 -0.05994465 -0.07774182 0.071254015
000180 2b e6 01 be a5 cd 32 bd 0d 44 22 3d d1 21 ae bd
       -0.12685458 -0.04365315 0.03961568 -0.08502544
000190 b6 ba 25 3d c9 d2 38 be 9e 53 1f 3e bd c0 37 bc
       0.040461265 -0.18049158 0.15559241 -0.011215386
0001a0 60 86 5b 3a 5e 44 5b 3d eb 77 98 bd 05 c7 ba bd
       0.00083742104 0.053531997 -0.074447475 -0.09119991
0001b0 0d 57 fc bd 91 90 0a 3e 1f b5 2a bd fd 47 4b be
       -0.12321291 0.1353171 -0.041676637 -0.1985168
0001c0 c5 02 8a 3e 86 5a 0e bd 88 05 c1 3d fd d5 c1 3d
       0.26955238 -0.0347543 0.09424883 0.09464643
0001d0 4f 99 7b 3e cc 3a 37 3e 00 44 2e 3e 69 48 b0 be
       0.24570201 0.17893523 0.17018127 -0.34430245
0001e0 5b 94 dc bd 75 01 47 be 9f c8 02 be 3e e0 3e be
       -0.10770484 -0.1943415 -0.12771843 -0.18640229
0001f0 93 6d 26 be 39 a8 3b be 8a 9b e3 bd 37 8c d4 bd
       -0.16252737 -0.1832589 -0.11113651 -0.10378306
000200 90 e6 9a bb f8 8c 0a 3d d1 6f a9 3b a2 0e d6 bc
       -0.004727192 0.033825845 0.0051708003 -0.026130024
000210 bc ac ab 3e 2a 88 80 bb cf f1 6f bd 4a 89 22 be
       0.33530223 -0.003922482 -0.058580216 -0.15872684
000220 84 d7 56 3e b5 40 b7 3b 7b 1d 04 be 14 43 ef 3d
       0.2098065 0.0055924305 -0.12901871 0.11682716
000230 33 d9 4a 3e 23 df dc 3d d0 c4 1b be 8b b3 41 3e
       0.19809417 0.107847475 -0.15211797 0.18916146
000240 0f 1b 47 3c e8 23 00 3e e9 6b c6 3d c3 1e 93 bd
       0.012152447 0.12513697 0.09688551 -0.07183602
000250 8e f5 ff bd a4 0c ba bc 1f 28 13 3e 97 9e 25 3a
       -0.12498008 -0.022711106 0.14370774 0.0006317882
000260 02 98 e5 3d 96 18 41 be 69 cb 83 be da 44 0d 3c
       0.11210634 -0.18857035 -0.25741127 0.0086223725
000270 1a 08 0f 3e c4 9f 55 bb 1e 3b 9b bc 0f f3 4c 3e
       0.13967934 -0.0032596448 -0.018949088 0.20014594
000280 07 ad 13 3e 34 97 8f bd dc d6 e3 3d 36 d7 85 3e
       0.14421473 -0.070112616 0.111249655 0.26140755
000290 4b e7 8f bc c0 21 c4 bc 75 cf bd bd 26 bb c9 3d
       -0.017566344 -0.023941875 -0.09268085 0.09850149
0002a0 42 4b 8f 3e d7 79 d4 3d e1 54 0a bd f1 27 03 3e
       0.27987105 0.103748016 -0.033772353 0.12808205
0002b0 48 98 c5 3d 86 28 42 be ef 2b 16 3e 8f 23 0b bc
       0.09648186 -0.18960771 0.14665197 -0.008492365
0002c0 a5 f4 ac be a2 29 5a 3d 13 e2 0e 3e 10 64 cd bd
       -0.337804 0.05326236 0.13953428 -0.10028851
0002d0 16 0f 48 3e db 2a 0f 3e 22 78 0b be 91 b7 ae bd
       0.19537005 0.13981192 -0.13620046 -0.08531106
0002e0 36 a4 f4 bc a8 6f 85 be d9 05 4a 3d 18 3f 00 3e
       -0.029863458 -0.2606175 0.049321983 0.12524068
0002f0 c5 90 8a bd 09 49 ed bd 26 0b d3 bc db ed 83 bd
       -0.06765894 -0.11586196 -0.025762152 -0.06441852
000300 60 de 18 3b bd fb 44 3e 6e 5e 5f 3e 3c 1d 0e be
       0.0023325905 0.19236656 0.21813366 -0.1387834
000310 ea 5f 4b 3e e2 17 8d 3d c1 a7 35 3e a6 2a 4a 3e
       0.19860807 0.06889321 0.17739774 0.19742832
000320 43 ce 11 3e 0d fb 96 3d c6 7d 1b be 77 6b e3 bc
       0.14238839 0.07372103 -0.15184698 -0.027761204
000330 af d7 57 bc 4d d4 db 3d e2 2d e0 bd 7f a5 0d bc
       -0.013173982 0.107338525 -0.109462515 -0.008645414
000340 5d 2e 21 3e 3a 22 b9 bd 3b a6 0f 3d 3c 46 2e be
       0.15740342 -0.09039731 0.03507064 -0.1701898
000350 b0 6c c3 bd 04 e3 5a 3e 5c a5 f9 ba 3f 26 de bd
       -0.09542215 0.21375662 -0.0019046473 -0.108471386
000360 66 e0 34 be fa c1 bf bd a8 ff 05 3d 81 29 db 3d
       -0.17663726 -0.0936317 0.032714516 0.107012756
000370 9f f5 27 3d 90 0a 34 be fe e5 cf bd d0 9b cc bd
       0.041005727 -0.17582154 -0.101512894 -0.099906564
000380 a6 26 27 3e 16 06 34 be 62 f9 85 be 2d 01 90 bd
       0.16323337 -0.17580447 -0.26166826 -0.07031474
000390 24 c6 df 3c 03 89 3d bb 4a a8 9e bd 17 7f 7a 3e
       0.02731616 -0.0028920777 -0.07746942 0.24462543
0003a0 44 da 91 3e 4d 00 17 3d e1 80 77 be 57 d2 eb bd
       0.28486836 0.03686552 -0.24170257 -0.115147285
0003b0 22 9f 8d 3e 4f 47 1c be 3d e2 52 be ce 89 6c bc
       0.2766047 -0.15261577 -0.20594116 -0.014437152
0003c0 e8 b6 3f be 6d 4e 55 bd f9 67 6d 3c 47 92 83 be
       -0.18722117 -0.052076746 0.014490121 -0.25697538
0003d0 6d e1 6b be 10 43 25 bd 78 04 d9 bb 0b 10 1d be
       -0.23035212 -0.04034716 -0.006622847 -0.15338151
0003e0 cf 96 2a 3d 3e 92 10 be 88 50 61 3d ab 6e e8 3d
       0.04164773 -0.14118287 0.05500844 0.11349233
0003f0 c9 a3 58 bd 6c 17 f1 bd ce 8d 7a be e9 8e 3d 3e
       -0.052890573 -0.117720455 -0.24468157 0.18511547

layers.hidden_0.bias f4 [20]
000000 2f 9e 99 bc 36 41 41 bc 3c 4b d7 3c 39 8d 34 be
       -0.018752186 -0.011795333 0.026280992 -0.17631997
000010 c4 88 68 bc 1d 42 3d be 25 ec 07 3e 03 5a cb 3d
       -0.014192764 -0.18482251 0.13273676 0.09929278
000020 da ff 31 3e d6 53 fb bd 62 0f 45 be 60 3f 57 3d
       0.17382756 -0.1227185 -0.1924415 0.052550673
000030 2c fd 55 be 69 33 cf 3d 2b 53 1a 3e d0 7d 06 be
       -0.20897359 0.101172276 0.15070789 -0.13133931
000040 d9 2c 05 3e e6 91 24 3e 33 53 43 3d 8e a2 41 bd
       0.1300539 0.16071281 0.047686767 -0.047274165

layers.hidden_1.weight f4 [20, 20]
000000 b9 0a c6 3b 96 93 44 3e c3 97 0e 3e 20 bb e8 3c
       0.0060437587 0.19196925 0.1392508 0.02840954
000010 7c 31 16 be f7 ba 89 bd 5b 51 02 3d 9b 7c a6 3d
       -0.14667314 -0.06725114 0.031815868 0.08129235
000020 4d cb 1e 3d 01 cd 85 3d e4 18 5f be f6 d8 20 3e
       0.0387681 0.06533242 -0.21786839 0.15707764
000030 5f 44 43 3e 5f 1e 5f 3e 22 5d 3f be 83 40 14 be
       0.1906905 0.2178893 -0.18687871 -0.14477734
000040 ce d1 10 3d 14 a3 06 be a8 e1 72 be 1f 71 26 be
       0.035356335 -0.13148147 -0.23718894 -0.1625409
000050 51 21 0b 3e fb d1 6d 3d 34 6e a6 bd a1 ca ec 3d
       0.13586928 0.05806158 -0.08126488 0.11562086
000060 12 c0 0a 3e 5e 3f 23 be bf d4 30 3d c7 6c 24 bc
       0.13549832 -0.15942141 0.04317164 -0.0100357
000070 aa b7 1d be a7 6a 1f 3e 9a f5 6a be 77 61 4c 3e
       -0.15402094 0.15568028 -0.22945252 0.19959055
000080 8c d5 5c 3e ae b7 3d 3e a4 f4 02 be 87 5f 95 bc
       0.21565837 0.185271 -0.12788635 -0.018234028
000090 97 7e 5e be 97 78 90 be 83 e3 a3 3d 6c d8 e5 bd
       -0.21727978 -0.28217003 0.08002379 -0.1122292
0000a0 38 27 8f 3d bb 7a 10 be 48 c0 e6 bd 80 e6 4e 3d
       0.06989902 -0.14109318 -0.112671435 0.05051279
0000b0 74 df 27 3e ba 7b 67 3e 7f 5f f9 3d f8 27 04 be
       0.16393834 0.22605792 0.121764176 -0.12905872
0000c0 7f 8d ae bc 3a 8d b5 bd 83 17 2b 3e 16 58 88 3c
       -0.021307705 -0.088648275 0.16708188 0.016643565
0000d0 9e 02 f6 3d 32 f1 2f be 56 21 39 3e d6 c2 87 3d
       0.12012218 -0.17181852 0.18079123 0.06628959
0000e0 cb 05 f8 bd 56 a2 51 3d 9d 4b e6 bc 0a 0a f5 3d
       -0.1211048 0.051180206 -0.028112227 0.119648054
0000f0 e1 bd 99 3d 8d ba b2 bb cc c3 55 be 6d d5 a5 3d
       0.0750692 -0.0054543675 -0.20875472 0.08097348
000100 1e c5 3b 3e 51 c6 47 3d a0 d2 6e be a1 40 69 3b
       0.18336913 0.048773114 -0.23322535 0.00355915
000110 db f2 f9 bd 43 cd 56 3e cf be 0c 3e fa 92 e1 3d
       -0.12204524 0.20976739 0.13744663 0.11014362
000120 64 23 dd 3b 88 8d 13 3e 83 ad 14 be 1b 23 39 3e
       0.0067486037 0.14409459 -0.14519314 0.18079798
000130 8d 86 ae bd b5 65 88 be 93 67 db 3d d3 c9 3e bd
       -0.08521757 -0.26640096 0.107131146 -0.046579193
000140 9d c4 7f 3e 21 f7 b4 be 2b 47 03 be fa 4d d3 bd
       0.24977346 -0.35344794 -0.12820117 -0.10317607
000150 40 af 92 bd f6 02 77 3d 4c 21 bc bd 0c 6b b2 3d
       -0.071623325 0.06030556 -0.091860384 0.08711824
000160 39 08 c6 3d 0c 09 62 3e 9b a9 cd 3e 52 51 d0 3d
       0.09669537 0.22073764 0.4016846 0.101717606
000170 bf 30 a6 bd cf 5c 13 bd bb f7 58 be f7 72 bd 3d
       -0.08114766 -0.03597718 -0.21188252 0.092504434
000180 62 34 69 3e 15 6a e0 bc 43 49 db bd 6c ce 6f be
       0.22773889 -0.027394334 -0.10707333 -0.23418587
000190 29 1e 5e 3e 3a 63 b1 bc 3a 8c 53 bd 43 5f 8e 3e
       0.21691193 -0.02165376 -0.051647402 0.27807054
0001a0 0e af 74 bc 62 f5 85 be e6 53 62 3e f8 a8 3c 3d
       -0.014934314 -0.26163775 0.22102317 0.04605958
0001b0 5c d1 ee bc 74 5c b4 3c 57 95 47 be 96 da 23 bd
       -0.029152565 0.022016741 -0.19490562 -0.04000338
0001c0 03 1e dd 3d 5f ce 47 bd ab 17 ce 3d bc 7e b0 3d
       0.1079674 -0.048780795 0.10063108 0.08617923
0001d0 e2 67 46 3e 1e 87 a7 bd 0d d1 0f 3e 12 69 8e bd
       0.19375566 -0.081800684 0.1404459 -0.06953634
0001e0 57 f0 57 3e f3 a4 2e 3c f2 09 b6 bd eb a5 44 bd
       0.21087776 0.010659444 -0.08888616 -0.048009794
0001f0 fc 87 1e 3e f5 fb 08 3e d2 a9 8b 3c 29 4c 0e 3e
       0.15481561 0.13377364 0.01704875 0.1389624
000200 a5 7c e5 bd 71 03 04 3e 5c 79 e6 3d dc b8 1d 3e
       -0.11205415 0.12891938 0.11253616 0.1540255
000210 56 a0 ae 3d fe b1 0e 3d 55 71 db bd 1a 43 19 3c
       0.085266754 0.034837715 -0.10714976 0.009354377
000220 96 96 06 be e2 08 1a be ae e7 1d 3e b8 cd a8 bd
       -0.13143381 -0.15042451 0.1542041 -0.08242363
000230 a8 ac 00 3e 68 93 25 3e a4 85 51 3d 3a 9a 85 3e
       0.12565863 0.16169512 0.05115284 0.26094228
000240 62 f3 45 be ce fc 46 3d 32 41 23 3e c3 33 2b 3e
       -0.19331124 0.048580937 0.15942839 0.16718964
000250 62 71 d0 3c a7 81 0b 3e a1 b5 25 bc 1f ea 2d 3e
       0.02544469 0.13623677 -0.0101141045 0.16983841
000260 29 ec c6 bd fe a2 58 3b aa 87 8a 3d ac 44 8c bd
       -0.09713013 0.0033056135 0.06764157 -0.068490356
000270 81 e6 da 3d 96 e1 30 bd 1e da 2c be 48 3a 3a be
       0.106884964 -0.043183886 -0.1688008 -0.18186295
000280 6a b3 52 bd c1 06 1d 3e 7d 05 5a be c8 14 fa 3c
       -0.051440634 0.15334608 -0.21291156 0.030527487
000290 a6 20 25 3c 57 7e 14 be cd 18 4a bd 2e 34 96 3d
       0.010078585 -0.1450132 -0.049340058 0.07334171
0002a0 7a d4 3c 3e 84 54 c9 bc 78 80 7a be d2 fc 16 3e
       0.18440428 -0.024576433 -0.2446307 0.14744881
0002b0 68 0a ce 3c 3b 94 88 3d d9 8b e7 bc ba ef 05 3e
       0.025151446 0.06668898 -0.028264927 0.1307973
0002c0 d9 17 18 3e 9b 7d 93 be e0 34 b2 bd ac 5c d6 bc
       0.14852847 -0.28806767 -0.08701491 -0.026167236
0002d0 7c d7 43 be 66 b8 c7 3d dd dc 77 3e 83 6b 44 3e
       -0.1912517 0.09751968 0.24205346 0.19181637
0002e0 f4 dc 87 bd a5 e2 7a 3e 4b 83 a3 3d 0e c8 3b 3c
       -0.0663394 0.2450052 0.079840265 0.011461271
0002f0 26 b2 5c bd 5d 54 18 bd 0d 82 2e 3e 3d 72 75 3d
       -0.053880833 -0.03718983 0.17041798 0.0599234
000300 d3 ae 3f 3e 16 0f 67 bd 69 39 bf 3d d3 7d 66 bc
       0.18719034 -0.05641087 0.09337122 -0.014068085
000310 82 b1 45 bd 05 b0 40 3e 76 2f be 3d 0b fa b0 bb
       -0.048264988 0.18817146 0.09286396 -0.005400901
000320 25 ab a1 3d c3 c9 17 3e 64 f8 66 bd 9e d5 8b 3c
       0.07893971 0.1482306 -0.056389228 0.017069634
000330 a5 2a c6 3d 5b a1 b6 3d b5 b9 c6 bd 7d 6d 53 bc
       0.096761025 0.08917495 -0.097033896 -0.012904522
000340 06 5c eb 3c fc 52 69 3e 2a 43 31 3e b4 8f 2e 3d
       0.028730404 0.22785562 0.17310777 0.042617515
000350 fc 3a 24 be 34 75 06 3e 6b dc 06 be b1 83 02 be
       -0.16038126 0.13130647 -0.1317002 -0.12745549
000360 9c 0b df 3d 5c f1 c6 3c 57 ce 24 3d ed 7f 42 3e
       0.10890886 0.024285011 0.040235844 0.18994112
000370 b8 ca 13 3e 9f 5a f1 3d 2b 35 ee 3d 63 35 c5 bd
       0.144328 0.11784863 0.11631235 -0.09629323
000380 bf c0 41 3e 21 02 54 3e aa 92 d5 3c d6 aa 91 3d
       0.18921183 0.20703937 0.026070911 0.071126625
000390 db d5 30 3d 96 e1 61 3e 2a 1e 0d 3d 83 88 55 3d
       0.0431727 0.2205871 0.034452595 0.05213214
0003a0 f3 dd 58 3e c7 69 90 bc 0b 44 f6 3d 54 1f 05 be
       0.21178417 -0.017628564 0.12024697 -0.13000232
0003b0 59 e2 21 be e8 0f 81 3c 09 71 ad 3c 61 a4 59 3e
       -0.15809001 0.015754655 0.021172063 0.21254112
0003c0 3a 3c 84 3c 4c 66 8a 3c a3 4e ac 3d 08 30 d5 3d
       0.016142 0.016894482 0.08413436 0.10409552
0003d0 78 6b 99 bc 02 c3 2f 3d 3b 0d 80 be 48 34 11 3e
       -0.018728003 0.042910583 -0.25010094 0.141801
0003e0 0c f7 3d 3d f3 db 2b 3e 14 3b d0 3d 5f bf 4d be
       0.04637818 0.16783123 0.10167518 -0.20092534
0003f0 a0 a3 53 bd 78 ea d8 3d 80 63 7c 3e 58 21 29 3d
       -0.051669717 0.10591596 0.24647331 0.041291565

layers.hidden_1.bias f4 [20]
000000 e5 93 0c be 98 3f 32 be b5 d8 d7 3c 2d b6 d6 bd
       -0.13728292 -0.17407072 0.026348451 -0.10483966
000010 72 c3 1c be f1 75 52 be 1e de ce 3d cd 94 1f be
       -0.15308931 -0.20552804 0.10100959 -0.15584107
000020 c7 b9 34 3d 87 41 f5 bd 8b 76 cf bd eb a8 51 3e
       0.044122484 -0.11975389 -0.10130032 0.20474593
000030 d3 98 1d 3e a0 b1 ed 3d 1f c4 02 be c3 fc cb bc
       0.15390329 0.11606145 -0.12770127 -0.0249008
000040 f5 cc 62 bd c6 09 08 be f3 74 9f 3d 48 81 fd bd
       -0.055371244 -0.13284978 0.07785978 -0.12378174

layers.hidden_2.weight f4 [20, 20]
000000 8a cb 0d be 3f c3 80 be 92 15 1f be e5 07 60 3d
       -0.13847175 -0.2514896 -0.15535572 0.05469503
000010 59 9c 0a 3c 8a 92 e8 bd bd 29 f2 3d 64 1e 7e be
       0.008460128 -0.11356075 0.11824367 -0.2481628
000020 33 44 60 bd 0d 8f 5a 3d 3f c1 ff 3d 5e c2 51 3e
       -0.05475254 0.05335908 0.12488031 0.20484301
000030 57 6a 38 bd 8f f7 38 bd db 7f 00 be 38 85 f6 bd
       -0.04502329 -0.045157965 -0.12548773 -0.12037128
000040 e6 c4 17 be 29 56 3e 3e cc 8d 99 3d 67 d6 39 3c
       -0.14821205 0.18587555 0.07497749 0.011342621
000050 08 fe ed bd 67 c9 00 3e 0e 00 44 be 0e a7 6c 3d
       -0.11620718 0.12576829 -0.19140646 0.057776503
000060 f2 26 6d bd d4 dc 89 3e df 9e 27 be 72 d8 10 3e
       -0.05789847 0.2692629 -0.16369198 0.14145067
000070 65 66 10 3e 3c 40 23 be 04 a0 4c be 31 67 8e bc
       0.1410156 -0.15942472 -0.19982916 -0.01738319
000080 ef 0b 07 be 16 c7 42 be 56 de cb 3c 37 4c ad 3b
       -0.13188146 -0.19021258 0.024886291 0.0052886265
000090 ff 95 3c 3e c1 12 28 3e bd 1b 1a 3d a3 85 7b 3e
       0.18416594 0.16413404 0.03762411 0.24562697
0000a0 b8 01 67 be 92 ec b5 bd ce 62 20 3e 3c 3e 59 3e
       -0.2255925 -0.08883013 0.15662691 0.21215147
0000b0 55 7b 79 3e f3 db 6c be 1e 20 90 bd 86 87 24 be
       0.24363454 -0.23130779 -0.07037376 -0.16067323
0000c0 7a 67 6e bd 1e 37 e8 3c 51 9b 79 3e 79 bd cd bd
       -0.05820415 0.028346594 0.24375655 -0.10045905
0000d0 05 75 10 3e 7e 5e a0 3e b6 98 e3 bb cf 87 82 bc
       0.1410714 0.31322092 -0.006945695 -0.0159339
0000e0 02 e3 49 3e dc cd 5a 3e 7c c9 bd bd ad 74 56 be
       0.19715503 0.21367592 -0.09266946 -0.20942946
0000f0 0e 19 e5 3d 5a c2 17 be ee a4 35 bd 33 ce 20 be
       0.111864194 -0.14820233 -0.044346742 -0.15703659
000100 ff a8 0d 3d 27 f5 f0 3d 48 22 5f 3d 27 9c 55 be
       0.034584995 0.11765509 0.054476053 -0.20860349
000110 2b cb a8 3c ca a1 e3 3d 2e 44 56 3e 4e 04 81 3d
       0.02060469 0.11114843 0.20924446 0.06299649
000120 c3 33 4d 3e b7 0f 88 3e 38 2b 10 3e a2 84 05 3d
       0.20039277 0.2657449 0.14078987 0.03259719
000130 de 0b 37 3e 2c 0d bc 3d cd 0d db bc 68 1a 69 be
       0.1787562 0.091822 -0.02673998 -0.2276398
000140 e3 ca 27 3c 30 a2 d9 bd 52 38 bf 3d 8b 06 22 3e
       0.010241243 -0.10626638 0.09336914 0.15822808
000150 c1 2e 44 3e f8 17 8c be 35 73 29 bd eb 9b 1c be
       0.1915846 -0.27362037 -0.041369636 -0.15293853
000160 70 c3 53 be 4c dd 8d 3d c2 d6 07 3d fd d9 19 3d
       -0.20680022 0.06926975 0.033163793 0.037561405
000170 ae b5 72 3e 4d 5f 18 3e 60 65 56 bd fe bc 51 3e
       0.23702118 0.14880104 -0.052342772 0.20482251
000180 2a e4 22 3e e5 45 3c 3d 7e ba dc bb 9c cc 1c be
       0.1590735 0.045965094 -0.006736099 -0.15312427
000190 5d 0a 68 3e 2a 61 cc 3d fa 7d 33 be c2 16 0a 3d
       0.22660203 0.0997947 -0.17528525 0.03371311
0001a0 23 cd b3 3d a5 54 45 3e cf 9d 5d 3e 6e 3f 2c 3e
       0.08779361 0.1927057 0.2164223 0.16821072
0001b0 4b eb 1b bd 06 f4 45 be bf 3e 35 3d 52 c2 f6 bd
       -0.03806619 -0.19331369 0.044249292 -0.120487824
0001c0 65 6a cf bc d5 97 6b 3e dd 6a 00 3c 05 60 01 be
       -0.025319288 0.23007138 0.007837978 -0.12634285
0001d0 f8 98 ca 3c 74 29 fa 3c df 8f 45 3e dc b7 9e 3e
       0.024731144 0.030537345 0.19293164 0.3099965
0001e0 ae 92 65 be 33 41 f0 3d a0 47 b8 bd ba e7 e1 bd
       -0.22419235 0.11731186 -0.089980364 -0.110305265
0001f0 95 e6 50 be 26 dc 72 be f7 4f 29 be 2f 01 22 be
       -0.2040046 -0.23716792 -0.1653441 -0.15820764
000200 f6 cd 3b bc b7 a4 6a 3e 42 5d 04 be 0e 7c aa bd
       -0.011462679 0.22914396 -0.129262 -0.08324443
000210 5c e6 13 3e 22 24 3a bd 3a 73 15 3e 79 13 19 3e
       0.14443344 -0.045444615 0.14594737 0.14948834
000220 50 3c 28 be 33 ab 9b 3d c5 c7 53 be e1 b6 91 be
       -0.16429257 0.07601013 -0.20681675 -0.28459838
000230 4d 60 2f bd ec 0d 51 be 7d d0 ab bb bf 4c 6b 3e
       -0.04281645 -0.20415467 -0.0052433596 0.22978495
000240 34 10 0d 3d 4b 71 75 be 8b 6c 68 bc bc 3f a2 3d
       0.03443928 -0.23968999 -0.014186035 0.079223126
000250 bb ec 3a bd 39 69 8e 3d cf ef 1d be 19 45 25 3e
       -0.04563592 0.069536634 -0.15423511 0.1613964
000260 aa 4d 38 3d fa f8 8f 3e b8 3c 04 be 9f bb 39 be
       0.04499594 0.28119642 -0.12913787 -0.18137978
000270 21 4f 3d be c2 f6 1e bd 71 38 53 be 03 7f 32 be
       -0.18487217 -0.038809545 -0.20627 -0.17431264
000280 a4 6b e8 3d 5d 65 2d be 13 fd 36 be 0b 0a 34 bc
       0.11348656 -0.16933198 -0.17869978 -0.010988723
000290 5b 3a bc bd 3f ab 9c be 6d dd a4 3d 1a be 6e bb
       -0.09190818 -0.305994 0.08050046 -0.0036429227
0002a0 23 fb ab 3d f0 5b dd bd 21 f8 88 3e 66 a1 f1 3d
       0.0839751 -0.10808551 0.26751807 0.117983624
0002b0 ba 10 15 be 68 b9 26 be 63 06 01 3e 3f 42 62 bd
       -0.14557162 -0.16281664 0.12600093 -0.05523896
0002c0 48 3f 98 bc e1 43 2c 3e 8c c5 53 bd 11 5b 18 3d
       -0.018584862 0.16822769 -0.051702067 0.037196223
0002d0 99 d5 f5 3d 22 f4 b5 bd a2 3a 0e be c8 2c 91 3c
       0.12003631 -0.08884455 -0.13889554 0.017721549
0002e0 54 e3 d1 bd 5d be 49 be d5 4c ae bc bf f6 0a be
       -0.102484375 -0.19701524 -0.02127687 -0.13570689
0002f0 14 73 c5 bd 80 aa e6 bd 1f 08 b1 3e 0a c4 d3 bd
       -0.0964109 -0.11262989 0.34576508 -0.10340126
000300 c7 ba 62 bd 09 d8 29 3e 1c 74 d9 3d 22 a0 24 be
       -0.055353906 0.16586317 0.10617849 -0.16076711
000310 c8 54 dd 3d 9d 4f 1d 3e 1b 25 4d 3e 30 d2 22 bc
       0.10807186 0.15362401 0.20033686 -0.009937808
000320 2e 86 a8 3d f7 5e 00 bd b2 5d 2e be 30 47 2f be
       0.08228718 -0.031340566 -0.1702793 -0.17117
000330 be 16 0b bd ea bd 14 3c 69 7c 03 3d e9 f0 1c 3e
       -0.033957236 0.009078482 0.03210107 0.15326275
000340 f3 ba 4c be 90 83 e6 3d 2f 66 c1 3c 64 b7 3c 3e
       -0.1999319 0.11255562 0.023608295 0.18429333
000350 85 c3 07 3e 34 86 72 3e 4b 72 92 be 5d 3d 07 be
       0.13258179 0.23684007 -0.28602824 -0.13207002
000360 dd 62 98 3b 25 83 6e bd 8f 20 f5 3d d2 79 7b be
       0.0046504573 -0.058230538 0.11969101 -0.2455819
000370 7f 16 6a be 85 b7 99 be f0 c1 c3 3c cb 9e 42 3e
       -0.22860144 -0.30022827 0.023896188 0.19005887
000380 1e a4 2e be b0 ac c2 bd f8 28 5e 3d 76 9d 60 be
       -0.17054793 -0.09505594 0.05423829 -0.21935067
000390 45 16 67 bd bb 9f f0 3d df e7 e1 3d 28 a6 4e 3e
       -0.056417722 0.11749216 0.11030554 0.20180571
0003a0 9b 58 2b 3e 02 eb 15 3e cf 49 12 3c ff 0b 19 be
       0.16733019 0.1464043 0.00892873 -0.14945982
0003b0 10 21 f8 bc e1 39 e0 3d b9 a2 15 bd 49 7a 34 be
       -0.030289203 0.109485395 -0.036532138 -0.17624773
0003c0 98 e4 07 3e 4b f8 47 3e f1 f5 0f 3d ed 91 3c 3e
       0.13270795 0.1952831 0.035146657 0.18415041
0003d0 4c 10 32 be c8 26 06 be 77 11 09 bd 3b 51 28 bd
       -0.1738903 -0.13100731 -0.03346392 -0.041093092
0003e0 f2 c8 12 3e cf fe d9 bd 83 ec 75 bd fd f7 3f 3e
       0.14334467 -0.10644304 -0.06004001 0.18746944
0003f0 1e ea 81 3d 80 06 12 3e 7c fa 86 3e 80 43 2d be
       0.063434824 0.14260292 0.2636298 -0.1692028

layers.hidden_2.bias f4 [20]
000000 fc cb 9d bd b0 0d ef bc fc 0f e5 bd 63 9b 49 3b
       -0.077049226 -0.029181331 -0.111846894 0.0030762784
000010 a6 b1 5f 3e 37 ef 89 bd 0b ef 0a be 7a e4 15 3e
       0.21845111 -0.0673508 -0.1356775 0.14637938
000020 0d 33 3e be 83 e5 b7 bb b1 d3 a9 bd d5 0d c1 3d
       -0.18574162 -0.0056120767 -0.0829233 0.094264664
000030 79 cb 53 3d 96 ec 91 3c 49 5e 22 be f4 51 8b bd
       0.05170772 0.017813008 -0.1585628 -0.06802741
000040 ab 3d 40 be b7 9f f6 bc a2 e5 19 be 01 73 5d 3e
       -0.18773524 -0.030105455 -0.15029004 0.21625902

layers.hidden_3.weight f4 [20, 20]
000000 64 26 d8 bd 78 ee 5a be be 51 e4 3d f8 ca 29 bd
       -0.105541974 -0.21380031 0.111484036 -0.04145333
000010 96 98 18 3d 75 46 99 bd 26 cb 12 3c 7c 50 4d bd
       0.037254892 -0.07484142 0.008959567 -0.050125584
000020 b7 1a 94 bd 59 0f 13 3c ac 00 c3 bb b6 f1 41 3e
       -0.07231658 0.008975827 -0.005951008 0.18939862
000030 ac 23 27 3e ef 55 09 be 3a 88 47 be b8 42 ae bd
       0.16322201 -0.13411687 -0.1948556 -0.08508819
000040 e1 b3 eb 3d 16 2c 1c 3e 5d 5d 04 bc 15 f7 61 be
       0.115089186 0.15251192 -0.0080789 -0.2206691
000050 f6 0c 4e be 9c 4e 22 3e eb c4 29 3d d0 5a 5f be
       -0.20122132 0.158503 0.04144756 -0.21811986
000060 56 2a 22 be 2f 06 75 bd 0d 99 72 be cd d9 e6 3d
       -0.15836462 -0.05982035 -0.23691197 0.11272011
000070 22 53 6c 3e e4 f9 12 3e ec 7b 9c 3d 1e b8 4a be
       0.23078588 0.14353138 0.07640824 -0.19796798
000080 71 49 65 3e a2 22 c9 3d 73 2f 85 bd cb ac 2e be
       0.22391297 0.09821059 -0.06503191 -0.17058103
000090 c3 29 51 bd 3b 0c 29 3e 3b 43 57 be f9 df 7a be
       -0.051065218 0.16508572 -0.2102174 -0.24499501
0000a0 bb 63 ef 3d 43 2e 6e 3a e3 f5 25 bd b7 46 d8 bd
       0.11688944 0.0009085873 -0.0405177 -0.10560363
0000b0 6c 78 ca 3b 68 9c c8 bd 8d 77 ee 3d 64 3c ca bc
       0.006178906 -0.09795457 0.11643896 -0.024687
0000c0 08 da 5d 3e c3 f2 33 3e ac 6d 70 3e ed 90 3b 3e
       0.21665204 0.17573075 0.23479337 0.18317004
0000d0 a5 39 29 3e 46 d2 87 3d b7 ff b6 3b ae c1 55 3e
       0.16525896 0.06631903 0.005584683 0.20874664
0000e0 6f f9 2a be c4 fb 2b bd 7f 30 69 3e cf 36 f9 bd
       -0.16696714 -0.04198815 0.22772406 -0.12168657
0000f0 9d 1e 06 3e 8d 80 1e be f3 13 8c 3c 46 80 b1 bc
       0.13097616 -0.15478726 0.017099356 -0.02166761
000100 7d 0f 03 be 89 49 0b 3d 1f 1f 89 3d 69 63 b8 ba
       -0.12798877 0.034005675 0.06695389 -0.0014067712
000110 3c 2e 29 be 1f 7c 0e be 7f 63 23 bd 57 ba 57 3e
       -0.16521543 -0.13914536 -0.03988981 0.21067177
000120 2c 95 dc 3d b0 2d 6b be 58 0c 44 3e 25 1a 19 be
       0.1077064 -0.22966647 0.19145334 -0.1495138
000130 73 91 04 3e 27 aa 17 3e 15 f8 34 3e 75 8a 05 3e
       0.1294611 0.14811002 0.17672761 0.13041098
000140 40 96 80 3e 54 4e 8b be a1 ed 18 bc 12 51 ed bd
       0.25114632 -0.27208197 -0.009333999 -0.115877286
000150 d3 bb 9f 3e f2 2d af bd 32 cf aa 3d 81 0e b8 3d
       0.31197986 -0.08553685 0.083403006 0.089871414
000160 05 ee de bb 4c 4b 58 3e a8 4b b2 bc 1a 7d 9b 3e
       -0.0068032765 0.21122473 -0.021764591 0.30368882
000170 33 49 73 be 13 c6 09 3e b8 e8 94 bd 51 83 a7 bd
       -0.23758392 0.13454466 -0.0727095 -0.081793435
000180 ab 35 25 3d d0 85 9c bc d6 0c 0f 3b 23 53 93 bd
       0.040334385 -0.019106776 0.002182772 -0.071935914
000190 12 01 5d be e8 a6 e2 bc d3 0f 77 be 7e 72 17 3e
       -0.2158244 -0.027667478 -0.2412713 0.14789769
0001a0 9c c2 11 be 9c b3 10 be df 33 81 3d f3 fa 13 be
       -0.14234394 -0.14131016 0.06308722 -0.14451198
0001b0 51 c5 0e be e5 9a 5e be 5a 73 2f 3e ce ee 8f 3d
       -0.13942458 -0.21738775 0.17133847 0.0702797
0001c0 5d 60 61 3e e1 e0 2d be 27 f5 34 3e 98 15 43 be
       0.22009416 -0.16980316 0.17671643 -0.19051206
0001d0 3e c6 cc 3b cb bb 48 be cd a0 2b be 2c 14 aa 3d
       0.0062492182 -0.19602887 -0.1676056 0.08304629
0001e0 cf b2 e9 3d b1 31 71 be 32 82 3a 3e 9e d3 8e bc
       0.11411058 -0.23554112 0.18213728 -0.017434891
0001f0 ea 31 f8 3d b4 33 d4 bd 51 e7 64 bd 17 10 08 3e
       0.12118895 -0.10361424 -0.055884663 0.13287388
000200 b6 5e 1a 3e 40 eb d2 3d 7d 75 99 3c 00 65 b5 3d
       0.15075192 0.102987766 0.01873278 0.08857155
000210 85 be 34 3e 9c 88 ff bc 39 e8 ee bd ca 45 86 3c
       0.17650802 -0.03119307 -0.11665387 0.0163907
000220 01 87 34 be 07 b8 8c 3d 45 c1 8a bc e7 0a 0f be
       -0.17629625 0.06871038 -0.016937861 -0.13969003
000230 f5 61 db 3d d7 ea a2 3d e1 5e 9c bd 02 54 3a 3d
       0.10712043 0.079549484 -0.07635284 0.045490272
000240 28 d0 94 be 36 fb 0c 3e f4 ce 9f bd 93 a5 84 be
       -0.2906506 0.13767704 -0.07803145 -0.25907573
000250 61 31 d1 bd 61 ad 36 bb 8b 95 72 be 0a 28 81 be
       -0.102144964 -0.0027874338 -0.23689859 -0.2522586
000260 79 b6 0c 3e c8 05 10 bd f4 38 17 3c b6 c8 36 3d
       0.13741483 -0.035161763 0.009229887 0.044625007
000270 7c 77 01 be 3f 0e 86 be 0b 51 32 be 2d 6f 65 3c
       -0.12643236 -0.26182744 -0.17413728 0.014003557
000280 61 cd 5e 3e ed 7c a2 3d 5c f6 15 3e b4 ef 81 3e
       0.21758033 0.07933984 0.1464476 0.2537819
000290 f9 6b 89 3e c1 3a 46 3e 7f 9d 22 3e 13 7e 3c 3d
       0.2684019 0.1935835 0.15880392 0.04601867
0002a0 65 e9 ef bd 14 1b b5 3d 59 65 70 bd 48 80 12 bd
       -0.11714438 0.08843055 -0.058690403 -0.03576687
0002b0 05 65 79 3b 67 93 88 bc ad f4 2d 3e bd 80 b1 3d
       0.0038054597 -0.01667185 0.16987868 0.08667133
0002c0 e5 18 f4 3d 7a bd 1a 3e ae ae 15 3e 15 dd ed 3d
       0.11918811 0.15111342 0.14617416 0.11614434
0002d0 80 94 10 be 66 de 9a 3d bf fc 13 be 5f 3a fd 3c
       -0.14119148 0.075619504 -0.14451884 0.030911623
0002e0 a2 cf 08 3e 8c 61 69 bd d5 f1 ac bd 6b d3 3c 3d
       0.13360456 -0.056977794 -0.08444563 0.04610006
0002f0 67 6e c8 bd 70 bd 8c 3d 97 8c cb 3d 49 80 4c 3e
       -0.097866826 0.0687207 0.09938925 0.19970812
000300 ff 33 5d 3d 8c 23 a6 bd ae 39 07 be f1 b6 c7 bd
       0.054004665 -0.08112249 -0.13205597 -0.0975169
000310 9f 8f aa 3d 07 16 78 bd 0f 57 8a 3e 2d 5f f3 bc
       0.08328175 -0.060567882 0.27019545 -0.02970847
000320 68 04 2e be 12 75 69 bd 87 3b cc 3d 25 bf 42 3d
       -0.16993868 -0.056996413 0.099722914 0.04754557
000330 84 e3 57 3e 60 07 41 3e 6a 24 d8 3d f8 7e 95 3e
       0.21082884 0.1885047 0.105538204 0.29198432
000340 6d c8 53 be 0f eb 94 3d c9 41 2f 3d a3 e3 1c 3d
       -0.20681925 0.07271396 0.042787347 0.03830303
000350 6b 1b 2d be 4a a1 03 3e 31 72 79 bc 8b 62 42 3e
       -0.1690499 0.12854496 -0.015224979 0.18982904
000360 f0 f5 c2 bd 9a d6 05 bc b8 d9 5e 3e 9a 44 92 3d
       -0.09519565 -0.008168841 0.2176274 0.07141991
000370 d5 34 f5 3d c9 6e 17 3d 58 43 5b 3e d0 b3 03 be
       0.119729675 0.036970887 0.21412408 -0.12861562
000380 85 93 3e 3d 1a ff ab bd 56 71 24 bc 0d bc a6 3d
       0.046527404 -0.08398266 -0.010036787 0.081413366
000390 3a 42 c2 bd 95 1b 18 be 71 4b 7e 3e 43 62 49 3d
       -0.09485288 -0.14854272 0.24833466 0.049165975
0003a0 4d e9 44 3d e7 e1 1c 3e 31 5b 4a 3e ab d3 73 3e
       0.048074055 0.1532055 0.1976135 0.23811214
0003b0 2b 95 3c 3e 46 aa ff 3d 9c 18 1a 3e d1 9a 50 3d
       0.18416278 0.12483649 0.1504845 0.050928894
0003c0 9c 38 33 be bc 2e 16 ba 9b f1 35 bd f9 ac 91 3d
       -0.17502064 -0.000572901 -0.044419866 0.0711307
0003d0 86 00 a4 bc e5 b5 2b be 08 da 51 bd 36 9c 18 be
       -0.02001978 -0.16768606 -0.05123332 -0.1490334
0003e0 6c d8 dc 3d bd e1 22 bb be d6 0f 3e 02 5f db 3d
       0.10783467 -0.0024853789 0.14046761 0.10711481
0003f0 02 10 ed bc 0c ba 22 be b4 20 68 3e cb 03 4c 3d
       -0.028938297 -0.15891284 0.22668725 0.049808305

layers.hidden_3.bias f4 [20]
000000 7d af 97 bc 6e 5d 15 3d 2b ba af 3d 1f 88 da 3d
       -0.018516297 0.036466055 0.085804306 0.10670494
000010 b5 8d d0 3d d6 4b 6e be b5 4c 23 be 19 3b f6 bd
       0.101832785 -0.23271117 -0.1594723 -0.12022991
000020 65 3d dd 3b cc e6 53 3e 7b 1c 6a 3d ec 89 02 3e
       0.0067517036 0.20693511 0.057156067 0.12747926
000030 a8 d6 8f 3d 6e 5b d0 bd 59 ec 01 be b2 39 87 bc
       0.07023364 -0.10173689 -0.12687816 -0.016507003
000040 cf b7 12 3e aa 2e b9 bd f3 65 13 3e 26 27 4d be
       0.1432793 -0.090421036 0.1439436 -0.20034465

layers.hidden_4.weight f4 [20, 20]
000000 ef 91 c2 bc 59 6a b9 3d d7 4f c1 bc 49 a1 3d be
       -0.023751227 0.09053487 -0.02359764 -0.18518557
000010 3e 2a 5d be 56 a8 fe bd a0 2f ed 3d 0c a4 75 3e
       -0.21598145 -0.12434451 0.115813494 0.2398836
000020 41 40 14 be 88 d6 99 3d eb 3e 0c 3e 12 f7 03 3e
       -0.14477636 0.07511622 0.13695876 0.12887219
000030 d9 3e 8a be 9f 8e fb bb e3 ca 1f 3d f9 b7 2c 3d
       -0.27001074 -0.007676914 0.039011847 0.042167637
000040 de 23 8c 3d 68 40 2e 3e c1 7c 94 3d 1b 7b 2c 3d
       0.068427786 0.17016757 0.072503574 0.04210959
000050 67 49 09 bd 68 96 45 ba f1 b9 7e 3d 94 78 d0 bd
       -0.033517268 -0.0007537366 0.062189046 -0.101792485
000060 8e 9f 6e bd 3c 55 89 3d f5 55 b0 3c 8f 51 86 be
       -0.058257632 0.0670571 0.021525363 -0.262341
000070 0c 2d e3 3d 67 32 e7 3d 9f 90 2b 3e a1 8a 82 3e
       0.110925764 0.1128891 0.16754387 0.2549639
000080 13 71 41 bd 9c a7 70 be 52 85 b6 3c aa 52 83 bd
       -0.047226977 -0.23501438 0.022280369 -0.06412251
000090 e2 76 44 be 6c 89 5e be 7a dd b9 3a 99 fb 65 3e
       -0.19185975 -0.2173211 0.0014180385 0.22459258
0000a0 a5 63 4d 3e 59 1f 5c be 25 74 74 3d c3 1e 00 3e
       0.20057543 -0.21496333 0.059681077 0.12511735
0000b0 6e 49 83 38 6f 24 30 be c5 4d da 3d fb c5 2a 3e
       6.260244e-05 -0.17201398 0.106593646 0.16677086
0000c0 b6 f5 1a 3e 7a 69 2a bc 7d 9b 58 3e 6f 8d f5 bc
       0.15132794 -0.010401124 0.21153064 -0.029974667
0000d0 5a 1a 61 3e fe ac 69 be 1b 9a 15 bd d3 3f 26 3e
       0.21982709 -0.22819898 -0.03652392 0.16235285
0000e0 9e b8 81 3d ed 49 47 be 00 89 06 be 82 33 3e bd
       0.06334041 -0.19461794 -0.13138199 -0.04643584
0000f0 8d 14 12 bd 16 f0 2c bd ff 25 57 be 47 3a 5d 3d
       -0.03566413 -0.04222115 -0.21010588 0.054010656
000100 0d 23 9b bd 15 2d 3a 3e ce ee 62 be 98 4d 79 bd
       -0.07575045 0.1818126 -0.2216141 -0.060865015
000110 4a f7 6a 3e eb f8 98 bd 52 ea a5 3d 8e cf 52 3d
       0.22945896 -0.07469352 0.08101334 0.05146747
000120 6b 69 6e 3e be bf 2d be 44 1a 2c bd 17 f1 42 be
       0.23282401 -0.16967675 -0.042017236 -0.19037281
000130 06 59 19 3d d9 bc 45 3c e2 b8 91 bd a3 a4 23 3e
       0.037438415 0.012068951 -0.07115342 0.15980773
000140 40 6c 27 3c 35 2e 18 bd 18 32 32 be 83 17 09 3e
       0.01021868 -0.03715344 -0.17401922 0.13387875
000150 02 e1 cd 3d 55 55 73 be 27 c1 ec 3d 46 c5 95 bd
       0.100526825 -0.2376302 0.115602784 -0.073130175
000160 8d c1 9b 3d c8 be a1 bd 87 71 63 3e 97 f5 a1 bd
       0.07605276 -0.07897717 0.22211276 -0.07908171
000170 0e ec 08 bd ba 56 90 3d 30 b1 95 bc d2 bf 71 3e
       -0.033428244 0.07047792 -0.018272966 0.2360833
000180 ef 4d 1c bd c9 71 c3 3d 7f f4 19 3d 97 44 8c 3d
       -0.03816026 0.09543187 0.037586685 0.0684902
000190 a4 bd 9f 3d b6 e7 5a be 8f 57 d4 3d 2b 94 d3 3d
       0.07799843 -0.21377453 0.10368263 0.10330995
0001a0 03 ef 1f be 69 fd 8c 3e 3a 10 45 be ab 06 3d 3e
       -0.1561852 0.27537087 -0.19244471 0.18459575
0001b0 fb 4f 37 be 38 35 d3 bb 1e 7f 71 be 2d 56 a0 bd
       -0.17901604 -0.006445553 -0.23583648 -0.07828937
0001c0 89 c7 db bb 05 59 db 3d f6 2d 87 3d a0 10 68 ba
       -0.006707136 0.107103385 0.06600563 -0.0008852575
0001d0 7f 58 1f be f9 6b e2 bc 59 87 c6 3d ad b5 4f 3d
       -0.15561102 -0.027639376 0.09693784 0.05071037
0001e0 f5 d3 5c 3e 5f ac b1 3d bd bd 2f be a1 2d 74 3e
       0.2156523 0.08675455 -0.17162223 0.23845531
0001f0 cc 7d 5a 3e f0 9f 6c be e2 32 2d be 03 ab 40 be
       0.2133705 -0.23107886 -0.16913942 -0.18815236
000200 01 9c 47 3d ab 2e 7d bd 79 49 41 3e bd 49 85 bd
       0.04873276 -0.061812084 0.18875684 -0.06508205
000210 8a 23 50 be d1 66 32 3e 6c 5a 83 3e 47 28 79 3e
       -0.20326057 0.17422034 0.25654924 0.24331771
000220 08 40 c6 3a bb f8 1f bd 4e 19 f3 3d 17 b4 19 be
       0.0015125284 -0.039055567 0.11870061 -0.15010105
000230 9c a0 09 3e 7d c4 9b bd 60 12 4c 3e 27 74 23 be
       0.13440174 -0.076058365 0.19928885 -0.15962277
000240 5f f5 6a 3a 2b e7 8a be cd 54 2a 3e 57 b8 f4 bd
       0.0008962955 -0.27129492 0.16633911 -0.119492225
000250 5b 62 79 3e bd 9d 6c 3d 32 d2 a9 bc 95 42 20 be
       0.24353926 0.05776762 -0.020730112 -0.15650399
000260 8a 21 46 3e 76 12 70 bd 22 92 9e 3c 34 ff 04 bd
       0.19348732 -0.058611356 0.01935679 -0.032469943
000270 2a d8 b6 3d 94 18 58 be 99 0d 53 bd c5 3e 13 3e
       0.08927949 -0.21103126 -0.05152664 0.14379413
000280 48 f7 78 bb 55 fc f0 bd ae 5b 72 3e af 28 32 be
       -0.0037989188 -0.117668785 0.23667786 -0.17398332
000290 ce 1d 8a 3e a6 a4 29 3e db c8 e6 bd 86 3a 67 bd
       0.26975864 0.16566715 -0.11268779 -0.056452297
0002a0 86 ab 07 3e 62 c1 0f 3e e1 7b 85 bc 50 54 44 3e
       0.13249025 0.14038613 -0.016294422 0.19172788
0002b0 2c 19 1f 3d 79 32 d8 3d 3a 7d 0b 3e 55 5a e4 3d
       0.038842365 0.10556502 0.13621989 0.11150042
0002c0 6e 15 e1 3d 8e d2 84 be 4a 9c 80 be 6d 3b 31 be
       0.109904155 -0.2594189 -0.2511924 -0.17307825
0002d0 49 04 1d bd 35 54 2c 3e 4f 6b d7 3d ed 7e d0 bc
       -0.038334165 0.16828997 0.10518514 -0.025451148
0002e0 1b 50 76 3c eb d7 e1 bd 0e be 4f 3e 03 2d 8e be
       0.015033747 -0.11027511 0.20287344 -0.27768716
0002f0 03 7f 63 3e d1 f6 3e 3e 6c cf 36 3a f3 65 37 3e
       0.2221642 0.1864884 0.00069736573 0.17909984
000300 b1 c0 0d be 4f 69 45 3e a5 89 14 be e7 0f 7b 3e
       -0.13843037 0.19278453 -0.14505632 0.24517785
000310 f0 76 f7 bd 66 68 42 bb 13 24 66 be d6 67 2c 3e
       -0.120832324 -0.0029664277 -0.22474699 0.16836485
000320 6d ec 82 be f9 78 9d 3d c9 11 27 be 12 88 dc bd
       -0.25571004 0.07689089 -0.16315378 -0.10768141
000330 ec 00 e6 bd 04 b5 d7 bd 97 8f 0c be 9e e6 3f 3e
       -0.112306446 -0.10532573 -0.1372665 0.18740317
000340 48 b4 be 3d bb c2 ca bd c4 e0 05 3e 39 45 21 be
       0.0931173 -0.09900423 0.13074023 -0.15749063
000350 b6 df fd bd c9 78 20 3e f8 80 16 3e 9a 90 5e be
       -0.12396185 0.15671076 0.14697635 -0.21734849
000360 69 7a 2e be bd 53 d4 bd 14 81 00 be d8 6f 2a 3e
       -0.17038883 -0.10367534 -0.1254924 0.16644228
000370 49 91 42 3d e3 ca 26 bd 85 cf 2c be 8f db 10 3d
       0.047501836 -0.04072083 -0.16876037 0.035365637
000380 db 8c 96 3c 1b 38 99 3e 12 33 89 be a0 01 66 3c
       0.018377712 0.29925618 -0.26796776 0.014038473
000390 6c e8 22 3d 8c ab 37 3e 21 c5 01 be 40 ad 05 bd
       0.039772436 0.17936534 -0.12672855 -0.032635927
0003a0 da de 2d 3e 7d b0 c2 bd a2 fb 87 bd a8 a3 42 be
       0.16979542 -0.09506319 -0.06639792 -0.19007742
0003b0 ea 3c 24 3d aa b0 63 bd e9 60 55 bd 4d c8 3f 3e
       0.040097155 -0.0555884 -0.052094374 0.18728752
0003c0 3a a4 5a bd ac 9c e1 3d fb 13 9a 3c 3c d6 5c be
       -0.053379275 0.11016211 0.018808356 -0.21566099
0003d0 70 73 45 3d 58 c7 66 3e a4 85 17 3e 2c 0b 4d 3e
       0.048205793 0.22536981 0.14797074 0.20023793
0003e0 35 92 6d 3d cd 98 58 3e 30 b2 32 3d 34 a4 6b be
       0.058000762 0.21152039 0.043626964 -0.23011857
0003f0 06 75 3c be bb cf 83 3e 83 ba 09 be a1 e2 a8 3d
       -0.18404016 0.25744423 -0.13450055 0.08246351

layers.hidden_4.bias f4 [20]
000000 0b 85 46 be d3 08 1d 3e 2f 66 df bb 81 16 a1 3b
       -0.1938669 0.15335397 -0.006817601 0.0049160128
000010 dc 5f a0 bd 38 43 1d 3e 38 08 37 be 9b 7b 1f 3d
       -0.07830784 0.15357673 -0.17874229 0.03893624
000020 bc fa 0f 3e f7 2b 38 3e e0 44 05 be f8 6c 63 3c
       0.14060491 0.17985521 -0.13014555 0.013880961
000030 83 f9 7d bd 52 f0 21 3e df 0c 24 be a3 04 1e be
       -0.06200553 0.15814331 -0.16020535 -0.15431456
000040 d3 3c 57 3e d9 25 7a 3b 99 2e ea bd f8 72 e2 3d
       0.21019296 0.0038169532 -0.11434669 0.11057085

layers.hidden_5.weight f4 [20, 20]
000000 f1 46 4b 3e 2f 25 ad bd 51 76 da bc 6a b1 10 be
       0.19851281 -0.08454358 -0.026667746 -0.14130178
000010 b9 21 39 3e 6c d0 95 bd 83 ab f3 3c 45 34 8d 3e
       0.1807927 -0.07315144 0.02974487 0.2757894
000020 e5 63 80 3e 47 e2 9e 3d 4d a2 f0 bd b0 7d 62 bc
       0.25076213 0.07758003 -0.117497064 -0.013823912
000030 89 bb 46 be cd b2 05 3d dc a1 e0 bd 6c fb 5f 3e
       -0.19407476 0.03264122 -0.10968372 0.21873254
000040 30 79 05 be 1c e6 c7 3c b0 1a 27 3e 42 13 6e 3e
       -0.1303451 0.024401717 0.16318774 0.23249534
000050 5d cb 22 3e d1 cb 41 bd df b7 0a bd 1b 16 13 be
       0.1589789 -0.047313515 -0.03386676 -0.14363901
000060 35 70 14 be 1f 64 76 3e ae 92 b8 3d 77 88 ba 3d
       -0.14495929 0.2406163 0.09012352 0.0910806
000070 9a 25 4f be 27 09 91 bd 04 50 1c be 6e bf 4c 3e
       -0.20229188 -0.07081824 -0.15264899 0.199949
000080 6f 1e b7 bd df 0d 35 be 56 28 24 3e a8 84 cb bd
       -0.089413516 -0.17681073 0.16031012 -0.099374115
000090 14 53 4f 3d db 0e 8b 3d 50 20 b6 3d 20 de a6 bd
       0.05061634 0.06789943 0.08892882 -0.08147836
0000a0 d2 eb 60 bd 4a ba 73 3c 69 d6 05 3c f9 69 bc 3d
       -0.054912396 0.014875958 0.008168795 0.091999
0000b0 e2 dd ab bd 62 38 6a be ed 6c b7 3d 63 46 83 3e
       -0.0839193 -0.22873071 0.08956323 0.25639638
0000c0 69 27 46 bd 94 26 b0 bc 98 51 65 be 7b 29 09 be
       -0.04837743 -0.02150277 -0.22394407 -0.1339473
0000d0 a4 a7 38 3c 0b 10 ac bd e4 22 bd 3c 1d 7f 41 3d
       0.011270437 -0.084014975 0.023087926 0.047240365
0000e0 e3 5e 3c 3e 93 dd 89 3d 7c f3 45 bd f8 5b 2a 3d
       0.18395571 0.06731715 -0.048327908 0.041591614
0000f0 b2 61 bd 3d 55 14 90 3d 5a 80 4f 3e 31 6a 21 3d
       0.092471495 0.07035128 0.20263806 0.039407913
000100 11 63 78 3d fa 7d 8c be f4 43 1f 3e 6c 71 82 3e
       0.060641352 -0.27439862 0.15553266 0.2547716
000110 46 51 eb 3d 29 cc 02 3d bd 9f 63 3d 2d 88 af 3d
       0.11490111 0.031932984 0.05557226 0.08570895
000120 a1 57 1f 3e 6c 5d 71 3e d3 b6 c6 3a c7 02 85 3e
       0.15560772 0.23570794 0.0015160687 0.2597868
000130 bb 71 3d be f2 78 c8 3d 46 02 fa 3c 39 57 7e 3d
       -0.18500416 0.097886935 0.030518662 0.0620949
000140 0e 55 5d 3d e6 38 56 bd 97 9d c8 bd 56 c5 3a be
       0.054036193 -0.052300356 -0.09795683 -0.1823934
000150 d4 c4 0a 3e 95 ee c3 3d 4e a9 ad 3c 35 19 85 3c
       0.13551646 0.0956699 0.021198895 0.016247371
000160 a9 60 69 be 1f 14 7a be 45 00 56 3c 28 94 f4 3d
       -0.22790779 -0.24421738 0.013061588 0.11942321
000170 6b 1a 31 3e 5c 39 45 bd 77 31 1a be ec 42 b1 3d
       0.17295234 -0.048150405 -0.15057932 0.086553425
000180 a9 bc 5d be 0e e9 95 3d f1 f0 0a be 43 02 36 bc
       -0.21654 0.07319842 -0.13568474 -0.011108938
000190 75 0c a2 3d 6e 32 4c bd c1 3a 1c be 2e fa 6b 3e
       0.07912532 -0.04985278 -0.15256788 0.23044655
0001a0 09 4e 3f 3e 9a 50 8d 3e 7b 99 1b bd ca de e5 3d
       0.18682112 0.27600557 -0.037988167 0.11224134
0001b0 f1 83 36 3e fe db a6 bd 82 ca 40 3e 86 99 e3 bd
       0.17823769 -0.08147429 0.1882725 -0.11113267
0001c0 cb ed 59 3e 28 9a 85 be a1 5f b7 bc 16 9e d2 bd
       0.21282117 -0.26094174 -0.022384467 -0.10284059
0001d0 b4 ea 56 bc c5 ff a9 3c 26 53 14 be 96 7f 5d be
       -0.013117481 0.020751843 -0.14484844 -0.21630701
0001e0 26 22 75 be 24 1f 31 3e 5c 62 50 3e f8 0d 4f 3e
       -0.23938808 0.17297035 0.20350021 0.20220172
0001f0 5d 65 31 be 11 f7 4d 3d 75 83 89 3e f0 4d b5 3d
       -0.17323823 0.05028445 0.26858106 0.08852756
000200 fc 82 57 3e d8 77 38 3e 0e 4b 77 3d 3e 4f a5 3d
       0.2104606 0.18014467 0.060374312 0.08071755
000210 24 ba 08 be 95 b8 8a 3e b0 12 0c bd cd 5f 06 be
       -0.13352257 0.2709395 -0.03419751 -0.13122483
000220 89 b4 81 3e 32 86 82 bd 7c c5 3d bd 9e 6c 93 bc
       0.2533305 -0.06373252 -0.046330914 -0.017996129
000230 eb b5 70 bd d5 71 0d be d7 06 1b 3e 20 53 1e 3d
       -0.05876724 -0.13812955 0.15139328 0.038653493
000240 b1 fc 95 bd 77 18 a1 bc 03 a7 50 3d 04 e3 84 be
       -0.07323588 -0.019664986 0.050940525 -0.2595445
000250 9c 57 15 be c3 46 1c be 77 fb ca 3d cd ea 06 3e
       -0.14584202 -0.15261368 0.09911244 0.13175507
000260 b9 64 68 3e 89 58 cd bd 9c 1c a2 bc 04 4f e1 bd
       0.22694673 -0.10026652 -0.019789033 -0.11001399
000270 4c f4 80 be 9d 45 f8 bd 55 1f 0a be 93 3d 84 3d
       -0.25186384 -0.12122653 -0.13488515 0.06457057
000280 9e b5 51 3e ee cc 6f bc de 3a 69 be 36 58 ad bc
       0.20479438 -0.014636261 -0.22776362 -0.021160226
000290 48 45 a3 bd 0c 53 85 3e c6 05 80 be 58 bb 42 bd
       -0.07972199 0.26039922 -0.25004405 -0.047541946
0002a0 d4 23 6e be 9c 21 5f be 2c 6b f3 bd 0a ef a8 bc
       -0.23255855 -0.21790165 -0.11885676 -0.020621795
0002b0 de 8e 3e be a0 4f 30 bd 47 47 e7 bd 1f fd 64 bd
       -0.18609187 -0.043044686 -0.11292892 -0.055905458
0002c0 1d 68 ce bd bd 52 cd 3b e9 f2 e1 3d 2b 44 ac bc
       -0.10078452 0.0062659667 0.110326596 -0.021028599
0002d0 1e eb d8 bd b3 35 2e be 2b ff b4 bd 9c 36 f1 3d
       -0.1059172 -0.17012672 -0.08837732 0.11777994
0002e0 5a 05 18 3e 84 ae 3b 3e 86 74 ed bd cb 01 41 bd
       0.14845791 0.18328291 -0.11594491 -0.04712085
0002f0 d4 5a 73 bd 80 20 08 3e 0b 44 7b 3e a8 a3 d9 3d
       -0.059412792 0.13293648 0.24537675 0.10626918
000300 4f 9c 1d 3e 25 9e 16 3e 14 d1 6e be 74 79 6d be
       0.15391658 0.14708765 -0.23321944 -0.23190862
000310 a7 92 03 3e ae 49 1f 3e 41 02 26 bd f2 f2 c6 3c
       0.12848912 0.1555545 -0.040529493 0.024285767
000320 09 4d 4f 3e c3 b8 09 bf 08 4d 17 be f3 e4 8b be
       0.2024423 -0.5379755 -0.14775479 -0.27323112
000330 5f 08 33 be 15 18 62 be 2a 39 3f 3e cd 43 7b 3e
       -0.17483662 -0.22079499 0.1867415 0.24537583
000340 20 88 85 3d 0d f1 36 3e 2d 2d 02 bd c8 36 d2 be
       0.065201044 0.17865391 -0.031781364 -0.4105742
000350 a8 d9 d8 3d 79 d7 74 be b0 c3 33 b8 2a 86 60 bd
       0.1058839 -0.23910321 -4.2859174e-05 -0.05481545
000360 9e 5d 5f bc 6b 98 58 be cc 05 bb bd 10 b1 34 bd
       -0.01363316 -0.21151893 -0.09131965 -0.044114172
000370 98 f2 2f 3e 4c fa 84 3b ce 6f 39 3e 9c 41 46 be
       0.17182386 0.004058158 0.18109056 -0.19360965
000380 63 ad 4c 3e b1 75 fd bc 16 99 3f 3c b3 78 81 3e
       0.19988017 -0.030939909 0.011694213 0.252874
000390 03 83 2f bd 0b 0e 16 be 20 8d a6 bd f5 af 5c be
       -0.042849552 -0.14653794 -0.08132386 -0.21551497
0003a0 fc 41 05 3e 27 b8 a4 bd a8 2b 91 3d 96 76 3f 3e
       0.13013452 -0.08042937 0.07088405 0.1869758
0003b0 b3 fa 4d 3e e8 ee 0a bd 36 5c 9c 3c 25 3d 2e 3e
       0.20115165 -0.033919245 0.019086938 0.17015512
0003c0 d8 c5 61 3e 5b 7f 35 bd 8e c6 1a 3e a1 bb b5 3c
       0.22048128 -0.04431091 0.15114805 0.022184195
0003d0 e9 a5 2f bd f6 e4 1a be c9 2b 03 be 11 74 c4 3d
       -0.042882834 -0.15126404 -0.12809671 0.095924504
0003e0 41 1a f8 bd 7d 47 4f bd b0 f8 62 be 7e b0 8b b9
       -0.121143825 -0.050605286 -0.22165179 -0.00026643643
0003f0 01 49 a6 bc 5f 63 d0 3d fc ec e7 3d 58 40 66 3c
       -0.020298483 0.101752035 0.11324498 0.014053427

layers.hidden_5.bias f4 [20]
000000 04 c0 42 bd 6b 56 3e 3e 98 a6 41 be ea 0d 44 bd
       -0.0475464 0.18587653 -0.18911207 -0.047864832
000010 7b de 02 be 71 28 7d bd d9 fa 0a 3e 53 52 f0 bd
       -0.12780182 -0.061806146 0.13572253 -0.11734452
000020 07 88 af 3d 7a 2a 1c be 7f 93 29 3e d5 ab 64 3e
       0.08570867 -0.15250579 0.16560172 0.22331174
000030 ad b6 03 be b6 bd 1f be 56 80 cd bd 93 66 43 bb
       -0.12862654 -0.15599713 -0.10034244 -0.0029815778
000040 36 6f f2 bd 56 be 56 be 37 dd 65 bd ff 77 2c bd
       -0.11837618 -0.20971045 -0.05611917 -0.042106625
