PINNS/HeatEq/models/checkpoints_Adam/Gen_8_Loss_0.0093367873.pt (torch, 85057 bytes, 43 tensors)

layers.input.weight f4 [20, 2]
0.69101864 0.5099019 -0.5173094 0.21136013 -0.4127589 -0.8582559 0.11507276 0.33120266
-0.3114385 0.15751249 0.2951699 0.4730753 -0.63299215 0.03300845 -0.7758048 0.0170821
0.6426216 0.21184604 0.46432194 -0.17992003 0.3267219 0.1486273 -0.044026937 0.62327075
0.55202186 -0.5436399 0.51298654 -0.60023075 -0.040580776 -0.7296545 -0.12521678 -0.6246536
0.061420627 -0.34776944 0.502281 -0.19279364 0.37138152 -0.748227 -0.56587034 0.57341254
00000000: 99e6 303f ee88 023f 646e 04bf ca6e 583e
00000010: 2255 d3be a9b6 5bbf 44ab eb3d 6593 a93e
00000020: de74 9fbe f44a 213e 8220 973e ed36 f23e
00000030: c60b 22bf de33 073d 259b 46bf c3ef 8b3c
00000040: d982 243f 2bee 583e 9bbb ed3e f53c 38be
00000050: 1848 a73e c131 183e 9755 34bd ac8e 1f3f
00000060: 4e51 0d3f fc2b 0bbf 1653 033f b9a8 19bf
00000070: 0738 26bd a3ca 3abf d438 00be 4ce9 1fbf
00000080: 3294 7b3d d60e b2be 7d95 003f b26b 45be
00000090: b825 be3e ce8b 3fbf e1dc 10bf 2acb 123f

layers.input.bias f4 [20]
0.61578304 0.22110641 -0.31460658 0.012081221 -0.6256919 -0.5337282 0.27427667 0.17581542
0.20419179 -0.59774053 0.57041675 0.071042016 0.6113289 -0.11261443 -0.2024731 0.29126146
0.3737248 -0.3133448 -0.6782796 0.08888318
00000000: f5a3 1d3f b869 623e 1d14 a1be 50f0 453c
00000010: 582d 20bf 69a2 08bf fe6d 8c3e f508 343e
00000020: a717 513e 8605 19bf d506 123f 7a7e 913d
00000030: 0d80 1c3f 65a2 e6bd 1c55 4fbe 3920 953e
00000040: db58 bf3e bb6e a0be bba3 2dbf 6208 b63d

layers.hidden_0.weight f4 [20, 20]
0.14207056 0.045298506 0.2307061 -0.036908038 0.27745292 0.2956607 0.09937045 0.059680164
0.074416734 0.12550935 0.069871806 0.078454144 -0.22659399 -0.19000305 0.08594774 -0.20174098
-0.14602113 -0.037438575 0.10601137 0.12806343 -0.19544977 -0.08353 -0.1712913 -0.094369315
-0.06525086 0.13101254 -0.05679284 -0.48653573 0.18854499 -0.10738462 -0.14068367 -0.024438344
0.31795514 0.104100265 0.12617266 -0.10673672 -0.046873 -0.0003428398 -0.04023657 -0.0027306522
0.0069289794 0.104506694 -0.069943324 0.0014771099 -0.09900847 0.21712595 -0.13129699 -0.028394802
-0.0051057227 -0.1347595 0.1464911 -0.1665158 -0.11172806 0.22532521 -0.14506154 -0.023036268
-0.009764325 0.06760245 -0.11715832 -0.17833807 -0.1016362 0.17243934 0.01718618 -0.2512488
-0.029690228 -0.2460829 0.15179111 0.25590327 -0.14490537 0.15770489 -0.17709206 0.031866483
-0.009063152 0.19671135 -0.18721247 0.15191264 0.09663288 -0.008277516 -0.040523604 0.13540287
-0.12522724 0.084317386 -0.15239947 -0.15783095 0.17478842 0.024712058 0.27032137 0.11717263
-0.12947935 -0.16888668 -0.20267206 -0.035058778 -0.19514222 -0.058610473 -0.07647159 0.070663765
-0.1187442 -0.042743742 0.04109059 -0.08683709 0.046950996 -0.19295122 0.14678925 -0.0069036866
-0.0029330908 0.06233009 -0.10096709 -0.10331034 -0.1180737 0.13767287 -0.038070407 -0.19713882
0.27596486 -0.03252239 0.09281737 0.09427196 0.24288589 0.1872274 0.16903858 -0.3491225
-0.107235774 -0.19035493 -0.12832029 -0.1824023 -0.1626911 -0.16385525 -0.12087654 -0.112203285
-0.003668099 0.03198985 0.006560808 -0.024308411 0.3286078 -0.007519 -0.060317762 -0.16047615
0.1910565 0.0026312303 -0.13087402 0.12181177 0.19397956 0.113970175 -0.14650267 0.188689
0.013332088 0.12754051 0.105837226 -0.06459429 -0.12846977 -0.024246158 0.14254834 0.0006267624
0.10838206 -0.19089769 -0.2572549 0.008180075 0.13733354 -0.007453763 -0.019767515 0.20406573
0.14471912 -0.07212273 0.11202687 0.2627827 -0.017282927 -0.010142853 -0.09314083 0.10022003
0.28054848 0.10498036 -0.033797454 0.1292165 0.09678067 -0.19046101 0.1469626 -0.012984625
-0.34511134 0.055002842 0.1398954 -0.099832274 0.19415626 0.14176683 -0.13632013 -0.087081745
-0.029241456 -0.26987672 0.04739996 0.11966441 -0.06727421 -0.11813477 -0.026487404 -0.0648669
0.0007930705 0.19151403 0.21827139 -0.13690348 0.19660868 0.06670332 0.17724979 0.19846062
0.14343128 0.071520396 -0.15156531 -0.028074589 -0.0142418565 0.10743187 -0.10595434 -0.006735081
0.1582504 -0.09024514 0.03549202 -0.16973929 -0.09068512 0.21373013 -0.001336696 -0.11046668
-0.16953208 -0.09232658 0.032772817 0.1061304 0.039362725 -0.17134854 -0.09973669 -0.09591129
0.16414319 -0.15066326 -0.26975816 -0.075920574 0.026991956 -0.004282794 -0.0771236 0.24712415
0.2769003 0.03203047 -0.24331537 -0.11993886 0.25511807 -0.15560164 -0.20755358 -0.007998532
-0.18726745 -0.049114183 0.013527405 -0.25490937 -0.22999738 -0.03301124 -0.010761727 -0.1554839
0.04143263 -0.14182779 0.055557527 0.11396459 -0.05793365 -0.11875581 -0.2461105 0.18623014
00000000: f27a 113e ed8a 393d 383e 6c3e e22c 17bd
00000010: 4f0e 8e3e d760 973e bc82 cb3d 3073 743d
00000020: cd67 983d 8685 003e f318 8f3d 91ac a03d
00000030: 4108 68be 2990 42be 5e05 b03d 3095 4ebe
00000040: 9086 15be 3159 19bd 7d1c d93d 0f23 033e
00000050: fc23 48be c711 abbd fd66 2fbe b344 c1bd
00000060: 3ea2 85bd 2728 063e 9c9f 68bd 361b f9be
00000070: f011 413e 78ec dbbd 610f 10be ec32 c8bc
00000080: 04cb a23e 8532 d53d 6833 013e c898 dabd
00000090: e7fd 3fbd 2ebf b3b9 1acf 24bd bef4 32bb
000000a0: 7e0c e33b 9b07 d63d 723e 8fbd 959b c13a
000000b0: f4c4 cabd 4456 5e3e b872 06be 379c e8bc
000000c0: e84d a7bb 65fe 09be c301 163e 1e83 2abe
000000d0: aed1 e4bd a7bb 663e 038b 14be 8eb6 bcbc
000000e0: 8cfa 1fbc 2773 8a3d b4f0 efbd 419e 36be
000000f0: a426 d0bd f093 303e 08ca 8c3c afa3 80be
00000100: ec38 f3bc 28fd 7bbe 216f 1b3e c105 833e
00000110: 1362 14be 647d 213e 9f57 35be 6e86 023d
00000120: 9d7d 14bc b36e 493e a0b4 3fbe fd8e 1b3e
00000130: 76e7 c53d 6b9e 07bc 14fc 25bd 0da7 0a3e
00000140: 923b 00be 98ae ac3d 9b0e 1cbe 709e 21be
00000150: bcfb 323e f170 ca3c 9067 8a3e 34f8 ef3d
00000160: 3c96 04be a1f0 2cbe 4489 4fbe cb99 0fbd
00000170: 5dd3 47be 8911 70bd 239d 9cbd 2ab8 903d
00000180: 2930 f3bd 1014 2fbd 9b4e 283d a5d7 b1bd
00000190: b04f 403d 0195 45be ec4f 163e 5238 e2bb
000001a0: 1939 40bb d64d 7f3d d5c7 cebd 5f94 d3bd
000001b0: a0d0 f1bd 1efa 0c3e b7ef 1bbd c2de 49be
000001c0: 444b 8d3e 3336 05bd 0917 be3d a811 c13d
000001d0: 14b7 783e 8ab8 3f3e 7318 2d3e 2fc0 b2be
000001e0: 6e9e dbbd 67ec 42be 6566 03be abc7 3abe
000001f0: 7f98 26be acc9 27be 1f8e f7bd d6ca e5bd
00000200: 7d64 70bb ca07 033d 0cfc d63b 6f22 c7bc
00000210: 483f a83e f261 f6bb c20f 77bd dc53 24be
00000220: 51a4 433e b870 2c3b d703 06be 7378 f93d
00000230: 94a2 463e 3269 e93d cc04 16be b037 413e
00000240: d46e 5a3c fb99 023e 30c1 d83d 034a 84bd
00000250: 948d 03be e19f c6bc 31f8 113e 504d 243a
00000260: 6af7 dd3d af7a 43be eab6 83be b905 063c
00000270: 2aa1 0c3e b23e f4bb 7cef a1bc 9bf6 503e
00000280: 4031 143e 15b5 93bd 586e e53d 748b 863e
00000290: ed94 8dbc 352e 26bc 9fc0 bebd 2940 cd3d
000002a0: 0da4 8f3e f1ff d63d 336f 0abd 5551 043e
000002b0: f234 c63d 3608 43be 5d7d 163e 77bd 54bc
000002c0: 6fb2 b0be a94a 613d bd40 0f3e dd74 ccbd
000002d0: e6d0 463e 532b 113e 8197 0bbe ea57 b2bd
000002e0: c78b efbc 482d 8abe 7626 423d 9d12 f53d
000002f0: 10c7 89bd a4f0 f1bd 1dfc d8bc f0d8 84bd
00000300: 0fe6 4f3a 411c 443e 8982 5f3e 6d30 0cbe
00000310: c953 493e c09b 883d f880 353e 4339 4b3e
00000320: a6df 123e 4979 923d f033 1bbe aefc e5bc
00000330: ad56 69bc 3e05 dc3d 97fe d8bd f4b1 dcbb
00000340: 650c 223e 72d2 b8bd 1560 113d 23d0 2dbe
00000350: 1fb9 b9bd 12dc 5a3e 1334 afba 5b3c e2bd
00000360: d199 2dbe b815 bdbd ca3c 063d e55a d93d
00000370: cf3a 213d fe75 2fbe c042 ccbd 236d c4bd
00000380: 2715 283e 7847 1abe be1d 8abe 3f7c 9bbd
00000390: 3c1e dd3c ae56 8cbb faf2 9dbd 1d0e 7d3e
000003a0: e0c5 8d3e 6232 033d aa27 79be 81a2 f5bd
000003b0: d69e 823e 0956 1fbe ed88 54be 460c 03bc
000003c0: 0ac3 3fbe f42b 49bd 0da2 5d3c 7b83 82be
000003d0: 6f84 6bbe cb36 07bd f451 30bc 2c37 1fbe
000003e0: 43b5 293d 4e3b 11be 4a90 633d 4466 e93d
000003f0: d64b 6dbd 3f36 f3bd 6404 7cbe 1db3 3e3e

layers.hidden_0.bias f4 [20]
-0.021953274 -0.011800089 0.02650755 -0.1755429 -0.01500582 -0.18293051 0.13368385 0.09924914
0.17321482 -0.12286146 -0.19198413 0.052754037 -0.20868829 0.10089961 0.15084639 -0.13206567
0.13038819 0.16136909 0.047230482 -0.048010033
00000000: 5ad7 b3bc 2955 41bc 5d26 d93c 85c1 33be
00000010: f9da 75bc 2352 3bbe 6be4 083e 2243 cb3d
00000020: 3a5f 313e ca9e fbbd 7d97 44be 9e14 583d
00000030: 62b2 55be 74a4 ce3d 7a77 1a3e 393c 07be
00000040: 7b84 053e f03d 253e c074 413d 2ba6 44bd

layers.hidden_1.weight f4 [20, 20]
0.008345493 0.19745544 0.13991497 0.027516624 -0.14640267 -0.0690616 0.029620484 0.0804975
0.03860454 0.060529295 -0.21322769 0.15547565 0.20057665 0.2181748 -0.18852022 -0.13935757
0.038790584 -0.12995988 -0.23660249 -0.16565403 0.1281255 0.059621442 -0.08033977 0.11625816
0.13605404 -0.16074446 0.041617997 -0.009660169 -0.15522307 0.15346915 -0.2264636 0.19895093
0.22550991 0.18554154 -0.12920317 -0.014712489 -0.2152649 -0.2805572 0.07925608 -0.112544715
0.05994697 -0.14700049 -0.11031119 0.05145615 0.16225952 0.22762042 0.12568903 -0.12445885
-0.01986625 -0.08514635 0.16568692 0.02120468 0.11326112 -0.17058201 0.18152755 0.05834843
-0.12696749 0.052588236 -0.027939595 0.12713179 0.07936685 0.002170126 -0.21070178 0.079364456
0.18380098 0.05084834 -0.23206264 0.00087542995 -0.121848315 0.21425247 0.13466689 0.109344885
0.0069018393 0.14285672 -0.1426598 0.17772605 -0.08639799 -0.26900956 0.107819386 -0.047688138
0.26118013 -0.33630928 -0.12797688 -0.1154809 -0.07252153 0.058786523 -0.0923897 0.07940614
0.10115265 0.20875898 0.41777688 0.09865384 -0.07463996 -0.037416548 -0.21220267 0.09463155
0.24021563 -0.028637052 -0.09781994 -0.24324727 0.20980014 -0.023331927 -0.051140003 0.279276
-0.01382804 -0.26278487 0.21910787 0.04643719 -0.030773735 0.020489566 -0.1929283 -0.040897585
0.11323904 -0.048664592 0.09929995 0.09003853 0.19499797 -0.08052776 0.13907696 -0.069831975
0.22333023 0.02492775 -0.09453291 -0.057904962 0.15231746 0.13329144 0.015411365 0.1240826
-0.108588934 0.1269526 0.11614822 0.1454754 0.08785168 0.032184925 -0.10434744 0.015919752
-0.122496784 -0.15554908 0.159645 -0.08879163 0.117901064 0.16174456 0.05264571 0.2613371
-0.19283706 0.047258478 0.1581598 0.16811933 0.024568822 0.13369362 -0.0060742497 0.16971678
-0.090657316 0.003750777 0.06606388 -0.06579431 0.10836338 -0.04129164 -0.1692301 -0.18161558
-0.05738526 0.15239319 -0.21131487 0.031106105 0.010797285 -0.146313 -0.051029135 0.07434313
0.18351768 -0.027696561 -0.23941195 0.14719215 0.029432151 0.06704396 -0.030036496 0.13404608
0.14965883 -0.28608114 -0.087465905 -0.02627155 -0.1780634 0.08988079 0.24085689 0.19307142
-0.06591435 0.24678208 0.08070874 0.011987287 -0.05307267 -0.034867898 0.16609962 0.06059104
0.16195093 -0.056710552 0.094551675 -0.017151315 -0.05192271 0.18632105 0.09233663 -0.0053454377
0.0884006 0.16173172 -0.060771685 0.014214241 0.09602779 0.09030725 -0.09623649 -0.017087413
0.029690064 0.23426126 0.16813149 0.040634163 -0.1616747 0.13022038 -0.12962909 -0.1284747
0.10953601 0.020724207 0.042132307 0.18788481 0.15608351 0.11641219 0.115596436 -0.0969388
0.18835361 0.20876412 0.027762678 0.07088548 0.044882078 0.2214475 0.03187373 0.05301232
0.19762675 -0.018045003 0.12193484 -0.13401264 -0.16044451 0.013940691 0.022328742 0.21229649
0.021440553 0.013773214 0.08288836 0.104348294 -0.019026203 0.044411536 -0.24850313 0.14149837
0.04694012 0.17100327 0.09693277 -0.20032299 -0.06160181 0.10555983 0.24814026 0.037759896
00000000: 89bb 083c c231 4a3e df45 0f3e 8b6a e13c
00000010: 95ea 15be 2b70 8dbd a8a6 f23c e0db a43d
00000020: cb1f 1e3d 91ed 773d 5c58 5abe 0235 1f3e
00000030: f763 4d3e 3769 5f3e 720b 41be c0b3 0ebe
00000040: e0e2 1e3d 3414 05be ec47 72be 36a1 29be
00000050: 5533 033e 9d35 743d 2d89 a4bd c218 ee3d
00000060: c051 0b3e 329a 24be a277 2a3d af45 1ebc
00000070: ccf2 1ebe 0427 1d3e 13e6 67be cbb9 4b3e
00000080: 12ec 663e 9afe 3d3e d64d 04be a70c 71bc
00000090: 676e 5cbe 31a5 8fbe 0351 a23d d87d e6bd
000000a0: f48a 753d 4c87 16be d5ea e1bd afc3 523d
000000b0: 5c27 263e 5415 693e a0b4 003e 48e4 febd
000000c0: 8cbe a2bc 3661 aebd d5a9 293e 70b5 ad3c
000000d0: 72f5 e73d 0dad 2ebe 5ce2 393e c3fe 6e3d
000000e0: c403 02be c366 573d 94e1 e4bc d62e 023e
000000f0: 168b a23d ac38 0e3b 35c2 57be d589 a23d
00000100: 5336 3c3e 5946 503d d4a1 6dbe 1c7d 653a
00000110: 9c8b f9bd 0065 5b3e 1ee6 093e 36f0 df3d
00000120: d328 e23b 0849 123e 6915 12be d1fd 353e
00000130: 6ef1 b0bd 9fbb 89be 69d0 dc3d a354 43bd
00000140: 67b9 853e bb30 acbe 5f0c 03be 4081 ecbd
00000150: 2b86 94bd 23ca 703d d036 bdbd b09f a23d
00000160: 1f29 cf3d eac4 553e dae6 d53e 060b ca3d
00000170: d6dc 98bd 1842 19bd a84b 59be 30ce c13d
00000180: 16fb 753e 4098 eabc d255 c8bd d015 79be
00000190: d9d5 563e 9922 bfbc 2e78 51bd 44fd 8e3e
000001a0: 018f 62bc bd8b 86be d05d 603e ec34 3e3d
000001b0: 3319 fcbc bcd9 a73c ff8e 45be 3a84 27bd
000001c0: dfe9 e73d 8654 47bd c65d cb3d 1f66 b83d
000001d0: 8cad 473e bdeb a4bd 316a 0e3e 1104 8fbd
000001e0: aeb0 643e 4835 cc3c 789a c1bd c12d 6dbd
000001f0: 1cf9 1b3e 8d7d 083e f37f 7c3c 051f fe3d
00000200: e063 debd ddff 013e 1edf ed3d 81f7 143e
00000210: 95eb b33d 57d4 033d 1cb4 d5bd 246a 823c
00000220: 98df fabd 4248 1fbe fb79 233e 63d8 b5bd
00000230: 1d76 f13d 5ea0 253e 07a3 573d facd 853e
00000240: 1477 45be 1b92 413d a5f4 213e 7927 2c3e
00000250: 8e44 c93c fbe6 083e 800a c7bb 3cca 2d3e
00000260: 8baa b9bd 99cf 753b 804c 873d 2bbf 86bd
00000270: 9fed dd3d 6c21 29bd a84a 2dbe 6ff9 39be
00000280: ce0c 6bbd f60c 1c3e ed62 58be 3bd2 fe3c
00000290: 18e7 303c 13d3 15be ed03 51bd 3641 983d
000002a0: 0fec 3b3e e6e3 e2bc 6828 75be 8ab9 163e
000002b0: b21b f13c 584e 893d 190f f6bc 6043 093e
000002c0: 2a40 193e 3a79 92be 5321 b3bd 6f37 d7bc
000002d0: 4056 36be 6b13 b83d 30a3 763e 84b4 453e
000002e0: 1afe 86bd 71b4 7c3e a04a a53d 5366 443c
000002f0: ba62 59bd a4d1 0ebd 0516 2a3e 4f2e 783d
00000300: 77d6 253e 5349 68bd 4fa4 c13d ea80 8cbc
00000310: e8ac 54bd f2ca 3e3e fd1a bd3d c828 afbb
00000320: 600b b53d 009d 253e bbeb 78bd d9e2 683c
00000330: 38aa c43d 02f3 b83d a317 c5bd e7fa 8bbc
00000340: 9438 f33c 2fe2 6f3e a92a 2c3e 0270 263d
00000350: 0d8e 25be 7e58 053e 7dbd 04be df8e 03be
00000360: 6a54 e03d d0c5 a93c ed92 2c3d e064 403e
00000370: 5bd4 1f3e 8469 ee3d d3bd ec3d d987 c6bd
00000380: c5df 403e 43c6 553e 8e6e e33c 682c 913d
00000390: 45d6 373d 22c3 623e 078e 023d 7223 593d
000003a0: ab5e 4a3e 1dd3 93bc f9b8 f93d 9c3a 09be
000003b0: 914b 24be 7f67 643c c4ea b63c 4064 593e
000003c0: 19a4 af3c 0ca9 613c 5fc1 a93d 8fb4 d53d
000003d0: d7dc 9bbc dfe8 353d 9b77 7ebe f3e4 103e
000003e0: 4944 403d 7b1b 2f3e b084 c63d 7821 4dbe
000003f0: 2e52 7cbd c12f d83d 7b18 7e3e 1faa 1a3d

layers.hidden_1.bias f4 [20]
-0.13718088 -0.17383611 0.027934575 -0.105516516 -0.15619476 -0.2053638 0.098419994 -0.15541327
0.044379923 -0.1201195 -0.10231637 0.20411505 0.15365414 0.115502596 -0.12762414 -0.02416391
-0.056002453 -0.13343309 0.07771243 -0.12333437
00000000: 2579 0cbe 1802 32be 0dd7 e43c 0b19 d8bd
00000010: 85f1 1fbe e34a 52be 6c90 c93d a824 1fbe
00000020: b9c7 353d 3601 f6bd 3f8b d1bd 8903 513e
00000030: 8357 1d3e a08c ec3d e7af 02be 64f3 c5bc
00000040: d462 65bd afa2 08be b227 9f3d bb96 fcbd

layers.hidden_2.weight f4 [20, 20]
-0.13859344 -0.24905567 -0.15437114 0.054717366 0.01091365 -0.11256236 0.11996302 -0.243707
-0.05482028 0.052884564 0.132599 0.20763573 -0.048687268 -0.054712683 -0.12511875 -0.12076872
-0.15045418 0.18640104 0.07626306 0.020948075 -0.11676444 0.123542204 -0.19205579 0.058003582
-0.060881674 0.26877078 -0.16650784 0.13317305 0.14162022 -0.15909451 -0.20713814 -0.02063133
-0.12799223 -0.18339819 0.025768513 0.009719336 0.18847424 0.16373655 0.037195254 0.23773783
-0.22645651 -0.083836414 0.15846606 0.21288687 0.24327917 -0.23051885 -0.070314035 -0.15806402
-0.05829143 0.028411182 0.2528264 -0.09791208 0.1367902 0.30533084 -0.0079259 -0.015027251
0.19440775 0.21469082 -0.090647526 -0.21001318 0.11133872 -0.14768898 -0.04318288 -0.15715034
0.033539604 0.117993414 0.053851806 -0.20715693 0.020301858 0.11220229 0.21574336 0.06511099
0.19720034 0.25657386 0.14101924 0.03379195 0.17704858 0.092121944 -0.025242737 -0.22816889
0.0104850745 -0.104606375 0.093932725 0.15802525 0.19450954 -0.2729144 -0.03924108 -0.14858583
-0.20683517 0.06868673 0.04075636 0.040061895 0.23318607 0.13988312 -0.051871948 0.20426415
0.15735745 0.046148255 -0.0057356395 -0.14463072 0.22510782 0.09656264 -0.17560598 0.03350678
0.082791254 0.19225204 0.20924422 0.14260048 -0.034348596 -0.1910468 0.04111929 -0.12391168
-0.022911407 0.23052172 0.011902234 -0.11685345 0.036519744 0.029205443 0.19561197 0.2983532
-0.22364384 0.11933583 -0.08933984 -0.110267065 -0.19990176 -0.23648165 -0.16192253 -0.1475209
-0.01286807 0.22908023 -0.122722656 -0.08043728 0.14167373 -0.04990193 0.1445021 0.14357716
-0.16955043 0.076635525 -0.20751072 -0.27711186 -0.042807568 -0.2032595 -0.004369102 0.22939147
0.035982147 -0.23936255 -0.012583473 0.08372568 -0.04601897 0.069685526 -0.14641471 0.164743
0.041649323 0.27095318 -0.12918064 -0.18258037 -0.18754637 -0.03852217 -0.20509018 -0.16746362
0.11153309 -0.16936982 -0.17704985 -0.010637987 -0.08819849 -0.30446446 0.08123956 -0.0075912126
0.084058434 -0.10911095 0.2795939 0.11984554 -0.15006462 -0.17566988 0.1303018 -0.047481544
-0.015047278 0.16914824 -0.049277376 0.04726543 0.11936801 -0.08880237 -0.13802083 0.017530808
-0.10070335 -0.19631144 -0.020610161 -0.13676594 -0.096067995 -0.113168746 0.3545818 -0.10136956
-0.058790505 0.15490323 0.108245105 -0.15647563 0.10915471 0.15379079 0.20237648 -0.0031921936
0.083696246 -0.027639726 -0.16998127 -0.17113961 -0.028487463 0.010242649 0.0368217 0.1665453
-0.20042054 0.11051158 0.024782786 0.18679701 0.12723711 0.23275504 -0.28774446 -0.13775629
-0.0013393059 -0.057813954 0.1190348 -0.23781106 -0.22814448 -0.29818052 0.024762817 0.18990426
-0.16810279 -0.094506525 0.056852363 -0.20929687 -0.057562634 0.11781329 0.11611905 0.20503573
0.16408564 0.14051042 0.007365135 -0.15482467 -0.03594063 0.110112965 -0.036602713 -0.16840869
0.13255225 0.19366954 0.034360357 0.1844097 -0.17618677 -0.13154319 -0.035574157 -0.04673725
0.14368299 -0.10615741 -0.066447936 0.18450256 0.06687538 0.1510065 0.26399708 -0.1675003
00000000: 70eb 0dbe 7308 7fbe 7813 1ebe 511f 603d
00000010: 2acf 323c 1887 e6bd 2caf f53d 548e 79be
00000020: 3b8b 60bd 7c9d 583d 08c8 073e 769e 543e
00000030: 4d6c 47bd 681a 60bd 211f 00be 9755 f7bd
00000040: a910 1abe eadf 3e3e cf2f 9c3d 4c9b ab3c
00000050: 3222 efbd b203 fd3d 46aa 44be 2a95 6d3d
00000060: 105f 79bd 539c 893e 0881 2abe 845e 083e
00000070: e404 113e ace9 22be 051c 54be 0903 a9bc
00000080: 6510 03be bccc 3bbe 7d18 d33c da3d 1f3c
00000090: 64ff 403e 8eaa 273e 0d5a 183d 8c71 733e
000000a0: 37e4 67be 6db2 abbd ed44 223e 04ff 593e
000000b0: 2d1e 793e 220d 6cbe ce00 90bd 89db 21be
000000c0: ffc2 6ebd 91be e83c 7672 813e 2186 c8bd
000000d0: bb12 0c3e 5354 9c3e a2db 01bc dc34 76bc
000000e0: d312 473e e9d7 5b3e 69a5 b9bd b20d 57be
000000f0: 8e05 e43d c83b 17be 88e0 30bd 05ec 20be
00000100: d360 093d 88a6 f13d b693 5c3d f220 54be
00000110: 1550 a63c 50ca e53d d4eb 5c3e e958 853d
00000120: e3ee 493e a65d 833e 5967 103e 6e69 0a3d
00000130: 394c 353e 6eaa bc3d dbc9 cebc 1ba5 69be
00000140: 97c9 2b3c de3b d6bd cd5f c03d 5fd1 213e
00000150: 822d 473e 70bb 8bbe 41bb 20bd e226 18be
00000160: 99cc 53be a1ab 8c3d 24f0 263d f117 243d
00000170: 54c8 6e3e 853d 0f3e ae77 54bd 9f2a 513e
00000180: 5022 213e f405 3d3d 08f2 bbbb 131a 14be
00000190: aa82 663e a2c2 c53d 0ed2 33be 683e 093d
000001a0: 768e a93d b8dd 443e 1e44 563e dc05 123e
000001b0: 1db1 0cbd c6a1 43be b36c 283d 68c5 fdbd
000001c0: b4b0 bbbc e30d 6c3e 9601 433c dd50 efbd
000001d0: ba95 153d 4140 ef3c 814e 483e c0c1 983e
000001e0: e402 65be 5866 f43d cef7 b6bd b3d3 e1bd
000001f0: 0cb3 4cbe 3f28 72be 05cf 25be b80f 17be
00000200: 99d4 52bc 0294 6a3e 0456 fbbd 4dbc a4bd
00000210: eb12 113e f765 4cbd 5cf8 133e e405 133e
00000220: a19e 2dbe 16f3 9c3d b17d 54be 9be1 8dbe
00000230: fd56 2fbd 4223 50be af2a 8fbb 99e5 6a3e
00000240: 0462 133d 751b 75be e92a 4ebc 5f78 ab3d
00000250: 637e 3cbd 49b7 8e3d bded 15be 64b2 283e
00000260: 7b98 2a3d 60ba 8a3e ee47 04be 59f6 3abe
00000270: 280c 40be 6cc9 1dbd 2903 52be 957b 2bbe
00000280: 766b e43d 486f 2dbe 8e4c 35be f44a 2ebc
00000290: 69a1 b4bd c4e2 9bbe ed60 a63d b5bf f8bb
000002a0: d426 ac3d 9075 dfbd ef26 8f3e 9471 f53d
000002b0: 8aaa 19be cee2 33be d66d 053e 027c 42bd
000002c0: dc88 76bc 3235 2d3e 13d7 49bd 6599 413d
000002d0: 3777 f43d 04de b5bd 5555 0dbe c59c 8f3c
000002e0: 8f3d cebd de05 49be a4d6 a8bc 5f0c 0cbe
000002f0: 4cbf c4bd 04c5 e7bd bf8b b53e d89a cfbd
00000300: 50ce 70bd f49e 1e3e 9caf dd3d 263b 20be
00000310: 818c df3d 557b 1d3e c83b 4f3e 1f34 51bb
00000320: f068 ab3d b56c e2bc 920f 2ebe 393f 2fbe
00000330: 8a5e e9bc c9d0 273c 5ad2 163d da8a 2a3e
00000340: 0b3b 4dbe e553 e23d 4505 cb3c b747 3f3e
00000350: 724a 023e 5657 6e3e 3e53 93be fc0f 0dbe
00000360: a68b afba 53ce 6cbd 84c8 f33d be84 73be
00000370: b59e 69be 1eab 98be 64db ca3c 4376 423e
00000380: 2323 2cbe a38c c1bd 06de 683d eb51 56be
00000390: ccc6 6bbd 1848 f13d d3cf ed3d e3f4 513e
000003a0: 1106 283e f7e1 0f3e 3b57 f13b 5c8a 1ebe
000003b0: 7b36 13bd e882 e13d baec 15bd 5473 2cbe
000003c0: c7bb 073e 4f51 463e 72bd 0c3d e5d5 3c3e
000003d0: 4e6a 34be 42b3 06be 35b6 11bd 8f6f 3fbd
000003e0: a221 133e 0e69 d9bd db15 88bd 3dee 3c3e
000003f0: f6f5 883d 73a1 1a3e a02a 873e 3385 2bbe

layers.hidden_2.bias f4 [20]
-0.077505894 -0.028991014 -0.11254139 0.0024366786 0.21820234 -0.06754099 -0.1360383 0.1461106
-0.1869841 -0.006059895 -0.083069086 0.093922965 0.051925626 0.01707235 -0.15470514 -0.068367176
-0.18665677 -0.030558603 -0.1507428 0.2174201
00000000: 69bb 9ebd 907e edbc 1a7c e6bd afb0 1f3b
00000010: 6f70 5f3e ee52 8abd a04d 0bbe 049e 153e
00000020: c378 3fbe 1592 c6bb 2020 aabd af5a c03d
00000030: f7af 543d 50db 8b3c 066b 1ebe 1704 8cbd
00000040: f422 3fbe 0956 fabc 525c 1abe 60a3 5e3e

layers.hidden_3.weight f4 [20, 20]
-0.10398638 -0.2128898 0.11077936 -0.046664007 0.034268685 -0.07298129 0.0078018373 -0.05367217
-0.064914465 0.007245544 -0.0060790624 0.18230343 0.16261669 -0.13665451 -0.1953068 -0.085075594
0.11523471 0.15137656 -0.01018536 -0.2212904 -0.20394737 0.1590545 0.04284526 -0.21148045
-0.15393645 -0.06560727 -0.23480237 0.10771448 0.22879192 0.14610848 0.0733824 -0.19208933
0.22576001 0.09937809 -0.06459003 -0.17122698 -0.05032819 0.1662086 -0.20498942 -0.24400215
0.119318 0.0014027071 -0.040936563 -0.10975672 0.0036193263 -0.09657615 0.115227066 -0.029928055
0.23067693 0.17408545 0.23408002 0.1759537 0.16368869 0.06382049 0.0048430446 0.2088834
-0.16641544 -0.043105815 0.22594695 -0.12256826 0.132692 -0.15520415 0.015127839 -0.031526465
-0.13325855 0.039240588 0.063815735 0.008286942 -0.16702378 -0.14283195 -0.036574636 0.21039844
0.106967635 -0.2300376 0.19235562 -0.1477424 0.12743561 0.14780486 0.16720507 0.12962802
0.25245926 -0.27163622 -0.010132496 -0.120326035 0.3094572 -0.084722 0.08226415 0.08503249
0.0033180704 0.20967521 -0.022137793 0.29666078 -0.23853871 0.13211109 -0.07344446 -0.0819947
0.040586032 -0.020493306 0.00013532862 -0.072383605 -0.21729593 -0.030421373 -0.2414753 0.15064278
-0.14070675 -0.14084712 0.06388506 -0.13410506 -0.14781274 -0.21681494 0.17597751 0.07493187
0.21991895 -0.16683449 0.17727299 -0.1901897 0.005561823 -0.19512254 -0.16732073 0.08366665
0.11542254 -0.23212151 0.18268095 -0.019696973 0.11962056 -0.10427204 -0.056495123 0.12050224
0.1577599 0.103098944 0.013102153 0.0846661 0.17736669 -0.03403145 -0.11720778 0.01589848
-0.17555562 0.06802084 -0.016478641 -0.14038223 0.105663955 0.07869876 -0.075559326 0.050647747
-0.2874739 0.13587537 -0.07692122 -0.25534058 -0.11070595 -0.00095542223 -0.23691115 -0.24446005
0.13834968 -0.032527428 0.009713695 0.044651672 -0.12662128 -0.2605354 -0.17178813 0.014643844
0.21835805 0.08150958 0.14584139 0.24822326 0.26491386 0.19541912 0.15784277 0.040312868
-0.11044441 0.086931564 -0.059778072 -0.043380838 0.0039318725 -0.01943892 0.16955048 0.08647698
0.11927943 0.14991367 0.14429365 0.11550623 -0.1414901 0.075166576 -0.14618531 0.025567563
0.13016342 -0.054055452 -0.08575684 0.045353763 -0.09384635 0.066290654 0.10148395 0.18919401
0.052164998 -0.08315875 -0.13288559 -0.09784637 0.08306401 -0.06266877 0.2661063 -0.029806959
-0.16873519 -0.05564997 0.09918912 0.043032993 0.20828557 0.1903459 0.10441102 0.28778705
-0.2002734 0.071355455 0.041966956 0.031784534 -0.16923037 0.12631862 -0.015702413 0.18972136
-0.09512848 -0.009219094 0.21578379 0.070862114 0.12199844 0.037164066 0.21307506 -0.13490494
0.04275008 -0.07968344 -0.0114851175 0.08259411 -0.09138013 -0.15084766 0.25003254 0.042345203
0.047046453 0.1507494 0.19738032 0.23840864 0.18391398 0.12379508 0.14713973 0.050118558
-0.1751608 -0.0021685034 -0.047880597 0.060045958 -0.026332205 -0.16231 -0.055838335 -0.13607433
0.10614241 -0.007497513 0.14543507 0.1058831 -0.032393567 -0.15516022 0.226344 0.05149179
00000000: d0f6 d4bd c9ff 59be 4ae0 e23d c222 3fbd
00000010: 525d 0c3d 3777 95bd 8ea6 ff3b 59d7 5bbd
00000020: e0f1 84bd 076c ed3b df32 c7bb c0ad 3a3e
00000030: fd84 263e 29ef 0bbe 81fe 47be 1d3c aebd
00000040: 2d00 ec3d 7502 1b3e 7fe0 26bc f399 62be
00000050: 94d7 50be 2fdf 223e 837e 2f3d 558e 58be
00000060: 84a1 1dbe 1b5d 86bd 0870 70be 6999 dc3d
00000070: 6e48 6a3e 769d 153e 8349 963d 11b3 44be
00000080: a22d 673e bd86 cb3d c747 84bd 2056 2fbe
00000090: ef24 4ebd 9632 2a3e bfe8 51be b3db 79be
000000a0: ff5c f43d 0adb b73a 19ad 27bd 22c8 e0bd
000000b0: 3832 6d3b b7c9 c5bd 2bfc eb3d ae2b f5bc
000000c0: 9336 6c3e 7543 323e acb2 6f3e 352d 343e
000000d0: 029e 273e 51b4 823d 67b2 9e3b 88e5 553e
000000e0: cf68 2abe b98f 30bd a35e 673e 1105 fbbd
000000f0: 69e0 073e d6ed 1ebe c1da 773c e521 01bd
00000100: ee74 08be bdba 203d d3b1 823d f4c5 073c
00000110: 4808 2bbe 8a42 12be 49cf 15bd b072 573e
00000120: d911 db3d fa8e 6bbe dff8 443e c949 17be
00000130: 7b7e 023e 285a 173e ce37 2b3e 35bd 043e
00000140: 5742 813e e713 8bbe c502 26bc 7f6d f6bd
00000150: 2d71 9e3e ba82 adbd 1b7a a83d 8425 ae3d
00000160: fc73 593b 19b5 563e 515a b5bc ece3 973e
00000170: 7e43 74be 2148 073e 0d6a 96bd d6ec a7bd
00000180: 8a3d 263d 94e1 a7bc 00e7 0d39 db3d 94bd
00000190: d382 5ebe 3e36 f9bc 4d45 77be 1a42 1a3e
000001a0: 6e15 10be 3a3a 10be 2cd6 823d d652 09be
000001b0: 395c 17be bc04 5ebe 7333 343e e175 993d
000001c0: 6f32 613e a9d6 2abe 0d87 353e 17c1 42be
000001d0: f43f b63b 34ce 47be 2056 2bbe 6c59 ab3d
000001e0: a762 ec3d 43b1 6dbe b710 3b3e 8c5b a1bc
000001f0: a0fb f43d 948c d5bd 6e67 67bd e1c9 f63d
00000200: d08b 213e 8a25 d33d 6aaa 563c 6c65 ad3d
00000210: 9d9f 353e 9064 0bbd a20a f0bd 873d 823c
00000220: dac4 33be 834e 8b3d 37fe 86bc 5cc0 0fbe
00000230: 5866 d83d d12c a13d d9be 9abd 0374 4f3d
00000240: c72f 93be ea22 0b3e df88 9dbd 00bc 82be
00000250: cdb9 e2bd 4d75 7aba d698 72be bc53 7abe
00000260: 8aab 0d3e 7b3b 05bd 3126 1f3c ace4 363d
00000270: 02a9 01be e564 85be 3ae9 2fbe bcec 6f3c
00000280: 4199 5f3e 7fee a63d 7257 153e 3d2e 7e3e
00000290: caa2 873e f31b 483e 89a1 213e 1b1f 253d
000002a0: ae30 e2bd 2d09 b23d dad9 74bd 1bb0 31bd
000002b0: f0d6 803b 5f3e 9fbc a49e 2d3e d81a b13d
000002c0: c648 f43d f882 193e b7c1 133e 888e ec3d
000002d0: c8e2 10be eff0 993d 9ab1 15be 1173 d13c
000002e0: 8f49 053e 4069 5dbd 48a1 afbd dec4 393d
000002f0: 8432 c0bd 65c3 873d d1d6 cf3d 13bc 413e
00000300: f7aa 553d 224f aabd 2913 08be ad63 c8bd
00000310: 771d aa3d 7c58 80bd 163f 883e b92d f4bc
00000320: ebc8 2cbe 39f1 63bd aa23 cb3d 5d43 303d
00000330: d048 553e 09ea 423e 72d5 d53d d358 933e
00000340: 7814 4dbe cf22 923d 8be5 2b3d 8030 023d
00000350: ba4a 2dbe ab59 013e 59a2 80bc 5146 423e
00000360: b8d2 c2bd af0b 17bc 6df6 5c3e 2820 913d
00000370: 51da f93d 5939 183d 5930 5a3e 8524 0abe
00000380: b51a 2f3d 1231 a3bd 132c 3cbc 1a27 a93d
00000390: 8125 bbbd cf77 1abe 4404 803e 2a72 2d3d
000003a0: c8b3 403d 0d5e 1a3e 111e 4a3e 6521 743e
000003b0: f253 3c3e 4688 fd3d ccab 163e 1e49 4d3d
000003c0: 5a5d 33be 731d 0ebb 721e 44bd c0f2 753d
000003d0: a3b6 d7bc 9834 26be bdb6 64bd 1257 0bbe
000003e0: 3161 d93d b3ad f5bb eeec 143e 3dd9 d83d
000003f0: 1eaf 04bd 52e2 1ebe b9c6 673e 0ee9 523d

layers.hidden_3.bias f4 [20]
-0.018753326 0.036513515 0.08535705 0.10730453 0.10169436 -0.23225407 -0.16006216 -0.119968094
0.00640595 0.20710686 0.05695769 0.1273297 0.07162647 -0.10276655 -0.12726685 -0.01698949
0.14176728 -0.09011071 0.14424907 -0.19913158
00000000: 93a0 99bc 328f 153d adcf ae3d 7ac2 db3d
00000010: 2245 d03d 03d4 6dbe 56e7 23be d5b1 f5bd
00000020: 01e9 d13b d213 543e 774c 693d b862 023e
00000030: e6b0 923d 4577 d2bd 3e52 02be 8b2d 8bbc
00000040: 712b 113e f78b b8bd 07b6 133e 26e9 4bbe

layers.hidden_4.weight f4 [20, 20]
-0.019753464 0.0831169 -0.023092724 -0.18283041 -0.21432158 -0.12610655 0.11774334 0.2362223
-0.13942535 0.07544968 0.13971646 0.1297936 -0.26421294 -0.0059696794 0.038541913 0.05466024
0.06701956 0.16985938 0.06984496 0.04216575 -0.03590072 0.004586285 0.061132163 -0.10422008
-0.059715234 0.06817597 0.0201704 -0.25845325 0.107324004 0.11261203 0.16402087 0.2542391
-0.053287145 -0.23787566 0.0222395 -0.07566601 -0.19106902 -0.21665984 0.004125189 0.22456968
0.19965833 -0.21207981 0.059133157 0.12288434 -0.0013327238 -0.17027532 0.10617832 0.17192408
0.14863726 -0.010879987 0.20475166 -0.030703215 0.21648054 -0.23389655 -0.036455724 0.15487798
0.063397795 -0.1941851 -0.13082607 -0.046099957 -0.04491498 -0.03320184 -0.2110625 0.05262444
-0.076968215 0.1866659 -0.22693947 -0.05903666 0.21906348 -0.0738448 0.09059168 0.04980323
0.22793971 -0.1719039 -0.042746104 -0.19952649 0.04210107 0.01571896 -0.06721132 0.15803751
0.011363601 -0.035995286 -0.17560974 0.13209207 0.09883805 -0.23693533 0.11604931 -0.06619615
0.07555137 -0.07944658 0.21408595 -0.08039859 -0.03369574 0.070185006 -0.01867983 0.23240426
-0.038675543 0.09604716 0.037819926 0.06903868 0.07731101 -0.21526384 0.10551397 0.10624893
-0.15470573 0.27462462 -0.19264655 0.17695981 -0.1777679 -0.0060348664 -0.22739749 -0.076654196
-0.0059767175 0.10851614 0.06652814 0.0036512073 -0.15539794 -0.028449457 0.0966115 0.05036773
0.21518843 0.089292794 -0.17394589 0.23461787 0.21154879 -0.22961538 -0.16966465 -0.1789001
0.04638748 -0.06210441 0.1810323 -0.06673944 -0.2057884 0.16949637 0.2558464 0.23666538
0.0015892112 -0.03789647 0.11976734 -0.1499016 0.134318 -0.07400298 0.19632375 -0.16317374
-0.0009922684 -0.27002478 0.16598007 -0.109964184 0.24163647 0.05745041 -0.028801894 -0.15829054
0.19176088 -0.061515957 0.018549874 -0.038301185 0.08924734 -0.20986964 -0.050562393 0.14402243
-0.0043033543 -0.115220144 0.2338659 -0.17961168 0.26819533 0.16688985 -0.11313731 -0.047031146
0.12989512 0.14002356 -0.024394464 0.18976767 0.03600892 0.10081599 0.13555238 0.1046568
0.110164806 -0.25825495 -0.25030616 -0.17299335 -0.03840156 0.17048956 0.10229423 -0.030640662
0.013267518 -0.1089579 0.2027204 -0.26794302 0.21991427 0.18597755 -0.008037247 0.17704535
-0.14059325 0.18962203 -0.14562917 0.23892707 -0.12076385 -0.0018722396 -0.22405604 0.16861711
-0.2558604 0.075756244 -0.1617492 -0.10184238 -0.1129055 -0.104299724 -0.1375894 0.18501082
0.09490424 -0.09875397 0.1353357 -0.15639566 -0.12146107 0.15954214 0.14692284 -0.21321762
-0.17102142 -0.10389109 -0.12505089 0.16678791 0.041050356 -0.038839187 -0.16869436 0.03668145
0.0191836 0.30203003 -0.27155793 0.012248806 0.034242544 0.1808124 -0.11429208 -0.03104447
0.1679933 -0.098139435 -0.066885576 -0.19133082 0.042521894 -0.054699622 -0.050453614 0.18544926
-0.05231422 0.10623538 0.01979755 -0.21025236 0.049205378 0.22506145 0.14824134 0.19555615
0.060964152 0.21199232 0.04934057 -0.22895591 -0.17718934 0.25997898 -0.13479668 0.09169945
00000000: 04d2 a1bc 3139 aa3d f42c bdbc e537 3bbe
00000010: 1e77 5bbe 1322 01be 6c23 f13d 42e4 713e
00000020: 85c5 0ebe 5d85 9a3d d511 0f3e 9de8 043e
00000030: eb46 87be 4d9d c3bb 20de 1d3d 6ae3 5f3d
00000040: 8d41 893d 9eef 2d3e e00a 8f3d feb5 2c3d
00000050: a20c 13bd 8c48 963b b865 7a3d 5671 d5bd
00000060: f697 74bd d89f 8b3d 653c a53c fc53 84be
00000070: b0cc db3d 23a1 e63d 16f5 273e a12b 823e
00000080: 9f43 5abd ad95 73be 9d2f b63c c8f6 9abd
00000090: 99a7 43be 14dc 5dbe 982c 873b 98f5 653e
000000a0: 3c73 4c3e 732b 59be 9c35 723d c9aa fb3d
000000b0: caae aeba a75c 2ebe 0574 d93d de0c 303e
000000c0: 5e34 183e f941 32bc 6baa 513e 4f85 fbbc
000000d0: 13ad 5d3e 9482 6fbe 9952 15bd 5598 1e3e
000000e0: b4d6 813d 75d8 46be 45f7 05be 4fd3 3cbd
000000f0: c5f8 37bd a7fe 07bd c520 58be ba8c 573d
00000100: 83a1 9dbd 5825 3f3e d262 68be 6dd0 71bd
00000110: 2d52 603e f13b 97bd 2188 b93d 79fe 4b3d
00000120: 0769 693e 9307 30be 8a16 2fbd ac50 4cbe
00000130: 2c72 2c3d 0cc5 803c 17a6 89bd 96d4 213e
00000140: 662e 3a3c cb6f 13bd 0ad3 33be 2543 073e
00000150: 9b6b ca3d 2d9f 72be 43ab ed3d d991 87bd
00000160: adba 9a3d e3b4 a2bd 5939 5b3e 04a8 a4bd
00000170: 8b04 0abd 28bd 8f3d 7106 99bc 62fb 6d3e
00000180: 3f6a 1ebd 60b4 c43d 11e9 1a3d 2764 8d3d
00000190: 3c55 9e3d 206e 5cbe b517 d83d 0a99 d93d
000001a0: 2e6b 1ebe 999b 8c3e 2345 45be f434 353e
000001b0: ca08 36be 21c0 c5bb e3da 68be e0fc 9cbd
000001c0: 57d8 c3bb b63d de3d e83f 883d 1849 6f3b
000001d0: a320 1fbe d60e e9bc 40dc c53d 654e 4e3d
000001e0: 5b5a 5c3e 24df b63d df1e 32be ab3f 703e
000001f0: 3fa0 583e 4b20 6bbe 92bc 2dbe 9631 37be
00000200: cc00 3e3d 3261 7ebd 8860 393e b0ae 88bd
00000210: 32ba 52be 7590 2d3e 4dfe 823e 6958 723e
00000220: 144d d03a 5439 1bbd 9448 f53d ce7f 19be
00000230: a88a 093e e08e 97bd 1809 493e 0417 27be
00000240: 010f 82ba b040 8abe aef6 293e e734 e1bd
00000250: 8d6f 773e 1f51 6b3d f3f1 ebbc ea16 22be
00000260: f75c 443e 28f8 7bbd e8f5 973c b4e1 1cbd
00000270: 4fc7 b63d 11e8 56be 831a 4fbd 9e7a 133e
00000280: 2703 8dbb 8af8 ebbd 8b7a 6f3e 20ec 37be
00000290: e650 893e 2ce5 2a3e 89b4 e7bd bba3 40bd
000002a0: 3a03 053e 5662 0f3e e6d6 c7bc 7552 423e
000002b0: 177e 133d 9d78 ce3d 3ece 0a3e 4e56 d63d
000002c0: 169e e13d fe39 84be 2128 80be 2b25 31be
000002d0: f44a 1dbd d194 2e3e a37f d13d 2002 fbbc
000002e0: 0160 593c 5225 dfbd f095 4f3e d42f 89be
000002f0: 3531 613e e670 3e3e a8ae 03bc 604b 353e
00000300: adf7 0fbe 472c 423e d01f 15be 4ca9 743e
00000310: 0a53 f7bd f065 f5ba f26e 65be f7a9 2c3e
00000320: 2200 83be 1726 9b3d 95a1 25be bd92 d0bd
00000330: 003b e7bd 189b d5bd 3ce4 0cbe 7a73 3d3e
00000340: 275d c23d 853f cabd 7195 0a3e 2f26 20be
00000350: 95c0 f8bd 045f 233e f172 163e b855 5abe
00000360: 3d20 2fbe dac4 d4bd 570d 00be 73ca 2a3e
00000370: 6b24 283d d715 1fbd 37be 2cbe 4a3f 163d
00000380: ed26 9d3c aea3 9a3e a409 8bbe 37af 483c
00000390: e941 0c3d e326 393e f711 eabd f950 febc
000003a0: 7006 2c3e 54fd c8bd 4efb 88bd 3aec 43be
000003b0: 702b 2e3d b60c 60bd 73a8 4ebd 69e6 3d3e
000003c0: 7047 56bd ef91 d93d 792e a23c 654c 57be
000003d0: 948b 493d 8276 663e 94cc 173e df3f 483e
000003e0: 8cb5 793d 8414 593e 5619 4a3d 6b73 6abe
000003f0: 1f71 35be f71b 853e 2408 0abe eccc bb3d

layers.hidden_4.bias f4 [20]
-0.19410336 0.15352403 -0.00705732 0.006864472 -0.07878026 0.15394434 -0.17886944 0.038746543
0.14042278 0.17948052 -0.13001521 0.01588719 -0.061842423 0.15794596 -0.15949288 -0.15473506
0.20977925 0.004486938 -0.1144823 0.110529184
00000000: 08c3 46be 6735 1d3e 1741 e7bb 5def e03b
00000010: 8c57 a1bd 96a3 1d3e 8d29 37be b2b4 1e3d
00000020: fdca 0f3e bec9 373e b522 05be da25 823c
00000030: 7b4e 7dbd 96bc 213e 1a52 23be de72 1ebe
00000040: 5fd0 563e 2a07 933b b275 eabd 205d e23d

layers.hidden_5.weight f4 [20, 20]
0.19958012 -0.09029304 -0.029632604 -0.1407402 0.17877957 -0.07008571 0.0271656 0.27158666
0.24816087 0.07344823 -0.117133185 -0.007285047 -0.19237623 0.027766503 -0.11027693 0.21673286
-0.13188815 0.011935565 0.16157816 0.22971696 0.15774524 -0.042086534 -0.03171157 -0.14400317
-0.14346996 0.23866518 0.09193413 0.093838096 -0.2000248 -0.06710794 -0.15322986 0.19553271
-0.09038699 -0.17254612 0.1605166 -0.09810483 0.052161783 0.079942465 0.08983527 -0.07921089
-0.053686086 0.009196682 0.006431191 0.09178541 -0.08512866 -0.22779004 0.08826249 0.2549254
-0.050111804 -0.024721911 -0.22336371 -0.13165793 0.012071013 -0.087293856 0.02282252 0.046389077
0.18260616 0.054687943 -0.04898757 0.03991314 0.09381529 0.065365896 0.20041879 0.04014297
0.059091542 -0.27195936 0.15350683 0.25171322 0.11218686 0.027822845 0.056272592 0.091241896
0.15659118 0.23076569 0.0014300199 0.258375 -0.18679799 0.08549005 0.029585158 0.05931612
0.05223654 -0.04400178 -0.09426024 -0.1824203 0.1379181 0.09358479 0.023499064 0.021826323
-0.22564694 -0.23952053 0.012281005 0.11466616 0.17092143 -0.043191418 -0.14976592 0.08829855
-0.21448585 0.09413447 -0.13432506 -0.009141768 0.07834331 -0.045559566 -0.15083726 0.23032019
0.18844382 0.27470437 -0.03629483 0.11460118 0.17961006 -0.07820443 0.18799157 -0.11497107
0.21278623 -0.25775266 -0.022189634 -0.10160682 -0.01212723 0.034376852 -0.14410418 -0.215102
-0.23729816 0.16237287 0.19909163 0.20177934 -0.17558059 0.052088473 0.26641926 0.082628645
0.20809418 0.17544234 0.06127123 0.084157065 -0.13008215 0.26604256 -0.035443198 -0.13289265
0.25108945 -0.084013976 -0.048007254 -0.020127958 -0.059874814 -0.13234237 0.15400727 0.038309447
-0.07108845 -0.021777358 0.05319053 -0.25536793 -0.14396693 -0.14853108 0.098699205 0.12623431
0.22625159 -0.09596092 -0.019372433 -0.10829916 -0.25042722 -0.10315942 -0.13377362 0.06623291
0.20392111 -0.010686464 -0.2253923 -0.02208216 -0.077509895 0.257667 -0.24754265 -0.04312829
-0.23053378 -0.2137688 -0.11920689 -0.027747141 -0.1862063 -0.038383834 -0.11280065 -0.054010786
-0.09940062 0.022475297 0.111344576 -0.019205896 -0.106842935 -0.16334346 -0.0856215 0.11821347
0.15041067 0.18206877 -0.11414499 -0.043406088 -0.058254752 0.13602929 0.2451913 0.10347224
0.15270174 0.15012507 -0.2323734 -0.2304462 0.12947713 0.17025395 -0.03928277 0.025170524
0.20197612 -0.5392605 -0.14634778 -0.26976103 -0.17246749 -0.21945733 0.18673736 0.2476021
0.06419626 0.17874669 -0.031405114 -0.40860733 0.10535675 -0.23852511 0.0021661746 -0.05437775
-0.013171939 -0.20528626 -0.09074509 -0.04606773 0.17248926 0.0011369414 0.18084519 -0.19355205
0.19976082 -0.03055321 0.011155829 0.25373867 -0.04421608 -0.14848557 -0.08078172 -0.21435735
0.12990747 -0.08210837 0.07126589 0.18680622 0.20036753 -0.038438216 0.019061498 0.1685962
0.22167127 -0.043121815 0.14633161 0.026033763 -0.04819594 -0.14735754 -0.13201915 0.08666394
-0.12270811 -0.055261742 -0.2212219 0.005811333 -0.020441754 0.09647868 0.1116089 0.010627602
00000000: bb5e 4c3e 8feb b8bd 13c0 f2bc 331e 10be
00000010: fe11 373e 1989 8fbd 648a de3c 680d 8b3e
00000020: e21d 7e3e 076c 963d 86e3 efbd 67b7 eebb
00000030: 46fe 44be 9476 e33c dfd8 e1bd 38ef 5d3e
00000040: b00d 07be 638d 433c bf74 253e ec3a 6b3e
00000050: f887 213e ee62 2cbd fee3 01bd 9175 13be
00000060: cae9 12be a564 743e f647 bc3d 302e c03d
00000070: 4dd3 4cbe e36f 89bd 4ae8 1cbe ba39 483e
00000080: d01c b9bd eeaf 30be 775e 243e 2feb c8bd
00000090: 98a7 553d e0b8 a33d 8efb b73d 5239 a2bd
000000a0: f1e5 5bbd aead 163c bebc d23b fdf9 bb3d
000000b0: ef57 aebd cb41 69be f7c2 b43d 9585 823e
000000c0: 0942 4dbd 9b85 cabc 75b9 64be 56d1 06be
000000d0: 80c5 453c 1fc7 b2bd 4bf6 ba3c 7902 3e3d
000000e0: 1cfd 3a3e 7700 603d 31a7 48bd f67b 233d
000000f0: 3b22 c03d 8ede 853d 953a 4d3e f46c 243d
00000100: f909 723d 423e 8bbe e530 1d3e 8ee0 803e
00000110: 39c2 e53d bcec e33c 177e 663d 08dd ba3d
00000120: 7059 203e d74d 6c3e 816f bb3a ba49 843e
00000130: f947 3fbe 6815 af3d 935c f23c 76f5 723d
00000140: fbf5 553d 363b 34bd 830b c1bd 63cc 3abe
00000150: 673a 0d3e 62a9 bf3d 1c81 c03c 1ecd b23c
00000160: fe0f 67be df44 75be 4536 493c 17d6 ea3d
00000170: 0706 2f3e 7ce9 30bd 3d5c 19be dfd5 b43d
00000180: 2ea2 5bbe 93c9 c03d 828c 09be 5bc7 15bc
00000190: 7572 a03d ab9c 3abd 1575 1abe 0ed9 6b3e
000001a0: 6bf7 403e 0da6 8c3e e3a9 14bd 06b4 ea3d
000001b0: b3eb 373e a529 a0bd dd80 403e f475 ebbd
000001c0: a2e4 593e 28f8 83be 09c7 b5bc 3d17 d0bd
000001d0: 4ab1 46bc bece 0c3d 0c90 13be b343 5cbe
000001e0: 4afe 72be 1345 263e adde 4b3e 3e9f 4e3e
000001f0: 66cb 33be b95a 553d 1b68 883e 3539 a93d
00000200: a416 553e 28a7 333e 8bf7 7a3d 8a5a ac3d
00000210: 4134 05be bb36 883e e32c 11bd 0315 08be
00000220: cc8e 803e 850f acbd 41a3 44bd 63e3 a4bc
00000230: 4b3f 75bd c284 07be 15b4 1d3e 5eea 1c3d
00000240: d296 91bd 6e66 b2bc 50de 593d 96bf 82be
00000250: 116c 13be 8818 18be cf22 ca3d 9143 013e
00000260: 7fae 673e 2987 c4bd f0b2 9ebc f3cb ddbd
00000270: ff37 80be 3f45 d3bd f4fb 08be 1fa5 873d
00000280: b2d0 503e 4716 2fbc 3dcd 66be a5e5 b4bc
00000290: 82bd 9ebd eeec 833e d27b 7dbe 4aa7 30bd
000002a0: 0c11 6cbe 35e6 5abe be22 f4bd f94d e3bc
000002b0: ddac 3ebe 5e38 1dbd 0704 e7bd 6a3a 5dbd
000002c0: 8d92 cbbd 1d1e b83c a008 e43d af55 9dbc
000002d0: 78d0 dabd 8243 27be 535a afbd e719 f23d
000002e0: 4105 1a3e 3c70 3a3e d9c4 e9bd 95ca 31bd
000002f0: 899c 6ebd 434b 0b3e 6e13 7b3e 41e9 d33d
00000300: d85d 1c3e 63ba 193e 4bf3 6dbe 17fa 6bbe
00000310: a795 043e 0d57 2e3e f8e6 20bd 6a32 ce3c
00000320: d4d2 4e3e fa0c 0abf 31dc 15be 1e1e 8abe
00000330: 519b 30be 6cb9 60be 1438 3f3e 688b 7d3e
00000340: 5479 833d 5f09 373e a6a2 00bd fb34 d1be
00000350: 48c5 d73d ed3f 74be 61f6 0d3b 34bb 5ebd
00000360: 1ecf 57bc 9036 52be 90d8 b9bd 84b1 3cbd
00000370: 06a1 303e 6c05 953a 7b2f 393e 8232 46be
00000380: 1a8e 4c3e ba4a fabc f0c6 363c 09ea 813e
00000390: ec1b 35bd 9a0c 18be e370 a5bd 7e80 5bbe
000003a0: 7706 053e 6f28 a8bd daf3 913d 214a 3f3e
000003b0: 252d 4d3e 6471 1dbd dc26 9c3c 7ba4 2c3e
000003c0: cbfd 623e 80a0 30bd f4d7 153e c244 d53c
000003d0: 1b69 45bd e5e4 16be 0730 07be dd7c b13d
000003e0: 644e fbbd 235a 62bd fe87 62be ff6c be3b
000003f0: 7775 a7bc 9d96 c53d 3593 e43d 651f 2e3c

layers.hidden_5.bias f4 [20]
-0.0475034 0.1861796 -0.18944207 -0.048257295 -0.12760207 -0.061675552 0.13556932 -0.11726052
0.08581538 -0.15268561 0.16420864 0.2227282 -0.1282208 -0.15570089 -0.10272153 -0.0036975956
-0.11711746 -0.20958512 -0.056289885 -0.04191777
00000000: ed92 42bd dda5 3e3e 1afd 41be 71a9 45bd
00000010: 1eaa 02be 819f 7cbd afd2 0a3e 4926 f0bd
00000020: f9bf af3d 9e59 1cbe 4f26 283e dc12 643e
00000030: 504c 03be 0e70 1fbe aa5f d2bd 5c53 72bb
00000040: 47db efbd 7b9d 56be 3990 66bd f8b1 2bbd

layers.hidden_6.weight f4 [20, 20]
0.08115267 -0.1497473 0.1340733 0.11147309 -0.10086303 0.033238016 -0.07505045 -0.20257775
-0.24264756 0.12292426 0.011225209 -0.11173692 0.0281034 -0.24660297 -0.11800453 0.20880517
-0.21595384 -0.2112053 0.11898977 -0.14170073 0.04505221 -0.12722471 0.24332029 -0.09914441
-0.0659026 0.16047929 0.16730484 -0.20754138 -0.17415236 -0.13277882 0.112574674 0.0034968762
0.07785932 -0.23811421 0.16922219 -0.13870826 -0.030842638 0.1945363 0.15552396 -0.19311263
-0.037084848 0.13409615 -0.11070237 -0.06742497 0.14598492 -0.11321025 -0.15929039 -0.13137898
-0.16747285 0.18206915 0.006667714 0.1844137 -0.10802486 0.09011748 -0.046724517 -0.2515214
0.14503928 0.19722241 0.15767446 0.11165619 0.037757333 0.10513946 -0.20314756 -0.133222
-0.07343127 0.024421427 0.015147893 -0.11390744 0.23904032 0.13422902 -0.22135104 -0.08953511
0.09972699 0.1398702 -0.3666756 0.11485721 0.23342557 -0.018544346 -0.16349308 -0.035631236
-0.19448332 -0.07427157 0.1794438 -0.1894505 -0.16765544 -0.03501238 0.15761968 -0.1638612
-0.123262644 -0.113649495 -0.1008297 -0.18733528 0.07269521 -0.03279351 -0.4212817 0.030622674
0.07499252 -0.05182599 0.1489903 -0.1353497 -0.04963642 -0.027212126 -0.120370686 0.23212807
0.09864555 -0.25230902 0.17799748 0.011150065 -0.1768675 -0.19020599 -0.09138528 0.2018006
0.052184176 -0.16361514 -0.12444644 0.21886672 0.09541898 -0.0076288083 0.03179405 0.15509939
-0.20969602 -0.15321828 -0.16505985 0.05435644 0.13668647 -0.033809446 -0.19497423 0.05345828
-0.0014621567 -0.13300125 0.20313317 -0.21191165 0.072646245 -0.0030301057 0.20735012 -0.16768925
0.042640295 0.03394332 -0.19804996 -0.0053087566 -0.07985895 -0.04821635 0.10851449 0.015120159
-0.07246752 -0.14198662 -0.12254632 -0.16062482 -0.17878723 0.14949703 -0.23730284 -0.037666496
0.12069317 -0.08245552 0.033286136 0.03544295 -0.15634525 0.025976896 -0.07518148 0.117873676
0.109192185 0.19742112 -0.12822458 -0.19077377 -0.16772546 0.107647784 -0.12097825 -0.096131794
0.008273991 0.09373106 -0.20214047 -0.07765219 0.04427724 0.21299006 -0.20593736 -0.1618689
-0.15306558 -0.030967843 -0.1878445 0.11474745 -0.055420525 -0.22720091 -0.16047753 -0.11123384
-0.20100084 -0.19275282 0.06769388 -0.09452768 0.03178691 0.05675993 0.15095526 -0.050892234
0.021513788 -0.18543023 -0.22895661 -0.03505274 -0.1627401 -0.24136972 -0.18011975 -0.101811126
0.012051858 0.087185755 0.08704089 -0.09459963 -0.1472232 0.14652479 0.002519402 0.05859853
-0.087900385 -0.15954912 -0.09456255 -0.17276639 0.13031675 0.11899398 -0.4303672 -0.16078563
0.186475 -0.17931595 0.018560812 0.32968694 -0.120553195 0.14996932 -0.08546628 0.07751934
-0.12434054 0.1939473 0.11947839 -0.13481577 0.040460177 -0.077781394 -0.08131823 0.11596163
0.025003485 0.16732423 -0.20712455 0.18180625 0.101687476 -0.04327825 0.23483753 -0.12839605
0.22227912 -0.03459861 0.23141637 0.12975472 -0.04313297 -0.04163939 -0.22657442 0.02291564
0.14652656 0.013928807 0.12697464 0.17781003 -0.013545371 0.030767445 0.6021191 -0.04837794
00000000: 5f33 a63d 5b57 19be 834a 093e 014c e43d
00000010: 4791 cebd 9624 083d 0db4 99bd 8b70 4fbe
00000020: 9a78 78be b7bf fb3d f0e9 373c 54d6 e4bd
00000030: 1a39 e63c 7d85 7cbe 5cac f1bd 06d1 553e
00000040: 0123 5dbe 3446 58be e9b0 f33d ff19 11be
00000050: ab88 383d 3247 02be f428 793e 390c cbbd
00000060: f1f7 86bd af54 243e f651 2b3e ba85 54be
00000070: ff54 32be 2cf7 07be 8d8d e63d d92b 653b
00000080: b574 9f3d 36d4 73be 9548 2d3e 8a09 0ebe
00000090: b3a9 fcbc 8634 473e ac41 1f3e 51bf 45be
000000a0: 48e6 17bd 8050 093e edb7 e2bd 1a16 8abd
000000b0: 127d 153e c7da e7bd 051d 23be 3688 06be
000000c0: 017e 2bbe 5670 3a3e d77c da3b f2d6 3c3e
000000d0: 233c ddbd 838f b83d 3562 3fbd 6ac7 80be
000000e0: 2d85 143e acf4 493e 6a75 213e 00ac e43d
000000f0: 6fa7 1a3d 5b53 d73d ea05 50be 596b 08be
00000100: 2263 96bd 720f c83c de2e 783c 4e48 e9bd
00000110: fcc6 743e 5573 093e d9a9 62be 2f5e b7bd
00000120: aa3d cc3d 223a 0f3e e7bc bbbe 423a eb3d
00000130: 1d07 6f3e 50ea 97bc bb6a 27be 0ff2 11bd
00000140: a326 47be b11b 98bd 1ec0 373e 50ff 41be
00000150: dead 2bbe 2469 0fbd 0e67 213e 3bcb 27be
00000160: 2071 fcbd 11c1 e8bd cd7f cebd d2d4 3fbe
00000170: 3ae1 943d 7d52 06bd 3cb2 d7be 67dc fa3c
00000180: ae95 993d 7d47 54bd ea90 183e 1d99 0abe
00000190: 8f4f 4bbd f7eb debc e884 f6bd fbb2 6d3e
000001a0: ae06 ca3d a62e 81be f944 363e c3ae 363c
000001b0: c11c 35be 5cc5 42be 3528 bbbd d1a4 4e3e
000001c0: 13bf 553d ba8a 27be c6dd febd 991e 603e
000001d0: 076b c33d 15fb f9bb 7a3a 023d 60d2 1e3e
000001e0: 8eba 56be 41e5 1cbe 7305 29be dca4 5e3d
000001f0: 8af7 0b3e c67b 0abd 53a7 47be 12f7 5a3d
00000200: d6a5 bfba 7b31 08be 2402 503e 5eff 58be
00000210: 8ec7 943d bd94 46bb 9753 543e bbb6 2bbe
00000220: 97a7 2e3d 2708 0b3d 9ccd 4abe 14f5 adbb
00000230: 178d a3bd 827e 45bd d83c de3d 8bba 773c
00000240: da69 94bd f164 11be 91f9 fabd d57a 24be
00000250: 0014 37be c015 193e 84ff 72be 2f48 1abd
00000260: fb2d f73d 71de a8bd 0b57 083d a02c 113d
00000270: f818 20be 80cd d43c bff8 99bd c167 f13d
00000280: 27a0 df3d c328 4a3e 4e4d 03be 335a 43be
00000290: 39c0 2bbe 7176 dc3d 72c3 f7bd bfe0 c4bd
000002a0: a28f 073c 12f6 bf3d e9fd 4ebe 1d08 9fbd
000002b0: 0d5c 353d 111a 5a3e 3ee1 52be f6c0 25be
000002c0: 39bd 1cbe 46b0 fdbc 4f5a 40be b600 eb3d
000002d0: a200 63bd 5ba7 68be 3954 24be 91ce e3bd
000002e0: 2ad3 4dbe ff60 45be 17a3 8a3d ba97 c1bd
000002f0: fe32 023d 1a7d 683d 0494 1a3e 6074 50bd
00000300: af3d b03c 6ce1 3dbe 9a73 6abe 7693 0fbd
00000310: 57a5 26be a029 77be 5071 38be 5a82 d0bd
00000320: 2875 453c 728e b23d 7e42 b23d 73bd c1bd
00000330: aec1 16be 980a 163e 8d1c 253b 0305 703d
00000340: 1e05 b4bd d860 23be 03aa c1bd ace9 30be
00000350: c171 053e 1eb3 f33d 1759 dcbe fda4 24be
00000360: 4df3 3e3e 9a9e 37be d80c 983c bacc a83e
00000370: 98e4 f6bd 8f91 193e f208 afbd 76c2 9e3d
00000380: 41a6 febd 1f9a 463e 16b1 f43d 250d 0abe
00000390: 92b9 253d da4b 9fbd 2c8a a6bd 4b7d ed3d
000003a0: 1cd4 cc3c 0b57 2b3e 7518 54be 6b2b 3a3e
000003b0: 8641 d03d 8944 31bd 4079 703e 417a 03be
000003c0: 239d 633e 46b7 0dbd 6af8 6c3e 6cde 043e
000003d0: 32ac 30bd 118e 2abd 2003 68be 95b9 bb3c
000003e0: 0f0b 163e a735 643c a405 023e d513 363e
000003f0: 67ed 5dbc 020c fc3c 7a24 1a3f f227 46bd

layers.hidden_6.bias f4 [20]
0.13124798 0.06796099 0.050461598 -0.19829307 -0.17874627 -0.101439625 -0.017879106 0.009954768
-0.021301541 -0.17192854 0.07523056 0.16736202 0.16152649 0.090289384 0.17569028 0.13204287
0.1709814 -0.102239914 -0.028757447 -0.116284356
00000000: df65 063e 222f 8b3d d2b0 4e3d 570d 4bbe
00000010: 4309 37be 94bf cfbd 3477 92bc 5319 233c
00000020: 9280 aebc 090e 30be 7b12 9a3d f360 2b3e
00000030: 3367 253e a4e9 b83d 27e8 333e 3f36 073e
00000040: c015 2f3e 2963 d1bd bd94 ebbc 7e26 eebd
