PINNS/HeatEq/models/checkpoints_Adam/Gen_9_Loss_0.0090232212.pt (torch, 89537 bytes, 43 tensors)

layers.input.weight f4 [20, 2]
000000 57 04 31 3f ab f9 02 3f 50 b7 04 bf 9e 28 57 3e
       0.6914725 0.51162213 -0.5184221 0.21011588
000010 43 f2 ce be 6d b3 56 bf f9 74 ec 3d 23 95 a9 3e
       -0.40419206 -0.8386753 0.11545748 0.33121595
000020 09 d0 a0 be 8c 8d 1f 3e b7 de 96 3e e8 28 f2 3e
       -0.31408718 0.1558134 0.29466793 0.47296834
000030 03 5b 22 bf c3 94 05 3d 22 1d 47 bf d8 c0 8a 3c
       -0.6342012 0.032612573 -0.7777883 0.016937658
000040 9c fd 24 3f 48 4a 58 3e 77 bc ec 3e 50 b4 38 be
       0.6444948 0.21122086 0.46237537 -0.18037534
000050 95 a9 a7 3e 26 19 18 3e c3 9a 30 bd 6d b1 1f 3f
       0.32746568 0.14853343 -0.043116342 0.62380105
000060 ea 9f 0d 3f eb f7 0a bf 8e d2 03 3f 54 5a 19 bf
       0.55322134 -0.5428454 0.51493156 -0.59903455
000070 01 88 2a bd 46 c8 3a bf 1a 72 00 be a8 c7 1f bf
       -0.04163361 -0.72961843 -0.12543526 -0.62414026
000080 ee 23 7d 3d 38 eb b1 be 15 b9 00 3f d0 dd 44 be
       0.061801843 -0.3474977 0.5028241 -0.1922524
000090 d1 a9 bd 3e 4b 6d 3f bf c0 16 11 bf 8c a7 12 3f
       0.37043622 -0.7477614 -0.5667534 0.57286906

layers.input.bias f4 [20]
000000 8d 5f 1d 3f d6 41 62 3e 0a 24 a0 be a5 28 46 3c
       0.61473924 0.22095427 -0.31277496 0.012094651
000010 2a 4e 20 bf 30 b1 08 bf 55 2e 8c 3e ee 1d 34 3e
       -0.6261927 -0.53395367 0.273791 0.17589542
000020 7a e3 50 3e 2f 03 19 bf d5 06 12 3f a9 d1 91 3d
       0.20399275 -0.5977048 0.57041675 0.071200676
000030 59 79 1c 3f 32 3e e6 bd ef 2e 4f be cc 1e 95 3e
       0.6112266 -0.112423316 -0.20232747 0.2912506
000040 83 59 bf 3e e9 49 a0 be c0 c9 2d bf 46 50 b6 3d
       0.3737298 -0.3130639 -0.6788597 0.0890203

layers.hidden_0.weight f4 [20, 20]
000000 9d d4 10 3e 35 48 39 3d f7 ca 6c 3e fb 07 1c bd
       0.14143606 0.045234878 0.231243 -0.03809355
000010 e3 4b 8e 3e f7 0f 95 3e 34 39 d0 3d e0 46 78 3d
       0.27792272 0.29113743 0.10167161 0.060614467
000020 31 ba 96 3d f9 d1 00 3e 55 df 8d 3d 90 3e 9e 3d
       0.07359732 0.12580098 0.06927363 0.077267766
000030 1d 40 68 be 93 53 41 be 48 be b1 3d e6 67 4c be
       -0.22680707 -0.18879537 0.086788714 -0.19961509
000040 cb 53 11 be b0 c9 18 bd 93 5d da 3d 0e e5 01 3e
       -0.1419212 -0.03730172 0.10662379 0.12685034
000050 a5 36 48 be 6d 71 ab bd 47 5f 2f be 93 aa c0 bd
       -0.19552095 -0.083712436 -0.17126189 -0.094075345
000060 c0 b9 85 bd b8 39 08 3e 5e 64 77 bd 54 3e fa be
       -0.065295696 0.13303268 -0.060398452 -0.48875678
000070 2b 32 41 3e 13 ee db bd 8b f9 0f be c2 74 c7 bc
       0.18866794 -0.107387684 -0.14060037 -0.024347667
000080 81 b6 a2 3e 43 52 d5 3d 7e 0d 01 3e 11 d4 da bd
       0.31779864 0.10416081 0.12602803 -0.1068498
000090 4f 8e 45 bd 47 c7 7a b9 39 31 25 bd 37 e7 37 bb
       -0.04823142 -0.00023916095 -0.040330146 -0.0028061399
0000a0 fa bb e9 3b 5e cf d4 3d 36 22 8f bd 01 9c af 3a
       0.0071330043 0.10391115 -0.06988947 0.0013397933
0000b0 47 24 cb bd 98 d1 5d 3e 95 7f 06 be e6 d0 e7 bc
       -0.09919029 0.21661985 -0.13134606 -0.028297853
0000c0 b9 83 a2 bb ab df 09 be 33 14 16 3e 70 a1 2a be
       -0.00495955 -0.13464229 0.14656143 -0.16663146
0000d0 2b 5b e3 bd 26 ef 66 3e 8a 55 14 be 8a 3b bc bc
       -0.11101373 0.22552165 -0.14485756 -0.02297761
0000e0 87 68 07 bc e7 3a 8b 3d 55 b7 ef bd 6c f0 36 be
       -0.008264667 0.06798344 -0.1170489 -0.17865151
0000f0 26 07 d0 bd 8d 5a 31 3e ec 3f 8c 3c e1 9e 80 be
       -0.101576135 0.17319699 0.017120324 -0.25121215
000100 0c d4 f4 bc a5 e2 7e be 74 b5 1d 3e af 03 85 3e
       -0.029886268 -0.24891146 0.1540125 0.25979373
000110 80 a1 14 be 4d 03 21 3e 69 34 35 be 45 ec 03 3d
       -0.14514732 0.15723915 -0.17695774 0.032207746
000120 42 2c 0b bc cf 35 49 3e b3 2f 40 be 49 84 1b 3e
       -0.008494439 0.19649433 -0.18768196 0.15187182
000130 4d b5 c7 3d 16 9b 12 bc 89 c0 27 bd 95 d7 0a 3e
       0.09751377 -0.008948108 -0.0409551 0.135588
000140 88 71 00 be 6c 3f ad 3d c5 10 1c be d6 e0 21 be
       -0.12543309 0.084593624 -0.15240772 -0.15808424
000150 9d 45 33 3e bc be c6 3c 49 50 8b 3e a2 e2 f5 3d
       0.17507024 0.024260871 0.2720969 0.120061174
000160 db df 04 be ca d2 2c be b1 cd 4f be 0f 96 0f bd
       -0.12976019 -0.16877285 -0.20293309 -0.035055216
000170 1e 27 48 be 64 31 71 bd a8 6f 9c bd af 42 90 3d
       -0.19546172 -0.058884993 -0.07638484 0.07043969
000180 da c5 f2 bd f0 79 2f bd 20 b6 28 3d e5 19 b1 bd
       -0.118541434 -0.042840898 0.041189313 -0.08647517
000190 14 51 43 3d 8b 52 47 be 65 4d 15 3e 6e 04 d8 bb
       0.047684744 -0.19465081 0.14580305 -0.006592325
0001a0 de a3 55 bb 99 92 80 3d a3 4b dd bd 98 82 d7 bd
       -0.0032598893 0.06277961 -0.10805442 -0.10522956
0001b0 14 aa f0 bd 89 59 0d 3e b5 a5 1a bd aa f1 49 be
       -0.1175119 0.13803686 -0.037755687 -0.19721094
0001c0 b1 90 8d 3e 5b 49 03 bd d1 fc bd 3d d8 03 c2 3d
       0.27649453 -0.03205238 0.092767365 0.094733894
0001d0 b6 37 78 3e c1 da 40 3e c8 24 2d 3e 68 1c b3 be
       0.24240002 0.18833448 0.16908562 -0.3498261
0001e0 35 76 db bd 5c 76 42 be 8f 74 03 be c2 3e 3a be
       -0.107159056 -0.18990463 -0.12837432 -0.18188003
0001f0 0e a2 26 be c2 b4 24 be 88 58 f9 bd 93 67 e8 bd
       -0.16272756 -0.16084579 -0.12175089 -0.1134788
000200 c5 36 67 bb 52 17 02 3d db f7 dc 3b 4c 66 c5 bc
       -0.0035280448 0.03176052 0.006743414 -0.02409663
000210 72 e4 a7 3e 61 dd fe bb ed f0 77 bd d3 a2 24 be
       0.32791477 -0.0077778553 -0.0605325 -0.16077738
000220 6a aa 41 3e fa 29 15 3b 37 34 06 be b6 2e fa 3d
       0.18912664 0.0022760616 -0.13105856 0.12215941
000230 d8 18 46 3e 77 51 eb 3d c5 78 15 be 4e 5e 41 3e
       0.19345415 0.114901476 -0.14596851 0.1888363
000240 22 54 5c 3c 50 41 04 3e 11 99 dc 3d 76 47 7f bd
       0.013447793 0.1291554 0.107713826 -0.06232401
000250 45 19 04 be ff 34 c8 bc d9 df 11 3e 09 cc 4b 3a
       -0.12900265 -0.024439333 0.14245547 0.0007774239
000260 6b 37 dd 3d 7c d1 43 be 5b ca 83 be 6d ad ff 3b
       0.10801586 -0.1912288 -0.25740322 0.0078026564
000270 84 4c 0c 3e 47 18 04 bc 6a e8 a3 bc 69 7a 51 3e
       0.13701063 -0.008062429 -0.020008285 0.20456852
000280 d0 22 14 3e 5a 42 94 bd 3e 0f e6 3d 32 86 86 3e
       0.14466405 -0.07239218 0.11233376 0.26274258
000290 1a 4b 8d bc fd 32 14 bc 61 70 bd bd 39 69 ce 3d
       -0.017247725 -0.00904536 -0.0924995 0.100786634
0002a0 11 9d 8f 3e 30 4e d7 3d 6d bc 0a bd ed 2f 04 3e
       0.2804952 0.1051296 -0.033871103 0.12908907
0002b0 24 50 c6 3d e5 ff 42 be 59 cc 16 3e 48 92 57 bc
       0.09683254 -0.19042929 0.1472639 -0.013157435
0002c0 eb e9 b0 be 97 30 62 3d b2 6b 0f 3e f8 8b cc bd
       -0.34553465 0.05522212 0.14005926 -0.099876344
0002d0 e5 ab 46 3e df 76 11 3e f9 b0 0b be 03 a8 b2 bd
       0.1940151 0.14205502 -0.13641728 -0.08723452
0002e0 13 df ed bc 45 8b 8a be 8b 46 40 3d ac 37 f3 3d
       -0.029037034 -0.2705938 0.046942275 0.11875853
0002f0 50 63 89 bd 8b d6 f2 bd d6 0b da bc d5 05 84 bd
       -0.067083955 -0.11857327 -0.026616972 -0.06446425
000300 2d ab b4 39 94 9c 43 3e 83 1c 5f 3e be 71 0c be
       0.0003445981 0.19102699 0.2178822 -0.13715264
000310 88 1e 49 3e c6 ec 87 3d 0c 0d 35 3e 2c c2 4b 3e
       0.19640553 0.06636958 0.17680758 0.1989829
000320 11 09 13 3e 16 aa 91 3d 8c 1e 1b be f4 d3 e6 bc
       0.14358927 0.071125194 -0.15148371 -0.028177239
000330 cb 8d 6b bc b8 49 db 3d 48 68 d9 bd 4b d1 e2 bb
       -0.014377068 0.1070742 -0.10615593 -0.0069219223
000340 1d 34 22 3e fb b6 b8 bd e3 94 11 3d fd d9 2d be
       0.15840192 -0.09019276 0.03554238 -0.16977687
000350 48 b9 b8 bd ec de 5a 3e 85 fc 98 ba c5 60 e2 bd
       -0.090197146 0.213741 -0.0011671936 -0.110536136
000360 26 c9 2c be 17 91 bc bd 80 6e 06 3d ca 2d d9 3d
       -0.16873607 -0.09207361 0.032820225 0.10604437
000370 d8 ca 1f 3d 97 94 2e be 62 97 cb bd bd 66 c3 bd
       0.039011806 -0.1704887 -0.09940983 -0.0954108
000380 a7 4d 28 3e 61 a4 15 be fd 20 8a be 41 5c 9b bd
       0.16435872 -0.14613487 -0.26978293 -0.075859554
000390 ea 2b db 3c 46 45 93 bb 2c 08 9e bd 58 63 7d 3e
       0.026754338 -0.004494342 -0.077164024 0.24744928
0003a0 21 2c 8d 3e 10 b8 00 3d b0 59 79 be ab 3d f7 bd
       0.2757273 0.031425536 -0.2435062 -0.12072309
0003b0 7e 23 81 3e 05 e9 1f be 09 c0 54 be e2 13 ec bb
       0.2522239 -0.15616234 -0.2077638 -0.0072045187
0003c0 94 c6 3f be cd 53 47 bd 9e 52 5b 3c d8 59 82 be
       -0.18728095 -0.048663903 0.013386397 -0.2545917
0003d0 c4 83 6b be 7a 74 01 bd af 59 2e bc 1a fd 1e be
       -0.22999483 -0.03160522 -0.010641499 -0.15526238
0003e0 6c 88 29 3d 77 62 11 be 7f f4 63 3d e6 98 e9 3d
       0.041389868 -0.14197718 0.05565309 0.11406116
0003f0 6a 01 6f bd ca 62 f3 bd 19 3e 7c be b7 b7 3e 3e
       -0.058350958 -0.11884077 -0.24633063 0.18624769

layers.hidden_0.bias f4 [20]
000000 9f 3c b7 bc 27 3d 41 bc 75 a3 d9 3c 9b 7f 33 be
       -0.022367774 -0.011794365 0.0265672 -0.17529146
000010 67 d8 78 bc d2 35 3b be d6 ff 08 3e e4 54 cb 3d
       -0.015188313 -0.1828225 0.13378844 0.09928301
000020 d8 46 31 3e 5e a2 fb bd 86 88 44 be ef f2 57 3d
       0.17312181 -0.122868285 -0.19192705 0.052721914
000030 91 a4 55 be 5a 85 ce 3d 4a 7f 1a 3e b5 2c 07 be
       -0.20863558 0.100840285 0.1508762 -0.13200648
000040 23 8d 05 3e 6d 56 25 3e 9a 02 41 3d c3 58 45 bd
       0.1304212 0.1614625 0.04712162 -0.048180353

layers.hidden_1.weight f4 [20, 20]
000000 8d 83 05 3c e4 13 4b 3e 9a 79 0f 3e 9b 8b df 3c
       0.00814904 0.19831806 0.14011231 0.027288249
000010 4a c5 15 be 14 06 8e bd f1 6c f0 3c 45 c5 a4 3d
       -0.14626041 -0.06934753 0.029348822 0.08045439
000020 7a d9 1d 3d e3 4b 74 3d 0d aa 59 be 2e 13 1f 3e
       0.03853748 0.059642684 -0.21256275 0.1553466
000030 05 2e 51 3e 5a 7a 5f 3e 25 2c 41 be ca 13 0e be
       0.20427711 0.21824017 -0.18864496 -0.13874736
000040 61 5a 23 3d 41 da 04 be 73 21 72 be a1 61 2a be
       0.039881114 -0.12973882 -0.23645572 -0.16638805
000050 59 46 02 3e 25 bd 75 3d 9c 28 a4 bd f0 41 ee 3d
       0.12722148 0.059994835 -0.08015558 0.1163367
000060 e4 57 0b 3e c9 cc 24 be 0e cf 29 3d 03 23 1d bc
       0.13607746 -0.16093744 0.04145723 -0.009590867
000070 a9 23 1f be 90 d7 1c 3e 6e 90 67 be 11 ac 4b 3e
       -0.15540947 0.15316606 -0.2261369 0.19889857
000080 37 40 69 3e a3 0c 3e 3e f9 7c 04 be f5 61 6c bc
       0.22778402 0.18559508 -0.12938298 -0.014427652
000090 49 fb 5b be d8 8b 8f be b0 1b a2 3d 76 40 e6 bd
       -0.21482576 -0.2803638 0.07915437 -0.11242764
0000a0 27 f7 75 3d 2b c6 17 be 33 15 e2 bd 5c 33 55 3d
       0.060050156 -0.14821689 -0.110392 0.052050933
0000b0 60 f8 25 3e 91 9f 69 3e 94 fd 00 3e b9 27 fe bd
       0.16208029 0.22814776 0.12596732 -0.1240992
0000c0 70 96 a2 bc 5a eb ab bd d8 27 29 3e 5c a8 af 3c
       -0.019847125 -0.08394499 0.16519105 0.021442585
0000d0 ce c1 e1 3d 02 be 2e be e5 b8 39 3e 57 05 6c 3d
       0.110232934 -0.1706467 0.18136938 0.05762228
0000e0 fb 89 04 be dd f8 56 3d b2 d9 e7 bc 0d c8 03 3e
       -0.1294326 0.05248343 -0.028302047 0.12869282
0000f0 5d b7 a3 3d 53 86 a6 3a 2a 82 58 be 8a 74 a2 3d
       0.07993958 0.0012704827 -0.21143404 0.07932384
000100 9f f5 3c 3e 98 f4 4f 3d 68 9f 6d be 56 8f 24 3a
       0.18453072 0.050770372 -0.2320534 0.0006277462
000110 6a 3b fa bd 57 23 5c 3e 3b 4f 08 3e 15 99 df 3d
       -0.122183636 0.21497856 0.13311474 0.1091787
000120 63 ad de 3b 8f 2f 12 3e 39 2a 12 be a9 3d 36 3e
       0.0067955717 0.14275955 -0.14273919 0.17796959
000130 96 a8 b0 bd e3 f8 89 be 41 f9 db 3d ab d6 47 bd
       -0.08625905 -0.26947698 0.10740901 -0.048788708
000140 60 f0 85 3e 62 59 ac be 23 53 04 be 2e 70 ec bd
       0.26159954 -0.33661944 -0.12922339 -0.11544834
000150 67 3a 91 bd 21 18 6f 3d 5b be bd bd 1b a1 a1 3d
       -0.070912175 0.05837262 -0.09264823 0.078920566
000160 91 15 cc 3d c7 7c 56 3e 39 b5 d5 3e 17 10 c9 3d
       0.09965051 0.20946036 0.41739824 0.09817522
000170 6e 5a 97 bd 7e be 19 bd 34 7f 59 be f4 bc c3 3d
       -0.07390295 -0.037535183 -0.2123993 0.09557524
000180 19 3b 78 3e de 6f f1 bc b3 c4 ca bd c5 10 7b be
       0.24241294 -0.029472288 -0.09900799 -0.24518116
000190 47 12 56 3e f4 28 c0 bc 5d f0 50 bd 8a 13 8f 3e
       0.2090541 -0.023457028 -0.05101048 0.27944595
0001a0 af 62 61 bc ba 9e 86 be 7f 25 60 3e d6 6b 3e 3d
       -0.013756438 -0.26292974 0.21889304 0.04648956
0001b0 4c f9 fd bc 83 3a a6 3c f3 5e 45 be 1b f0 27 bd
       -0.031002663 0.020291572 -0.19274502 -0.041000467
0001c0 3b c0 e9 3d b6 3e 47 bd 97 06 cb 3d 8f 0f b9 3d
       0.11413618 -0.04864379 0.09913366 0.09036171
0001d0 53 f2 47 3e d0 a2 a4 bd e8 38 0e 3e 18 ab 8e bd
       0.19526033 -0.080388665 0.13888896 -0.06966227
0001e0 07 d7 64 3e 62 ee d6 3c e7 48 c2 bd 24 f5 71 bd
       0.22347651 0.026236717 -0.09486561 -0.059071675
0001f0 2e 32 1c 3e 8e 9e 08 3e b2 e2 7c 3c e3 89 fc 3d
       0.15253517 0.13341734 0.015434908 0.12330987
000200 37 8b de bd 74 ec 00 3e 10 30 ee 3d 1c a6 14 3e
       -0.10866397 0.125902 0.11630261 0.1451649
000210 77 51 b7 3d cf 32 03 3d 7d fa d3 bd 08 37 85 3c
       0.08951085 0.032030877 -0.10350511 0.016261593
000220 6f 10 f6 bd d1 86 1f be 1f 28 24 3e 4f dd b7 bd
       -0.12014853 -0.15578772 0.1603093 -0.08977758
000230 44 22 f0 3d 00 70 25 3e e9 b9 58 3d 4f dc 85 3e
       0.11725286 0.16156006 0.052911673 0.26144645
000240 97 63 45 be 2f c1 40 3d bb c5 21 3e f1 51 2c 3e
       -0.19276272 0.047059234 0.15798084 0.16828133
000250 c0 08 c8 3c 65 74 08 3e a3 7c af bb 1f cb 2d 3e
       0.024418235 0.13325651 -0.005355434 0.16972016
000260 13 46 b8 bd f7 bb 79 3b a2 b4 86 3d 49 3a 86 bd
       -0.089977406 0.003810642 0.06577422 -0.06554086
000270 93 76 de 3d e6 34 28 bd a5 66 2d be 15 de 39 be
       0.1086246 -0.041066073 -0.16933687 -0.18151124
000280 83 ab 6c bd 91 7d 1b 3e fe 32 58 be fa 23 00 3d
       -0.057780754 0.15184619 -0.21113202 0.03128431
000290 75 41 33 3c 40 08 16 be 08 0d 52 bd 32 84 98 3d
       0.010940899 -0.14651585 -0.05128196 0.07447089
0002a0 d0 ba 3b 3e 32 01 e6 bc 14 6e 74 be 3c a8 16 3e
       0.18332982 -0.028076742 -0.23870116 0.14712614
0002b0 0b 67 f0 3c 9c 61 89 3d dd ca f8 bc bb a7 09 3e
       0.02934601 0.06708071 -0.03037017 0.1344289
0002c0 21 6b 19 3e f8 61 92 be d7 7f b3 bd cd f5 d6 bc
       0.14982273 -0.2859037 -0.08764618 -0.026240254
0002d0 e5 d4 34 be de 3f b6 3d 82 7d 76 3e ee ea 45 3e
       -0.17659338 0.088989004 0.24071315 0.193279
0002e0 82 61 87 bd 12 02 7d 3e 46 a8 a5 3d d1 37 45 3c
       -0.06610395 0.24707821 0.08088736 0.012037233
0002f0 e7 57 58 bd 2f e1 0c bd bb 79 29 3e c9 69 78 3d
       -0.052818205 -0.03439444 0.16550343 0.06064776
000300 85 c8 20 3e f0 47 68 bd d3 fc c1 3d 0c bd 8f bc
       0.15701492 -0.05670923 0.094720505 -0.0175462
000310 39 d4 58 bd 59 9f 3e 3e 30 fe bc 3d b9 8a 9f bb
       -0.052936766 0.18615474 0.0922817 -0.004868832
000320 88 8d b5 3d bc 80 27 3e 4b 8b 7a bd ef 6c 5c 3c
       0.088648856 0.16357702 -0.061167996 0.013453706
000330 ce 87 c4 3d 54 5a b9 3d 14 c5 c4 bd ef ac 8f bc
       0.09596215 0.09050432 -0.09607902 -0.017538516
000340 89 d7 f4 3c 5c 85 70 3e 60 c9 2b 3e 65 01 26 3d
       0.029887931 0.23488373 0.16776037 0.040528674
000350 fb 48 24 be 5e 3a 05 3e 67 35 04 be 64 b3 03 be
       -0.16043465 0.13010547 -0.12910996 -0.12861401
000360 41 7b e1 3d 2b ae a7 3c 52 95 2f 3d 79 ee 3f 3e
       0.11009837 0.020468792 0.042867012 0.18743314
000370 23 05 21 3e 20 c6 ed 3d 1b 7b ec 3d 4a 99 c6 bd
       0.15724616 0.11610055 0.11546918 -0.09697206
000380 d1 c8 40 3e 52 10 56 3e 8f ac e4 3c c9 0b 91 3d
       0.18826605 0.20904663 0.027914314 0.07082326
000390 91 cf 38 3d c8 e9 62 3e 12 98 01 3d e9 64 59 3d
       0.045119826 0.22159493 0.031639166 0.05307475
0003a0 49 9b 46 3e 26 88 94 bc c5 43 fa 3d a8 8c 09 be
       0.19395174 -0.018131327 0.12219957 -0.13432562
0003b0 74 d9 24 be ad 45 61 3c 9e e6 b7 3c 00 4b 59 3e
       -0.16098577 0.013749522 0.022448834 0.21220016
0003c0 b5 68 b4 3c 52 e8 56 3c 1b 3a a9 3d 98 e2 d5 3d
       0.022022584 0.013116913 0.08263036 0.1044361
0003d0 f4 47 9c bc d6 b9 36 3d be 40 7e be 15 d6 10 3e
       -0.019077279 0.04461082 -0.24829385 0.14144166
0003e0 d9 99 40 3d 03 b6 2f 3e 18 e7 c4 3d 6a 15 4d be
       0.04702172 0.17159276 0.0961439 -0.200277
0003f0 7e d4 84 bd b9 18 d8 3d e0 4d 7e 3e d6 3f 19 3d
       -0.06485842 0.105515905 0.24834394 0.037414394

layers.hidden_1.bias f4 [20]
000000 4d 7e 0c be e8 f4 31 be 2c 73 e6 3c 36 58 d8 bd
       -0.13720055 -0.1737858 0.02813109 -0.105637
000010 84 31 20 be a2 41 52 be 02 2d c9 3d 96 19 1f be
       -0.15643889 -0.2053285 0.09823038 -0.15537104
000020 28 d9 35 3d ef d8 f5 bd b8 c9 d1 bd 61 e9 50 3e
       0.04439655 -0.120042674 -0.10243553 0.20401527
000030 05 56 1d 3e d9 64 ec 3d 1f b6 02 be f5 15 c5 bc
       0.15364845 0.11542673 -0.12764786 -0.024058321
000040 5c ab 65 bd e0 b0 08 be 33 f6 9e 3d dd 87 fc bd
       -0.056071624 -0.13348722 0.077618025 -0.12330601

layers.hidden_2.weight f4 [20, 20]
000000 87 f0 0d be 7b d5 7e be 4b fa 1d be f3 55 60 3d
       -0.13861285 -0.24886124 -0.1542751 0.054769468
000010 c6 9f 3a 3c 0e 58 e6 bd 01 59 f6 3d 72 2a 79 be
       0.011390632 -0.11247264 0.12028695 -0.24332598
000020 c8 d3 60 bd 05 0b 59 3d 2e 29 08 3e 13 04 55 3e
       -0.05488947 0.052989025 0.13296959 0.20802335
000030 e0 34 48 bd a4 fb 64 bd 06 3f 00 be 04 9f f7 bd
       -0.04887855 -0.055904046 -0.12524042 -0.12090877
000040 fc 44 1a be 87 d7 3e 3e bf 66 9c 3d 0f 8a a9 3c
       -0.15065378 0.18636905 0.07636785 0.020695714
000050 89 1c ef bd 95 cf fc 3d 09 cc 44 be 58 ca 6d 3d
       -0.116753645 0.12344281 -0.19218458 0.0580543
000060 79 9b 7b bd ba 9a 89 3e c6 04 2b be 3a 53 07 3e
       -0.061427567 0.2687586 -0.1670104 0.13215342
000070 a3 2b 11 3e 95 e2 22 be c1 a9 54 be 2a d9 ad bc
       0.14176802 -0.15906747 -0.20767881 -0.021221716
000080 f8 dd 02 be b4 07 3b be 33 41 d5 3c 40 70 31 3c
       -0.12779987 -0.18264657 0.026032066 0.010829985
000090 35 9a 41 3e 02 92 27 3e da 2e 18 3d 7e f8 71 3e
       0.18906482 0.16364291 0.037154056 0.23629948
0000a0 5d ef 67 be 53 18 aa bd c7 64 22 3e cf 1b 5a 3e
       -0.22649904 -0.08305421 0.15858756 0.2129967
0000b0 05 3b 79 3e 2a f3 6b be 04 d2 8f bd 12 ee 21 be
       0.2433892 -0.23041978 -0.07022479 -0.15813473
0000c0 af 5b 6e bd 28 1b e8 3c 6d ad 81 3e 3f 12 c8 bd
       -0.058192905 0.028333262 0.25327626 -0.09769105
0000d0 4b 6a 0b 3e 8e c3 9b 3e b8 2f 03 bc c1 0d 6e bc
       0.13614766 0.30422634 -0.0080069825 -0.014529646
0000e0 f8 28 47 3e 1e cf 5b 3e 9f ef b8 bd 0d dd 57 be
       0.19449222 0.21465728 -0.09030079 -0.21080418
0000f0 db eb e3 3d ef f0 16 be 96 54 30 bd 8e d0 20 be
       0.1112897 -0.14740346 -0.043049417 -0.15704557
000100 34 a1 08 3d 38 db f1 3d 95 86 5b 3d 2e 41 54 be
       0.03335686 0.11809391 0.053595144 -0.20727989
000110 2d 83 a6 3c ca 5a e6 3d d2 d9 5c 3e bc c2 85 3d
       0.020326221 0.112477854 0.21567467 0.06531283
000120 39 d9 49 3e 2f e5 82 3e 05 39 10 3e 14 eb 0b 3d
       0.1971177 0.25565478 0.14084251 0.034159735
000130 df 1d 35 3e aa 54 bc 3d b1 93 cc bc dd f5 6c be
       0.17687176 0.09195836 -0.024972769 -0.23140664
000140 88 21 2c 3c e3 ba d5 bd e5 7d c0 3d e5 d9 21 3e
       0.010506041 -0.104360364 0.093990125 0.15805776
000150 3d b6 47 3e f6 ae 8b be 50 1c 1f bd 81 c3 17 be
       0.19503112 -0.27281922 -0.03884536 -0.14820673
000160 22 cb 53 be c7 a2 8c 3d 97 be 27 3d e9 8a 25 3d
       -0.20682958 0.06866985 0.040953245 0.04041568
000170 fc 9d 6e 3e ea 3a 0e 3e dd d7 54 bd c5 2e 51 3e
       0.23302454 0.13889661 -0.051963676 0.20427997
000180 17 f8 20 3e 88 c7 3c 3d 80 a2 b7 bb 9f 36 14 be
       0.15719639 0.046088725 -0.0056040883 -0.14473961
000190 04 a6 66 3e 85 11 c7 3d 6b 19 34 be 3b 5c 0b 3d
       0.22524267 0.097201385 -0.17587821 0.034023505
0001a0 d1 81 a9 3d 85 63 45 3e 0c 30 55 3e 9d c5 0b 3e
       0.08276714 0.19276245 0.2081911 0.13649602
0001b0 45 ba 02 bd 93 11 44 be 90 fd 1e 3d 11 1d 00 be
       -0.03191592 -0.19147329 0.038816035 -0.12511088
0001c0 2d c9 bc bc fd a5 6c 3e b1 cc 50 3c 16 62 eb bd
       -0.023045147 0.23110195 0.012744115 -0.11493318
0001d0 95 f1 20 3d 6c c1 ea 3c f1 a4 48 3e cf c3 96 3e
       0.03929289 0.028656684 0.1959417 0.29446265
0001e0 fd 0d 65 be 8e eb f4 3d 21 a2 b6 bd 3c c5 e1 bd
       -0.22368617 0.11958991 -0.089176424 -0.110239476
0001f0 25 d8 4b be 67 06 72 be fc 22 25 be c2 7c 15 be
       -0.19906671 -0.23635255 -0.16126627 -0.14598373
000200 51 22 56 bc d1 54 6a 3e 28 06 fa bd 90 db a3 bd
       -0.013069705 0.22883917 -0.122082055 -0.080008626
000210 18 ff 10 3e d4 32 4d bd 31 ad 13 3e 0f ba 11 3e
       0.1415981 -0.0500973 0.14421536 0.14231132
000220 68 5e 2e be 1a 5f 9d 3d 36 9b 54 be ac ce 8c be
       -0.170282 0.07684155 -0.20762333 -0.27501428
000230 62 78 2f bd d2 13 50 be 6e 1c 8b bb 7a e4 6a 3e
       -0.042839415 -0.20320061 -0.0042453324 0.2293872
000240 f2 63 14 3d 01 1a 75 be ba 06 4a bc 4f 56 ac 3d
       0.036228128 -0.23935701 -0.012330705 0.084148996
000250 ee db 3c bd 11 0a 8f 3d ad b9 15 be ee 41 29 3e
       -0.04610818 0.06984342 -0.14621611 0.16529056
000260 3c 76 2a 3d af 20 8a 3e 33 8e 04 be 30 3c 3b be
       0.041616663 0.2697806 -0.1294487 -0.18284678
000270 3d 71 40 be 0c f3 1d bd ba de 51 be 94 0c 2c be
       -0.18793197 -0.038561866 -0.2049512 -0.16801673
000280 aa 2b e4 3d 2d a7 2d be 32 36 35 be a3 6b 2c bc
       0.11141141 -0.16958304 -0.17696455 -0.0105237095
000290 73 d9 b3 bd cb e5 9b be 42 b3 a6 3d fe 8a 03 bc
       -0.087817095 -0.30448756 0.081396595 -0.008028744
0002a0 97 d0 ab 3d 3f c5 de bd 1d 79 8f 3e 5b 10 f6 3d
       0.08389395 -0.108774655 0.2802209 0.12014838
0002b0 9d a7 19 be 6f 3c 35 be e6 5e 05 3e 04 99 41 bd
       -0.15005346 -0.17698835 0.13024482 -0.047265068
0002c0 2c 36 73 bc 5a 01 2d 3e 5d 65 49 bd 07 64 35 3d
       -0.014844459 0.16895047 -0.049168933 0.044284847
0002d0 56 5f f4 3d 89 aa b5 bd b2 47 0d be ba 7a 90 3c
       0.119322464 -0.088704176 -0.13796881 0.017636646
0002e0 1f c6 cd bd e7 f1 48 be 67 30 a8 bc ce 6c 0c be
       -0.10047554 -0.19623528 -0.020530893 -0.1371338
0002f0 85 ad c4 bd dd 74 e7 bd c6 a0 b5 3e 61 34 cf bd
       -0.09603409 -0.11301587 0.35474223 -0.10117412
000300 da 9c 70 bd ca 99 1d 3e da 9f dd 3d bb b0 1f be
       -0.058743335 0.15390697 0.10821505 -0.15594761
000310 d2 d7 df 3d 8b 43 1d 3e e1 78 4f 3e 7e 1d c7 bb
       0.10929836 0.15357797 0.20260955 -0.006076514
000320 51 a1 ab 3d 22 da e0 bc b6 f8 2d be 5e 54 2f be
       0.08380378 -0.027447764 -0.16989407 -0.17122027
000330 aa 76 e2 bc 24 a3 29 3c 0e 7f 1a 3d 46 fb 2c 3e
       -0.027644474 0.010353837 0.037718825 0.16892728
000340 6d 62 4d be f7 34 e1 3d 3c 64 cd 3c 9e af 3f 3e
       -0.20057078 0.1099643 0.02507221 0.18719336
000350 ae e1 01 3e aa 0f 6e 3e 8b 75 93 be 1c 40 0e be
       0.12683746 0.23248163 -0.28800616 -0.13891643
000360 8f 03 18 bb 9a fe 6b bd 5e 68 f3 3d b3 de 70 be
       -0.002319548 -0.057615854 0.11885141 -0.23522453
000370 c1 b1 69 be 9e 8e 98 be 1d 86 cc 3c e5 77 42 3e
       -0.22821714 -0.29796308 0.024966294 0.18991049
000380 a9 89 2b be 6f 5b c1 bd a6 da 6a 3d 03 e7 54 be
       -0.16751732 -0.09441268 0.057337426 -0.20791249
000390 f1 b1 6c bd 5d 25 f1 3d 86 2c ef 3d 06 79 52 3e
       -0.057786886 0.117747046 0.11678414 0.2055398
0003a0 86 e5 27 3e bf 6b 0f 3e b1 7b e6 3b dc dc 1f be
       0.1639615 0.14005946 0.007033788 -0.15611595
0003b0 70 5f 16 bd cb ee e1 3d 34 1f 16 bd 06 4b 2a be
       -0.03671211 0.11031874 -0.03665085 -0.16630182
0003c0 e2 c3 07 3e 0c 3e 46 3e e9 41 0c 3d 7b dc 3c 3e
       0.13258317 0.19359607 0.034242544 0.18443482
0003d0 a3 db 34 be 02 b8 06 be 78 4e 13 bd a6 cf 41 bd
       -0.1766191 -0.13156131 -0.035963506 -0.04731717
0003e0 ee 38 13 3e 26 79 d9 bd 00 b8 88 bd 63 60 3c 3e
       0.14377186 -0.1061881 -0.0667572 0.18396144
0003f0 e1 29 89 3d 19 aa 1b 3e 38 49 87 3e 8a 20 2b be
       0.06697441 0.15201606 0.2642305 -0.16711631

layers.hidden_2.bias f4 [20]
000000 25 de 9e bd 94 81 ed bc 01 90 e6 bd 7b 1b 1b 3b
       -0.077572145 -0.028992452 -0.11257935 0.0023667503
000010 b8 6e 5f 3e 9c c9 8a bd da 52 0b be 86 9b 15 3e
       0.2181958 -0.06776735 -0.13605824 0.14610109
000020 4d a1 3f be 29 29 c8 bb 95 17 aa bd 16 44 c0 3d
       -0.18713875 -0.0061084223 -0.08305279 0.09387986
000030 3f ad 54 3d 85 1d 8b 3c 8e 3d 1e be e2 03 8c bd
       0.051923033 0.01698185 -0.15453169 -0.06836678
000040 f4 de 3e be 25 93 fa bc ab 68 1a be c8 ca 5e 3e
       -0.18639737 -0.030587742 -0.1507899 0.21757042

layers.hidden_3.weight f4 [20, 20]
000000 27 9d d4 bd e7 f9 59 be fc ab e2 3d 85 71 42 bd
       -0.10381537 -0.21286736 0.1106796 -0.047471542
000010 1f cd 0b 3d c3 d5 94 bd c3 6e f9 3b 08 60 5c bd
       0.034131166 -0.07267334 0.007612081 -0.05380252
000020 6c 79 84 bd 61 83 e3 3b 4c 68 c7 bb ff 48 3a 3e
       -0.06468472 0.006943152 -0.006085431 0.18191908
000030 56 6a 26 3e 14 48 0c be 2f 05 48 be 1d 33 ae bd
       0.16251501 -0.1369937 -0.19533227 -0.08505843
000040 ec 0a ec 3d d0 e7 1a 3e fc dd 2a bc df a4 62 be
       0.11525521 0.15127492 -0.010428902 -0.22133206
000050 c3 f9 51 be 33 a7 22 3e db 05 30 3d 12 6d 57 be
       -0.20505433 0.15884094 0.042974334 -0.21037701
000060 f9 29 1d be 9a 30 87 bd c8 b4 6f be 9f 15 dc 3d
       -0.15348043 -0.06601067 -0.23408806 0.107463114
000070 87 0f 6a 3e ff c6 15 3e 1e 49 96 3d eb aa 44 be
       0.22857486 0.14626692 0.07338165 -0.19205825
000080 9a 11 67 3e 74 1a cd 3d 5e 37 84 bd d3 9b 2f be
       0.22565308 0.10014811 -0.06455873 -0.17149286
000090 43 9e 4d bd ed 42 2a 3e 90 62 51 be 32 a2 79 be
       -0.05019976 0.16627093 -0.20447755 -0.24378279
0000a0 b0 c6 f4 3d 91 12 b8 3a 92 98 27 bd a7 fe e1 bd
       0.11951959 0.0014043619 -0.040916987 -0.11034899
0000b0 ec 94 6a 3b c8 af c4 bd db 9f eb 3d b3 e6 f6 bc
       0.003579433 -0.0960384 0.115050994 -0.030139303
0000c0 f5 87 6c 3e ae e5 31 3e c3 85 6f 3e 67 b6 33 3e
       0.23098738 0.17372772 0.2339087 0.1755005
0000d0 ed 52 27 3e f6 76 82 3d 33 4b 9d 3b b7 f9 55 3e
       0.16340227 0.06370346 0.004800224 0.2089604
0000e0 10 4f 2a be fa b4 30 bd 6e 28 67 3e 21 47 fb bd
       -0.16631722 -0.043141343 0.22574016 -0.12269426
0000f0 c0 e6 08 3e 77 db 1e be 80 85 73 3c 5a 77 07 bd
       0.13369274 -0.15513407 0.014863372 -0.033072807
000100 1c e4 08 be bc 44 20 3d 5b d0 80 3d 9a ae 0e 3c
       -0.13368267 0.03912805 0.06289741 0.00870862
000110 fa a0 2a be 82 e2 11 be f2 40 15 bd 72 21 58 3e
       -0.1666297 -0.14246562 -0.03643889 0.21106508
000120 95 b5 db 3d 73 be 6c be 4c 30 45 3e 64 bb 16 be
       0.107279934 -0.23119526 0.19256705 -0.14719921
000130 9d 3f 02 3e 9c 7d 17 3e 13 5c 2b 3e 52 97 04 3e
       0.12719579 0.1479401 0.16734342 0.12948349
000140 b4 39 81 3e f6 04 8b be cd 1c 27 bc 64 ee f7 bd
       0.25239336 -0.27152222 -0.010199738 -0.12106016
000150 5c 63 9e 3e 43 28 ac bd 5c 0c a8 3d e0 85 ad 3d
       0.3093518 -0.08406117 0.08205482 0.084728
000160 0c 22 44 3b e2 53 56 3e e9 b4 b6 bc e2 7e 97 3e
       0.002992752 0.20930436 -0.022303062 0.2958899
000170 d8 72 74 be d2 37 07 3e ac 97 96 bd 6b f5 a7 bd
       -0.23871934 0.13204888 -0.07353148 -0.08201107
000180 15 55 26 3d 94 16 a9 bc 0b f8 62 b9 7f 57 94 bd
       0.040608484 -0.020640649 -0.00021645443 -0.07243251
000190 59 b8 5e be 12 3a f6 bc 62 41 77 be 86 91 1a 3e
       -0.2175001 -0.030056987 -0.24146035 0.15094575
0001a0 d5 28 10 be 4e 00 10 be 22 d5 82 3d 53 fb 08 be
       -0.14078076 -0.14062616 0.06388308 -0.13377123
0001b0 14 b0 17 be 2a c9 5d be c1 3a 34 3e 96 b8 99 3d
       -0.14813262 -0.21658769 0.17600538 0.0750591
0001c0 eb 60 61 3e b0 a9 2a be f8 8e 35 3e 86 b1 42 be
       0.22009628 -0.16666293 0.1773032 -0.19013032
0001d0 85 a1 b2 3b 04 c3 47 be fe 50 2b be c9 5d ab 3d
       0.0054513835 -0.19507986 -0.16730115 0.083674975
0001e0 51 ed ec 3d bc 2d 6e be e3 11 3b 3e 79 3b a3 bc
       0.11568702 -0.23259634 0.18268542 -0.01992582
0001f0 55 1c f5 3d 30 3f d6 bd 9c 05 67 bd c6 f6 f5 3d
       0.119682945 -0.10461271 -0.056401834 0.12009959
000200 73 03 22 3e 04 d3 d2 3d 4f ab 57 3c 03 53 ad 3d
       0.15821628 0.10294154 0.013163402 0.08463099
000210 c7 71 35 3e de 1d 0c bd f8 12 f0 bd a7 99 81 3c
       0.17719184 -0.03420817 -0.11722368 0.015820337
000220 9f 9d 33 be e3 4c 8b 3d 57 20 86 bc 11 c4 0f be
       -0.17540596 0.06801774 -0.016372843 -0.14039637
000230 07 08 d8 3d 7d 23 a1 3d e0 8e 9a bd d8 d0 52 3d
       0.10548406 0.07868097 -0.075467825 0.0514687
000240 54 15 93 be 32 b1 0a 3e 1b 29 9d bd a0 a4 82 be
       -0.2872721 0.13544157 -0.07673856 -0.25516224
000250 fc 22 e4 bd c6 22 20 ba e4 9e 72 be 17 c5 79 be
       -0.11139485 -0.0006108697 -0.23693424 -0.2439159
000260 27 e4 0d 3e 43 d8 03 bd 09 b0 1f 3c fd c3 36 3d
       0.13856564 -0.032188665 0.00974656 0.044620503
000270 f4 b4 01 be ec 55 85 be 98 9c 2f be 4d 3e 71 3c
       -0.12666684 -0.26042116 -0.1714958 0.014724326
000280 6d b5 5f 3e a3 12 a7 3d 46 33 15 3e 24 49 7d 3e
       0.21846552 0.081578515 0.1457034 0.24734932
000290 d5 7c 87 3e 25 48 48 3e 3f 7b 21 3e cd 0f 23 3d
       0.26462427 0.19558771 0.15769671 0.03980999
0002a0 eb 95 e0 bd 00 88 b1 3d 1c c8 74 bd 74 32 34 bd
       -0.109660946 0.08668518 -0.05976115 -0.04399343
0002b0 3e f4 7d 3b f2 9d a2 bc a6 91 2d 3e 10 fd b0 3d
       0.0038750316 -0.019850705 0.16950092 0.08642018
0002c0 b4 4b f4 3d 83 56 19 3e 4e 7e 13 3e 72 7c ec 3d
       0.11928502 0.14974408 0.1440365 0.115471736
0002d0 bc ee 11 be 8e d6 9b 3d e6 d3 15 be ba f5 c7 3c
       -0.14251226 0.076092824 -0.14631614 0.024409164
0002e0 03 dc 04 3e 22 3d 4e bd 9a 9c b0 bd 85 18 38 3d
       0.12974553 -0.05035127 -0.086236194 0.04494526
0002f0 3d 60 ca bd 5b 84 86 3d 94 ce ce 3d 2e 6d 3f 3e
       -0.09881637 0.065682136 0.100979954 0.18693992
000300 67 90 55 3d 39 d8 a9 bd a2 3a 08 be 58 85 c8 bd
       0.052139666 -0.08293194 -0.13303617 -0.09791058
000310 9e c4 a9 3d 73 19 81 bd 97 c1 87 3e 54 7c f4 bc
       0.08289455 -0.06303682 0.26514885 -0.02984444
000320 13 a2 2c be 40 ba 63 bd 7f f3 ca 3d 04 77 2d 3d
       -0.16858701 -0.055597544 0.099097244 0.04234983
000330 75 33 55 3e ef 36 43 3e f4 6d d5 3d 4b 39 93 3e
       0.2082041 0.19063924 0.104213625 0.2875465
000340 4b d6 4c be 97 ae 91 3d 21 82 2b 3d ba 9e 00 3d
       -0.20003621 0.071133785 0.041872147 0.031401373
000350 16 50 2d be 35 13 01 3e 87 0f 81 bc a0 41 42 3e
       -0.16925082 0.12604983 -0.015754474 0.18970346
000360 4a d5 c2 bd 2b ce 18 bc cb bc 5c 3e b3 12 91 3d
       -0.09513338 -0.009326498 0.21556394 0.07083645
000370 fd c0 fa 3d fb 52 19 3d c0 19 5a 3e 35 2d 0b be
       0.12243841 0.037432652 0.21298885 -0.13591464
000380 07 f2 2d 3d 7d 75 a1 bd 05 4c 42 bc ca 34 a9 3d
       0.042467143 -0.07883737 -0.011858945 0.08262022
000390 f4 f9 ba bd 4d b9 1a be 6b f0 7f 3e e0 39 2c 3d
       -0.09129706 -0.15109749 0.24994056 0.04204738
0003a0 27 04 41 3d da c8 19 3e e2 1e 4a 3e 3a 40 74 3e
       0.0471231 0.15018025 0.19738343 0.23852625
0003b0 98 47 3c 3e 52 68 fd 3d 0f 59 16 3e 6c b7 4c 3d
       0.18386686 0.12373413 0.1468241 0.049979612
0003c0 6f f0 32 be da b1 03 bb cc 23 45 bd 70 aa 6d 3d
       -0.1747453 -0.0020095021 -0.04812984 0.05802387
0003d0 84 bf da bc 41 0f 26 be 2b 1b 68 bd e3 cd 0a be
       -0.02670265 -0.16216756 -0.056666534 -0.13555102
0003e0 d8 ae d9 3d 46 75 f1 bb 2b 0b 15 3e 55 6e d9 3d
       0.10629052 -0.0073687164 0.14555041 0.10616747
0003f0 82 22 04 bd 3d 81 1f be a4 d2 67 3e 1d 03 55 3d
       -0.03225947 -0.15576644 0.22638947 0.052004922

layers.hidden_3.bias f4 [20]
000000 d0 8d 99 bc 21 65 15 3d d5 ab ae 3d 0c 37 dc 3d
       -0.01874438 0.036473397 0.08528868 0.10752687
000010 26 3c d0 3d 57 cf 6d be 9b f1 23 be 74 a6 f5 bd
       0.101677224 -0.23223625 -0.16010134 -0.11994639
000020 d3 ed d1 3b b7 11 54 3e ce 66 69 3d 23 64 02 3e
       0.0064065247 0.20709883 0.056982808 0.12733512
000030 11 0b 93 3d 7f 10 d3 bd a0 53 02 be 25 86 8b bc
       0.07179845 -0.10305881 -0.12727213 -0.017031739
000040 1e 1e 11 3e 99 86 b8 bd 02 bd 13 3e ba da 4b be
       0.14171645 -0.090100475 0.1442757 -0.19907656

layers.hidden_4.weight f4 [20, 20]
000000 fb 6e a0 bc a9 74 a9 3d e6 fe c2 bc 31 60 3b be
       -0.01958417 0.08274204 -0.023803186 -0.18298413
000010 10 d1 5b be f2 47 00 be ef 05 f1 3d fa 1b 72 3e
       -0.2146647 -0.12527445 0.1176871 0.23643485
000020 ca 5f 0e be 81 63 9a 3d 0c 58 10 3e df 5f 04 3e
       -0.13903728 0.0753851 0.14096087 0.12927197
000030 f2 6f 87 be af ab b1 bb fc d6 1c 3d c9 5f 62 3d
       -0.26452595 -0.0054220776 0.038290963 0.05526713
000040 e3 ef 88 3d 7f 64 2f 3e 8b f7 8f 3d c9 e7 2c 3d
       0.0668638 0.1712818 0.07029637 0.042213235
000050 d7 fe 13 bd 56 91 c2 3b db c2 7a 3d 3b 47 d6 bd
       -0.036131706 0.0059377356 0.061220985 -0.10462805
000060 cf 19 75 bd e8 f4 8a 3d b6 02 a4 3c 89 1b 84 be
       -0.059839066 0.067849934 0.020020824 -0.25802258
000070 e3 0f db 3d e4 96 e6 3d 53 3d 26 3e 09 09 82 3e
       0.106963895 0.11259249 0.16234331 0.25397518
000080 5e dd 5b bd 53 bb 73 be 33 d1 b5 3c a4 54 9f bd
       -0.05367791 -0.23801927 0.02219448 -0.07779816
000090 3f 71 43 be ef fd 5d be fd 7a a0 3b 86 f6 65 3e
       -0.19086169 -0.21678899 0.004897474 0.22457322
0000a0 7f 58 4c 3e d1 d8 58 be f1 06 73 3d cf 3d fc 3d
       0.19955634 -0.21176459 0.05933279 0.123164766
0000b0 cb 43 b2 ba 7f 4a 2e be 95 4c d9 3d 15 52 30 3e
       -0.0013600526 -0.17020606 0.1061031 0.17218812
0000c0 b8 f7 17 3e d1 6a 32 bc 9f 5b 50 3e 3a 16 fb bc
       0.14840591 -0.010889725 0.2034745 -0.030650247
0000d0 93 c1 5d 3e 1a 37 70 be 77 58 15 bd 8d bc 1d 3e
       0.21655874 -0.2345852 -0.03646132 0.15403958
0000e0 e5 cf 81 3d 94 f1 46 be f8 f0 05 be 70 b1 3c bd
       0.06338481 -0.19428092 -0.13080204 -0.046067655
0000f0 4f 9b 3a bd d3 e0 01 bd 67 44 58 be a8 98 55 3d
       -0.04555827 -0.03170855 -0.21119843 0.052147537
000100 a7 5f 9e bd ea 53 3f 3e 4b dc 68 be 2e 98 6f bd
       -0.07733088 0.18684354 -0.22740285 -0.05849474
000110 12 53 5f 3e ad 24 97 bd 8d c4 b8 3d 7a b3 46 3d
       0.21809033 -0.07380042 0.09021864 0.048511006
000120 ad e9 68 3e 6b 08 30 be 95 55 30 bd bd 03 4e be
       0.2274539 -0.17190711 -0.043050367 -0.20118614
000130 6e 33 2f 3d 03 db 83 3c 63 11 88 bd 90 c5 21 3e
       0.042773657 0.016095644 -0.06643941 0.1579802
000140 8d 46 3b 3c 56 23 14 bd 72 e4 33 be 8f 72 07 3e
       0.011430395 -0.03616651 -0.17567614 0.13227294
000150 3e 9e ca 3d 45 8d 72 be fe bc ed 3d d2 8e 87 bd
       0.098934636 -0.23686703 0.11608313 -0.06619038
000160 2e 94 9a 3d 03 b2 a2 bd 30 b3 5a 3e e8 c0 a4 bd
       0.07547794 -0.07944109 0.21357417 -0.080446064
000170 ce 51 09 bd f7 47 8f 3d bf 37 99 bc 02 f2 6d 3e
       -0.03352528 0.06996148 -0.01870334 0.2323685
000180 39 9a 1e bd e0 d9 c4 3d 07 4d 1a 3d b6 5b 8d 3d
       -0.038721297 0.09611869 0.037671115 0.06902258
000190 e2 45 9e 3d d5 51 5c be 5f 9c d8 3d e6 4b d9 3d
       0.07728173 -0.21515591 0.105767004 0.106101796
0001a0 2a 75 1e be 61 95 8c 3e d4 44 45 be c0 1b 35 3e
       -0.15474382 0.27457717 -0.19264537 0.17686367
0001b0 a4 f0 35 be 31 c5 c5 bb cf 70 68 be 3e f8 9c bd
       -0.17767578 -0.00603547 -0.22699283 -0.07664536
0001c0 bf 41 c6 bb ce b3 de 3d f8 50 88 3d 9f 47 78 3b
       -0.006050318 0.10874139 0.066560686 0.0037884486
0001d0 02 17 1f be 36 8f e9 bc 8b 09 c6 3d 26 5a 4e 3d
       -0.1553612 -0.028510671 0.09669789 0.05037894
0001e0 e9 37 5c 3e 1e 57 b7 3d 37 b4 32 be c3 12 70 3e
       0.21505703 0.08952163 -0.17451559 0.23444657
0001f0 d6 77 58 3e 0c f6 6a be 5b e0 2d be e1 2e 36 be
       0.21139464 -0.22945422 -0.16980116 -0.1779132
000200 36 da 3c 3d 2b 4c 7e bd 6a 9b 38 3e b2 fa 88 bd
       0.04610654 -0.06208436 0.18028036 -0.06688441
000210 bf ff 52 be e9 f5 2c 3e 95 ed 82 3e 7c a5 71 3e
       -0.20605372 0.16890682 0.25571886 0.23598284
000220 3f 05 d4 3a 34 95 1a bd a1 92 f5 3d 51 85 19 be
       0.001617588 -0.037739947 0.11990858 -0.14992262
000230 0b 78 09 3e 31 54 97 bd c4 52 48 3e ae 5b 27 be
       0.13424699 -0.07389105 0.19562823 -0.16343567
000240 65 96 96 ba c7 28 8a be e7 e3 29 3e a4 bb df bd
       -0.0011488913 -0.26984236 0.16590844 -0.109244615
000250 7c 2f 77 3e 0c 3c 6b 3d e6 62 f1 bc cb 43 22 be
       0.24139208 0.057430312 -0.029466104 -0.15846173
000260 c0 1f 44 3e 36 05 7d bd da 3d 97 3c 56 fe 1e bd
       0.19152737 -0.061772548 0.01846211 -0.038816772
000270 e5 cd b6 3d f5 bd 56 be 8e d9 4e bd 40 78 13 3e
       0.0892599 -0.209709 -0.050500445 0.1440134
000280 03 f9 8f bb 3f 77 eb bd cb 71 6e 3e 65 b6 38 be
       -0.004393698 -0.11497354 0.23285596 -0.18038328
000290 05 34 89 3e b1 03 2b 3e d9 df e7 bd b2 a8 3b bd
       0.267975 0.16700627 -0.113219924 -0.045815177
0002a0 18 be 04 3e 19 57 0f 3e 5d 3f cd bc 27 28 42 3e
       0.1296314 0.13998069 -0.025054628 0.1896063
0002b0 d1 f3 10 3d ce 14 ce 3d 9b ba 0a 3e 01 da d4 3d
       0.03538877 0.10062562 0.13547747 0.103931434
0002c0 a6 b0 e1 3d e4 27 84 be fc 15 80 be 4e 24 31 be
       0.11020021 -0.25811684 -0.25016773 -0.17299005
0002d0 11 82 1d bd 1d aa 2e 3e e3 04 d0 3d 9d 3a fc bc
       -0.03845412 0.1705708 0.10157182 -0.030789668
0002e0 3f 19 57 3c a2 d7 de bd 36 86 4f 3e 32 df 88 be
       0.013128578 -0.108809724 0.20266041 -0.26732785
0002f0 b4 fc 60 3e fe 68 3e 3e f5 21 0c bc 89 37 35 3e
       0.21971399 0.18594739 -0.008553018 0.17696966
000300 f4 30 10 be 92 e5 41 3e 6b 2f 15 be 42 31 74 3e
       -0.14081174 0.1893523 -0.1456887 0.23846915
000310 38 5a f7 bd 08 0e e8 ba 73 62 65 be 2c ac 2c 3e
       -0.12077755 -0.0017704377 -0.22400837 0.16862553
000320 08 fd 82 be 97 b5 9a 3d 6d 0b 24 be 86 f2 ce bd
       -0.25583673 0.07554167 -0.16019984 -0.101048514
000330 f8 c8 e6 bd 22 27 d5 bd ea d5 0c be ff a2 3c 3e
       -0.112688005 -0.104078546 -0.13753477 0.18421553
000340 06 7c c2 3d 8c 2d ca bd a9 26 0a 3e 21 29 20 be
       0.09496312 -0.098719686 0.1349131 -0.1564069
000350 07 89 f6 bd ed 9c 22 3e 84 7c 16 3e 33 d3 59 be
       -0.12037855 0.15880175 0.14695936 -0.21271972
000360 64 30 2f be 03 f1 d4 bd b3 4b 00 be f7 ce 2a 3e
       -0.17108303 -0.10397532 -0.12528877 0.16680513
000370 c9 f7 25 3d 6a f6 1a bd 35 15 2d be cf a3 14 3d
       0.04051951 -0.037832655 -0.16902621 0.036289033
000380 04 c7 98 3c 60 d4 9a 3e b3 40 8b be af 27 52 3c
       0.018649586 0.30240154 -0.271978 0.012826844
000390 1f c4 09 3d 34 33 39 3e 79 ba e9 bd 1e 0a 01 bd
       0.0336343 0.18085939 -0.1141252 -0.03150379
0003a0 27 85 2b 3e 2f cf c8 bd 5f 87 89 bd 50 0d 45 be
       0.16750012 -0.09805142 -0.06715273 -0.1924336
0003b0 a2 57 2f 3d 09 cc 5e bd 30 c0 4b bd be e2 3d 3e
       0.042808183 -0.0543938 -0.04974383 0.18543527
0003c0 9b 25 56 bd 82 d6 d8 3d d0 df 9f 3c b1 31 57 be
       -0.052281957 0.10587789 0.019515902 -0.2101505
0003d0 65 ff 48 3d 72 cc 66 3e f0 c4 17 3e ca 3c 48 3e
       0.04907169 0.22538927 0.1482122 0.19554439
0003e0 0e 6b 7a 3d 1f 18 59 3e b6 cd 4e 3d 43 8c 6a be
       0.06113725 0.21200608 0.05048915 -0.22905068
0003f0 a3 45 35 be d6 50 85 3e bf 20 0a be ca 87 bd 3d
       -0.17702346 0.26038235 -0.13489054 0.09254415

layers.hidden_4.bias f4 [20]
000000 e5 da 46 be eb 3d 1d 3e 24 b4 e6 bb 5b ce e4 3b
       -0.19419439 0.15355651 -0.0070405174 0.0069826073
000010 d3 55 a1 bd ce a1 1d 3e 75 1e 37 be 16 b4 1e 3d
       -0.07877698 0.15393755 -0.17882712 0.038745962
000020 45 c7 0f 3e 60 c7 37 3e 97 21 05 be 35 f6 82 3c
       0.14040859 0.1794715 -0.13001095 0.015986541
000030 4e 61 7d bd 70 bc 21 3e 83 12 23 be 31 6f 1e be
       -0.061860375 0.1579454 -0.1592503 -0.15472104
000040 e5 be 56 3e 88 dc 94 3b 62 68 ea bd d0 63 e2 3d
       0.20971258 0.004542891 -0.11445691 0.11054194

layers.hidden_5.weight f4 [20, 20]
000000 03 80 4c 3e d1 e1 b9 bd 75 b8 f5 bc f4 f7 0f be
       0.19970708 -0.09076274 -0.029995183 -0.1405943
000010 3a d9 36 3e 13 e8 8e bd d3 47 dc 3c 8a be 8a 3e
       0.17856303 -0.069778584 0.026889717 0.27098495
000020 ac bd 7d 3e 85 60 95 3d 66 d3 ef bd ff 1c de bb
       0.24779385 0.072938 -0.11710243 -0.006778359
000030 35 cd 44 be 1c b5 de 3c 54 f5 e1 bd a9 b9 5d 3e
       -0.19218905 0.027185969 -0.11033121 0.21652855
000040 b0 51 07 be 93 ed 3b 3c f9 44 25 3e c2 d3 6a 3e
       -0.13214755 0.011470216 0.16139592 0.22932342
000050 b3 6d 21 3e f5 62 2b bd 55 0b 01 bd 3d 92 13 be
       0.15764503 -0.04184242 -0.031504948 -0.14411254
000060 01 c7 12 be e4 32 74 3e da a3 bc 3d 42 e6 c0 3d
       -0.14333726 0.23847538 0.0921094 0.09418918
000070 9e 8d 4c be 2c c1 88 bd 2e f2 1c be 6b e4 47 3e
       -0.19975898 -0.066774696 -0.15326759 0.19520728
000080 e1 39 b9 bd 60 45 30 be 9e 60 24 3e c7 a7 c8 bd
       -0.09044243 -0.17213964 0.16052482 -0.09797626
000090 bf 7f 56 3d 3e 2e a4 3d 55 29 b8 3d 33 b1 a1 bd
       0.052367922 0.080166325 0.089922585 -0.07895126
0000a0 f5 d1 5b bd d3 d6 17 3c 8a f3 d3 3b 7d ea bb 3d
       -0.053667028 0.009267527 0.006468241 0.091755845
0000b0 b6 6c ae bd 24 4b 69 be 36 aa b4 3d 57 90 82 3e
       -0.08516829 -0.2278257 0.08821528 0.25500748
0000c0 54 75 4d bd f6 36 cb bc 59 b7 64 be 5f cf 06 be
       -0.05016072 -0.02480648 -0.22335567 -0.13165043
0000d0 10 c7 42 3c bf d5 b2 bd b3 53 bb 3c c2 e8 3d 3d
       0.0118882805 -0.08732175 0.02286706 0.046364553
0000e0 b3 e6 3a 3e 31 8c 60 3d 74 80 48 bd 3e 67 23 3d
       0.18252067 0.054821197 -0.048950627 0.03989338
0000f0 b2 41 c0 3d 13 90 85 3d 1c 10 4d 3e 32 17 25 3d
       0.093875304 0.065216206 0.20025676 0.040305324
000100 0f 64 71 3d d5 1f 8b be 60 f8 1c 3e fb b6 80 3e
       0.058933314 -0.27172723 0.15329123 0.25139603
000110 f1 3a e5 3d 9b 11 e1 3c 0a 92 66 3d 63 b7 bb 3d
       0.11192883 0.027474215 0.056291617 0.091658376
000120 2b 51 20 3e 00 e3 6b 3e 56 d8 bf 3a df 36 84 3e
       0.15655963 0.23035812 0.0014636617 0.25823113
000130 df 79 3f be e8 b3 ae 3d 6d d6 f1 3c 03 e6 71 3d
       -0.18698834 0.08530408 0.029521191 0.059057247
000140 77 c3 55 3d be 8e 33 bd 57 c7 c0 bd 22 d5 3a be
       0.052188363 -0.0438373 -0.09413021 -0.18245366
000150 33 7f 0d 3e b9 60 bf 3d fd 59 c2 3c 15 db b3 3c
       0.13818054 0.0934462 0.02372455 0.021955052
000160 c3 02 67 be f4 db 74 be f6 ab 48 3c f5 0b ea 3d
       -0.22559647 -0.2391203 0.01224803 0.11428062
000170 03 45 2f 3e 4e 95 2f bd 53 50 19 be ec 42 b5 3d
       0.1711617 -0.042866997 -0.14972048 0.08850655
000180 fb 8e 5b be 99 50 c7 3d 30 7c 09 be 10 f8 15 bc
       -0.21441261 0.0973217 -0.1342628 -0.009153381
000190 6d 30 a0 3d 08 a2 3a bd 78 43 1a be 9b ad 6b 3e
       0.078217365 -0.04556468 -0.150648 0.23015444
0001a0 dd 08 41 3e 62 96 8c 3e 10 51 14 bd e6 93 eb 3d
       0.18851037 0.27458483 -0.03621012 0.11502819
0001b0 d8 29 38 3e 1d a3 9f bd c8 6d 40 3e 15 f8 eb bd
       0.17984712 -0.07794783 0.18791878 -0.11521927
0001c0 bc db 59 3e 70 c9 83 be 97 a4 b5 bc 6d e2 cf bd
       0.21275228 -0.25739622 -0.02217321 -0.10150609
0001d0 c0 58 43 bc 41 9f 0c 3d d3 7b 13 be 39 11 5c be
       -0.011923015 0.034331564 -0.14402704 -0.21490945
0001e0 8b e2 72 be 2f 7a 25 3e af ba 4b 3e fd 74 4e 3e
       -0.23719232 0.1615989 0.19895433 0.20161815
0001f0 e4 0d 34 be cd 1e 55 3d 19 51 88 3e 30 a1 a9 3d
       -0.17583424 0.052031327 0.26624373 0.08282697
000200 85 0e 55 3e d4 2b 33 3e 3c 32 7b 3d 16 81 ac 3d
       0.2080632 0.17497188 0.061327204 0.08423059
000210 17 51 05 be 3b 12 88 3e 69 8b 11 bd df 39 08 be
       -0.13019215 0.2657641 -0.035533343 -0.13303326
000220 e0 82 80 3e c4 b1 b3 bd db d5 44 bd e3 cf a4 bc
       0.2509985 -0.087741405 -0.04805551 -0.02011866
000230 db 9b 75 bd dd 6d 07 be cf f7 1d 3e fd 24 1c 3d
       -0.05996309 -0.13225503 0.15426563 0.038121212
000240 fe 30 91 bd 28 7d b4 bc 1d bc 5a 3d aa 78 82 be
       -0.07089423 -0.022032335 0.053402055 -0.25482684
000250 14 34 13 be 65 b5 17 be 5f 0b ca 3d 7f c0 00 3e
       -0.14375335 -0.1481529 0.0986545 0.12573431
000260 fe ab 67 3e f8 92 c3 bd 7a 4b 9e bc f4 5d dd bd
       0.22624204 -0.095495164 -0.0193231 -0.10808936
000270 05 22 80 be 90 61 d0 bd c6 d9 08 be 38 fb 87 3d
       -0.25025955 -0.101748586 -0.13364324 0.06639713
000280 75 bd 50 3e d2 f0 2f bc 06 7b 66 be 15 97 b7 bc
       0.20384772 -0.010738568 -0.22507867 -0.022410909
000290 2d 3f 9e bd 85 b7 83 3e 7a 2f 7d be 19 a3 2d bd
       -0.077268936 0.25725952 -0.24725142 -0.04239187
0002a0 7f c4 6b be 6b 6f 5a be be 35 f4 bd 33 75 e9 bc
       -0.23024176 -0.21331565 -0.11924313 -0.028498268
0002b0 9c af 3e be 31 ad 1a bd 17 f5 e6 bd f1 1f 5c bd
       -0.18621677 -0.037762824 -0.11277216 -0.0537414
0002c0 5d 2d cb bd 98 6b c0 3c 0a 5d e4 3d 88 4c 9b bc
       -0.09920762 0.023488805 0.11150558 -0.018957391
0002d0 cd ff da bd cf 97 26 be b1 8d ae bd 3c 06 f2 3d
       -0.106933214 -0.16268848 -0.08523119 0.11817595
0002e0 d1 3d 1a 3e 63 38 3a 3e d6 59 e9 bd 94 27 2f bd
       0.15062644 0.18185572 -0.11394088 -0.042762354
0002f0 0f 02 6e bd 7b a0 0b 3e 25 0f 7b 3e 08 29 d3 3d
       -0.058107432 0.13635437 0.24517496 0.103105605
000300 bf 22 1c 3e b6 1e 1a 3e 40 c8 6d be 20 bd 6b be
       0.1524763 0.15050778 -0.2322092 -0.23021364
000310 d8 b3 04 3e ac 34 30 3e de ff 1f bd d2 fa ce 3c
       0.1295923 0.17207593 -0.039062373 0.025266085
000320 bb bd 4e 3e db ff 09 bf 27 89 15 be 8f d7 89 be
       0.20189564 -0.5390603 -0.146031 -0.2692227
000330 36 4b 30 be b3 ca 60 be 13 54 3f 3e f6 ac 7d 3e
       -0.1721619 -0.21952324 0.18684416 0.2477301
000340 1e 5b 83 3d fd 36 37 3e fe d8 00 bd 91 35 d1 be
       0.064138636 0.1789207 -0.03145694 -0.4086118
000350 92 45 d7 3d 7b 00 74 be df 20 2b 3b 60 e0 5d bd
       0.10511316 -0.23828308 0.0026112122 -0.05416906
000360 c4 d5 58 bc e7 e8 50 be d3 3c b9 bd 95 2a 3d bd
       -0.013234559 -0.20401345 -0.090448044 -0.046183188
000370 25 9d 30 3e a5 cc a5 3a d2 61 39 3e d9 40 46 be
       0.17247446 0.001264949 0.18103722 -0.19360675
000380 f1 a9 4c 3e e5 8d fb bc 8d da 37 3c 66 0a 82 3e
       0.19986703 -0.030707309 0.01122154 0.25398558
000390 e1 31 35 bd 1a 00 18 be fd 70 a5 bd 08 a9 5b be
       -0.04423702 -0.14843789 -0.080781914 -0.21451199
0003a0 99 c5 04 3e 39 c9 a7 bd ae 48 92 3d a4 66 3f 3e
       0.12966003 -0.08192677 0.07142769 0.18691498
0003b0 f3 19 4d 3e 5d 47 1a bd 88 5f 9d 3c 05 9d 2c 3e
       0.2002943 -0.037665714 0.019210592 0.16856773
0003c0 7b 5b 63 3e 82 f9 32 bd 16 53 14 3e 88 4b e4 3c
       0.22202866 -0.04369498 0.1448482 0.027868047
0003d0 6d 38 49 bd 8f d1 15 be 4b f6 07 be 2e 7f ad 3d
       -0.049126077 -0.14630722 -0.13277547 0.08471523
0003e0 07 5a fc bd c2 a8 66 bd 24 45 62 be 25 cb df 3b
       -0.12321859 -0.056313284 -0.22096688 0.0068296366
0003f0 e6 d5 a1 bc dc 1e c3 3d 8e 5e e2 3d 0e 76 20 3c
       -0.019755315 0.0952737 0.11053191 0.009793771

layers.hidden_5.bias f4 [20]
000000 1a 6b 42 bd fd a1 3e 3e c6 fa 41 be bf 9c 45 bd
       -0.04746542 0.18616481 -0.18943319 -0.048245188
000010 33 ad 02 be 48 aa 7c bd 89 ce 0a 3e c2 38 f0 bd
       -0.12761383 -0.06168583 0.1355535 -0.11729576
000020 49 aa af 3d 8d 6f 1c be e2 19 28 3e 23 0b 64 3e
       0.08577401 -0.15276928 0.16416124 0.22269873
000030 83 4d 03 be 61 6f 1f be 8d 97 d2 bd fc dd 78 bb
       -0.12822537 -0.15569831 -0.10282812 -0.003797411
000040 8a 74 ef bd 33 a2 56 be 68 77 66 bd a8 ce 2b bd
       -0.1169215 -0.20960312 -0.05626622 -0.04194513
