PINNS/HeatEq/models/checkpoints_Adam/Gen_2_Loss_0.1330579221.pt (torch, 9661 bytes, 23 tensors)

layers.input.weight f4 [6, 2]
-0.4344979 -0.6741072 -0.4184472 0.66561544 -0.30012345 0.59452534 0.03031431 0.5644343
0.41713455 -0.5433573 -0.10473484 0.0091231065
00000000: 8276 debe 4a92 2cbf b63e d6be c665 2a3f
00000010: c8a9 99be d032 183f b755 f83c c47e 103f
00000020: a992 d53e 7719 0bbf 387f d6bd 1579 153c

layers.input.bias f4 [6]
-0.20231989 0.4705615 -0.37409535 0.27681157 -0.26538107 0.3225219
00000000: f22c 4fbe 70ed f03e 6d89 bfbe 3fba 8d3e
00000010: 07e0 87be 9721 a53e

layers.hidden_0.weight f4 [6, 6]
-0.18386905 0.32927305 0.050188504 -0.3002677 0.056755163 0.3734005 0.18021002 0.42444032
-0.35325205 0.36437908 -0.36358082 0.4084969 0.011405301 -0.29355687 -0.29765084 -0.107237324
-0.32076323 -0.05750601 0.10197417 -0.37706155 0.27570802 0.13171071 0.18797272 0.30058792
0.41075325 0.3746371 -0.13364404 0.097619034 -0.16370907 -0.27995247 -0.250658 0.25632071
-0.32099268 -0.07462417 -0.10931308 0.15398125
00000000: 2b48 3cbe 7a96 a83e 7692 4d3d b0bc 99be
00000010: 1a78 683d 5a2e bf3e fa88 383e 3e50 d93e
00000020: 74dd b4be e58f ba3e 4427 babe 8126 d13e
00000030: 4ddd 3a3c 164d 96be b165 98be 3e9f dbbd
00000040: 143b a4be 6c8b 6bbd d5d7 d03d 360e c1be
00000050: 9a29 8d3e 2cdf 063e ec7b 403e a9e6 993e
00000060: 404e d23e 6fd0 bf3e fcd9 08be 7dec c73d
00000070: 5aa3 27be ee55 8fbe 3f56 80be 783c 833e
00000080: 2759 a4be 8fd4 98bd 89df dfbd 43ad 1d3e

layers.hidden_0.bias f4 [6]
0.2378982 -0.03132453 0.3210994 -0.13091114 -0.052721653 -0.4178853
00000000: 969b 733e 264e 00bd 2467 a43e 920d 06be
00000010: a9f2 57bd 10f5 d5be

layers.hidden_1.weight f4 [6, 6]
-0.35707313 -0.123107836 -0.34096405 0.36386788 0.15502019 0.2954597 -0.22561772 -0.057858534
-0.19798271 0.38733438 0.28261387 -0.21100505 -0.32742032 0.07287398 -0.10195049 -0.3054643
0.33006492 0.08425777 0.22279973 0.38783178 0.3428842 0.0003192043 -0.3422101 0.33646762
0.16969953 -0.2031784 -0.16957735 0.14542793 -0.030906789 0.17247628 -0.3053104 -0.16788422
-0.19317867 -0.16260558 0.040841 -0.05117785
00000000: 4ad2 b6be f61f fcbd d792 aebe e44c ba3e
00000010: 9dbd 1e3e 7e46 973e 5508 67be 12fd 6cbd
00000020: fbbb 4abe b150 c63e c4b2 903e b511 58be
00000030: a3a3 a7be f43e 953d 6bcb d0bd d165 9cbe
00000040: 45fe a83e 568f ac3d 9d25 643e e391 c63e
00000050: 858e af3e e05a a739 2a36 afbe 7c45 ac3e
00000060: b7c5 2d3e 000e 50be afa5 2dbe 0feb 143e
00000070: 3c30 fdbc 9f9d 303e a551 9cbe d7e9 2bbe
00000080: a1d0 45be 1482 26be e448 273d de9f 51bd

layers.hidden_1.bias f4 [6]
-0.4041625 -0.3573026 -0.3611299 0.16611758 0.17291959 0.055827376
00000000: 63ee cebe 5ef0 b6be 05e6 b8be ba1a 2a3e
00000010: d511 313e 3fab 643d

layers.hidden_2.weight f4 [6, 6]
-0.0006027352 -0.11400632 -0.1428705 0.30484614 -0.26134098 -0.27126786 0.0609446 0.112507544
-0.2991384 -0.3859712 -0.34876028 -0.093640745 -0.19179179 0.30706736 -0.14750181 -0.15995516
0.3256783 -0.25944346 0.05277413 -0.33466804 -0.37160882 0.17452088 -0.0013452936 0.18524374
0.16289641 -0.025929302 0.22847953 -0.08845213 0.19766465 0.22265914 -0.3038617 0.26992682
-0.1519045 0.06448842 0.20688097 0.250424
00000000: e000 1eba 257c e9bd a54c 12be cb14 9c3e
00000010: 7cce 85be 9fe3 8abe 0ba1 793d 5b6a e63d
00000020: ab28 99be 049e c5be b590 b2be b8c6 bfbd
00000030: 1165 44be ef37 9d3e b70a 17be 49cb 23be
00000040: 4ebf a63e c6d5 84be b029 583d 9c59 abbe
00000050: 8343 bebe 9ab5 323e 9054 b0ba 89b0 3d3e
00000060: 51ce 263e b069 d4bc 8af6 693e 6426 b5bd
00000070: 9a68 4a3e c200 643e c393 9bbe d933 8a3e
00000080: da8c 1bbe 8112 843d 9bd8 533e 9337 803e

layers.hidden_2.bias f4 [6]
0.41449925 0.12466344 -0.33624336 0.09858452 -0.2731151 -0.33708373
00000000: 3f39 d43e 8c4f ff3d 1728 acbe aee6 c93d
00000010: bed5 8bbe 3d96 acbe

layers.hidden_3.weight f4 [6, 6]
-0.041001555 0.105553634 -0.10754774 0.33890837 -0.02985666 -0.25590244 -0.38498637 0.13163072
0.10854214 -0.3344781 -0.39791957 0.05686868 -0.31686783 -0.2886718 0.07424027 -0.36849958
0.37846214 0.18991356 0.22586143 0.33988783 -0.31077808 0.42137948 -0.37219095 -0.29278627
0.33888048 0.19668186 -0.05220683 0.26180154 0.17059918 0.009923058 -0.1360419 0.0475206
0.18532678 -0.018575124 0.15271601 -0.32016355
00000000: 3ff1 27bd 812c d83d fd41 dcbd 6685 ad3e
00000010: f495 f4bc a505 83be ef1c c5be 34ca 063e
00000020: 574b de3d b740 abbe 1dbc cbbe 22ef 683d
00000030: 803c a2be cacc 93be 480b 983d faab bcbe
00000040: cac5 c13e b378 423e 3848 673e c705 ae3e
00000050: 4e1e 9fbe 0dbf d73e d08f bebe 15e8 95be
00000060: be81 ad3e f866 493e d4d6 55bd da0a 863e
00000070: 8db1 2e3e 5294 223c 914e 0bbe f6a4 423d
00000080: 4ec6 3d3e dc2a 98bc 9661 1c3e 7aec a3be

layers.hidden_3.bias f4 [6]
-0.42250413 -0.30990002 -0.20684081 0.23525666 -0.11985268 0.34853822
00000000: 7652 d8be 37ab 9ebe 14ce 53be 1fe7 703e
00000010: 5275 f5bd 9a73 b23e

layers.hidden_4.weight f4 [6, 6]
-0.34764534 -0.33269173 -0.0045456197 -0.1541795 0.21639925 0.36993915 0.13497046 0.10639295
0.38539377 -0.40169305 -0.06433379 0.056726925 0.07197119 0.37424985 0.07130565 -0.38655496
-0.37125525 -0.22014777 -0.33192003 -0.05579427 0.21686442 -0.27764812 -0.045408435 -0.2926274
-0.013589041 -0.34691614 -0.33941284 0.21938469 0.18180448 0.19155425 0.10459277 0.35993162
-0.33324954 -0.34176657 -0.1609362 0.3387986
00000000: 92fe b1be 9256 aabe 6cf3 94bb 3be1 1dbe
00000010: c497 5d3e aa68 bd3e b235 0a3e 8ce4 d93d
00000020: 5552 c53e b6aa cdbe 6fc1 83bd 7e5a 683d
00000030: a265 933d ad9d bf3e b208 923d 88ea c5be
00000040: 2b15 bebe 6b6e 61be 6cf1 a9be 8888 64bd
00000050: b511 5e3e e527 8ebe 32fe 39bd 42d3 95be
00000060: 92a4 5ebc fe9e b1be 85c7 adbe 61a6 603e
00000070: f42a 3a3e cc26 443e bc34 d63d f548 b83e
00000080: af9f aabe 07fc aebe 76cc 24be 0377 ad3e

layers.hidden_4.bias f4 [6]
-0.3684309 0.3114967 0.33255753 -0.33148938 0.23472527 -0.42521986
00000000: faa2 bcbe 7f7c 9f3e fb44 aa3e fab8 a9be
00000010: d25b 703e 6bb6 d9be

layers.hidden_5.weight f4 [6, 6]
-0.27345702 0.316737 0.0146066975 -0.0994384 -0.32448235 0.2874581 0.009379899 0.33390823
-0.38762227 0.034609415 -0.326535 0.12461712 -0.42800546 -0.1717282 0.21413378 0.26998883
0.040996008 -0.062861785 -0.09002516 -0.010500806 -0.017050024 -0.4010456 -0.34586823 0.035653424
0.23192644 0.25534964 0.3676945 0.18284696 0.20148553 0.29879788 -0.24588491 -0.31607175
0.017453548 -0.13505428 -0.08240661 -0.34433523
00000000: 8f02 8cbe 5a2b a23e ee50 6f3c 5ca6 cbbd
00000010: 8d22 a6be b52d 933e 26ae 193c 05f6 aa3e
00000020: 6d76 c6be 9ac2 0d3d 982f a7be 4337 ff3d
00000030: 8823 dbbe 84d9 2fbe e345 5b3e fa3b 8a3e
00000040: 6eeb 273d aebd 80bd 1c5f b8bd 930b 2cbc
00000050: 7eac 8bbc d955 cdbe a415 b1be 5309 123d
00000060: 207e 6d3e 30bd 823e 7442 bc3e 3c3c 3b3e
00000070: 3952 4e3e 09fc 983e 41c9 7bbe 28d4 a1be
00000080: befa 8e3c ab4b 0abe ccc4 a8bd b54c b0be

layers.hidden_5.bias f4 [6]
0.075179756 0.03427376 0.20195292 0.04141529 0.25189874 -0.12204335
00000000: d8f7 993d a462 0c3d bfcc 4e3e 14a3 293d
00000010: dff8 803e ddf1 f9bd

layers.hidden_6.weight f4 [6, 6]
0.19026631 0.13784039 -0.18251745 -0.078979254 -0.26473063 0.10377646 -0.3645177 -0.38694274
0.061957385 -0.3466072 -0.21429648 0.015929285 0.32566306 -0.29565746 -0.020354401 0.38852456
0.2305289 0.24718714 -0.03337516 0.06488559 -0.094639495 -0.1972786 -0.22938716 -0.3652783
0.25550398 0.25729212 -0.04005287 -0.22107421 0.2459711 -0.18764627 0.17812218 0.015832487
-0.07811397 -0.1891135 0.13083191 -0.22281925
00000000: 2cd5 423e 0826 0d3e dbe5 3abe e0bf a1bd
00000010: c68a 87be c188 d43d 10a2 babe 5c1d c6be
00000020: 07c7 7d3d 8076 b1be 8970 5bbe 227e 823c
00000030: 4fbd a63e 6a60 97be 46be a6bc b1ec c63e
00000040: c50f 6c3e a01e 7d3e 64b4 08bd bce2 843d
00000050: 5ad2 c1bd 6703 4abe 78e4 6abe c205 bbbe
00000060: 6bd1 823e cbbb 833e 7a0e 24bd 4761 62be
00000070: d9df 7b3e 5826 40be a965 363e 22b3 813c
00000080: 38fa 9fbd f8a6 41be cdf8 053e bb2a 64be

layers.hidden_6.bias f4 [6]
0.21753125 0.3244967 -0.25455618 -0.29372555 -0.23506398 0.12018583
00000000: 83c0 5e3e 6e24 a63e 3055 82be 3263 96be
00000010: 9db4 70be fd23 f63d

layers.hidden_7.weight f4 [6, 6]
0.36639908 -0.032994896 -0.15904053 0.05287877 0.0040632505 -0.20323688 0.070382185 0.38333455
-0.14628093 -0.21935485 -0.22790995 -0.24931741 0.09196634 -0.3554455 -0.27440232 -0.1653556
-0.24556208 -0.28279793 0.3811043 0.0947813 -0.18918738 -0.18282156 0.31136745 -0.29213503
0.19412315 0.17374296 -0.05740319 -0.017990451 -0.13943686 0.2213493 -0.055487324 -0.34349006
0.10484254 0.014646767 -0.14535457 0.16430032
00000000: a998 bb3e a825 07bd 85db 22be 6997 583d
00000010: 0425 853b 541d 50be 8924 903d 6d44 c43e
00000020: abca 15be 8f9e 60be 3a61 69be 104d 7fbe
00000030: d958 bc3d f4fc b5be 767e 8cbe fa52 29be
00000040: a074 7bbe e4ca 90be 1a20 c33e b31c c23d
00000050: 56ba 41be 9335 3bbe 8e6b 9f3e b992 95be
00000060: 38c8 463e ade9 313e 9b1f 6bbd b660 93bc
00000070: 89c8 0ebe 64a9 623e ad46 63bd eedd afbe
00000080: b0b7 d63d fef8 6f3c d4d7 14be 583e 283e

layers.hidden_7.bias f4 [6]
0.18476948 0.17628734 -0.071565986 -0.15166427 -0.19071734 -0.023740914
00000000: 3634 3d3e ab84 343e 3091 92bd e14d 1bbe
00000010: 684b 43be 4e7c c2bc

layers.hidden_8.weight f4 [6, 6]
-0.22487137 -0.3037775 0.3585802 -0.13303223 0.34923166 -0.032675587 0.0986187 0.24818158
0.1637552 0.3345036 -0.35136747 0.064079076 0.16409905 0.3635456 0.27321732 -0.2848899
-0.07686684 0.11030356 0.03465587 -0.062262047 0.20451479 -0.16893156 -0.1311959 -0.20667477
0.3633627 0.042157955 0.20796162 0.12087126 0.035641227 0.3852177 0.15074345 -0.40362003
0.16867797 0.18889321 -0.16685364 -0.07678213
00000000: ae44 66be b988 9bbe d397 b73e 9a39 08be
00000010: 7ece b23e d6d6 05bd 9af8 c93d 5023 7e3e
00000020: 71af 273e 0e44 ab3e 70e6 b3be e43b 833d
00000030: 9509 283e a622 ba3e 24e3 8b3e 17dd 91be
00000040: 5d6c 9dbd d5e6 e13d 50f3 0d3d 7d06 7fbd
00000050: 536c 513e 65fc 2cbe 3858 06be 8da2 53be
00000060: ad0a ba3e d2ad 2c3d e4f3 543e 5a8b f73d
00000070: 89fc 113d 413b c53e 7e5c 1a3e 49a7 cebe
00000080: ebb9 2c3e 396d 413e aedb 2abe f33f 9dbd

layers.hidden_8.bias f4 [6]
-0.33714548 0.3892304 -0.26461655 0.29607692 -0.15569203 -0.14844234
00000000: 559e acbe 3549 c73e d27b 87be 6597 973e
00000010: bb6d 1fbe 4501 18be

layers.hidden_9.weight f4 [6, 6]
-0.04885891 -0.071435794 -0.29776 0.32407868 -0.043594472 -0.41302067 -0.2904621 0.26273182
0.10374956 -0.12676701 0.07916818 0.2729616 -0.10224156 0.34422594 -0.039249122 0.42640144
-0.40673754 -0.13123949 0.13888636 0.35785022 -0.007946571 0.16502915 0.040059477 -0.2528728
-0.33779895 0.27952835 -0.28161266 0.33494508 -0.04432173 -0.25751823 -0.07695641 -0.11106032
-0.36978748 -0.048455287 -0.05398548 -0.2936131
00000000: 4820 48bd ee4c 92bd 0074 98be a4ed a53e
00000010: 1e90 32bd 7277 d3be 73b7 94be c984 863e
00000020: a67a d43d 36cf 01be ed22 a23d 9fc1 8b3e
00000030: 0664 d1bd 623e b03e b0c3 20bd 4a51 da3e
00000040: e73f d0be a563 06be 3a38 0e3e 2538 b73e
00000050: 5632 02bc 67fd 283e 6815 243d 8b78 81be
00000060: fcf3 acbe 571e 8f3e 892f 90be ec7d ab3e
00000070: b48a 35bd 6ed9 83be 539b 9dbd 9873 e3bd
00000080: c954 bdbe 0d79 46bd e11f 5dbd 7554 96be

layers.hidden_9.bias f4 [6]
-0.3549779 0.37343 -0.2890272 0.3981538 -0.37916914 0.28955418
00000000: aabf b5be 3832 bf3e 60fb 93be d1da cb3e
00000010: 7522 c2be 7240 943e

layers.output.weight f4 [1, 6]
0.22393514 0.24465452 0.40948132 0.06811884 -0.1017377 -0.1440177
00000000: 414f 653e b786 7a3e 89a7 d13e e481 8b3d
00000010: db5b d0bd 6079 13be
