PINNS/HeatEq/models/checkpoints_Adam/Gen_3_Loss_0.1687346995.pt (torch, 9661 bytes, 23 tensors)

layers.input.weight f4 [6, 2]
0	0x3f18a2ad	0.59623224
1	0x3f07b147	0.5300488
2	0x3ef34d18	0.47519755
3	0xbe20214c	-0.15637702
4	0xbf3038b8	-0.68836546
5	0xbefd77d6	-0.4950549
6	0x3f27e1ac	0.6557872
7	0x3ed1d1c2	0.40980345
8	0x3f1934b7	0.5984606
9	0xbeb48caf	-0.35263583
10	0x3f2195a7	0.63118976
11	0xbeadbc0a	-0.33932525

layers.input.bias f4 [6]
0	0x3b70eebc	0.003676339
1	0xbdbada5f	-0.09123682
2	0xbf01b1d1	-0.5066195
3	0x3f2bdc59	0.671331
4	0xbe8303e7	-0.25588915
5	0x3f0687e5	0.5255111

layers.hidden_0.weight f4 [6, 6]
0	0xbe2bd149	-0.16779055
1	0xbe475f74	-0.19470006
2	0xbe2eda78	-0.17075527
3	0x3cde48bd	0.027134294
4	0xbe4976cb	-0.19674222
5	0xbe3f1147	-0.18658935
6	0x3e8161fb	0.25270066
7	0x3e89fc30	0.26950216
8	0xbebf688c	-0.3738445
9	0x3e9ec64b	0.3101066
10	0x3dff6e50	0.12472212
11	0xbeca7cda	-0.3954838
12	0x3cf3807b	0.02972435
13	0x3db16946	0.086626574
14	0x3eaae13d	0.33374968
15	0xbec8501b	-0.39123616
16	0xbcb3e0e4	-0.021957822
17	0x3ea7a662	0.32744128
18	0x3c27d3e3	0.010243389
19	0xbe6c2fd0	-0.23065114
20	0xbe91dccb	-0.28488764
21	0x3e43d230	0.19123149
22	0x3cbf5550	0.02335611
23	0x3d0e94cc	0.034809873
24	0xbeceb5db	-0.4037312
25	0x3bb63b19	0.005561244
26	0x3e0b706e	0.13617107
27	0x3c500793	0.012697118
28	0x3e849244	0.25892842
29	0xbe068f9f	-0.13140725
30	0x3e9adc5c	0.30246246
31	0x3cb4ee2c	0.022086225
32	0x3d0e6932	0.03476829
33	0x3eaa678f	0.33282134
34	0x3d90c904	0.07069591
35	0x3e14c4d1	0.14528205

layers.hidden_0.bias f4 [6]
0	0xbeb3474a	-0.35015327
1	0x3be03770	0.006842546
2	0x3eae36a0	0.3402605
3	0xbd46ff65	-0.048583407
4	0x3e153348	0.14570343
5	0xbeb7d21b	-0.35902485

layers.hidden_1.weight f4 [6, 6]
0	0x3e5e90b8	0.21734893
1	0x3e237e17	0.15966068
2	0x3def5c11	0.11687482
3	0x3ea64785	0.3247644
4	0x3e886921	0.26642707
5	0x3e9ec6e1	0.31011108
6	0xbc406029	-0.011741676
7	0x3d7f928c	0.062395617
8	0xbe218e8b	-0.15777032
9	0xbead9ef7	-0.33910343
10	0xbd2225ac	-0.039586708
11	0x3c952d35	0.018210033
12	0x3d312dfa	0.043256737
13	0x3e5d6b7f	0.21623038
14	0xbe380b86	-0.17973146
15	0x3d2e1790	0.04250294
16	0x3dfba510	0.122873425
17	0xbd1240f4	-0.035706475
18	0xbd91c99d	-0.07118533
19	0xbb3cbdfc	-0.0028799763
20	0xbebdf34d	-0.37099686
21	0x3e73a8ff	0.23794936
22	0xbe111edf	-0.14171933
23	0xbe65e747	-0.22451507
24	0xbe0fbd7a	-0.14037123
25	0x3e3c2d96	0.18376765
26	0x3cfa7057	0.030571146
27	0x3e9c28c1	0.30499843
28	0xbe5a04f2	-0.21290949
29	0x3d53e94f	0.051736172
30	0x3de5c31a	0.11218853
31	0xbe870749	-0.26372746
32	0xbe20618c	-0.15662211
33	0x3e631a1c	0.22177929
34	0xbc7e384e	-0.015516354
35	0x3e9e9022	0.3096934

layers.hidden_1.bias f4 [6]
0	0x3d8e259f	0.069407694
1	0x3e3ee07a	0.18640319
2	0x3e31ea67	0.17374574
3	0x3e172fe8	0.14764369
4	0xbe5b74cf	-0.21431278
5	0x3e846a94	0.25862563

layers.hidden_2.weight f4 [6, 6]
0	0xbcfd3c58	-0.030912563
1	0x3e61e0d6	0.22058424
2	0x3ec7d253	0.39027652
3	0xbe15bde8	-0.14623225
4	0xbea9f4e2	-0.33194643
5	0x3db014bb	0.08597704
6	0x3e90d9e2	0.2829123
7	0xbe15bc78	-0.14622676
8	0xbcb3cb6f	-0.02194759
9	0x3d56eaeb	0.05247013
10	0x3ce87630	0.028376669
11	0xbe03f15e	-0.12885043
12	0xbeac640f	-0.3367009
13	0xbea6ae6a	-0.32554942
14	0x3e79af0a	0.24383178
15	0xbe8fa4c7	-0.28055403
16	0x3e440d4f	0.19145702
17	0xbe3461f6	-0.17615494
18	0x3e1bc4fb	0.15211861
19	0x3ced2d74	0.028952338
20	0xbebb8d9c	-0.36631477
21	0x3e07318e	0.13202497
22	0x3ea3d8f5	0.32001463
23	0x3e8e6b97	0.2781646
24	0x3cd76a5c	0.026295833
25	0x3ed78654	0.42094672
26	0xbe6af1f0	-0.22943854
27	0xbb97fd84	-0.0046383757
28	0xbb56b99c	-0.003276444
29	0x3e1e8ae1	0.15482666
30	0x3e0f6b49	0.1400577
31	0x3e4c408a	0.19946495
32	0xbe56ef65	-0.2098976
33	0xbe9ebfb5	-0.31005636
34	0x3e8d9ce3	0.27658758
35	0xbea9a082	-0.3313027

layers.hidden_2.bias f4 [6]
0	0x3e01a703	0.12661366
1	0xbd730af8	-0.059336632
2	0x3eac788a	0.33685714
3	0xbdea3c95	-0.11437336
4	0x3e611a1a	0.21982613
5	0xbe374b67	-0.17899857

layers.hidden_3.weight f4 [6, 6]
0	0x3ceccafa	0.02890538
1	0xbe0ee4d6	-0.13954481
2	0xbe8d2a16	-0.27571172
3	0xbe347a78	-0.17624843
4	0x3dd0410f	0.10168659
5	0x3ceef094	0.029167451
6	0xbe9406b4	-0.28911364
7	0x3dd3999c	0.10332033
8	0xbd30458b	-0.04303507
9	0x3eaaeb8f	0.33382842
10	0xbe4a5e8a	-0.19762626
11	0x3e1b9292	0.15192631
12	0x3ed815ac	0.42204034
13	0x3d74b079	0.05973861
14	0xbe7a75a2	-0.24458936
15	0x3ed2a918	0.41144633
16	0xbe982b28	-0.29720426
17	0xbe6bbac0	-0.23020458
18	0x3e50c1c7	0.2038642
19	0xbdd8d819	-0.10588092
20	0x3ebdadfa	0.37046796
21	0xbddaa8d5	-0.106767334
22	0x3eccb03f	0.39978215
23	0xbdaa6b94	-0.083213
24	0xbe0a9ecc	-0.13537139
25	0xbe552e7f	-0.20818518
26	0xbe766098	-0.24060285
27	0xbe4f74b7	-0.20259367
28	0xbe9082d7	-0.28224823
29	0xbd44073a	-0.047858454
30	0x3e3252b0	0.17414355
31	0x3e7cd263	0.24689631
32	0xbe800713	-0.25005397
33	0x3cd9cdb6	0.026587348
34	0xbec2ec06	-0.38070697
35	0x3e0fff3c	0.14062208

layers.hidden_3.bias f4 [6]
0	0xbe3aac79	-0.18229856
1	0xbdb588b0	-0.08863962
2	0x3e941106	0.28919238
3	0xbe97f4af	-0.29678866
4	0x3d02bfa6	0.03192105
5	0xbed35f87	-0.4128382

layers.hidden_4.weight f4 [6, 6]
0	0x3e41240c	0.18861407
1	0xbeab8406	-0.33499163
2	0x3d3d6b98	0.046245188
3	0x3e25d2a5	0.16193636
4	0x3d35d95e	0.04439675
5	0x3e37bb39	0.17942514
6	0xbe3b8abb	-0.1831464
7	0xbe34f140	-0.17670155
8	0x3e2e60ed	0.17029162
9	0xbe3b93c8	-0.18318093
10	0x3edb9f80	0.42895126
11	0xbaaeee90	-0.0013346244
12	0xbe6f2d16	-0.23357043
13	0xbebc1b5a	-0.36739618
14	0x3e041b6c	0.12901086
15	0x3e18d8cf	0.14926456
16	0x3d0cec42	0.034405
17	0x3d31ab4f	0.043376263
18	0xbc18f874	-0.00933658
19	0x3d9be650	0.07612288
20	0xbea0a791	-0.31377843
21	0x3e8dc261	0.27687362
22	0x3ea3a314	0.31960356
23	0xbddb05b7	-0.106944494
24	0x3e4f9cf1	0.20274712
25	0xbdc5f3ab	-0.096656166
26	0x3e503cde	0.20335719
27	0x3e4bdfb5	0.19909556
28	0x3dc7213c	0.09723136
29	0xbec2d98a	-0.38056594
30	0xbe2cf605	-0.16890724
31	0xbcdb26e8	-0.02675195
32	0x3eda1ca7	0.42599985
33	0x3e3251a4	0.17413956
34	0x3ea864d3	0.32889423
35	0x3d857724	0.06516865

layers.hidden_4.bias f4 [6]
0	0xbe8b1964	-0.2716781
1	0xbe724715	-0.23659928
2	0x3e86801b	0.26269612
3	0xbdbc640b	-0.09198769
4	0x3e9aad01	0.30210117
5	0xbe06c6c9	-0.13161768

layers.hidden_5.weight f4 [6, 6]
0	0xbc659377	-0.014012209
1	0xbcd0c15a	-0.025482822
2	0x3e348a28	0.17630827
3	0xbebbd901	-0.36688998
4	0x3df054e7	0.11734944
5	0xbe22e689	-0.15908255
6	0xbcd45996	-0.025921624
7	0x3d8a4e34	0.06753197
8	0x3c2f227b	0.010689373
9	0xbd9d3a27	-0.07677107
10	0xbe359938	-0.1773423
11	0xbed36ab3	-0.41292343
12	0xbeb94a35	-0.36189428
13	0xbde0d78e	-0.10978614
14	0xbd9d7c87	-0.07689767
15	0x3e03a0f4	0.12854367
16	0xbe1ca17e	-0.1529598
17	0xbe48ac2e	-0.19596931
18	0xbe7e2ffd	-0.24822994
19	0x3cf8edfc	0.030386917
20	0x3cb48bee	0.02203938
21	0xbe425265	-0.18976744
22	0xbea18fa7	-0.3155491
23	0xbeba1833	-0.36346588
24	0xbd7dbcb3	-0.061947536
25	0xbea1913d	-0.3155612
26	0x3cf98e4d	0.030463362
27	0x3d93f2f6	0.072240755
28	0x3ebe6137	0.37183544
29	0x3ea89bce	0.3293137
30	0xbde0aa16	-0.10969941
31	0x3e9c68d0	0.30548716
32	0xbe49fed7	-0.1972612
33	0xbe0369b9	-0.12833299
34	0xbda057cd	-0.07829247
35	0xbe897cb7	-0.26852962

layers.hidden_5.bias f4 [6]
0	0x3e91c481	0.28470233
1	0x3dfe0ae6	0.124044225
2	0xbe7150b7	-0.23565947
3	0x3ddc8066	0.107666776
4	0x3ecf41a0	0.40479755
5	0x3e649d5e	0.22325656

layers.hidden_6.weight f4 [6, 6]
0	0xbe0fa040	-0.14025974
1	0x3e983fa1	0.29736045
2	0x3e43ea9a	0.19132462
3	0x3dd8d282	0.10587026
4	0x3e7f5f5e	0.24938723
5	0xbe1f4f9a	-0.1555771
6	0xbea3fedf	-0.3203039
7	0x3e467145	0.19379146
8	0x3b884b22	0.004159347
9	0x3e877b47	0.2646124
10	0x3e7c4c74	0.2463854
11	0x3ed6e9bc	0.419752
12	0x3eaf3504	0.34220135
13	0xbebbff2a	-0.36718112
14	0xbe9ccc40	-0.3062458
15	0xbd954e27	-0.07290297
16	0x3dc50778	0.09620565
17	0x3e8259d1	0.2545915
18	0xbeb30108	-0.34961724
19	0x3e5c574d	0.21517678
20	0x3eb02ec8	0.3441069
21	0xbe43ff58	-0.19140375
22	0x3ead8a3a	0.3389452
23	0xbeaa9474	-0.33316386
24	0x3e672abc	0.22574896
25	0x3c4a7b4e	0.0123585
26	0xbea7c423	-0.32766828
27	0x3ebff9d5	0.37495294
28	0xbecabe51	-0.39598325
29	0x3ea747de	0.32672018
30	0xbec988da	-0.39362222
31	0xbe46ed4e	-0.19426462
32	0xbe32ccec	-0.17460984
33	0x3e871bf9	0.2638853
34	0xbe5c6ee3	-0.21526675
35	0x3e802fde	0.2503652

layers.hidden_6.bias f4 [6]
0	0xbcadc002	-0.02120972
1	0x3e11a500	0.14223099
2	0xbe9d3ae3	-0.3070899
3	0xbe1a9647	-0.15096389
4	0xbd946257	-0.07245319
5	0x3e0910df	0.13385342

layers.hidden_7.weight f4 [6, 6]
0	0x3e68085a	0.22659436
1	0xbd7ee0df	-0.062226173
2	0xbe85b366	-0.26113433
3	0x3dca2a4c	0.09871349
4	0xbe3f90d3	-0.1870759
5	0xbeab5284	-0.33461392
6	0xbc19a596	-0.009377858
7	0x3dcc0aae	0.099629745
8	0x3e97d178	0.29652
9	0x3e503303	0.2033196
10	0xbe3b0e77	-0.18267237
11	0xbe9480c1	-0.2900448
12	0xbe333ca2	-0.17503598
13	0xbebf95ba	-0.3741892
14	0xbea35f68	-0.31908727
15	0xbc67f4a2	-0.014157446
16	0x3e2a6741	0.1664095
17	0x3e8b8fbc	0.27258098
18	0xbe187e63	-0.14891963
19	0x3e556d9a	0.20842591
20	0xbeab71d3	-0.33485278
21	0x3d04e47c	0.032444462
22	0xbe828567	-0.25492403
23	0x3d40a9c2	0.047036894
24	0x3e29dfc6	0.16589269
25	0x3e9e6043	0.30932817
26	0xbe5164af	-0.20448564
27	0x3e6b9f7c	0.23010057
28	0xbec1b7cd	-0.3783554
29	0xbeadd6ac	-0.33952844
30	0x3d23c43a	0.039982058
31	0x3da255a7	0.07926493
32	0xbce7cfee	-0.02829739
33	0xbe73d5f9	-0.23812093
34	0x3e811c8d	0.25217095
35	0xbeb86102	-0.3601151

layers.hidden_7.bias f4 [6]
0	0xbeb2d4b3	-0.34927902
1	0x3e90836d	0.2822527
2	0xbe44b38b	-0.19209115
3	0xbec3da6a	-0.38252574
4	0xbde9d8a3	-0.11418273
5	0xbde1aa0c	-0.11018762

layers.hidden_8.weight f4 [6, 6]
0	0x3eaa242d	0.33230725
1	0x3e15b004	0.14617926
2	0xbd27f255	-0.04100259
3	0x3df2f8c5	0.11863855
4	0xbcd9973a	-0.026561368
5	0x3d87ae37	0.06625026
6	0x3e4057d6	0.18783507
7	0xbe4be52d	-0.19911642
8	0x3e9521fd	0.29127494
9	0x3eb2a3d3	0.34890613
10	0xbe1edb3f	-0.15513323
11	0xbeb6c05c	-0.35693634
12	0x3ea45a4d	0.32100144
13	0xbe0824e1	-0.13295318
14	0xbe90b2f8	-0.28261542
15	0xbebcf54a	-0.3690589
16	0x3dc7c08a	0.09753521
17	0x3df6d524	0.12052372
18	0xbeba03d3	-0.36331043
19	0x3e1e884a	0.15481678
20	0xbe95b77f	-0.2924156
21	0xbe3def1f	-0.18548249
22	0x3e26b25e	0.16278979
23	0xbea16f77	-0.31530353
24	0x3e762afe	0.24039838
25	0x3e6c93a9	0.23103203
26	0xbe15659c	-0.14589542
27	0xbecf44de	-0.4048223
28	0x3c09c15c	0.008407917
29	0x3e81bcfb	0.25339493
30	0xbe975556	-0.29557294
31	0xbed2b588	-0.41154122
32	0xbcc89860	-0.02448672
33	0xbe6512b7	-0.2237042
34	0xbe3b6747	-0.18301116
35	0x3e66c8e5	0.22537573

layers.hidden_8.bias f4 [6]
0	0x3da1d41d	0.079017855
1	0x3e58aa94	0.2115882
2	0xbe4d3650	-0.2004025
3	0x3eaf69f9	0.34260538
4	0xbcd6686d	-0.026172841
5	0x3e1cd355	0.15314992

layers.hidden_9.weight f4 [6, 6]
0	0xbe294f63	-0.1653419
1	0xbe8e4413	-0.27786312
2	0xbec3f939	-0.3827608
3	0x3e9499f4	0.29023707
4	0x3e43e3ed	0.19129916
5	0x3e2d9df9	0.16954793
6	0x3ec70f6a	0.38878947
7	0x3eb18211	0.34669545
8	0xbc5a13af	-0.013310357
9	0xbec96001	-0.39331058
10	0xbe69f263	-0.2284637
11	0x3eb5aac5	0.3548185
12	0xbe856624	-0.2605449
13	0x3eab221c	0.3342446
14	0x3e63f7e4	0.22262532
15	0x3e8feb3f	0.28109166
16	0xbebce347	-0.3689215
17	0x3e879efb	0.2648848
18	0x3eb2e18a	0.34937698
19	0xbe01d457	-0.12678657
20	0xbda274a1	-0.079324014
21	0xbeb069ef	-0.3445582
22	0x3e06137a	0.13093367
23	0x3e4f886b	0.20266883
24	0x3eb80811	0.35943654
25	0xbc582234	-0.013191748
26	0xbec6b994	-0.3881346
27	0xbe422b1d	-0.18961759
28	0xbdec0e58	-0.11526173
29	0x3e110fdb	0.14166205
30	0xbd0fedf6	-0.035139047
31	0xbeb40dae	-0.35166687
32	0xbe307165	-0.17230757
33	0xbcf4c362	-0.029878322
34	0xbde2a5ad	-0.110667564
35	0x3dfdfb60	0.124014616

layers.hidden_9.bias f4 [6]
0	0x3eb57b52	0.35445648
1	0x3e44affe	0.1920776
2	0xbe3a5edd	-0.1820025
3	0xbdd46488	-0.10370737
4	0x3ed0ef8b	0.40807757
5	0xbebd31a2	-0.3695193

layers.output.weight f4 [1, 6]
0	0x3d861d8c	0.06548604
1	0xbe0979b9	-0.1342534
2	0xbe7be2b3	-0.24598198
3	0xbe4b826b	-0.1987397
4	0x3e067084	0.13128859
5	0xbe2682fd	-0.16260906
