PINNS/HeatEq/models/checkpoints_Adam/Gen_3_Loss_0.075159125.pt (torch, 62483 bytes, 43 tensors)

layers.input.weight f4 [20, 2]
000000 c7 b8 3d 3f 44 9f 8e 3e c1 df 39 bf 4a 05 a2 be
       0.7411007 0.27855885 -0.72607046 -0.3164466
000010 e4 31 90 bf 52 33 73 3e 98 e3 03 bf 96 80 4c 3f
       -1.1265225 0.23750046 -0.51519156 0.79883707
000020 2b 66 d2 be 4c bb 21 bf 71 70 cd 3e 26 aa 08 bf
       -0.41093573 -0.6317642 0.40124848 -0.53384626
000030 4f 36 56 bf d0 49 8a 3e 2f e0 59 bf 65 08 5b 3e
       -0.8367662 0.2700944 -0.851077 0.21389921
000040 12 a4 13 bf 62 41 67 bd df 3a 80 bf a1 6d 87 3e
       -0.57672226 -0.05645884 -1.0017966 0.26450828
000050 70 a1 18 3f da 51 17 bf 54 73 6f bf ea bb 05 3e
       0.59621334 -0.5910927 -0.9353535 0.13059965
000060 35 3f 25 bf b8 5a 15 bf 02 ff 19 bf 81 e1 bc be
       -0.6454957 -0.5834155 -0.60154736 -0.36890796
000070 d7 66 05 3f a4 2c 13 3e fe 75 94 3f 5c 72 48 3e
       0.52110046 0.14372498 1.1598508 0.19574875
000080 c6 7c 39 bf 0c 19 f4 bd 5a 99 5a bf 80 01 c2 bd
       -0.72456014 -0.1191884 -0.85390246 -0.09472942
000090 8f 84 ee 3d 35 5d 21 3f ad d7 76 bf 75 77 99 be
       0.11646377 0.6303285 -0.96422845 -0.2997395

layers.input.bias f4 [20]
000000 d7 42 f3 3e 67 db bf be 64 0f 05 3d 34 9f b6 3d
       0.47511932 -0.37472078 0.03248538 0.08917084
000010 1c f6 2b be 9d b5 d5 3e ca 02 a1 3e 56 ef 15 3f
       -0.16793102 0.41740122 0.3144744 0.5856832
000020 6c 8e b5 3d 5b d4 c1 be 88 46 0b 3c 95 67 02 3f
       0.088650554 -0.37857327 0.008500703 0.50939304
000030 46 f1 98 3e 0f bd 07 be 1b c3 a7 3e 26 7e 61 be
       0.29871577 -0.13255714 0.3276604 -0.22020778
000040 f3 e9 d9 bd 32 3f 4f bc fe d5 72 bd db 7a ba be
       -0.106403254 -0.012649344 -0.05928611 -0.36421856

layers.hidden_0.weight f4 [20, 20]
000000 09 24 e3 bd 94 a8 32 bd 8b 3d 75 3e 7c 09 a3 ba
       -0.110908575 -0.0436178 0.23949258 -0.001243874
000010 3b d2 8f bd 0b 64 03 3e 5f 1d 6f 3e 44 9e c4 3d
       -0.0702252 0.12831132 0.23351048 0.09600499
000020 9d c3 06 3d 34 a1 a1 3e a0 66 e3 bd 77 bf ca bd
       0.032901395 0.315683 -0.111035585 -0.098998
000030 a7 54 fe 3d be 3d 10 be de ea 3a be 53 2b 88 be
       0.1241849 -0.14086053 -0.18253657 -0.26595554
000040 12 60 c5 bd d9 99 41 3c ac 16 3c be c6 99 81 3d
       -0.096374646 0.011816465 -0.18368024 0.06328158
000050 b6 3b 22 3e 21 24 60 be ca fa c7 bd 56 a4 92 bd
       0.1584309 -0.21888782 -0.09764631 -0.07160251
000060 f2 4a 2b 3e f1 02 33 bd e1 db 6b be 75 f2 d3 bd
       0.16727808 -0.043703977 -0.23033096 -0.103489794
000070 27 36 cb 3c 28 78 fc 3d cf a5 f8 3d 45 1c cb 3c
       0.024806095 0.123276055 0.121410005 0.024793753
000080 cd 7e 34 be e0 11 e7 bd 8b 52 5e 3e 35 04 f7 bd
       -0.17626496 -0.11282706 0.21711175 -0.12061349
000090 ee b9 a0 bc b7 b2 1a be 7d d4 a4 bd 06 a9 08 be
       -0.019619908 -0.15107237 -0.080483414 -0.13345727
0000a0 6a 52 71 bd 92 4e 28 bd 16 3f 7c 3b 25 20 09 be
       -0.058916487 -0.041090555 0.003848975 -0.13391168
0000b0 7b 1b 87 bd 57 30 96 bd f7 70 01 3e e2 e3 04 be
       -0.06597038 -0.07333439 0.12640749 -0.12977555
0000c0 79 48 7d 3e 8e 7e 87 3e b0 30 d5 bb ae 3b ba bd
       0.24734677 0.2646374 -0.006506048 -0.09093414
0000d0 64 b2 ab bc 4f e3 0b bc 1a 0d 52 3d 07 7a 87 3d
       -0.020959087 -0.008538081 0.051282026 0.06615072
0000e0 e7 88 0a 3e e4 08 65 3e ea 61 37 3e c4 e7 74 3e
       0.13528787 0.22366673 0.17908445 0.23916537
0000f0 69 73 34 3c e6 1f 78 3d b2 d5 84 3e 7c b0 f4 bb
       0.011013844 0.060577296 0.25944287 -0.0074673276
000100 27 31 1b be 95 fb cb bd 26 71 89 bd 49 65 1f 3e
       -0.15155469 -0.09960095 -0.067110345 0.15565981
000110 0f 10 80 3e e2 78 3a 3e a6 76 99 ba ec b7 8b 3e
       0.25012252 0.18210176 -0.0011708334 0.2728876
000120 9e 19 06 3e 40 32 e8 3d be 10 25 bc 83 96 a7 be
       0.1309571 0.113377094 -0.010074792 -0.3273202
000130 4b 77 c6 3d b6 55 5d 3e 16 65 0f 3d bf d6 5d 3d
       0.09690722 0.21614727 0.035008512 0.054159876
000140 49 7c c8 3b 6c 62 6b bc 9d bf 66 3e 0f ca c0 bd
       0.0061183316 -0.014366727 0.22534032 -0.094135396
000150 6c 47 30 be d4 c0 a2 bd 56 87 6e 3d 8b e4 78 bd
       -0.17214745 -0.07946935 0.058234535 -0.06076483
000160 1e c6 48 3e 7c ad ab 3c 8f 8f a2 bd d7 8a 28 3e
       0.19606826 0.020956747 -0.07937538 0.16459213
000170 81 bf 0e bd 45 18 9a 3d 1d 24 15 be aa c4 24 be
       -0.0348506 0.0752416 -0.14564557 -0.16090646
000180 5c 7f 49 3e 62 a1 95 3e be 3f 25 3e f5 0f 80 3e
       0.1967749 0.29224688 0.16137597 0.25012174
000190 79 d4 01 3e 0a a9 39 3e 78 0d c6 bd 21 8a d3 bd
       0.12678708 0.1813089 -0.09670538 -0.103290804
0001a0 ef 1f bb 3c 7d 6c 65 be 10 1c 26 3e 08 7d 8f 3d
       0.022842376 -0.22404666 0.16221642 0.0700627
0001b0 d3 56 c6 bc e9 97 eb bd 49 86 c3 3d f4 89 b8 bd
       -0.024211323 -0.11503584 0.09547097 -0.090106875
0001c0 8e bf e6 bc 34 17 7f 3e 09 9d a6 3c c6 a3 37 bd
       -0.028167512 0.24911195 0.020338552 -0.04483392
0001d0 2a 38 9c 3d 85 0b 84 3e a8 6d b5 3c bf c8 89 bd
       0.076279 0.2579004 0.022147015 -0.067277424
0001e0 95 d1 24 be 31 d7 da bd e0 03 d9 bd 70 67 4a be
       -0.16095574 -0.10685576 -0.10596442 -0.19766021
0001f0 da a2 c9 3d 19 30 8d bd 7c de 87 3d d1 76 ff bc
       0.098455146 -0.068939395 0.066342324 -0.031184586
000200 98 17 af bb e4 e8 4a be 40 6f bf bd 0e 29 4d be
       -0.0053433888 -0.19815403 -0.09347391 -0.20035192
000210 d5 ef bf bc f1 dc 2c be 04 c8 d5 bd 38 3d 33 3e
       -0.02342979 -0.16881157 -0.104385406 0.17503822
000220 0c 06 44 3d 01 fb 32 be 5c 73 99 3d c1 fa 34 bd
       0.04785733 -0.17478563 0.07492706 -0.04418445
000230 3c 1c d3 3d 41 14 2b be c7 d7 2c be 4b ab 15 3d
       0.1030812 -0.16706945 -0.16879188 0.03654031
000240 1d be 4c be 43 6a 47 3e a9 1a aa 3c 48 77 a7 3c
       -0.19994397 0.1947413 0.020764666 0.02044262
000250 bc 89 0b 3e 0a 50 98 bd 5d 3c 46 3e db 1e b1 3a
       0.1362676 -0.07437141 0.19358964 0.0013513224
000260 dd e3 4d bd e2 0c 85 3c 2c 75 30 be 0e e4 e6 bd
       -0.050266135 0.016241495 -0.17232198 -0.11273967
000270 6c 90 46 be 32 be ea bc 0e eb 53 be c2 6d 44 3d
       -0.1939103 -0.028655145 -0.20695135 0.047956236
000280 5a 19 35 bd 9b 25 dd 3d 8f 53 3e bc 00 96 56 be
       -0.04421363 0.10798188 -0.011616602 -0.20955658
000290 80 f4 91 bd 94 13 f9 3c 7b ab 89 bd c9 57 4a 3d
       -0.07126713 0.030404843 -0.067221604 0.049400125
0002a0 3d 83 63 be 2c 90 f8 3d c6 49 11 3e 8c a9 0c 3e
       -0.22218032 0.121368736 0.14188299 0.13736552
0002b0 79 4d 29 3e f8 c4 74 3c 01 cb 3b 3d 83 65 60 3e
       0.1653346 0.014939539 0.045847896 0.21913724
0002c0 ca cb 9f bd f1 89 8a be 4c 1c 1d bd 38 72 87 3d
       -0.078025416 -0.27058366 -0.038357064 0.066135824
0002d0 d3 0e a3 3d c8 e0 03 be 16 92 88 3e fc 24 9f bd
       0.07961812 -0.12878716 0.26673955 -0.07770726
0002e0 08 14 38 be ba e4 6d bc 36 ff 1b be 4b 75 c4 3d
       -0.17976391 -0.014519865 -0.15234074 0.09592684
0002f0 98 8d d5 bd 6c f6 33 bd f0 02 b9 3d d4 e6 c6 3d
       -0.104273975 -0.043936178 0.090337634 0.09711996
000300 31 54 c1 3d 2c 7c 40 3e 13 c9 1d be 0a 3d 5a be
       0.09439886 0.18797368 -0.15408735 -0.21312347
000310 78 79 77 3e 60 6a 7c 3e a5 33 27 3e 40 8a 32 3e
       0.2416743 0.24649954 0.16328295 0.1743555
000320 2b e6 cc 3d 41 b1 7a 3d 4f d3 78 be 85 e1 12 3e
       0.100048386 0.0612042 -0.24299358 0.14343841
000330 08 dc 1e be 33 5c 82 3e 3a 7e 70 be f2 10 1d 3e
       -0.15513623 0.25460967 -0.23485652 0.15338495
000340 0a 15 4b be d6 ac 82 3d 4c 3b 1a 3c aa a7 9b 3d
       -0.19832245 0.06380622 0.009413552 0.07600339
000350 4f 24 33 3e 0d 67 29 bd f6 a2 bc 3d db 13 65 3e
       0.1749432 -0.041358043 0.0921077 0.22370856
000360 9f bb b8 bd 03 8f 60 3d eb b6 30 3e 73 0a 03 be
       -0.09020161 0.054823887 0.17257278 -0.12796955
000370 4f b7 aa bc 86 51 10 be 60 c2 39 be 40 51 63 3e
       -0.020839361 -0.14093599 -0.18140554 0.22198963
000380 27 ff 21 3e 18 8b 82 3e 1e 62 1d 3e c8 68 1d be
       0.15819989 0.25496745 0.1536946 -0.15372002
000390 73 94 8d be f1 fe d2 bd e7 45 44 3e 3c 5c 6c be
       -0.2765232 -0.103025325 0.1916729 -0.2308206
0003a0 a3 77 21 be ef 9f 85 bc 6c 95 02 3e a7 e1 59 3d
       -0.15768294 -0.016311614 0.12752312 0.053193714
0003b0 00 a5 2a be 45 9d d2 bd b7 aa 36 3e 03 7a 35 3e
       -0.16664505 -0.10283903 0.1783856 0.17722325
0003c0 7e a2 2c bd 07 b0 82 bd 45 0a 36 3e 58 0a 01 be
       -0.042147152 -0.06381231 0.17777355 -0.12601602
0003d0 76 95 f2 3c 6b f0 75 be 92 96 2a 3e b1 3b 09 3e
       0.029612284 -0.24017493 0.16659 0.13401677
0003e0 e1 e4 87 bd 5d 1c d1 3d 80 fd 15 3e b8 fa 35 3e
       -0.06635452 0.10210488 0.14647484 0.17771423
0003f0 68 ff 82 3e 7c a3 e2 bd ce 99 27 3e 04 4c 85 3d
       0.25585485 -0.110663384 0.16367266 0.065086395

layers.hidden_0.bias f4 [20]
000000 68 ba 14 3e bf b6 f7 bd 3e ee ba 3d 75 53 dc bc
       0.14524233 -0.12095403 0.09127472 -0.026895264
000010 98 4e 9f 3d 91 e9 1d be d3 73 0e 3e b4 b3 3a 3d
       0.077786624 -0.1542113 0.13911371 0.045581535
000020 c8 1f 48 be 95 b8 19 3e 45 e0 1f bd 56 d3 f6 3d
       -0.19543374 0.15011819 -0.03903224 0.12052028
000030 5a 46 c7 3d 34 73 33 bd 6d 4c 63 3d 6f 9f 93 3d
       0.09730215 -0.043811038 0.055492807 0.07208144
000040 0c 4d 33 bd 31 4f 5c 3a db 80 14 bd 70 c2 69 be
       -0.04377465 0.00084041344 -0.0362557 -0.22828078

layers.hidden_1.weight f4 [20, 20]
000000 8f 0d f8 bc 0a 7f 09 bc b1 b3 50 3e 9d 60 df 3a
       -0.030279903 -0.008392105 0.20381047 0.0017042343
000010 8b 1c d6 3d a7 b7 df 3b 8f 52 8b bc 33 25 24 ba
       0.10454663 0.006827313 -0.01700714 -0.00062616466
000020 cb a2 f5 3d 25 57 c3 bd 20 3d e9 bd 50 c0 ad bd
       0.11993941 -0.09538106 -0.11388612 -0.08483946
000030 1a f7 0e be 42 26 70 be c7 45 95 bc e1 72 98 be
       -0.1396145 -0.23452094 -0.018221749 -0.29775146
000040 2a 34 6f 3e f1 75 31 be 3c 9e 04 3e c8 61 0a 3e
       0.23359743 -0.17330147 0.12950987 0.13513863
000050 8b 98 92 be 42 bf 07 3d fd 90 15 bd 26 6f db 3d
       -0.28632006 0.033141382 -0.036515225 0.10714559
000060 ad 03 8c be 38 e2 0d 3d 5e d0 d0 bd 27 29 4d bd
       -0.27346554 0.034639567 -0.10195993 -0.050088074
000070 2d e0 84 bd 85 9f 22 bd 1d f3 10 3e ad 09 a1 3e
       -0.06488071 -0.03970291 0.1415524 0.31452695
000080 13 2b c1 bc fa 09 93 3c 76 05 3e bd 35 1b 22 3c
       -0.02358011 0.017949093 -0.046391927 0.009894182
000090 1a 2c 4d 3d 0b 85 21 3e 2a 64 35 3d e3 03 88 bd
       0.050090887 0.15773408 0.044284977 -0.06641366
0000a0 c1 a3 65 be 7a 0d 22 be c9 ab 61 be 07 25 6d be
       -0.22425748 -0.15825453 -0.22038187 -0.23158656
0000b0 78 67 04 bd 88 93 2a bc 0b 98 68 3e 8f 0a 42 bc
       -0.032325238 -0.010411151 0.2271425 -0.011843338
0000c0 01 52 ae 3d ce 34 6f be 7f e1 87 bd 8e 59 99 3d
       0.08511735 -0.23359987 -0.06634807 0.07487784
0000d0 c0 20 26 be 42 9a 1f 3c 4b 09 ce bd a2 f1 04 be
       -0.1622343 0.009741368 -0.10060366 -0.129828
0000e0 9f 08 73 bd 46 12 64 3e 3b ac f3 bd 44 42 89 3d
       -0.059334394 0.22272596 -0.11898085 0.06702092
0000f0 3c 9e 56 be ab a6 01 bc 4d 34 7b 3d 31 9b 87 be
       -0.20958799 -0.007913272 0.061329175 -0.2648559
000100 d5 68 26 3e f2 ef 28 3e f7 b7 b1 bd 59 b2 e9 bd
       0.16250928 0.16497782 -0.08677667 -0.1141097
000110 7e 86 a1 3d 33 db f4 bd 60 c0 3b be 87 cb af bd
       0.078869805 -0.119558714 -0.18335104 -0.08583742
000120 8b 7a f1 3d 22 62 66 be 74 15 05 3e c6 07 b2 bd
       0.11790951 -0.22498372 0.12996465 -0.08692889
000130 35 8f 11 3e 8b 7a 6a 3e cd 6e ab bd c5 21 7c 3e
       0.14214785 0.22898309 -0.08370743 0.24622257
000140 f1 8c b1 be b6 2d 86 3e ec b5 0e 3e 2a 24 a2 be
       -0.34677842 0.2620675 0.13936585 -0.31668216
000150 b7 74 93 be 72 f8 ef 3d 1c ac 98 3e 8f 4a f6 bd
       -0.28799984 0.11717309 0.2981881 -0.1202594
000160 3b af a0 3d 39 21 02 bd 11 dc 1b bb e8 0e 01 3d
       0.078459226 -0.031769965 -0.0023782293 0.031508356
000170 7e ff e0 bd 31 e4 75 be db 21 9d 3d d9 9a dc 3d
       -0.10986231 -0.2401283 0.07672473 0.10771722
000180 f9 61 a6 bb 28 e4 9c 3d df ef 19 3d d4 2f 87 3e
       -0.005077597 0.07660705 0.037582275 0.26403677
000190 df 88 b8 be f0 77 75 3d b5 63 70 3d 47 11 bc bd
       -0.36041924 0.059928834 0.058688838 -0.09182983
0001a0 2c 80 2c be 2c 73 29 3e 4b 20 6d 3d 0e cb a9 bd
       -0.16845769 0.16547841 0.057892125 -0.08290683
0001b0 e0 e5 f0 3c 91 a5 11 be a4 4d 02 3e cb 24 aa bd
       0.029406488 -0.14223315 0.1272493 -0.08307799
0001c0 a4 7f 6f be 89 ea 8e bd 29 36 01 3e 4e 79 cc 3d
       -0.23388535 -0.06978328 0.12618317 0.099840745
0001d0 1b 54 16 be c8 6b 07 3e b8 48 2e 3e b5 73 83 3e
       -0.14680521 0.13224709 0.17019928 0.25674215
0001e0 52 f3 0c be ed d3 27 3e 8e 3e df bd 14 73 16 be
       -0.13764694 0.16389437 -0.10900603 -0.14692336
0001f0 49 28 ab 3d 7d 97 16 be 7c 0c c5 3e 12 f8 36 3e
       0.08357293 -0.14706226 0.38486087 0.17868069
000200 77 a1 c2 3d e2 d3 95 be d3 ad bd bd 5d 03 87 3c
       0.09503453 -0.29263216 -0.0926167 0.016481096
000210 31 24 b4 bc ab ba 09 be 81 cc d7 bd 57 83 a4 3e
       -0.021989914 -0.13450114 -0.10537053 0.32131454
000220 05 c2 72 be 98 a1 1e be 73 5f 81 3e 75 c9 86 3e
       -0.23706825 -0.1549133 0.25268134 0.26325575
000230 6d 88 d2 bd 11 ad 31 3e a5 97 e7 bd 2c cb 93 3e
       -0.102799274 0.17351176 -0.11308221 0.28865945
000240 03 75 05 3e df 30 1d 3e 20 49 e4 bd 4c e8 a4 3d
       0.13032918 0.15350674 -0.1114676 0.080521196
000250 ea cc 2a 3e f5 fe a1 bd bc 84 c4 3b 24 57 74 3d
       0.16679731 -0.07909957 0.0059972685 0.059653416
000260 20 7c 9f 3c e0 96 37 be 9a 48 72 3b 9d 23 f4 ba
       0.019468367 -0.17928648 0.0036969543 -0.0018626336
000270 0d b2 46 3e d5 60 63 3d 7b 92 42 be 5d 18 22 be
       0.19403858 0.055512268 -0.1900119 -0.15829606
000280 ba a2 e3 3c 12 64 1b 3e 3f 12 13 3e e8 d8 39 3e
       0.027787555 0.15174893 0.14362429 0.1814915
000290 71 d4 99 3e f2 85 98 bc c2 3c 90 be 3f 1c c2 bd
       0.30044892 -0.018618558 -0.28171355 -0.09478044
0002a0 97 b8 8b 3d d8 30 3a 3d 4a 54 3e be 1d 89 a5 be
       0.06822317 0.045456737 -0.18586841 -0.32331172
0002b0 98 a9 c7 bc a4 d7 cc 3d 7d 1c 9f 3b af 8a 85 bb
       -0.02437286 0.10002068 0.004855691 -0.0040753703
0002c0 9b b6 24 3d 09 d5 24 3e 46 cf 0a be 30 a0 78 bd
       0.04021321 0.16096891 -0.13555631 -0.06069964
0002d0 fa 19 42 3e 7b d5 43 be c8 a6 c3 bd fa e4 49 3e
       0.18955222 -0.19124405 -0.095532954 0.19716254
0002e0 ad 56 14 be 08 53 0a be 67 64 22 3d e5 4a be 3d
       -0.14486189 -0.13508236 0.039646532 0.09291629
0002f0 f2 04 45 be 12 76 45 bd 59 29 11 3d 7c 5c 8f be
       -0.19240168 -0.048208304 0.035439823 -0.28000247
000300 92 ee 71 3e 17 84 24 3d c3 ab 1a be 07 47 88 be
       0.23626164 0.040165033 -0.15104584 -0.2661669
000310 11 ad bb bd b8 b3 48 3e 3c 26 02 3e 68 80 1c be
       -0.09163869 0.19599807 0.12709898 -0.15283358
000320 a1 f9 3d 3d d5 b6 c7 bd 08 8e 17 3e c5 44 73 3e
       0.046380643 -0.09751669 0.14800274 0.23756702
000330 c9 a7 38 bd db 35 13 3d 1d 21 66 be e5 93 1e be
       -0.045081887 0.035940032 -0.22473569 -0.15486105
000340 36 f1 60 be 68 a1 05 be f3 7b 64 3c a0 8b 5d be
       -0.21967015 -0.13049853 0.013945567 -0.21635294
000350 c7 ad b1 bd f0 c2 08 be 25 bc 69 be 1b d0 1a be
       -0.086757235 -0.13355613 -0.22825678 -0.15118448
000360 07 02 8d 3e 68 82 fc bc d1 f9 33 be 28 b1 78 be
       0.2754061 -0.030823901 -0.17575766 -0.2428633
000370 cc 6f 68 3d 6d 7b 96 3d 23 81 7b bd b3 4f b2 be
       0.056747243 0.0734776 -0.06140245 -0.3482643
000380 4a 82 b8 3d 3f 6b 39 3e fc e6 ea 3e 5e 9b b2 bd
       0.09009226 0.18107317 0.45879352 -0.0872104
000390 cc 9c 0d 3e 49 6a 61 be 90 2d 75 be af 26 fd bd
       0.13829345 -0.22013201 -0.23943162 -0.12360894
0003a0 f4 6f a3 3c 71 36 7d 3d 8f 05 be 3d 0b 99 ae bd
       0.019950844 0.061819497 0.09278404 -0.085252844
0003b0 16 fd a8 be 54 70 30 be 0b 2e 5f bc 5d 92 ef bd
       -0.3300559 -0.1723035 -0.013621817 -0.116978385
0003c0 da b2 ca bd 06 fc 39 3d 80 61 03 3e 60 bd ab bd
       -0.098973945 0.045406364 0.12830162 -0.0838573
0003d0 51 4b 25 3e 8c df 42 3e f6 bd f8 3c 35 60 12 bd
       0.16142012 0.19030589 0.030364018 -0.03573628
0003e0 4a 21 81 3e 11 2f 29 bd 55 db 05 be 55 77 a7 3c
       0.2522071 -0.04130465 -0.1307195 0.020442644
0003f0 bf 8f 42 3e 3c 11 23 bc ca dd ee 3d c3 1d a7 bd
       0.19000147 -0.009952839 0.11663397 -0.081599735

layers.hidden_1.bias f4 [20]
000000 c8 f6 ef bd 0c bf 3a 3e d0 d8 23 3e cb 0a 60 be
       -0.11716992 0.18236941 0.16000676 -0.21879117
000010 ba 2e cb ba b9 f5 2d 3e 99 cb 25 bd cf 32 d9 bd
       -0.0015501596 0.16988267 -0.04047737 -0.10605394
000020 a0 de 54 bc df c1 40 3e 78 36 e8 3b 43 ff ed 3d
       -0.012992531 0.18823956 0.0070865713 0.11620953
000030 b3 cb 51 3d d5 20 d3 3d 01 75 a1 bd ae b1 27 bd
       0.051219653 0.103089966 -0.07883645 -0.040940933
000040 9a 83 18 be 30 3f 2c 3d 6a f7 5f 3d cf 74 19 3e
       -0.14893952 0.042052448 0.05467931 0.14985965

layers.hidden_2.weight f4 [20, 20]
000000 5a 98 06 be 77 db 7f 3e 35 b0 87 3e 2c c8 4b be
       -0.13144055 0.24986063 0.26501623 -0.19900578
000010 49 78 e4 bd cf a9 c8 3c be df b3 3d c3 3e 04 bc
       -0.11155755 0.024495034 0.0878291 -0.008071604
000020 3d 6f d4 3d cc 15 05 bc 13 cf de bd 0c 80 69 be
       0.103727795 -0.008122873 -0.1087934 -0.22802752
000030 85 68 16 be f8 5d 9c 3c 21 77 84 bc 68 6e 27 be
       -0.14688309 0.019087777 -0.016170086 -0.1635071
000040 74 78 5d 3e 48 34 04 be a1 af 03 be 86 2e 22 3e
       0.2162798 -0.12910569 -0.12859966 0.1583806
000050 86 a3 42 be fe 64 f9 bd c7 fe 80 bd 73 bd 00 3d
       -0.19007692 -0.12177466 -0.06298595 0.031430673
000060 ba fa 90 be a9 70 6b 3c 5b 65 3f be ec ce fc 3d
       -0.2831629 0.014370122 -0.18691008 0.12344155
000070 c5 58 69 3e 2a f0 12 be 82 fd 43 3d 6e ec c1 bd
       0.22787769 -0.14349428 0.047849186 -0.094689235
000080 73 39 3e 3d f9 d7 0d 3d 40 cb 0e be ab cc df bc
       0.046441507 0.034629796 -0.13944721 -0.027319273
000090 74 0d 33 3e ee 94 15 be 10 0e bd be 27 53 eb 3d
       0.174856 -0.14607593 -0.3692479 0.114904694
0000a0 07 ce 3c b9 ad 58 d3 bc 4d ba 79 bd e5 df ea bd
       -0.00018005828 -0.02579912 -0.060968686 -0.11468486
0000b0 68 f6 86 3d 20 7d 1e 3e 93 18 29 3e 29 2c c5 bd
       0.06589967 0.15477419 0.1651328 -0.096275635
0000c0 2e 7d b6 bd df 1a 84 3c 01 6b d8 3c f2 40 be bd
       -0.08910595 0.016126094 0.026418211 -0.09289731
0000d0 21 35 01 3e 61 9e 2d be 2f c0 13 be ad d3 7c bd
       0.12617923 -0.16954948 -0.14428781 -0.061725307
0000e0 41 55 6a 3e b3 65 5e 3d 95 f9 82 3e a8 84 8f bd
       0.22884084 0.054296207 0.2558104 -0.07007724
0000f0 6a 81 1e 3d 45 36 47 3d f9 0b 2a be 08 f8 36 3e
       0.038697638 0.04863574 -0.1660613 0.17868054
000100 5b 99 39 be 33 ed 1b be d7 ac 73 be d1 6c e7 bd
       -0.18124907 -0.15227203 -0.23796402 -0.11300052
000110 63 cd 94 3e 7a 65 38 3e b5 10 0c 3e ae 7d d1 3d
       0.29062948 0.1800746 0.13678248 0.102290496
000120 1a 36 9e 3d fe 00 15 be 23 59 4a 3e 08 17 08 bd
       0.07725163 -0.1455116 0.19760565 -0.03322509
000130 17 ea 95 bd ea 24 b1 bd af 49 5e 3c 97 b3 32 be
       -0.0732004 -0.08649619 0.013567372 -0.1745132
000140 eb 28 da 3c 04 6c 9f bd 3e 60 f3 3d c9 bd 9b 3d
       0.02663084 -0.07784274 0.11883591 0.07604558
000150 13 a0 84 bd 88 72 64 3c 78 ef 7e 3e 5a b1 3f be
       -0.06475844 0.013943322 0.24896038 -0.18719998
000160 0b 97 5e be 86 94 39 be b4 f7 8d be 3d 1e 15 be
       -0.21737306 -0.18123063 -0.27728045 -0.14562316
000170 ce 2e 3e 3e 04 e3 62 3d 9e 97 5f 3d fc 8c 78 bd
       0.18572542 0.05539228 0.054587953 -0.06068133
000180 c5 f2 8c bd 00 a0 b2 3d 29 be 2a 3e 39 c9 7b bc
       -0.06882242 0.08721924 0.16674103 -0.015367799
000190 51 73 a0 3d 9e 07 77 3c de 3a 8e 3d 59 bc 09 bd
       0.07834495 0.0150775 0.06944822 -0.033626888
0001a0 e1 f7 8b 3e ab a5 4e 3e e5 7b 60 3e e0 67 26 3c
       0.27337554 0.20180385 0.21922262 0.010156602
0001b0 7b 56 66 be 57 d0 21 bd c1 cc 6f bd 72 7d 5e 3e
       -0.22493927 -0.03950533 -0.058544878 0.21727541
0001c0 7b 4a 40 be 57 7b 97 3d 1f 39 55 be bd 32 a9 bd
       -0.18778412 0.07396572 -0.20822571 -0.08261631
0001d0 80 85 83 3d 27 eb 9e 3c a8 d2 64 3e f8 12 ea 3d
       0.064219475 0.019399239 0.22345984 0.11429399
0001e0 e6 35 3b bb 8e ff 49 be 2a cf 03 3b 55 9f da bd
       -0.0028566062 -0.19726393 0.0020112493 -0.106749214
0001f0 5e 70 3a 3e 41 75 40 3e de c2 cc 3d ca d0 15 be
       0.18206927 0.18794729 0.099981055 -0.14630428
000200 77 65 0e be 97 4e d5 3d f1 2f fc 3d cd 19 fd 3d
       -0.13905893 0.104153804 0.123138316 0.12358437
000210 a4 22 d1 3d 68 cf bd 3d 80 82 36 be a5 01 f0 3c
       0.10211685 0.09268075 -0.1782322 0.02929766
000220 c4 fb 9f 3c 4a 73 17 be e0 10 5a bd c3 c6 9f 3c
       0.01952923 -0.14790073 -0.05323875 0.019503957
000230 b1 d5 62 3e f1 e7 2f 3e 88 6f 02 be 47 6e c5 bd
       0.2215183 0.17178322 -0.12737858 -0.09640174
000240 78 22 f4 3d 66 de 43 3e 48 27 69 3c 4a 2f 12 3e
       0.11920637 0.19127807 0.014230557 0.14275852
000250 1b 5a a9 3d 81 1d ca bd 69 0c 0b 3d d9 52 10 3e
       0.082691394 -0.09868909 0.033947382 0.14094104
000260 fa 73 2c 3e c8 83 cb 3d ca 93 66 3e b9 e0 36 3e
       0.16841117 0.09937245 0.22517315 0.17859162
000270 01 5e 64 bd 7d c1 ed bd f2 6b 0b bd 00 14 a9 ba
       -0.05575371 -0.116091706 -0.03403849 -0.0012899637
000280 5d 53 bd 3d eb 4f 04 bd cc 81 87 3d 5b d6 55 be
       0.09244416 -0.03230278 0.06616554 -0.20882551
000290 d2 22 8c be ae 4f 8a be a9 2c 74 be 05 cf 7f 3e
       -0.27370316 -0.27013916 -0.23845161 0.24981315
0002a0 56 09 67 3e ea ef 76 bc 9e 8f a7 3d 0d 2a 6f be
       0.22562155 -0.015071848 0.0818169 -0.23355885
0002b0 f4 1e f1 3d 18 35 43 bd e7 dd dd 3d 3c 3b f3 3d
       0.11773482 -0.047658056 0.1083334 0.118765324
0002c0 03 90 66 be 19 a4 d2 bd d0 64 2f be 9e 39 69 bd
       -0.22515874 -0.102852054 -0.171283 -0.056939714
0002d0 46 12 fb 3d 6e 40 81 3d a0 a8 63 3d cd ff 26 39
       0.12259345 0.06311117 0.055580735 0.00015926287
0002e0 de f7 04 3e 98 8b b9 3c 53 73 d9 bd 65 25 db 3c
       0.12985179 0.022649571 -0.106176995 0.02675123
0002f0 9a d1 aa 3c 5d 0f 7f 3d 7b 71 7d 3e 82 16 13 3e
       0.020851899 0.06227051 0.2475032 0.14364055
000300 69 e6 0c 3e 7f 57 25 3e d9 f9 0f 3e 92 34 2b 3e
       0.1375977 0.16146658 0.14060153 0.16719273
000310 dc 46 be bd 4d 07 8e 3c 38 7e 32 bd 1f 8b 65 be
       -0.09290859 0.017337466 -0.043577403 -0.22416352
000320 69 b2 72 be 06 38 2f 3d f9 25 24 3e 13 8f 59 be
       -0.2370087 0.042778037 0.1603011 -0.21245985
000330 6d a7 4b be e1 d7 08 bd 1e 64 44 3d 29 35 0a be
       -0.19888087 -0.033409003 0.04794704 -0.13496841
000340 db d1 1c be 13 77 31 3e 87 81 89 bd b0 8f ba bd
       -0.15314429 0.1733058 -0.067141585 -0.091094375
000350 73 27 06 bd f7 19 1f 3d 21 b4 95 be 74 46 26 be
       -0.032752465 0.03884312 -0.2923899 -0.16237813
000360 c4 79 92 3c 4b 27 f5 bd 0b 64 56 3e 2f ae 97 3d
       0.017880328 -0.11970385 0.20936601 0.0740627
000370 ac 79 a8 3d c4 f8 4e be 0f 01 5d be 6e 34 48 3e
       0.08226332 -0.20212084 -0.21582435 0.1955125
000380 87 40 7a be e4 10 28 bd b8 21 34 be 20 6b 60 3e
       -0.24438678 -0.041031733 -0.17590988 0.21915865
000390 43 7b 62 3e 06 40 19 3e 33 b0 00 3e 82 c2 e2 3d
       0.22117333 0.14965829 0.12567215 0.11072256
0003a0 cc 9e 15 3d 59 04 80 3d 0d 64 85 3e 07 5b 34 3d
       0.036528394 0.06250829 0.26052895 0.044032123
0003b0 d2 24 90 bb 10 28 1f 3d 91 2b 5c bd f8 c7 d9 bd
       -0.0043989206 0.038856566 -0.053752486 -0.10633844
0003c0 9c 41 20 bd 15 57 0d be 10 9e d4 3d e5 c9 43 be
       -0.03912507 -0.1380275 0.103817105 -0.19119985
0003d0 17 d1 8e be 83 09 7a be 51 6b 47 be 36 c5 59 3e
       -0.27893898 -0.24417691 -0.19474532 0.21266636
0003e0 a8 63 86 3e ea 74 12 3e c4 03 65 3e 54 e1 2d be
       0.26247907 0.14302412 0.22364718 -0.16980487
0003f0 ab b2 2a be d1 0a 47 bd ef 86 84 bc f1 9b 8f 3e
       -0.16669719 -0.0485943 -0.016177623 0.2804866

layers.hidden_2.bias f4 [20]
000000 6b da 0c 3e 10 db 24 3d c8 83 23 3c 02 3a 2a be
       0.13755195 0.040247977 0.00998015 -0.1662369
000010 77 fd 83 bd 52 1b 08 be ee 9f 23 3e 96 79 29 be
       -0.06444829 -0.13291672 0.15978977 -0.16550288
000020 30 31 40 bd 80 a4 03 3e a9 92 30 3e ee dd f4 3c
       -0.04692191 0.1285572 0.17243446 0.02989098
000030 33 56 e5 3d 0f b4 13 bd 94 ea b3 bd 17 9f b9 bd
       0.11198082 -0.03606039 -0.087849766 -0.09063547
000040 a8 84 83 3d 98 10 f3 bc e4 38 ff bd ee dd 4c be
       0.064217865 -0.029670998 -0.12462023 -0.20006534

layers.hidden_3.weight f4 [20, 20]
000000 54 5c 31 3e d0 a7 fd 3d 6c 25 33 3e 13 d3 7f 3e
       0.17320377 0.12385523 0.17494744 0.24982862
000010 fe db 49 3e dc 3a 3f 3d a9 1f cf 3d b8 20 84 3c
       0.19712827 0.046686992 0.101134606 0.016128883
000020 4e 9c 79 3e 6e 58 e9 3d 14 bc e0 bd cf 51 00 bd
       0.24376032 0.1139382 -0.10973373 -0.03132802
000030 bd d0 48 3c 8e 6c 3c 3d 60 3e 4f be 37 a5 11 be
       0.012256798 0.046001963 -0.20238638 -0.1422318
000040 99 90 4f 3e db 81 a4 3c 54 1b a1 3d f9 31 6c 3e
       0.20270003 0.020081451 0.078665406 0.23065938
000050 63 31 26 3e e9 1b 83 3e 78 40 aa 3d 60 02 49 3e
       0.16229777 0.2560723 0.08313078 0.19629812
000060 da 41 ba bd 6e 1f 0f 3e e6 b9 a7 3b 8e 58 a5 bd
       -0.090945914 0.13976833 0.0051185964 -0.08073531
000070 8c d2 9e 3e ca 03 2f be 67 35 04 be 6f 15 b6 3c
       0.3102001 -0.17091289 -0.12910996 0.022227017
000080 f2 b4 cd bd 1d d8 ac bd a4 a2 e9 3d fe 64 dd 3d
       -0.10044278 -0.08439658 0.11407974 0.10810278
000090 a1 ea d2 3d f9 80 9c bd 6c bc 7d 3e 84 d4 55 be
       0.10298658 -0.07641787 0.24778908 -0.2088185
0000a0 8d 06 78 be f1 41 00 3e de a3 b4 3d 97 ed cf 3d
       -0.24221249 0.12525155 0.08820318 0.101527385
0000b0 aa 88 de bd 7c 10 7a bc 2c 0e d2 bd 8d 45 38 3e
       -0.1086591 -0.015262719 -0.10256609 0.17995282
0000c0 4b f5 70 3d 4e a0 c7 bd 67 da 72 be f6 84 47 3d
       0.05882768 -0.097473726 -0.23716126 0.048710786
0000d0 96 0e 0c 3e e1 70 5c 3e d0 d7 67 be a6 62 ac bd
       0.13677439 0.21527435 -0.2264092 -0.08417253
0000e0 ea e4 64 3e 26 79 31 bd 7e 54 a9 3d 47 b9 8c 3e
       0.22352949 -0.043328427 0.08268069 0.27485105
0000f0 56 6d 4b be 26 0a 41 bd 02 54 41 3e fb d0 bb bd
       -0.19865927 -0.04712882 0.18879703 -0.09170719
000100 d7 9c 44 bd 7e ce f5 bd 6f cc 20 3e 6c 6a 41 3e
       -0.048001137 -0.12002276 0.15702985 0.18888253
000110 34 82 18 be 89 09 1f be 63 ba fb 3c d0 00 07 3d
       -0.14893419 -0.15530981 0.030728525 0.03295976
000120 ea 6c d7 3d 09 85 0e bd db 3f c3 3d cf 15 ed bc
       0.105188206 -0.03479484 0.09533664 -0.028941063
000130 ff 05 20 bd fd ed 0f 3e 27 59 8a bc 3c 77 59 3e
       -0.03906822 0.14055629 -0.016888214 0.2123689
000140 5c 20 84 be 08 60 0d be e9 2e d8 bd bb e5 9c be
       -0.25805938 -0.13806164 -0.105558224 -0.3064402
000150 da 07 39 3e 5e 87 c6 bd b9 d5 98 3c 01 63 3e bb
       0.18069401 -0.09693788 0.018656598 -0.002905071
000160 ad fc 4b be 2f 86 85 3e 6b 5b 3c be 42 a2 a0 bd
       -0.19920607 0.26078936 -0.18394248 -0.07843448
000170 88 39 5c 3c dd f7 b3 3d 7c 93 48 3e 10 ed c0 3d
       0.013441451 0.087875105 0.19587511 0.09420216
000180 f1 96 f6 bd b6 0b 2b be 16 41 b6 bc 23 8b 1f be
       -0.120405085 -0.16703686 -0.022247832 -0.1558042
000190 55 18 b0 3d 9a 19 09 3e 97 f0 e3 bd 55 c7 01 bd
       0.08598391 0.13388672 -0.11129873 -0.03168424
0001a0 0e 61 7d be f5 77 ab be da a9 17 bd 50 a9 af 3d
       -0.24744055 -0.33489957 -0.037027217 0.08577216
0001b0 4f 12 2b 3e b4 6c 72 3e 9c 29 97 3d 40 7e 44 3e
       0.16706203 0.2367428 0.07380983 0.19188786
0001c0 67 c4 3f 3d 5a 38 e8 bd 6a 84 84 be 32 29 80 3c
       0.046818163 -0.11338873 -0.25882274 0.015644643
0001d0 cd da 86 3e b5 70 3b bd 55 c0 9e 3b dc 59 0f bd
       0.26338807 -0.045761783 0.004844705 -0.034997806
0001e0 e8 26 80 be 25 b2 9a 3d 55 ba 64 bd 27 28 61 bc
       -0.25029683 0.075535096 -0.055841763 -0.013742483
0001f0 26 39 fe 3d 89 35 3c 3c 09 c0 07 3e d7 5a 29 be
       0.12413244 0.011487373 0.1325685 -0.16538559
000200 d9 33 94 3e 11 73 45 bd 0c 0b 1d 3e 50 59 a4 3c
       0.28945807 -0.04820544 0.15336245 0.020062119
000210 7c 88 8b 3e ff df 3b 3e f2 7c c0 3b d8 dc 74 bd
       0.27252567 0.18347166 0.0058742696 -0.059780926
000220 50 47 88 3e b6 80 01 3e a6 69 94 bd 67 ae 46 3e
       0.26616907 0.12646756 -0.07246713 0.19402467
000230 74 5a 6e be 77 3b 8a bc ec bb 34 3e 29 40 b9 bd
       -0.23276693 -0.016874058 0.17649812 -0.09045441
000240 58 25 af 3c 10 28 e2 bd e7 ed bb 3d 36 d2 7e 3e
       0.021380112 -0.110427976 0.09176236 0.24884877
000250 3a 69 94 3e 0b e9 1f 3e 34 c2 d2 bd 8c 70 8b 3c
       0.28986531 0.15616243 -0.102909476 0.01702144
000260 2b 10 57 3e e1 ae 1b 3e 9f 54 69 be 4d bf 12 be
       0.21002261 0.1520343 -0.22786187 -0.14330788
000270 5b bd d0 bd 3f 47 80 bd 5a 6e 04 be 84 86 37 3e
       -0.10192367 -0.06263589 -0.12932721 0.17922407
000280 0e 69 06 3e 84 73 d8 3d 5a fc 14 3e 52 ff 21 be
       0.13126013 0.10568908 0.1454939 -0.15820053
000290 f6 b3 97 bd 96 b1 f1 3c aa 9d f7 3b a8 c1 59 be
       -0.07407372 0.029503625 0.007556637 -0.2126528
0002a0 a6 3d a8 bd 7f 59 53 be ca 43 56 3e 49 67 a0 b9
       -0.082148835 -0.20639609 0.20924297 -0.00030594532
0002b0 49 b2 60 3b e9 da 7a be be b9 4d 3e ff 90 c3 3d
       0.0034285954 -0.2449757 0.20090386 0.0954914
0002c0 87 df 16 3e 78 26 32 be 39 63 70 3d 64 15 3d be
       0.14733706 -0.17397487 0.058688376 -0.18465191
0002d0 bd e9 16 3e ca da 4b 3e de c0 ee 3d 37 9a 4d be
       0.14737602 0.1990768 0.1165788 -0.2007836
0002e0 8e 74 4f 3d 8f 56 30 3e 7c 07 c3 bd c1 a0 37 bd
       0.050648265 0.1722052 -0.09522912 -0.04483104
0002f0 e1 ab 56 be 08 e4 70 be 5f 21 29 be 0d 98 48 be
       -0.20964004 -0.23524487 -0.16516636 -0.19589253
000300 4e 44 96 bd 2b 5b 63 be 38 98 a6 3d 83 dd 38 be
       -0.07337247 -0.22202747 0.08134502 -0.1805325
000310 91 6c 26 be e9 21 0e be 25 38 00 3e aa 90 86 be
       -0.16252352 -0.13880123 0.12521417 -0.26282245
000320 2b 5b 88 3d 4d 64 76 3d 4a 03 0f be 6c f1 1a 3e
       0.06658014 0.060154248 -0.13966098 0.15131158
000330 f5 1c 21 bd bf e0 22 3e ae 63 94 bd 6f f7 ea bd
       -0.039334256 0.15906046 -0.07245575 -0.114729755
000340 81 a1 cc 3d 7b fb 85 bd f6 d9 a5 3d 65 ef 8d bd
       0.09991742 -0.06542107 0.080982134 -0.069304265
000350 34 2e 94 bd 07 7f 22 3e 90 2d af 3c 75 ef 27 3e
       -0.07235375 0.1586877 0.02138403 0.1639994
000360 e3 00 1b be ab 9c 0d be 00 ad 8d 3d 02 19 93 3d
       -0.15137057 -0.13829295 0.06917763 0.07182504
000370 c7 23 90 3d b8 28 ff 3a be 0c 69 3e e9 0b 71 3c
       0.07038074 0.0019467091 0.22758767 0.014712312
000380 5b b2 ab 3b 51 e9 63 3d 08 4b 38 3e 6c 0e 54 bd
       0.0052397675 0.05564243 0.17997372 -0.051771566
000390 5c ae 63 be 43 1b bf bb f5 7a 68 3e 5a 67 7b bd
       -0.22234482 -0.0058321073 0.22703154 -0.06137786
0003a0 d7 ec 0d 3e 4c 11 99 bd aa 30 b3 3c c5 66 87 bd
       0.13859878 -0.07474002 0.02187379 -0.066113986
0003b0 4d 45 64 3d 48 e1 2c be 84 73 15 3e a9 06 73 bd
       0.055730153 -0.16882813 0.14594847 -0.059332523
0003c0 da f1 05 be 20 15 30 be 60 0c b1 3d 48 60 3e be
       -0.1308054 -0.17195559 0.086449385 -0.18591416
0003d0 47 88 d1 bd 4d cb 1a 3e 40 9d 92 3e 12 48 f1 3d
       -0.10231071 0.15116616 0.28635597 0.117813244
0003e0 57 3d b3 be be 36 6f be 72 f4 d2 3d 6d 5d 68 be
       -0.35007736 -0.23360726 0.103005305 -0.22691889
0003f0 7d 15 01 be 06 4f c6 bd 19 29 a4 3b ec b0 60 3e
       -0.12605853 -0.09683041 0.005009782 0.2194249

layers.hidden_3.bias f4 [20]
000000 d2 b9 cb bd 21 08 1d be 5c 0f 66 3d f2 75 12 bd
       -0.09947552 -0.15335132 0.05616699 -0.035757013
000010 f8 22 18 be eb 5c e5 bd f8 e8 cf bd 43 c3 1b 3e
       -0.1485709 -0.11199363 -0.10151857 0.15211205
000020 27 8f 30 bc 0e fb 1b 3e 8e 36 9b 3d 64 13 41 3e
       -0.010776318 0.15232489 0.07578765 0.18855053
000030 5b b9 10 be 92 4f db bd 6e 68 61 3e 90 eb ac bd
       -0.14133207 -0.10708536 0.22012493 -0.084433675
000040 24 80 0c be ce ca 0f 3e c8 cf cf bd da bb 74 3d
       -0.13720757 0.14042208 -0.10147053 0.05974946

layers.hidden_4.weight f4 [20, 20]
000000 80 1b 54 bd b8 d4 5c be 96 a5 7b 3c 9f 66 7e 3d
       -0.05178404 -0.21565521 0.015359303 0.062109586
000010 d9 f9 83 bd 5e 6f 49 be 40 9e 13 be db f7 e8 bc
       -0.06444139 -0.1967139 -0.14415836 -0.0284385
000020 5c 62 17 bd 63 c1 32 3e 2e 88 ec bd 7e aa 27 be
       -0.036959037 0.17456584 -0.11549412 -0.16373631
000030 5f 70 0c 3e 8c 67 9c bd 9b f1 ca 3d ad ec 2f be
       0.13714741 -0.076369375 0.09909364 -0.17180128
000040 7c a5 8a 3c 83 69 99 bd c1 29 47 3d d8 d5 cb bd
       0.016924612 -0.07490828 0.048623804 -0.09952897
000050 2a 28 52 3e 1d 15 b6 3d b2 aa 04 3e 60 f0 ea 3d
       0.20523134 0.08890746 0.1295574 0.11471629
000060 a6 e7 76 3d c5 2b 2e 3e 63 2c 52 3e f3 53 16 3b
       0.06027951 0.17008884 0.20524745 0.0022938221
000070 bc 77 0e bd 8d 1d 00 be ef 32 66 be 9b cf ca bd
       -0.034782156 -0.12511273 -0.22480367 -0.09902879
000080 6a 40 06 3c 09 08 ca bd 61 7a e8 bd b7 7e 1d be
       0.008194068 -0.09864814 -0.11351467 -0.15380369
000090 51 9d 5b 3e 19 8d 6b bd f4 78 50 3e fc 21 22 bd
       0.2144673 -0.057507608 0.2035864 -0.03958319
0000a0 ee 2c 66 be d2 24 29 be 2c 23 87 3d 44 a4 69 be
       -0.22478077 -0.16517952 0.065985054 -0.22816569
0000b0 41 33 0d be 63 93 47 3d 45 a5 33 be aa cd 11 be
       -0.13789083 0.048724543 -0.17543514 -0.14238611
0000c0 a9 6a e0 3d 11 50 d8 bd 64 6d 07 be 95 43 40 3e
       0.10957844 -0.105621465 -0.13225323 0.1877578
0000d0 19 80 5b 3e bb 07 4b 3e 36 29 66 3e 88 f2 87 be
       0.21435584 0.19827168 0.22476658 -0.26552224
0000e0 fd d3 2c 3c 06 81 d0 3d 47 c6 cf bc cd 88 1b be
       0.010548589 0.10180859 -0.0253631 -0.15188904
0000f0 55 05 ed 3d f5 ef 9d bd 1a 0c 09 3d 48 bc 14 be
       0.11573283 -0.07711784 0.033458807 -0.14524949
000100 7b fe ab bd 1c 8b 95 bd 92 48 d1 bc 77 56 94 bd
       -0.08398148 -0.07301924 -0.0255473 -0.07243054
000110 ca 24 0e 3e ea 8b ec bd d9 d3 1f bd c8 6e c8 3d
       0.13881221 -0.11550124 -0.039020393 0.09786755
000120 df 09 b8 3c 72 f5 81 be 27 e3 8a 3d 99 fc 5f 3e
       0.022465644 -0.25382572 0.06781607 0.21873702
000130 fe 0c 13 3e bd e8 3e 3e 72 5d 97 bd e2 fc 4c be
       0.14360425 0.1864347 -0.0739087 -0.20018342
000140 ff 8e 3f 3e 80 79 80 3e 1b f4 9b 3d af d9 c6 3d
       0.18706892 0.25092697 0.07614919 0.097094886
000150 d4 7b 2b 3d 6c 9e 9f be aa 7b 22 be 0b 7e 2b be
       0.04186614 -0.31175554 -0.15867487 -0.167473
000160 d3 e2 e8 bd 0c 4c 1a be df ef e6 bd 18 e4 0f 3e
       -0.11371388 -0.15068072 -0.112762205 0.14051855
000170 d4 4f 99 3d 0b 90 38 3d a3 c7 a2 bd c5 ca 2d be
       0.07485929 0.045059245 -0.07948234 -0.16971882
000180 fa d6 3b 3e 44 c4 03 3e 49 25 51 3e 8b 0f 17 be
       0.18343726 0.12867838 0.2042438 -0.14752023
000190 d8 9b 7f be b2 b5 5b 3e 59 00 56 be 2f 90 45 be
       -0.24961793 0.2145603 -0.2089857 -0.19293283
0001a0 20 f6 ee bd d0 09 d2 3d 47 6c 4b bd 2b ab 48 be
       -0.11668038 0.10255778 -0.04966381 -0.19596545
0001b0 51 27 b5 3a f3 15 c7 bc f0 b6 49 3e ca b8 85 bd
       0.0013820921 -0.024302458 0.19698691 -0.06529386
0001c0 4f 85 35 3e cb 38 43 be 92 41 5e 3e e1 29 84 be
       0.17726634 -0.19064634 0.217047 -0.258132
0001d0 70 d3 3a be d3 de c1 bd eb 3e 52 be d5 b8 8c 3d
       -0.1824472 -0.094663285 -0.20531814 0.068711914
0001e0 2f 2d a9 3c e0 ba 40 3e fc 8a 5e 3e 01 94 3f bd
       0.020651428 0.18821287 0.21732706 -0.046772007
0001f0 3a a0 91 bd 7e cb f6 3d 1e cc f8 3c 3f 48 23 3e
       -0.07110639 0.12050532 0.030370768 0.15945528
000200 ba a7 21 be ad 13 75 be 56 52 4b be da 7d 03 be
       -0.15786639 -0.23933287 -0.19855627 -0.12840977
000210 72 96 96 bd 59 5b 84 be f7 28 80 bd 7b ed 1e 3d
       -0.07352914 -0.25850943 -0.062578134 0.038800698
000220 ac 80 64 3d ae a6 51 3e e0 5a 08 be 86 f9 b1 bd
       0.055786774 0.2047374 -0.13315916 -0.08690171
000230 59 4d 16 be b4 68 aa bd 55 1e 6a be 60 f1 34 3e
       -0.14677943 -0.08320752 -0.22863133 0.17670202
000240 14 f4 5e bd f8 34 9c be 58 44 6c be f6 f2 9f bd
       -0.05443199 -0.30509162 -0.23072946 -0.07810013
000250 e0 6f 00 be 05 d8 5b 3e 39 e4 0c 3e de 7d 92 3d
       -0.12542677 0.21469124 0.13758935 0.071529135
000260 96 26 40 3e e9 4c 9c bd 82 91 5a 3e 19 eb 3f 3d
       0.1876472 -0.07631857 0.2134457 0.046855066
000270 04 cd d5 bd ef e3 25 bc c2 7e 01 3e d0 6f c8 3d
       -0.10439494 -0.010125144 0.1264601 0.097869515
000280 57 cb 6e 3e c3 4b a8 bd d1 d1 3a 3e 3b 64 a8 3d
       0.23319755 -0.082175754 0.18244101 0.082222424
000290 56 bb a3 bd fc b8 6f 3e 7d f4 7a 3e b7 42 1e be
       -0.07994716 0.2341041 0.24507327 -0.15455137
0002a0 ab 3f 1f be dd cd 59 be 1a 64 09 3e b2 41 ae 3d
       -0.15551631 -0.21269937 0.13417092 0.08508624
0002b0 66 18 8a bd 6f bb c4 3d 9e 40 ff 3d ed e6 60 3e
       -0.06742935 0.096060626 0.124634966 0.21963091
0002c0 ba 35 ad bd 4b 3b 3b be 3e 57 ce 3d 49 ed 3c be
       -0.08457513 -0.18284337 0.10075234 -0.18449892
0002d0 8c ba 19 3d 55 aa 6c 3e 10 f2 7a be 23 fc 2d be
       0.03753142 0.23111852 -0.24506402 -0.16990714
0002e0 0d 4f 81 3c e4 66 1d be 95 44 4c 3c b3 72 33 3e
       0.015784765 -0.15371281 0.012467523 0.17524223
0002f0 a1 06 99 3d a2 5c 37 3e 73 af 5d 3e 89 0a 74 3e
       0.074719675 0.1790643 0.2164896 0.23832144
000300 99 9d 45 be a0 4c e9 bc 3c ee f2 3d 35 45 1b be
       -0.192984 -0.02847892 0.11861846 -0.15163119
000310 bc 82 2d bd af 07 34 3d 1c 80 34 3e 55 c1 04 be
       -0.042361006 0.04395264 0.17626995 -0.12964375
000320 83 4a 30 3e 14 9d 1e 3e 19 29 de 3d b4 e6 37 bd
       0.17215924 0.15489608 0.108476825 -0.04489775
000330 af 14 6d bc 61 89 15 be f7 ee 14 3b 46 dc 33 3e
       -0.014470263 -0.14603187 0.0022725442 0.17564496
000340 50 f3 c1 bd 8b 5c 8b be 5c 5b 48 3e 77 8d ce bd
       -0.09470236 -0.27219042 0.19566101 -0.10085576
000350 2e e7 bb 3c 1f 8a 36 3e 7b a3 2f 3d 1b 6e 8f bd
       0.022937384 0.17826127 0.042880516 -0.07003423
000360 9b b8 98 3d 56 a4 45 3e ef 51 19 bc 5a e0 60 3d
       0.07457086 0.1930097 -0.009357913 0.05490146
000370 fd 3d cf bd 0d 7f 94 3d 47 6b 5a 3d 87 55 e5 3d
       -0.10119245 0.072507955 0.053324964 0.11197954
000380 94 a8 45 3e a0 15 32 be 0d ca 75 bd 9b 20 f1 bd
       0.19302589 -0.17391062 -0.060007144 -0.11773797
000390 96 e9 24 3e 38 fc 48 3e 39 92 46 be 2a b2 42 3e
       0.16104731 0.19627464 -0.19391717 0.19013277
0003a0 ef c9 96 3e 54 d5 6a 3e c0 db 94 3e c7 a5 16 be
       0.29450938 0.2293294 0.29073906 -0.14711677
0003b0 bb 99 4b 3d c9 60 cd bd 73 7e 97 3d ce 52 76 bd
       0.049707156 -0.10028226 0.07397165 -0.060137562
0003c0 33 dd da 3d 83 1f 53 3e 62 87 a1 3d e3 44 2d be
       0.10686722 0.2061749 0.0788715 -0.1692081
0003d0 69 3c 98 bd 25 45 00 bd 1e 7f 12 3e 67 b5 0f 3c
       -0.07433397 -0.03131594 0.14306304 0.008771277
0003e0 91 c8 1b be c9 29 47 be ce 6f c1 3d c0 52 08 be
       -0.15213229 -0.19449534 0.09445153 -0.13312817
0003f0 e2 1e 63 be 48 2f 00 be 0c dc 62 3d 06 66 31 3e
       -0.2217975 -0.12518036 0.055385634 0.17324075

layers.hidden_4.bias f4 [20]
000000 f4 c1 cb bd 7a 28 e2 3c c9 12 d5 3d 13 16 bd bc
       -0.09949103 0.027607191 0.104039736 -0.023081815
000010 25 0b 19 be 7e 0f 98 3d 83 d7 b7 bc 02 58 32 be
       -0.14945658 0.0742483 -0.022441631 -0.17416385
000020 d0 eb f7 bc ef ac 68 3e cb cc c0 3d af 55 dd bc
       -0.030263811 0.22722219 0.09414061 -0.027018396
000030 23 ce 0e 3c 00 2c 5b 3e 5e a4 89 3d 11 e9 28 be
       0.008716139 0.21403503 0.06720804 -0.16495158
000040 9a c3 78 3e f8 87 68 be f7 53 2a bd 49 22 5c 3d
       0.24293366 -0.22708118 -0.04158398 0.053743634

layers.hidden_5.weight f4 [20, 20]
000000 d8 6c 28 bc 89 2b c2 bc 9c 2b 19 3e 0c 1d 91 bd
       -0.010279857 -0.0237024 0.14958042 -0.070856184
000010 15 fb d6 bc f3 f2 75 be 51 cd 80 3e 30 4b 16 be
       -0.026242772 -0.24018459 0.25156644 -0.1467712
000020 47 8a 3f 3e 94 5a a1 3d 49 82 25 be 32 a0 7b be
       0.18705092 0.078786045 -0.16162981 -0.24572828
000030 b6 7e 8b 3e 8a fb 1c be ed c1 80 be 2a 14 52 bd
       0.2724511 -0.1533033 -0.25147954 -0.05128876
000040 7c a4 d6 bd ed 95 79 bd 01 a8 f9 3c c0 b4 07 3e
       -0.10480592 -0.060933996 0.030475618 0.13252544
000050 ae d0 1c 3e 9a c4 50 be 73 69 21 be 3d 06 70 3c
       0.1531398 -0.20387498 -0.15762882 0.014649925
000060 ea 01 7f be da 21 42 3e e0 aa d3 bd 7b f0 61 3e
       -0.24903074 0.18958226 -0.10335326 0.22064392
000070 fa 54 83 be 9a 22 f1 bd 64 75 45 be 71 b1 e5 bc
       -0.2565077 -0.11774178 -0.19283062 -0.028038712
000080 e0 12 4f be 49 c6 6e 3e 54 50 3a 3e 27 4c 21 3e
       -0.20222044 0.23317827 0.18194705 0.15751706
000090 d3 05 12 3d 6a 44 c0 3c 70 c0 2c bb 8e 0b 11 3d
       0.035650086 0.023470122 -0.002635982 0.03541141
0000a0 7d 2a 3a bd 8d 8c 21 be 6c 14 40 be dc d9 06 3e
       -0.045450676 -0.15776272 -0.1875779 0.13169044
0000b0 2e 91 61 3e 4d 67 83 be a4 ab 14 3e 43 88 78 be
       0.22028038 -0.2566475 0.145186 -0.2427073
0000c0 39 2a 3c 3d ab db 25 be 64 c1 8c 3b 9b 75 95 bd
       0.045938704 -0.16197078 0.004295515 -0.07297822
0000d0 26 5a 39 be 6c 08 34 be ae d1 7f be cb 50 68 be
       -0.18100795 -0.17581338 -0.2498233 -0.2268707
0000e0 5c 85 80 be d1 8d 58 3e bb f6 a8 3d de 0d 3c 3e
       -0.25101745 0.21147849 0.08250185 0.18364665
0000f0 16 a7 e7 bd 36 da 33 3d 74 fb fa bd d1 0f 0d bb
       -0.11311166 0.043909274 -0.12254992 -0.002152432
000100 79 cf 90 3a 1e 8f 21 bc 6b af ae bc 64 e2 c3 3d
       0.001104816 -0.009860782 -0.02132388 0.09564665
000110 2f ad c3 3d 0f c4 88 be 4d e7 cf 3d 11 3f 7c be
       0.095545165 -0.2671208 0.10151539 -0.24633433
000120 5d bb a7 3d 2b 1a 71 be 7c c8 dc 3d c4 62 eb bc
       0.081900336 -0.23545139 0.10780427 -0.028733619
000130 a8 02 9a bd 13 c8 94 3d 0b 23 2d 3e 53 19 69 be
       -0.07520038 0.07264724 0.16907899 -0.22763567
000140 41 ed 5e 3e b7 ac 43 3d 6d 16 65 3d 2a f2 a6 bd
       0.21770193 0.047772136 0.05592959 -0.08151658
000150 bd 66 4a 3d 0d 8c 0c 3e 6c 51 99 bd 2e c9 ee 3d
       0.049414385 0.137253 -0.07486233 0.11659466
000160 63 21 05 be 10 f3 81 bd e9 07 69 3d 73 69 54 3e
       -0.13001017 -0.063451886 0.05689231 0.2074335
000170 87 14 f9 bd fb e9 0f 3c 26 70 03 3e 5e d5 20 3d
       -0.121621184 0.008783813 0.1283575 0.039265983
000180 b3 87 bf bd 1a a1 8d be 50 70 34 be 4a 57 0c 3e
       -0.093520544 -0.27661973 -0.17620969 0.13705173
000190 9c cc 46 3e 71 98 62 3b bc 9a 51 3e 8f d8 de bd
       0.1941399 0.0034575725 0.20469183 -0.10881149
0001a0 91 8b ea 3d 72 72 90 3e eb 61 8a be c9 7a 8d 3c
       0.114524014 0.28212315 -0.2702783 0.017270463
0001b0 3a 6a 7c be 4c 5a a2 3d 45 56 85 3c 41 94 c7 3d
       -0.24649897 0.07927379 0.016276488 0.09745074
0001c0 be ad 81 bd 24 1a c9 bd 06 68 06 be bd 20 25 3e
       -0.06331967 -0.09819439 -0.1312562 0.1612577
0001d0 b8 27 0b 3e e0 86 cc 3d 01 ce 20 3e 3a 72 1f bb
       0.1358937 0.09986663 0.15703584 -0.002432956
0001e0 f0 19 11 3e 8a 41 fb bd e2 06 29 be cb e1 da bd
       0.1417005 -0.1226836 -0.16506532 -0.10687598
0001f0 b1 76 c7 3d 87 28 54 be 0f 55 b1 3d db 91 2e be
       0.097394355 -0.20718585 0.08658802 -0.17047827
000200 fa 93 21 3e 4f a7 87 3c cd 2e 42 3e f5 dc ab bd
       0.15779105 0.016559271 0.18963166 -0.083917536
000210 9e 34 e6 bb 10 69 19 be 6f 89 ab 3d 44 27 63 be
       -0.0070253154 -0.14981484 0.08375823 -0.22182947
000220 0a 52 13 be a5 62 84 3e 98 ab 16 bd 87 3d 30 be
       -0.14386764 0.2585651 -0.03678474 -0.17210971
000230 88 ed 4e 3e 73 ad 51 3e de 2f 63 be 8c 55 01 3e
       0.20207798 0.20476322 -0.22186229 0.1263029
000240 79 3a 03 be de 2d 77 bd 21 2f 40 3e 24 d3 74 be
       -0.12815274 -0.060346477 0.18767978 -0.23908669
000250 5a ad c6 3d 20 13 dc 3d d4 f0 71 3e 8e 6d a2 bb
       0.09701033 0.10745835 0.23627025 -0.0049569076
000260 53 6a 1b 3e 36 73 5a be 82 3e 60 be 6f 2d 05 bd
       0.15177278 -0.21333012 -0.21898845 -0.032514032
000270 8f d7 97 bd 3a c8 0e 3e a2 04 32 3e 81 6b a7 bd
       -0.074141614 0.13943568 0.1738458 -0.081748016
000280 41 f4 d8 bc 17 3c 23 3e 15 31 fc 3c e7 cd 41 3e
       -0.026483657 0.15940891 0.030785123 0.18926202
000290 5a 6f 71 3e 44 74 10 be 2a 99 eb bd c6 ed 15 3e
       0.23577634 -0.14106852 -0.11503823 0.14641485
0002a0 18 66 85 3e 4d 9f 89 be 9f 77 42 3b 07 67 7b be
       0.26054454 -0.2687935 0.002967335 -0.2455102
0002b0 00 f0 19 3e e7 72 c6 bc b2 70 39 3e 2c f5 94 bd
       0.15032959 -0.024224712 0.18109396 -0.07273325
0002c0 22 0f 83 be 08 1f 04 3e cf 2f 50 3e 94 d0 0f 3d
       -0.25597483 0.12902462 0.20330738 0.035111025
0002d0 b9 f3 40 be 52 24 05 3e 8c 19 7d 3d 68 e5 f6 bd
       -0.18842973 0.13002136 0.06179194 -0.120554745
0002e0 c5 88 ff bd af e4 86 3a f1 4d 38 3e 73 58 55 3c
       -0.124772586 0.0010291542 0.17998482 0.013021576
0002f0 ac 7c 80 bd 5e a5 87 bd 5d 4e 84 bd 1d fe 36 be
       -0.06273779 -0.06623338 -0.06460259 -0.17870374
000300 0a 0f f4 bd e6 6a 45 3e 5d 39 f3 bd dd b3 8a bd
       -0.11916931 0.1927906 -0.118761756 -0.067725874
000310 24 70 99 3c 26 12 b2 bc aa 40 b6 3d 03 54 01 bd
       0.01873023 -0.02173717 0.088990524 -0.03157426
000320 93 7f 3e be 71 b0 1f be 65 e1 51 3e a1 c6 54 3e
       -0.18603353 -0.15594651 0.20496137 0.20778896
000330 08 94 14 be 6f a4 41 3e 86 99 8d 3d 8c db 81 3d
       -0.14509594 0.18910383 0.06914048 0.06340703
000340 87 ac 09 3e a4 cf e4 bd 08 77 03 3c 57 ea d6 bd
       0.1344472 -0.11172417 0.008023985 -0.104939155
000350 87 19 38 be 27 7c 66 3e b9 d5 28 3e c5 2d 03 3d
       -0.17978488 0.22508298 0.16487779 0.03202607
000360 ee 75 21 3e 43 1f fc bd 37 13 cd 3d 15 f1 f6 3d
       0.15767643 -0.1231065 0.100134306 0.120577015
000370 47 09 ad 3b 59 12 0d 3e db 61 35 3d da f7 de bd
       0.005280647 0.1377653 0.044282775 -0.10887118
000380 c3 54 02 3e e1 82 93 bd 98 57 86 bd 6d 42 36 3d
       0.12727647 -0.072026975 -0.06559676 0.044496942
000390 1e 26 d6 3d 2d fe 01 3e 04 0b 01 3e 32 68 3b 3e
       0.10456489 0.12694617 0.12601858 0.18301466
0003a0 fc 8b 4c be 82 15 7c 3e 7e 98 24 be b9 1c af bd
       -0.19975275 0.2461758 -0.16073796 -0.085504
0003b0 a2 79 9e 3d 15 7a 30 be 7b 23 e9 bd b6 41 cb 3d
       0.07738043 -0.1723407 -0.113837205 0.09924643
0003c0 b9 3e 20 3e b3 9b d4 3d 46 73 04 3e e3 88 01 bd
       0.15648927 0.1038126 0.12934598 -0.031624686
0003d0 be 73 2f be 3a 97 c7 3d 47 2c c6 3c 1e ca cf 3e
       -0.17133996 0.09745641 0.024191035 0.4058389
0003e0 aa d9 3c 3d 6b fd 23 3c 1a 67 74 3d 9b 81 4b 3e
       0.046106018 0.01000915 0.059668638 0.1987366
0003f0 63 51 78 be 92 24 2d bd 3e 49 35 bd 52 c2 d3 3d
       -0.24249797 -0.042271204 -0.044259302 0.10339798

layers.hidden_5.bias f4 [20]
000000 12 e6 0c 3d ee 31 a5 3d b7 1b 7f 3d 54 6d bd bd
       0.0343991 0.08066164 0.06228229 -0.09249368
000010 2c 1a 84 bc f8 0d 3d 3d 66 30 50 bd 89 42 2d be
       -0.016125761 0.0461559 -0.050827406 -0.16919912
000020 4c 7a 2e be d0 ef 69 bd ed 50 0d 3e 84 01 0b 3d
       -0.1703884 -0.05711347 0.13800402 0.033936992
000030 0a d5 42 bd 9e ef 1e be 32 ea aa 3c e3 16 df bd
       -0.04756645 -0.15521094 0.020863626 -0.10893037
000040 3f 8b e2 bd a7 ff 3d 3d 30 00 87 bd 79 e5 dd 3b
       -0.11061715 0.046386387 -0.06591833 0.00677174
