Heat/models/autosave/Gen_4_Loss_9.088e-05.pt (torch, 351739 bytes, 35 tensors)

model.0.weight f4 [32, 2]
000000 38 84 e4 3a e9 85 07 3f d5 f5 67 be 66 53 27 3f
       0.0017434424 0.52938706 -0.22652371 0.6536163
000010 f0 20 ea 3e 8c dc 9d 3b 39 de 1c bf c5 34 fe 3d
       0.45728254 0.004817551 -0.61276585 0.12412409
000020 55 80 66 3e b9 7d 29 bf 92 be 7f be 4c 9d 33 3f
       0.22509892 -0.6620746 -0.2497504 0.7016189
000030 19 5c b8 bd 21 35 1f bf 11 12 f9 3e 0c 8d d4 bd
       -0.09001941 -0.62190443 0.48646596 -0.10378465
000040 b7 04 0f be 66 4c 78 3d 5d c6 69 3f ee 93 5b 3e
       -0.13966642 0.060619734 0.91318303 0.2144315
000050 40 80 1f bf 2d 77 f1 bd fe 6f 23 3f ec 95 25 3f
       -0.6230507 -0.11790309 0.6384276 0.6468189
000060 21 8b 38 3f 67 a3 57 be a7 13 1e bf 33 f2 e5 bc
       0.72087294 -0.21058427 -0.6174874 -0.028069591
000070 9a e1 01 3e ca ee 37 3f 34 25 0d bf 93 d4 18 bf
       0.12683716 0.7184874 -0.5513489 -0.5969936
000080 cd d0 b0 3e a2 49 bd be 0d b2 34 3f 95 5c b8 3e
       0.34534302 -0.3697024 0.70584184 0.36008134
000090 cf 13 af 3e 7c 3f 29 bf 14 93 4b 3f 57 f7 1c bf
       0.341948 -0.66112494 0.795213 -0.6131491
0000a0 6d e0 90 3d 2b 34 d0 3e 73 30 ec 3e ac bb 01 bf
       0.07074056 0.406648 0.46130714 -0.5067699
0000b0 1d 05 30 3e 07 d7 e9 3e c1 fb a3 be d7 24 de 3d
       0.1718945 0.45671865 -0.3202801 0.108468704
0000c0 f0 19 90 3e 3f e7 03 bf 31 51 52 bf 9b 03 b1 3e
       0.2814479 -0.5152473 -0.8215514 0.34573063
0000d0 67 05 03 3f ec 7d 30 be 71 34 d7 3e 99 da b4 be
       0.5118012 -0.17235535 0.42032197 -0.35323027
0000e0 14 f1 4d be a3 c6 cb 3d 07 a0 81 be 7d 85 c3 be
       -0.20111495 0.09949996 -0.25317404 -0.3818778
0000f0 5d 65 86 be b9 15 b2 be 37 b4 37 3f fc 19 38 3e
       -0.2624921 -0.34782198 0.7175936 0.17978662

model.0.bias f4 [32]
000000 5c 4e fa 3e 6c e7 29 bf 63 57 31 3f 9a cd ff bd
       0.48887908 -0.66368747 0.69273967 -0.12490387
000010 cd de 48 3e 6c 60 82 be c9 bb 31 3f bb 8d dd be
       0.19616242 -0.2546419 0.6942716 -0.43272194
000020 b2 1f 8a 3d 91 38 49 3e 8b 2b 02 3f 2a 98 85 3e
       0.06744327 0.19650485 0.5084769 0.26092654
000030 51 10 59 be 9a 5f 09 bf 55 d0 fe bd d2 a0 03 bf
       -0.2119763 -0.536615 -0.1244208 -0.5141727
000040 70 7e 3c 3f 80 ba 32 be 13 cc 22 bf 5c f7 20 3f
       0.7363043 -0.17453957 -0.6359264 0.6287744
000050 ae 96 92 3e 3d 42 92 3e 1b 3f 17 3f 53 3c 34 3e
       0.28630584 0.2856616 0.59080666 0.17601137
000060 24 f5 a3 3e 5a d1 db 3e fb bd 91 be 20 92 1b bf
       0.32022965 0.4293316 -0.28465256 -0.60769844
000070 18 35 4e 3e 74 11 99 3e 73 c3 0f 3f 0d 04 85 bd
       0.20137441 0.29896128 0.56157607 -0.06494913

model.1.weight f4 [32, 32]
000000 a9 12 ec bc 19 44 7a be 4a f4 63 bc 58 7a 75 be
       -0.028817492 -0.2444004 -0.0139132235 -0.23972452
000010 a2 df c2 3d 6b bb b5 bd 92 bd 16 3e 0d 98 0e 3e
       0.09515311 -0.08873638 0.14720753 0.1392519
000020 ec b0 05 be d9 11 d8 3d 5f 3b 45 bd 6c c9 c9 bd
       -0.13055772 0.10550279 -0.048152324 -0.09852871
000030 9b b9 8b 3d 18 ea c9 bd aa 3a c2 bd eb c9 52 be
       0.06822511 -0.09859103 -0.094838455 -0.20584838
000040 98 5f 71 3d c9 88 8b bd 28 a7 e8 3d 4c a5 2e 3e
       0.058929056 -0.06813199 0.113600075 0.17055243
000050 2f b0 9e bd 67 c2 db 3e 7d fd 9e 3d 12 71 84 3d
       -0.07748448 0.42921755 0.07763193 0.06466879
000060 ef 00 a6 3e a6 40 3b be f7 b3 78 3e 23 08 d9 3d
       0.32422587 -0.1828638 0.24287401 0.10597255
000070 b7 cf 3e bd f7 fa 25 bd b1 73 31 3c 29 46 11 3d
       -0.04658481 -0.04052254 0.010830806 0.0354673
000080 4c e7 0d be 55 f6 a7 bd 14 44 2c be 17 f1 ea 3d
       -0.13857764 -0.08201281 -0.16822845 0.114717655
000090 1a 15 8c 3d 66 22 08 be 1b ed 81 bc 1d 19 6b bd
       0.06839962 -0.13294372 -0.015860131 -0.057396997
0000a0 4d 21 b6 bd 93 0b 42 3d ba fe e4 3c aa 02 28 be
       -0.0889307 0.04737432 0.027953494 -0.16407266
0000b0 a9 5d 92 bd ab 70 83 bb c4 fe 02 3d 00 e1 0b be
       -0.071467705 -0.004011234 0.031981245 -0.1366005
0000c0 ee ca c3 bb c3 87 55 3e 0d 55 8f 3d dc c4 f6 bd
       -0.005975119 0.2085257 0.06998644 -0.12049267
0000d0 21 ce e6 3c 25 d6 74 3d 97 7e 2f be f7 66 ff 3d
       0.028174462 0.059774537 -0.17138134 0.12470811
0000e0 0e ed a2 bd c0 ba 31 be b1 ee 27 3e 40 e5 80 3d
       -0.07955371 -0.17356396 0.16399647 0.06293726
0000f0 b4 19 51 3d c9 2f d9 bd da b4 54 be da e3 05 3e
       0.051049903 -0.106048174 -0.20772114 0.130752
000100 4d 5e cf 3c 1c ec da bd c9 1c c8 3d ef 4e 96 bd
       0.02531352 -0.106895655 0.09771115 -0.07339274
000110 20 43 e5 3b 2e 9d 2e be 6d 34 8e 3e 0b 03 5f 3d
       0.0069965273 -0.17052147 0.27774373 0.05444626
000120 fd 67 aa 3d 46 9b 13 3e 77 31 29 3e 4a 29 06 be
       0.083206154 0.14414701 0.16522776 -0.13101688
000130 37 17 9a 3d a9 5d e5 38 ae f6 1f bd 10 6e 94 3d
       0.07523959 0.000109370165 -0.03905361 0.07247555
000140 56 cf be bc 90 cb 2f be 9b c7 f8 3c 1f d7 e1 3c
       -0.023292225 -0.17167497 0.030368617 0.027568398
000150 7a b6 04 be 6b 0e cc 3d 94 33 4e bc 3c ca dc bd
       -0.12960234 0.099636875 -0.012585539 -0.10780761
000160 76 89 47 3e a3 3c 40 3d ae bb a3 3d 53 0a 44 be
       0.19486031 0.046932828 0.079947814 -0.19144563
000170 06 cd ab 3d 8c 6e e1 3b a4 a4 4d 3e e7 82 f0 3d
       0.083887145 0.0068796333 0.20082337 0.11743718
000180 fb ab 0d bd e8 14 34 bd 47 f2 bf 3d d7 00 19 be
       -0.03458784 -0.04396525 0.093723826 -0.14941727
000190 9c a8 a9 bd ea ff 4d bc a6 16 6e 3d 0d 0f 3c 3e
       -0.08284113 -0.012573222 0.058127068 0.18365116
0001a0 dd 42 e6 3d d3 1b cd 3d 42 b1 54 bd 82 9b 22 3d
       0.11243222 0.10015073 -0.05192686 0.039699085
0001b0 48 39 45 3e 0b c9 7f bd a3 68 29 bd 30 0e 93 bd
       0.19260132 -0.06244759 -0.041359555 -0.071804404
0001c0 3c f7 09 3e 95 f2 19 3e 9c 16 0d b9 59 05 b8 bd
       0.13473219 0.15033944 -0.0001345523 -0.08985395
0001d0 07 57 0d 3e 42 5f f9 bd be a4 bc 3d e8 7c 1a be
       0.1380273 -0.12176372 0.092111096 -0.1508671
0001e0 4c 44 36 be fa f1 84 3c e1 5b 29 3e 2f 94 a3 bd
       -0.1779949 0.016228665 0.16538955 -0.07987248
0001f0 22 17 13 bd 43 f5 f9 bd 65 cd 89 bd 4e 64 11 3e
       -0.035910733 -0.12204983 -0.06728629 0.1419842
000200 9a c2 05 3e e6 f5 14 3d 14 33 f1 3b 2d 69 15 3d
       0.13062516 0.03636732 0.0073608253 0.036477257
000210 89 3f 9e be 71 86 76 3e e4 7b eb 3d b0 73 d6 bc
       -0.30907848 0.24074723 0.1149824 -0.026178211
000220 6e 46 0b 3e 06 2d 64 bc 59 5e a2 bd f9 0e b0 3d
       0.13601086 -0.01392675 -0.07928152 0.08596606
000230 c4 8b d3 3d 5e 4b 52 be c0 a5 19 3e 95 1e 41 3d
       0.103293926 -0.20536563 0.15004635 0.047148306
000240 1b da c2 bc 52 73 33 3e 16 29 27 be 27 2b f1 bd
       -0.023785641 0.1752446 -0.16324267 -0.11775809
000250 46 4f 08 bd b3 45 92 be 3d 12 e9 3d 53 f7 9c 3d
       -0.033278726 -0.285688 0.11380432 0.07664361
000260 0c e1 7b be e0 e6 19 3e ef ad cc 3d 7f 47 87 bd
       -0.24597567 0.15029478 0.09994113 -0.06605434
000270 1b fd fc 3d e0 30 10 3c 6f 3d d5 3c 38 3b 1a 3e
       0.123529635 0.008800715 0.02603027 0.15061653
000280 53 03 1a bc 14 bb 3d be 66 78 15 bd b2 7a a6 bd
       -0.009400207 -0.18528396 -0.036491774 -0.08128871
000290 18 fa 0f be 93 6a d9 3d 29 f4 0f bd 53 41 85 3d
       -0.14060247 0.106160305 -0.03514496 0.065066
0002a0 27 1e 59 bd 95 0f c6 bd 4c 2c 57 bd e8 78 1e 3e
       -0.05300727 -0.09670941 -0.05253248 0.1547581
0002b0 73 c7 e7 3d dd d1 08 bd c7 ff e7 bd 9c 25 34 3b
       0.11317339 -0.033403266 -0.113280825 0.0027488237
0002c0 6a 3e 0f 3e ca b6 b1 bd 59 25 3d 3e db d7 ae bb
       0.13988653 -0.08677442 0.18471278 -0.0053357906
0002d0 e2 75 32 be f8 00 54 bd fd 63 0e bd f2 55 84 3c
       -0.17427781 -0.051758736 -0.034763325 0.016154263
0002e0 44 07 31 3d 3f 89 02 bd 51 a7 e3 bd 38 29 c8 bd
       0.04321982 -0.03186917 -0.111158974 -0.09773487
0002f0 36 3f 03 3c fb 24 a9 3c 6c 18 49 be fe ea 54 bd
       0.008010676 0.020647516 -0.19638222 -0.05198192
000300 07 bb 6c 3d 39 76 82 bd d7 3a 08 bc d9 71 76 3d
       0.05779555 -0.063702054 -0.00831481 0.060167167
000310 6f 60 3d be a6 c7 36 3e 36 27 bb 3c 7c 3b 30 be
       -0.18493818 0.17849597 0.022845846 -0.17210191
000320 de 5c 09 3e f8 98 86 bd fe 5f 36 3e 4b 31 07 bc
       0.13414332 -0.06572145 0.17810056 -0.008251498
000330 60 2e 9e be 85 ad c1 3d 11 64 0b be f6 8f 68 3e
       -0.30894756 0.09456924 -0.13612391 0.22711167
000340 62 bd aa bb 1d e3 62 be b6 a0 ef 3d c4 5c 1b be
       -0.0052105645 -0.2215695 0.11700575 -0.15172106
000350 f7 80 3c be be 18 65 be f0 9e 7f bd 49 a8 9b 3e
       -0.18408571 -0.2237272 -0.062407434 0.3040183
000360 e4 e5 13 3d b2 dc de 3d 3b a6 2c bd 86 b2 9b bb
       0.036107913 0.10881938 -0.042150717 -0.0047515063
000370 5e fc be 3d f7 0d c0 bd 22 8b c5 bb d8 b5 c3 be
       0.09325479 -0.093776636 -0.006028549 -0.38224673
000380 0f 9a f6 bd e3 cf ea 3c fa d8 08 be ba ca b5 bc
       -0.12041103 0.028663581 -0.1336402 -0.022191394
000390 0a df e7 3c e3 54 0b be db 88 6a 3e d9 a5 07 be
       0.028304596 -0.136066 0.22903769 -0.1324686
0003a0 1c 0c 16 be 43 ab 36 bd 6c df 2b 3d bf e2 99 be
       -0.14653057 -0.04459692 0.04196112 -0.30055806
0003b0 e3 59 69 3b 79 2f bc 3d c6 ca 53 bd 57 f5 34 bd
       0.0035606555 0.09188742 -0.05170705 -0.044179287
0003c0 6e a1 78 bc 56 50 f5 be 96 e1 18 3e b1 ad 90 bd
       -0.015175207 -0.47912854 0.14929804 -0.07064379
0003d0 6e 60 30 be 7d ed e7 bd bf ce b6 3d 16 1b bc 3d
       -0.17224285 -0.11324594 0.089261524 0.09184854
0003e0 27 6a 1f 3e ca c2 38 3e 8e 7c 4c be 72 2b 89 3d
       0.15567838 0.18043056 -0.19969389 0.0669774
0003f0 e9 05 eb bd 01 ec 03 3d 8a 2b 70 3e 31 dd e1 be
       -0.11475737 0.032207493 0.23454109 -0.44114068

model.1.bias f4 [32]
000000 62 a1 7c bd b3 e0 e5 3d b1 ff 80 3e 02 7e c6 3d
       -0.061677344 0.112244986 0.25195077 0.09692003
000010 1f 6c b6 3d 24 80 0d bc 2a 34 ed 3c 24 9d 26 3d
       0.08907341 -0.008636508 0.028955538 0.040677205
000020 cd 7f bf 3d ee 44 f6 3d 59 d7 60 3e f3 f3 f2 3d
       0.09350548 0.12024866 0.21957149 0.11862936
000030 b3 ac 5e 3d 3a 1a a4 bd e2 63 60 bd 04 09 41 bd
       0.054363918 -0.08012815 -0.054782756 -0.04712774
000040 4f c2 2d be 5f 2a 6b 3d 08 b1 28 be 6e b3 74 bd
       -0.16968654 0.057413455 -0.16473782 -0.05974143
000050 83 dd db bd 43 0e 19 be 9e b3 3a be 76 22 51 bd
       -0.107356094 -0.14946847 -0.18232581 -0.051058255
000060 2a 8a 18 3e 8c f0 c0 3c ac d4 01 3b b5 13 b7 3d
       0.14896455 0.023552202 0.00198106 0.08939306
000070 c0 e6 35 be 9e 21 08 bd e0 a1 20 be 96 d9 ca bb
       -0.17763805 -0.033235185 -0.1568675 -0.006190489

model.3.weight f4 [32, 32]
000000 2c 78 2d be 80 72 35 3e 99 69 56 3c 84 df 73 3c
       -0.16940373 0.1771946 0.0130867 0.014884833
000010 eb ed e6 bd 77 16 2f 3e 84 c8 dd bc e7 81 c8 bc
       -0.11275848 0.17098413 -0.027073152 -0.024476005
000020 4d dc 59 3d da 2b ec bb 38 a3 75 bd 4f ed 1b be
       0.05318861 -0.007207376 -0.05997011 -0.15227245
000030 45 9b 83 3c 29 9f 80 3d ad 30 9f 3c 4b 18 90 3c
       0.01606525 0.062803574 0.01943239 0.017589709
000040 80 da c2 3d a3 8a 1e 3e 21 93 da 3d fd e2 55 3e
       0.09514332 0.15482573 0.10672594 0.2088737
000050 55 20 b0 bd b5 ca d0 bd cb e4 4b be 93 ae 1e 3e
       -0.08599917 -0.10194913 -0.19911496 0.15496282
000060 2a 94 ad bd 3c 41 8f 3d 30 49 ae 3c 52 14 75 bd
       -0.08475526 0.06994864 0.021275133 -0.059833832
000070 0f bf 0f bd 0f 77 62 3d cf 5f 1c 3d c8 22 49 3d
       -0.035094317 0.055289324 0.038177308 0.049105436
000080 94 3e 40 3e 05 fd 11 be 83 a7 15 be b0 58 d6 3d
       0.18773872 -0.14256676 -0.14614682 0.104661345
000090 c1 c4 14 3e 8f 1e 8b 3d bc 02 ea 3c a2 36 02 bd
       0.1452818 0.06792938 0.028565757 -0.031790383
0000a0 6a 21 33 be c6 f2 f9 bd 42 dd 16 3e f9 38 35 3e
       -0.17493215 -0.122045085 0.1473284 0.17697515
0000b0 3c 27 db bb b5 f4 46 be 1e 24 0f bd 6c 35 27 3d
       -0.0066880267 -0.19429286 -0.034946553 0.04082243
0000c0 1b da 50 be d9 60 67 bd 71 dd 25 3d 0c f1 38 be
       -0.203957 -0.056488845 0.040494386 -0.18060702
0000d0 2c 3e 13 bd 64 61 33 ba 51 23 4d 3e 79 a8 e1 bd
       -0.035947964 -0.00068428204 0.20033003 -0.11018462
0000e0 2a b0 23 bd 66 9c 91 bd 57 8d 62 be c7 88 8d bd
       -0.039962925 -0.07109909 -0.2212423 -0.06910854
0000f0 9a 71 08 3d 0b a8 1d be c7 31 fc bd c5 b7 ee 3d
       0.033311464 -0.15396135 -0.12314182 0.11656145
000100 78 8a f8 bb d7 59 8d bd 0d d4 0c 3e 4b 5f 46 bd
       -0.007584866 -0.06901901 0.13752766 -0.048430722
000110 31 bf 2c 3e 45 40 33 3e 95 d0 f0 bb 4a d7 25 bd
       0.16869809 0.17504986 -0.0073490837 -0.04048852
000120 9c 19 f1 bd 46 31 d4 3d 0d bb ec 3d 7c 1f 34 3e
       -0.11772463 0.10360961 0.115591146 0.17590135
000130 7a cc 49 be de 87 04 3e 8b 1a 08 be 47 a4 fd 3b
       -0.19706908 0.12942454 -0.13291375 0.0077405307
000140 3f 6e b4 3d c9 a0 06 be e1 95 2e 3e de 52 60 3e
       0.0881009 -0.13147272 0.17049362 0.21906611
000150 e0 27 06 3e 2c 74 a6 bd da 8c 33 3d 66 69 f6 bc
       0.13101149 -0.08127627 0.0438355 -0.030079555
000160 97 13 47 3e b4 c2 77 3d b7 28 74 3e 29 f4 22 be
       0.19441067 0.060488418 0.23843656 -0.15913452
000170 ad 7e ce 3d 58 d1 4a 3e c8 03 8a bc b6 5d d9 bd
       0.10082755 0.19806421 -0.016847506 -0.10613577
000180 52 12 8a be 8c 40 8b 3d ca 0d e0 bc d8 6c d3 bd
       -0.26967102 0.06799421 -0.027350325 -0.10323495
000190 11 94 a0 bd b3 b2 80 3d 7e 5b 45 3d 2d 0b 0e 3e
       -0.078407414 0.06284084 0.048182957 0.1387145
0001a0 6b f3 e2 bc 75 30 91 bd 9b e4 80 bd 47 bb 84 bc
       -0.027703961 -0.070893206 -0.06293603 -0.016202582
0001b0 f5 02 c4 3d 4a 16 98 bd 90 5b 34 bd 97 14 48 3d
       0.095708765 -0.07426126 -0.044032633 0.04884776
0001c0 d0 4e cc 3b 02 ce c1 bd cb 05 75 3e 74 63 06 3e
       0.006234981 -0.09463121 0.23927991 0.13123876
0001d0 c3 53 45 3e 6a 3e 18 be 5a 91 b7 3d d5 2f 84 be
       0.19270234 -0.14867559 0.089632705 -0.25817743
0001e0 f0 f7 54 be 9f 82 6b be e2 1c b0 3e f5 1f 03 be
       -0.20797706 -0.22999047 0.34397036 -0.1280516
0001f0 a3 6b e2 3d c3 c3 6f 3e eb 32 2a 3e 31 b9 07 3d
       0.11055686 0.23414521 0.16620986 0.033135597
000200 64 3a 9f 3d a9 d4 3c 3d 19 2c 95 bd 5a 11 55 3e
       0.07774809 0.046101246 -0.072838016 0.208074
000210 df 87 48 be be 8c 65 be 70 21 7c bd 79 57 00 be
       -0.1958308 -0.2241697 -0.061555326 -0.12533368
000220 aa 1a 63 bc f3 7b 02 3e 89 0b 28 be 6e 9b f2 3d
       -0.013861338 0.12742595 -0.1641065 0.11846052
000230 0a e8 59 3e da cf 06 be dc 35 4d bd 32 fd 7f bd
       0.21279922 -0.13165227 -0.050100192 -0.062497325
000240 79 ad 3c bb 6c cb e9 3d 2d 5a fd bc df d3 ba 3d
       -0.0028789921 0.11415753 -0.030926788 0.091224425
000250 df 84 94 3d 3a bd e2 bd 60 51 c8 3d 56 78 43 3e
       0.07251906 -0.11071248 0.09781146 0.19088873
000260 b4 01 e9 3d d6 dd bd 3d 7b f7 9d bd d7 52 09 3e
       0.11377278 0.092708275 -0.07713219 0.13410507
000270 65 bb 56 bd 32 56 5f be bb 34 29 be 9e f2 fe 3d
       -0.052424807 -0.21810225 -0.16524021 0.12448619
000280 d1 9e 71 bd 6c 4b 05 be 38 55 02 3e 71 f5 68 3d
       -0.05898935 -0.13017052 0.12727821 0.056874696
000290 5d b4 08 be 32 ad 5f bd 08 81 4b be a4 ca 00 be
       -0.13350053 -0.05460853 -0.1987344 -0.12577301
0002a0 a2 ee d9 bd da 2c 03 3e 79 09 fa 3d 85 f3 b8 bd
       -0.10641219 0.12810078 0.12208838 -0.09030823
0002b0 08 6d 8a bc 9b 34 0c bd 40 20 ab 3d 5f bc 43 3d
       -0.016897693 -0.034229856 0.083557606 0.047787067
0002c0 83 fc 0e 3e 88 59 26 bc 5f 94 d0 3d 97 94 d4 3d
       0.13963513 -0.010153182 0.101845495 0.10379904
0002d0 d9 8e af bd 75 ad 3a 3e dd ae 21 bb 64 aa 05 3e
       -0.08572168 0.18230231 -0.0024670877 0.1305328
0002e0 11 c2 a5 bd 08 8e 33 bd ac f5 01 be c6 b1 c1 bd
       -0.08093656 -0.043836623 -0.12691373 -0.09457736
0002f0 65 2a 61 be b4 12 db 3d e9 53 99 3d ae a1 18 3e
       -0.21988828 0.10696927 0.07486708 0.14905426
000300 80 ef d4 3d c6 c2 f9 bd 2c d9 91 bd a6 fc 0b bd
       0.103972435 -0.12195353 -0.071215004 -0.03417649
000310 d5 ec 25 be 7f ad 21 be 39 7b 82 3d 0f ce ce 3c
       -0.16203626 -0.1578884 0.06371159 0.02524474
000320 f9 f0 26 3e c8 8a 2e be 68 b1 35 be 25 34 9e bd
       0.16302861 -0.17045128 -0.17743456 -0.077247895
000330 a2 94 b2 bc 80 12 2d be 39 c2 2c be 62 e7 2a 3e
       -0.02179939 -0.16901588 -0.16870965 0.16689828
000340 22 ad 2a be d7 e9 2e bd d4 1c f8 bc 2a ab f5 bd
       -0.16667607 -0.042703476 -0.030287184 -0.119955376
000350 d9 28 9f 3d 2f 2e 5a 3d 97 28 c6 3c 69 08 ee bd
       0.07771463 0.0532667 0.024189277 -0.11622698
000360 7e 4b 9a bd 77 79 0a 3d 97 48 a3 bc 47 3e d9 3d
       -0.0753393 0.033807244 -0.019932074 0.106075816
000370 6b 1f b4 3d b4 07 0d 3e 1c c7 58 bd f9 65 43 be
       0.08795055 0.1377247 -0.05292426 -0.19081868
000380 3f 62 8e 3c 4f 31 09 be 5e e8 82 3d de 35 40 3e
       0.017380832 -0.13397716 0.06391977 0.18770549
000390 7b f9 dc bd 23 5b f7 3b de 7e 37 be 2b 4d 86 bd
       -0.10789772 0.007548706 -0.1791949 -0.06557687
0003a0 ec 83 37 be 62 39 d0 3b 22 10 e4 bd d3 b3 05 bd
       -0.17921418 0.006354497 -0.111358896 -0.032642197
0003b0 ac 6d b4 bd 79 65 1b be 2e ae c2 3c c4 42 25 bd
       -0.08809981 -0.15175427 0.023764696 -0.040346876
0003c0 9e 94 87 bd 5b 72 3e 3b 98 49 c7 bd b7 dc de 3d
       -0.06620143 0.002905986 -0.09730834 0.10881942
0003d0 5e 7f 0d be cb e8 55 3e cf 0d 31 3e be 22 36 3e
       -0.13818118 0.20889585 0.17290424 0.1778669
0003e0 a3 e8 c2 3d 4a 1a 66 3e e5 00 39 3d 56 7a aa bd
       0.09517028 0.22470966 0.04516687 -0.08324115
0003f0 b9 17 e9 3d 20 e7 0e be 01 00 dd 3d d7 a6 19 be
       0.11381478 -0.13955355 0.10791016 -0.1500505

model.3.bias f4 [32]
000000 20 75 4b be e5 fd 09 3d 69 8a d0 bd cc d2 33 3c
       -0.19868898 0.0336894 -0.1018265 0.010975551
000010 02 bc a1 3d e3 5c db bd 0c c0 2e 3e e4 a8 17 3d
       0.07897188 -0.10711076 0.17065448 0.0370263
000020 9e af 37 3e 3d 7b 4b 3e 2b ec d9 3d c9 88 2a be
       0.17938086 0.1987123 0.106407486 -0.16653742
000030 85 5f 98 bc 02 6a 9a bc ae 06 06 3d d5 13 95 bd
       -0.018600235 -0.018849377 0.032721214 -0.07279173
000040 43 30 38 3c f8 7e f8 3d 54 00 eb 3d 74 78 01 be
       0.011241975 0.12133592 0.11474672 -0.12643605
000050 8f ad 8d bc be 2a ec 3d d5 68 d6 3c 12 af 80 3d
       -0.017294673 0.1153159 0.026173035 0.06283392
000060 35 3b c2 bd 98 9a 06 be e9 7c fb 3d e7 d6 e1 bb
       -0.09483949 -0.1314491 0.12279684 -0.0068920734
000070 ab 77 be bd 42 08 08 be 77 8b e7 bd 0f 87 ad 3b
       -0.093001686 -0.132844 -0.11305898 0.0052956413

model.5.weight f4 [32, 32]
000000 af 09 c9 3d ea e0 3b be 87 0e 83 3e 14 1c f4 bd
       0.098163 -0.18347517 0.2559702 -0.11919418
000010 7b 62 d0 bd 98 1e 7c bd cf e0 c0 3d 45 44 a5 bd
       -0.10175034 -0.061552614 0.09417879 -0.08069662
000020 79 98 bf bd 45 8a 22 be 1a 68 3d be de 6c b2 3d
       -0.09355254 -0.15873058 -0.18496743 0.08712171
000030 ca 5f bd bd ee 6d d8 bd 82 a7 6f bc 97 47 88 bd
       -0.09246786 -0.105678424 -0.014627339 -0.0665428
000040 27 eb 47 bd 17 a2 c0 bd 61 c4 31 3e 0f a7 91 3c
       -0.048808243 -0.09405916 0.17360069 0.017779855
000050 62 23 f1 bc eb cb 2d 3e 51 1f 80 bc 6e 3e 03 3d
       -0.029435817 0.1697232 -0.015639933 0.03204196
000060 f8 7d 07 3d fa 7d fa bd 6f e3 9a 3d eb ae 41 3e
       0.033079118 -0.12231059 0.07562911 0.18914382
000070 81 fa 8d bc 80 2a cd 3d e9 45 04 be d4 6d f3 3d
       -0.017331364 0.10017872 -0.12917294 0.118861824
000080 ae 4d 65 be fc fa 56 bc 96 7a ed bd d4 db 2b bd
       -0.22392914 -0.013121363 -0.11595647 -0.04195769
000090 44 ab 0c 3e 19 74 84 3d 6e 08 27 3e 70 6b a7 bc
       0.13737208 0.06467456 0.1631181 -0.020436972
0000a0 fd a9 e4 3d ec 8d 88 bc fc 80 0c 3e 1c 4c c8 bd
       0.11165235 -0.016669236 0.13721079 -0.09780142
0000b0 b0 1b 9e 3d 19 c8 31 be 31 15 f8 bd d6 ce 08 be
       0.07720125 -0.17361487 -0.12113417 -0.13360152
0000c0 e4 2f b2 3c 06 c5 49 3c 27 95 81 bd 72 13 91 3d
       0.021751352 0.01231504 -0.06327277 0.07083787
0000d0 0f b1 0e 3e 06 96 3e bd 7d 74 fc 3d 6c e4 3a bd
       0.1393473 -0.046529792 0.12326906 -0.045627996
0000e0 48 11 c0 bd 53 4f 99 bd 0a 13 da 3d 5f 02 fa 3d
       -0.09378296 -0.07485833 0.10648163 0.122074835
0000f0 45 65 ec bd 84 b2 bf bd 21 2a 31 3d 61 31 2b 3d
       -0.11542753 -0.09360221 0.043253068 0.04179514
000100 4f af 87 3d df bc 19 bc 07 12 23 3e fd fe a3 bd
       0.06625234 -0.009383409 0.15924846 -0.080076195
000110 b5 28 6e be 9b 31 c6 3d c1 24 22 3d 18 0a 58 bb
       -0.23257716 0.0967743 0.039585833 -0.0032965
000120 76 61 6f be a3 21 75 be 47 bc 19 3d 95 a2 19 3e
       -0.23377022 -0.23938613 0.03753307 0.15003426
000130 74 f5 52 be 41 ac d0 bc 3f bc fd 3d d2 b6 89 3c
       -0.20601445 -0.025472762 0.12389421 0.016810808
000140 10 82 b3 bc d7 5a 56 3e 80 06 a6 bd 06 88 33 bd
       -0.021912605 0.2093309 -0.081067085 -0.043830894
000150 a8 5b 52 bd 9a 0d 64 3d 39 dc bf bc b1 2b 06 3d
       -0.05135694 0.055677034 -0.02342044 0.03275651
000160 8a 04 1f 3a 27 c9 9f 3b 14 d7 16 3e 98 14 97 bd
       0.0006066045 0.004876274 0.14730483 -0.07376975
000170 45 5f 05 3e e1 d7 86 3a 35 bd 01 3e f4 b2 25 bd
       0.13024624 0.0010287726 0.12669833 -0.040453866
000180 ab d9 59 3c 82 05 32 3d 90 d6 2e be b3 21 0b be
       0.013296525 0.043462284 -0.17074037 -0.13587074
000190 06 82 64 3e 43 5a 3d be d0 b8 a8 3d f3 dc f5 3d
       0.22315225 -0.18491463 0.08238375 0.12005033
0001a0 d6 b6 82 3e a0 07 0e 3e f5 3f 70 3e 0a b7 59 be
       0.25530118 0.13870096 0.23461898 -0.2126123
0001b0 13 7f 53 3e ce 4c ca bc 2a 8b 54 be f3 4e 52 be
       0.20653944 -0.024694826 -0.20756212 -0.20537929
0001c0 0d 2a 31 be a9 55 a5 bc 6e dd a0 bd 0e 43 70 bd
       -0.17301197 -0.020182448 -0.07854734 -0.0586577
0001d0 21 87 8c 3d 13 cb 26 be f6 ad 9f bd 32 75 d6 3a
       0.06861711 -0.16288404 -0.07796852 0.0016361831
0001e0 22 4c dd bd 64 eb f9 3c e8 15 d3 3d e9 c5 1c 3c
       -0.10805537 0.03050775 0.10306913 0.00956867
0001f0 19 0b fd bb e4 f9 6e 3d 50 1d 98 bb 5b 48 24 be
       -0.00772227 0.058343783 -0.004642166 -0.16043226
000200 5b 9c e4 3d f7 25 47 bd 19 14 66 be 6c a4 55 be
       0.11162635 -0.04862019 -0.22468604 -0.20863503
000210 9b fd 13 3e 27 02 b5 bd 77 77 6d 3d 34 b7 c2 bd
       0.14452212 -0.08838301 0.05797526 -0.095075995
000220 f4 2a 5e 3e 17 d7 4c 3e a6 7b 75 bb 05 0e e6 bc
       0.21696073 0.20003925 -0.0037457733 -0.028082857
000230 4e 7f f1 3d 02 c3 3f be 70 fc 3d ba 73 50 cf 3d
       0.117918596 -0.18726733 -0.0007247394 0.10122766
000240 68 46 81 3d e7 81 25 be 91 85 15 be a5 4a 6a bd
       0.06312257 -0.16162835 -0.14601733 -0.057200093
000250 98 04 41 bc 58 86 ca bd b2 99 95 3d 41 9d de bd
       -0.01178088 -0.09888905 0.07304706 -0.108698376
000260 e5 13 81 bd 57 d4 30 be c2 be 2a 3e 4e 4e 0a 3e
       -0.06302623 -0.17268501 0.16674331 0.13506433
000270 38 3c d5 bd 18 69 ce 3d 0b 09 d9 3d 64 40 0f be
       -0.104118764 0.10078639 0.10597428 -0.13989407
000280 90 d1 2b 3e c8 4a 1a bd 98 70 66 3d 0a af 42 bc
       0.1677916 -0.037668973 0.05625972 -0.011882553
000290 25 f3 80 bb ae 69 70 3b b7 60 3b be f4 6b ba bd
       -0.003935235 0.0036684084 -0.18298613 -0.09102622
0002a0 fa b7 95 bc 82 46 a3 3c 4e 79 56 be 0a 75 d9 bb
       -0.018276203 0.019931082 -0.20944712 -0.0066362666
0002b0 20 fa 2a bd 43 bf 80 bc 63 4e 9d bc 77 db ad 3d
       -0.041742444 -0.0157162 -0.019202417 0.08489125
0002c0 bb 09 02 3e 48 77 d2 bc 4c cf bd 3d aa ca ad bd
       0.12699024 -0.025691643 0.09268054 -0.08485921
0002d0 b9 bd 0e 3d 07 1b db bd 12 57 59 bd 34 a3 a2 bd
       0.034848902 -0.106985144 -0.053061552 -0.07941285
0002e0 a4 03 4f 3d 0f 93 1e 3c 1b c7 f7 bc 24 9a ed bc
       0.05054058 0.009678616 -0.030246308 -0.029004164
0002f0 e1 59 b6 bd b3 d1 b2 3d f5 cd a9 3d 38 9d d3 bd
       -0.08903862 0.08731403 0.08291236 -0.103327215
000300 52 98 4f be ad 71 b4 3d 92 ff 90 bc bd 96 16 be
       -0.2027295 0.088107444 -0.01769999 -0.1470594
000310 6a 78 48 3e 31 27 87 3d f4 36 55 3e 02 79 86 3d
       0.19577184 0.06599272 0.20821744 0.06566049
000320 a2 cf 48 3e 47 6a f9 3c e2 ed 89 3d 6c d1 29 bc
       0.19610456 0.030446185 0.06734826 -0.0103648715
000330 28 b2 93 3d 86 84 62 bd 8a a3 18 be 69 8c 0b be
       0.07211715 -0.055302165 -0.14906135 -0.13627781
000340 bc b8 f2 3d 7c 46 39 bb cf 90 1d be f5 9f a2 bd
       0.118516415 -0.0028270772 -0.15387271 -0.07940666
000350 7d da b0 bd 87 5f 26 bd 97 28 28 be e5 3a 15 bc
       -0.08635423 -0.040618446 -0.16421734 -0.00910828
000360 03 de 36 bc ba ba 46 bd c8 e4 d4 3d c9 b5 a7 bd
       -0.01116133 -0.04851792 0.10395199 -0.0818897
000370 81 01 83 be 73 f8 d6 bd d2 43 f5 bd e5 0d 7d bd
       -0.25587085 -0.10496607 -0.11975826 -0.06178083
000380 9d 56 da bc b9 ac 39 bc a9 2c 0e 3e ca 7b df 3c
       -0.026652629 -0.011332684 0.13884224 0.027280707
000390 b7 00 12 be 37 32 90 3d f2 1b cc bc ea b5 de 3c
       -0.14258085 0.07040828 -0.02491567 0.027186353
0003a0 03 44 75 bd 83 17 bb 3d ed c9 df bc f5 a7 d1 bd
       -0.059879314 0.09135344 -0.027317965 -0.102371134
0003b0 55 c7 b4 bd 4f 3e 81 3d 2c 1d ac bd 84 b7 19 be
       -0.08827082 0.063107125 -0.084040016 -0.15011412
0003c0 48 6e 10 3e 22 86 ce ba bb 77 8a 3d 6c a7 5d 3e
       0.14104569 -0.0015756527 0.06761118 0.21645898
0003d0 ff f0 98 3c 5f d9 8c 3c 39 8d 33 be c4 71 07 3e
       0.018669603 0.017193494 -0.17534341 0.13226992
0003e0 43 d9 ad bd 7b ee e7 bc 79 54 af bd 88 0a 79 bd
       -0.08488705 -0.028311959 -0.08561034 -0.06080106
0003f0 f8 fb 1f 3e ef a6 d2 3d 8b be b7 3d c2 ec b3 3d
       0.15623462 0.10285746 0.0897189 0.08785392

model.5.bias f4 [32]
000000 30 f6 d4 bc b9 97 19 3e 12 4b 10 be bb 70 c1 bb
       -0.025996298 0.14999284 -0.14091137 -0.005903331
000010 30 16 9c bc e0 27 35 3d d8 74 56 3e a0 aa 1a bd
       -0.019053549 0.04422748 0.2094301 -0.037760377
000020 f4 b5 d8 bb 4a ef 83 3d 1c cf 40 3d 43 7e 1f 3e
       -0.0066134874 0.06442125 0.047072515 0.15575509
000030 88 bb 03 3e 67 f5 0f be dc 13 c7 bd 75 86 1f be
       0.12864506 -0.14058457 -0.09720585 -0.15578635
000040 52 be e9 bc 47 05 fe bc e2 80 fd 3d 8f f5 21 3d
       -0.028533135 -0.031008376 0.12378098 0.039540824
000050 7f 6d dd 3d 21 d7 d9 3d 64 7a e9 bd f9 b8 1d bd
       0.108119 0.10636736 -0.11400297 -0.03850648
000060 cd fa e6 bd 5a 07 a2 3d e1 4e 4c be 0f fb 0d 3d
       -0.11278305 0.079115584 -0.19951965 0.034663256
000070 fb 8f c3 bc 0d 95 0b 3e fb 47 74 bd 36 cc 9e bd
       -0.023872366 0.13631077 -0.05963896 -0.07753794

model.7.weight f4 [32, 32]
000000 af 02 98 bc 67 13 d5 3d ac dd 8a bd f8 d5 63 3d
       -0.018555967 0.10404091 -0.06780562 0.05562398
000010 95 93 49 be 09 3d 75 3c 75 19 c0 3d ad 01 dd 3d
       -0.19685204 0.014968165 0.093798555 0.10791335
000020 23 3a 09 3e 25 f6 54 be db 4f 84 3d c0 17 9e 3c
       0.13401084 -0.20797022 0.06460544 0.019298434
000030 9f 69 0c bd f8 f6 f8 bd 3d 45 f2 3d 4c f2 f1 bc
       -0.034280416 -0.121564806 0.118296124 -0.029534481
000040 81 31 84 3d 96 a6 45 3d 68 c6 23 3e c1 2d 26 3d
       0.064547546 0.04825457 0.15993655 0.040570978
000050 c3 08 07 be 43 f1 43 3c fb c4 ad 3d 5c c4 d1 3d
       -0.13186936 0.011959377 0.08484837 0.10242531
000060 a2 49 0d 3e 85 e6 44 3e 30 11 bd 3c 5a b9 0f be
       0.1379762 0.19228561 0.023079485 -0.1403555
000070 d1 13 ab 3d ff fc 20 bd b4 99 d1 3c 71 42 6c bd
       0.08353389 -0.039303776 0.025585987 -0.05768055
000080 28 0f 0f 3e e5 cf 3e be 99 d7 fb bd f3 9f e7 bd
       0.13970625 -0.18633993 -0.12296981 -0.11309805
000090 0d 1b ee bd e1 e8 6c 3d 5d 9b 7b 3d 3c 58 3d 3e
       -0.11626253 0.057839278 0.061427463 0.1849069
0000a0 51 c0 57 3d 82 fa 2b be 60 7b b7 3c bf 68 40 be
       0.05267364 -0.1679478 0.022397697 -0.18789957
0000b0 42 6b 94 bd c2 ea f3 bd a5 d2 ea 3b 45 a2 4e 3d
       -0.0724702 -0.11910011 0.007166224 0.05044772
0000c0 20 10 c2 bc 19 0c 2b 3d 4a f6 44 3d c6 f2 dd bd
       -0.02368933 0.041759584 0.048086442 -0.10837321
0000d0 20 75 e1 3d 43 01 77 bd fc 60 7d 3d 71 46 0e 3e
       0.11008668 -0.060303938 0.06186007 0.13894059
0000e0 05 2f b9 bc a4 04 8d 3c 22 e5 f4 3d 7f 42 8c 3d
       -0.022605428 0.017214127 0.11957766 0.068486206
0000f0 f8 18 23 be ed 2e 4c be bf fd aa 3d 34 2f 05 be
       -0.15927494 -0.19939776 0.083491795 -0.13006288
000100 a1 96 3e be 23 7b eb bd cf f8 5d 3c ca 8e 42 3d
       -0.18612148 -0.11498096 0.01354809 0.047499456
000110 21 f8 8d bd 02 2d db bd cd 83 0b be 4f 4b 2f 3e
       -0.069320925 -0.10701944 -0.13624497 0.17118572
000120 10 53 d9 3d 18 d9 0c bd 60 99 67 be 68 5f 79 be
       0.10611546 -0.034386724 -0.22617102 -0.24352801
000130 35 cd aa 3d cf 82 1a be 47 4e 0b 3e c1 1e 3b 3e
       0.083399214 -0.15088962 0.13604079 0.1827345
000140 71 79 46 be 33 72 88 3d 1a 03 15 3e fa b0 0d 3e
       -0.19382264 0.06662407 0.14551964 0.13837042
000150 63 d1 38 3d 42 81 f5 3c 83 e7 dc bd d6 00 c1 bd
       0.04512156 0.029968861 -0.10786345 -0.094239876
000160 b3 78 09 3e a4 d9 40 3d f0 12 09 bc 55 e9 17 bd
       0.1342495 0.04708256 -0.008366331 -0.037087757
000170 4d 09 d9 bd e4 35 c7 3d 2d 96 16 3c b9 a2 07 3e
       -0.10597477 0.09727076 0.009191078 0.13245668
000180 f4 b2 0b 3e 84 7b 95 3d 4f 76 29 3e 59 ff a8 bd
       0.13642484 0.07298949 0.16549037 -0.08251829
000190 65 1c 54 3e ad 09 dc 3b bb b0 63 bd eb 23 22 be
       0.20713957 0.0067150206 -0.055588465 -0.15834014
0001a0 bf 62 77 3d 60 af 17 3d 8d 61 48 3e ba 85 35 3e
       0.060396906 0.037032485 0.19568463 0.17726794
0001b0 35 5e e2 bd 21 04 28 3e 86 3a 17 be 01 0e 08 bd
       -0.11053125 0.16407825 -0.14768419 -0.03321648
0001c0 77 5f 25 3e de 8c d1 3d 82 13 24 be 0d a7 9d 3d
       0.16149698 0.102319464 -0.16023067 0.07697878
0001d0 43 a4 85 3d 0f 4a 49 be 2d 2b fb 3d 42 34 8d be
       0.06525471 -0.19657157 0.122640945 -0.27578932
0001e0 fd a5 ec 3d 68 dd 22 be 4e 03 39 3e b8 34 51 be
       0.11555097 -0.15904772 0.18067667 -0.20430267
0001f0 0d 43 46 3e 45 83 17 3e 4b 1e f3 bd 2f 4e 10 be
       0.19361515 0.14796169 -0.11871012 -0.14092325
000200 d4 a6 f6 3d 1a 28 6b 3c 79 a8 5e 3e 07 31 d2 3d
       0.12043539 0.014352823 0.21743955 0.102632575
000210 1f 24 ef 3d 47 94 4d bd cb 74 78 bd cf 88 af bd
       0.116768114 -0.050190236 -0.060658257 -0.08571016
000220 e2 00 c3 3b b4 e1 d6 bd c0 28 5b 3e c5 0b 2f bd
       0.005951033 -0.10492268 0.21402264 -0.042735834
000230 2c 40 bf 3d c7 ed 51 3e d0 6e 7b bd a3 14 ba 3d
       0.09338412 0.20500861 -0.061384976 0.090859674
000240 a7 18 1a 3e 0a 22 24 3e 33 4d 89 bd c4 88 ac bd
       0.15048467 0.1602861 -0.06704178 -0.084245235
000250 97 9c 2f 3e 51 ab 6f be 36 f3 49 be 4b 30 f2 bd
       0.17149578 -0.23405196 -0.19721684 -0.118256174
000260 a9 e0 ce bc 2b 03 41 3c f1 4e ea bd fe 8a 34 bd
       -0.02525361 0.01178054 -0.11440838 -0.044077866
000270 31 e5 e1 3d ff da 91 bd 85 09 d5 3d ea a6 d0 3d
       0.11030043 -0.07121848 0.10402206 0.10188086
000280 38 b9 23 be cf 93 a2 3d f7 9f 80 bd 64 07 be bd
       -0.15988624 0.079383485 -0.06280511 -0.092787534
000290 60 6e f6 bd e5 15 fe bd 55 cd 01 3e 8a 87 2b be
       -0.12032771 -0.1240652 0.12675984 -0.16750923
0002a0 3c 42 01 be 2a 71 65 3d 7b 8e 16 3e 44 fc b4 3d
       -0.12622923 0.056016125 0.1470279 0.08837178
0002b0 ec 01 1a bb f6 09 fc 3d 8f c6 f1 3d ef 42 f0 3d
       -0.002349968 0.123065874 0.1180545 0.117315166
0002c0 8d 48 f8 bd 81 6b 97 3d 09 a2 31 bb 5a 51 b0 be
       -0.12123213 0.073935516 -0.0027104637 -0.34437066
0002d0 6d ef a3 bd 73 69 49 3e 7b 5f 37 bc e7 47 60 be
       -0.08004651 0.19669132 -0.011192198 -0.21902429
0002e0 2b f1 f6 3d ef f7 a6 bd 30 c8 31 3e 71 80 15 3e
       0.12057718 -0.08152758 0.17361522 0.14599778
0002f0 99 5b be 3d b8 2b 1c 3e 26 3a 16 3d e3 45 2b be
       0.092948146 0.15251052 0.03667655 -0.16725878
000300 5f 27 53 bd 3c cd 3d 3e fe f4 fc bd 3e 4b 31 3e
       -0.05155122 0.18535322 -0.12351416 0.17313859
000310 82 65 db 3d 5a c8 1b be 93 08 7f 3d b7 5d 6b be
       0.107127205 -0.15213147 0.062264036 -0.22984968
000320 8e 34 1d 3e e9 e4 25 3e 28 76 df bc ce c1 52 bd
       0.1535208 0.16200604 -0.027278021 -0.051454358
000330 d5 50 06 bd f9 8e 91 3e df fe d6 bb 02 bf 67 3e
       -0.03279193 0.28429392 -0.0065611447 0.22631457
000340 d7 5f 71 bc 91 5d 55 bc ad 05 38 bc be 78 88 be
       -0.014732323 -0.013022796 -0.011231822 -0.2665462
000350 6b 6d 17 3e 4d 96 8c bc cd 13 cd bd 5d c9 e3 bd
       0.14787833 -0.017161513 -0.10013542 -0.111223914
000360 71 92 b6 bc 42 16 43 3b 8e 94 2e 3d 1d ad d4 bb
       -0.022286626 0.0029767905 0.04262214 -0.0064903633
000370 5d f3 4d 3e 34 35 08 bc 70 1a e8 3d 93 27 39 bd
       0.20112367 -0.008313466 0.113331676 -0.045203757
000380 43 01 14 be d3 57 16 3e 5f 40 76 3d 65 a6 10 3d
       -0.14453606 0.1468194 0.060119983 0.035314936
000390 03 e4 06 3e de df 25 be 98 fa 61 3e d4 93 32 bd
       0.13172917 -0.1619868 0.2206825 -0.04359801
0003a0 53 76 01 be 0e 8a 41 3e f0 9c 27 be f8 4b 5f 3e
       -0.12642793 0.1890032 -0.1636846 0.21806324
0003b0 2d 0b 05 3e 0b c0 30 3e 03 2d 39 3b b4 63 54 3e
       0.12992544 0.17260759 0.002825559 0.20741159
0003c0 63 96 b4 3d 99 f2 45 bc e9 fc 70 bd 34 8b 0c be
       0.088177465 -0.012081766 -0.058834944 -0.13724977
0003d0 9c 84 fa bc e3 a6 1d 3d e7 24 f7 3d 82 59 27 be
       -0.030580811 0.038489234 0.120675854 -0.16342738
0003e0 22 93 23 3e f9 0f 5d bd 45 fc ce bd c6 2e a2 3c
       0.15974095 -0.05397031 -0.1010671 0.019797694
0003f0 24 7b d0 3d ac 52 83 3b 3c 00 7b be 41 ca 19 3d
       0.10179737 0.004007658 -0.24511808 0.0375464

model.7.bias f4 [32]
000000 4d 1e 87 3c 6b 2a 20 be 41 d1 a3 bd df 77 18 bd
       0.01649394 -0.15641181 -0.079988964 -0.037223693
000010 d1 03 7b 3d 11 25 1a 3d 48 61 5b 3e 77 16 b5 bd
       0.061282936 0.037633006 0.21423829 -0.088421755
000020 d6 14 82 bd ac 50 93 bd 31 52 a7 bd 27 a8 b5 3d
       -0.063516304 -0.07193121 -0.08169974 0.08869963
000030 7a be 4b be 9b eb 54 bd 85 41 a3 bd 1e a9 b2 bd
       -0.1989688 -0.051982503 -0.07971481 -0.08723663
000040 6e 99 98 bd 61 aa 87 3d 6f f5 e9 bd be 55 e3 3d
       -0.074511394 0.06624294 -0.11423766 0.111003384
000050 4a b3 a9 3c d5 76 86 bd 6a 98 22 3e 5e 01 75 bd
       0.020715374 -0.06565634 0.15878454 -0.059815757
000060 1c fc f5 bd 8c fd 47 3c 32 a1 a9 bc cb 19 2f 3d
       -0.12010977 0.012206446 -0.020706747 0.042749207
000070 58 b9 f0 3b fe 3e d6 bd 80 63 18 be 60 47 c1 3d
       0.0073463134 -0.104612336 -0.14881706 0.09437442

model.9.weight f4 [32, 32]
000000 92 5b 5f ba 06 14 52 3d ac 4c 51 3d f8 5c 00 3e
       -0.000852042 0.051288627 0.05109851 0.12535465
000010 f2 58 9f bd 99 14 54 bd 2e 5c 50 be d3 a7 82 be
       -0.07780637 -0.051777456 -0.20347664 -0.25518665
000020 42 81 32 3d 2b 99 57 3e 8b f5 a1 3d 0c 81 07 be
       0.0435803 0.21054523 0.07908162 -0.13232821
000030 5f 57 ee 3c b7 0c 73 be be d6 e2 bc de 40 02 be
       0.029094396 -0.23735319 -0.027690288 -0.12720057
000040 e6 0f 91 bc 2a 88 18 be 73 51 6b be 2d fe 5f bd
       -0.017707776 -0.14895692 -0.22980289 -0.05468576
000050 96 7e 4f be 04 0b 90 bd 32 ae 70 be ab 12 fd bc
       -0.20263132 -0.07033351 -0.2350395 -0.03089269
000060 b9 d4 2f bc e9 79 40 bd e7 1c 46 be 6c 0d 87 bd
       -0.010731869 -0.046991263 -0.19346963 -0.06594357
000070 c4 fd 04 bd 2e a6 00 3d 24 6c ae 3d cd c4 68 bd
       -0.032468572 0.03140848 0.0851672 -0.05682831
000080 ee 25 ad 3d 86 2b 91 bb 29 26 4f be 49 18 bb bd
       0.084545 -0.004430237 -0.202294 -0.091354914
000090 50 45 c1 bd 1f ce 18 3d 2f fe ba 3c 6e 3b 81 3e
       -0.094370484 0.037305947 0.022826282 0.25240654
0000a0 30 17 bb bc 5a ab 0c be c9 05 80 bd 84 0d 06 3e
       -0.022838205 -0.1373724 -0.062511034 0.13091093
0000b0 bc b8 9f be 20 7c 86 3e 6b 87 ca bd ee cb 7d bd
       -0.3119563 0.26266575 -0.0988911 -0.06196206
0000c0 24 df 92 3d fb f6 03 3e 71 f4 6f 3d 73 06 14 be
       0.07171467 0.12887184 0.058582727 -0.14455585
0000d0 e6 4f 3b 3e cc 1d 7e bd 69 e4 1b 3d 5e 94 48 3d
       0.18292198 -0.062040135 0.038059626 0.04896962
0000e0 ec e0 c7 bd e1 79 e0 bd 7c 78 46 3e 99 11 a0 bd
       -0.09759697 -0.109607466 0.19381899 -0.078158565
0000f0 61 4a fe 3d 08 1e ad 3d ec 9f 2c 3d c2 20 ae bd
       0.124165304 0.08452994 0.0421447 -0.08502342
000100 2d c4 8f bc a1 be 3a be 84 cb 0a 3e 8b 3b 35 3e
       -0.017549599 -0.18236782 0.13554198 0.17698495
000110 02 ed 3d be da 56 ae bd ee 26 84 3e dc 6c 7c 3e
       -0.18547443 -0.08512659 0.2581095 0.24650902
000120 b9 81 75 bd 60 a4 e9 bd f1 8d 5e be 4e 7d 38 3e
       -0.059938166 -0.11408305 -0.21733834 0.1801655
000130 86 2d f9 bd 9b b2 90 3e 35 f3 6c be 0d 2f a4 bc
       -0.12166886 0.28261265 -0.23139651 -0.020041967
000140 74 3d 58 3d 0c 00 db bd 53 b9 32 3e 5f a1 6b 3d
       0.05279298 -0.10693368 0.17453508 0.057526942
000150 6c 1b 94 3b 8b 43 61 3c c8 f3 1a 3e da 17 16 3e
       0.0045198705 0.013749014 0.15132058 0.14657536
000160 c9 1d 24 3e 4a 9a 49 be 9b c0 12 3e aa 8d f6 bd
       0.16026987 -0.19687763 0.14331286 -0.12038739
000170 72 df 03 3e b7 32 1e 3d 3a cf 27 be 48 2f 6a 3d
       0.12878206 0.038622584 -0.16387644 0.057173997
000180 64 a1 22 3e 5e a1 2b 3e 33 76 40 3e 31 1a 92 bd
       0.15881878 0.16760775 0.1879509 -0.07133902
000190 eb 87 22 3e 38 dc 3e be 38 e5 2b be 4c af dc bd
       0.15872161 -0.18638694 -0.16786659 -0.10775623
0001a0 cd 6b 3a 3d 01 4b 3e 3e d7 c0 b0 bd 0e 72 3c 3d
       0.045512963 0.18583299 -0.08630531 0.04600721
0001b0 78 2e 8f 3e 59 de c8 ba 9a ab 0f 3e 6d d0 49 3d
       0.2796514 -0.0015325054 0.14030305 0.049271036
0001c0 ec c8 b0 bc 9a f9 87 bd c8 6c 24 be 7a c2 69 bb
       -0.021580182 -0.066394046 -0.16057122 -0.0035668896
0001d0 04 89 63 be db 3b 68 bd 65 65 f9 bd 88 e9 3f be
       -0.22220236 -0.056697708 -0.121775426 -0.18741429
0001e0 48 6d 08 be a9 29 43 3e b4 34 cb bb ac f8 34 be
       -0.13322937 0.19058861 -0.006201351 -0.17672986
0001f0 1e a7 2e be 0f 80 2d 3d f1 17 81 bd 0c c6 a3 3d
       -0.17055938 0.042358454 -0.063033946 0.07996759
000200 8d 3b 22 bd 03 dc 0d 3e 37 7c 53 3d b2 9e ca bd
       -0.039607573 0.13853459 0.051632132 -0.0989355
000210 3e 64 4d be 2e a6 6d bd af 2c 8f 3d b9 14 f8 bd
       -0.2005777 -0.05801981 0.069909446 -0.121133275
000220 9c 82 4d 3e 9c 24 39 bd d3 b1 86 bc 0f 80 da bc
       0.20069355 -0.04520093 -0.016442215 -0.026672391
000230 4c 4a cf bd cb 75 12 bd 5c fa 7d bd 3e 4b 25 3d
       -0.10121593 -0.035756867 -0.06200634 0.04035496
000240 75 63 64 3d 1a 69 b7 bc e1 8d 41 3e 77 06 84 bd
       0.055758912 -0.022388984 0.18901779 -0.064465456
000250 91 80 bf bd 79 82 f5 bc 0b 55 27 3e ae e9 18 3e
       -0.09350694 -0.02996944 0.16341035 0.14932892
000260 63 0f 04 be d2 69 44 be d1 50 1d 3e 8e da e5 bd
       -0.12896495 -0.19180992 0.1536286 -0.112233266
000270 ae 1d c1 bd d6 5f 3d be 87 49 2f bd fa 43 12 be
       -0.09429489 -0.1849359 -0.04279473 -0.14283744
000280 21 6c 79 3d 00 c9 ab 3e 85 eb 81 bd 69 63 ae 3d
       0.060894135 0.33551788 -0.0634375 0.08515055
000290 86 6e a5 3d 29 de b5 3d b0 78 ba ba 8c 84 4d be
       0.08077721 0.08880264 -0.0014226642 -0.20070094
0002a0 9f dc 59 bd 9a 4b 86 3e 65 f8 a2 3d 14 f3 ce 3d
       -0.053188916 0.26229554 0.07957534 0.10104957
0002b0 f6 26 b8 3a 8a 78 4d be 93 75 3f 3d 97 41 93 bb
       0.0014049697 -0.20065513 0.046742987 -0.004493903
0002c0 fd 2c 0e be 70 51 9a be 11 3e 6f 3c 56 93 6b 3e
       -0.13884349 -0.30140257 0.0146022 0.23005423
0002d0 83 e1 8e be d6 c5 8f bd c1 ac 9a bd fe 72 bc bd
       -0.27906427 -0.07020156 -0.075524814 -0.092016205
0002e0 bb 8d bc bc af 0c a0 3e db db 09 be 93 fd 7b 3d
       -0.023016801 0.31259677 -0.13462774 0.061521124
0002f0 29 e7 64 be 09 16 51 3e cb e6 0f 3e 42 33 94 bc
       -0.22353806 0.20418562 0.14052884 -0.018090848
000300 80 24 de 3d 16 32 69 bc a5 eb ba bd 61 eb 5f bd
       0.108468056 -0.014233133 -0.09126977 -0.054667834
000310 d4 7d ac bd 76 e1 e5 b8 26 91 c4 3d 93 d8 ff bc
       -0.08422437 -0.00010961566 0.09597997 -0.0312312
000320 e1 f0 36 3e 75 0c 1a 3d e4 77 d3 3c 81 e2 23 be
       0.17865326 0.037609536 0.025814004 -0.16004373
000330 86 95 8a bd 88 db e7 bc 4f 8a ec bd e0 fe 37 3d
       -0.067668006 -0.028302923 -0.11549818 0.044920802
000340 99 ee d9 3d d2 40 22 be 82 19 08 be 3f 01 e1 3d
       0.10641212 -0.1584504 -0.1329098 0.10986566
000350 13 d2 5b 3d 70 fd 75 3d fd 79 16 3e de f1 40 3e
       0.05366714 0.06005615 0.14694972 0.18842265
000360 43 d7 47 3d 62 b6 31 3e e4 b5 f5 bd ae 44 07 bd
       0.048789274 0.1735473 -0.119975835 -0.033024482
000370 9d 14 de bd f8 f1 4c bd bd 88 5a 3c 5b 87 f9 bc
       -0.108437754 -0.050035447 0.013338265 -0.03046005
000380 b2 7b 14 3d 27 04 8b bb ed 8a e0 bd ec 19 de bd
       0.036250778 -0.0042424384 -0.10963998 -0.10844788
000390 49 9b 45 3d 89 54 41 bd a6 3b 55 bd db c2 83 3d
       0.048243795 -0.04719976 -0.05205884 0.0643365
0003a0 f4 a6 81 3d 76 66 e1 bc 54 9c 05 3e e0 f6 54 3e
       0.06330672 -0.027514677 0.13047916 0.207973
0003b0 5d 2d 81 3e f2 1d 28 3e 9e 9d 28 be 38 67 8e bd
       0.25229922 0.16417673 -0.16466376 -0.06953281
0003c0 28 b2 86 bd 8f d6 3c bc 49 4d 9e 3d 58 79 a2 bc
       -0.06576949 -0.011525764 0.07729585 -0.019833252
0003d0 9e 42 07 3d ca c8 1d be e7 a3 8e bb d0 20 09 3c
       0.033022515 -0.15408626 -0.004353035 0.0083696395
0003e0 6b a6 57 be 37 fd 03 3e 54 58 1d 3d eb cf 32 bd
       -0.21059577 0.12889563 0.038414314 -0.043655317
0003f0 f0 c9 8e 3d 2e 51 38 3e f8 21 cd 3c 15 0f 20 be
       0.0697211 0.17999718 0.025040612 -0.15630753

model.9.bias f4 [32]
000000 2c 05 c3 3d 57 68 15 be 3a ef d8 bd c3 a4 a8 bd
       0.09522471 -0.14590584 -0.10592504 -0.08234551
000010 86 7d bd bd d6 00 1c be 16 21 25 be 4e f9 53 3d
       -0.09252457 -0.15234694 -0.16125903 0.051751427
000020 67 44 9d bc 72 94 2e 3c 7c d7 00 3d 9b 9c 6c 3d
       -0.019197656 0.010655509 0.031455502 0.057766538
000030 8b 54 a3 bd cf 11 c4 3d 23 fc 07 3e bf ca 2f 3e
       -0.0797511 0.09573709 0.13279776 0.17167185
000040 74 52 07 bd 29 2c 07 3e 85 aa 34 be ae 52 06 be
       -0.033037618 0.1320044 -0.17643173 -0.13117477
000050 13 0d 36 bd 24 c7 99 3c f7 48 06 3d ae 6c 43 be
       -0.044446062 0.018771715 0.03278443 -0.19084427
000060 65 b0 fa 3d 44 23 28 be 60 ce d6 bd 9c 31 a9 3d
       0.12240676 -0.16419703 -0.10488582 0.08261415
000070 b6 67 e4 bc 8e a3 19 be 37 65 09 3c 00 8a 5b 3d
       -0.027881484 -0.15003797 0.008385948 0.053598404

model.11.weight f4 [32, 32]
000000 fa d3 ad 3d c8 66 9b bd 8a 4f 00 be 5f 3f 8c 3d
       0.08487697 -0.07587963 -0.12530342 0.068480246
000010 45 af fc 3c 5e 94 07 3d f1 c8 02 3e a5 2f 8a 3d
       0.030845294 0.03310048 0.12771966 0.06747369
000020 14 b3 06 bb 61 30 f2 3c 84 a1 ea ba a2 30 ed bd
       -0.0020553516 0.029564084 -0.0017900919 -0.115815416
000030 25 55 be bd 08 dd b6 bd d7 e9 f1 bd 53 e2 bc bd
       -0.09293584 -0.08928877 -0.118121795 -0.092228554
000040 89 3b cc 3c 67 cb b0 3d 30 27 25 be 1a eb bd bc
       0.024930732 0.08632546 -0.1612823 -0.023183394
000050 f6 c7 a5 bd 60 6c 28 3e cb 1e 36 be 88 17 88 bd
       -0.0809478 0.16447592 -0.17785184 -0.06645113
000060 d4 c9 2d 3e 61 54 0c bd 75 79 34 3e ba cc 2c bd
       0.16971523 -0.034260157 0.17624457 -0.04218743
000070 ad 13 af 3c bc 29 f5 bd 99 51 41 bb f5 37 a5 bd
       0.021371687 -0.11970851 -0.00294981 -0.080673136
000080 93 ed f1 3c d1 e9 32 bd 30 89 47 bd a4 31 f7 3c
       0.02953223 -0.043680016 -0.048714817 0.030175038
000090 5b 22 21 3d cb 69 d8 bb 5b 8d d6 3d 91 66 e3 3c
       0.039339405 -0.0066044084 0.1047618 0.027758868
0000a0 63 5d 14 3e 9b cd 22 3e 1d 41 1c 3c 81 71 38 3e
       0.14488749 0.15898745 0.009537009 0.18012048
0000b0 0b 3f 0b be 1b 2c 3b be bb 7b 0f 3e fb c2 19 be
       -0.13598268 -0.18278544 0.14012043 -0.15015785
0000c0 96 02 d7 3d 0c ff 67 bc bb 10 13 be d5 41 9c 3e
       0.1049854 -0.014159929 -0.14361851 0.30518976
0000d0 08 97 fb bd cb 48 9a 3d 75 98 99 bc 02 23 9d 3a
       -0.12284666 0.075334154 -0.018749455 0.0011988583
0000e0 b1 54 12 3d 63 16 3e 3e d7 30 1e 3e 7d 33 49 3e
       0.0357253 0.18563227 0.15448318 0.19648547
0000f0 56 8b 1d 3e 14 6c 42 3e 40 5b 8a bd 95 26 a4 3d
       0.15385184 0.18986541 -0.06755686 0.080151714
000100 c5 a6 a6 3d f7 51 3d be e4 f9 d2 bd d1 1d 2e 3e
       0.081372775 -0.18488298 -0.10301569 0.17003562
000110 1f 43 e2 bd 0c fe 05 3e f1 5c 77 3d f4 2e ef 3d
       -0.110479586 0.13085192 0.06039137 0.116788775
000120 9a 8a 09 bd dd b0 49 bd c5 00 4c bd 5f 89 ac 3d
       -0.033579446 -0.049240936 -0.04980542 0.08424639
000130 ff dd d4 3d 2b 13 1b bd 27 a9 f3 3c 24 97 34 be
       0.10393905 -0.037860077 0.029743744 -0.1763578
000140 95 05 0a 3d 2f 2d f2 bd b4 1c 3e 3e f5 4a aa 3e
       0.03369673 -0.11825024 0.18565637 0.33260313
000150 80 10 6f bd f1 07 67 be 2d 55 f4 3d 1d 22 53 3e
       -0.058365345 -0.22561623 0.119303085 0.20618482
000160 e9 4d 68 be 3b 09 31 3e d1 0b 90 bc 53 7e a3 3c
       -0.2268597 0.17288677 -0.01758376 0.019957697
000170 c2 e0 a0 bd 14 11 de 3c 98 d0 4e 3e 60 d9 fb bb
       -0.07855369 0.027107753 0.2019676 -0.007685825
000180 3f 05 59 3e bb ba 22 bd d9 29 a6 bd d0 40 b4 3c
       0.21193407 -0.03972886 -0.081134506 0.022003561
000190 04 13 74 3d e7 dd e7 3d ac 61 13 3e 1c d8 28 bd
       0.059588447 0.113216214 0.14392728 -0.041221723
0001a0 96 f6 25 be 7f d3 1b bd 43 8b 03 3e f7 57 d5 3c
       -0.16207346 -0.038043495 0.12846093 0.026042921
0001b0 82 33 33 3e 29 ab 66 3b 8c e9 21 3e ec a8 db bd
       0.17500117 0.0035197234 0.15811747 -0.10725579
0001c0 92 36 7b bd d6 41 ba 3c 7a 2d b8 3d 2b db e9 3d
       -0.06133134 0.022736471 0.08993049 0.11418756
0001d0 35 00 c2 bb da ec 45 be 7b 8b 01 3d b5 18 7f bd
       -0.005920435 -0.19328633 0.03162716 -0.06227942
0001e0 66 20 3c be 96 3c bc 3d 0e 27 29 be 71 c0 2f 3e
       -0.18371734 0.09191243 -0.16518804 0.17163254
0001f0 84 99 1a 3e 39 f1 1f 3e ac 45 a5 3d ed 11 d8 3d
       0.15097624 0.15619363 0.080699295 0.10550294
000200 eb f8 01 be 18 10 dd 3d c2 88 b7 bd e9 09 e5 bd
       -0.12692611 0.10794085 -0.08961631 -0.11183531
000210 45 43 62 be 5b 1b 19 3e 5e 27 34 bd 22 cd 1b 3e
       -0.22095974 0.14951842 -0.043982856 0.1521497
000220 0e 40 26 be 2e d9 19 be 79 b0 05 3e 61 94 fc bd
       -0.16235372 -0.15024254 0.130556 -0.123329885
000230 aa 75 8e 3d 5e 83 57 3d 27 32 2a be 8f c2 3d 3e
       0.069560364 0.052615516 -0.16620694 0.1853125
000240 59 ff 3e 3d 82 c7 0e be aa f8 1c bd 54 ab 6f be
       0.046630237 -0.13943294 -0.038323082 -0.234052
000250 b1 8d b5 bd a2 eb 51 bc af 07 64 3c c2 7a 03 3b
       -0.08864916 -0.012812527 0.013917848 0.0020062183
000260 f7 9f 5a 3d 0a 45 20 be 33 7e 22 be 61 73 12 bd
       0.05337521 -0.15651336 -0.15868454 -0.035754565
000270 7d f3 24 be a8 e7 28 be 2b af be 3d 42 8d 30 be
       -0.16108508 -0.1649462 0.093107544 -0.17241386
000280 97 73 4f 3e 5b 29 6b bd e4 e7 06 3c 74 e1 3b 3c
       0.20258938 -0.057412487 0.008233998 0.011467326
000290 df 38 36 be 80 fb 20 3d 8e 59 9f bd e5 be 38 3d
       -0.17795132 0.03930235 -0.07780753 0.045103926
0002a0 b4 fb 99 bb 8e 5f 0a bd 00 ee 34 be a8 29 f5 bd
       -0.004699195 -0.033782534 -0.17668915 -0.11970836
0002b0 70 37 a1 3c 82 03 d5 bb f3 74 07 3e db d1 41 be
       0.019679755 -0.0065006623 0.13228206 -0.1892771
0002c0 25 c4 ea bd 42 33 46 be 99 a8 ff bd 0d 80 fa 3d
       -0.11463193 -0.19355491 -0.12483329 0.12231455
0002d0 da 68 b9 3d 96 92 68 be 43 df 25 3e 19 89 98 3c
       0.09053202 -0.22712168 0.16198449 0.01862006
0002e0 f5 15 cb 3c d4 33 94 3d 8d 22 de 3d 2c 34 8e 3d
       0.024790743 0.07236448 0.10846434 0.06943545
0002f0 c4 52 74 bd 05 57 59 bd b1 a4 61 3e 0a 5b 20 be
       -0.059649244 -0.053061504 0.22035481 -0.15659729
000300 bd cf 88 bd 3a a2 38 3e 24 cd 12 3e 00 37 26 bd
       -0.06680248 0.18030635 0.14336067 -0.040579796
000310 fa 8c 27 be 87 90 ac 3d f5 44 b3 bd 5e 36 5f 3c
       -0.16362372 0.08426004 -0.08753387 0.013623802
000320 e7 8e a8 3d 4a a4 16 be 7f c6 8c 3d a0 38 5c be
       0.082303815 -0.14711109 0.068737976 -0.21505976
000330 5f d7 8c bd c2 8f 12 be d0 55 49 3d 5b 5b 2c 3e
       -0.06877016 -0.14312652 0.049154103 0.16831724
000340 5b 97 9b bd df a8 ac ba 17 78 3a be 26 5c 22 be
       -0.07597228 -0.0013172886 -0.18209873 -0.15855464
000350 c4 86 b3 3d 88 2a a9 bc b3 46 26 be 79 45 2f be
       0.08765939 -0.020650163 -0.16237907 -0.17116345
000360 38 eb 7e 3d 71 c8 f5 3d 02 ef 9c 3b cc 6c d4 bd
       0.06223604 0.12001122 0.004789234 -0.10372314
000370 87 9c 4e 3e 29 7d c9 3c 29 5f 47 3d 8d 9f 3b be
       0.20176898 0.024595814 0.048674736 -0.18322583
000380 ed b9 ff bd a1 b0 62 bd 80 9e c3 3d 30 50 6d 3c
       -0.124866344 -0.055344228 0.09551716 0.01448445
000390 fa 3b 54 3e 0e df 25 be cd 28 8f bd c9 be 19 be
       0.20726004 -0.1619837 -0.06990204 -0.15014185
0003a0 3a de 76 bd 62 5c 26 3e 94 c4 4f 3d 3b bf a8 3d
       -0.060270526 0.16246179 0.05072458 0.08239599
0003b0 d2 e9 da 3d dd 1f ba 3d b2 bc 0c be 91 6d ab bd
       0.10689129 0.09088109 -0.13743857 -0.083705075
0003c0 54 a3 f6 3d 0e 32 20 be 00 8c 1b 3e be 32 18 3c
       0.12042871 -0.15644094 0.15190125 0.009289442
0003d0 24 6d 08 3e 16 90 4d bd d8 e9 37 3e 2f b9 fe bd
       0.13322884 -0.05018624 0.17960298 -0.12437665
0003e0 6e 54 28 be 33 6f 1f 3e 1f 48 19 3e 83 2a fe bd
       -0.16438457 0.15569763 0.14968918 -0.12410452
0003f0 7d 02 1a be ce e5 b8 bc 24 70 a1 3c db 78 34 3e
       -0.15040012 -0.022570517 0.019706793 0.17624228

model.11.bias f4 [32]
000000 a2 e7 22 3e e2 0e 27 3e 1d bc 0a be 3e 3a 06 be
       0.15908673 0.16314271 -0.13548322 -0.13108155
000010 51 b3 c6 bd 7c 5b 4b be 8b 2e 86 3c db 95 64 3d
       -0.09702171 -0.19859117 0.016379615 0.055806976
000020 86 e1 26 be 13 ca 47 be 40 42 ff 3d b0 19 39 3b
       -0.16296968 -0.19510679 0.12463808 0.002824407
000030 45 24 cf 3d 79 25 07 be 56 fa 55 bc 76 46 2f bc
       0.1011434 -0.13197888 -0.013060173 -0.010697952
000040 91 31 36 be c6 1d 21 3d 8b c3 d5 bc 19 41 fe bd
       -0.17792346 0.039335035 -0.026094219 -0.1241476
000050 93 e2 c5 3d 2a cd f8 bd ab e6 14 3e dc 51 73 3e
       0.09662356 -0.12148507 0.14541118 0.23761696
000060 83 21 98 bd 85 c9 90 3d e2 5b 4f bd f7 ae 23 be
       -0.07428267 0.07069687 -0.050624736 -0.15984713
000070 6b a7 7c 3c 6a ec f5 3d 79 57 8a 3d 35 c3 8c 3d
       0.015420775 0.12007983 0.06754965 0.0687317
