Heat/models/autosave/Gen_3_Loss_0.00016236.pt (torch, 261795 bytes, 35 tensors)

model.0.weight f4 [32, 2]
0.0023948804 0.52920836 -0.22723873 0.65338916 0.45620453 0.004919107 -0.6124694 0.123817556
0.22343448 -0.6613764 -0.24967277 0.7011593 -0.08882302 -0.62174547 0.4866469 -0.10368581
-0.13897558 0.06096337 0.9117483 0.21525712 -0.6228234 -0.11786619 0.637817 0.64659756
0.70453537 -0.2105563 -0.61699945 -0.02785537 0.12538673 0.7186635 -0.5515072 -0.5972271
0.34864318 -0.36902323 0.70438683 0.36081222 0.34323484 -0.6611043 0.78989106 -0.61283123
0.07071386 0.40671238 0.46105474 -0.5049911 0.17949675 0.4578879 -0.316174 0.10955949
0.2813501 -0.51205826 -0.8226964 0.34376243 0.51153874 -0.17200825 0.4205635 -0.35296613
-0.20154539 0.09855183 -0.25422356 -0.3816054 -0.26249358 -0.34774777 0.71683925 0.18014413
00000000: 6df3 1c3b 337a 073f 45b1 68be 8344 273f
00000010: a493 e93e 7630 a13b cbca 1cbf 0f94 fd3d
00000020: 02cc 643e f74f 29bf 38aa 7fbe 2d7f 333f
00000030: d8e8 b5bd b62a 1fbf c829 f93e 3a59 d4bd
00000040: 9d4f 0ebe bab4 793d 5668 693f 5d6c 5c3e
00000050: 5b71 1fbf d463 f1bd fa47 233f 6b87 253f
00000060: 6e5c 343f 129c 57be adf3 1dbf f230 e4bc
00000070: 6165 003e 55fa 373f 932f 0dbf e0e3 18bf
00000080: 5c81 b23e 9df0 bcbe b252 343f 61bc b83e
00000090: 7abc af3e 223e 29bf 4d36 4a3f 82e2 1cbf
000000a0: 6ed2 903d 9b3c d03e 5e0f ec3e 1947 01bf
000000b0: ffcd 373e 4870 ea3e 8fe1 a1be ba60 e03d
000000c0: 1f0d 903e 4016 03bf 3b9c 52bf a101 b03e
000000d0: 34f4 023f ee22 30be 1954 d73e fab7 b4be
000000e0: ea61 4ebe 8bd5 c93d 9729 82be c861 c3be
000000f0: 8f65 86be ff0b b2be c782 373f b477 383e

model.0.bias f4 [32]
0.48843732 -0.66347355 0.69273645 -0.12495976 0.19652314 -0.2546896 0.6942773 -0.43248975
0.067660466 0.19670755 0.5082137 0.26136446 -0.21174145 -0.5374172 -0.12417037 -0.5143612
0.73659897 -0.17185259 -0.63624865 0.62889624 0.28676975 0.28565565 0.5913837 0.17511038
0.32000044 0.42802185 -0.28471833 -0.6075663 0.20092955 0.298665 0.561346 -0.06397029
00000000: 7514 fa3e 67d9 29bf 2d57 313f e7ea ffbd
00000010: 5d3d 493e ad66 82be 28bc 313f 4c6f ddbe
00000020: 9291 8a3d b46d 493e 4b1a 023f 90d1 853e
00000030: c0d2 58be 2c94 09bf 094d febd 2dad 03bf
00000040: c091 3c3f 20fa 2fbe 31e1 22bf 58ff 203f
00000050: 7cd3 923e 7541 923e ec64 173f 2350 333e
00000060: 19d7 a33e ae25 db3e 9ac6 91be 7789 1bbf
00000070: 7ac0 4d3e 9eea 983e 5fb4 0f3f db02 83bd

model.1.weight f4 [32, 32]
-0.028813953 -0.24420354 -0.013898278 -0.2465568 0.09478076 -0.088060156 0.14693621 0.13943999
-0.13075298 0.10624127 -0.048424773 -0.09825651 0.0685068 -0.098689735 -0.09428775 -0.20596932
0.05885516 -0.066674404 0.113653995 0.17060953 -0.07744142 0.42934328 0.077646114 0.064462006
0.32388154 -0.18305907 0.24308068 0.10608101 -0.046731614 -0.041068863 0.010576068 0.037266277
-0.1383302 -0.08212068 -0.16803752 0.11661625 0.067993246 -0.13248193 -0.01568303 -0.057668842
-0.088635094 0.047434304 0.02822479 -0.16386037 -0.07179056 -0.004179545 0.03228368 -0.1368183
-0.005808208 0.20798026 0.06972415 -0.12054738 0.0284209 0.058643516 -0.1711471 0.12500016
-0.08148054 -0.17326999 0.16370617 0.06267544 0.051320687 -0.105841324 -0.20749852 0.13003702
0.025153704 -0.10646552 0.09744594 -0.0708665 0.0069676493 -0.1704362 0.27748957 0.05453102
0.083165355 0.14356251 0.16516487 -0.13127092 0.07521805 0.00043348977 -0.03918296 0.0727033
-0.023597535 -0.17383765 0.03049595 0.026629252 -0.12977213 0.0990027 -0.012772031 -0.10785478
0.1936192 0.046885487 0.07999526 -0.19132285 0.08378917 0.0068125473 0.20066886 0.11557333
-0.034634873 -0.043902863 0.09364704 -0.1479297 -0.08282743 -0.012574587 0.058111455 0.18364695
0.11244739 0.099878706 -0.05190902 0.03958901 0.19256705 -0.062341966 -0.041450143 -0.07172202
0.13466288 0.14975713 -0.000103536 -0.0900618 0.13796526 -0.12212919 0.09205382 -0.15085348
-0.17884111 0.016238796 0.16537616 -0.07984628 -0.035920788 -0.121963784 -0.067286424 0.1413311
0.1305298 0.035968587 0.007418491 0.036239088 -0.30589265 0.22693884 0.115346745 -0.026253946
0.13602248 -0.014283099 -0.07910469 0.08565485 0.10326177 -0.20538059 0.1485386 0.047291324
-0.023584401 0.17426942 -0.16318114 -0.1173791 -0.033414546 -0.28439808 0.11374235 0.0766787
-0.24508627 0.15031123 0.099904805 -0.06606364 0.12355711 0.009353945 0.026296971 0.14960808
-0.009486453 -0.18541592 -0.036528718 -0.08082025 -0.1401592 0.10551507 -0.03502153 0.06507817
-0.05304601 -0.09694664 -0.05250234 0.1545833 0.11319942 -0.033346917 -0.11366111 0.0028624341
0.13992079 -0.08736983 0.18478686 -0.005215839 -0.17438185 -0.046936765 -0.034841884 0.016126666
0.043922912 -0.031905543 -0.11113407 -0.097689226 0.007975984 0.020900503 -0.19630907 -0.052540287
0.057421815 -0.06308975 -0.008720563 0.060060013 -0.18501244 0.17890517 0.02220728 -0.17159966
0.13365859 -0.06584751 0.17752074 -0.008486549 -0.30840883 0.094934806 -0.13612175 0.2274268
-0.0056940145 -0.21743557 0.11740837 -0.15220872 -0.18443114 -0.22468425 -0.06278128 0.30352044
0.035205457 0.10832906 -0.04164899 -0.004308362 0.09278471 -0.09469001 -0.0066250064 -0.36883798
-0.12019771 0.027971247 -0.13341649 -0.021294089 0.02820101 -0.13598591 0.2296561 -0.13279912
-0.14621793 -0.04474441 0.042371448 -0.30046836 0.003206026 0.09171749 -0.051662043 -0.044331852
-0.014854366 -0.49045622 0.14906347 -0.070249155 -0.17204939 -0.113386355 0.08947035 0.09217462
0.15575045 0.18074381 -0.20002088 0.06670197 -0.11445866 0.0338224 0.23501413 -0.4441189
00000000: 3d0b ecbc 7e10 7abe 9ab5 63bc 6379 7cbe
00000010: 6a1c c23d e258 b4bd 7276 163e 5bc9 0e3e
00000020: 1ce4 05be 0695 d93d 0e59 46bd b63a c9bd
00000030: 4b4d 8c3d d81d cabd f019 c1bd 9fe9 52be
00000040: 1c12 713d 978c 88bd 6dc3 e83d 44b4 2e3e
00000050: 9b99 9ebd e2d2 db3e ed04 9f3d a804 843d
00000060: cdd3 a53e d673 3bbe 24ea 783e 0041 d93d
00000070: a669 3fbd d337 28bd 3f47 2d3c 86a4 183d
00000080: 6fa6 0dbe e32e a8bd 0712 2cbe 80d4 ee3d
00000090: 0b40 8b3d 58a9 07be b379 80bc 2a36 6cbd
000000a0: 5186 b5bd 794a 423d ad37 e73c 03cb 27be
000000b0: ee06 93bd 91f4 88bb e43b 043d 191a 0cbe
000000c0: c852 bebb c7f8 543e 89cb 8e3d 8be1 f6bd
000000d0: f3d2 e83c 2f34 703d 2f41 2fbe 0b00 003e
000000e0: 45df a6bd b06d 31be 97a2 273e fb5b 803d
000000f0: a435 523d 56c3 d8bd 7e7a 54be 6d28 053e
00000100: 240f ce3c 980a dabd bd91 c73d 7522 91bd
00000110: e150 e43b d486 2ebe 1d13 8e3e eb5b 5f3d
00000120: 9952 aa3d 0d02 133e fb20 293e e26b 06be
00000130: ec0b 9a3d 0346 e339 507e 20bd 78e5 943d
00000140: 9e4f c1bc 7f02 32be a4d2 f93c 9725 da3c
00000150: fce2 04be edc1 ca3d c841 51bc f8e2 dcbd
00000160: 1d44 463e ff0a 403d 8ed4 a33d 23ea 43be
00000170: a899 ab3d ca3b df3b 237c 4d3e b6b1 ec3d
00000180: 4cdd 0dbd 7dd3 33bd 05ca bf3d e27a 17be
00000190: 6da1 a9bd a405 4ebc 4706 6e3d f20d 3c3e
000001a0: d14a e63d 358d cc3d 8d9e 54bd 1628 223d
000001b0: 4c30 453e 4a5a 7fbd a0c7 29bd ffe2 92bd
000001c0: 11e5 093e ef59 193e 7721 d9b8 5272 b8bd
000001d0: c446 0d3e de1e fabd b786 bc3d 5679 1abe
000001e0: 2022 37be 3907 853c 5e58 293e 7286 a3bd
000001f0: ad21 13bd 26c8 f9bd 77cd 89bd 1ab9 103e
00000200: 9ba9 053e cc53 133d d016 f33b 706f 143d
00000210: f69d 9cbe a862 683e ea3a ec3d 8412 d7bc
00000220: 7a49 0b3e a903 6abc a401 a2bd cf6b af3d
00000230: e87a d33d 4a4f 52be 811a 183e 8cb4 413d
00000240: 1334 c1bc af73 323e f518 27be 7464 f0bd
00000250: b1dd 08bd a09c 91be c0f1 e83d b909 9d3d
00000260: e5f7 7abe 30eb 193e e49a cc3d 604c 87bd
00000270: 830b fd3d 4a41 193c bf6c d73c dc32 193e
00000280: 116d 1bbc acdd 3dbe 239f 15bd 1685 a5bd
00000290: e585 0fbe 4918 d83d bc72 0fbd b447 853d
000002a0: c646 59bd f68b c6bd b20c 57bd 164b 1e3e
000002b0: 19d5 e73d c796 08bd 28c7 e8bd ad97 3b3b
000002c0: 6547 0f3e f4ee b2bd c438 3d3e a1e9 aabb
000002d0: 2891 32be c440 40bd 5db6 0ebd 121c 843c
000002e0: 83e8 333d 63af 02bd 429a e3bd 4a11 c8bd
000002f0: b4ad 023c 8837 ab3c 3f05 49be 7c34 57bd
00000300: 2333 6b3d 3335 81bd b1e0 0ebc 7d01 763d
00000310: e773 3dbe eb32 373e 0bec b53c d2b7 2fbe
00000320: ccdd 083e 0fdb 86bd ffc7 353e 2b0b 0bbc
00000330: c3e7 9dbe 2e6d c23d 8063 0bbe 92e2 683e
00000340: db94 babb 6ea7 5ebe cd73 f03d 9adc 1bbe
00000350: 84db 3cbe a113 66be 7993 80bd 0867 9b3e
00000360: 9933 103d a0db dd3d 2298 2abd 292d 8dbb
00000370: e905 be3d d6ec c1bd 9516 d9bb 55d8 bcbe
00000380: 382a f6bd f523 e53c 559e 08be f170 aebc
00000390: ce05 e73c e43f 0bbe f82a 6b3e 7efc 07be
000003a0: 27ba 15be ea45 37bd af8d 2d3d fdd6 99be
000003b0: 311c 523b 61d6 bb3d 949b 53bd 5195 35bd
000003c0: ba5f 73bc 141d fbbe 18a4 183e cade 8fbd
000003d0: b72d 30be 1b37 e8bd 3b3c b73d 0cc6 bc3d
000003e0: 0c7d 1f3e e814 393e 46d2 4cbe 0b9b 883d
000003f0: 4d69 eabd 5b89 0a3d 8ba7 703e 8d63 e3be

model.1.bias f4 [32]
-0.06176204 0.11246939 0.25175664 0.09687633 0.08916047 -0.008655941 0.028500795 0.040960327
0.092962496 0.12090731 0.21949686 0.118295155 0.054157704 -0.080088325 -0.05479698 -0.047283515
-0.16968603 0.057848163 -0.16468309 -0.059741125 -0.10757099 -0.14904566 -0.18205751 -0.05082328
0.1497622 0.023782196 0.0021223018 0.08940731 -0.1777871 -0.033218402 -0.15687026 -0.006157769
00000000: 31fa 7cbd 5a56 e63d 3fe6 803e 1967 c63d
00000010: c499 b63d a6d1 0dbc 807a e93c 04c6 273d
00000020: 1f63 be3d 409e f73d c9c3 603e bb44 f23d
00000030: 78d4 5d3d 5905 a4bd cc72 60bd 5cac 41bd
00000040: 2dc2 2dbe 32f2 6c3d afa2 28be 1cb3 74bd
00000050: 2e4e dcbd 6d9f 18be 496d 3abe 122c 50bd
00000060: 435b 193e e1d2 c23c 5116 0b3b 2e1b b73d
00000070: d20d 36be 0510 08bd 99a2 20be 1cc7 c9bb

model.3.weight f4 [32, 32]
-0.16912988 0.17696199 0.013130469 0.01523693 -0.1124302 0.17069115 -0.026821353 -0.02493137
0.05444774 -0.0068837116 -0.059927836 -0.15244287 0.01572137 0.062545404 0.019190907 0.017348992
0.09488763 0.15443714 0.10641533 0.20604354 -0.08586696 -0.10209379 -0.19937867 0.15530546
-0.08548053 0.07053871 0.020893421 -0.05955178 -0.035308897 0.055163845 0.037920766 0.048886437
0.18730769 -0.1423604 -0.14617091 0.104365826 0.14511982 0.068175964 0.028485259 -0.031121744
-0.17630339 -0.12216529 0.14731784 0.17725118 -0.0065267724 -0.19408186 -0.034747697 0.04102983
-0.2037508 -0.056508813 0.040759142 -0.17911468 -0.036118228 -0.00066971616 0.20044655 -0.11049146
-0.03928325 -0.07163052 -0.22105384 -0.069196045 0.033502936 -0.15393977 -0.12293576 0.11678659
-0.0057046544 -0.06901383 0.13747652 -0.048774563 0.16854197 0.17507574 -0.006967292 -0.03784835
-0.116184324 0.103417926 0.11543516 0.17540543 -0.196898 0.12955865 -0.13284385 0.007857656
0.08820731 -0.13396458 0.17076914 0.22530445 0.13173777 -0.0814723 0.043960936 -0.030452447
0.19372804 0.059671357 0.23868948 -0.1593444 0.10095133 0.19805516 -0.016750755 -0.10632136
-0.26585722 0.0683865 -0.02670198 -0.097878695 -0.079346694 0.063610554 0.042059645 0.13198736
-0.041182123 -0.07205928 -0.062254567 -0.013717751 0.09691071 -0.07513727 -0.04403811 0.04797141
0.0059303157 -0.07583249 0.23570625 0.13305563 0.1874145 -0.14416155 0.09056911 -0.25081816
-0.19974838 -0.21119252 0.3454457 -0.12828982 0.10946244 0.23467906 0.16606535 0.034957018
0.07707279 0.046143122 -0.07288887 0.20794456 -0.1957937 -0.22416943 -0.061298154 -0.12626334
-0.013068388 0.12747744 -0.16410823 0.118350714 0.21275343 -0.13156663 -0.05004647 -0.062410194
-0.002812018 0.112680644 -0.030822696 0.09039086 0.07279141 -0.110869266 0.097737096 0.19077705
0.113432325 0.092457145 -0.07736566 0.1341692 -0.052325554 -0.21816573 -0.16518158 0.12445121
-0.058728084 -0.13015224 0.12706034 0.05674205 -0.13365771 -0.05462333 -0.19775647 -0.12454978
-0.10238505 0.12793757 0.12188232 -0.09064658 -0.016709222 -0.03417445 0.083589144 0.04784871
0.13966723 -0.011814865 0.10195576 0.10200692 -0.085206285 0.18175031 -0.002335585 0.130382
-0.08232861 -0.044167843 -0.1272337 -0.094471306 -0.21980126 0.106877945 0.07489979 0.14899157
0.103408344 -0.12188237 -0.07104883 -0.033864763 -0.16206342 -0.15776826 0.06244192 0.023138575
0.1574887 -0.1704707 -0.17719394 -0.07638038 -0.02177576 -0.16911076 -0.16871 0.16681008
-0.16671316 -0.038487367 -0.030512238 -0.11773498 0.07633664 0.05398362 0.024185354 -0.11591021
-0.07323849 0.034623723 -0.019486351 0.106007725 0.08781159 0.1378751 -0.052947048 -0.1904559
0.018357918 -0.13392887 0.06410117 0.18186006 -0.10829853 0.007853686 -0.17707439 -0.052981425
-0.17814393 0.0062426226 -0.11094645 -0.0301035 -0.08770342 -0.15043366 0.024147572 -0.039097816
-0.065438904 0.00070520584 -0.09331156 0.11239653 -0.13604033 0.2064767 0.17293514 0.17169005
0.09453154 0.21880148 0.04669556 -0.0848294 0.115339495 -0.13864388 0.10851326 -0.150915
00000000: 6230 2dbe 8635 353e 2e21 573c 51a4 793c
00000010: ce41 e6bd a9c9 2e3e 74b8 dbbc df3c ccbc
00000020: 9804 5f3d c290 e1bb e476 75bd fc19 1cbe
00000030: 1aca 803c ce17 803d 4036 9d3c 791f 8e3c
00000040: 7254 c23d c524 1e3e 48f0 d93d 14fd 523e
00000050: 04db afbd 8d16 d1bd ec29 4cbe 6508 1f3e
00000060: 6b10 afbd 9976 903d ae28 ab3c 91ec 73bd
00000070: 10a0 10bd 7cf3 613d ce52 1b3d 253d 483d
00000080: 96cd 3f3e edc6 11be d4ad 15be c0bd d53d
00000090: 4a9a 143e d79f 8b3d eb59 e93c 07f3 febc
000000a0: e088 34be cc31 fabd 7dda 163e 5581 353e
000000b0: 89de d5bb 65bd 46be 9a53 0ebd e50e 283d
000000c0: 0da4 50be c975 67bd 0ff3 263d d769 37be
000000d0: b5f0 13bd e48f 2fba dc41 4d3e 5949 e2bd
000000e0: 79e7 20bd 06b3 92bd f05b 62be a8b6 8dbd
000000f0: 603a 093d 63a2 1dbe bec5 fbbd cf2d ef3d
00000100: 1cee babb 1f57 8dbd a5c6 0c3e d6c7 47bd
00000110: 4496 2c3e 0e47 333e e24d e4bb df06 1bbd
00000120: 0cf2 edbd c7cc d33d 4569 ec3d 7b9d 333e
00000130: a19f 49be 06ab 043e 3808 08be 66bd 003c
00000140: 09a6 b43d 032e 09be 1bde 2e3e 36b6 663e
00000150: 44e6 063e f3da a6bd 6210 343d 6977 f9bc
00000160: a560 463e f469 743d 046b 743e 2e2b 23be
00000170: 92bf ce3d f9ce 4a3e e138 89bc 03bf d9bd
00000180: 701e 88be 390e 8c3d 1cbe dabc a074 c8bd
00000190: 8580 a2bd 4046 823d bc46 2c3d b227 073e
000001a0: 96ae 28bd d193 93bd a5fe 7ebd 6bc0 60bc
000001b0: 1f79 c63d 92e1 99bd 4e61 34bd ab7d 443d
000001c0: 1853 c23b 114e 9bbd fb5c 713e bc3f 083e
000001d0: 96e9 3f3e 169f 13be 4c7c b93d 3d6b 80be
000001e0: d78a 4cbe da42 58be 42de b03e 685e 03be
000001f0: d82d e03d b54f 703e 090d 2a3e 172f 0f3d
00000200: 57d8 9d3d 9200 3d3d c346 95bd 6bef 543e
00000210: 257e 48be ac8c 65be c613 7bbd 2d4b 01be
00000220: cb1c 56bc 7289 023e fd0b 28be dc61 f23d
00000230: 09dc 593e 67b9 06be 87fd 4cbd d5a1 7fbd
00000240: d549 38bb 1cc5 e63d e17f fcbc d81e b93d
00000250: aa13 953d 6d0f e3bd 632a c83d 0f5b 433e
00000260: 354f e83d 2c5a bd3d e371 9ebd a763 093e
00000270: 5253 56bd d666 5fbe 5c25 29be 47e0 fe3d
00000280: dc8c 70bd a146 05be 1b1c 023e 5a6a 683d
00000290: 91dd 08be b6bc 5fbd ac80 4abe f413 ffbd
000002a0: 41af d1bd 1102 033e 709d f93d eaa4 b9bd
000002b0: c7e1 88bc 82fa 0bbd c930 ab3d 02fd 433d
000002c0: ed04 0f3e 2393 41bc 2ece d03d 01e9 d03d
000002d0: a280 aebd c11c 3a3e 9d10 19bb dc82 053e
000002e0: e79b a8bd 57e9 34bd 8d49 02be 2c7a c1bd
000002f0: 9513 61be d3e2 da3d 1065 993d 3f91 183e
00000300: c1c7 d33d 779d f9bd 0d82 91bd c7b5 0abd
00000310: f4f3 25be 018e 21be 19c3 7f3d 1c8d bd3c
00000320: b844 213e df8f 2ebe 5472 35be 516d 9cbd
00000330: 1463 b2bc 5f2b 2dbe 50c2 2cbe 43d0 2a3e
00000340: dbb6 2abe eea4 1dbd cdf4 f9bc 0a1f f1bd
00000350: 6256 9c3d ee1d 5d3d 5d20 c63c 5562 edbd
00000360: 10fe 95bd 9bd1 0d3d d7a1 9fbc 941a d93d
00000370: 90d6 b33d 212f 0d3e 01df 58bd df06 43be
00000380: 5863 963c a624 09be 7947 833d 8639 3a3e
00000390: 9fcb ddbd bfac 003c fd52 35be 0d03 59bd
000003a0: 5d6b 36be ea8e cc3b e437 e3bd 9d9b f6bc
000003b0: da9d b3bd 480b 1abe 21d1 c53c 0825 20bd
000003c0: d504 86bd 90dd 383a 221a bfbd 2730 e63d
000003d0: 284e 0bbe a16e 533e e915 313e 84cf 2f3e
000003e0: c199 c13d 7f0d 603e d843 3f3d 09bb adbd
000003f0: 1d37 ec3d a9f8 0dbe 333c de3d 7689 1abe

model.3.bias f4 [32]
-0.19847594 0.033500616 -0.10187158 0.011056026 0.07890045 -0.10714858 0.17065895 0.036761932
0.17937663 0.19871165 0.106304616 -0.16581179 -0.018684084 -0.018801907 0.03354392 -0.07279757
0.011297755 0.11718215 0.11499366 -0.12646627 -0.01639105 0.114403345 0.02698107 0.06271948
-0.09457365 -0.13149942 0.122753076 -0.006836763 -0.09294405 -0.13267197 -0.11363083 0.005519179
00000000: 473d 4bbe f137 093d 0ca2 d0bd 5624 353c
00000010: 8f96 a13d b770 dbbd 38c1 2e3e ae93 163d
00000020: 82ae 373e 117b 4b3e 3cb6 d93d 91ca 29be
00000030: 5d0f 99bc 7506 9abc 5965 093d e416 95bd
00000040: 381a 393c 32fd ef3d cc81 eb3d 6080 01be
00000050: 8646 86bc 4d4c ea3d 6807 dd3c 1273 803d
00000060: d4af c1bd c9a7 06be f765 fb3d ed06 e0bb
00000070: 7359 bebd 29db 07be 48b7 e8bd 3bda b43b

model.5.weight f4 [32, 32]
0.08241558 -0.17851566 0.25643888 -0.12014535 -0.09724455 -0.060536306 0.09611695 -0.063309394
-0.09228463 -0.15639138 -0.18099545 0.08318277 -0.09110407 -0.10398049 -0.018263968 -0.07223097
-0.04745375 -0.09268242 0.17291582 0.017443188 -0.028347611 0.16862518 -0.020516153 0.029605111
0.034506164 -0.1264433 0.070356324 0.19137247 -0.02167847 0.099552 -0.112831414 0.11676808
-0.22405173 -0.012999892 -0.11489981 -0.04206863 0.13602163 0.06521125 0.16328742 -0.020660784
0.11150517 -0.016445138 0.13639122 -0.09867833 0.07618169 -0.17366137 -0.12086451 -0.13378143
0.021778757 0.012291583 -0.06336285 0.070022516 0.13867669 -0.046707097 0.12308371 -0.045431953
-0.09369156 -0.07501254 0.10626332 0.122236304 -0.114185765 -0.09321841 0.04293909 0.041845106
0.06625306 -0.008616616 0.15900293 -0.08009387 -0.23098898 0.09705474 0.03929993 -0.00204354
-0.23285572 -0.2397719 0.039713137 0.14996813 -0.20552327 -0.026608897 0.12369997 0.016519362
-0.022064466 0.20889771 -0.08109074 -0.042629596 -0.051254354 0.054185044 -0.023584954 0.03271633
0.0006090654 0.0050881 0.14699917 -0.075865954 0.12781982 0.0009068656 0.12716508 -0.040466044
0.01338961 0.042710837 -0.17073992 -0.13603215 0.22206376 -0.18537672 0.082309924 0.11842605
0.2548219 0.13864738 0.2314429 -0.21233638 0.20642069 -0.024258291 -0.20750783 -0.20530792
-0.17290208 -0.019846914 -0.07815497 -0.05852152 0.06867437 -0.16143113 -0.077727035 0.0017292891
-0.107974045 0.03048569 0.10329738 0.013095388 -0.005578118 0.058695726 -0.0048892274 -0.16043979
0.11171016 -0.049282096 -0.22447157 -0.20897935 0.14351664 -0.08780302 0.057762727 -0.095813155
0.21641253 0.1999503 -0.00737446 -0.02801962 0.117515504 -0.18664856 -0.00067214936 0.10127043
0.0632873 -0.16150828 -0.14558537 -0.056607008 -0.011767833 -0.09868832 0.07311802 -0.10849625
-0.062807955 -0.17266993 0.16665338 0.13595213 -0.10234397 0.10159369 0.10582703 -0.13989343
0.16707928 -0.03663501 0.056924626 -0.011462091 -0.003071173 0.0011262052 -0.17234685 -0.091074675
-0.01874874 0.03555914 -0.20331371 -0.007689693 -0.04132545 -0.01437288 -0.019041238 0.08537244
0.12692319 -0.023718655 0.0916397 -0.08580474 0.034636013 -0.10551941 -0.053314947 -0.08034686
0.05012355 0.008003727 -0.026787538 -0.02281574 -0.091584064 0.08598951 0.080617264 -0.10346499
-0.20235457 0.08774222 -0.01767853 -0.14678916 0.19432707 0.07116841 0.20685168 0.065839805
0.1967365 0.028685726 0.06618734 -0.010703137 0.07164682 -0.056520857 -0.14873931 -0.13649645
0.11820804 -0.0035722165 -0.15378673 -0.07905514 -0.086828575 -0.041167974 -0.16451518 -0.008501359
-0.011305289 -0.047842756 0.1028096 -0.08760074 -0.25328544 -0.1044182 -0.119205676 -0.061413445
-0.026507556 -0.011037457 0.13784358 0.02734812 -0.13972346 0.06969877 -0.025049457 0.027587771
-0.059189454 0.091259144 -0.026870241 -0.10220311 -0.0871337 0.062364366 -0.084079765 -0.1500236
0.14088356 -0.0016935486 0.067571245 0.21497802 0.018791799 0.017428242 -0.17549986 0.13217282
-0.085069835 -0.028155722 -0.08557421 -0.061360367 0.15382011 0.10189913 0.09001122 0.087917574
00000000: 80c9 a83d cfcc 36be f54b 833e c40e f6bd
00000010: 2728 c7bd ebf4 77bd f7d8 c43d 5ba8 81bd
00000020: b9ff bcbd 1025 20be df56 39be ba5b aa3d
00000030: c594 babd b9f3 d4bd 519e 95bc d5ed 93bd
00000040: dd5e 42bd 48d0 bdbd d810 313e 04e5 8e3c
00000050: 4039 e8bc 14ac 2c3e 7e11 a8bc 6b86 f23c
00000060: 5656 0d3d 5a7a 01be fa16 903d 25f7 433e
00000070: 0c97 b1bc ebe1 cb3d 2814 e7bd 1a24 ef3d
00000080: d16d 65be 80fd 54bc 9750 ebbd 2850 2cbd
00000090: 4149 0b3e 7a8d 853d d134 273e ce40 a9bc
000000a0: d35c e43d f4b7 86bc 24aa 0b3e dd17 cabd
000000b0: 2505 9c3d 49d4 31be d087 f7bd 00fe 08be
000000c0: 5d69 b23c a362 493c 62c4 81bd f767 8f3d
000000d0: 4301 0e3e f14f 3fbd 5013 fc3d db16 3abd
000000e0: 5ce1 bfbd 2da0 99bd 95a0 d93d 0757 fa3d
000000f0: 3ada e9bd 4be9 bebd e6e0 2f3d c665 2b3d
00000100: afaf 873d b52c 0dbc aad1 223e 4108 a4bd
00000110: 6088 6cbe a3c4 c63d f7f8 203d e9ec 05bb
00000120: bb71 6ebe c486 75be 3eaa 223d 3f91 193e
00000130: b174 52be e7fa d9bc 6956 fd3d 9d53 873c
00000140: 8ac0 b4bc 48e9 553e e712 a6bd 5f9c 2ebd
00000150: 16f0 51bd 23f1 5d3d 3c35 c1bc 8f01 063d
00000160: b0a9 1f3a 14ba a63b f386 163e 9c5f 9bbd
00000170: 33e3 023e b8ba 6d3a 9037 023e b9bf 25bd
00000180: 1860 5b3c 8ff1 2e3d 72d6 2ebe 034c 0bbe
00000190: af64 633e 65d3 3dbe 1b92 a83d 5b89 f23d
000001a0: 0478 823e 94f9 0d3e 5eff 6c3e b56e 59be
000001b0: f25f 533e 53b9 c6bc ef7c 54be 3d3c 52be
000001c0: 3e0d 31be ff95 a2bc b70f a0bd 43b4 6fbd
000001d0: 26a5 8c3d 344e 25be 5a2f 9fbd 50a9 e23a
000001e0: 7f21 ddbd 20bd f93c 948d d33d 0a8e 563c
000001f0: a5c8 b6bb ee6a 703d d035 a0bb 544a 24be
00000200: 4cc8 e43d 06dc 49bd e0db 65be affe 55be
00000210: 07f6 123e 12d2 b3bd 9c98 6c3d b039 c4bd
00000220: 3f9b 5d3e c5bf 4c3e 74a5 f1bb 6789 e5bc
00000230: f8ab f03d cd20 3fbe 2e33 30ba df66 cf3d
00000240: c69c 813d 6d62 25be 5514 15be c0dc 67bd
00000250: decd 40bc 1a1d cabd e7be 953d 4833 debd
00000260: 75a1 80bd 63d0 30be 2fa7 2a3e 0937 0b3e
00000270: b799 d1bd 5a10 d03d d8bb d83d 3940 0fbe
00000280: d516 2b3e 980e 16bd cc29 693d 7ecb 3bbc
00000290: bc45 49bb 2d9d 933a b17b 30be 5c85 babd
000002a0: f596 99bc 76a6 113d 7831 50be d2f9 fbbb
000002b0: e044 29bd 3a7c 6bbc 5ffc 9bbc bfd7 ae3d
000002c0: 27f8 013e a04d c2bc 98ad bb3d 65ba afbd
000002d0: 7ede 0d3d 8f1a d8bd c660 5abd e58c a4bd
000002e0: 5a4e 4d3d 1022 033c 8a71 dbbc 13e8 babc
000002f0: 6d90 bbbd 451b b03d aa1a a53d 74e5 d3bd
00000300: 0936 4fbe 31b2 b33d 91d2 90bc e64f 16be
00000310: adfd 463e bec0 913d edd0 533e 05d7 863d
00000320: 4b75 493e 54fe ea3c 3a8d 873d 365c 2fbc
00000330: 91bb 923d 6a82 67bd 1e4f 18be bac5 0bbe
00000340: 0f17 f23d d91b 6abb 457a 1dbe a9e7 a1bd
00000350: 2ed3 b1bd c09f 28bd ab76 28be 4949 0bbc
00000360: d239 39bc c4f6 43bd d78d d23d 0468 b3bd
00000370: a1ae 81be 36d9 d5bd 1b22 f4bd aa8c 7bbd
00000380: 6026 d9bc 73d6 34bc de26 0d3e 2a09 e03c
00000390: ab13 0fbe 3bbe 8e3d 8534 cdbc c0ff e13c
000003a0: a470 72bd 13e6 ba3d fb1e dcbc dd4f d1bd
000003b0: 2773 b2bd c771 7f3d 0332 acbd c99f 19be
000003c0: c843 103e 10fa ddba cb62 8a3d 3323 5c3e
000003d0: 42f1 993c acc5 8e3c 3cb6 33be 5058 073e
000003e0: 1839 aebd d4a6 e6bc 8841 afbd 0255 7bbd
000003f0: 0583 1d3e 7eb0 d03d cd57 b83d 210e b43d

model.5.bias f4 [32]
-0.018021455 0.14993182 -0.14098187 -0.0058897585 -0.019074732 0.04456567 0.20905209 -0.037859574
-0.00946119 0.06418141 0.04738837 0.15579067 0.12831755 -0.1405468 -0.09804903 -0.15941425
-0.028302617 -0.030863674 0.12395604 0.039612923 0.10795224 0.105728336 -0.1143652 -0.03855373
-0.113158695 0.07915515 -0.1994101 0.034660075 -0.024017174 0.13620248 -0.05968224 -0.07762099
00000000: bba1 93bc ba87 193e 8d5d 10be e0fe c0bb
00000010: 9d42 9cbc 7e8a 363d c011 563e a412 1bbd
00000020: 1b03 1bbc 8b71 833d 4f1a 423d 9787 1f3e
00000030: ad65 033e 80eb 0fbe eecd c8bd 7d3d 23be
00000040: e4da e7bc d1d5 fcbc aadc fd3d 2941 223d
00000050: 1016 dd3d 1988 d83d 4d38 eabd 84ea 1dbd
00000060: bfbf e7bd 181c a23d 2932 4cbe b9f7 0d3d
00000070: aabf c4bc aa78 0b3e 5d75 74bd c1f7 9ebd

model.7.weight f4 [32, 32]
-0.019731533 0.104322515 -0.06808446 0.05581252 -0.19647263 0.014300213 0.094091065 0.10585609
0.13476205 -0.20766163 0.064416565 0.020684464 -0.0347503 -0.11769073 0.11842597 -0.025877105
0.06404311 0.047773644 0.15918161 0.04383518 -0.13179328 0.012371672 0.08507173 0.10209649
0.13843319 0.19092724 0.022282304 -0.13886927 0.08413648 -0.0393471 0.025590636 -0.05744408
0.13900721 -0.18593295 -0.12515208 -0.11243841 -0.11526948 0.0580503 0.061781175 0.1821835
0.053645693 -0.1666514 0.022221195 -0.18423212 -0.07368822 -0.11686716 0.007167685 0.05216197
-0.024002345 0.04143792 0.04775611 -0.105865315 0.110084094 -0.060088214 0.06278646 0.13892971
-0.022298586 0.016676167 0.11893535 0.069833204 -0.15929356 -0.1988684 0.08184721 -0.12933819
-0.18583858 -0.11522587 0.01337152 0.047558855 -0.06382483 -0.104589485 -0.13654363 0.16889717
0.096629344 -0.03570071 -0.2259347 -0.2423373 0.082328245 -0.15056898 0.13580841 0.18369095
-0.19196163 0.06684156 0.14521156 0.14249834 0.045563485 0.02972153 -0.10811255 -0.09353422
0.13457832 0.045397606 -0.008453449 -0.037300546 -0.10521583 0.09705721 0.00980823 0.1320482
0.13778347 0.072967 0.16585176 -0.08395104 0.20424306 0.0066768215 -0.0556549 -0.15690652
0.060748827 0.036706217 0.19936912 0.17740223 -0.11016519 0.16068639 -0.14892536 -0.034332227
0.16182013 0.1087088 -0.15879141 0.077064864 0.06672069 -0.19588266 0.12170531 -0.2750469
0.11474531 -0.15891092 0.1810281 -0.20440874 0.19346006 0.14783554 -0.11831057 -0.14184803
0.119858354 0.015118975 0.21756868 0.101761565 0.116426736 -0.0512588 -0.059881788 -0.08526497
0.010344965 -0.10429631 0.21481673 -0.041427344 0.09300175 0.2056633 -0.062024646 0.090883195
0.1500756 0.16062136 -0.0652884 -0.08604701 0.1720784 -0.23396118 -0.19865876 -0.119136326
-0.027481195 0.011478392 -0.11458809 -0.043548197 0.10996355 -0.070772484 0.103920795 0.09997936
-0.15902494 0.06714536 -0.0591912 -0.09643095 -0.12722075 -0.119211115 0.11836165 -0.16316023
-0.12406024 0.052377276 0.14620632 0.08678406 -1.2460794e-06 0.11454353 0.120549135 0.10747674
-0.1255214 0.07391351 -0.0063995663 -0.3386188 -0.08013786 0.20017451 -0.010091869 -0.21508956
0.10999986 -0.080370955 0.17875819 0.14461665 0.09278369 0.14048988 0.043011554 -0.16560529
-0.051516566 0.18144865 -0.12473345 0.17297706 0.106521815 -0.15032502 0.061035942 -0.22848031
0.15236397 0.15977074 -0.03219838 -0.054481275 -0.030468477 0.2823347 0.004149845 0.2243063
-0.017842572 -0.013628302 -0.0125132445 -0.2634151 0.12696587 -0.012842639 -0.09324568 -0.10885451
-0.022887027 0.0045439913 0.0420756 -0.0051287594 0.19987638 -0.009746326 0.11914437 -0.037841372
-0.14357401 0.14573233 0.064348444 0.034549374 0.13020906 -0.16089118 0.2201253 -0.040622093
-0.12634926 0.18675531 -0.16377792 0.20910831 0.13309434 0.16968594 0.0034708518 0.20436922
0.08511216 -0.011773225 -0.058777597 -0.13635825 -0.030739777 0.03975836 0.12089819 -0.1567987
0.15874544 -0.052781373 -0.10045229 0.01782169 0.101319715 0.002857231 -0.24085264 0.03805104
00000000: 06a4 a1bc 0ba7 d53d de6f 8bbd ab9b 643d
00000010: 1f30 49be 714b 6a3c d1b2 c03d 14cb d83d
00000020: 10ff 093e 40a5 54be d5ec 833d 7772 a93c
00000030: 5556 0ebd d607 f1bd 5189 f23d 39fc d3bc
00000040: 0929 833d 4cae 433d 8100 233e 858c 333d
00000050: d1f4 06be 8eb2 4a3c 163a ae3d f717 d13d
00000060: 6ec1 0d3e 6e82 433e 6189 b63c bf33 0ebe
00000070: bf4f ac3d 6d2a 21bd 74a3 d13c 7c4a 6bbd
00000080: e857 0e3e 3565 3ebe de27 00be 1c46 e6bd
00000090: 6812 ecbd 27c6 6d3d 420e 7d3d 508e 3a3e
000000a0: 96bb 5b3d aaa6 2abe 3909 b63c 58a7 3cbe
000000b0: d9e9 96bd 0d58 efbd e6de ea3b caa7 553d
000000c0: 91a0 c4bc cfba 293d e99b 433d eacf d8bd
000000d0: c573 e13d 0f1f 76bd 3096 803d 9743 0e3e
000000e0: 86ab b6bc 759c 883c 6094 f33d b604 8f3d
000000f0: da1d 23be 28a4 4bbe 839f a73d 3b71 04be
00000100: 784c 3ebe 8afb ebbd 3814 5b3c 13cd 423d
00000110: 98b6 82bd 0333 d6bd 18d2 0bbe 61f3 2c3e
00000120: 9be5 c53d e83a 12bd 6d5b 67be 4527 78be
00000130: b69b a83d c12e 1abe 5c11 0b3e 7b19 3c3e
00000140: 9791 44be 3ae4 883d 57b2 143e 16eb 113e
00000150: c7a0 3a3d 917a f33c 1d6a ddbd de8e bfbd
00000160: e6ce 093e d7f2 393d 5680 0abc 75c8 18bd
00000170: 667b d7bd eec5 c63d b3b2 203c a537 073e
00000180: 1c17 0d3e b96f 953d 0bd5 293e 86ee abbd
00000190: 1825 513e 3dc9 da3b 64f6 63bd 1aac 20be
000001a0: c3d3 783d 4259 163d 6b27 4c3e eea8 353e
000001b0: 4a9e e1bd f98a 243e e47f 18be f39f 0cbd
000001c0: 2db4 253e b8a2 de3d 379a 22be 2fd4 9d3d
000001d0: dba4 883d 7795 48be a240 f93d f3d2 8cbe
000001e0: 97ff ea3d 8bb9 22be 6e5f 393e 8650 51be
000001f0: 651a 463e 3362 173e d04c f2bd 9c40 11be
00000200: 4c78 f53d 94b5 773c 53ca 5e3e 5e68 d03d
00000210: 2471 ee3d bff4 51bd 9b46 75bd 679f aebd
00000220: ee7d 293c 4e99 d5bd ebf8 5b3e b8af 29bd
00000230: b477 be3d 6699 523e 8e0d 7ebd f820 ba3d
00000240: 6bad 193e ed79 243e edb5 85bd 6a39 b0bd
00000250: 5235 303e 8593 6fbe 346d 4bbe bffd f3bd
00000260: 3e20 e1bc de0f 3c3c 29ad eabd 985f 32bd
00000270: 9234 e13d 2af1 90bd 6dd4 d43d fbc1 cc3d
00000280: 6fd7 22be 8283 893d 7972 72bd 977d c5bd
00000290: 2846 02be f524 f4bd 9867 f23d 7a13 27be
000002a0: 4c13 febd 8e89 563d 1cb7 153e d7bb b13d
000002b0: f63e a7b5 cc95 ea3d 77e2 f63d c41c dc3d
000002c0: af88 00be f75f 973d 74b3 d1bb 715f adbe
000002d0: 511f a4bd 8cfa 4c3e 5e58 25bc 7040 5cbe
000002e0: 9b47 e13d 8799 a4bd 630c 373e 6316 143e
000002f0: 6005 be3d 94dc 0f3e e22c 303d 6f94 29be
00000300: 0903 53bd adcd 393e 4074 ffbd e620 313e
00000310: 1c28 da3d cdee 19be d300 7a3d bef6 69be
00000320: 4d05 1c3e f19a 233e 73e2 03bd c227 5fbd
00000330: 0799 f9bc 2c8e 903e 6cfb 873b 8db0 653e
00000340: 962a 92bc 3e49 5fbc 5a04 4dbc 58de 86be
00000350: 5703 023e ef69 52bc 97f7 bebd 1def debd
00000360: 937d bbbc c3e5 943b 7757 2c3d 270f a8bb
00000370: 65ac 4c3e 0eaf 1fbc f701 f43d 8eff 1abd
00000380: 1105 13be db3a 153e 1ec9 833d a583 0d3d
00000390: 8655 053e a8c0 24be 8768 613e 5a63 26bd
000003a0: b361 01be c93c 3f3e 66b5 27be 7d20 563e
000003b0: e249 083e 27c2 2d3e 3b77 633b 2a46 513e
000003c0: 494f ae3d 7ce4 40bc c7c0 70bd 7fa1 0bbe
000003d0: fcd1 fbbc a9d9 223d 7899 f73d d78f 20be
000003e0: 2a8e 223e 4831 58bd eeb9 cdbd cbfe 913c
000003f0: b680 cf3d 6240 3b3b 13a2 76be 68db 1b3d

model.7.bias f4 [32]
0.016596204 -0.15624551 -0.080217 -0.0370289 0.06241587 0.03452244 0.21336684 -0.088681
-0.06413375 -0.07166795 -0.07927971 0.08942108 -0.19901142 -0.051963646 -0.07945646 -0.08790033
-0.07496454 0.06609532 -0.11456685 0.1110216 0.02069303 -0.06639576 0.1572163 -0.06035201
-0.11893807 0.012381832 -0.021149306 0.042427443 0.0067568766 -0.1019634 -0.14856088 0.09397892
00000000: c3f4 873c d3fe 1fbe cf48 a4bd 9eab 17bd
00000010: c9a7 7f3d 6767 0d3d d67c 5a3e 629e b5bd
00000020: 8e58 83bd a5c6 92bd 675d a2bd 6622 b73d
00000030: a6c9 4bbe d5d7 54bd 12ba a2bd 1705 b4bd
00000040: 0287 99bd fc5c 873d 06a2 eabd 4b5f e33d
00000050: 6e84 a93c 80fa 87bd 4ffd 203e ab33 77bd
00000060: ce95 f3bd 2bdd 4a3c 4f41 adbc 66c8 2d3d
00000070: ca68 dd3b 30d2 d0bd 5820 18be 0578 c03d

model.9.weight f4 [32, 32]
-0.00076608174 0.045987662 0.04950567 0.12522337 -0.07913347 -0.05085121 -0.19897236 -0.2549296
0.044907894 0.20071141 0.07770097 -0.1313908 0.028677436 -0.23594064 -0.034284696 -0.12790987
-0.018757371 -0.1424704 -0.22758651 -0.054886997 -0.20155004 -0.06973903 -0.22647384 -0.029993664
-0.011180839 -0.04745709 -0.19239588 -0.06415172 -0.03062206 0.029592324 0.08312259 -0.058314145
0.08735399 -0.003421099 -0.20297982 -0.09120526 -0.093203485 0.03700485 0.022696598 0.24402393
-0.023309097 -0.13629912 -0.060798895 0.13236697 -0.30378827 0.25503072 -0.09876269 -0.06339412
0.07143012 0.12928303 0.050532665 -0.1410906 0.177729 -0.063204594 0.035189316 0.045324966
-0.09908023 -0.10534563 0.19041695 -0.07938441 0.12208878 0.08610489 0.04121929 -0.08531396
-0.01760932 -0.16917764 0.13668534 0.1765701 -0.18374853 -0.08559592 0.25564256 0.24619545
-0.059452727 -0.10857312 -0.21579698 0.17991918 -0.12113607 0.28089675 -0.22992781 -0.019799963
0.0538285 -0.10926669 0.17156364 0.057950884 0.0034679372 0.012966672 0.14876586 0.14553548
0.16027372 -0.19647218 0.14221223 -0.12069402 0.12643264 0.039456822 -0.16359803 0.057803776
0.1583447 0.1572535 0.18698665 -0.0701521 0.15925021 -0.18237968 -0.1629952 -0.10649673
0.042386618 0.18011627 -0.08572103 0.045741845 0.27748275 -0.000296207 0.13973236 0.049380817
-0.027509054 -0.06499215 -0.15906644 -0.004394414 -0.22128613 -0.05705438 -0.12092555 -0.1868194
-0.13285704 0.18995218 -0.005778808 -0.17657769 -0.16994353 0.04320725 -0.06322791 0.07423751
-0.040029176 0.13875516 0.052101742 -0.098919004 -0.20045136 -0.058058195 0.069696054 -0.120245196
0.20034553 -0.038705043 -0.016239753 -0.02834728 -0.10193293 -0.03447038 -0.059829075 0.042780794
0.05581506 -0.025961205 0.18940997 -0.06662537 -0.09173716 -0.029776307 0.16229163 0.14520258
-0.1282162 -0.19292177 0.15600564 -0.11245908 -0.09552784 -0.18475975 -0.041254144 -0.14286321
0.060188353 0.32648143 -0.07250567 0.086233735 0.08323036 0.090235226 0.0015852717 -0.20040815
-0.055158984 0.25857085 0.082676716 0.1019217 0.00068943744 -0.19992387 0.046044905 -0.005636237
-0.14089908 -0.29135287 0.017425843 0.23046608 -0.2790426 -0.074693695 -0.07622271 -0.094725676
-0.023240628 0.3126123 -0.15211739 0.0604907 -0.22806682 0.20660038 0.1257115 -0.020105861
0.109185986 -0.015200793 -0.091536276 -0.05318766 -0.084486626 -0.0011360035 0.095186174 -0.031456932
0.17842352 0.032560423 0.025964335 -0.15912981 -0.06455545 -0.02707773 -0.11987121 0.044299796
0.10517532 -0.157942 -0.13108008 0.109453626 0.054896332 0.060793824 0.14811629 0.18711318
0.04788895 0.17315036 -0.1193045 -0.03274264 -0.10773592 -0.049974304 0.0140871685 -0.03061848
0.036008738 -0.004523094 -0.10913073 -0.10926247 0.04785135 -0.04632739 -0.051161814 0.06574539
0.06392017 -0.029140824 0.12940942 0.2041357 0.2511724 0.1647612 -0.16529864 -0.06673808
-0.06512772 -0.010538238 0.07775321 -0.020925378 0.03240083 -0.15422401 -0.0034308159 0.014849012
-0.2023391 0.12544443 0.03866433 -0.042866558 0.07063923 0.17915167 0.024163485 -0.1560935
00000000: e0d2 48ba 8f5d 3c3d 75c6 4a3d 8e3a 003e
00000010: bb10 a2bd 5c49 50bd 69bf 4bbe 2286 82be
00000020: 57f1 373d 4b87 4d3e b021 9f3d 4f8b 06be
00000030: f1ec ea3c 6c9a 71be 1c6e 0cbd cefa 02be
00000040: 0fa9 99bc c3e3 11be 700c 69be 30d1 60bd
00000050: 2263 4ebe 56d3 8ebd c2e8 67be 46b5 f5bc
00000060: d62f 37bc 5e62 42bd 6d03 45be fa61 83bd
00000070: 1ddb fabc 9a6b f23c 2d3c aa3d d0da 6ebd
00000080: a6e6 b23d 8434 60bb f1d9 4fbe d3c9 babd
00000090: 78e1 bebd 6692 173d 37ee b93c 69e1 793e
000000a0: b8f2 bebc ff91 0bbe 4308 79bd 358b 073e
000000b0: 238a 9bbe 6393 823e 1844 cabd c7d4 81bd
000000c0: f449 923d c562 043e 57fb 4e3d 0e7a 10be
000000d0: 97fe 353e 6971 81bd ac22 103d aca6 393d
000000e0: 93ea cabd 73bf d7bd a9fc 423e 4b94 a2bd
000000f0: af09 fa3d c357 b03d 8fd5 283d 16b9 aebd
00000100: 6c41 90bc e73c 2dbe 3ef7 0b3e cbce 343e
00000110: 9328 3cbe ea4c afbd 95e3 823e a91a 7c3e
00000120: b484 73bd 955b debd e2f9 5cbe bc3c 383e
00000130: 3016 f8bd b3d1 8f3e 3272 6bbe 8833 a2bc
00000140: 467b 5c3d 37c7 dfbd 61ae 2f3e e85d 6d3d
00000150: 5546 633b 2a72 543c 1456 183e 4107 153e
00000160: cb1e 243e 0130 49be 15a0 113e 6d2e f7bd
00000170: 8f77 013e 7a9d 213d 3e86 27be a7c3 6c3d
00000180: 1d25 223e 1007 213e 6e79 3f3e e7ab 8fbd
00000190: 7d12 233e bdc1 3abe 37e8 26be f51a dabd
000001a0: 979d 2d3d 6670 383e 828e afbd cd5b 3b3d
000001b0: 3812 8e3e 3b4c 9bb9 0016 0f3e 8a43 4a3d
000001c0: ab5a e1bc 9b1a 85bd 50e2 22be 04ff 8fbb
000001d0: d598 62be dbb1 69bd d1a7 f7bd 964d 3fbe
000001e0: ad0b 08be d382 423e 285c bdbb c8d0 34be
000001f0: ad05 2ebe 16fa 303d a27d 81bd d609 983d
00000200: a2f5 23bd d515 0e3e a368 553d 0c96 cabd
00000210: 1f43 4dbe 6ece 6dbd cebc 8e3d 1d43 f6bd
00000220: 6127 4d3e 2e89 1ebd 3b09 85bc 8e38 e8bc
00000230: 36c2 d0bd d030 0dbd 550f 75bd ea3a 2f3d
00000240: 559e 643d 98ac d4bc b0f4 413e e272 88bd
00000250: b1e0 bbbd 71ed f3bc c72f 263e fcaf 143e
00000260: 1c4b 03be 498d 45be f1bf 1f3e f250 e6bd
00000270: 1aa4 c3bd a931 3dbe 1bfa 28bd bc4a 12be
00000280: 1088 763d 9328 a73e da7d 94bd 509b b03d
00000290: ae74 aa3d 3fcd b83d e4c8 cf3a cb37 4dbe
000002a0: 63ee 61bd 6663 843e 6952 a93d 53bc d03d
000002b0: 5dbb 343a d8b8 4cbe 9599 3c3d 2fb0 b8bb
000002c0: d947 10be 342c 95be a4c0 8e3c 4dff 6b3e
000002d0: acde 8ebe 02f9 98bd a71a 9cbd 89ff c1bd
000002e0: 2163 bebc b80e a03e a9c4 1bbe 19c5 773d
000002f0: 598a 69be 0d8f 533e 84ba 003e 0cb5 a4bc
00000300: e79c df3d bf0c 79bc 5f77 bbbd 4edb 59bd
00000310: 5307 adbd f4e5 94ba f8f0 c23d fcd8 00bd
00000320: a8b4 363e 145e 053d 28b3 d43c edf2 22be
00000330: a635 84bd 1ed2 ddbc 097f f5bd b473 353d
00000340: 2866 d73d 8cbb 21be db39 06be 3929 e03d
00000350: fada 603d f202 793d ccab 173e 999a 3f3e
00000360: 3427 443d 544e 313e eb55 f4bd 251d 06bd
00000370: a6a4 dcbd dbb1 4cbd decd 663c 9bd3 fabc
00000380: e67d 133d 7636 94bb ef7f dfbd 00c5 dfbd
00000390: c7ff 433d cac1 3dbd 0d8f 51bd 85a5 863d
000003a0: 94e8 823d bdb8 eebc e783 043e f308 513e
000003b0: ab99 803e 29b7 283e 0c44 29be f9ad 88bd
000003c0: af61 85bd 93a8 2cbc 133d 9f3d b36b abbc
000003d0: bcb6 043d e6ec 1dbe 8ad7 60bb 4549 733c
000003e0: fb31 4fbe 8174 003e 7d5e 1e3d d894 2fbd
000003f0: 4dab 903d 8973 373e 80f2 c53c f9d6 1fbe

model.9.bias f4 [32]
0.09703559 -0.14551042 -0.10646067 -0.081899844 -0.09827895 -0.15049703 -0.16099101 0.052051138
-0.020475633 0.010234864 0.02852557 0.057161402 -0.07958629 0.10316199 0.13213289 0.17219803
-0.033446737 0.13153316 -0.17665194 -0.13120843 -0.044407103 0.018091256 0.03282253 -0.191472
0.122443885 -0.1644537 -0.10651645 0.082189806 -0.02643441 -0.15012373 0.00944642 0.052849412
00000000: 98ba c63d af00 15be 0d08 dabd 1bbb a7bd
00000010: 7946 c9bd e51b 1abe d4da 24be 9333 553d
00000020: 84bc a7bc 22b0 273c 75ae e93c 1322 6a3d
00000030: 23fe a2bd 9846 d33d d84d 073e ae54 303e
00000040: 72ff 08bd a1b0 063e 3fe4 34be 815b 06be
00000050: 39e4 35bd 1d34 943c eb70 063d 3c11 44be
00000060: dcc3 fa3d 8d66 28be 4c25 dabd 2153 a83d
00000070: fa8c d8bc 09ba 19be 28c5 1a3c a078 583d

model.11.weight f4 [32, 32]
0.085037574 -0.075602874 -0.124819435 0.069664575 0.031993456 0.03518181 0.13036983 0.06547369
-0.0022649283 0.02996269 -0.0022317956 -0.11534558 -0.09265027 -0.090333186 -0.12166213 -0.09436156
0.026365723 0.08467573 -0.160328 -0.01978505 -0.080447696 0.1649092 -0.17795676 -0.06386566
0.16714285 -0.032227077 0.17655808 -0.042971868 0.02244934 -0.117893934 -0.0025851957 -0.08142319
0.027569355 -0.041446555 -0.046109412 0.029547337 0.045862086 -0.008017256 0.10481262 0.028649885
0.15060486 0.16273516 0.012021458 0.18143073 -0.13754734 -0.18957996 0.13840826 -0.15077466
0.10558503 -0.0152486125 -0.14524326 0.30550167 -0.12171405 0.0775361 -0.020200046 0.00043960608
0.035583455 0.185028 0.15617238 0.19896825 0.15405445 0.18909386 -0.06931698 0.08281553
0.0799122 -0.1840648 -0.10153967 0.1689618 -0.10860983 0.1281048 0.05834215 0.11768009
-0.034111183 -0.0481444 -0.048224177 0.085068695 0.10316147 -0.038410105 0.03140815 -0.17491916
0.03302094 -0.12148801 0.18525724 0.33054817 -0.05559696 -0.22447099 0.11913489 0.2061521
-0.22672686 0.17091396 -0.016882246 0.019996518 -0.080001205 0.027054325 0.20001788 -0.0076089837
0.21148719 -0.03965212 -0.08048353 0.022876635 0.060549717 0.11262954 0.14493561 -0.041167274
-0.16119534 -0.036973633 0.12942338 0.027042689 0.1751864 0.0028888122 0.16020499 -0.10743132
-0.060882326 0.020964269 0.09040413 0.117080115 -0.0047215065 -0.19306174 0.032407045 -0.060032006
-0.18512844 0.092435494 -0.16513234 0.17261945 0.15226047 0.15785952 0.07993637 0.106474675
-0.1225607 0.10325486 -0.09711039 -0.11069674 -0.22241922 0.15248941 -0.043880254 0.15124929
-0.1629786 -0.15090282 0.13088585 -0.12298819 0.072551705 0.054674026 -0.1629586 0.18570207
0.04703733 -0.13849472 -0.035623193 -0.23401947 -0.08834221 -0.017982056 0.016332477 0.0033940058
0.05325299 -0.15557867 -0.16198072 -0.035512302 -0.16141741 -0.16376793 0.09741458 -0.17227526
0.20145978 -0.05739189 0.008882333 0.010555588 -0.17589244 0.0321934 -0.09672159 0.047648147
-0.0038285274 -0.032693163 -0.1741304 -0.11857363 0.019232182 -0.005392508 0.13545248 -0.18500943
-0.119355746 -0.19427036 -0.12510414 0.12124367 0.092657626 -0.22667548 0.16243945 0.018816717
0.027120227 0.07018331 0.108385235 0.07048409 -0.060719356 -0.052852962 0.21863316 -0.15543446
-0.0677688 0.17937467 0.14347704 -0.041273423 -0.1628734 0.08235908 -0.08764542 0.014309541
0.0832617 -0.14620641 0.070765704 -0.21374336 -0.06884509 -0.1432364 0.052617002 0.16858523
-0.074969955 -0.0008899277 -0.18179435 -0.15840279 0.08896031 -0.020025458 -0.160634 -0.17019701
0.061673556 0.11810513 0.0045010336 -0.10237827 0.19995436 0.025256447 0.047814716 -0.18184213
-0.12746881 -0.052108984 0.100021474 0.013941643 0.20862615 -0.1637129 -0.069890335 -0.14938693
-0.059646264 0.16316353 0.05014708 0.08210827 0.105035506 0.08884443 -0.14212552 -0.08405828
0.12009041 -0.15736389 0.14998126 0.009405409 0.13288994 -0.0469723 0.17790821 -0.12526743
-0.16421881 0.15530227 0.15201029 -0.1242062 -0.14990397 -0.023406887 0.017315507 0.17615457
00000000: 2e28 ae3d aed5 9abd 55a1 ffbd 4dac 8e3d
00000010: 920b 033d cd1a 103d ab7f 053e 1217 863d
00000020: 316f 14bb 5174 f53c 5143 12bb 4e3a ecbd
00000030: 6dbf bdbd 9b00 b9bd ff29 f9bd a240 c1bd
00000040: eefc d73c 786a ad3d 062d 24be 4214 a2bc
00000050: c3c1 a4bd f5dd 283e 4c3a 36be 00cc 82bd
00000060: 7f27 2b3e 8a00 04bd a4cb 343e 4503 30bd
00000070: aee7 b73c 6072 f1bd 636c 29bb 34c1 a6bd
00000080: 21d9 e13c ddc3 29bd 39dd 3cbd 420d f23c
00000090: e2d9 3b3d cf5a 03bc 00a8 d63d 2ab3 ea3c
000000a0: 2938 1a3e 0ca4 263e a6f5 443c fac8 393e
000000b0: 36d9 0cbe 4021 42be e5ba 0d3e ac64 1abe
000000c0: f73c d83d 51d5 79bc a6ba 14be b76a 9c3e
000000d0: 3745 f9bd 3fcb 9e3d 917a a5bc ee7a e639
000000e0: f5bf 113d fb77 3d3e a7eb 1f3e 55be 4b3e
000000f0: 73c0 1d3e d2a1 413e 10f6 8dbd 309b a93d
00000100: 02a9 a33d 7c7b 3cbe 08f4 cfbd 5204 2d3e
00000110: d56e debd e82d 033e 2ef8 6e3d 4202 f13d
00000120: 2bb8 0bbd 1033 45bd b786 45bd 7f38 ae3d
00000130: 5246 d33d ea53 1dbd d5a5 003d 021e 33be
00000140: f740 073d b5ce f8bd 13b4 3d3e 9c3d a93e
00000150: a3b9 63bd b9db 65be fefc f33d 8919 533e
00000160: 162b 68be 1204 2f3e a34c 8abc bdcf a33c
00000170: acd7 a3bd 08a1 dd3c 7dd1 4c3e c854 f9bb
00000180: 1990 583e 436a 22bd 8dd4 a4bd c867 bb3c
00000190: fb02 783d 51aa e63d 006a 143e 049f 28bd
000001a0: 6410 25be aa71 17bd 9087 043e a188 dd3c
000001b0: 1064 333e 3a52 3d3b c70c 243e f404 dcbd
000001c0: bf5f 79bd 42bd ab3c cd25 b93d b3c7 ef3d
000001d0: deb6 9abb fab1 45be 40bd 043d 1fe4 75bd
000001e0: 4f92 3dbe d24e bd3d 7418 29be 27c3 303e
000001f0: 2bea 1b3e eda5 213e aeb5 a33d 650f da3d
00000200: 1b01 fbbd 4977 d33d d0e1 c6bd f9b4 e2bd
00000210: ddc1 63be 2f26 1c3e c8bb 33bd 18e1 1a3e
00000220: dde3 26be 4586 1abe f106 063e 3be1 fbbd
00000230: fd95 943d dff1 5f3d 9fde 26be af28 3e3e
00000240: 37aa 403d 8fd1 0dbe a0e9 11bd cda2 6fbe
00000250: c3ec b4bd 1b4f 93bc b0cb 853c f86d 5e3b
00000260: cf1f 5a3d 0450 1fbe 46de 25be 5975 11bd
00000270: 9b4a 25be c8b2 27be 4c81 c73d ed68 30be
00000280: 794b 4e3e c213 6bbd 3487 113c 58f1 2c3c
00000290: 261d 34be 3add 033d f815 c6bd b42a 433d
000002a0: 08e8 7abb 44e9 05bd 3d4f 32be bbd6 f2bd
000002b0: cf8c 9d3c a3b3 b0bb 0eb4 0a3e 1d73 3dbe
000002c0: c970 f4bd cfee 46be 4d1b 00be 9a4e f83d
000002d0: 48c3 bd3d 9e1d 68be 8756 263e 8425 9a3c
000002e0: 3d2b de3c 44bc 8f3d 14f9 dd3d f659 903d
000002f0: dcb4 78bd 597c 58bd 5fe1 5f3e 362a 1fbe
00000300: 5eca 8abd fead 373e a5eb 123e 520e 29bd
00000310: 49c8 26be e1ab a83d 717f b3bd 9172 6a3c
00000320: 1c85 aa3d 22b7 15be 9ced 903d 8adf 5abe
00000330: a8fe 8cbd 90ac 12be ed84 573d 9ba1 2c3e
00000340: d989 99bd 094a 69ba 4c28 3abe 5734 22be
00000350: d330 b63d 6e0c a4bc 3d7d 24be 2048 2ebe
00000360: 699d 7c3d 1ae1 f13d 687d 933b b3ab d1bd
00000370: d6c0 4c3e 9ce6 ce3c 5dd9 433d d334 3abe
00000380: 2f87 02be 3b70 55bd 0fd8 cc3d 7d6b 643c
00000390: 18a2 553e 5ba4 27be aa22 8fbd e3f8 18be
000003a0: a44f 74bd 5714 273e 0667 4d3d 6128 a83d
000003b0: db1c d73d 12f4 b53d 5a89 11be bf26 acbd
000003c0: f6f1 f53d 0024 21be b094 193e 2519 1a3c
000003d0: 4d14 083e 0766 40bd 922d 363e 1b46 00be
000003e0: fa28 28be 8f07 1f3e 96a8 1b3e d25f febd
000003f0: 6d80 19be cdbf bfbc 40d9 8d3c dd61 343e

model.11.bias f4 [32]
0.15665388 0.1622899 -0.13505377 -0.13166353 -0.09546942 -0.19549294 0.018525612 0.054436147
-0.16078332 -0.19447003 0.123351656 0.004286062 0.100407965 -0.13361453 -0.015248066 -0.009803792
-0.17487884 0.033880707 -0.026428351 -0.12480583 0.09993405 -0.12123676 0.14503995 0.23134992
-0.07507438 0.07080229 -0.04998544 -0.15908997 0.012973862 0.119864926 0.0669904 0.067239255
00000000: e069 203e 532f 263e 894b 0abe ced2 06be
00000010: 7985 c3bd 4d2f 48be 06c3 973c 70f8 5e3d
00000020: 62a4 24be 2723 47be cb9f fc3d 1872 8c3b
00000030: b1a2 cd3d 3fd2 08be 06d3 79bc 16a0 20bc
00000040: 7013 33be 7fc6 0a3d 4580 d8bc 339a ffbd
00000050: 39aa cc3d fa4a f8bd 5a85 143e fee6 6c3e
00000060: 99c0 99bd cb00 913d 88bd 4cbd 7be8 22be
00000070: 5290 543c be7b f53d 4332 893d bcb4 893d
