NeuralGalerkin/models/best.pt (torch, 644019 bytes, 15 tensors)

model.0.weight f4 [16, 2]
000000 66 3e 23 3f 01 94 03 3f 51 df f8 be 90 ca 2d 3e
       0.6376709 0.5139771 -0.48607877 0.16971803
000010 65 a0 06 bf a9 0c f7 3e 52 6f 68 3e c5 fe 17 bf
       -0.5258849 0.48251846 0.22698715 -0.5937312
000020 c3 8f 35 3e 5a 48 46 bf 22 91 8f 3e 29 1d e8 3e
       0.17730622 -0.7745415 0.28040415 0.45334747
000030 38 72 6a be 0b d6 c6 3e 8c fe 1a be 7f fe ac be
       -0.22895133 0.38835177 -0.15136164 -0.33787915
000040 64 65 be 3e 92 cc 0d 3f 29 c6 43 3e 47 41 0e 3f
       0.3718673 0.55390275 0.19118561 0.55568355
000050 5a af 0d 3f 9c 3e 32 3f fb fc b1 be d9 cd 5f bd
       0.5534569 0.69626784 -0.3476332 -0.05463967
000060 32 06 fc be e6 67 fb be ae 2c 9d be 0a 27 58 3f
       -0.49223477 -0.49102706 -0.3069815 0.8443457
000070 5b e5 1c 3f 0d 8e 42 3f 8f c0 ad be 2c 2d d7 be
       0.6128747 0.75998 -0.33935973 -0.4202665

model.0.bias f4 [16]
000000 70 b9 25 3f a6 da e0 be 43 22 bf be 11 ae 65 3e
       0.6473608 -0.43916816 -0.37330827 0.22429682
000010 76 c2 d8 3d bd 76 d0 3e 86 f1 36 3e c5 f3 20 bf
       0.105839655 0.4071559 0.17865571 -0.6287196
000020 58 23 dd 3d 38 fe 7c 3d ac eb 67 bd 59 fe 1e 3f
       0.10797757 0.06176588 -0.05662124 0.62106854
000030 49 99 b7 bc 1c be 14 be 95 9d 1c bf 09 ac cc be
       -0.02241196 -0.14525646 -0.6117795 -0.39975002

model.2.weight f4 [16, 16]
000000 d4 03 0c bb c1 ef c4 3d 0b 85 80 bc 29 b0 b9 be
       -0.0021364586 0.09616042 -0.01568844 -0.36267212
000010 30 8f c0 be c3 25 df bd 13 21 86 bb 04 66 d8 3c
       -0.37609243 -0.10895874 -0.004093298 0.026415832
000020 5c 47 d2 3e ab 56 5a 3e b2 2a 82 3e 89 d0 8d be
       0.41070068 0.21322124 0.254232 -0.27698162
000030 6d 19 85 be 53 aa b2 bc 41 f4 b1 3c ff 6b 58 3c
       -0.2599596 -0.021809733 0.021722915 0.013209342
000040 36 cb 43 be a2 11 b8 bd a3 a7 59 3e 9d 9f 9f be
       -0.19120488 -0.08987738 0.21255355 -0.31176463
000050 75 5f 0f be 2b 35 f9 3d ae 71 56 bd a1 3f 16 bd
       -0.14001258 0.12168344 -0.052354507 -0.036681775
000060 59 2c 90 3c cb b2 b8 3e e6 1a ac 3e 40 d0 4b bd
       0.017599272 0.36073908 0.33614272 -0.04975915
000070 04 17 75 be 22 9e ca 3e 01 65 86 3e 7b 3e 03 3d
       -0.23934561 0.3957377 0.26248935 0.032042008
000080 aa d0 64 3e 4b 74 de be 35 d1 aa be bd f3 93 3e
       0.22345224 -0.434481 -0.33362737 0.28896895
000090 c9 06 b0 bd 51 44 2d bd df c9 45 be ba 05 92 3d
       -0.08595044 -0.04230148 -0.19315289 0.071299985
0000a0 bb c2 0b be 78 32 d8 bd d4 c5 08 bd 8c c2 48 3e
       -0.13648503 -0.10556501 -0.03339179 0.19605464
0000b0 e1 03 10 3d 79 10 db bd 2e 05 41 be d5 db a8 bd
       0.03515995 -0.10696501 -0.18849632 -0.08245055
0000c0 e6 49 03 3e 0e e5 4e be 3e 42 b2 bd 5b ad c0 3e
       0.12821159 -0.20204565 -0.08704041 0.3763226
0000d0 10 80 b2 3e 7b a3 3b bd 9f 1a 76 be 6f b8 43 be
       0.3486333 -0.045810204 -0.24033593 -0.19113325
0000e0 8c 01 6a be 05 de 8b be 28 cc 68 bd 85 1b 4d 3e
       -0.22852153 -0.27317825 -0.056835324 0.20030029
0000f0 80 06 b2 3b 68 34 9b be c1 18 4a be 59 34 5f 3e
       0.0054329038 -0.3031342 -0.19736005 0.21797313
000100 61 e2 95 bd 08 e9 a0 3e dd 79 86 bd d2 87 ef 3d
       -0.07318569 0.3142779 -0.06566212 0.116958275
000110 75 7e b0 3d 36 00 b8 3d 4e 74 f2 3d 3d 09 44 bd
       0.0861787 0.08984415 0.118385896 -0.047860373
000120 12 2a 16 3e 1a c8 cd 3d 8e 78 10 be 3e ac c6 bd
       0.14664486 0.10047932 -0.14108488 -0.09700821
000130 71 0c 90 bd 08 ec 67 3e db 28 4a 3d c7 42 7a bd
       -0.07033623 0.22648633 0.04935537 -0.06109884
000140 a0 7a 1b be 3a 83 d6 bd e2 42 a8 3d 94 b0 77 3e
       -0.15183496 -0.10474248 0.08215882 0.24188453
000150 2a a0 cd 3e 02 cf 83 3e e0 b9 dc 3c 11 c0 9d be
       0.40161258 0.25743872 0.0269441 -0.30810598
000160 9c 6c 21 3e 38 68 d9 3d 1d 64 c2 be 64 18 1d be
       0.15764087 0.10615581 -0.37967005 -0.15341336
000170 23 f7 ca bc c9 a4 08 be d9 f4 5c be b9 9d 12 3e
       -0.024776047 -0.1334411 -0.21577777 0.14317979
000180 04 15 a3 bd 52 12 97 bd 32 42 53 3e 5b 8b b2 be
       -0.07962993 -0.07376541 0.2063072 -0.34871945
000190 0d dc d5 3b cb 84 d3 bb 45 00 b1 bd 5f ac 89 3d
       0.0065264762 -0.006455039 -0.086426295 0.0672233
0001a0 9a 66 8c 3c 64 2e 7b 3e 9e 44 c2 3e 50 91 3d be
       0.017138768 0.24529415 0.37942976 -0.18512464
0001b0 5a ab d8 3c 7f cd 16 3e c4 cd 1c 3e aa 64 60 be
       0.026448894 0.14726828 0.15312868 -0.219134
0001c0 44 5c 91 3e 85 32 83 be 25 00 e6 be 47 a8 97 3e
       0.28390706 -0.2562448 -0.44921985 0.29620573
0001d0 b1 f9 83 3e 58 e7 d6 3d 7c 8b 98 3c bb b0 bb 3d
       0.25776437 0.10493344 0.018621199 0.09164568
0001e0 dd 60 77 be 3a 4d 93 be 76 a4 91 3d 17 f0 4a 3d
       -0.24158044 -0.28769857 0.071114466 0.049545374
0001f0 a6 a8 cb 3d a7 85 5a be a6 e6 16 be c4 e4 e9 bc
       0.099442765 -0.21340047 -0.14736423 -0.028551467
000200 7f 3e e8 bc 70 10 30 be 46 ba 7b 3e 01 c2 b1 3e
       -0.028350113 -0.1719377 0.24582776 0.34718326
000210 5f 3d 69 3e 0b b3 98 bd 4b 4c 12 3e 01 94 ae 3d
       0.22777317 -0.07456025 0.14286916 0.08524323
000220 bb 89 78 be 3a 37 d8 bd 5d 87 9a be 25 02 70 be
       -0.2427129 -0.10557409 -0.301814 -0.23438318
000230 3e 37 1a be 1b 52 5f be 93 7f 19 be 49 8e 03 be
       -0.15060136 -0.21808665 -0.14990072 -0.12847246
000240 bb 38 e5 3d b0 fc 02 3e af 32 1b be de b1 88 be
       0.11192461 0.12791705 -0.15156053 -0.26698202
000250 18 67 ad be 7a a5 80 3e 9c c5 86 3e 03 77 1f 3e
       -0.33867717 0.2512625 0.2632264 0.15572743
000260 d3 ce 40 be bd 48 73 bd 3d 78 be 3e d4 a6 9b be
       -0.18828897 -0.05939554 0.3720111 -0.30400717
000270 05 e9 80 3b 94 28 47 3e 05 b8 86 3c 46 28 d3 bd
       0.003934028 0.19449073 0.01644517 -0.10310416
000280 b5 e3 65 3e 3d 8e 18 be 85 e9 86 3e 56 47 55 be
       0.22450145 -0.1489801 0.26350036 -0.20827994
000290 ab f7 c4 be 46 bf 66 3e 50 21 09 3e 8a a9 4c 3e
       -0.38470206 0.22533903 0.13391614 0.19986549
0002a0 af 28 f2 3d 1c 70 43 bd 74 9f ab 3d 3e 1a d2 bc
       0.11824166 -0.047714338 0.08380023 -0.025647279
0002b0 20 f9 39 bd 06 80 c7 3e 12 ac 27 be da 44 71 be
       -0.0454036 0.38964862 -0.16374233 -0.23561421
0002c0 58 c6 2d 3e d7 24 7b 3e b2 2d d8 3c 07 b6 f5 bc
       0.16970193 0.24525772 0.026388977 -0.029994024
0002d0 46 39 91 be 59 7a 5f 3e f6 ee 7a bd 8f f2 ca bd
       -0.2836401 0.21824016 -0.061263047 -0.09909546
0002e0 58 72 0c bd c9 b4 ba 3d 77 63 d9 3d 7e 8d 7b be
       -0.034288734 0.09116513 0.106146745 -0.24565694
0002f0 e0 fb 12 3e 9f 25 22 3d 25 81 b8 3e 3e 8c 0b 3d
       0.14353895 0.03958666 0.3603603 0.034069292
000300 2a a1 91 3d 70 9c 2a bd 32 23 34 3e 6f c8 e3 bd
       0.07110818 -0.041653097 0.17591551 -0.11122214
000310 2a 19 73 3e 7a 92 ed 3d 8a f8 87 be 96 cf a2 3d
       0.23740068 0.11600204 -0.26556808 0.0794975
000320 b5 ef 36 bd 3b 20 78 bd a6 15 98 be 09 ba d7 3c
       -0.044662196 -0.060577612 -0.29704016 0.026333826
000330 ec 10 95 3d 28 c3 73 be 37 78 27 3e 90 2c d1 bc
       0.07278618 -0.23804915 0.16354452 -0.025533944
000340 77 36 86 be 8a 0c 81 3e a1 dc 24 bd 83 f9 22 3e
       -0.26213428 0.2520488 -0.04024947 0.15915494
000350 13 de 7c bd 26 6f 02 3e a2 92 02 be 6e ba 41 3e
       -0.061735224 0.12737712 -0.12751248 0.18918774
000360 3a 1e c5 bd 5f a0 d2 3d 13 b0 d7 bc 31 fd cc 3c
       -0.09624906 0.102844946 -0.026329076 0.025023075
000370 d9 09 28 3e ee 55 6e be 0e 90 93 3d 8e 02 8c bc
       0.16410007 -0.23274967 0.072052106 -0.017091062
000380 f9 85 e7 bd 5e c0 83 be 04 4b 81 3c 0b af 9c 3e
       -0.1130485 -0.25732702 0.01578284 0.30602297
000390 92 56 97 3d 86 f7 0d 3e ed 07 f8 3d b1 2b 84 bd
       0.07389559 0.13863954 0.12110887 -0.06453646
0003a0 de 0c 8c be 71 51 6c bc 5b 64 54 be a7 ab ac bc
       -0.27353567 -0.014423714 -0.20741408 -0.021077944
0003b0 dc 85 5a 3c 1c f5 3e be 0f fb 7d be ba 2f 1f 3e
       0.013337579 -0.1864819 -0.24802803 0.1554555
0003c0 cd 65 1d be e5 cf 85 bd 63 26 93 be 92 9c c3 3e
       -0.15370865 -0.06533793 -0.28740224 0.3820539
0003d0 56 2b 94 3d 87 e8 9e bd b2 a3 03 be 50 d2 c0 bd
       0.07234828 -0.07759195 -0.12855414 -0.09415114
0003e0 20 e3 79 be ae ae 54 3d c1 da f8 3c 8b d9 08 be
       -0.24403048 0.0519244 0.030377747 -0.13364236
0003f0 5a fa 3c 3e fd 4f cf be 5f 0b 6d be 2c 61 16 be
       0.18454877 -0.40490714 -0.23148869 -0.14685506

model.2.bias f4 [16]
000000 9a 11 94 be 59 b0 a6 be 18 69 10 3d 69 9f 0a 3c
       -0.2891968 -0.32556418 0.035256475 0.008460858
000010 93 58 8f be 07 15 0a 3e 76 b3 6b bd fd a1 84 3e
       -0.27997264 0.13484584 -0.057544194 0.25904837
000020 fa 59 0f be 79 3f 92 be c1 df e2 3d 35 98 0a be
       -0.13999167 -0.2856405 0.11077834 -0.13534625
000030 1b 62 25 3e 9c b3 c6 bd c6 65 33 3e fb 12 85 3e
       0.16150706 -0.097022265 0.17519292 0.25991043

model.4.weight f4 [16, 16]
000000 bd c3 8e 3e cc ad 15 3e eb d7 7a 3d 6d 28 66 bd
       0.2788371 0.1461708 0.06124107 -0.056190897
000010 f1 83 65 3e 0e 9e 1f be ee b8 29 3c ca 2a 6f bc
       0.22413613 -0.15587637 0.010359032 -0.014597604
000020 76 5f 9f bd 9b e2 20 be 5d 96 8f be 36 b9 b7 3e
       -0.077818796 -0.15711443 -0.28044406 0.35883492
000030 38 99 93 bd a5 ce 4a 3e 48 14 91 3c 79 23 6e 3d
       -0.072069585 0.19805391 0.017709866 0.058139298
000040 f4 61 86 3d f1 e9 ac be 0b 70 10 be 65 0b a6 3e
       0.06561652 -0.33772233 -0.14105241 0.32430568
000050 37 3d 2b 3d e0 b7 04 3e 39 30 dd bd e2 64 cf bd
       0.041806426 0.12960768 -0.10800213 -0.10126664
000060 15 99 ee bd 40 c8 41 bd 3a 4f 8b bd 50 8b e8 bd
       -0.11650292 -0.047310114 -0.06802221 -0.11354697
000070 e5 c5 f8 3d 37 ba 06 3e ec 61 f6 bd fd 6b d6 3d
       0.121471204 0.13156973 -0.12030396 0.10469816
000080 10 cb 67 be dc ae 1c 3d d6 bb 77 3e 77 3d 33 3e
       -0.22636056 0.038252696 0.24192747 0.17503916
000090 31 52 96 bd d4 b3 1f bb cd 07 a6 be b1 79 19 be
       -0.073398955 -0.002436866 -0.32427827 -0.14987828
0000a0 40 fa 9c 3c 0c a5 aa 3d 49 04 c2 be 8f ba c1 3c
       0.019162297 0.083322614 -0.37893894 0.023648528
0000b0 57 30 1a bd 5d f2 25 3e e4 09 e2 bd 60 80 8c 3e
       -0.037643757 0.16205736 -0.11037043 0.27441692
0000c0 aa cd bc bd 94 51 1b 3d b5 c5 8e 3e 8b 0d e3 3d
       -0.09218915 0.037919596 0.27885213 0.110865675
0000d0 91 66 40 3e 33 92 04 be e0 1f 97 be 12 27 99 3e
       0.18789126 -0.12946396 -0.29516506 0.2991262
0000e0 7b 0c 61 3d a9 51 88 bb b3 bb df bc fd 12 9b bc
       0.054943543 -0.0041601253 -0.027311182 -0.018929953
0000f0 9a 2e b0 bd 37 00 83 be d9 21 57 3d 5d 1e 07 3e
       -0.086026385 -0.255861 0.052522514 0.13195176
000100 47 d7 5d bb 18 19 c6 be 0f 77 47 bd 47 b8 4a 3e
       -0.003385024 -0.3869102 -0.048697527 0.19796859
000110 5a 59 f4 bc 64 9f ca bd 18 13 9f 3d 96 46 9e 3e
       -0.029827762 -0.098936826 0.07767314 0.30913228
000120 5e 3d c9 3c 91 f2 e2 be 8d 8d 29 3e 5d d2 01 3e
       0.024565395 -0.44325688 0.16557904 0.12677903
000130 96 2b fa 3c 03 36 85 bd 94 3c 90 3e 3b ae b4 3d
       0.030538362 -0.065044425 0.28171217 0.08822294
000140 6e cb 0a be 3c 5f 91 3e fc 15 70 bd 5b e8 b9 be
       -0.13554165 0.2839297 -0.058614716 -0.36310086
000150 18 4e 27 3d 05 a5 3c 3d 0b 74 4d 3e 5e 32 8b be
       0.04084596 0.046055812 0.20063798 -0.27186865
000160 95 cf 1b be d2 61 f4 3d cb ba 56 3e 91 be d0 3d
       -0.15215905 0.1193272 0.20969693 0.10192598
000170 a0 2d 82 be ac e2 e6 3d 34 da c7 bc cd c4 96 be
       -0.25425434 0.11273703 -0.02439604 -0.29447022
000180 22 9e 50 3e 42 89 90 3e 33 60 92 bd ea 04 b6 3b
       0.20372823 0.2822972 -0.07147255 0.005554785
000190 7b c3 de 3e c4 e3 92 be 76 ab 8e 3e 43 a6 9b be
       0.43508515 -0.28689396 0.2786519 -0.30400285
0001a0 72 08 67 be e7 3f c8 bd e4 d8 5d 3d f4 9c 42 be
       -0.22561815 -0.097778134 0.05416192 -0.19005185
0001b0 59 f8 f6 bd 1e ca 8e bd 1b 92 a3 3d 64 83 27 be
       -0.12059087 -0.069721445 0.07986852 -0.16358715
0001c0 ae 3a 1a be 92 1c bb be 67 8f 52 bd db f9 a8 3d
       -0.15061447 -0.36545235 -0.05140629 0.08250781
0001d0 0e fc ae bd b4 0e 96 3d a2 27 2d be b2 0d b3 3d
       -0.08544169 0.07327023 -0.1690965 0.087428465
0001e0 df d5 95 3e cd 32 e9 bd fc 9c 9c be f3 a0 57 be
       0.29264733 -0.113866426 -0.3058852 -0.21057491
0001f0 25 9d 85 3e 74 f0 94 3e 20 1c 66 3e 58 63 8a 3e
       0.26096454 0.290897 0.22471666 0.27028918
000200 ad 1b 0d bc 1c 69 80 3c df c6 84 3e b7 cf 99 3e
       -0.008612555 0.01567512 0.25932977 0.30041286
000210 65 5c c1 bd 23 bb b0 3e 39 bc fb bd 09 bb 7e 3e
       -0.09441451 0.34517774 -0.1229176 0.24876036
000220 96 7b 83 be 55 3a f2 be 00 7b e4 3c 07 4b 06 3e
       -0.25680226 -0.4731013 0.027890682 0.13114558
000230 92 b8 86 bc 7d ec ab 3d ba 34 ed bc 55 5b 93 3d
       -0.016445432 0.08394716 -0.028955806 0.071951546
000240 db 68 b5 3d 48 28 a0 3d 56 65 10 3e 1e 90 67 bd
       0.0885789 0.07820183 0.14101157 -0.056533925
000250 94 80 97 3e 53 f9 47 be bb 80 e4 bd 96 41 7c bd
       0.29590285 -0.19528703 -0.11157366 -0.061585985
000260 dc f5 c0 be 37 91 d5 3d cf 6d 80 3e 16 af e6 bd
       -0.37687576 0.10428088 0.25083777 -0.11263864
000270 e4 3f 18 3d 23 57 a1 be 2c 7b fc 3d 02 5f d4 3d
       0.037170306 -0.31511793 0.12328181 0.10369684
000280 4f 07 09 be 32 26 0f bc b9 a9 3e 3e c6 ae 21 be
       -0.13381694 -0.008737134 0.18619432 -0.15789327
000290 d3 1a 1e 3e b5 3d bf 3c b2 3a 32 be dd b9 58 3e
       0.1543992 0.023344854 -0.17405203 0.21164651
0002a0 14 f2 0f 3d be b9 03 3d d5 2c 8a 3e d3 f2 8f be
       0.035142973 0.03215956 0.2698733 -0.28114948
0002b0 20 79 20 be 45 9d 90 bd 55 0a 3e be 07 86 69 bd
       -0.15671206 -0.07061247 -0.18558629 -0.057012584
0002c0 af 1a 73 bd b6 21 b6 be 1b 2e 83 3e 8b f4 c1 3e
       -0.05935162 -0.35572594 0.25621113 0.37881884
0002d0 e0 ae 0f bc 59 ac 9f 3e fd ae ac be ac 55 69 3e
       -0.008769721 0.31186178 -0.33727255 0.22786587
0002e0 97 f6 01 be 6d 45 8d bd bc e6 82 3d c2 3a 2e 3e
       -0.12691723 -0.068980075 0.06391665 0.17014602
0002f0 6b 74 91 bd 2c 9b 25 3e 51 0c 81 3e fc 57 a7 3e
       -0.07102283 0.16172475 0.2520471 0.32684314
000300 57 f0 6b be 3b 14 9e be 61 87 9a 3e af 3f 98 3e
       -0.23040901 -0.3087481 0.3018141 0.29736087
000310 a5 96 0f 3d 18 b3 bc 3e 18 55 0c be 2b 5e 06 3e
       0.035055775 0.36855388 -0.13704336 0.1312186
000320 a3 5d c1 3d cc 2b 90 be 4e b1 25 be b6 32 e5 bd
       0.09441688 -0.28158414 -0.16180918 -0.11191313
000330 b2 02 bc bc ed 1a 60 bd d5 b2 c8 3e 63 15 c1 3e
       -0.022950504 -0.05471318 0.39198938 0.3771163
000340 a6 a2 2c 3e 6d 0d 3c 3d 3e 25 a5 bd af 17 9a be
       0.1685892 0.04591124 -0.08063744 -0.30096194
000350 59 d3 0e be 5e 09 2f be 46 c2 45 3e 65 42 33 3e
       -0.1394781 -0.17093417 0.1931239 0.17505796
000360 6a d4 06 be a4 7d a4 3e e6 4b 28 3e 35 2a 1d be
       -0.13166967 0.32127106 0.16435203 -0.15348132
000370 3b 21 54 be ca a5 fd 3d 4f 58 0f 3e 18 90 8d 3d
       -0.20715801 0.123851374 0.13998531 0.06912249
000380 0a 74 d4 bd df e8 80 be ea 04 99 3d c8 6a 4e be
       -0.10373695 -0.25177667 0.074716404 -0.20157921
000390 3d c1 3f be 14 30 05 bd 1c 49 d4 3b d4 18 17 3e
       -0.18726058 -0.032516554 0.006478442 0.14755565
0003a0 8c 2a 44 be ee 82 4b 3d 5f b6 4e 3e 93 69 a2 be
       -0.19156855 0.04968541 0.20186757 -0.31721172
0003b0 a5 c9 73 bd a2 00 8c be 2b 25 92 3e d6 fe 76 3e
       -0.059518475 -0.27344233 0.28543982 0.2412065
0003c0 5f 9f df 3d de 1a 21 bd e0 d8 84 be 7f 4f d6 be
       0.109190695 -0.039332263 -0.25946712 -0.41857526
0003d0 af 93 49 3e 00 ee 91 3d 1e 51 71 3e 8c c7 ba bd
       0.19685243 0.07125473 0.235661 -0.09120092
0003e0 98 34 2c be 39 fa 30 3e 5a 84 fb bd 23 c2 2f 3d
       -0.16816938 0.17282952 -0.122811034 0.042909753
0003f0 f8 80 bd be 8d a4 66 bd 55 bd 66 be fd 3c cc be
       -0.37012458 -0.05630927 -0.22533162 -0.3989028

model.4.bias f4 [16]
000000 e5 3b 3b bd 83 87 78 be 83 4c 60 bd 7a c4 82 3e
       -0.045711417 -0.24270444 -0.054760467 0.25540525
000010 9e 1b 2f bd e1 38 a2 3d b5 42 08 be 21 b9 92 3e
       -0.042750947 0.07921005 -0.13306697 0.28656867
000020 f4 39 86 bd 91 ba c2 bc 7b 28 bc 3c ba 98 0a 3d
       -0.065540224 -0.023770602 0.022968521 0.033837058
000030 f0 57 70 bd 88 06 89 3e 94 71 b9 bc 42 99 3b bc
       -0.058677614 0.26762795 -0.022637166 -0.011450114

model.6.weight f4 [16, 16]
000000 38 6e 0b 3e 5a f3 8a 3d 31 e8 0f 3e ce af 74 bd
       0.13616264 0.06784697 0.14053418 -0.059737973
000010 76 d8 69 be 70 46 86 be 4e 9f 2c 3e 8e 0a 4a 3e
       -0.2283648 -0.26225615 0.16857645 0.19730589
000020 35 7a 7b be c0 9d a9 be c9 a8 20 be b6 96 56 bb
       -0.24558337 -0.33128166 -0.15689386 -0.003274364
000030 ba f3 5d 3d f2 1f a4 bd b1 4b 45 be f2 60 12 bd
       0.054187514 -0.080139056 -0.19267155 -0.035736986
000040 15 4f eb bd f5 f1 b3 3e 4f a1 b3 3d 9c ab 9f 3d
       -0.11489693 0.35145536 0.087710015 0.07796404
000050 a0 82 9e bd 48 66 a2 be bd 85 a9 3d 74 da 4e 3e
       -0.077397585 -0.3171866 0.08277462 0.20200521
000060 7a 7d fe bc fb d8 02 be 7c 87 83 be 03 e1 c5 3e
       -0.031065691 -0.12778084 -0.25689304 0.38648233
000070 ea c7 24 3e a0 9f 43 3b f8 d3 10 be a7 43 8e be
       0.16091886 0.0029849783 -0.1414336 -0.2778599
000080 a8 b4 64 3e 32 2d 1e 3d dd fa a5 3e 49 1e 6c bc
       0.2233454 0.03861732 0.32417956 -0.014411517
000090 7a d1 0d 3e ab 13 6a bd 21 02 a6 be 1c f5 ab 3e
       0.1384944 -0.057147663 -0.324235 0.3358544
0000a0 b0 8f 0f 3e 49 f5 75 3d 5e e9 5f be c9 6e 1b 3c
       0.14019656 0.060048375 -0.21866366 0.009486862
0000b0 fa 7d 8b 3e 3f 4e 77 be b5 46 d9 3d 77 bb 7a be
       0.2724455 -0.24150942 0.106091894 -0.24485575
0000c0 4a b1 9a 3d 2e fc 8c 3e 83 5e 3f bd 7b fd 4f be
       0.075533465 0.27536148 -0.046720993 -0.20311539
0000d0 b5 57 80 3d c3 02 e7 3b 0d 5b 01 be 05 9a 8c 3e
       0.06266729 0.00704989 -0.1263239 0.27461258
0000e0 77 fc 2b 3e 03 d1 05 be b0 a7 13 3e 21 53 14 3e
       0.16795526 -0.13068013 0.14419436 0.14484836
0000f0 0b 08 21 3e 03 61 d6 3c 7c 80 bf 3d cc de c0 be
       0.15725724 0.026169306 0.09350678 -0.3766998
000100 5a 06 75 3e 31 fe 95 3e a2 b6 d5 3e 3a c8 6d bd
       0.23928204 0.29295495 0.417409 -0.05805228
000110 8d 03 96 3e d0 8c 91 bd d0 25 8c be 1a e3 67 bd
       0.29299584 -0.07106936 -0.273726 -0.056613065
000120 60 ed 10 3e 86 ae a7 be 68 29 8b be 99 94 52 bd
       0.14153051 -0.32750338 -0.27180028 -0.051411245
000130 87 99 dd bd 81 6e f5 be 6c 85 5f be b0 c2 7f be
       -0.10820299 -0.4793587 -0.2182824 -0.24976611
000140 d1 af 9c be 3a 5c 78 be 21 51 e3 3c 9b af 7b 3e
       -0.30602887 -0.24253932 0.027748646 0.24578707
000150 6f 19 09 3d e8 84 11 be 20 48 58 3e 9b 96 9d be
       0.03347152 -0.14210856 0.21121264 -0.30778965
000160 47 2b 6a be cb df d7 3d be 5e 7c 3d 12 6d ec 3c
       -0.22868071 0.10540732 0.06161379 0.028860603
000170 a9 b8 9e be 45 42 86 3e 59 1a 4e 3d 8d 2f 1b 3e
       -0.3100026 0.26222435 0.050318096 0.15154858
000180 3f d8 4f 3e 16 96 64 bd 3c d7 44 bd 06 8c 96 be
       0.20297335 -0.055807196 -0.048056826 -0.29403704
000190 9d cf 67 be dd ad 24 3e 4f 43 a1 bd fa d3 42 3d
       -0.22637792 0.16081949 -0.07874166 0.047565438
0001a0 e5 be 84 3c 54 38 98 bb d5 5f aa be f8 40 8a be
       0.016204307 -0.0046453867 -0.3327624 -0.27002692
0001b0 7c ae 2e 3d 52 ba 3f be d5 6c bf be fa ef 8a 3e
       0.04264687 -0.1872342 -0.3738772 0.27136213
0001c0 2b 26 76 3e 39 0f 1d be 75 98 9a be 40 90 97 bd
       0.24037997 -0.15337838 -0.3019444 -0.074005604
0001d0 e9 ed c3 be 8b d5 a1 3e ef ed 4d 3e 38 e3 b9 be
       -0.3826745 0.31608233 0.20110296 -0.36306167
0001e0 37 c4 82 be 6e 5c 81 bd d7 6a 66 bc 44 d1 c8 be
       -0.25540325 -0.06316458 -0.014063559 -0.39222157
0001f0 fb d3 cd be 22 25 6e 39 04 1f 6a be ca 57 e0 3d
       -0.4020079 0.00022711282 -0.22863394 0.109542444
000200 60 0c ff 3d d9 2d 96 3e f4 ed 4d 38 8a 42 68 be
       0.12453532 0.29331854 4.909742e-05 -0.22681633
000210 b9 1c 17 be 03 96 c1 bd 06 52 6d 3e c9 0e 9d 3b
       -0.1475705 -0.094524406 0.2317582 0.0047930223
000220 77 8d 94 be 3c 34 62 be 69 b8 4d be fc d6 0e be
       -0.2901418 -0.22090238 -0.20089878 -0.13949198
000230 5b 0a 66 be 76 8b 19 3e 37 86 3e be 5e 8d 09 3e
       -0.22464888 0.14994606 -0.18605886 0.13432834
000240 3d a9 f0 bd dc be a1 be 28 4c cf 3d d7 f7 18 3e
       -0.1175103 -0.31590927 0.101219475 0.14938293
000250 2e 5c 0f 3e f6 35 23 3e 32 08 b4 bc df f3 60 be
       0.14000008 0.15938553 -0.021976564 -0.2196803
000260 1b b4 8b 3e 01 d2 30 3e c7 f2 62 3e dd 8d 51 3b
       0.27285847 0.1726761 0.22162925 0.0031975426
000270 68 f7 be bc 45 d6 1a bc 22 ae 20 3c 02 7a 0d bd
       -0.023311332 -0.0094505 0.0098071415 -0.034540184
000280 92 01 19 3e 3f 7e 01 be 81 97 95 be a0 1b 16 3e
       0.14942005 -0.12645815 -0.2921715 0.14658976
000290 bd df f4 bd 0a eb 0c be 3b 39 80 3e 63 b9 f6 3b
       -0.11956737 -0.13761535 0.25043663 0.007529424
0002a0 1e 46 72 bd 9d 1c 6b 3e dc 65 99 3d f4 17 aa be
       -0.0591489 0.22960134 0.07490131 -0.332214
0002b0 bc ea a7 3b 5c 65 74 3e d3 96 18 3e 4c a4 42 3e
       0.005124418 0.2386679 0.14901285 0.19007987
0002c0 09 b5 6a be c9 62 d8 bd 61 ed 77 bd d1 53 e5 3d
       -0.22920622 -0.10565717 -0.060529117 0.11197627
0002d0 b8 11 bb bd 09 3a 69 be b1 7f 99 be 96 0a 3d 3e
       -0.09134239 -0.22776045 -0.29980233 0.1846107
0002e0 0a 3c 98 3e 6b 90 cb 3d 2d e0 6a 3e 25 96 6e 3d
       0.29733306 0.09939655 0.22937079 0.058248658
0002f0 2a d5 02 3e e5 c4 58 3e 1b 1f 99 3e 1a 8a 37 bd
       0.12776628 0.2116886 0.29906544 -0.04480944
000300 ec 86 ce bd ac b4 9d 3d 8a 69 31 3e 12 90 6b be
       -0.10084328 0.07700476 0.17325416 -0.23004177
000310 e1 5b 0c 3e d4 7a 85 be e3 ed 4e be d8 92 2e 3e
       0.13706924 -0.26070273 -0.20207934 0.17048204
000320 85 71 0e bd b3 9b 05 be bb 14 36 be 3b 22 25 3e
       -0.03477623 -0.13047676 -0.17781346 0.16126339
000330 5f 59 46 3e 7c 54 50 bd 59 54 c4 bc 90 29 c2 bc
       0.1937003 -0.05086182 -0.023966001 -0.02370146
000340 fc 53 6b 3e a7 69 08 3e e2 e3 f3 3d 5a 94 29 3e
       0.22981256 0.13321553 0.119086996 0.16560498
000350 b7 ba 63 3e b6 00 c3 be e1 98 a1 be 54 95 82 3e
       0.22239195 -0.3808648 -0.3156195 0.25504553
000360 85 85 94 3e 54 0e 6d bd f7 56 47 be b1 7e 1a 3e
       0.29008117 -0.057874992 -0.19466768 0.15087391
000370 35 dc 97 3e 2a 20 93 be 7e f2 f4 bd 9a 99 9e be
       0.29660192 -0.28735477 -0.11960314 -0.30976564
000380 f5 a8 a2 bd 80 ec 2a be 03 e2 25 bd bc c1 09 be
       -0.07942382 -0.1669178 -0.040498745 -0.1345281
000390 11 61 3c 3d 8a 7f 43 3e 60 a6 16 3e 35 e9 95 be
       0.045991007 0.19091621 0.14711905 -0.29279485
0003a0 31 3a e2 bd 4f 0b e0 3e c9 d2 6f 3b 6a 4b 4f be
       -0.110462554 0.43758628 0.0036594144 -0.20243612
0003b0 45 58 9e be 9c e1 81 3e b1 ba d5 3c 43 f9 aa 3e
       -0.3092672 0.2536744 0.026089998 0.33393297
0003c0 06 9a 30 3e a8 7f fc bc 7a 07 6d 3e fc 72 82 3c
       0.17246255 -0.03082259 0.23147383 0.01592397
0003d0 25 86 60 bd 9c 31 c2 be e6 cc 5a be 40 1b 5c 3e
       -0.05481543 -0.37928474 -0.21367225 0.2149477
0003e0 79 9e 18 3c 33 e4 15 be f5 31 cb bd e8 69 9b 3e
       0.009315127 -0.14637832 -0.09921638 0.30354238
0003f0 c7 68 f9 3d 70 43 12 be fc de 1b 3e 0d 10 82 be
       0.12178188 -0.14283538 0.1522178 -0.2540287

model.6.bias f4 [16]
000000 0c ed fb bd f8 01 41 be 73 ad e4 bd ef 35 97 bd
       -0.123010725 -0.18848407 -0.11165895 -0.07383334
000010 b7 5c 02 be f6 f1 20 3e a4 63 7f be 58 01 1f 3e
       -0.1273068 0.15717301 -0.24940354 0.15527856
000020 81 9c 91 be 08 22 62 3e 4e 53 3f bd 89 91 82 3e
       -0.28439716 0.22083294 -0.046710305 0.2550166
000030 43 d1 af bd 6b c2 64 3e e0 5b 3a be 7f 06 64 3e
       -0.085848354 0.2233979 -0.1819911 0.22268103

model.8.weight f4 [16, 16]
000000 70 45 be 3c c9 d2 1b 3d 82 e4 46 3d 18 85 e0 3d
       0.02322647 0.038042817 0.048557766 0.109628856
000010 4f a7 c4 3e 3b 35 6c be 96 06 9d bc ac 8a 1e be
       0.38408896 -0.23067181 -0.01916818 -0.15482587
000020 f4 d9 3b 3e 6f ff 4d be 0f ab 8a be 18 db 2b be
       0.18344861 -0.20116971 -0.27083632 -0.16782796
000030 84 d8 ea 3d de 50 a1 3e eb d2 20 3e 70 a9 0b 3e
       0.11467078 0.3150701 0.15705459 0.13638854
000040 6e 78 ad 3e 39 2a ac 3e 29 9a 92 bd c2 9e 3b 3e
       0.33880943 0.33625963 -0.0715831 0.1832228
000050 0f b5 f1 3e a0 80 d8 be b6 21 af 3d c5 4a 2e be
       0.4720845 -0.42285633 0.08551352 -0.1702071
000060 a5 25 1c be 6b c6 31 bd df 64 1f 3e 55 79 a2 be
       -0.15248735 -0.043402117 0.15565823 -0.31733194
000070 1f dd 8c bd ba ed c5 bc 11 44 3a be 69 65 da 3b
       -0.06878113 -0.024161208 -0.18190028 0.006664921
000080 15 ac c4 3c 61 e3 71 3e f8 0a c7 3d a3 44 a6 3d
       0.024007836 0.23621894 0.09718889 0.0811856
000090 ad 25 9f 3d d4 01 75 3b a6 f7 22 be bd 13 d9 bd
       0.07770858 0.0037385123 -0.15914783 -0.10599468
0000a0 b4 60 37 3d ba 4b 4b 3e be 78 80 3d 2d b1 79 3e
       0.044769958 0.19853106 0.0627303 0.24383993
0000b0 c0 ff fd bd 51 4b 42 3e 1f 57 7b bd f7 a6 ca 3e
       -0.12402296 0.18974043 -0.061362382 0.3958051
0000c0 8b 09 d0 be ad 60 20 be bd 94 a5 bd 64 94 aa bc
       -0.4063228 -0.15661879 -0.0808501 -0.020822711
0000d0 b0 b2 eb be 11 57 ad 3e 17 22 92 bd cf 0f ea bc
       -0.46034765 0.3385549 -0.07135408 -0.028571991
0000e0 1b e2 d5 bd 94 c3 a1 bd f1 33 0e 3e 42 93 9d 3d
       -0.10443517 -0.07898632 0.13887002 0.07694103
0000f0 bc 20 23 be 88 37 e4 3d d3 cb 3f 3e 11 c8 9e 3d
       -0.15930456 0.11143404 0.18730097 0.077530034
000100 f7 cf 16 3e 75 ec a1 3d db c7 bf 3e 5c c1 13 3c
       0.1472777 0.07906429 0.37457165 0.009018268
000110 cd 3f 92 3e ba 10 a7 3d ba 42 37 3e ba 49 71 be
       0.285643 0.08157487 0.17896548 -0.2356328
000120 9c 56 89 bc 0b 92 10 be 0f 85 36 3c 94 62 51 be
       -0.016764931 -0.14118211 0.011140122 -0.20447761
000130 ad 1b a7 3d da 00 7d 3e ce 13 67 be c0 9e 18 bc
       0.081595756 0.24707356 -0.22566149 -0.009315193
000140 c0 a0 46 3e af f5 83 3e 72 af 04 3e 58 fe 87 3e
       0.19397259 0.2577338 0.12957552 0.26561236
000150 85 16 a0 bb 57 c5 f2 3d 1e c8 cd bc d1 c2 dd bd
       -0.004885497 0.11854046 -0.025119837 -0.10828174
000160 31 fa 0e be 94 a8 98 bd 02 65 8b be a6 23 08 3d
       -0.13962628 -0.07454029 -0.272255 0.033237122
000170 4d 68 3e 3e 84 e0 b4 3e 98 f1 94 be 29 ba 79 3e
       0.18594475 0.35327542 -0.2909057 0.2438742
000180 55 aa 70 be 4d 5d 3b 3d c7 79 8a 3e 4b eb 96 3c
       -0.23502477 0.045743275 0.27046034 0.018422743
000190 9a a1 b2 3b 8b de 81 3e 93 59 ab bd f1 18 2b bd
       0.0054513933 0.253651 -0.08366694 -0.041771833
0001a0 c8 77 af be ec 33 2b 3e 69 68 ad bd c3 e0 5a 3e
       -0.34271073 0.16719025 -0.0846718 0.21374802
0001b0 5f a0 5c bd 66 0d a6 3e 0b e9 11 be ea cd 91 3e
       -0.05386388 0.32432097 -0.14249055 0.28477412
0001c0 0a 32 d4 3c 68 bd 50 be 94 76 b8 bc ab 56 42 3e
       0.025902767 -0.20384753 -0.02251748 0.18978374
0001d0 13 14 65 be ed 7b b9 3e 84 87 b4 be 1f b4 e2 bc
       -0.22370939 0.3622736 -0.3525964 -0.027673779
0001e0 cd 5c 8b be 78 36 62 3c 98 a7 5f 3b 96 ab 81 3e
       -0.2721924 0.013806932 0.0034126993 0.25326222
0001f0 d7 eb 3f 3e fd 42 8a bd 9f 2c 82 3c 08 07 30 3e
       0.1874231 -0.06751058 0.015890418 0.17190182
000200 9f 97 b1 3e a5 33 11 3d 0b 4b 20 3e 95 75 82 3e
       0.3468599 0.035449643 0.15653627 0.25480333
000210 9d 73 90 3d 60 8e 43 ba 2a c6 1d be 78 22 85 be
       0.070533015 -0.0007459875 -0.15407625 -0.2600286
000220 ef 39 09 3c cc 62 c1 bd e6 94 12 be 26 d0 0f be
       0.008375629 -0.09442672 -0.14314613 -0.14044246
000230 df dc b2 3e b6 79 27 3e 7c 17 a2 bd 38 32 11 3e
       0.34934136 0.16355023 -0.079146355 0.14179313
000240 a7 12 06 3d dc f5 6c bd 19 6c 14 3e 2b b6 a5 3e
       0.032732632 -0.057851657 0.14494361 0.32365546
000250 05 4a 14 3d 20 19 dc 3c c9 d1 5d 3d 0d e5 93 be
       0.036203403 0.02686745 0.054155145 -0.2888569
000260 c0 d3 3f be 25 5e 8a 3e 45 a5 3f bc 9e 56 73 3e
       -0.1873312 0.27024952 -0.011697118 0.2376351
000270 fa 96 e7 3d 13 90 06 be a2 28 c4 be f8 8b 09 3d
       0.11308093 -0.13140897 -0.3831225 0.03358075
000280 85 f3 5a be 4a 68 45 3e a5 56 86 bd f9 e5 53 3e
       -0.21381958 0.19278064 -0.06559495 0.20693196
000290 d2 f1 ee 3b 6a 5f 9c 3e 46 86 e8 bd 33 ff d0 bd
       0.007292011 0.30541545 -0.113537356 -0.102049254
0002a0 79 55 90 be 47 38 8c bc 83 9b 53 be d1 b6 6b 3e
       -0.2819021 -0.017116679 -0.20664792 0.23018958
0002b0 47 af c1 bc cc 15 11 3d 92 b8 fc bd ca 9c 7c bb
       -0.023643149 0.035421178 -0.123398915 -0.0038545602
0002c0 72 54 18 3e 5b 5f 6e 3e d0 8c 8c 3e 5c ec 14 be
       0.14875963 0.23278563 0.2745118 -0.14543289
0002d0 17 e8 30 3d 59 83 b9 be a9 85 75 3e df cb b8 3c
       0.043190088 -0.36233023 0.23976769 0.02255815
0002e0 d0 4c ed 3d ad 41 51 3d 56 6c 4a be e6 09 3e bd
       0.115869164 0.051088024 -0.1976789 -0.04639616
0002f0 93 8e 7a 3e 19 16 28 3e 3d 6c 86 3d cd 67 35 3e
       0.2446845 0.1641468 0.065636136 0.17715378
000300 67 50 f7 3d 2d 70 ac 3e 16 48 38 bb 71 9d b2 3e
       0.120758824 0.33679333 -0.0028119138 0.34885743
000310 74 3f d6 bd 64 83 97 bd 7c 12 ef 3d 80 79 d1 be
       -0.104613215 -0.07398108 0.116734475 -0.4091301
000320 23 ac 7a 3e 05 82 b3 bd 87 ca 77 bd 34 97 c5 3d
       0.24479727 -0.08765034 -0.06049588 0.0964798
000330 d3 38 5b 3e 33 1f a2 3d 7b 6d b4 bd 34 98 98 3d
       0.21408395 0.07916107 -0.08809944 0.074509054
000340 18 af 30 be 44 9a 94 3d cf d9 b1 3e 63 49 93 3e
       -0.17254293 0.07255986 0.34736487 0.28766927
000350 9e a4 dd bd e7 f8 78 be 5a ae ff 3d 59 e9 a8 be
       -0.10822414 -0.24313699 0.12484427 -0.3299053
000360 f1 91 10 be b7 b1 ab bc ce a7 83 be dd 04 14 3c
       -0.14118172 -0.020958764 -0.25713962 0.009034363
000370 41 da 5c bd 85 b6 8a 3e f8 a1 18 be d3 d5 c9 3d
       -0.05391908 0.27092376 -0.14905536 0.09855237
000380 2e 2a 54 3c 2d b3 68 be bf 1d 8c 3c be 07 c1 3d
       0.01294951 -0.227246 0.017104028 0.09425305
000390 61 b4 f2 3d ae 79 ab bd 8c f5 ab be 5a 0a 2f 3e
       0.11850811 -0.08372818 -0.33585775 0.17093793
0003a0 99 66 87 be 61 57 98 3d 09 98 4d be f6 f9 d8 3e
       -0.26445463 0.07438541 -0.20077528 0.42378205
0003b0 52 9c e6 3c 34 56 7d be 2d 12 b2 3d c7 cb 92 3e
       0.028150711 -0.24739915 0.08694873 0.28671095
0003c0 fb ed 14 be 50 53 55 3d 5e cd 21 3e bd f6 a0 3e
       -0.14543907 0.052081406 0.15800998 0.31438246
0003d0 5c e9 c6 3d 38 f7 17 be 45 d5 d6 bd ab 9e a6 be
       0.097124785 -0.148404 -0.10489897 -0.3254293
0003e0 fe f2 f8 be b0 3f 9d bd 60 0a 40 be 87 3d 00 3f
       -0.48622888 -0.07678163 -0.18753958 0.50093883
0003f0 8f e0 3c 3e 42 e3 d0 3e c7 31 46 be 42 ab bc 3e
       0.18445037 0.40798384 -0.19354926 0.3684941

model.8.bias f4 [16]
000000 c8 f9 5f be c6 79 4e be 24 ad 61 3e aa 15 90 3d
       -0.21872628 -0.2016364 0.22038704 0.07035382
000010 0d be 59 be d9 e7 84 3b 81 79 31 3e 1d 94 34 bd
       -0.21263905 0.0040559587 0.17331506 -0.044086564
000020 fa 65 38 be 58 75 41 3e a6 b9 1d 3e 54 44 58 be
       -0.18007651 0.1889242 0.1540285 -0.21119815
000030 19 fc ef bd 02 25 72 be cd 7a 44 3e 61 45 d5 3e
       -0.11718006 -0.2364693 0.1918747 0.41654494

model.10.weight f4 [16, 16]
000000 7a 30 88 3e f5 61 69 3e 78 48 27 be 78 c9 b6 be
       0.26599485 0.22791274 -0.16336238 -0.35700583
000010 18 c5 a6 3d 37 46 23 3e ba 63 26 be eb e3 2e be
       0.081430614 0.15944754 -0.1624898 -0.17079131
000020 15 73 03 3e 3d d4 d5 bd e0 5e 75 bc 2e 68 5c 3e
       0.12836869 -0.10440872 -0.014976233 0.21524116
000030 52 e3 00 3d b0 33 af bd a3 3a 51 3c bf 56 3e 3b
       0.03146679 -0.085547805 0.012770328 0.0029043404
000040 57 7d 9c bd f1 45 81 3e 53 e7 58 be e4 c7 4d be
       -0.07641094 0.25248674 -0.21181993 -0.20095783
000050 bb a3 39 be d0 35 07 be db a0 b5 be 79 c0 1d be
       -0.18128864 -0.13204122 -0.35474285 -0.15405454
000060 fd 02 a1 3d a1 bc 7c be 1c 80 41 be 72 70 60 3e
       0.07861898 -0.24681331 -0.18896526 0.21917894
000070 75 d3 69 be 1b 26 8d be ab 0f 65 bd e5 a3 49 be
       -0.2283457 -0.27568135 -0.055923145 -0.19691427
000080 68 8a 08 3e eb 02 c7 3d ae 95 b4 be 3e 0c 69 be
       0.13334048 0.097173534 -0.35270447 -0.22758576
000090 81 d4 b4 bb 81 79 38 3d b1 99 1d be 7c 34 c5 be
       -0.0055184965 0.04503775 -0.1539066 -0.38516605
0000a0 a8 3a da 3d 01 d7 ea be 29 ad ec bd 29 ef fc 3d
       0.10655719 -0.4586716 -0.11556465 0.12350304
0000b0 f4 d5 f2 3d 2c e7 9b bd ef 57 09 3d ef 15 99 bd
       0.118572146 -0.07612452 0.033531126 -0.074748866
0000c0 c9 ca 31 be 35 d1 8e 3d f0 a4 ff 3d 21 00 5b be
       -0.17362513 0.06973497 0.12482631 -0.21386768
0000d0 ad 04 10 3e 28 59 61 3e dc 34 17 3d 61 b1 01 3e
       0.14064284 0.22006667 0.036915645 0.12665321
0000e0 4f c7 ad 3e df a5 25 bd 27 3f aa bc e2 89 21 be
       0.33941123 -0.04044139 -0.020782067 -0.15775254
0000f0 92 4d 94 3e f0 38 1f 3e a0 f7 81 be 5a 90 dc 3e
       0.2896543 0.15549064 -0.25384235 0.43078882
000100 74 a2 49 3e e7 9a 21 3c 82 d3 c1 3e f1 5c 5c 3e
       0.19690877 0.009863592 0.3785668 0.2151983
000110 e4 2c 6e bd c9 a2 87 bd 48 df 20 3e c1 a5 a8 3e
       -0.05814828 -0.06622846 0.15710175 0.3293896
000120 cc c4 39 3e 86 1c da 3e 8a 36 98 3e bf d5 3f bc
       0.18141478 0.42599887 0.2972911 -0.011708676
000130 8b 88 b3 bd f9 b4 e5 3d a1 7a 80 3e 75 ee 99 bd
       -0.08766278 0.112161584 0.25093558 -0.07516185
000140 8e 2f 20 be 87 6a bd be e1 a4 25 3e ce 19 e5 3c
       -0.1564314 -0.36995336 0.16176178 0.027966406
000150 7c 29 ff bd 64 df 34 be 54 76 89 bd 9e 43 28 3e
       -0.124590844 -0.17663342 -0.067120224 0.16432044
000160 02 05 a5 be cb 01 1f 3e 6e 51 47 3d 9a 13 86 be
       -0.32230383 0.15528028 0.04866164 -0.2618683
000170 07 e8 14 3d 89 78 0f be 64 7b a1 3e f8 73 fe 3d
       0.03635409 -0.14010824 0.31539452 0.12424463
000180 89 81 61 3d a7 4b 93 be 38 ec ad 3e c3 e7 3c 3d
       0.055055175 -0.28768656 0.33969283 0.046119463
000190 c2 ce c4 bd 62 37 1a be 7f 4c c2 3e bc aa 63 bc
       -0.096097484 -0.1506019 0.37948987 -0.013895687
0001a0 b7 e5 88 3e c5 60 8f 3d 65 93 c9 3e 42 df 83 be
       0.2673776 0.07000879 0.39370266 -0.2575627
0001b0 3c 47 0d 3e a6 8c 8d bd e1 a2 9b 3e b2 f3 87 3d
       0.13796705 -0.06911592 0.30397704 0.06638278
0001c0 6e 44 af 3d 5c c0 13 3e 56 9f 4a be 56 06 00 be
       0.08557974 0.14428848 -0.19787344 -0.12502417
0001d0 1e 5a bd 3d 3f d4 e3 3d f7 9d bb be 67 73 1e be
       0.09245704 0.11124467 -0.36643955 -0.1547371
0001e0 07 26 05 3e 93 72 c6 be 43 44 8e be 93 7d 8e 3e
       0.13002788 -0.38759288 -0.27786455 0.2783018
0001f0 a5 a2 3a be b2 c6 8f be d8 aa 05 be 08 6b 7f 3d
       -0.18226106 -0.2808128 -0.13053453 0.062357932
000200 24 e4 87 be 01 ab 8f be 7a 84 15 3d 11 0a c6 3e
       -0.26541245 -0.28060153 0.036503293 0.38679555
000210 07 a9 31 3d ca 9f 09 3e 60 76 d8 3e 21 34 9e 3d
       0.043374088 0.13439861 0.42277813 0.077247865
000220 0e 3c e3 bb e0 d2 23 3e 17 1e e7 3e 85 c2 26 be
       -0.0069346493 0.15998411 0.45140144 -0.16285141
000230 d3 45 0f 3e fe 1e 65 3d 01 6a da 3d 0e 93 96 3d
       0.1399148 0.05593776 0.1066475 0.07352267
000240 4d 38 ce bd b3 9a 8c 3e 2c 23 77 be 8f c7 86 be
       -0.10069332 0.27461776 -0.24134511 -0.26324126
000250 35 99 c6 3d d9 fc e6 bb 43 73 c6 be 4b d0 a7 be
       0.09697191 -0.0070491848 -0.38759813 -0.32776102
000260 e4 04 ad bd 38 bc c2 be 98 5d 1b 3d 70 c7 d2 bd
       -0.084481984 -0.38034225 0.037931055 -0.10291946
000270 58 f0 86 3d 77 a3 39 bd be 98 b3 be e8 00 c6 3c
       0.06588811 -0.045321908 -0.3507747 0.024170354
000280 22 4a cb 3d df 80 b0 3e 69 34 45 be ce 05 a2 3c
       0.09926249 0.3447332 -0.19258274 0.019778159
000290 dc 77 9b 3e 00 4f 4f 3e 5f 11 95 be 68 c2 15 be
       0.30364883 0.2024498 -0.29114816 -0.14624941
0002a0 d8 df 76 3d 4e 25 b0 3c 69 c4 f6 3d c5 8d 63 3e
       0.060272068 0.021502163 0.12049181 0.2222205
0002b0 50 e0 39 3e af 0b 51 3e bc e0 00 3c 86 69 e3 3c
       0.18151975 0.20414613 0.007866081 0.027760278
0002c0 a4 9c 17 bd 95 65 18 3e b8 51 08 3e 39 7c 45 3b
       -0.03701462 0.148825 0.13312423 0.0030133857
0002d0 e5 c7 ff 3d 8a c1 b6 3e fe 21 b2 be 36 3a 3c be
       0.12489299 0.35694534 -0.3479156 -0.1838158
0002e0 af 6e 84 3d 11 01 37 3d 2d af 16 be 6b 35 cc 3e
       0.06466424 0.04467875 -0.14715262 0.39884505
0002f0 b6 94 93 3e 76 28 2e 3e 6d 1c 29 be b8 d6 4b 3d
       0.28824395 0.17007622 -0.1651475 0.04976532
000300 7d 40 3b be 00 8c fd bb 23 b0 df 3d 3b e7 ab bd
       -0.18286319 -0.0077376366 0.10922267 -0.08393713
000310 d2 e5 11 be 63 a7 a0 be 2a 88 3b bd 27 e2 d5 3c
       -0.14247826 -0.31377706 -0.045784153 0.026108814
000320 34 4d a1 be 0a cf c8 3e 6b be 9c bd de 45 2d be
       -0.31504214 0.39220458 -0.07653507 -0.16921183
000330 cd 9e 8f be e9 9e c2 be 3e e5 d4 3e 05 bc 22 bd
       -0.28050843 -0.38011864 0.41581148 -0.03973009
000340 9f 90 d5 3e d3 bc 5c 3e 53 65 58 3d a5 b7 9e be
       0.417119 0.21556406 0.052831005 -0.30999485
000350 8c 93 8e 3e 66 55 c3 3a e9 24 66 be ff df bd be
       0.27846944 0.001490277 -0.22475018 -0.37084958
000360 00 7f 2d 3d 10 c0 39 be d4 f9 3d bd 81 12 20 3e
       0.042357445 -0.18139672 -0.046380833 0.15632059
000370 3e a7 d4 3d 61 c6 38 3e 6e 61 a9 be 4a 50 91 3e
       0.103834614 0.18044426 -0.33082145 0.28381568
000380 fc 6d 3f be 41 1b 89 3d 46 1d 62 3e 36 04 7e bc
       -0.186943 0.066946514 0.2208148 -0.015503934
000390 56 de b5 3d 27 02 83 be 82 d1 ac 3e 4a fc 7e 3e
       0.08880298 -0.2558758 0.33753592 0.24900928
0003a0 c2 6e 1e be 06 bb 90 3e 48 1b b1 3d 44 b5 44 be
       -0.15471938 0.28267688 0.086477816 -0.19209772
0003b0 b8 4f c6 bc a0 57 92 be d8 a7 0e 3e 4f 29 b3 bd
       -0.024207935 -0.28582478 0.13931215 -0.08748113
0003c0 36 51 28 be e1 18 4e be 8b b2 f3 3d 48 a3 a7 3d
       -0.1643723 -0.20126678 0.11899289 0.0818544
0003d0 de c5 17 be 27 59 ae be 12 c6 8f 3e 84 4e 39 3d
       -0.14821574 -0.34052393 0.28080803 0.045240894
0003e0 00 38 5f be 95 e8 3d 3e 66 04 88 3e ac 26 62 be
       -0.21798706 0.18545754 0.26565856 -0.22085065
0003f0 1e f1 ef 3d ba ff 83 bd e8 5e 92 bd d1 de ce bd
       0.11715911 -0.0644526 -0.07147008 -0.101010926

model.10.bias f4 [16]
000000 70 91 49 be 76 4e f8 3d 80 de a5 3d c3 54 68 3d
       -0.19684386 0.1212434 0.08099079 0.05672146
000010 94 10 36 3e 75 45 91 3b 19 be 57 3e 3d 05 a9 bc
       0.17779762 0.0044333288 0.2106861 -0.02063238
000020 36 97 f4 3d 00 79 94 bc 33 ea 6e be fb dc 29 be
       0.11942904 -0.018124104 -0.23331527 -0.16588204
000030 8a 3a a8 bd 91 19 a4 3d 70 c3 a2 3c c5 25 b3 bc
       -0.082142904 0.08012689 0.019868582 -0.021868596

model.12.weight f4 [16, 16]
000000 49 40 d3 bd cd f1 25 3e e6 d4 18 bd 7e 0b c1 3e
       -0.10314996 0.16205521 -0.03731241 0.3770408
000010 9e 30 4d be cf 73 89 be 31 d1 8e be 94 2a b8 3e
       -0.20038077 -0.26846167 -0.27893975 0.35969985
000020 64 dd c5 bd 19 44 b5 3e 5c 6e 32 3e 39 2d a5 3e
       -0.096613675 0.35403517 0.17424911 0.32261065
000030 4d ba 3d be 73 87 91 3d 97 e7 31 3c b0 b5 0f bc
       -0.185281 0.07105913 0.010858438 -0.008771345
000040 4c 49 b2 3e 7d 8f e8 3a e6 2c 29 3e fb 02 b8 3e
       0.34821546 0.0017742958 0.16521034 0.35939774
000050 32 c1 90 bb 3e 23 88 be eb 00 30 be a7 3e 52 3e
       -0.004417562 -0.26589388 -0.1718785 0.20531712
000060 09 ef 1b be 45 eb 58 3e 84 03 a7 3e 29 76 fd 3d
       -0.15227903 0.21183498 0.3261987 0.12376053
000070 10 de 25 bd 38 53 81 3e ee e8 7c be 12 9b 74 ba
       -0.04049498 0.25258803 -0.2469823 -0.00093309686
000080 e2 44 36 be 7f 1c b3 be 28 ce 6b be 00 ac 75 be
       -0.17799714 -0.34982678 -0.23027861 -0.23991394
000090 18 a1 76 3d b7 63 8a 3e 9d de d8 bd 32 d5 cb 3d
       0.060212225 0.270292 -0.10589335 0.09952773
0000a0 93 85 ae 3e f0 90 65 3c d3 4c 8c 3c 5a 90 65 be
       0.34086284 0.014011607 0.017126476 -0.22418347
0000b0 46 28 c7 3e 37 76 8e be bd a5 80 3d 8d 37 62 3e
       0.38897914 -0.27824566 0.06281612 0.22091503
0000c0 58 c8 89 be 7a 04 78 bd 3d 88 c7 be 53 b6 96 be
       -0.26910663 -0.060551144 -0.3897113 -0.29435977
0000d0 c7 89 59 3e 3e e0 b7 b9 e7 8a 19 3e 40 f3 62 be
       0.21243964 -0.00035071553 0.14994393 -0.22163105
0000e0 44 9a dd bc 5a 7e 9a 3c b0 fa a2 bd 3f 99 b8 be
       -0.027051099 0.018859077 -0.07957971 -0.36054417
0000f0 5a ff 73 bc 21 b4 94 3d d7 f2 73 3e 04 24 3c 3e
       -0.0148924235 0.07260919 0.23823105 0.18373114
000100 59 cb ba 3e 38 97 5a bd e1 4d c0 bd 8e 8c bc 3e
       0.36483267 -0.05336687 -0.09389854 0.36825985
000110 70 26 bf be 2a 63 c8 3d 52 5e 90 3c e0 eb 40 3e
       -0.37334013 0.09784539 0.0176231 0.18839979
000120 a2 eb e6 3a 44 cc d4 3e 29 2b 42 3e cc ae 1c 3e
       0.0017617831 0.41562092 0.18961777 0.15301055
000130 a2 ef 27 be 63 db 99 3e e1 e6 56 be 9b 16 97 be
       -0.16400006 0.3005019 -0.20986511 -0.29509434
000140 84 0a 6b be 6b 1b 97 be ae 40 99 be 0a f0 b9 3d
       -0.2295323 -0.29513106 -0.2993216 0.09078987
000150 e5 31 a8 3e 37 40 41 bd 1b 1e 47 3e 03 d4 3a be
       0.32850567 -0.04718038 0.19445078 -0.18244939
000160 12 40 32 3e 51 04 a8 3d d9 25 33 be b1 ae 81 be
       0.17407253 0.08203948 -0.17494906 -0.2532859
000170 eb 30 cb bd e1 4c ea bd aa 61 a2 3e 56 2c ad 3e
       -0.0992144 -0.11440445 0.31715137 0.33822888
000180 d9 08 5f bd 31 7a f6 bd bd 56 ba be 76 14 56 3d
       -0.054451797 -0.12035025 -0.363943 0.052265607
000190 27 2b af 3e 24 74 cd 3e da dd 65 bc 65 18 6e bd
       0.3421261 0.4012767 -0.014029944 -0.058128733
0001a0 d5 34 bc 3e 2a 3c 90 be 63 5f 2f bc bb 05 28 be
       0.36759058 -0.28170902 -0.010703894 -0.16408436
0001b0 2c 39 46 3c 61 b6 02 be a6 ec 5a bd 69 65 a9 3e
       0.012098592 -0.12764885 -0.05344834 0.33085182
0001c0 1d c0 3a be 0b 38 d3 be 85 66 5e be 0f 40 b8 be
       -0.18237348 -0.41253695 -0.21718796 -0.35986373
0001d0 cf 1b ee 3d 3d 64 29 3e a7 b2 e7 bc 86 8c a8 be
       0.11626398 0.16542144 -0.02828343 -0.3291971
0001e0 49 c4 b3 3d 70 7c 97 be b9 64 26 bd 63 83 96 bd
       0.08777673 -0.29587126 -0.0406234 -0.07349279
0001f0 91 ae 1c 3e a5 a6 49 3e f7 be 02 3e 5a 73 74 bd
       0.15300967 0.19692476 0.1276816 -0.05968032
000200 df 70 94 be d2 be c9 be 8e 47 60 be bd 0d 88 be
       -0.28992364 -0.39403397 -0.21902296 -0.2657298
000210 70 57 1a 3e c1 2c 77 3e 8a 77 43 3e 78 de 97 3c
       0.15072417 0.24138166 0.1908857 0.018538699
000220 c0 1d 94 bd 5c 90 48 be 71 0a 3f be 3d 91 6b 3d
       -0.07232237 -0.19586319 -0.18656327 0.057511557
000230 d5 54 9e 3e 7b f4 9f bd b6 42 1a be 69 33 77 3e
       0.30924097 -0.07810303 -0.1506451 0.24140705
000240 7c 19 a6 3d 02 4b a4 3e 97 14 c0 3e 8f 77 13 3e
       0.081103295 0.32088476 0.3751571 0.14401077
000250 9e d2 cd be b1 86 dd bd be 7c 0b 3d 5e 53 6f 3e
       -0.4019975 -0.10816706 0.03405451 0.23371646
000260 07 18 ce 3d 74 27 91 bc 47 f8 19 3c 4a 50 bc 3e
       0.100631766 -0.017719008 0.009397573 0.36780006
000270 60 ca 55 bd b4 52 51 3e 72 35 53 be 89 96 b6 bd
       -0.052194953 0.20441705 -0.20625857 -0.08915431
000280 b0 4e 84 be e6 95 3e be 2a 96 67 bd 22 48 8a be
       -0.25841284 -0.18611869 -0.056539692 -0.27008158
000290 33 14 57 3e 12 c3 17 3e 05 0d 98 3e e2 e5 b3 be
       0.21003799 0.14820507 0.29697433 -0.35136324
0002a0 be 00 9b bb 75 61 41 be 4a 15 30 be 89 d3 83 be
       -0.004730313 -0.18884833 -0.17195621 -0.25747326
0002b0 b6 b3 54 3e 58 82 43 3d 21 c2 bb bc c1 51 75 3d
       0.2077168 0.047731727 -0.022919716 0.05989242
0002c0 40 41 6c 3c 8a c0 ce 3e ad 8d 0f 3e df 68 0c 3e
       0.014419854 0.4038127 0.14018889 0.1371188
0002d0 e0 92 60 be c5 f5 e3 3d 85 d9 a6 be 53 bf c4 3e
       -0.21931028 0.11130861 -0.3258783 0.3842722
0002e0 b5 99 a9 be e4 e2 7b 3e 26 75 b1 3d 4a 1e c8 bd
       -0.33125082 0.2459827 0.086649224 -0.09771402
0002f0 bd 67 5f be 9a 25 0c be 74 6a ac be 31 7f a8 be
       -0.21816917 -0.13686219 -0.33674967 -0.3290954
000300 3c 0d 49 be 49 30 12 be 0f 56 ab be 00 83 82 3d
       -0.19633955 -0.14276232 -0.33464095 0.063726425
000310 62 f7 ff 3d ab f0 a3 3e 73 a7 7d 3e 2d 50 c5 b9
       0.124983564 0.32019553 0.24770908 -0.00037634504
000320 18 ce 0a bd 8f d5 9b 3d 4b 67 c3 bd 61 48 b5 be
       -0.033887953 0.076090924 -0.09541186 -0.35406783
000330 83 a2 97 3e 75 87 20 be 9b 0a 9e 3e 6e 54 87 3e
       0.29616174 -0.15676673 0.30867466 0.26431602
000340 37 e1 78 3d 77 d6 b2 be da d0 8e be e1 29 1a be
       0.060761657 -0.3492925 -0.27893716 -0.15055038
000350 a0 ee db 3e ac 12 cd 3b f9 5a cb 3e cc 9b 48 be
       0.42955494 0.0062583294 0.39717844 -0.19590682
000360 b8 d3 a2 3e d3 bb a9 bd 4c a5 4d be 2a 0e a3 bd
       0.31802154 -0.08287778 -0.20082587 -0.07961686
000370 10 b4 59 bd 4d c7 c1 bd cf 05 00 3e 78 1c 9d 3d
       -0.053150237 -0.09461842 0.12502216 0.076714456
000380 07 c1 c3 3d 60 c1 a9 3e 57 ac db 3d 84 6d e9 3c
       0.095583014 0.33155346 0.107262306 0.028494604
000390 3f f0 e6 be 12 31 29 3d 0d fc a1 be ee 96 ea 3d
       -0.45105168 0.041306563 -0.31637612 0.11454569
0003a0 5e c5 bd be 10 62 75 3e 84 b0 82 3c 3e d3 d1 3d
       -0.37064642 0.23963189 0.01595331 0.102453694
0003b0 48 ad a1 be d4 d0 5b bd 89 f1 be be ff 9d 84 be
       -0.31577516 -0.05366595 -0.37293652 -0.2590179
0003c0 b0 02 57 3e 77 cd ac 3d a7 6a 25 bc 18 c1 8c 3e
       0.20997119 0.08437627 -0.010096229 0.2749107
0003d0 d3 f5 7d bd 5f fd 56 be 56 53 09 be 02 f6 a4 bc
       -0.062002014 -0.20995091 -0.13410696 -0.020136837
0003e0 58 d0 89 bd 31 21 c1 3e 9c 98 48 3d 94 83 b7 3e
       -0.067291915 0.37720636 0.048973665 0.35842574
0003f0 4e b6 5a 3c 70 43 95 3e 04 52 47 be 19 2d c4 be
       0.013349129 0.29153013 -0.1946488 -0.38315657

model.12.bias f4 [16]
000000 24 dc 1d 3d 37 d8 a2 3d 35 32 3a 3e 32 1e e7 3d
       0.03854002 0.07951396 0.18183215 0.11285056
000010 5d 1c 36 bd 31 01 d1 3d 25 39 c8 3d e1 75 64 3d
       -0.044460643 0.10205305 0.097765245 0.05577648
000020 ad 76 6a 3e 6e 59 6a bd 85 0c 53 bd 75 c1 fa bd
       0.22896834 -0.057214193 -0.05152561 -0.1224393
000030 7f 0f 3a be 92 7a 8b 3e 2d ac e6 3c d6 de 39 be
       -0.18169974 0.2724195 0.028158272 -0.18151411

model.14.weight f4 [1, 16]
000000 1d 81 36 3e cd d1 a4 3e 47 fa 54 be 1e 45 34 be
       0.1782269 0.32191315 -0.20798598 -0.17604491
000010 cd e1 12 3e b5 4c 99 be 03 bb 39 be 78 bc b8 be
       0.14343949 -0.29941335 -0.18137746 -0.3608129
000020 a3 6b a1 be 61 78 88 3e ba 76 92 be dd 56 a1 3e
       -0.31527433 0.26654342 -0.28606206 0.31511584
000030 07 77 43 be 45 e0 3c be 62 51 65 3e 69 9b 3f 3e
       -0.19088374 -0.18444927 0.22394326 0.18711628
