NeuralGalerkin/models/autosave/Gen_2_Loss_0.40864563.pt (torch, 106439 bytes, 15 tensors)

model.0.weight f4 [20, 2]
000000 2e 19 7a be 99 a7 83 be 0a e0 42 3e a7 78 ed 3e
       -0.24423668 -0.25713804 0.19030777 0.46381113
000010 55 e3 89 3e 22 d4 07 3f b6 75 14 3f d8 be 98 3e
       0.26931253 0.53058064 0.5799211 0.29833102
000020 1d 19 37 3e c1 38 15 be e1 23 d4 3e 8b 49 1e bf
       0.17880674 -0.14572431 0.41433623 -0.6183097
000030 c9 2b 0f 3f 2c ab 00 bf 5c cd d9 bd 56 5d c0 be
       0.55926186 -0.5026119 -0.10634872 -0.3757121
000040 ff f1 bb 3e d4 df 96 be f7 ee 1a 3f 6a c1 d1 3e
       0.36708066 -0.29467642 0.6052088 0.40967876
000050 ed 89 0f bf 3c ef 21 bf 8a f4 98 be f9 ea 2e 3f
       -0.56069833 -0.6325567 -0.29874068 0.6832729
000060 63 64 e3 be 3b a2 05 bf 2e 38 16 3d 0c 83 9f 3e
       -0.44412526 -0.5220067 0.03667467 0.31154668
000070 fd dd 15 be d0 37 1e be 79 96 34 bf ea ec 82 3b
       -0.14635463 -0.15450978 -0.70542103 0.0039955275
000080 14 5f 10 3e f2 61 24 3f 1f 9f 24 3d 5b 65 80 3e
       0.1409877 0.6421195 0.040190812 0.25077328
000090 ad 7e dc be 12 0b 44 3d 22 16 58 3e 19 5b 67 be
       -0.43065396 0.04786212 0.21102193 -0.22593345

model.0.bias f4 [20]
000000 ea 3a be 3d a4 18 4e be 59 97 97 3e fa 3a 1f bd
       0.09288581 -0.20126587 0.29607657 -0.038874604
000010 b6 3e ba bc f1 44 61 be 3d 40 f0 bd ba 68 ea bb
       -0.022734981 -0.21998955 -0.117310025 -0.0071535977
000020 19 c4 f2 3e ce a7 18 bf 38 71 29 be de d8 89 be
       0.47415236 -0.5963105 -0.16547096 -0.2692327
000030 b2 ea 99 bc f7 20 e0 3e 17 f4 20 3f 95 58 91 3e
       -0.01878867 0.4377515 0.6287245 0.28387895
000040 40 dd cb 3d 2d 39 8a 3e af 62 4a be 8f 48 2c be
       0.099543095 0.26996747 -0.19764207 -0.16824554

model.2.weight f4 [20, 20]
000000 c0 08 1f bc b2 44 38 3e 24 30 11 be da 5f cf 3d
       -0.009706676 0.17994955 -0.1417852 0.10125704
000010 14 78 93 3d d9 4a fd 3d ef 4d 39 be d2 d5 02 be
       0.072006375 0.12367792 -0.18096136 -0.12776878
000020 7a 3a 56 3e 52 9a df bd 3e 8b db bd 73 38 a4 3d
       0.20920745 -0.10918106 -0.10719918 0.08018579
000030 02 47 61 3e f0 23 2f 3e 99 89 72 bd c2 e0 ca bd
       0.21999744 0.17103553 -0.059213255 -0.099061504
000040 dd 09 fd bc bb ce b7 3d ad 33 58 bd 0b 0c 68 bc
       -0.030888492 0.089749776 -0.052783657 -0.0141630275
000050 f5 77 1c 3d 7e 4e 56 be 43 0c fd 3d 90 a9 91 bd
       0.038200337 -0.2092838 0.12355854 -0.071124196
000060 94 87 eb 3d c2 d6 56 be 0d 20 3b be 5a c6 2d 3e
       0.11500469 -0.20980361 -0.18273945 0.16970196
000070 de dd 00 be 6c 77 cf bd 9c 01 01 3e 00 be 55 3e
       -0.12584636 -0.101302 0.1259827 0.2087326
000080 10 4c 3d 3e b0 ea de 3d f9 24 90 3c 36 e3 81 3d
       0.18486047 0.10884607 0.017595755 0.06342165
000090 9a 1f 51 3e 20 93 9c 3d 17 c2 97 bd 5f 8c 8d 3d
       0.20422211 0.07645249 -0.074100666 0.06911539
0000a0 0b c4 47 3e f3 e4 a8 3d e5 22 d3 bd 84 76 1c 3d
       0.19508378 0.082467936 -0.1030939 0.038198963
0000b0 8d 8e 79 3d 13 b3 d5 3d b5 57 44 3e 53 d2 41 3e
       0.060926963 0.10434546 0.19174083 0.18927889
0000c0 77 ad 84 bd 4d 0a 44 3e aa aa 37 3e 3b 74 4a be
       -0.06478398 0.19144554 0.17936197 -0.19770901
0000d0 51 c7 c8 bd 23 e7 4c 3e 4c 41 7a 3d e0 b1 14 be
       -0.098036416 0.20010047 0.06109743 -0.14520979
0000e0 03 f8 5c be 24 74 3a 3e e4 38 5b bd 86 4b f7 bd
       -0.21578984 0.18208367 -0.053521052 -0.12074952
0000f0 74 0d 39 3e 5d d0 31 3e fc 38 2e be 75 60 e0 bd
       0.18071538 0.1736464 -0.17013925 -0.10955898
000100 e7 18 45 3e a1 00 0e be 3c e3 e0 3d c0 5b 34 3e
       0.1924778 -0.13867427 0.109808415 0.17613125
000110 ea 0f d5 3d 14 df 55 3e ac ec 11 be a8 8b 1d be
       0.10403426 0.20885879 -0.1425044 -0.15385306
000120 d3 44 de bd 08 ac 8a bc a1 30 55 bd cd 83 37 be
       -0.10852971 -0.016927734 -0.05204833 -0.17921372
000130 c3 17 1f be c9 7b 22 3e 6c 41 46 be 9c b7 fd 3c
       -0.15536408 0.15867533 -0.19360894 0.03097134
000140 a1 2e 5b 3e 68 ea 26 3e 66 3c 1a 3e 33 c8 ec bd
       0.21404506 0.16300356 0.15062103 -0.115616225
000150 50 0a bc 3c e8 ff 3e bd 4d 99 b1 bd d9 d0 85 3d
       0.022954136 -0.04663077 -0.08671818 0.06533975
000160 4b cc 87 bd 71 8e cd 3d ae d2 3c 3e 96 80 05 3e
       -0.06630763 0.10036934 0.18439743 0.13037333
000170 43 48 22 3e ec 96 50 3e a6 84 6f 3d 45 f9 2e 3e
       0.15847878 0.20370072 0.058476113 0.17087276
000180 54 44 c3 3d d3 ab 19 3c 40 4e e4 bd df 6a 5d 3e
       0.09534517 0.009379345 -0.111477375 0.216228
000190 69 50 5b bd 66 21 93 bb 37 e6 43 bd e7 1f 62 3c
       -0.053543482 -0.0044900654 -0.04782697 0.013801551
0001a0 5b f6 c6 bd 5b 9a 8c 3d 75 6a 66 be 14 56 ee 3c
       -0.09714957 0.068653785 -0.22501548 0.02909378
0001b0 b9 8a 04 be 7b e2 dc bd cb c0 73 bc 78 7c d2 bd
       -0.12943543 -0.10785385 -0.014877508 -0.10277647
0001c0 d4 37 56 bd 1d 9f 4f be 93 19 ec 3d 42 f7 ca bd
       -0.052299336 -0.2027554 0.115283154 -0.09910442
0001d0 4d 3d ca 3d 57 5e a2 bd a9 50 08 be 88 a9 a6 bd
       0.098749734 -0.0792815 -0.1331202 -0.08137804
0001e0 27 b3 f1 bd 59 f0 84 bd 54 b1 dc 3d f1 75 67 bd
       -0.11801749 -0.06491155 0.1077601 -0.056508962
0001f0 6f 55 01 3d fb 4b 53 bd 71 a1 1b 3e 58 c2 82 bd
       0.031575616 -0.051586132 0.15198304 -0.063847244
000200 46 30 0e bd f3 7f 8e bd b2 ba 56 bd 53 d0 28 3e
       -0.034714006 -0.06957998 -0.05242414 0.1648572
000210 90 59 94 bd 39 35 2a be 73 3f 02 be 94 73 29 3e
       -0.07243645 -0.16621865 -0.12719516 0.16547996
000220 09 40 55 3e 8c 79 d5 bd 83 0c 1e 3e 86 34 ea bd
       0.20825209 -0.10423574 0.1543446 -0.11435799
000230 e3 c6 35 3e b6 fd 49 be bb d3 63 3e 3a e4 f1 3d
       0.1775165 -0.1972569 0.22248738 0.11811109
000240 d1 81 10 3e f6 15 60 3e 22 46 cc bd ac 40 53 be
       0.14112021 0.21883377 -0.09974314 -0.20630139
000250 f0 9a 39 3d 33 d4 2f be ca 41 40 3e 1e 2e 11 3e
       0.045313776 -0.17170791 0.18775097 0.14177749
000260 33 c5 38 3e ce 9b 1b bd bb fc 23 bd 25 ee 1d 3d
       0.18043976 -0.037990384 -0.040035944 0.03855719
000270 13 25 18 be f0 39 3e be 49 10 01 3e 6c 18 b4 3c
       -0.14857893 -0.18576789 0.12603869 0.021984302
000280 41 d1 fd bc 38 db 50 be c1 46 98 3c c6 2a 3b be
       -0.03098357 -0.20396125 0.018588426 -0.18278036
000290 bb 2f bb 3d 5f 49 1d 3b 02 15 85 bc 1c a9 97 bd
       0.09139963 0.0024000031 -0.016245369 -0.07405302
0002a0 55 85 cd bd 8a 61 d6 bd d3 b9 20 3d ce 10 e8 bd
       -0.10035197 -0.10467823 0.039239716 -0.1133133
0002b0 af 06 3b be 78 19 af 3d 30 a0 9b bd d1 1d 10 be
       -0.18264268 0.0854978 -0.07598913 -0.14073874
0002c0 62 ab 2f be 07 6b e2 3d 98 c0 e8 3c 5d a3 04 3d
       -0.17155221 0.1105557 0.028412148 0.032382358
0002d0 1b 77 e7 bd 6d 30 45 3e 2f ee 98 3c 52 33 28 3e
       -0.113020144 0.19256754 0.018668262 0.16425827
0002e0 23 07 47 be ab 17 47 3e d9 05 4c 3d e6 77 b4 3d
       -0.19436316 0.19442622 0.049810264 0.08811931
0002f0 24 f0 66 be f3 26 87 3b 3d ab 08 be 2f 56 0b bd
       -0.22552544 0.004124516 -0.13346572 -0.034017738
000300 5b a7 05 3e cc 32 f9 bb 4e 44 11 3e 63 9d 4e be
       0.13052122 -0.0076049324 0.14186212 -0.20177226
000310 6d 52 aa bd 19 72 4f be 45 ba 2d 3d 5d 59 19 be
       -0.08316503 -0.20258369 0.04241397 -0.14975496
000320 d5 cb 46 3e c9 7d 46 3e b8 0f 09 3e fe d1 10 3e
       0.19413693 0.1938392 0.13384902 0.14142606
000330 20 7d 0a 3e 84 e2 52 3e 75 9d 57 3e 3c 2d bd bd
       0.13524294 0.20594221 0.21056159 -0.092371434
000340 ea fd 81 bd 3b 82 2f 3e 16 32 04 3e 4b c5 fd 3d
       -0.063472584 0.17139523 0.12909731 0.12391146
000350 21 4c 0d 3e 67 3b 5e 3e 4c 8d 60 3e d6 f9 59 be
       0.13798572 0.21702348 0.219289 -0.21286711
000360 a6 85 30 be 5b 20 9e bd 07 a6 69 bd 4a 05 11 3e
       -0.17238483 -0.07721015 -0.0570431 0.14162174
000370 61 90 8f bd f8 d9 4a be 8a 62 d5 3b 4a 9a 4c be
       -0.0700996 -0.19809711 0.006511991 -0.19980732
000380 36 dc ed 3d 77 0d 9b bd 50 c4 1e be a3 ae 57 be
       0.116142675 -0.075709276 -0.15504575 -0.21062712
000390 24 70 5f be 90 60 e3 bc ee b8 21 bd 66 c3 72 bd
       -0.21820122 -0.027756006 -0.039483003 -0.059268378
0003a0 98 fe 4e 3e 5b 8e 17 3e b0 43 8f 3c 85 d9 45 be
       0.20214307 0.14800398 0.01748833 -0.19321258
0003b0 2e 39 ce 3d 68 86 0a 3e 28 9c 14 be 30 84 3f 3c
       0.100695 0.13527834 -0.14512694 0.011689231
0003c0 b8 1c ce 3d 2a 7b 0c 3d 7e 90 a8 bd a0 a7 50 3d
       0.100640714 0.034297146 -0.08230685 0.05094111
0003d0 f9 9d 50 3e 95 69 d9 3d dc eb ea bd 97 f7 0b be
       0.20372762 0.10615841 -0.11470768 -0.13668667
0003e0 15 dd 40 be ed ff ec bd ee c5 03 bd 2d dd 02 3e
       -0.18834336 -0.115722515 -0.032171182 0.12779684
0003f0 81 c9 ab 3c 72 1d 9a bd b6 3a 0c be 67 d0 49 be
       0.020970108 -0.075251475 -0.13694271 -0.19708405

model.2.bias f4 [20]
000000 fe eb 19 3e bc 9e 1e 3e b4 8a 59 be cf f4 29 be
       0.1503143 0.1549024 -0.21244317 -0.16597293
000010 78 27 91 3c 5e 2f 61 3e ca 5c 89 bc e7 5d 2c bd
       0.017719015 0.21990725 -0.016767878 -0.04208174
000020 52 4c b2 3d c5 0b 00 be ba 5f 3a 3e 23 ff 09 bd
       0.08705963 -0.1250449 0.1820058 -0.033690583
000030 98 15 1e be 11 d4 40 3e e2 75 31 3e f9 5a 1b bd
       -0.15437925 0.18830897 0.17330125 -0.037928555
000040 25 3b b2 3d 9e d5 30 bd 3e ef f0 bd 86 f1 2f 3e
       0.08702687 -0.04317247 -0.11764382 0.17181978

model.4.weight f4 [20, 20]
000000 90 13 35 bd 52 9c d1 3d b8 85 40 be 7e 8c 30 3d
       -0.04420811 0.10234894 -0.1880101 0.043102734
000010 f0 87 69 3d 6a 99 28 be 95 f9 14 be 20 32 2b bb
       0.057014406 -0.16464773 -0.14548333 -0.0026122406
000020 bf d3 a9 bd fb 08 52 3e 39 72 e1 3d ff f9 ab bd
       -0.082923405 0.20511238 0.11008114 -0.08397292
000030 1d f8 60 3e 27 5f c9 bd 7b ca 51 be 3a d7 a7 bd
       0.21969648 -0.09832602 -0.20487396 -0.08195348
000040 bb 23 ef bd b3 0d ca 3d 82 4c ac 3d 12 81 19 be
       -0.11676737 0.09865894 0.0841303 -0.14990643
000050 a3 a4 0a be 13 ad 3e 3e cf 6c 7a bd 59 53 dd bd
       -0.13539366 0.1862071 -0.061138924 -0.10806913
000060 df e2 25 3e 40 d4 4c 3e ac f5 8e 3b ba 39 a9 bd
       0.16199826 0.20002842 0.0043627825 -0.082629636
000070 16 61 34 3e 85 f3 1e 3e ee f6 38 bd bf 2c 68 bc
       0.1761516 0.15522583 -0.045157366 -0.014170825
000080 52 79 d6 3d d8 c7 65 bd 56 d8 41 be 5c d3 a9 3d
       0.10472359 -0.05609879 -0.18930182 0.08292267
000090 ac 7a 96 bd a8 17 36 be 53 5f cc bc db db 3c 3e
       -0.073476166 -0.17782462 -0.024947798 0.18443243
0000a0 60 66 f5 3b 61 9e 71 3d 99 16 45 be 7f 6b 4a 3e
       0.0074890107 0.058988933 -0.19246902 0.19767569
0000b0 30 27 5f 3e 67 fd 0c be 36 26 31 3e 2b 68 c9 3c
       0.21792293 -0.1376854 0.17299733 0.024585804
0000c0 13 c3 40 bd 84 39 51 3e 39 eb f7 3a ed 89 0d be
       -0.047061037 0.20432097 0.0018914706 -0.13822146
0000d0 20 d6 9c bd 11 b5 0f 3c c3 fb 53 be 29 9c 4e 3e
       -0.076580286 0.008771197 -0.20701508 0.20176758
0000e0 08 fd eb 3d 61 64 c0 3d f1 05 17 be f4 98 5e be
       0.11522871 0.09394146 -0.1474836 -0.21738034
0000f0 8b 7c 59 3e 09 18 de bc 9a dc f5 3d 51 1b 37 3d
       0.21238916 -0.02711107 0.12004967 0.044703785
000100 2a 32 41 be a7 6b 16 be cc 74 9f 3d 97 ca d0 3d
       -0.18866792 -0.14689504 0.07785949 0.10194891
000110 31 fb 3b be 85 8d 5b 3e 23 be 4b bd b2 5f 33 3d
       -0.1835754 0.21440704 -0.049741875 0.043792434
000120 c9 f3 e7 bd 80 4c 08 3e 68 52 1c be f1 5f 4d be
       -0.11325795 0.13310432 -0.1526581 -0.2005613
000130 df 7f bb 3c b4 fd d6 3d 09 c2 a2 3d 32 78 cb bd
       0.022888122 0.10497609 0.079471655 -0.09935035
000140 0c 57 c1 bd 9f 81 30 bd bc b1 4d 3d 08 e1 ec bd
       -0.09440431 -0.043092366 0.05021833 -0.11566359
000150 b6 5d 05 be ea a9 13 be 7c 47 8b 3d bc f1 47 bd
       -0.13024029 -0.14420286 0.06800744 -0.04881452
000160 22 47 12 be 86 10 05 3e 62 24 55 be ba 5c 35 3e
       -0.14284948 0.12994584 -0.2081466 0.17711154
000170 ca d8 0d 3e 7c a1 4b bd b5 53 8b bd 63 ce 54 3e
       0.1385223 -0.04971455 -0.06803075 0.20781855
000180 1a 22 35 3e b4 cd 1b 3d af 5c 3f be 9a 6a dc 3d
       0.1768879 0.03803797 -0.186877 0.1076252
000190 dc 56 83 3d d0 65 48 3e 27 26 a2 bd 66 c8 45 be
       0.064130515 0.19570088 -0.07917433 -0.19314727
0001a0 fe 6d 9a 3c 9c 06 be bd 44 2f 4b 3e 2e dc 46 3e
       0.018851276 -0.092786044 0.19842249 0.1941993
0001b0 62 bc 2d 3d eb d1 23 be 39 42 f7 bd 2d aa 24 be
       0.042415984 -0.15998046 -0.12073178 -0.16080542
0001c0 04 67 cf 3d 73 ef 60 be 13 9e 5a be 66 42 a9 3d
       0.101270705 -0.21966343 -0.21349363 0.082646176
0001d0 e2 c5 5a 3c d8 92 0a be ee 81 60 3c 86 83 65 bd
       0.013352843 -0.13532579 0.013702853 -0.056033634
0001e0 93 eb 28 be 7c 05 a2 3d b9 06 1c 3e 9f 2d 4b 3e
       -0.16496114 0.07911202 0.1523694 0.19841622
0001f0 5e 70 5f bd c1 2c 8b 3a a8 e6 4f be b3 06 fd 3c
       -0.05455052 0.0010618196 -0.20302832 0.030886983
000200 5c 6a f9 3d 46 4d 1e 3e e7 c8 a6 3d e2 4c 25 be
       0.121784896 0.15459165 0.08143788 -0.1614261
000210 24 a3 bd 3d 19 14 18 3e 1a 86 41 3e 01 54 93 bd
       0.09259632 0.14851417 0.18898812 -0.07193757
000220 ee 32 44 bd f8 1d 46 be bd 20 8c bd 7a b4 a4 3d
       -0.047900133 -0.1934737 -0.06842182 0.08042236
000230 83 a1 43 3e 87 68 65 be 15 7a b3 3d 91 43 ee 3d
       0.1910458 -0.22403155 0.0876352 0.11633981
000240 fa 37 38 bd 91 fb 72 3d 42 42 3c 3e d2 d6 fc ba
       -0.04497526 0.059321944 0.1838465 -0.0019290096
000250 2f e1 20 be 04 c8 12 3e 4f 3f f0 bb bd bc 45 be
       -0.157109 0.14334112 -0.0073317657 -0.19310279
000260 3c 97 4c be 99 16 e4 bd bf ec e9 bd 33 f6 88 bd
       -0.19979566 -0.11137123 -0.11422109 -0.06687584
000270 c0 8b 1f 3e b1 19 4f be e2 03 82 3d 40 f4 92 3c
       0.15580654 -0.20224644 0.06348397 0.017938733
000280 84 2a 0b 3e 61 39 25 be e0 b7 9a bd 3c fe f3 bc
       0.13590437 -0.1613517 -0.075546026 -0.029784314
000290 67 4c 50 be ff 63 16 3e 23 48 c7 3d ea ee ad 3d
       -0.20341645 0.14686583 0.09730556 0.08492835
0002a0 b4 a3 51 3e 91 34 23 bd 61 b7 9d bd dc 78 d9 3d
       0.20472604 -0.039845053 -0.077009924 0.10618755
0002b0 dc d0 8c bd 20 d5 42 be b6 97 48 bd d8 5c fe bd
       -0.06875774 -0.19026613 -0.048972808 -0.12420052
0002c0 98 92 7c bd 54 0f 5d 3e 7d ac 47 3e 11 1f 43 3c
       -0.06166324 0.21587878 0.19499393 0.011909262
0002d0 cd 70 2e be fc b0 a5 bd 1b 97 c0 bd c7 e8 41 bd
       -0.17035218 -0.08090398 -0.09403821 -0.047341134
0002e0 33 bf 2f be 39 ff 91 bd 12 39 39 be c8 f8 bd bd
       -0.1716278 -0.07128758 -0.18088177 -0.09275967
0002f0 d4 8c 27 bd 97 23 34 bd 81 b1 54 bd 48 29 13 bc
       -0.04090579 -0.043979254 -0.051927093 -0.00898201
000300 86 da 30 3e b4 3d 70 3c cc a4 19 3e 97 bf b4 bd
       0.1727086 0.014663149 0.15004271 -0.08825605
000310 a6 02 02 3d a4 8a 2e 3d 2c a4 6f bd f7 b2 04 3e
       0.031740807 0.042612687 -0.058506176 0.12958895
000320 3c 3b e7 bd bb b5 bf 3c da 8a 26 3e 51 8a e2 3d
       -0.11290595 0.023402086 0.16263905 0.11061538
000330 a0 d8 00 3e e2 ee bf 3d 64 dd 32 be fa 9b 3b bd
       0.12582636 0.09371735 -0.17467266 -0.045803048
000340 65 dc 4f be a2 31 5b be 3a da 35 bd 98 9f 55 3e
       -0.20298918 -0.21405652 -0.04439757 0.20861661
000350 53 6c fb 3d 07 64 0c be 56 1d 2b be 5d 2d e0 3d
       0.122765206 -0.13710032 -0.1671041 0.10946152
000360 d0 4b b6 bd 6e 5c 2b 3e 0d 03 87 bd f3 54 d1 bd
       -0.08901179 0.16734478 -0.06592379 -0.10221281
000370 c9 1b 12 3e 1d 85 57 3e ab da 3f bd 3d 09 82 bd
       0.14268412 0.21046872 -0.046839397 -0.06349418
000380 49 35 3c 3d 13 2b a6 3d 59 79 f3 3c 3e 2e 8a bd
       0.045949254 0.081136845 0.029720949 -0.06747101
000390 a9 d5 55 bd a6 1a 28 3e d4 6d 20 be fc b9 3c 3e
       -0.052205715 0.16416416 -0.15666896 0.18430322
0003a0 4d b2 25 3c 05 8c b5 3c 33 1e 3d bd de 38 da 3d
       0.010113311 0.022161493 -0.04617138 0.10655378
0003b0 2a 35 be 3d bc 02 4a be 92 d4 3d 3c 51 e0 55 3d
       0.09287484 -0.19727606 0.011586325 0.052215878
0003c0 c2 0d 26 be 43 73 81 3c ac 49 f7 bd c9 21 12 be
       -0.16216186 0.015802031 -0.12074599 -0.142707
0003d0 14 a8 af 3d 86 30 4a 3e 88 b1 54 3e ed 1b 29 3d
       0.0857698 0.19745073 0.20770848 0.041286398
0003e0 e5 60 d7 bd 6b 65 65 3e c2 da 5a 3e 30 82 25 3d
       -0.10516528 0.22401969 0.21372512 0.04040736
0003f0 ad 91 c4 3d 3a a0 05 be 68 a5 3c 3e a9 6f fe 3c
       0.09598098 -0.13049403 0.18422472 0.031059103

model.4.bias f4 [20]
000000 2b 6a 27 be ea 86 9b bd db 46 21 be 56 73 84 bc
       -0.16349094 -0.07594092 -0.15749685 -0.016168278
000010 af bf 30 3e 99 4d 8c bc 84 03 fe 3d f1 c4 1b 3e
       0.17260621 -0.017126845 0.12403014 0.15211846
000020 3b f4 0f 3e 58 da 8b bd 81 79 84 3d be cc 21 be
       0.1405801 -0.06828755 0.064684875 -0.15800759
000030 fa 31 bf bd 07 0e 8d 3d 43 04 21 be 51 b0 03 be
       -0.09335704 0.06887441 -0.15724282 -0.12860228
000040 0f 74 24 3e 29 c5 01 be 9a a0 08 be b9 f4 32 bc
       0.16059898 -0.12672867 -0.13342515 -0.010922604

model.6.weight f4 [20, 20]
000000 fd 3e 4f 3e 56 01 c7 3d a5 f3 38 bd 0e 6e 0e be
       0.20238872 0.09717052 -0.045154233 -0.1390917
000010 80 d2 47 be 80 fb 0e be ef 21 17 be f5 91 4e 3e
       -0.19513893 -0.13963127 -0.14759038 0.20172866
000020 69 0c c4 bd 20 7d 17 be 1f 71 37 bd 99 e8 13 3e
       -0.095726795 -0.14793825 -0.044785615 0.14444198
000030 10 d7 e6 bd 96 e6 1e be d3 1e 19 be c1 76 87 bd
       -0.11271489 -0.15517649 -0.14953165 -0.066144474
000040 30 c7 18 3e 5f 84 c4 bb e8 59 8c 3d 64 8c 69 be
       0.14919734 -0.005997225 0.06853086 -0.22807461
000050 81 cf ec 3d 14 d0 a8 3d ab b4 04 3d 9c b9 b2 bd
       0.11563016 0.08242813 0.03239886 -0.087268084
000060 18 70 c8 bd 67 a2 27 be f0 05 8e bd 63 0d c2 3c
       -0.09787005 -0.16370545 -0.06934726 0.023688024
000070 07 49 a8 3d 26 5e 54 3e a5 b5 0d be 9e 16 c7 3d
       0.08217054 0.2073904 -0.13838823 0.09721111
000080 93 02 e5 3d 7a 6f fc bd ab e0 4a be b6 e3 12 be
       0.111821316 -0.1232595 -0.19812267 -0.14344677
000090 f2 15 37 3e 22 d7 50 3e 9d f2 b3 3d f6 70 bd bd
       0.17879465 0.20394567 0.08786509 -0.09250061
0000a0 c8 d3 fe 3b 13 97 3b 3e 8c 13 4a 3d 80 74 69 be
       0.007776711 0.18319349 0.049335048 -0.22798347
0000b0 67 d6 29 3d 6e 6b a3 3d 2f e0 47 3e 6c 64 57 3e
       0.041464236 0.07979475 0.19519113 0.21034402
0000c0 43 80 7a bd 96 13 af bd 4a df 1b be bd a0 ca 3d
       -0.061157476 -0.085486576 -0.15221897 0.0989394
0000d0 54 86 e3 bd bb ae fd bb 5b 35 ec bd 8a fa ec 3d
       -0.111096054 -0.0077417768 -0.11533614 0.11571224
0000e0 42 b4 56 be 5b f4 15 3e eb 34 41 be 1c 4b 03 bd
       -0.209672 0.14643995 -0.18867843 -0.03205405
0000f0 09 de 09 be f9 b3 18 be 87 f5 6e 3d 0b ea 43 3e
       -0.13463606 -0.14912404 0.058339622 0.19132249
000100 99 f1 08 be 8a 86 31 3e 04 b3 e8 3d c3 d9 a8 bd
       -0.13373412 0.17336479 0.113622695 -0.0824466
000110 81 95 3c 3c 9e 5b 43 3e ea b4 50 3e 07 74 a6 3d
       0.011510254 0.19077918 0.20381513 0.08127599
000120 81 ee 22 3d 10 7a 00 3e cf a8 11 3e 1f 56 92 bd
       0.039778236 0.12546563 0.14224552 -0.071453325
000130 78 9f 21 3e 00 37 5f bd dc 90 29 3c 0d 91 1c bd
       0.15783489 -0.05449581 0.010349479 -0.03822427
000140 f2 4b c6 3a 7e 67 cf bd 44 8a 2e be e7 e5 d7 bd
       0.0015128835 -0.101271614 -0.17044932 -0.10541897
000150 93 f1 ba bd ae da 5f 3e 61 98 1b 3c b0 7d 08 be
       -0.09128108 0.21860763 0.009496779 -0.13329196
000160 e3 bc 03 be 47 fb f4 3c f2 b7 3f be 81 da 41 3e
       -0.12865023 0.029904975 -0.18722513 0.18931009
000170 e9 4c 93 3d be 2d ef 3d 38 ae 47 be 39 07 5c 3e
       0.07192404 0.116786465 -0.19500053 0.2148713
000180 d3 fd 13 3c 0e 61 63 be 64 10 d0 bd c3 8a 60 3e
       0.009032684 -0.22204992 -0.10159376 0.21927933
000190 7a 47 09 be 5f 9d 1a bd 36 94 d4 3d 52 2f 16 bd
       -0.13406172 -0.037747737 0.103798315 -0.036666222
0001a0 4d 5a 2d be 50 84 aa 3d 3b e2 c6 3d dc 99 be 3c
       -0.16928978 0.08326018 0.09711119 0.023266725
0001b0 5a fe 52 3e 4e e8 b2 3d 54 eb c1 bd 1e 55 4a be
       0.2060484 0.08735715 -0.094687134 -0.19759032
0001c0 59 70 25 3e 14 3f 46 be 7b 87 43 be 5b 7d 05 3e
       0.16156138 -0.1936 -0.1909465 0.130361
0001d0 56 f2 10 bd 38 d1 c0 3d 85 b4 0c 3d fc 72 7b 3d
       -0.03538736 0.09414905 0.034351844 0.061388955
0001e0 cc 5c 28 be 39 d3 60 3e 82 9b 53 3e df fa 35 3e
       -0.16441649 0.21955575 0.2066479 0.17771481
0001f0 d0 ac 30 be 98 c1 d5 3c 70 84 0c be 62 75 59 3e
       -0.17253423 0.02609329 -0.13722396 0.21236184
000200 7f 23 0f 3d 27 dc bb 3c a2 65 52 be fb d9 16 be
       0.03494596 0.022932125 -0.20546582 -0.1473159
000210 f4 5e 90 3d 37 8c cb bd 6d c6 5a 3e 5a 92 de bd
       0.07049361 -0.09938853 0.21364756 -0.10867758
000220 7c 96 18 3c b1 60 18 be 01 95 46 be 95 f9 c2 bd
       0.009313222 -0.14880635 -0.19392778 -0.0952026
000230 99 f2 f9 3d 44 28 15 be dd ff a3 bb 77 ed 8e 3c
       0.12204475 -0.14566141 -0.0050048665 0.017447216
000240 9b 94 28 be d3 9d ec 3d bd 59 58 be 08 85 8a 3d
       -0.16462938 0.1155354 -0.21127982 0.06763655
000250 72 ba 56 be 44 b0 45 be 8f f9 ed bd 76 c4 2e be
       -0.2096956 -0.19305521 -0.11619865 -0.17067131
000260 b8 3e e3 bd 25 fe 32 bd fc 30 98 bd b1 fb 58 3b
       -0.11095947 -0.043699402 -0.07431218 0.0033109004
000270 4e 87 54 be 73 f2 d3 bc 5f bf a0 3d d1 15 1e 3e
       -0.2075474 -0.025872445 0.07849001 0.1543801
000280 ea ad fa bd 07 5b 6f bc 7b eb 27 3d 13 68 d0 38
       -0.12240203 -0.014609105 0.040996056 9.937598e-05
000290 18 e2 9d 3d 29 b7 68 3b ae 78 58 be 5a 08 3a 3d
       0.077091396 0.0035509563 -0.21139786 0.04541812
0002a0 e0 92 93 3d 37 e4 81 3d c5 70 8b 3d c0 95 d3 bd
       0.072057486 0.06342357 0.068086185 -0.10331297
0002b0 61 31 6a 3a f1 12 38 3e e1 f1 26 3e 26 5e 68 be
       0.00089337496 0.17975976 0.16303207 -0.22692165
0002c0 88 25 0b 3e 1b b9 a8 bb 9e c5 a4 bd eb 83 97 3d
       0.13588536 -0.0051490194 -0.08045505 0.07398208
0002d0 26 4e d6 3d 6b ef 67 3e 60 c4 a6 bd ab 29 26 bd
       0.104641244 0.22649924 -0.08142924 -0.04056708
0002e0 a1 d0 e7 bc 4f 8b 96 3d 27 7c 3e bb fb 1f 02 be
       -0.028297724 0.0735079 -0.00290657 -0.12707512
0002f0 3b 6c 0a 3e 72 ad c1 bb f7 0d 52 3e dd 02 6a bd
       0.13517849 -0.005910569 0.2051314 -0.057131637
000300 e5 56 9f bd 59 f6 08 3e f6 7c 08 3e c9 20 ee 3d
       -0.07780246 0.13375224 0.13328919 0.11627347
000310 c9 d5 ab 3d cc 02 b3 3d 1a 43 a0 3d b9 6e 47 be
       0.08390386 0.08740768 0.078252986 -0.19475831
000320 f6 1b c1 3d 93 54 94 3d 14 23 2d be 4c 42 25 3e
       0.09429161 0.07242694 -0.16907912 0.16138572
000330 94 32 73 3d 50 ea 41 be 67 08 1e be 26 c1 3c 3d
       0.059374407 -0.1893704 -0.15432893 0.04608264
000340 3e 1a db bb 90 ce 39 3e 50 75 56 bb 98 09 f2 3d
       -0.006686478 0.18145204 -0.0032723732 0.11818236
000350 b2 1c 57 3e 16 04 37 be 61 6b 6a bd e1 03 9a 3d
       0.2100704 -0.17872652 -0.05723131 0.07520271
000360 42 3f 9f bd 9f 29 1a be a7 b1 53 bd 65 19 35 3e
       -0.07775737 -0.1505494 -0.051683094 0.17685468
000370 cf c8 0e 3d 7b 0c 02 bc 74 7f 6f 3c 22 ae 60 bc
       0.034859475 -0.007937546 0.01461779 -0.0137133915
000380 c0 38 39 be bf 9e 46 3e 38 ad 1d 3e 2f 1d 86 3d
       -0.18088055 0.19396494 0.15398109 0.06548535
000390 67 b5 00 3e b3 4b 40 3e cd e0 17 3e cd 0d 4b 3e
       0.125692 0.18778877 0.14831848 0.19829483
0003a0 07 0f 8b 3d fb 3d 0b 3d 21 ec 39 be 24 3b e0 3d
       0.067899756 0.033994656 -0.18156482 0.1094878
0003b0 4d da ce bb 9a 8d e5 3d 82 42 25 3d 55 b4 db bd
       -0.0063126446 0.11208649 0.04034663 -0.10727755
0003c0 5e d1 5b 3e 43 0a a0 ba b8 3d 5c 3e 34 0a b8 bd
       0.21466586 -0.001221009 0.21507919 -0.08986321
0003d0 b2 c0 9f bd e3 b0 47 be fd 76 0e 3e 29 d0 46 3e
       -0.078004256 -0.1950107 0.13912578 0.19415344
0003e0 1e 9b c2 3d b2 63 20 be 7d 79 3b be bf 6e 03 3d
       0.095022425 -0.1566303 -0.18308063 0.032088038
0003f0 a3 dd 22 3e c3 be 8b bc 96 2e ec 3c 45 39 32 be
       0.1590486 -0.017058736 0.028830808 -0.17404659

model.6.bias f4 [20]
000000 9d 75 45 be b9 2a 33 bd 93 c8 39 be d2 f2 1f bc
       -0.19283147 -0.043741915 -0.18142919 -0.009762483
000010 b3 dd 41 bc b5 10 18 3e b4 35 13 3e 7c 7d 21 3e
       -0.011832642 0.14850123 0.14375955 0.15770525
000020 9e ec 00 3e fc 17 0d be 8a 30 31 3e 81 cf 24 3e
       0.12590262 -0.1377868 0.17303672 0.16094781
000030 85 93 16 bc 8b f4 d1 3d 4b da 02 3e fa 7c 57 3e
       -0.009190445 0.10251721 0.12778585 0.21043769
000040 df 87 57 be 06 45 31 3e db 72 59 be 41 65 e4 bd
       -0.21047924 0.17311487 -0.2123522 -0.11152125

model.8.weight f4 [20, 20]
000000 01 bf 15 be 51 6c 80 bc d0 a9 b0 bd 98 d4 23 be
       -0.14623643 -0.01567665 -0.08626139 -0.15999067
000010 2a 77 b2 bd bd f6 5a 3e df 4f 2c be f0 6d 2f bd
       -0.08714135 0.21383186 -0.16827343 -0.042829454
000020 3f 8a cc bd db e8 fe 3c ae 31 3d be 6f d1 3e bd
       -0.09987306 0.031116894 -0.18475983 -0.04658645
000030 17 f3 46 bb 0d 7b 38 bc d2 91 db bc 79 7b 59 be
       -0.0030357295 -0.011259806 -0.026802931 -0.21238507
000040 21 46 fc 3d 60 a2 80 3c 34 14 94 3d cb 98 60 be
       0.123180635 0.015702426 0.07230416 -0.21933286
000050 09 72 45 be 8e 82 ca bd 82 d9 41 3e 7c ba 40 be
       -0.19281782 -0.098881826 0.18930629 -0.18821138
000060 cc 97 5e be fd 6f c2 bd 65 61 31 bc b2 7c eb 3d
       -0.21737593 -0.09494016 -0.010826443 0.11498393
000070 2f a2 bf bd f0 ef 06 3e b8 b0 39 be 9c 4b c5 bd
       -0.09357106 0.13177466 -0.18133819 -0.09633562
000080 93 a5 1d be 26 64 6a be 16 2f d2 bd cb 95 b5 bd
       -0.15395193 -0.22889766 -0.10262887 -0.08866461
000090 37 ae 37 3d 74 2f a7 bd e4 70 a5 bd 82 d8 3f be
       0.04484388 -0.08163348 -0.08078173 -0.18734935
0000a0 91 9e 4e be 56 eb 1c 3e ba 22 e1 bd 28 ab b7 3d
       -0.20177676 0.15324149 -0.10992952 0.08968192
0000b0 e9 e5 8b 3d e4 62 22 3e e5 77 4c be 78 93 25 be
       0.06830961 0.15858036 -0.19967611 -0.16169536
0000c0 e1 3c 2b 3e ef 05 06 3e c4 f0 38 be b5 7d 9e b9
       0.16722442 0.13088201 -0.18060595 -0.00030229767
0000d0 a0 09 56 be a8 95 49 be c6 46 5c bd e1 2c d9 3d
       -0.20902109 -0.19685996 -0.053778432 0.10604263
0000e0 ea f4 0a 3d c1 36 53 bd 0a b2 08 be ff 55 24 be
       0.033924975 -0.05156589 -0.13349167 -0.1604843
0000f0 ed ee 13 3e 27 26 e9 bc 82 e0 37 3e fe e4 5f be
       0.14446612 -0.028460575 0.17956737 -0.21864697
000100 af 13 dd bb 0b 62 c0 bd 4a 2e 38 3e a5 82 42 3e
       -0.0067467312 -0.093937 0.17986408 0.1899515
000110 08 77 3e be 29 4d 54 be 4f 42 82 3c ff 30 12 3e
       -0.18600094 -0.2073256 0.015900759 0.14276503
000120 63 d7 81 3d 84 a8 b0 bc 8d 8b 18 be 84 b5 22 3e
       0.0633991 -0.02156473 -0.14896984 0.15889555
000130 8e e4 30 3d 53 7e 97 bc 56 e7 bb bd 3f 28 80 bd
       0.043186717 -0.018492853 -0.09174983 -0.06257676
000140 a8 9a 9d bd 2e fd 4e be 11 33 24 3e a6 c6 0e be
       -0.07695514 -0.20213768 0.16035105 -0.13942966
000150 d6 5c 2a 3d f2 9a 62 3e 3a 0e 4e ba a3 42 bc bd
       0.04159244 0.2212942 -0.0007860396 -0.091923974
000160 85 e7 55 3d 64 43 14 be 17 a0 24 be 0d 6c 54 be
       0.052222747 -0.14478832 -0.16076694 -0.20744343
000170 0b 08 22 be 29 6f 6b bc 6f a2 a9 3d 7b 5f c2 bd
       -0.1582338 -0.014369764 0.08282935 -0.09490868
000180 01 df 0e be 71 c2 94 3c 99 c1 8d bd f3 5d da bc
       -0.13952257 0.018159123 -0.069216914 -0.026656127
000190 22 27 f5 3d de f1 92 3d c3 ca 24 bd 8b ba df 38
       0.119703546 0.07175039 -0.04023243 0.00010668215
0001a0 be cc 39 3e c3 0f 19 3e d4 f7 e7 3c c5 3d 91 bd
       0.18144509 0.14947419 0.028316416 -0.0709186
0001b0 ff 07 45 bd fe d0 d8 bd 49 ec ad 3c 52 67 b4 bb
       -0.04810333 -0.10586737 0.021230834 -0.005505481
0001c0 54 97 50 3e 4c d2 bb bd 9d 28 c5 3d d5 6a 2c 3e
       0.20370227 -0.0917097 0.09626887 0.16837628
0001d0 c2 d2 06 be 8b 61 0f be 1e 9e 63 be b0 14 f7 bd
       -0.13166335 -0.14002053 -0.22228286 -0.12064493
0001e0 0d 84 cc bc 15 3c 3a be 1b 17 33 3e 62 5c d2 bd
       -0.02496531 -0.18186982 0.17489283 -0.10271527
0001f0 df 78 e2 bd 32 ae 5b 3c c8 37 03 3e 38 4c 14 be
       -0.110582106 0.013408231 0.12814248 -0.144822
000200 d6 79 31 be 86 d9 86 3b 58 fd 4e bd 47 c9 b5 3c
       -0.17331633 0.0041152863 -0.050534576 0.022190703
000210 d5 3d c6 3c 22 e8 0c be 91 33 1e be 8a 02 c6 bc
       0.024199406 -0.13760427 -0.15449359 -0.024171133
000220 f3 2e 45 be 18 09 42 be d1 1b ea 3d a3 a8 5a 3e
       -0.19256191 -0.18948781 0.11431087 0.21353392
000230 d9 13 2d 3e 44 47 90 bc d2 c5 c4 bd cf c3 95 bd
       0.16902103 -0.017612107 -0.09608044 -0.07312738
000240 98 f6 73 bd 75 7d 4b be 34 41 6e bd b2 5c 4f be
       -0.059561342 -0.19872077 -0.05816765 -0.20250204
000250 c6 13 35 3e 9c 8d d4 bd e2 28 ec 3d 04 38 ba 3d
       0.17683324 -0.10378572 0.11531235 0.090927154
000260 4c 5c 61 3e e5 8b 1a be 4c 2f 4c be d3 86 96 bd
       0.22007865 -0.15092428 -0.19939917 -0.073499344
000270 1e ef 13 3e c7 ad c2 bd 44 40 35 be 18 a6 51 be
       0.14446685 -0.09505802 -0.17700297 -0.20473516
000280 0c 34 e3 3d c3 eb c3 bd a3 65 47 bd 8f cc a0 bd
       0.110939115 -0.09566452 -0.048680913 -0.078515165
000290 e4 0a 2d be 45 b7 78 bd 1a 35 d8 bd c2 d2 db bd
       -0.16898686 -0.060721654 -0.10557003 -0.10733558
0002a0 cb d1 46 be 14 9d 48 3e ed e2 91 bd 2c 6a f7 3c
       -0.19415967 0.1959117 -0.07123361 0.030201994
0002b0 f4 ef 83 bd cf 9d 22 3c 85 00 ab 3d a8 e1 f5 bd
       -0.06442252 0.00992532 0.083497085 -0.12005931
0002c0 d4 82 94 bd 58 76 25 be d9 40 08 3e 5c 89 63 3e
       -0.07251516 -0.16158426 0.13305987 0.22220367
0002d0 8e 70 5d 3c c5 f3 37 3e 9d 52 e0 3d 27 13 22 3d
       0.013515605 0.17964084 0.10953257 0.039569046
0002e0 cb 87 d3 bc 97 0c e9 3d b0 d8 1c be 52 73 48 3e
       -0.025821587 0.113793544 -0.15317035 0.19575241
0002f0 79 77 65 3c f7 52 a5 3d 34 c3 42 3e cc e7 a3 3d
       0.014005535 0.08072465 0.19019777 0.08003196
000300 18 22 0e bd 4b d6 4b be 8b 6e b6 bb dd 37 3e 3e
       -0.034700483 -0.19905965 -0.005567377 0.18575998
000310 88 63 aa 3d 68 91 15 3d e1 be 27 be ed de 38 3e
       0.08319765 0.036515623 -0.16381408 0.1805379
000320 7f 33 1a 3e b4 61 af 3d ab d7 57 3e 64 1f f2 bd
       0.15058707 0.08563557 0.21078365 -0.118223935
000330 f4 f6 06 be cf d8 59 bd 65 76 58 3e 5f 58 b7 3d
       -0.13180143 -0.05318528 0.21138914 0.08952402
000340 d6 7a 0c be 2d b9 74 bd 59 b2 c3 3d ff 08 2d 3e
       -0.13718733 -0.05974691 0.095555015 0.16897963
000350 87 b4 04 3d 05 d4 ad 3d 73 cc c0 bd 23 db c2 3c
       0.032398727 0.08487705 -0.094139956 0.023786133
000360 78 25 f6 bd be 53 f9 3d 32 94 00 3e 76 51 42 3e
       -0.12018865 0.12174176 0.12556532 0.18976387
000370 31 15 90 3d 03 cc 21 3e 3e e6 1d 3e 7c 1e 8c bc
       0.07035292 0.1580048 0.15419862 -0.01710438
000380 fe 68 1d 3e f4 90 32 bd 88 e0 49 be 4f ff 34 3e
       0.15372083 -0.04359527 -0.19714558 0.17675517
000390 11 a5 c4 3d db 6a c3 bd 00 2e 39 be ac a0 55 3e
       0.096017964 -0.095418654 -0.18083954 0.20862073
0003a0 91 62 45 3e 53 7a f5 bd df 0c bd bd 53 18 3e 3e
       0.19275881 -0.11986222 -0.092309706 0.18563966
0003b0 a6 36 e8 bc c4 b3 2e bd bb 26 29 be fe fb 13 3e
       -0.02834637 -0.042651907 -0.16518681 0.14451596
0003c0 ed 05 c6 3c 44 2b 51 be b4 f3 f3 3d ba 38 2e 3e
       0.024172748 -0.20426661 0.11911717 0.17013827
0003d0 36 0a 20 3c 72 c0 e7 3c 24 b1 44 3e ab 3f c9 3d
       0.0097680595 0.028290007 0.19208199 0.09826597
0003e0 c5 c7 26 be cf cf df bd d3 6c 1d 3e 07 d1 17 3e
       -0.16287144 -0.10928308 0.15373544 0.14825831
0003f0 21 0a 1b ba ad 7d 21 be d5 08 66 3d 59 65 72 3d
       -0.000591429 -0.15770598 0.056160767 0.059178684

model.8.bias f4 [20]
000000 07 21 c9 3d 76 ce a7 3d 34 91 1e bd e7 22 cc 3c
       0.098207526 0.08193676 -0.038712695 0.024918986
000010 f4 4b 97 bd e7 ec 20 3e 03 66 5a 3e 03 52 24 3e
       -0.07387534 0.15715371 0.21327977 0.1604691
000020 7f 19 61 3e 00 63 01 3e 45 0f 38 bd b9 3c 58 3d
       0.21982382 0.12635422 -0.044936437 0.052792285
000030 15 a9 49 3e a4 35 6f bd 0e 5e 78 bd 69 67 22 3e
       0.19693406 -0.058400765 -0.060636573 0.1585976
000040 a4 58 18 3e b7 cb 19 be 96 23 95 bd c0 bf 98 3d
       0.14877564 -0.15019117 -0.07282178 0.074584484

model.10.weight f4 [20, 20]
000000 ff f1 88 bd ad d9 01 be de ef e9 3d 64 42 e8 bd
       -0.06686782 -0.12680693 0.11422704 -0.11340788
000010 54 76 40 3e 22 31 fa bd 0f 89 5e 3e bd a5 11 be
       0.18795139 -0.122164026 0.21731971 -0.1422338
000020 47 31 ca bd 0d dc bf bd 01 97 06 be 69 ee 6e bd
       -0.0987268 -0.09368143 -0.13143541 -0.058332834
000030 a0 3d 08 3d 0e 96 51 3d 99 a2 5f bd 34 b7 33 bd
       0.033261895 0.051168494 -0.054598425 -0.043875888
000040 58 92 31 3c a4 54 e6 bd 8b 8f 36 be 02 c1 f6 bd
       0.010838114 -0.11246613 -0.17828195 -0.12048532
000050 d6 36 19 be 0b 14 96 3d 34 73 55 3e 90 25 3e 3e
       -0.14962325 0.07328042 0.20844728 0.18569016
000060 5c 01 bd bd f3 0f 3b be 96 6f af bd 7a 8e 42 3e
       -0.09228775 -0.18267803 -0.08566205 0.18999663
000070 aa dd 44 3e 8d 49 16 bd 21 e7 4e bd fd bd 86 3a
       0.19225183 -0.036691237 -0.05051339 0.001028001
000080 b6 47 46 bd 05 5f 53 be 1e 78 e7 3d 5a 97 12 be
       -0.048408233 -0.20641716 0.113022074 -0.14315549
000090 94 e6 63 3e 01 56 9f bd de a9 3d be 15 06 27 3e
       0.22255927 -0.07780076 -0.1852183 0.16310914
0000a0 38 f5 40 bd b5 b2 f0 bc 63 51 f9 3c e5 94 56 bd
       -0.04710886 -0.02938209 0.030434316 -0.05238809
0000b0 cb 48 3c 3e f8 4d 4b 3e 81 a3 ba 3d 0b 71 5a bd
       0.18387143 0.19853961 0.09113217 -0.053330462
0000c0 e9 c7 f9 3c b2 04 61 3e 6b 61 75 3d 18 13 62 3e
       0.030490832 0.21974447 0.05990736 0.22077596
0000d0 26 50 0b 3e 34 7c f6 3d dc f4 3c 3e ec c7 c3 bd
       0.13604793 0.120354086 0.18452781 -0.095596164
0000e0 1b 03 5f be b5 b4 28 be 88 4b e9 bc 36 2c 84 3d
       -0.21778528 -0.16475184 -0.028478399 0.06453745
0000f0 d2 b2 1c 3e c7 ce 65 3d cd a4 24 bd 46 14 4b 3e
       0.1530259 0.0561054 -0.04019623 0.19831952
000100 78 2e 5e bd 6e 7d 55 be a6 ab b7 3d 56 40 cf bd
       -0.054243535 -0.20848629 0.08968286 -0.10119693
000110 e3 24 81 3d 15 e1 10 bd 80 08 ba bd d5 1d 43 3e
       0.06305864 -0.035370905 -0.090836525 0.19054349
000120 a6 a1 eb bd ed 4d f8 bd c6 94 86 3d 26 0b 05 be
       -0.11505441 -0.12124238 0.06571345 -0.12992534
000130 2c 70 bb 3c cc 4b 10 be 66 14 be 3d b9 56 c4 3d
       0.022880636 -0.14091414 0.092812344 0.095868535
000140 1f ea 1c 3e 98 b0 5d be d1 5a 2b bd 12 3c 0e 3e
       0.15323685 -0.21649396 -0.041834656 0.13890103
000150 96 3a de 3d f4 e4 0b 3e cf b3 36 be 9a 20 90 3b
       0.10851018 0.13661557 -0.17842029 0.0043984177
000160 c2 4e 40 3d 51 b2 25 3e fa 45 bc 3d bc f1 ed 3d
       0.04695011 0.16181304 0.091930345 0.11618373
000170 5b 6e 04 be f4 d0 d5 3d b6 65 4e be 0b 04 23 3e
       -0.12932722 0.10440245 -0.20155987 0.15919511
000180 c3 c8 04 3e eb 6f 01 3d a4 f6 cd 3d 87 6c 95 3d
       0.1296721 0.031600874 0.100568086 0.072960906
000190 71 66 34 be 13 2e 64 3e e9 63 60 3d 6b b2 9e 3d
       -0.17617203 0.22283201 0.05478278 0.07748874
0001a0 2a 16 af bd 29 b0 17 be 19 8a 9d bd f6 b7 d3 3d
       -0.08549149 -0.14813294 -0.07692356 0.10337822
0001b0 bf 32 15 be d3 c0 60 3d 86 63 8f 3d 3c f3 6d bd
       -0.1457014 0.05487139 0.070014045 -0.058093295
0001c0 21 13 99 3d 35 3d 28 3e 93 24 37 3e f3 6c 03 3e
       0.07474352 0.16429599 0.17885046 0.1283453
0001d0 0d ba c5 bd 7d a8 32 3e ac 83 a2 bd a1 b0 21 be
       -0.09654627 0.17447086 -0.07935271 -0.15790035
0001e0 b0 78 3b 3e 2d 27 8a bc 54 1e 4c be 1f 56 50 3e
       0.18307757 -0.016864384 -0.19933444 0.20345353
0001f0 b4 90 3f be 45 22 a8 3d 21 01 d8 3d e6 ec 85 3d
       -0.18707544 0.082096614 0.1054709 0.065393254
000200 b9 88 69 bd 65 46 0d 3e cd 4b 48 be 1c d3 23 3e
       -0.057015155 0.13796385 -0.19560166 0.159985
000210 91 54 da 3d 03 e6 b7 3d d5 f4 29 3d 49 bb f6 3d
       0.10660661 0.08979418 0.041493256 0.120474406
000220 2d 2e 08 be 2c 99 22 be f0 cd 35 3c b8 7a e5 bc
       -0.13298865 -0.15878743 0.011096463 -0.028012618
000230 4c c5 ab bd 88 5a f8 3c 21 84 4b 3e 08 e8 03 be
       -0.08387241 0.030316606 0.19874622 -0.12881482
000240 65 f7 f2 bb 4f 6d 00 ba 94 5f 0d 3e 13 2a a5 3c
       -0.0074147456 -0.0004899101 0.13805991 0.020161664
000250 37 52 61 3e 28 b2 2b bd ae 19 35 bd 55 59 60 3e
       0.22004019 -0.04191795 -0.044213943 0.21909077
000260 12 90 51 bd c2 15 05 be 40 3b db bc da 5a 94 bd
       -0.051162787 -0.12996581 -0.026761651 -0.07243891
000270 33 f9 b2 bd f2 db 20 3e 2f 94 26 3a 9f 70 9c 3d
       -0.08738937 0.15708902 0.00063544785 0.07638668
000280 15 d8 cf bd 2c ce 90 bd 70 5f 4d be cc 52 2a 3d
       -0.10148636 -0.07070574 -0.20055938 0.041582868
000290 e1 10 e1 3d 95 0d eb 3d 48 ad 88 bd 3e 28 c5 bd
       0.109895475 0.114772 -0.06673676 -0.09626816
0002a0 b3 93 41 3e f7 34 06 3e 39 bd 38 3e 80 6b e6 bd
       0.18903999 0.13106142 0.18040933 -0.11250973
0002b0 27 fb 17 3e cf 94 a0 bd 64 ac 14 be 9b 7a e9 bd
       0.14841901 -0.07840883 -0.14518887 -0.11400338
0002c0 99 8d 05 be fe d3 1c be 59 95 0f be ef fa 2f bb
       -0.13042296 -0.15315244 -0.14021815 -0.002685245
0002d0 bf 5b 30 3e 38 0d 22 3e d2 f0 ec bb df 71 3a 3e
       0.17222498 0.15825355 -0.0072308565 0.18207501
0002e0 aa 1f 37 3e 5c 58 42 3e 20 c7 8c bd 8e 06 30 be
       0.17883173 0.18979019 -0.068739176 -0.1719
0002f0 f5 ea 27 bc ce 0b ce 3d 96 0c 29 bd c9 8e 1f be
       -0.010248889 0.10060845 -0.04127177 -0.15581812
000300 d4 5d 5a 3d 3f 7e 0b bd 2f 48 84 3d dc a8 42 3e
       0.053312138 -0.034055945 0.064590804 0.19009727
000310 ba bf 91 3d 65 15 cb 3b 3e 8f 82 3c ca 18 32 bd
       0.07116647 0.006197619 0.015937444 -0.043480672
000320 2b f9 e3 bd 4a e5 34 3d a0 62 5b be c3 ab 3b be
       -0.111315094 0.04416398 -0.21424341 -0.1832724
000330 bc 12 b6 bb 52 7f 00 3e 41 55 37 be 9a 42 a4 bc
       -0.0055564325 0.12548569 -0.17903616 -0.02005129
000340 b2 4d a8 3d 52 c4 85 ba 0a a8 a2 bd cd 27 2b be
       0.08217944 -0.0010205603 -0.07942207 -0.16714402
000350 77 07 ec bc d9 35 0d 3e a8 eb 13 bb f6 23 64 3c
       -0.028812153 0.13790073 -0.0022570882 0.013924589
000360 92 d8 ea bd 2f 67 07 be 3e d7 eb 3d 0f 0d 56 3e
       -0.11467089 -0.13222955 0.115156636 0.20903419
000370 b4 67 93 bc 4a 05 b8 bd 6e 1a 55 bc fb f0 a0 bd
       -0.017993785 -0.08985384 -0.01300679 -0.078584634
000380 1c cd 29 bd 1f ff 15 be 43 e5 1f be b8 dc 79 3d
       -0.041455373 -0.14648102 -0.156148 0.06100151
000390 a4 22 47 bd 26 af bb 3c 2b 0a 97 bc dd 5a 62 be
       -0.04861702 0.022910666 -0.018437466 -0.22104974
0003a0 7a 30 d7 3d 6d 03 06 3e 76 98 b7 bc 49 06 bc 3d
       0.10507293 0.13087244 -0.022411566 0.09180886
0003b0 61 52 48 3e 7f 0a 5e be 74 7e 5f 3e ea 14 50 be
       0.19562675 -0.21683691 0.21825582 -0.20320478
0003c0 04 77 2a 3d 7a d1 a1 bc d5 c4 55 bd 7c a8 5a 3c
       0.04161741 -0.019753207 -0.052189667 0.013345834
0003d0 bb 20 f6 bd 58 be 22 be 39 eb 46 3e d8 a7 44 3e
       -0.120179616 -0.15892923 0.19425668 0.19204652
0003e0 57 95 54 3c b8 d4 c1 3d ae c4 5f be b1 97 6c 3c
       0.0129750585 0.09464401 -0.21852371 0.014440463
0003f0 37 5e 44 3e 9c 6a 3e 3d 8a e4 44 bd d9 b4 9c bd
       0.19176565 0.04648839 -0.048069514 -0.076516815

model.10.bias f4 [20]
000000 50 85 30 bd 81 a7 92 bd 70 79 24 bd de 97 36 3d
       -0.043095887 -0.07160855 -0.040154874 0.044578426
000010 a9 e7 70 bd f8 91 b8 3d bf 44 47 be ad 15 2c be
       -0.05881468 0.09012216 -0.19459818 -0.16805144
000020 a3 49 ac bc 83 7d 76 3a 25 95 b4 bd 02 81 48 3e
       -0.021031206 0.0009402858 -0.088175096 0.19580463
000030 38 96 c5 3d 39 8c 2f 3e 7e 0e 5f 3e fb 9b 18 3e
       0.096477926 0.17143334 0.21782872 0.14903252
000040 7c 6e 4d be 4f eb 5b be 59 b8 4e be fd 6c 4f 3e
       -0.20061678 -0.21476482 -0.2018751 0.2025642

model.12.weight f4 [20, 20]
000000 15 f2 d0 3d 5a 76 4d 3e a1 c6 0d be d7 ab ca bd
       0.102024235 0.20064679 -0.13845302 -0.09896057
000010 81 24 3a 3e b7 c7 4f be 88 9e 26 3c 97 24 e9 bc
       0.18177988 -0.20291029 0.010169633 -0.02845983
000020 64 88 c9 3d 61 d2 68 3e 6b 97 62 bd cb 95 a5 3d
       0.098404676 0.22736503 -0.055320185 0.08085211
000030 f2 4f 65 bd 21 2b 67 3d aa fb 27 be 04 7b 23 bd
       -0.055984445 0.056437615 -0.16404596 -0.03991224
000040 52 4e 27 3d 4f cd 43 be 5d d9 21 be 25 11 b6 3d
       0.040846176 -0.19121288 -0.15805574 0.08889989
000050 dd 9e 36 be 56 ae 0a bc df 1b 63 be d3 1c 3c bd
       -0.17834039 -0.0084644165 -0.221786 -0.045925926
000060 58 70 4e 3e 79 c1 38 be 50 68 16 bd 9f 05 2b 3e
       0.20160043 -0.18042554 -0.036720574 0.16701363
000070 8f 18 5b 3e 0d 6a 65 be a1 66 50 be 31 f0 15 3e
       0.21396087 -0.22403736 -0.2035165 0.14642407
000080 31 d8 56 3d e6 e3 29 bd ee 23 e7 bd d7 bd d4 3d
       0.05245227 -0.041477107 -0.1128615 0.103877716
000090 5f 71 4a 3d c6 02 09 3d 1d 81 02 bc 72 ec 0d 3e
       0.049424525 0.03344991 -0.007965353 0.13859728
0000a0 b6 d4 3c 3e 42 c1 c6 3d 8f 8f 8b bc fc 99 ea 3d
       0.18440518 0.0970483 -0.017036228 0.114551514
0000b0 74 fd cd bd c6 2f 61 3e 86 d7 30 3e 12 65 f5 3d
       -0.10058108 0.2199088 0.17269716 0.11982168
0000c0 83 40 b8 3c f2 0e 6a 3d c8 1c 54 bd 5c 07 8b bd
       0.0224917 0.05714316 -0.05178526 -0.06788513
0000d0 92 45 c5 3d bc f9 4f 3d 00 d6 87 bc c8 df f4 bd
       0.0963241 0.050775275 -0.016581535 -0.119567454
0000e0 f0 d1 91 bb b5 2e 27 be 4f 5c dc 3d 2b 02 f5 3d
       -0.0044500753 -0.16326411 0.10759794 0.11963304
0000f0 7e 32 35 be 41 e1 26 3e c1 6f 68 3d 30 53 dd 3d
       -0.17695042 0.16296865 0.0567472 0.108068824
000100 10 f3 c7 bd 9a 26 5f bb ef 19 ce 3b e0 42 97 bb
       -0.09763157 -0.0034050108 0.0062897126 -0.0046161264
000110 78 ae e0 bb 42 b6 34 bd 16 39 26 3e fc 6d 37 be
       -0.006856736 -0.044119127 0.16232714 -0.1791305
000120 6c d0 57 3e 49 c5 06 3e b9 91 03 be 41 22 45 3e
       0.210756 0.13161196 -0.12848558 0.19251348
000130 b5 ef 17 bd c3 21 37 3e 0d df e5 bc 8d d0 66 bd
       -0.037093837 0.17883973 -0.02806046 -0.056351233
000140 ed 3c 76 3d d6 81 33 bd d3 99 4c 3e 79 74 5f be
       0.060116697 -0.043824993 0.19980554 -0.21821775
000150 33 ac 0e 3d 24 66 08 be 38 88 ba bd 19 d0 8f 3c
       0.03483219 -0.13320214 -0.09108013 0.017555283
000160 eb e8 47 3e c0 ff 4c 3e 3c 1a 8b bd b9 cf 41 3d
       0.19522445 0.20019436 -0.06792113 0.04731724
000170 ce a1 85 bd 26 ff 61 3e b0 80 76 3d 99 f0 52 be
       -0.065250024 0.22069988 0.06018132 -0.20599593
000180 87 fd 6c 3d 5f b7 79 3c f5 13 76 bc e3 06 1c be
       0.05785897 0.015241473 -0.015019407 -0.15237002
000190 01 33 03 be 99 9e 2e 3e ec 74 59 be 4e 5b 0e 3e
       -0.12812425 0.17052688 -0.21236008 0.13902017
0001a0 eb ed 40 3e 71 3a fc bd fc 97 3c be 63 34 0b be
       0.18840759 -0.12315834 -0.18417352 -0.13594203
0001b0 de 74 ab 3d 40 b0 34 3e 8b cb b3 bc 31 ce 0e bd
       0.083719 0.17645359 -0.021947643 -0.03486461
0001c0 fd 31 39 3e 59 f9 28 3c 2a b9 0c 3e 65 ce 50 bd
       0.18085475 0.010313355 0.1374251 -0.050978083
0001d0 25 f9 ab bd 59 59 26 bd dc aa 4d 3d 73 3d 58 be
       -0.0839713 -0.040612552 0.050211772 -0.21117191
0001e0 6a 28 ac 3d d8 7e 7d bd 0f 0e 2f be 05 09 c7 bd
       0.08406146 -0.061888546 -0.17095207 -0.09718517
0001f0 57 49 e1 3c a4 9f 1e 3e 61 b2 56 3e b8 7c aa bd
       0.027500791 0.15490586 0.20966484 -0.083245695
000200 d8 57 ba bd f4 12 1a 3e 3c 7d 1a 3e 6d 01 13 be
       -0.09098786 0.15046293 0.15086836 -0.14356013
000210 0f 2c 24 3e c5 c7 59 be 19 54 a4 bd 78 f6 06 3e
       0.16032432 -0.21267612 -0.08023853 0.13179958
000220 9b 2a e3 bd 06 44 2e 3e 9e b6 4a 3e 50 4e 4c bd
       -0.11092111 0.17018136 0.19796225 -0.049879372
000230 09 3d 04 3e 71 5e 75 bd 36 ff 14 3a af 4a 29 3e
       0.12913908 -0.05990452 0.00056837813 0.16532396
000240 2e f0 35 be 48 bc 9c bd 5c 0e 30 3e 2e 33 b9 bd
       -0.17767403 -0.07653099 0.17192978 -0.09042965
000250 6a 53 a6 bb 8b 05 59 3e 23 9d 99 bd 6c 79 5d be
       -0.0050758617 0.2119352 -0.075006746 -0.2162835
000260 97 c7 34 be 8a 2e 51 3e ca da 4a be 72 fe 66 be
       -0.17654262 0.2042791 -0.19810024 -0.22558
000270 43 2e 8a 3d 21 48 e7 bd 32 c7 59 be 27 0b 33 3e
       0.06747105 -0.11293054 -0.21267393 0.17484723
000280 4d 48 05 3c 29 93 33 be ea c8 e5 bd bc 33 0d bd
       0.008134914 -0.17536606 -0.11219962 -0.034473166
000290 85 93 bd bd 91 c6 00 bc 91 9b 41 bd b2 c6 bc 3d
       -0.09256653 -0.007859842 -0.0472675 0.092175856
0002a0 08 57 7c 3d 4f 6d 26 be 91 42 30 3e ab 13 14 be
       0.061606437 -0.16252635 0.17212893 -0.14460628
0002b0 0a 26 41 3e a9 0c 4a 3e 77 a8 01 be 2c 0d 44 3e
       0.18862167 0.19731392 -0.1266192 0.1914565
0002c0 fb 4d 57 3e 4c 20 43 bc b2 ee b2 3c 01 5a 9a 3d
       0.21025841 -0.011909556 0.021842334 0.07536698
0002d0 42 2e 85 bc c3 cc 12 3e 24 06 cf bd a2 5f 5c 3e
       -0.016257409 0.14335923 -0.10108593 0.21520856
0002e0 5a 1a 5a be de db ee bd 60 7c 7e bd 15 1e 18 be
       -0.21299115 -0.1166303 -0.062130332 -0.14855225
0002f0 eb e7 ca bc 0b 52 50 be 1f 65 a0 bd e4 ca 13 3e
       -0.02476879 -0.20343797 -0.07831787 0.14432865
000300 b8 2e ee 3d f5 af 11 be 3e 13 0a 3e 72 63 22 3e
       0.11630005 -0.14227279 0.13483903 0.15858248
000310 96 ac 9d bb e4 93 2e be 89 4b 75 bc b8 43 44 be
       -0.0048118336 -0.17048603 -0.014971622 -0.19166458
000320 7e bc 21 be 59 a9 33 3d f4 65 2b be a7 f7 8f bd
       -0.1579456 0.043862674 -0.16738111 -0.07029658
000330 cb c3 22 bc 8e 74 2e bb 30 e3 3d 3e ac 16 79 3d
       -0.009934376 -0.0026619765 0.18543696 0.060812637
000340 fe 9c cc 3d d2 35 9c bd 04 ef 04 3e 6d 31 bb bd
       0.099908814 -0.07627453 0.12981802 -0.091402866
000350 2d 38 e2 bd 65 2b 93 3d a0 57 de bd 7d bd 48 3e
       -0.11045871 0.07186011 -0.10856557 0.19603534
000360 ff f9 04 3d 3d 23 c8 3d 10 5d 57 bd 76 28 18 3e
       0.032464977 0.09772346 -0.052578986 0.14859185
000370 bb 58 f4 3d ef 8d eb 3d 4f 4b 05 be e0 45 4c be
       0.119309865 0.11501681 -0.13017009 -0.1994853
000380 d4 8a 19 3e 51 10 0a be 24 03 33 3e 37 44 3a be
       0.14994365 -0.13482787 0.17481667 -0.18190084
000390 69 59 87 3c c8 1b 4e 3e 81 9b 34 be fc bc 39 3e
       0.016522126 0.20127785 -0.17637445 0.18138498
0003a0 a3 5b 86 bd 32 40 da 3d 39 2b b0 3d cc 20 cc bd
       -0.06560447 0.106567755 0.08601994 -0.09967193
0003b0 72 c8 6f bd ad e9 07 be 75 6e ed bd 63 3a 8e 3d
       -0.05854077 -0.13272734 -0.11593334 0.0694473
0003c0 f2 32 80 bc 27 ca 29 be 8d 93 40 3e bd 0f 08 3e
       -0.015649293 -0.16581021 0.18806286 0.13287254
0003d0 ae ec b6 3b 5f 08 0d 3e 86 60 8e bd f2 74 90 bd
       0.0055824136 0.13772725 -0.06952004 -0.070535555
0003e0 f6 30 53 be e9 af 45 be 62 4d f6 bd 91 b5 89 3d
       -0.20624146 -0.19305386 -0.12026478 0.06724084
0003f0 2b 45 56 be 5c 7e 06 bd 38 81 d7 3d 57 9b 68 be
       -0.20924823 -0.03283535 0.105226934 -0.22715507

model.12.bias f4 [20]
000000 37 e3 dd bd 42 fa 84 bd ef 0e 0c 3e 83 8d 67 bc
       -0.108343534 -0.064930454 0.13677572 -0.01413286
000010 c6 95 e3 bc 7b b6 ab 3d 0b 39 18 3e 4f 0a 92 bd
       -0.027781378 0.08384415 0.1486551 -0.071308725
000020 18 b2 b6 bd f0 e7 31 3e 3c a1 50 3e 4c c9 ad bc
       -0.089206874 0.17373633 0.20374006 -0.02121415
000030 3c 43 14 be 60 01 02 3d e7 f4 b8 3c b2 c1 d0 3d
       -0.14478773 0.031739593 0.022577716 0.101931944
000040 e5 e6 59 3b 01 ea 69 3d 6c 70 f6 3d c4 4c 51 3e
       0.0033249196 0.05710793 0.120331615 0.2043944

model.14.weight f4 [1, 20]
000000 92 46 09 be dd ab 36 3d 25 54 5a bd 5e 14 01 be
       -0.13405827 0.044597495 -0.053302903 -0.12605426
000010 81 f2 f2 bd d0 0c 56 3e c1 32 26 3e 67 f3 aa 3d
       -0.1186266 0.20903325 0.16230299 0.083472066
000020 ee fa 26 3e 1d de 2a 3d 57 41 27 be 94 35 46 3e
       0.1630666 0.04171573 -0.16333519 0.19356376
000030 a8 53 6a 3e 38 64 ac 3d 81 6b 2c 3e 7b f7 35 3e
       0.22883475 0.08417553 0.16837884 0.17770188
000040 39 fd f2 3d d4 bc 66 bd 3e 1f 33 3e 12 48 82 bd
       0.11864705 -0.056332424 0.17492387 -0.063614026
