NeuralGalerkin/models/autosave/Gen_2_Loss_0.27575105.pt (torch, 102983 bytes, 15 tensors)

model.0.weight f4 [16, 2]
0	0x3e994dd7	0.299422
1	0xbf0eac9f	-0.5573215
2	0xbec92839	-0.392885
3	0xbf405843	-0.75134677
4	0xbf2167e4	-0.6304915
5	0x3e482bd6	0.19547972
6	0xbf0dc058	-0.5537162
7	0xbf1637fa	-0.58679163
8	0xbe214bda	-0.15751591
9	0x3f09ac34	0.53778386
10	0x3f087785	0.5330737
11	0xbea5db46	-0.32393855
12	0xbe8e5265	-0.27797237
13	0xbef50d19	-0.47861555
14	0x3f220220	0.6328449
15	0xbe8532c1	-0.26015285
16	0xbeb12106	-0.34595507
17	0xbf3e03df	-0.74224657
18	0xbe17784d	-0.14791985
19	0x3ef3b8ee	0.47602028
20	0x3f115c09	0.5678106
21	0x3da195d8	0.078899086
22	0xbdd897c7	-0.10575824
23	0x3eb6ee9d	0.35728922
24	0xbd10369e	-0.035208337
25	0x3f132681	0.5748063
26	0xbf18a0ab	-0.5962016
27	0xbf1095cf	-0.5647859
28	0xbf1d3e62	-0.61423314
29	0xbd5e0101	-0.054200176
30	0xbe812819	-0.25225905
31	0x3dc7f87a	0.0976419

model.0.bias f4 [16]
0	0x3d0cfa1c	0.03441821
1	0xbe10c3a8	-0.14137137
2	0xbf2d8cef	-0.6779317
3	0x3e942d2d	0.28940716
4	0xbcb6302c	-0.022239767
5	0x3ea36680	0.3191414
6	0xbeb3b463	-0.35098562
7	0xbf1dfe8c	-0.6171653
8	0xbeaa9c81	-0.33322528
9	0x3f03ccc7	0.5148434
10	0x3c4733c2	0.012158336
11	0x3f206f73	0.6267006
12	0x3eb11e80	0.34593582
13	0x3ee624c7	0.44949934
14	0xb9ba8869	-0.00035578318
15	0xbeb54168	-0.35401464

model.2.weight f4 [16, 16]
0	0x3e81c475	0.25345197
1	0x3d9ab5b7	0.075541906
2	0x3e6c2bc0	0.23063564
3	0x3e832b9a	0.25619203
4	0xbe36f2c5	-0.17866047
5	0xbc919ca0	-0.01777488
6	0x3dbbd47a	0.09171386
7	0x3dfa2045	0.12213186
8	0xbe1615cb	-0.14656751
9	0xbe8c8e44	-0.2745229
10	0xbe833cf5	-0.25632444
11	0x3e125974	0.14291936
12	0x3d0de27d	0.034639824
13	0xbe21f10a	-0.15814605
14	0xbdeb245f	-0.114815466
15	0x3e1ce544	0.15321833
16	0xbe44b450	-0.19209409
17	0xbdf7833f	-0.1208558
18	0xbdfbfbe7	-0.12303906
19	0x3e11778e	0.14205763
20	0x3e1319e9	0.14365353
21	0x3e93b3c2	0.28848082
22	0xbde3be78	-0.111203134
23	0x3cab1186	0.02088238
24	0x3e378b56	0.17924246
25	0x3e0d8a9f	0.13822411
26	0x3e3437d0	0.17599416
27	0x3e46fffd	0.1943359
28	0x3d1822a5	0.037142415
29	0x3e575546	0.21028623
30	0x3e7ffbbf	0.24998377
31	0x3dc17ff5	0.09448234
32	0x3d84337f	0.064551346
33	0x3d07dba8	0.033168465
34	0xbe4a4dd7	-0.19756256
35	0xbdd14aa8	-0.10219318
36	0xbdcccc9d	-0.099999644
37	0x3df6c16e	0.120486125
38	0xbe30e535	-0.17274936
39	0xbe8aa187	-0.2707636
40	0xbe5ebb3a	-0.21751109
41	0x3dccf1e8	0.100070775
42	0x3e30e42e	0.17274544
43	0x3e5854e7	0.21126138
44	0x3e2a4afc	0.16630167
45	0x3d9b1cd6	0.075738594
46	0xbe09c5f8	-0.13454425
47	0xbd8e7f28	-0.06957847
48	0x3d6a1dde	0.05715739
49	0xbe229ca7	-0.1588007
50	0x3e0d5eb2	0.13805655
51	0x3e5165ff	0.20449065
52	0x3e80a41f	0.25125214
53	0x3dff99fc	0.12480542
54	0xbe8ae039	-0.27124193
55	0xbdf241d5	-0.11828963
56	0x3d621f68	0.055205733
57	0xbc9d5dee	-0.019209828
58	0xbe12e2a7	-0.14344274
59	0x3e2b73e6	0.1674343
60	0xbdfbf6bd	-0.12302921
61	0x3e63c270	0.22242141
62	0xbe7e062c	-0.24807042
63	0xbe87be75	-0.26512495
64	0x3d900523	0.0703223
65	0xbe2cefd1	-0.16888358
66	0xbd9d82e8	-0.07690984
67	0x3d10c72b	0.03534619
68	0xbe56ade8	-0.20964777
69	0x3e5556d8	0.2083391
70	0xbdbba758	-0.09162778
71	0xbe2105df	-0.15724896
72	0xbe41d1eb	-0.18927734
73	0x3dedaa0a	0.11604698
74	0x3e5108b8	0.20413482
75	0xbd1326aa	-0.035925545
76	0x3e20945e	0.15681598
77	0xbcc9e568	-0.024645522
78	0x3bd25e80	0.0064199567
79	0xbe492e48	-0.19646561
80	0xbd83812f	-0.06421124
81	0x3db38fbb	0.08767649
82	0xbd8c2d5c	-0.06844589
83	0x3d75baa9	0.059992466
84	0xbd1a40c9	-0.03765944
85	0x3c7ae4cf	0.015313341
86	0xbe84d0fd	-0.25940695
87	0xbe7b2601	-0.24526216
88	0xbdcb105a	-0.09915228
89	0x3d1b25fa	0.037878014
90	0x3d8b8919	0.06813259
91	0x3dd18b64	0.10231665
92	0xbd813d02	-0.063104644
93	0x3e67f0eb	0.22650497
94	0xbe589585	-0.21150787
95	0xbe5dfdb8	-0.21678817
96	0x3dfcebd4	0.12349668
97	0x3d9b42d5	0.075811066
98	0x3e151298	0.14557874
99	0xbdb60b35	-0.08888856
100	0x3e6b5c5d	0.22984453
101	0xbde2e8c1	-0.110795505
102	0x3d41ddd4	0.047330692
103	0xbe58e5ac	-0.21181363
104	0xbde94b0b	-0.113912664
105	0x3e572ddc	0.21013588
106	0x3e621cfc	0.22081369
107	0xbdb7e768	-0.08979684
108	0x3e8453dc	0.2584523
109	0xbe11a4de	-0.14223048
110	0x3c5b40ad	0.013382119
111	0xbe253fac	-0.1613757
112	0xbd31684a	-0.04331235
113	0xbdbe7718	-0.09300059
114	0xbd16bb12	-0.036799498
115	0xbca34fbd	-0.019935483
116	0x3ddfceaa	0.1092809
117	0x3e1fcfdb	0.15606634
118	0x3cd47d81	0.025938751
119	0xbe2a9d64	-0.16661602
120	0x3e55d7ac	0.20883054
121	0xbd587f9b	-0.05285607
122	0x3cf9a78c	0.0304754
123	0xbe49545a	-0.19661084
124	0xbe4f589f	-0.2024865
125	0x3db30b71	0.08742417
126	0xbe203fb5	-0.15649302
127	0xbe39ee2d	-0.18157263
128	0x3e39e4c2	0.1815367
129	0xbe4ed6ee	-0.20199177
130	0xbe2f1ffd	-0.17102046
131	0x3d9496a3	0.07255294
132	0x3e28514a	0.1643726
133	0x3dfe984a	0.124313906
134	0xbe063b9f	-0.13108681
135	0xbe8f0bec	-0.27938783
136	0x3dfe8aef	0.12428843
137	0x3e0d8b0d	0.13822575
138	0xbd9e196c	-0.077196926
139	0x3e3eee0e	0.18645498
140	0xbe2b03e0	-0.16700697
141	0x3e8dc191	0.27686742
142	0xbde13658	-0.109966934
143	0x3dbeeab0	0.09322107
144	0xbe33bff8	-0.17553699
145	0x3e344e66	0.17608032
146	0x3e79b01b	0.24383585
147	0xbe018d48	-0.12651551
148	0x3c27241c	0.01020148
149	0x3e219fa5	0.15783556
150	0xbdbe71f2	-0.09299077
151	0xbab8acb6	-0.0014089558
152	0x3e1c02eb	0.15235488
153	0xbbdc79d4	-0.00672839
154	0xbd3c540c	-0.04597859
155	0xbaae41b4	-0.0013294728
156	0x3cac39d0	0.02102366
157	0xbd9a0120	-0.07519746
158	0x3e122b09	0.14274229
159	0xbd7b32ae	-0.06132763
160	0x3c1222b8	0.00891941
161	0xbd78e0f9	-0.060761426
162	0x3e91720f	0.28407332
163	0x3d256725	0.04038157
164	0xbdda3389	-0.10654361
165	0xbe27ec8d	-0.1639883
166	0x3e2298e4	0.15878636
167	0x3d7f34ee	0.062306337
168	0x3e717010	0.23577905
169	0x3d5d43dc	0.054019794
170	0xbdc9012e	-0.09814678
171	0x3e073979	0.13205518
172	0xbe0a9362	-0.13532785
173	0xbe99e96f	-0.30060908
174	0x3c4bc78f	0.012437715
175	0x3e864acc	0.2622894
176	0xbe4c31d9	-0.1994089
177	0xbe3476b4	-0.17623407
178	0xbe1dd391	-0.15412737
179	0xbdcf6bd9	-0.10127992
180	0x3e3236d8	0.17403734
181	0x3e41c380	0.18922234
182	0xbe849a23	-0.25898847
183	0x3e1984f1	0.1499212
184	0xbe815982	-0.25263602
185	0x3cb6798d	0.022274757
186	0x3e3d3abf	0.18479441
187	0x3e8ed8c9	0.2789977
188	0xbd328578	-0.043584317
189	0x3d000310	0.03125292
190	0xbdd8304e	-0.105560884
191	0xbcb00813	-0.021488225
192	0xbdabdb9f	-0.08391499
193	0x3b8fe5bc	0.0043914
194	0xbd40caa2	-0.047068246
195	0xbdbce8a5	-0.09224061
196	0x3d349c8a	0.0440946
197	0xbbe204ff	-0.0068975682
198	0xbdbacca8	-0.09121066
199	0x3e5d699d	0.2162232
200	0xbe3dc5ae	-0.1853244
201	0xbe6eaedf	-0.23308896
202	0x3e485976	0.19565377
203	0xbd5fd7d5	-0.054649193
204	0xbe778899	-0.24173202
205	0xbe70cad4	-0.23514873
206	0x3e81159f	0.25211808
207	0x3dcbae02	0.09945299
208	0xbe685578	-0.22688854
209	0x3e2f8947	0.17142211
210	0xbd6acaca	-0.0573223
211	0xbdf4da35	-0.11955682
212	0x3d12374b	0.035697263
213	0xbe350af3	-0.17679958
214	0x3d285bb4	0.04110308
215	0xbe57896e	-0.21048519
216	0xbca84f58	-0.020545647
217	0x3e5137b2	0.20431402
218	0xbdc50a88	-0.09621149
219	0xbdf8aaba	-0.121419385
220	0x3e76163d	0.2403192
221	0x3e31884b	0.17337148
222	0xbd883b9e	-0.06651996
223	0xbe61593f	-0.22006701
224	0xbe059f04	-0.13048941
225	0x3dc88c22	0.09792353
226	0x3e6ef73f	0.23336504
227	0x3dbfc08f	0.093628995
228	0xbe03f14d	-0.12885018
229	0xbe1e0aef	-0.15433858
230	0x3e3b212f	0.18274377
231	0x3d74bb58	0.059748977
232	0x3c47042c	0.012146991
233	0xbd95f52a	-0.07322152
234	0x3e09da1e	0.13462111
235	0xbe56df27	-0.20983563
236	0xbda8b6db	-0.08238002
237	0xbc4e2075	-0.012580981
238	0x3e35ed1d	0.17766233
239	0xbc093d6b	-0.00837646
240	0xbe19d58b	-0.15022866
241	0x3ea1acc6	0.31577128
242	0x3df68303	0.12036707
243	0xbd47dd47	-0.04879501
244	0xbe4646df	-0.19362973
245	0xbc8f5600	-0.017497063
246	0xbde4abb9	-0.11165566
247	0x3db0d678	0.08634657
248	0xbd625a10	-0.05526167
249	0xbe672fa8	-0.22576773
250	0xbb86853b	-0.004105238
251	0x3cd05416	0.02543072
252	0x3da27694	0.07932773
253	0xbea04a9b	-0.3130692
254	0xbe5fdcc0	-0.21861553
255	0x3d6ee569	0.05832425

model.2.bias f4 [16]
0	0xbe462190	-0.1934874
1	0x3e956f37	0.29186413
2	0xbd74f86a	-0.05980722
3	0x3e840c1d	0.25790492
4	0xbd21b563	-0.039479624
5	0x3cc436fc	0.023952
6	0x3e01b47e	0.12666509
7	0xbe68d2e7	-0.22736703
8	0x3e9d008b	0.30664477
9	0xbe9dc0f9	-0.3081129
10	0xbe10eb72	-0.14152315
11	0xbd9ab8b0	-0.075547576
12	0x3cce7004	0.025199898
13	0x3e8aba08	0.27095056
14	0xbdac063f	-0.08399629
15	0xbe34c748	-0.17654145

model.4.weight f4 [16, 16]
0	0x3c9119f5	0.017712573
1	0xbe56ffa8	-0.20995963
2	0xbcaaca95	-0.020848552
3	0xbe0093c1	-0.12556364
4	0x3d87a020	0.06622338
5	0xbe3fd577	-0.18733774
6	0x3ce2cb20	0.027684748
7	0xbcd856e6	-0.026408624
8	0xbe7f3c9b	-0.24925463
9	0xbdae0283	-0.08496573
10	0x3c108eb9	0.00882309
11	0xbe033198	-0.12811887
12	0xbce2ebbf	-0.027700303
13	0xbe0645e6	-0.13112602
14	0x3df8a8a2	0.12141539
15	0xbe1fe061	-0.15612938
16	0xbd3fd802	-0.04683686
17	0x3d6b5b7c	0.057460293
18	0xbd95fdce	-0.073238
19	0x3ce4861e	0.027895983
20	0x3e21100c	0.15728778
21	0xbdac823b	-0.08423277
22	0xbe98686f	-0.29767177
23	0xbd9ab34e	-0.07553731
24	0xbe5977fa	-0.21237174
25	0xbd3f64f5	-0.04672714
26	0x3e11c8c7	0.14236747
27	0x3d01c614	0.031683043
28	0x3e38c922	0.18045476
29	0x3d05ef0f	0.032698687
30	0x3e9951ff	0.2994537
31	0xbe134b2f	-0.14384149
32	0x3e3b9c4d	0.18321343
33	0x3e67544d	0.22590752
34	0xbe2b870c	-0.16750735
35	0x3e8f05d3	0.2793413
36	0x3e519f6f	0.20470975
37	0x3e98ee48	0.29869294
38	0x3e4b20ee	0.1983678
39	0xbc98d244	-0.01865495
40	0x3c53538e	0.012898339
41	0xbe8a9ac9	-0.27071217
42	0xbe5c2e68	-0.21502078
43	0x3e4123bf	0.18861292
44	0xbe717e00	-0.23583221
45	0xbe19ec67	-0.15031587
46	0xbe7e0c41	-0.24809362
47	0x3df8055a	0.12110396
48	0xbdf57629	-0.11985428
49	0x3d8f7cc5	0.0700622
50	0x3e5fc9a8	0.2185427
51	0xbdb3f47f	-0.08786868
52	0xbe20422c	-0.15650243
53	0x3e71282b	0.23550479
54	0x3b462aad	0.003023784
55	0x3e5e7435	0.21724017
56	0x3d954d66	0.07290153
57	0x3e553fe8	0.2082516
58	0x3e1e5b81	0.15464593
59	0x3e033c18	0.12815893
60	0xbe739ea6	-0.23790988
61	0xbe19bd82	-0.15013698
62	0xbe7d8a56	-0.24759802
63	0x3d747fff	0.05969238
64	0xbe40223f	-0.18763064
65	0xbc6fd67e	-0.014638541
66	0xbd58ddbd	-0.05294584
67	0xbdc9ea2d	-0.098591186
68	0xbdcd682d	-0.100296356
69	0x3e34e7ac	0.17666501
70	0x3dcf5bad	0.10124908
71	0x3e2f69bf	0.17130183
72	0xbdd60285	-0.10449699
73	0x3d500d51	0.05079395
74	0xbe8394c7	-0.25699446
75	0x3e68035b	0.2265753
76	0xbe09e854	-0.13467532
77	0x3d11cd63	0.035596263
78	0xbe636ea0	-0.22210169
79	0x3d628f31	0.05531234
80	0x3d6bf3b8	0.057605475
81	0xbe91e6a7	-0.28496286
82	0xbcae1a7d	-0.021252865
83	0x3dce5a2d	0.100757934
84	0x3deab96b	0.11461147
85	0xbde94d95	-0.11391751
86	0x3dfb39fa	0.122669175
87	0xbda39acf	-0.07988512
88	0xbe92faa7	-0.28706858
89	0xbe0e0c68	-0.1387192
90	0xbdfa6200	-0.12225723
91	0xbe3061d4	-0.17224818
92	0x3e3c009e	0.1835961
93	0xbd31d3b7	-0.043414798
94	0xbe12a592	-0.14320973
95	0x3e812d27	0.2522976
96	0x3e84003f	0.25781438
97	0xbe887154	-0.26648962
98	0x3d332961	0.043740634
99	0x3c9150b3	0.017738676
100	0xbab7470b	-0.0013982964
101	0xbc6c9e69	-0.014442065
102	0xbea403c5	-0.32034126
103	0xbd450164	-0.04809703
104	0xbccb81a2	-0.024842087
105	0x3ea010fd	0.3126296
106	0x3e8a7042	0.2703877
107	0xbdf68059	-0.12036199
108	0xbc21d71b	-0.009877945
109	0x3e416c8e	0.18889067
110	0x3e5486dc	0.2075457
111	0x3d752db9	0.059858058
112	0xbe4b5d1b	-0.19859736
113	0x3d97b529	0.074076004
114	0xbe825e60	-0.25462627
115	0xbe7fb658	-0.24971902
116	0xbdafb05a	-0.08578558
117	0x3e5ffe06	0.21874246
118	0x3b9f56c7	0.0048626396
119	0xbe126618	-0.14296758
120	0xbe0acd84	-0.1355496
121	0x3e62c755	0.22146352
122	0x3e770b11	0.24125315
123	0x3e044469	0.12916721
124	0x3d1d0765	0.03833713
125	0x3cf2c68f	0.029635696
126	0xbdca2254	-0.09869829
127	0xbdce03d3	-0.10059323
128	0xbd189bce	-0.037257962
129	0xbe4bcd6d	-0.19902582
130	0xbd94c82b	-0.072647415
131	0xbdd8998e	-0.10576163
132	0x3bb9b79f	0.0056676413
133	0x3da4d9f4	0.08049384
134	0xbe3416d8	-0.17586839
135	0xbd387cd4	-0.04504092
136	0x3e57596c	0.21030205
137	0xbe8ddc96	-0.27707356
138	0x3e1f8be1	0.15580703
139	0xbe02ec68	-0.12785494
140	0x3e1975f1	0.14986397
141	0x3e796669	0.24355473
142	0x3e2aa5fc	0.1666488
143	0x3e4832f0	0.19550681
144	0x3e94e2f9	0.29079416
145	0xbe4225aa	-0.1895968
146	0x3ca32a94	0.019917764
147	0xbe81b50f	-0.2533345
148	0xbd4fd03b	-0.050735693
149	0xbe2cf0e3	-0.16888766
150	0x3dabbd5d	0.083857276
151	0xbc2e7628	-0.010648288
152	0xbe66f909	-0.22555937
153	0x3d9ff62c	0.078106254
154	0xbe1999d1	-0.15000083
155	0x3da98f1b	0.08279248
156	0xbe21350d	-0.15742894
157	0xbdf64d88	-0.12026507
158	0xbc13a62f	-0.009011789
159	0x3e9259d0	0.28584146
160	0xbe67aa5d	-0.22623582
161	0xbd45fed4	-0.048338726
162	0x3e964d1b	0.29355702
163	0x3e37f5d3	0.17964868
164	0x3c9558e5	0.018230865
165	0x3dae1abf	0.08501195
166	0x3d7958d9	0.060875747
167	0xbe769ebf	-0.24083994
168	0x3e9a792b	0.3017057
169	0xbea31c9b	-0.31857762
170	0x3b9497a4	0.0045346785
171	0xbcde6bb3	-0.027150964
172	0x3c099d34	0.008399297
173	0x3dbaa055	0.09112612
174	0x3e2667a2	0.1625047
175	0xbe828d97	-0.2549865
176	0xbd1e0631	-0.038580123
177	0x3e1bbc6c	0.15208596
178	0x3e93c1fb	0.28858933
179	0x3da0e226	0.078556344
180	0x3c6ca176	0.014442792
181	0xbd85800a	-0.06518562
182	0x3ea1fb75	0.3163716
183	0xbdbd9fb7	-0.09258979
184	0xbc21b0f3	-0.009868848
185	0xbe765b4f	-0.24058269
186	0xbe629128	-0.22125685
187	0x3c9c8a37	0.019108875
188	0x3dbd3a0e	0.09239589
189	0xbdbc1c6f	-0.09185111
190	0x3e29c3f5	0.16578658
191	0xbdb2bd85	-0.08727554
192	0xbe1a261b	-0.15053599
193	0x3e314a9e	0.1731362
194	0x3e320dfb	0.17388146
195	0xbe39af20	-0.18133211
196	0x3e38f419	0.18061866
197	0x3db7503f	0.089508526
198	0x3c2a1b87	0.01038254
199	0xbd94a0c0	-0.07257223
200	0xbc300536	-0.01074343
201	0x3db4ffdb	0.08837863
202	0xbe79e97d	-0.24405475
203	0x3de50067	0.11181717
204	0x3d5e09ba	0.054208495
205	0x3e976d53	0.29575595
206	0x3da39096	0.07986562
207	0xbdc33f93	-0.0953361
208	0xbe46831d	-0.19385953
209	0x3c92dd39	0.017927753
210	0x3e5ba743	0.21450524
211	0xbb77dd1a	-0.0037820996
212	0x3cce9cda	0.025221277
213	0x3e244d35	0.16045077
214	0xbdbb89c2	-0.091571346
215	0xbe010a88	-0.12601674
216	0x3c846dd3	0.01616565
217	0xbe4da14b	-0.2008106
218	0xbe5f0b5d	-0.21781678
219	0x3e834e26	0.2564556
220	0x3de3f274	0.11130229
221	0x3cc0aec7	0.02352084
222	0xbdd5b3a1	-0.10434652
223	0xbe816f8e	-0.25280422
224	0x3e40f63d	0.18843932
225	0xbe1bbd92	-0.15209034
226	0xbe914baf	-0.28378054
227	0xbe62926f	-0.22126172
228	0xbdf4f009	-0.119598456
229	0xbde82484	-0.1133509
230	0xbe1a17d7	-0.15048157
231	0x3e802c67	0.25033876
232	0xbcb06f24	-0.021537371
233	0x3cff2b20	0.031148493
234	0x3e37a34d	0.17933388
235	0xbcc4a804	-0.024005897
236	0x3e7e68e0	0.24844694
237	0xb9b2cc4d	-0.00034103022
238	0x3e9030ab	0.2816213
239	0x3e9b588e	0.30341
240	0xbdcbed31	-0.0995735
241	0xbc8f7fb2	-0.017516945
242	0xbd4a7a25	-0.049432892
243	0xbdac7f5d	-0.0842273
244	0x3db58e0c	0.08864984
245	0xbb7e2195	-0.003877734
246	0xbd2c5d60	-0.042081237
247	0x3d9d38f8	0.076768816
248	0xbdf1d0e6	-0.11807422
249	0x3dcd7d0e	0.10033618
250	0x3b284ac2	0.0025679325
251	0xbd3bea1e	-0.04587757
252	0x3e03412a	0.12817827
253	0xbd69bbaf	-0.057063755
254	0x3e960a0b	0.29304537
255	0x3e364895	0.17801125

model.4.bias f4 [16]
0	0xbe1d58ef	-0.15365957
1	0xbe590f2f	-0.21197198
2	0xbcf651fb	-0.030068388
3	0xbe546997	-0.20743404
4	0x3d01b67a	0.031668164
5	0xbe137757	-0.14400993
6	0xbe42f549	-0.19038881
7	0xbe567f47	-0.2094699
8	0xbd8980fd	-0.06714056
9	0x3e24a912	0.1608012
10	0xbd7b52b9	-0.061358187
11	0x3e3c92fd	0.18415447
12	0xbd826136	-0.06366198
13	0xbd435ebd	-0.04769777
14	0x3d88d270	0.06680763
15	0xbe55c755	-0.2087682

model.6.weight f4 [16, 16]
0	0x3dfc76eb	0.12327369
1	0x3d801af9	0.062551446
2	0x3debef87	0.115202956
3	0xbe0b6c4c	-0.1361553
4	0x3e79378b	0.24337594
5	0x3db2c197	0.087283306
6	0xbe04fec6	-0.12987813
7	0xbe50c0f1	-0.20386101
8	0xbd94c2cd	-0.07263718
9	0xbe682c0c	-0.22673053
10	0x3df150cc	0.11782989
11	0x3ba24c2e	0.004952929
12	0x3e9432ac	0.2894491
13	0x3bb3ca8a	0.005486791
14	0xbe3e07a1	-0.18557598
15	0xbe73922c	-0.23786229
16	0x3e52d025	0.20587213
17	0xbcc23cdd	-0.023710662
18	0xbc60fae2	-0.01373169
19	0x3d85f65f	0.06541132
20	0xbc8fd8fb	-0.017559519
21	0xbdb5eb09	-0.0888272
22	0x3e667412	0.22505215
23	0xbdec1eb4	-0.11529294
24	0x3d93077b	0.07179161
25	0x3dba72f8	0.0910396
26	0x3dbd086f	0.09230124
27	0x3dc679d6	0.09691207
28	0xbe835aa2	-0.25655085
29	0xbe4dee78	-0.201105
30	0xbddf2fa7	-0.10897761
31	0x3ea410ab	0.32043967
32	0xbe7f4551	-0.24928786
33	0xbd5283db	-0.05139528
34	0x3e9bcc07	0.30429098
35	0xbd1b57b2	-0.03792543
36	0xbe2e0f1a	-0.16997948
37	0x3d9fe973	0.07808199
38	0xbd944578	-0.072398126
39	0xbcb9110c	-0.022591136
40	0xbe1e76f1	-0.1547506
41	0xbe9a3828	-0.3012097
42	0x3ca39c1a	0.019971896
43	0x3e36acda	0.17839375
44	0x3caeb8b7	0.021328313
45	0xbdf577eb	-0.11985763
46	0xbe6df0df	-0.23236416
47	0xbea4d7cb	-0.32195887
48	0xbdbb620e	-0.09149562
49	0x3ccfa6d1	0.025348099
50	0xbe233a6e	-0.15940258
51	0xbdd05144	-0.1017175
52	0xbd904e5b	-0.07046195
53	0x3e29a8e4	0.16568333
54	0x3e36f784	0.17867857
55	0x3d866d7f	0.065638535
56	0xbdd03a48	-0.10167366
57	0x3e02fd1b	0.12791865
58	0xbe1e0c78	-0.15434444
59	0xbdf242dd	-0.118291594
60	0xbe09198a	-0.13388649
61	0xbe2090f4	-0.15680295
62	0xbbcee728	-0.006314177
63	0xbd983ab4	-0.07433072
64	0xbdede08b	-0.11615094
65	0x3e0c3ceb	0.13695113
66	0x3e77edad	0.2421176
67	0xbe2815c3	-0.16414551
68	0xbcc50e0d	-0.024054551
69	0x3c14cd43	0.009082141
70	0xbe5b52f0	-0.21418357
71	0x3cd55cc8	0.026045218
72	0xbe13c6ba	-0.14431277
73	0x3db35b5e	0.08757661
74	0x3ea1d711	0.31609395
75	0xbdcac48c	-0.099007696
76	0x3e8fbd7d	0.28074256
77	0x3ea38645	0.31938377
78	0xbdb3cd48	-0.08779389
79	0x3deb0567	0.1147564
80	0x3e90b423	0.28262433
81	0x3dad460e	0.084606275
82	0xbe8c69a3	-0.27424344
83	0xbdffa8bc	-0.124833554
84	0xbe87e24e	-0.26539844
85	0x3db00c05	0.085960425
86	0x3e7b3b8e	0.24534437
87	0x3cabd3aa	0.020974953
88	0xbdcf1efe	-0.10113333
89	0x3d6798d5	0.056542236
90	0xbea5af31	-0.32360223
91	0x3da0f867	0.07859879
92	0xbea214dc	-0.3165654
93	0xbe9a10bd	-0.30090895
94	0xbe08cbbe	-0.13358971
95	0x3ca33216	0.019921344
96	0x3e219fee	0.15783665
97	0x3d99ac39	0.07503552
98	0x3e8758a2	0.2643481
99	0x3e62598e	0.22104475
100	0x3e18ee40	0.14934635
101	0xbe16b606	-0.14717874
102	0xbe3edf33	-0.18639831
103	0x3c885bb2	0.016645286
104	0xbe146d44	-0.14494807
105	0xbe42f553	-0.19038896
106	0x3e67e364	0.22645336
107	0x3e3ac2c0	0.18238354
108	0x3e8b176b	0.27166304
109	0x3db19d71	0.08672608
110	0xbcfc5ae5	-0.03080506
111	0x3df7e5d5	0.12104384
112	0xbe71f7f3	-0.23629741
113	0x3d2b1dc8	0.04177645
114	0x3e3e82c3	0.18604569
115	0x3d85ec37	0.06539195
116	0x3e1bc1b7	0.15210615
117	0xbe1d3a40	-0.15354252
118	0xbe2dda33	-0.16977768
119	0xbe186a93	-0.14884405
120	0x3dba012e	0.09082256
121	0xbd2c7579	-0.04210422
122	0x3e0de7dd	0.1385798
123	0x3e5c196f	0.21494077
124	0x3c611ccd	0.013739777
125	0xbcada37e	-0.021196123
126	0xbe9f0253	-0.3105646
127	0xbc2e7148	-0.010647126
128	0xbd9b057c	-0.075694054
129	0x3bda49dc	0.0066616368
130	0x3e05bfba	0.13061419
131	0xbe287bf3	-0.16453533
132	0xbdaef339	-0.08542485
133	0xbe1bf765	-0.15231092
134	0xbe5f5b05	-0.21812065
135	0xba972349	-0.0011530902
136	0xbc451e9f	-0.012031226
137	0xbe4e7bb2	-0.20164374
138	0xbd9ad2f8	-0.0755977
139	0x3e8bd28a	0.27309066
140	0xbdcd0d01	-0.10012246
141	0x3e899611	0.26872304
142	0xbe5ea121	-0.21741153
143	0x3dd1383b	0.10215803
144	0xbd07127c	-0.032976612
145	0xbc6cfb1c	-0.014464166
146	0x3e92b43d	0.28653136
147	0xbb439600	-0.0029844046
148	0x3e9e64b9	0.3093622
149	0xbea22c1b	-0.31674275
150	0xbdc5b727	-0.09654074
151	0xbdfe5432	-0.12418403
152	0x3dcc6f43	0.09982159
153	0x3def6b58	0.11690396
154	0xbcfd4405	-0.030916223
155	0x3e8288cd	0.25494996
156	0x3da9561e	0.08268379
157	0x3e2cfa1c	0.16892284
158	0xbe74c92f	-0.2390487
159	0xbd96b91b	-0.07359525
160	0xbe73192a	-0.23740068
161	0xbe5fb430	-0.2184608
162	0x3e5278ce	0.20553896
163	0x3d167e8d	0.036741782
164	0xbccc1a75	-0.02491496
165	0xbdcb2cc2	-0.09920646
166	0xbe77f8d0	-0.24216008
167	0xbb00ee89	-0.0019673428
168	0x3d8f1075	0.06985561
169	0xbd4866b8	-0.048926085
170	0x3e147b45	0.14500149
171	0x3d52391c	0.051323995
172	0x3e772c2c	0.24137944
173	0x3e629f92	0.22131184
174	0x3d88ff39	0.06689305
175	0xbdd9e1b3	-0.10638752
176	0x3dd5d93a	0.10441823
177	0x3e6d6d47	0.23186217
178	0xbe0498ff	-0.12948988
179	0xbe50b0d8	-0.2037996
180	0xbe16c00f	-0.14721702
181	0x3e6f8b03	0.23392873
182	0x3e630956	0.2217153
183	0x3e2a338c	0.16621226
184	0xbe4160ea	-0.18884626
185	0xbacb3118	-0.0015502302
186	0xbe9bcc63	-0.30429372
187	0x3de36c69	0.11104662
188	0xbeb12809	-0.34600857
189	0xbe526a56	-0.20548376
190	0x3d0b3b49	0.033992086
191	0x3e11db84	0.14243895
192	0xbb81c18e	-0.003959841
193	0x3e91e52d	0.2849516
194	0xbdb6725f	-0.08908533
195	0x3e51edca	0.20500866
196	0x3dc41209	0.095737524
197	0x3e04dbc6	0.12974462
198	0xbd9af035	-0.07565347
199	0xbd1af3d7	-0.0378302
200	0x3e0bf404	0.13667303
201	0x3e7baa3f	0.24576662
202	0xbe63d17b	-0.22247879
203	0x3e139f3a	0.14416209
204	0xbe9039b4	-0.28169024
205	0xbe493da2	-0.19652417
206	0x3e8b68b5	0.27228323
207	0xbdb3174c	-0.08744678
208	0x3e0af0ed	0.13568468
209	0x3e010bd1	0.12602164
210	0xbe222646	-0.15834913
211	0x3d84aca9	0.06478245
212	0xbdd0ee45	-0.10201696
213	0x3d8e7dc7	0.06957584
214	0x3e32fd2c	0.1747939
215	0x3d57e70f	0.05271059
216	0xbde2a9f9	-0.11067576
217	0xbce2e014	-0.02769474
218	0xbddb2245	-0.10699896
219	0xbe0d2245	-0.13782604
220	0xbe777b05	-0.24168022
221	0x3e25557e	0.16145894
222	0x3d81ef9e	0.063445315
223	0xbe2c995b	-0.16855375
224	0xbd84caeb	-0.06484016
225	0x3e9139ad	0.28364316
226	0xbd539f9c	-0.051665887
227	0x3c8ea971	0.01741478
228	0xbdd7bcc5	-0.10534052
229	0x3e9f9a94	0.3117262
230	0x3e04663d	0.12929626
231	0xbe475d70	-0.19469237
232	0xbde3b2b0	-0.11118066
233	0x3e71bace	0.23606417
234	0xbd9afba0	-0.07567525
235	0xbe938601	-0.28813174
236	0xbd0691c0	-0.03285384
237	0xbe8b1ad5	-0.2716891
238	0x3e63c9b6	0.22244915
239	0x3e96a59c	0.29423225
240	0x3e2cbf88	0.16869938
241	0x3e9af335	0.30263677
242	0xbe9c4007	-0.305176
243	0xbe5482ee	-0.2075307
244	0xbcf37064	-0.029716678
245	0x3e9f5d2a	0.31125766
246	0x3d9c0b03	0.07619288
247	0x3e667998	0.22507322
248	0x3db61fdf	0.08892798
249	0x3d905f45	0.07049421
250	0xbe62d6f9	-0.22152318
251	0xbe9dd025	-0.30822864
252	0xbe607a3e	-0.21921632
253	0x3d8f4755	0.069960274
254	0x3e999d15	0.30002657
255	0x3ea3e719	0.3201225

model.6.bias f4 [16]
0	0x3e459ee9	0.192989
1	0xbe68f46b	-0.22749488
2	0x3c8ac9f7	0.016942007
3	0xbdd9b97d	-0.10631082
4	0x3e2c2a9d	0.1681313
5	0x3e580243	0.21094613
6	0x3e83e8f5	0.2576367
7	0x3e4445c2	0.19167235
8	0xbcf9e79e	-0.030505951
9	0x3d18a454	0.03726609
10	0x3e601cac	0.21885937
11	0x3b10948d	0.00220612
12	0xbe1b5fb4	-0.15173227
13	0x3e4f95da	0.20272008
14	0xbe8865b3	-0.2664009
15	0x3e3798de	0.17929408

model.8.weight f4 [16, 16]
0	0xba67c799	-0.0008841693
1	0xbe5e0e36	-0.21685109
2	0x3e3aa956	0.18228659
3	0x3dd23c33	0.10265388
4	0x3dfe88bb	0.12428423
5	0xbe7cba5c	-0.24680465
6	0x3e3e6da6	0.18596515
7	0x3dbfaa4e	0.09358655
8	0x3e58e507	0.21181117
9	0xbdad5bb7	-0.08464759
10	0x3e5b7f5a	0.214353
11	0xbcfa3d52	-0.030546818
12	0xbbe7877e	-0.0070657125
13	0xbe30a256	-0.17249426
14	0xbdcb93a6	-0.09940271
15	0xbe01af38	-0.12664497
16	0x3e58f02f	0.21185373
17	0xbdf4d6bf	-0.11955022
18	0xbe236183	-0.15955167
19	0xbe883b72	-0.26607853
20	0xbe217f7b	-0.15771286
21	0x3d80d86f	0.062912814
22	0xbd1910fb	-0.03736971
23	0x3e4ba854	0.19888431
24	0xbd857626	-0.06516676
25	0x3e7cecbb	0.2469968
26	0x3e8ed56e	0.2789721
27	0xbd959af8	-0.073049486
28	0x3cd4de0a	0.025984783
29	0x3de307e4	0.110854894
30	0xbd4bc22b	-0.04974572
31	0xbe5d8c49	-0.21635546
32	0xbe26be4f	-0.16283534
33	0xbea22595	-0.31669298
34	0x3e91b996	0.28461903
35	0x3e1bf0f0	0.15228629
36	0x3e1a5a6f	0.1507356
37	0x3e291325	0.1651121
38	0x3ea16146	0.31519526
39	0x3e2aca13	0.16678648
40	0xbdcbee68	-0.09957582
41	0x3c5a32f7	0.013317815
42	0x3d6b9d61	0.057523135
43	0x3d0c5125	0.034257073
44	0xbe1cc2be	-0.15308663
45	0xbdc98b62	-0.09841038
46	0xbe58c41d	-0.21168561
47	0x3d8d66e6	0.06904392
48	0x3e16d665	0.14730223
49	0xbe18979f	-0.14901589
50	0x3e928fef	0.28625438
51	0xbe2fb968	-0.1716057
52	0x3dcac706	0.09901242
53	0xbe837d46	-0.25681514
54	0xbe1157ca	-0.14193645
55	0x3eac4c79	0.33652094
56	0x3cb7809c	0.022400193
57	0x3e3e7679	0.18599881
58	0x3dbd562e	0.09244953
59	0xbe509457	-0.20369087
60	0x3e0a0e89	0.13482107
61	0xbe597a32	-0.2123802
62	0x3dc5f003	0.09664919
63	0x3ce0904d	0.027412558
64	0x3ddacdb0	0.10683763
65	0xbe2a1711	-0.16610362
66	0x3e587a2f	0.2114036
67	0xbe580240	-0.21094608
68	0xbd62d78e	-0.05538135
69	0x3c6547e6	0.013994193
70	0xbddc746e	-0.10764395
71	0x3e0b66aa	0.13613382
72	0xbd89c3e8	-0.06726819
73	0x3d920f37	0.07131808
74	0x3e497116	0.19672045
75	0xbd2173e3	-0.03941716
76	0xbcb9bf3a	-0.022674192
77	0x3c19f868	0.009397604
78	0xbe7dbaf5	-0.2477835
79	0xbe23f135	-0.16009982
80	0xbe1de17a	-0.15418044
81	0x3de728f4	0.11287108
82	0xbe6f6fd4	-0.23382503
83	0xbd7d9ffd	-0.061920155
84	0x3d24ae3a	0.040205218
85	0x3e4a9ffa	0.19787589
86	0xbe26eeeb	-0.16302077
87	0xbc7c6c1d	-0.015406636
88	0xbcf64919	-0.030064153
89	0xbe22de2f	-0.15905069
90	0xbe78b19b	-0.24286501
91	0x3df4b7a8	0.11949092
92	0x3e4ea94d	0.2018177
93	0xbcab08a2	-0.02087814
94	0x3e64b52a	0.22334734
95	0x3e8ad9ac	0.27119195
96	0xbe000817	-0.12503086
97	0xbdecd6da	-0.11564417
98	0xbd95e48c	-0.073189825
99	0x3dd0b531	0.101908095
100	0x3d7b7cc9	0.0613983
101	0x3cf97bc9	0.030454533
102	0x3d49ca41	0.04926515
103	0x3dc0864e	0.094006166
104	0xbcc876f7	-0.02447079
105	0x3d14b67b	0.03630684
106	0xbd46192c	-0.04836385
107	0x3e14f8a9	0.14547981
108	0xbd7d21e2	-0.06179989
109	0x3ca7ada6	0.020468544
110	0xbe5003a1	-0.20313884
111	0xbde94faf	-0.113921516
112	0xbcd8e4e5	-0.026476333
113	0xbe36436a	-0.17799154
114	0xbe01e141	-0.12683584
115	0xbb778bec	-0.003777261
116	0xbded8dd0	-0.11599314
117	0x3e29dcc9	0.16588129
118	0x3d0287b9	0.031867716
119	0xbe524ca9	-0.20537056
120	0xbd57cdaa	-0.05268637
121	0xbe34bcce	-0.17650148
122	0x3dc0c9c4	0.09413484
123	0xbc2de922	-0.010614665
124	0x3e950281	0.29103473
125	0x3e01d727	0.1267973
126	0x3e0d1280	0.13776588
127	0x3e40d56a	0.18831411
128	0xbe99712c	-0.29969156
129	0x3e8e7a00	0.27827454
130	0xbe2d1bde	-0.16905162
131	0xbdcbf8fa	-0.09959598
132	0x3d17791c	0.036980733
133	0x3d6f6fb1	0.058456127
134	0x3c8e23a9	0.017350988
135	0xbba797cc	-0.005114531
136	0xbe931452	-0.2872644
137	0xbe6727fa	-0.22573844
138	0xbc9a911b	-0.01886802
139	0x3e5eec26	0.21769771
140	0xbe16aef3	-0.14715175
141	0x3c98e07f	0.018661736
142	0x3e313d0d	0.17308445
143	0x3ac23e7d	0.0014819648
144	0x3e1b1f98	0.15148771
145	0x3d6f05f4	0.058355287
146	0x3e1e64b5	0.15468104
147	0xbd30edba	-0.043195464
148	0x3e90322a	0.28163272
149	0xbe4e5221	-0.20148517
150	0x3dd50270	0.104008555
151	0x3e3d648b	0.18495385
152	0xbd984c7e	-0.07436465
153	0x3e39cb97	0.1814407
154	0x3de42621	0.11140085
155	0xbdbd7710	-0.09251225
156	0xbe7ee0a1	-0.24890377
157	0x3b9c0028	0.004760761
158	0x3c546a8c	0.012964856
159	0xbe831647	-0.25602934
160	0xbdb24dd9	-0.087062545
161	0xbd143e1d	-0.03619205
162	0xbdeeb8ba	-0.116563275
163	0xbe1d03e2	-0.15333512
164	0xbcd38cdc	-0.025824003
165	0x3d45abc9	0.04825953
166	0x3dc6935b	0.096960746
167	0x3e88025f	0.2656431
168	0xbd91899c	-0.07106325
169	0x3cd9cfc4	0.026588328
170	0xbd5d7bf1	-0.054073278
171	0x3d34484f	0.04401427
172	0x3def3617	0.11680239
173	0x3c7a5def	0.015281185
174	0xbea1d3f9	-0.31607035
175	0xbe3d40ef	-0.18481801
176	0x3e813710	0.25237322
177	0xbe084a4b	-0.1330959
178	0xbdb9a69e	-0.09064983
179	0xbe92e084	-0.28686917
180	0x3e7eda8c	0.24888057
181	0xbd8a2288	-0.067448676
182	0x3e7af549	0.24507631
183	0xbe0dd765	-0.13851698
184	0x3e742fda	0.23846379
185	0x3e441bd3	0.19151239
186	0x3e57e08c	0.21081752
187	0xbe47c81b	-0.19509928
188	0x3e17548a	0.14778343
189	0xbd253e4f	-0.040342625
190	0xbe8c4b17	-0.2740104
191	0x3d85c387	0.065314345
192	0x3dfe67a0	0.12422109
193	0x3e35c193	0.17749624
194	0x3d9b7a86	0.07591729
195	0x3db5a6c1	0.088696964
196	0xbea36590	-0.31913424
197	0x3e8f3c4e	0.27975696
198	0xbe7c926e	-0.24665233
199	0xbe41f744	-0.1894198
200	0xbeac446c	-0.33645952
201	0xbe618e8e	-0.22027037
202	0x3e02c27a	0.127695
203	0x3e7a713c	0.24457258
204	0x3ea67b32	0.32515866
205	0x3d82e939	0.0639214
206	0xbe143411	-0.14472987
207	0x3de0fbc9	0.10985524
208	0x3e314ccd	0.17314453
209	0x3c31284e	0.010812832
210	0x3e2930b7	0.1652249
211	0xbd9eeab6	-0.07759611
212	0xbde73755	-0.112898506
213	0xbe48cf9d	-0.19610448
214	0x3e4b4f3b	0.19854443
215	0xbda868ca	-0.08223112
216	0x3e13daeb	0.1443898
217	0x3ea12c5d	0.3147916
218	0xbdaafa7d	-0.08348558
219	0x3d5bf114	0.053696707
220	0xbe8b730c	-0.2723621
221	0x3db44f8b	0.08804234
222	0xbe90a077	-0.28247425
223	0xbdaf7180	-0.0856657
224	0x3e55b0c9	0.2086822
225	0x3e03136a	0.12800375
226	0x3af4fe6d	0.0018691547
227	0xbc66b3dd	-0.014080969
228	0x3d9d54a0	0.076821566
229	0xbdc71796	-0.097212955
230	0x3c95116a	0.01819678
231	0x3dfc3cd3	0.12316289
232	0x3d851925	0.064989366
233	0xbdc866b7	-0.09785216
234	0x3e4a4778	0.19753826
235	0xbe986920	-0.29767704
236	0xbdd4dfc3	-0.10394242
237	0xbe2edce8	-0.17076457
238	0xbe0e8db7	-0.13921247
239	0xbe9636bf	-0.29338643
240	0x3dc61f3e	0.09673928
241	0xbe941e11	-0.2892919
242	0x3bda843b	0.006668595
243	0xbea41081	-0.3204384
244	0x3a8b6867	0.0010635973
245	0xbd364397	-0.044498052
246	0x3dc881b0	0.09790361
247	0x3d9eed7d	0.07760141
248	0x3e92b0ee	0.28650612
249	0xbde29523	-0.11063602
250	0x3e4373b9	0.19087113
251	0xbdf5fe4a	-0.120113924
252	0xbe9b6afd	-0.30355063
253	0x3dfb2c78	0.12264341
254	0xbe37334e	-0.17890665
255	0xbe821465	-0.25406185

model.8.bias f4 [16]
0	0x3dc1d8b3	0.0946516
1	0x3df15230	0.11783254
2	0x3e91353c	0.28360927
3	0x3ddeb96a	0.10875209
4	0x3e085164	0.13312298
5	0x3db9cb66	0.09071998
6	0x3de9386d	0.113877155
7	0x3e3a07a7	0.18166982
8	0xbe8f04c3	-0.2793332
9	0xbafa86ba	-0.0019113638
10	0x3e5a7d0b	0.21336763
11	0x3e4ae4cc	0.19813842
12	0xbdc63ac1	-0.09679175
13	0x3e7ccb5d	0.24686952
14	0xbdfe292e	-0.12410198
15	0xbe1f6844	-0.15567118

model.10.weight f4 [16, 16]
0	0xbcebf4b1	-0.028803201
1	0xbe9bc0f9	-0.30420664
2	0x3dfb2662	0.1226318
3	0xbe970fdf	-0.29504296
4	0xbe918bb2	-0.28426892
5	0xbe21547e	-0.15754887
6	0x3d4d57ba	0.05013249
7	0xbe31d245	-0.17365368
8	0x3e89d7bb	0.26922402
9	0xbd7e672f	-0.062110122
10	0x3d066516	0.032811247
11	0xbe5b47c5	-0.21414097
12	0x3dab5d0b	0.08367356
13	0xbe873bc5	-0.26412788
14	0xbe80ec41	-0.25180247
15	0xbe13faa7	-0.14451085
16	0xbe4175f8	-0.18892658
17	0x3dc28120	0.09497285
18	0xbe062f5e	-0.13104007
19	0xbcb94785	-0.022617111
20	0xbe7d9007	-0.24761973
21	0x3d0e1857	0.03469118
22	0x3ca1306a	0.019676406
23	0xbd069b99	-0.032863233
24	0x3d36d52c	0.04463689
25	0xbd84b255	-0.06479327
26	0xbd4fa609	-0.050695453
27	0xbe9346ad	-0.2876486
28	0x3e08dee0	0.1336627
29	0xbd8aa3b1	-0.06769503
30	0x3dab1ecf	0.08355486
31	0x3d095a15	0.033533175
32	0x3eb3e0e8	0.35132527
33	0xbda32703	-0.07966425
34	0x3e31bf83	0.17358212
35	0x3d2e934a	0.042620935
36	0x3e3ba4a4	0.18324524
37	0xbda6b49b	-0.081399165
38	0x3ddc3eb2	0.10754146
39	0xbd3b3cd9	-0.045712326
40	0x3bca8938	0.0061809085
41	0x3c03c8c6	0.008043474
42	0x3dab2098	0.08355826
43	0x3ea4b8ad	0.32172146
44	0xbe9eb942	-0.31000715
45	0x3eb6e9a3	0.35725126
46	0x3e8ffaac	0.28120935
47	0x3d9e9177	0.07742589
48	0xbcc0ceb0	-0.023536056
49	0x3e2e62d3	0.17029886
50	0x3bdead4a	0.00679556
51	0x3e5472bd	0.20746894
52	0xbb8048e3	-0.003914939
53	0xbe8a0f57	-0.26964828
54	0xbda40f41	-0.08010722
55	0x3c02c612	0.007981794
56	0xbd0f739d	-0.035022367
57	0x3e8f0dde	0.27940267
58	0x3e78f500	0.2431221
59	0x3e11cca5	0.14238222
60	0xbea48003	-0.32128915
61	0x3d9cbc62	0.07653119
62	0xbe3e252c	-0.18568867
63	0x3e426e0b	0.1898729
64	0x3e3a8bab	0.18217342
65	0x3e1d10ad	0.15338393
66	0xbd8b9616	-0.06815736
67	0xbc900f8c	-0.017585538
68	0xbd3cd1b8	-0.04609844
69	0xbe8c6b1e	-0.27425474
70	0xbce703ef	-0.028200118
71	0xbe1813a7	-0.14851247
72	0x3c44b2db	0.012005533
73	0x3e181abe	0.14853951
74	0x3e172330	0.14759517
75	0x3e9f687e	0.3113441
76	0xbe186b66	-0.14884719
77	0x3e62885e	0.22122332
78	0xbdd3127f	-0.10306262
79	0x3d9e2ddc	0.07723591
80	0xbea1e23a	-0.3161791
81	0x3ca1bfe0	0.019744813
82	0x3da104ea	0.078622654
83	0xbea3a421	-0.31961158
84	0x3e208ce1	0.15678741
85	0x3e8f2be1	0.27963164
86	0xbe0d9967	-0.1382805
87	0x3e63cea9	0.22246803
88	0xbd5a3519	-0.053273294
89	0xbccb2678	-0.024798617
90	0xbe342c2a	-0.17594972
91	0xbd45de86	-0.048307918
92	0x3e6446f1	0.22292687
93	0xbe987378	-0.29775596
94	0x3e37ea8a	0.17960563
95	0xbe7d90e9	-0.2476231
96	0xbe20b7de	-0.1569514
97	0x3d3bfe24	0.045896664
98	0xbe823325	-0.25429645
99	0xbe954ede	-0.29161733
100	0x3e1f7c07	0.15574656
101	0x3c03521a	0.00801518
102	0x3cfdf1b2	0.030999038
103	0xbdd0a743	-0.10188153
104	0x3e93b51c	0.28849113
105	0xbddde8e0	-0.10835433
106	0x3ce9bbc6	0.02853192
107	0xbe639f7a	-0.22228804
108	0xbcc33344	-0.023828156
109	0xbe0f6349	-0.14002718
110	0xbe797ba6	-0.24363574
111	0x3d0f7831	0.035026733
112	0x3dbc22cd	0.09186325
113	0xbe0ad5cf	-0.13558124
114	0xbe8b113c	-0.27161586
115	0x3c90185c	0.01758974
116	0xbe63f67d	-0.22261997
117	0x3db79665	0.08964232
118	0xbe7510fc	-0.2393226
119	0x3bd5879c	0.00651641
120	0x3e8f7d6e	0.28025383
121	0xbc5b1179	-0.013370865
122	0x3e0eb6ea	0.13936964
123	0xbdd3075c	-0.10304138
124	0xbdabf3d8	-0.08396119
125	0xbcfdab92	-0.0309656
126	0xbe0cd8fd	-0.1375465
127	0x3e08201f	0.13293503
128	0x3e8ee9fa	0.27912885
129	0x3e3dab84	0.1852246
130	0x3e0b664f	0.13613246
131	0x3e6f8308	0.23389828
132	0x3e4555bf	0.19270991
133	0x3c80b342	0.015710477
134	0xbc8e3d41	-0.017363193
135	0xbe4ddfc0	-0.20104885
136	0xbe5476a7	-0.20748387
137	0xbd061e6c	-0.032743856
138	0xbdf255ed	-0.11832795
139	0xbe201d70	-0.1563623
140	0xbe909617	-0.2823951
141	0x3e146990	0.14493394
142	0x3e439d0b	0.19102876
143	0xbd1d581b	-0.038414102
144	0x3d831e36	0.06402247
145	0xbc7a468b	-0.015275608
146	0x3e8398f3	0.25702628
147	0x3e16a3eb	0.14710967
148	0x3e1530d5	0.14569409
149	0xbdd979d3	-0.10618939
150	0xbd0e80cc	-0.0347908
151	0xbe5a2f78	-0.2130717
152	0xbe5f542d	-0.21809454
153	0x3e0acac6	0.13553914
154	0x3d7ebf6e	0.06219428
155	0x3e17b8f2	0.14816645
156	0xbe8f78f3	-0.28021964
157	0x3d1e03af	0.03857773
158	0xbda1543f	-0.07877397
159	0x3df75fe8	0.120788395
160	0x3e487dcc	0.19579238
161	0xbdb8fb4f	-0.09032308
162	0x3dd554f3	0.104165934
163	0x3d63243c	0.055454478
164	0x3e290b7d	0.16508289
165	0xbeaa536f	-0.3326678
166	0x3ded6cd5	0.11593024
167	0xbdc2b688	-0.09507471
168	0xbe36b27a	-0.17841521
169	0x3ce6950f	0.028147249
170	0x3d014534	0.031560138
171	0x3e85b5b9	0.26115206
172	0x3d94771e	0.07249282
173	0xbdd91852	-0.10600342
174	0x3df03031	0.11727942
175	0x3e9618a2	0.29315668
176	0xbdc7d400	-0.09757233
177	0xbe2839a9	-0.16428246
178	0xbe4e92e1	-0.20173217
179	0x3e11941b	0.14216654
180	0xbe4229ab	-0.18961208
181	0x3e8aeec2	0.27135283
182	0xbe30998d	-0.17246075
183	0xbdda3eab	-0.10656484
184	0xbd80dcb8	-0.06292099
185	0xbe99a508	-0.3000872
186	0xbe7dced9	-0.24785937
187	0x3d34b8f9	0.044121716
188	0x3e1dbe66	0.15404662
189	0xbe811591	-0.25211766
190	0xbe895ef1	-0.26830247
191	0x3d5499ac	0.051904365
192	0xbe9c0839	-0.30475023
193	0x3d9d18d6	0.07670753
194	0x3cf06cfe	0.029348847
195	0xbd85cf6f	-0.065337054
196	0x3dd9fb05	0.10643581
197	0x3e800e68	0.2501099
198	0xbe55054a	-0.20802799
199	0x3e048ded	0.12944765
200	0x3e86cb31	0.26326898
201	0x3d351fea	0.04421989
202	0x3db7fa08	0.089832366
203	0xbe173653	-0.14766817
204	0x3d172aeb	0.036906164
205	0xbe9af509	-0.30265072
206	0x3db9c48d	0.09070692
207	0xbe85f8de	-0.26166433
208	0x3e868288	0.26271462
209	0x3dc24bca	0.09487112
210	0x3df54cc8	0.119775355
211	0x3e97b963	0.29633626
212	0xbd1cd08f	-0.038284834
213	0x3da1751b	0.07883664
214	0xbe3ae7fa	-0.18252555
215	0x3db04ec1	0.08608771
216	0xbe8260db	-0.2546452
217	0x3e01a5db	0.12660925
218	0x3e470c95	0.19438393
219	0x3e8a6200	0.27027893
220	0x3d119b73	0.03554864
221	0x3d8c70ff	0.0685749
222	0x3e05280f	0.13003562
223	0x3e952c49	0.2913535
224	0x3e892e18	0.2679298
225	0x3e0db4cf	0.13838504
226	0x3e8fae10	0.28062487
227	0xbdeb593a	-0.11491628
228	0xbe1d67aa	-0.15371576
229	0xbe2f6808	-0.17129529
230	0xbe219087	-0.15777789
231	0xbe19b6fe	-0.15011212
232	0x3e37e351	0.17957808
233	0x3e1f61da	0.15564671
234	0x3e07126d	0.13190623
235	0xbc2ad01c	-0.010425594
236	0xbd60221c	-0.05472003
237	0x3dcfa857	0.1013953
238	0x3e794b1d	0.2434506
239	0x3e8697a1	0.2628756
240	0x3e19644e	0.1497967
241	0x3e3e2466	0.18568572
242	0xbe319bad	-0.17344542
243	0x3c1e776b	0.009672026
244	0x3d93b561	0.0721233
245	0xbe204c15	-0.15654023
246	0xbe31497b	-0.17313187
247	0xbe06325d	-0.1310515
248	0xbdb784d2	-0.0896088
249	0x3c8f9ae5	0.017529914
250	0xbe44711b	-0.19183771
251	0xbdea75af	-0.114482276
252	0xbe9e5c4e	-0.30929798
253	0x3e1df28f	0.1542456
254	0xbdc238b1	-0.09483469
255	0xbd944185	-0.07239059

model.10.bias f4 [16]
0	0xbd6f09fa	-0.058359124
1	0xbd8c9d62	-0.06865956
2	0xbe204832	-0.1565254
3	0x3df00a85	0.117207564
4	0xbc497a0a	-0.012297163
5	0xbc911488	-0.017709985
6	0xbe8c6112	-0.2741781
7	0xbdb447d5	-0.088027634
8	0xbe514720	-0.20437288
9	0x3e3a553c	0.18196577
10	0xbe26ede0	-0.1630168
11	0x3c8a40d0	0.016876608
12	0xbd0bfaef	-0.034174856
13	0x3e23a28b	0.15979974
14	0x3da90783	0.08253386
15	0xbda6136b	-0.081091724

model.12.weight f4 [16, 16]
0	0x3bf13640	0.0073612034
1	0xbafe741c	-0.0019413265
2	0xbe28a8b5	-0.16470607
3	0xbdef881b	-0.11695882
4	0xbb8eb7fb	-0.0043554283
5	0xbe473f37	-0.19457708
6	0x3d61fa3b	0.05517028
7	0xbe4e0141	-0.20117666
8	0xbe1c8cc0	-0.15288067
9	0xbe435196	-0.19074091
10	0xbe00d001	-0.12579347
11	0x3e49fe8b	0.19726007
12	0x3c98768e	0.018611219
13	0x3e2e7a2f	0.17038797
14	0xbda3f39e	-0.08005451
15	0x3bd9afb8	0.0066432618
16	0x3dfbbf85	0.12292389
17	0xbdc83734	-0.09776154
18	0xbeadb303	-0.33925638
19	0xbda435f1	-0.08018101
20	0xbe173948	-0.14767945
21	0x3df7f436	0.121071264
22	0x3ea0ce11	0.31407216
23	0x3e306250	0.17225003
24	0xbdeeba0b	-0.11656579
25	0xbe099a06	-0.13437662
26	0xbeafbb4a	-0.34322578
27	0xbd758e50	-0.059950173
28	0xbdce516a	-0.10074122
29	0xbe67bb43	-0.22630028
30	0xbe3ab7b2	-0.18234137
31	0xbe40e5de	-0.18837687
32	0xbcb0ee2e	-0.021597948
33	0x3e403336	0.18769535
34	0xbdd5e137	-0.10443347
35	0x3dc41948	0.095751345
36	0x3d28e107	0.041230228
37	0x3e93a29f	0.28835008
38	0x3db12e57	0.08651417
39	0xbdb93066	-0.090424344
40	0xbe8445cd	-0.25834504
41	0xbe3b1a7f	-0.18271826
42	0x3d18bee4	0.037291422
43	0x3ea0a05f	0.31372353
44	0x3dd1eb97	0.10250013
45	0xbd983740	-0.07432413
46	0xbeb920da	-0.36157876
47	0x3e2627ae	0.16226074
48	0x3d888b0b	0.06667145
49	0xbdc1307d	-0.094330765
50	0xbc2d4722	-0.010576041
51	0xbddb9392	-0.10721506
52	0x3dc79167	0.0974453
53	0x3e41fdd9	0.18944491
54	0x3e3ffe11	0.18749262
55	0xbda231b1	-0.07919634
56	0x3db6b80c	0.08921823
57	0x3e94ec05	0.2908632
58	0xbe2858e8	-0.16440165
59	0x3da3232f	0.07965695
60	0xbe955ee4	-0.29173958
61	0xbe23f4cb	-0.1601135
62	0x3dc7dad3	0.09758534
63	0xbdb07d8c	-0.08617696
64	0x3dc25cdb	0.09490367
65	0xbe26abd3	-0.16276483
66	0x3cb581dd	0.02215665
67	0x3de17f3c	0.11010596
68	0xbe54538e	-0.20734999
69	0x3e44d966	0.19223556
70	0x3d7dbeca	0.06194953
71	0x3e6501ed	0.22364016
72	0x3e6277b6	0.22115979
73	0xbe042415	-0.12904389
74	0xbe79a05e	-0.24377581
75	0x3eac0786	0.3359949
76	0x3e8381fd	0.2568511
77	0xbe54a4a1	-0.20765926
78	0xbea97605	-0.33097854
79	0x3e8700bd	0.2636775
80	0xbe2ae2e0	-0.16688108
81	0x3ca858fd	0.020550245
82	0xbdc2d341	-0.0951295
83	0x3ea48914	0.32135832
84	0xbb67ea8b	-0.0035387601
85	0xbea05c98	-0.31320643
86	0xbe8b19a9	-0.27168015
87	0x3e04376d	0.12911768
88	0xbdf320bd	-0.11871479
89	0x3ddf32d5	0.10898367
90	0x3e7cf2ac	0.24701947
91	0xbe77db00	-0.24204636
92	0x3dcb97a9	0.09941036
93	0x3e266d10	0.16252542
94	0x3dd41ad5	0.1035668
95	0x3e5de33b	0.21668713
96	0xbea2daab	-0.31807455
97	0xbeb32f37	-0.3499696
98	0x3e3f502e	0.1868293
99	0x3deecccb	0.11660155
100	0x3d31f087	0.043442275
101	0xbeac9c50	-0.33713007
102	0xbe50b632	-0.20382002
103	0xbe937ba2	-0.28805262
104	0x3da0238c	0.0781928
105	0x3e3ca586	0.18422517
106	0x3c647954	0.0139449425
107	0xbea16fd3	-0.31530628
108	0xbd75be03	-0.059995662
109	0x3e6630ef	0.22479604
110	0x3d09d8ec	0.03365414
111	0xbc3b904d	-0.011447978
112	0xbe0f99e1	-0.14023544
113	0x3d96ce8d	0.07363615
114	0xbe3d5dc6	-0.18492803
115	0xbe83bad1	-0.25728467
116	0xbe5798fe	-0.21054456
117	0xbce158cf	-0.027508168
118	0x3e711093	0.23541479
119	0xbe391786	-0.1807538
120	0xbe816fa4	-0.25280488
121	0x3d56f1fd	0.05247687
122	0xbe0f9c44	-0.14024454
123	0x3cbc7bc2	0.023008231
124	0x3ea4994a	0.321482
125	0xbe35af10	-0.17742562
126	0xbe915698	-0.28386378
127	0xbe01b446	-0.12666425
128	0xbeabac04	-0.33529675
129	0xbe08f1d0	-0.13373494
130	0x3e8e1683	0.2775155
131	0x3ea6eda5	0.32603183
132	0xbe02b137	-0.12762915
133	0xbddee2e9	-0.108831234
134	0xbd4fcf0c	-0.050734565
135	0xbde9e1d8	-0.114200294
136	0x3df52af0	0.1197108
137	0x3d2f6259	0.0428184
138	0xbd686f74	-0.056746915
139	0xbc98b493	-0.018640792
140	0x3dfe3923	0.12413242
141	0x3e5e98da	0.21737996
142	0xbdc626fa	-0.09675403
143	0x3e2b92fa	0.16755286
144	0x3ce8c793	0.028415477
145	0xbe823ac4	-0.2543546
146	0xbe1b2fb4	-0.15154916
147	0x3e4d44de	0.20045802
148	0x3e31d84d	0.17367668
149	0x3df313e3	0.118690275
150	0xbd3fa85f	-0.04679143
151	0xbe9341b9	-0.2876108
152	0x3e4ba2df	0.19886349
153	0x3d997d3a	0.07494588
154	0xbdb7d952	-0.089769974
155	0xbea313ca	-0.31851035
156	0x3c9bc8d0	0.019016653
157	0x3e9922e9	0.29909447
158	0x3ea40bd4	0.32040274
159	0x3e14f4e9	0.14546551
160	0x3e2867cf	0.1644585
161	0x3d3c1be6	0.045925044
162	0x3d75819a	0.05993805
163	0xbe1a7968	-0.15085375
164	0x3cd60e8c	0.026129983
165	0x3e5b6cf6	0.21428284
166	0x3e92a471	0.28641084
167	0x3e00b2c0	0.12568188
168	0xbdd78014	-0.10522476
169	0xbe74f5d8	-0.23921907
170	0xbe517fbf	-0.20458888
171	0x3d43b8c5	0.04778363
172	0x3e797242	0.24359992
173	0x3e13e7eb	0.14443938
174	0xbe0e8a62	-0.13919976
175	0xbe12078b	-0.1426069
176	0xbdb58716	-0.08863656
177	0xbe3da0ad	-0.18518324
178	0x3e986e3c	0.29771602
179	0x3bfe87aa	0.0077676373
180	0x3e81e0a9	0.25366715
181	0xbe8d0ae3	-0.27547368
182	0xbe8a2464	-0.2698089
183	0x3da7c047	0.08190971
184	0xbde7b700	-0.11314201
185	0x3e67bbd4	0.22630244
186	0x3cedd5d0	0.029032618
187	0xbe29f778	-0.16598308
188	0x3d1b3d80	0.037900448
189	0x3e43e8d9	0.19131793
190	0x3d985235	0.07437555
191	0x3d02047a	0.03174255
192	0xbe975d48	-0.29563355
193	0x3e1fa1c7	0.15589057
194	0x3e45cbb6	0.19315991
195	0x3dba2777	0.090895586
196	0x3e99ecf4	0.30063593
197	0xbe3d4fe8	-0.18487513
198	0x3dabde43	0.083920024
199	0xbe7b206c	-0.24524087
200	0x3e120afe	0.14262006
201	0xbd930f27	-0.071806245
202	0x3df7e285	0.12103752
203	0xbe72ef2c	-0.2372405
204	0xbe60b1c6	-0.21942815
205	0x3d85abd5	0.06526915
206	0x3ea18754	0.3154856
207	0x3e49b3d5	0.19697507
208	0x3e5c249c	0.2149834
209	0xbd779429	-0.06044403
210	0xbea42236	-0.3205735
211	0xbdf7f908	-0.12108046
212	0xbe1f832a	-0.15577379
213	0x3e046825	0.12930353
214	0xbd7b0c61	-0.061291102
215	0x3e69b5db	0.22823279
216	0xbde3771c	-0.11106703
217	0x3e0ea97a	0.13931838
218	0xbe023b1e	-0.12717864
219	0xbdf2382c	-0.1182712
220	0x3e9fb95b	0.31196102
221	0xbd986293	-0.074406765
222	0xbe9f8754	-0.31157935
223	0xbe47a353	-0.19495897
224	0xbe1da85c	-0.15396255
225	0x3dcbbb35	0.09947816
226	0x3e48a5ba	0.1959447
227	0xbb8de700	-0.004330516
228	0x3eb4b141	0.35291484
229	0x3db4d0b8	0.088288724
230	0xbe9def62	-0.30846697
231	0xbe190b34	-0.1494568
232	0xbd7f7a0c	-0.062372252
233	0x3eb282cb	0.34865412
234	0x3e31ffbb	0.1738271
235	0xbeba10c7	-0.36340925
236	0x3b21683d	0.0024628781
237	0xbe032709	-0.1280786
238	0x3eaf9d76	0.3429982
239	0x3e499bd1	0.19688345
240	0x3e87abbc	0.2649821
241	0x3e9d4dd8	0.30723453
242	0xbdff88e0	-0.12477279
243	0xbe80e49a	-0.2517441
244	0xbe5df04c	-0.21673697
245	0x3da9427d	0.08264635
246	0x3e7904cc	0.24318236
247	0x3e564bab	0.20927303
248	0xbe612a40	-0.21988773
249	0x3e29a989	0.16568579
250	0x3e0d909b	0.13824694
251	0x3d6ef563	0.058339488
252	0x3e525ada	0.2054247
253	0xbe98e6c1	-0.2986355
254	0x3dfc0e0c	0.12307367
255	0x3e269106	0.1626626

model.12.bias f4 [16]
0	0xbe307b93	-0.1723464
1	0xbe11cba5	-0.1423784
2	0x3e1253dc	0.14289802
3	0x3cd1fbe1	0.0256328
4	0xbe5586b0	-0.2085216
5	0x3e5dcea2	0.21660855
6	0xbe3a8b40	-0.18217182
7	0xbe0f83bd	-0.14015098
8	0x3e07710c	0.13226718
9	0x3e63baa0	0.2223916
10	0xbd909cd7	-0.07061165
11	0x3e7af963	0.24509196
12	0x3de5fff0	0.11230457
13	0xbdc143f0	-0.09436786
14	0x3e2970f9	0.16547002
15	0x3cb37c32	0.021909807

model.14.weight f4 [1, 16]
0	0x3d22a55c	0.03970848
1	0x3e3b9b2c	0.18320912
2	0x3e43972d	0.19100638
3	0xbc3d17b6	-0.011541298
4	0x3e995c39	0.29953173
5	0xbe588516	-0.21144518
6	0xbe372ad5	-0.17887433
7	0x3e938774	0.2881428
8	0xbe99700c	-0.29968297
9	0xbea8b97a	-0.32954007
10	0x3ebe1302	0.37123877
11	0xbea8211c	-0.3283776
12	0xbe5b279e	-0.21401832
13	0x3e8fa580	0.28055954
14	0xbdf597c8	-0.119918406
15	0x3e845050	0.25842524
