NeuralGalerkin/models/autosave/Gen_2_Loss_7.9e-07.pt (torch, 471051 bytes, 15 tensors)

model.0.weight f4 [10, 2]
0	0x3ed91e9a	0.4240616
1	0x3f231f4f	0.6371965
2	0xbe942679	-0.28935602
3	0xbf24aaa5	-0.6432288
4	0xbee75927	-0.45185205
5	0x3f105013	0.56372184
6	0xbef2ac1c	-0.47396934
7	0x3f2f87e1	0.6856671
8	0xbe83e5b5	-0.2576119
9	0xbf017ee8	-0.5058427
10	0xbf114dc1	-0.5675927
11	0x3e65d369	0.22443928
12	0x3f246e7b	0.6423108
13	0x3f3d9b87	0.7406544
14	0xbe539bf0	-0.20664954
15	0xbf3ae84d	-0.7301071
16	0xbefbc9af	-0.4917731
17	0xbf82d613	-1.022158
18	0xbf170dbf	-0.5900535
19	0x3ebc3d38	0.36765456

model.0.bias f4 [10]
0	0xbe7632e8	-0.24042857
1	0x3f0aa086	0.5415119
2	0xbebbcae9	-0.36678246
3	0xbeefa666	-0.4680664
4	0x3e359d75	0.17735846
5	0x3f2133a1	0.62969404
6	0xbe3b04d0	-0.18263555
7	0x3ebc4c18	0.36776805
8	0x3e8d18b2	0.27557904
9	0x3f082fa3	0.5319769

model.2.weight f4 [10, 10]
0	0xbf34f281	-0.7068253
1	0x3f39b879	0.7254711
2	0xbeb0c693	-0.345265
3	0xbf289dd0	-0.658658
4	0x3f55a64a	0.8345686
5	0xbe2740ef	-0.16333364
6	0xbf6d47a5	-0.92687446
7	0x3f70789c	0.93934035
8	0x3f853e94	1.0409722
9	0xbe44cd71	-0.19218995
10	0xbe227f3e	-0.15868852
11	0x3e28bdd9	0.16478671
12	0xbea56592	-0.32304054
13	0xbdbff157	-0.09372204
14	0xbe01ee15	-0.12688477
15	0x3dc001ba	0.09375329
16	0x3cfbe158	0.0307471
17	0x3c775192	0.0150951315
18	0x3e690001	0.22753908
19	0xbe1672ba	-0.14692202
20	0xbedfd27f	-0.43715283
21	0x3ef76e90	0.4832654
22	0xbdd8d243	-0.10586979
23	0xbe54f77e	-0.20797536
24	0x3dbc8101	0.09204293
25	0xbe3fe966	-0.18741378
26	0xbe4c4b3c	-0.19950575
27	0x3dad9046	0.084747836
28	0x3e4abe47	0.19799148
29	0x3de6d108	0.11270338
30	0x3e41c165	0.1892143
31	0xbc8995fd	-0.016795153
32	0xbd90962d	-0.07059894
33	0x3e189542	0.14900687
34	0x3e018af4	0.12650663
35	0x3cf761db	0.030198028
36	0xbe40d2ee	-0.18830463
37	0xbd2be531	-0.04196662
38	0x3e0272f8	0.1273917
39	0x3e40eacf	0.18839572
40	0xbdf7f087	-0.12106424
41	0x3efc53c8	0.4928267
42	0x3d3ae673	0.04562993
43	0x3e28c55b	0.16481535
44	0x3ec7ae17	0.39000008
45	0xbd799c16	-0.06093987
46	0xbd9cde4b	-0.076595865
47	0x3ed234f9	0.4105604
48	0xbd9267f1	-0.071487315
49	0xbd870872	-0.06593408
50	0xbdd0d863	-0.101975225
51	0xbeb3514e	-0.35022968
52	0x3f170fa5	0.59008247
53	0x3e7163be	0.23573205
54	0xbe9bfe2c	-0.30467355
55	0xbef0096e	-0.46882194
56	0x3e5f67dc	0.21816963
57	0xbe854511	-0.26029256
58	0xbeb700ff	-0.35742947
59	0x3d82f842	0.06395008
60	0xbedcf828	-0.43158078
61	0x3f030cd7	0.5119147
62	0xbe65240d	-0.22377034
63	0xbdaece4a	-0.0853544
64	0x3ea4e02a	0.32202274
65	0x3f0ff400	0.5623169
66	0xbd747c04	-0.059688583
67	0x3ee7a9ad	0.4524664
68	0x3e1364e3	0.14393954
69	0x3d206da8	0.039167076
70	0x3d18c9fe	0.03730201
71	0xbf31c7af	-0.6944532
72	0x3eb12804	0.34600842
73	0xbca2a4d9	-0.019853996
74	0xbef61aec	-0.48067415
75	0xbe81cf75	-0.2535359
76	0x3ec31a8a	0.38106185
77	0xbc850acf	-0.016240506
78	0xbe309cfe	-0.17247388
79	0xbeecf8b8	-0.46283507
80	0xbee25eac	-0.44212854
81	0x3edd90d4	0.43274558
82	0xbe9f70b6	-0.3114068
83	0xbe4190d0	-0.18902898
84	0x3f063aca	0.52433455
85	0xbeac58b3	-0.33661422
86	0xbe97268b	-0.29521593
87	0x3c7ed927	0.015554703
88	0x3ed45663	0.41472158
89	0xbf0c44c7	-0.54792446
90	0xbdddffe5	-0.10839824
91	0x3f130f5b	0.57445306
92	0xbcd98943	-0.02655471
93	0x3e48cb77	0.19608866
94	0x3e1ef250	0.15522122
95	0x3d709927	0.058739807
96	0x3d3b7906	0.045769714
97	0x3e501e48	0.20324051
98	0x3ecd9be6	0.40158004
99	0xba886845	-0.0010407051

model.2.bias f4 [10]
0	0x3c06d207	0.008228785
1	0x3e10c084	0.14135939
2	0xbe9d4fba	-0.3072489
3	0xbe26f3d8	-0.16303957
4	0x3c93b841	0.018032195
5	0xbe951dfb	-0.29124436
6	0x3e247e6e	0.16063854
7	0xbd1cc688	-0.03827527
8	0xbed30d5e	-0.41221136
9	0xbe800c53	-0.25009403

model.4.weight f4 [10, 10]
0	0x3f20922d	0.62723047
1	0x3e85dabf	0.26143453
2	0x3edb8d61	0.428813
3	0x3ddb06e6	0.10694675
4	0xbd199726	-0.037497662
5	0x3de74431	0.11292303
6	0x3e972d99	0.29526976
7	0xbcac0f0b	-0.021003267
8	0x3e0e3e12	0.13890865
9	0x3eddb9cc	0.43305814
10	0xbe5e4e6a	-0.217096
11	0xbe1f5c34	-0.15562516
12	0x3eb3b687	0.35100195
13	0x3ed2220b	0.41041598
14	0x3e6bfcb0	0.23045611
15	0x3dd4365f	0.10361933
16	0xbdad9256	-0.08475177
17	0xbd1543b1	-0.03644151
18	0xbe214db9	-0.15752305
19	0x3e54a2b9	0.20765199
20	0xbe9e5046	-0.3092062
21	0x3e4e6380	0.20155144
22	0xbf140153	-0.5781452
23	0xbe5566fc	-0.20840067
24	0xbe14673b	-0.14492504
25	0xbefc85f6	-0.49320954
26	0x3bb97887	0.00566012
27	0xbe040200	-0.12891388
28	0xbf8fe0a6	-1.1240432
29	0xbe3187be	-0.17336938
30	0x3dbd57bf	0.09245252
31	0x3e0d31d7	0.13788544
32	0xbe86291d	-0.26203242
33	0x3e59d1f2	0.21271494
34	0xbe88f8ef	-0.2675242
35	0x3e121392	0.14265278
36	0xbeaae2ce	-0.33376163
37	0x3ec9e3d4	0.39431632
38	0x3e84d9eb	0.25947508
39	0xbef5f0b6	-0.4803521
40	0xbf26a7f6	-0.6510004
41	0x3dbfd062	0.09365918
42	0xbf153dbb	-0.5829732
43	0xbe1b8018	-0.15185583
44	0xbd88a23c	-0.06671569
45	0x3e844605	0.2583467
46	0xbe047a34	-0.12937242
47	0x3e1442c5	0.14478596
48	0xbe46313a	-0.19354716
49	0xbeac1a74	-0.33613932
50	0x3e0bdf9b	0.13659517
51	0xbe4865af	-0.19570039
52	0x3d5e3ff6	0.054260217
53	0xbe792872	-0.24331835
54	0x3e7b746e	0.24556133
55	0xbcd329e1	-0.025776805
56	0x3ceb093a	0.028690923
57	0xbe2d45ac	-0.16921109
58	0x3ed14b13	0.4087759
59	0x3ed24d07	0.41074392
60	0x3e6eeb22	0.23331884
61	0xbe5961e0	-0.21228743
62	0x3dc43780	0.09580898
63	0xbbc91daa	-0.0061375694
64	0x3dbe34aa	0.092873886
65	0xbeb75426	-0.35806388
66	0x3d9bb776	0.07603352
67	0x3cd9ac35	0.026571373
68	0x3eb76f2e	0.3582701
69	0xbcd62035	-0.026138404
70	0x3cc214d6	0.023691576
71	0xbea98863	-0.33111867
72	0xbe123be7	-0.14280663
73	0x3c13eb30	0.009028241
74	0x3de42ce2	0.11141373
75	0x3e668a31	0.22513653
76	0xbe838f8d	-0.25695458
77	0x3f0995c0	0.53744125
78	0x3e6bf20c	0.23041552
79	0x3e963d83	0.29343805
80	0xbf42be1a	-0.7607132
81	0xbe9fad3c	-0.31186855
82	0xbf0c6693	-0.54844016
83	0xbe4b65f2	-0.19863108
84	0xbe62f52d	-0.2216384
85	0x3e90f66f	0.28313014
86	0xbec5ae76	-0.38609666
87	0x3ecc2059	0.3986843
88	0xbe87ce12	-0.26524407
89	0xbf1e1717	-0.6175398
90	0xbedebe44	-0.43504536
91	0xbe895c15	-0.26828066
92	0xbede9c6f	-0.43478724
93	0xbe17349f	-0.14766167
94	0xbeab06bf	-0.33403584
95	0x3eca829a	0.39552766
96	0x3d466ef0	0.048445642
97	0x3d80ae86	0.06283288
98	0xbd1c9815	-0.038230974
99	0xbe5124c0	-0.20424175

model.4.bias f4 [10]
0	0x3d5f7f51	0.054564778
1	0xbe803254	-0.25038397
2	0x3eab6bb8	0.3348062
3	0xbe4de1a6	-0.2010561
4	0x3e75cebe	0.24004647
5	0xbe5b7e18	-0.2143482
6	0xbd4f68d2	-0.050637074
7	0x3bc3212e	0.005954883
8	0x3db557ee	0.08854662
9	0xbe714d97	-0.23564754

model.6.weight f4 [10, 10]
0	0xbdff1903	-0.124559425
1	0xbdffd3b4	-0.12491551
2	0xbcfc9760	-0.0308339
3	0x3e157dfa	0.14598837
4	0x3e5e5e55	0.21715672
5	0xbef9419d	-0.4868287
6	0xbec1950c	-0.37809026
7	0x3e97655e	0.29569525
8	0x3ef7f8a0	0.48431873
9	0x3e3e58fb	0.18588631
10	0x3fc961a6	1.5732925
11	0xbf0a6f81	-0.5407639
12	0x3e4079f7	0.18796526
13	0xbfe9e5b7	-1.8273228
14	0xbf94219f	-1.157276
15	0x3ef8c30d	0.48586312
16	0x3fb9db22	1.4519999
17	0xbf94e352	-1.1631873
18	0xc008626c	-2.1310072
19	0xc039992e	-2.8999743
20	0xbea4b1f4	-0.32167017
21	0xbeaa8cf8	-0.33310676
22	0xbe8146c1	-0.25249293
23	0x3f07d197	0.53054184
24	0xbec9a9d2	-0.39387375
25	0x3d7d5051	0.061844174
26	0xbd895933	-0.067064665
27	0x3e201781	0.15633966
28	0xbe2b04b9	-0.1670102
29	0xbced101f	-0.028938351
30	0x3e670b13	0.22562818
31	0xbe18fb81	-0.14939691
32	0x3de7dfa5	0.11321954
33	0xbf374e02	-0.71603405
34	0xbedba7f9	-0.4290159
35	0x3e24efeb	0.16107146
36	0x3dc6ab4a	0.097006395
37	0xbe1eb564	-0.15498883
38	0xbeb0f4e2	-0.3456183
39	0xbebffe60	-0.3749876
40	0xbdb96165	-0.0905178
41	0xbe113ee7	-0.14184152
42	0x3e24e264	0.16101986
43	0xbf155264	-0.58328843
44	0x3e991413	0.29898128
45	0x3d8839c7	0.06651645
46	0x3bc3af5b	0.0059718317
47	0xbebc7e52	-0.36815125
48	0xbe0597f5	-0.13046248
49	0xbe9a8815	-0.30181947
50	0x3ce75e8a	0.028243322
51	0xbe94ef89	-0.29089
52	0x3eeb50d5	0.45960107
53	0xbedc7019	-0.43054274
54	0xbdd28681	-0.10279561
55	0xbf10d7f8	-0.5657954
56	0xbed61216	-0.41810673
57	0x3ea19a7e	0.3156318
58	0x3e8774e3	0.26456365
59	0x3ef37a87	0.47554418
60	0xbee5b839	-0.44867113
61	0xbe97a913	-0.2962118
62	0xbd9c253d	-0.0762429
63	0x3f8650a1	1.0493356
64	0x3ea2410d	0.31690255
65	0xbe9ac111	-0.30225423
66	0xbf24e3f5	-0.64410335
67	0xbcfad065	-0.030616948
68	0x3eacea09	0.33772305
69	0x3f4f7f46	0.8105358
70	0x3ce9485c	0.028476886
71	0xbcaaf231	-0.020867439
72	0xbeaa77b5	-0.33294454
73	0x3e00b4fb	0.12569039
74	0xbe2a6316	-0.16639361
75	0x3da7fab7	0.08202117
76	0x3cd2a997	0.025715632
77	0x3e11e3d1	0.14247061
78	0xbeb397d5	-0.35076776
79	0x3cab6f52	0.020927105
80	0xbeb8923e	-0.36049074
81	0x3ee063b9	0.43826082
82	0x3e265fdf	0.1624751
83	0xbf0997d5	-0.537473
84	0x3e8bc15c	0.2729596
85	0xbe9c482a	-0.30523807
86	0xbe397558	-0.1811117
87	0xbe52c55e	-0.20583102
88	0x3e0e8042	0.13916114
89	0x3dfa6546	0.122263476
90	0x3e67def6	0.22643647
91	0xbde2307c	-0.11044404
92	0x3e3cdff1	0.18444802
93	0x3e50065f	0.2031493
94	0xbe256c4e	-0.16154596
95	0x3e905c77	0.28195545
96	0x3e51e18c	0.20496196
97	0xbc0d14e5	-0.008610939
98	0x3e91e490	0.28494692
99	0xbcaaa62d	-0.020831192

model.6.bias f4 [10]
0	0xbd90fce9	-0.07079489
1	0x3f47e5d3	0.7808506
2	0xbcab8b0d	-0.020940328
3	0xbe070215	-0.13184388
4	0x3ea3fb0e	0.32027477
5	0x3da3d9fc	0.080005616
6	0xbe225b1c	-0.15855068
7	0x3e0e7397	0.13911282
8	0xbd60c877	-0.05487868
9	0x3ed7d64e	0.4215569

model.8.weight f4 [10, 10]
0	0x3d65a235	0.056062896
1	0xbe411275	-0.18854697
2	0xbdabe042	-0.08392383
3	0xbe55d05b	-0.20880263
4	0x3ecbe9a8	0.39826703
5	0x3ec0df81	0.3767052
6	0xbd5a2738	-0.05326006
7	0xbee137c1	-0.4398785
8	0x3ec68d7a	0.38779813
9	0x3d86df69	0.06585581
10	0x3d6cde6c	0.057829306
11	0x3e5236f6	0.20528778
12	0x3e6048af	0.21902727
13	0x3c3644ec	0.011124831
14	0xbef1c048	-0.4721701
15	0xbe0595cc	-0.13045424
16	0x3eede695	0.46464983
17	0x3e90b775	0.28264967
18	0xbbcdd017	-0.0062809098
19	0x3cde5bc0	0.02714336
20	0xbe14f806	-0.14547738
21	0x3e3efe50	0.186517
22	0xbe22dd95	-0.1590484
23	0x3e7cbd33	0.24681549
24	0x3e6046e2	0.2190204
25	0x3eb17d64	0.34665978
26	0xbebd2cf1	-0.3694835
27	0xbe8a19ee	-0.26972908
28	0x3c490ea9	0.012271562
29	0xbd41a569	-0.047276888
30	0x3f031a36	0.5121187
31	0xbf30ac2d	-0.6901272
32	0xbe306e5e	-0.17229602
33	0xbe865149	-0.2623389
34	0xbdee1339	-0.1162476
35	0x3ef8b632	0.48576504
36	0x3c8bf188	0.017082945
37	0xbe2b3bd0	-0.16722035
38	0x3eecaf41	0.46227458
39	0xbec77d49	-0.38962772
40	0x3d9b4a1f	0.07582497
41	0x3cd86789	0.026416557
42	0x3e99f2dc	0.300681
43	0xbe0a8ab8	-0.1352948
44	0xbebc89e6	-0.36823958
45	0xbea77748	-0.32708192
46	0x3ed4f823	0.41595563
47	0xbd959462	-0.073036924
48	0xbe63d019	-0.22247352
49	0x3e9764ae	0.29569
50	0xbeb3d7a3	-0.35125455
51	0x3ed44569	0.41459206
52	0x3e9361d9	0.2878559
53	0x3ea58f6d	0.32335988
54	0x3ca0a57d	0.019610161
55	0xbe5ad8b8	-0.21371734
56	0x3e84ba5f	0.2592344
57	0x3d3b63d9	0.04574952
58	0xbcfbb307	-0.030725015
59	0x3e161e34	0.14659959
60	0xbe89af8f	-0.26891753
61	0xbc1e01fc	-0.009644028
62	0x3ea9cf6a	0.33166057
63	0x3e9d2085	0.30688873
64	0x3ea962ad	0.33083096
65	0x3d0586b8	0.03259918
66	0x3daa2610	0.08308041
67	0x3e66a9bb	0.22525685
68	0xbeae618b	-0.34058794
69	0xbd6345a4	-0.055486336
70	0x3f972780	1.180893
71	0xbfb421fa	-1.4072869
72	0x3d1211d8	0.03566155
73	0xbf5c12db	-0.8596627
74	0xbe7e5f94	-0.24841148
75	0x3f1c44c9	0.6104246
76	0x3f600c45	0.8751872
77	0xbf451666	-0.769873
78	0x3f531a87	0.8246235
79	0xbdb0822b	-0.086185776
80	0xbdfe54f8	-0.1241855
81	0xbea8d6a5	-0.3297626
82	0x3d55db34	0.052211
83	0xbdd5d9a7	-0.104419045
84	0xbed04ee9	-0.40685204
85	0xbe82e245	-0.25563255
86	0x3edffd06	0.4374773
87	0xbe07dbe9	-0.13267483
88	0xbe25d956	-0.16196188
89	0xbde22b18	-0.11043376
90	0x3d63aed7	0.055586662
91	0xbe7116f4	-0.23543912
92	0xbe6849ba	-0.22684374
93	0x3e2aa819	0.16665687
94	0x3ea13749	0.31487492
95	0x3b828f54	0.003984371
96	0x3d851f4d	0.06500111
97	0xbe21fcc0	-0.15819073
98	0x3bc7d4fe	0.0060983887
99	0x3ec04790	0.37554598

model.8.bias f4 [10]
0	0xbea7d2f7	-0.3277814
1	0x3e4e1122	0.20123723
2	0xbe9b10ae	-0.30286163
3	0xbd7c385b	-0.061577182
4	0x3ee084f8	0.43851447
5	0xbecb161d	-0.3966531
6	0xbd3fe2f1	-0.046847288
7	0xbbb57d69	-0.0055386317
8	0x3e4efa58	0.20212686
9	0x3ee63250	0.4496026

model.10.weight f4 [10, 10]
0	0x3e19ca99	0.15018691
1	0xbda3229b	-0.07965585
2	0x3f127a74	0.572181
3	0x3ed668b4	0.41876757
4	0xbf02f55b	-0.5115563
5	0x3c4840f8	0.012222521
6	0x3ef94f51	0.48693326
7	0xbde38a14	-0.11110321
8	0xbefdec63	-0.4959441
9	0xbf03550d	-0.5130165
10	0xbe3d6cff	-0.1849861
11	0x3e1bd033	0.1521614
12	0xbe557da8	-0.20848715
13	0x3dd4ae8d	0.103848554
14	0x3ead561f	0.33854768
15	0x3e9d17dc	0.30682266
16	0xbe667be6	-0.22508201
17	0x3e5c3b91	0.21507098
18	0x3ed4b8df	0.41547295
19	0xbd18bd36	-0.03728982
20	0xbf0d4e29	-0.5519739
21	0xbdeaf352	-0.11472191
22	0x3ec6a67e	0.38798898
23	0xbf3ee3ec	-0.7456653
24	0x3d19bd2e	0.03753393
25	0x3ea1b167	0.3158066
26	0x3de05e63	0.10955503
27	0xbf0e180d	-0.5550545
28	0xbef5ea34	-0.48030245
29	0x3d842339	0.06452031
30	0x3eea49df	0.45759484
31	0x3ddcd4ae	0.10782753
32	0xbe8c510e	-0.2740559
33	0x3f039d46	0.51411855
34	0x3e9a0329	0.30080536
35	0xbeb04290	-0.34425783
36	0xbeccb9e6	-0.3998558
37	0x3f0d8c24	0.5529196
38	0x3d7b77f6	0.0613937
39	0x3e1a4cae	0.15068313
40	0xbd4a568b	-0.04939894
41	0x3ebe0645	0.37114158
42	0xbed96c98	-0.42465663
43	0xbf286e20	-0.6579304
44	0x3eca002f	0.39453265
45	0xbe6ef24c	-0.23334616
46	0x3e01ed73	0.12688236
47	0xbd4b282c	-0.049598858
48	0x3ed3d84c	0.4137596
49	0x3e94f71a	0.29094774
50	0x3edfc14b	0.43702158
51	0xbe7e2798	-0.24819791
52	0x3ed88e83	0.42296228
53	0xbd580e72	-0.05274815
54	0xbe0dd48c	-0.13850611
55	0x3e6c977c	0.23104662
56	0x3dd659ad	0.10466323
57	0xbd13eabf	-0.036112543
58	0xbecdb80d	-0.40179482
59	0x3dde7a31	0.1086315
60	0x3ea51c83	0.32248315
61	0xbf14dcd0	-0.58149433
62	0xbe215d1c	-0.15758175
63	0x3d530807	0.051521327
64	0xbe2d3319	-0.16914023
65	0x3c0f1cbf	0.008734881
66	0x3b1251ed	0.0022326664
67	0x37b3687d	2.1387119e-05
68	0xbe8255a8	-0.25455976
69	0xbd889b86	-0.06670289
70	0xbe321189	-0.17389502
71	0x3e64f460	0.22358847
72	0xbebf4099	-0.37353972
73	0x3e439071	0.19098069
74	0x3dd22a33	0.10261955
75	0xbdb372d5	-0.08762137
76	0x3e27713c	0.16351789
77	0x3ba14e5d	0.0049226717
78	0x3f01c5f3	0.5069267
79	0xbe4f5fc1	-0.20251371
80	0xbca257d0	-0.019817263
81	0xbe897fce	-0.2685532
82	0x3e39a9cf	0.18131183
83	0xbe5e7869	-0.2172562
84	0xbdeff380	-0.11716366
85	0x3cdb2e61	0.026755514
86	0xbeb07e78	-0.34471488
87	0xbd916f6d	-0.07101331
88	0xbe5ec212	-0.2175372
89	0x3e8859bc	0.26630962
90	0x3db49a1b	0.08818456
91	0xbe39bf33	-0.18139343
92	0x3e4acbbd	0.19804282
93	0x3e8320d1	0.25610974
94	0xbf11d98c	-0.56972575
95	0xbc674541	-0.0141156325
96	0xbe7f6209	-0.24939741
97	0x3d83d303	0.06436732
98	0xbd838ba1	-0.064231165
99	0x3e6901e3	0.22754626

model.10.bias f4 [10]
0	0xbdd94898	-0.10609549
1	0xbe5ef267	-0.21772157
2	0xbeb2f8e4	-0.34955513
3	0x3e4bef67	0.19915543
4	0x3e990961	0.29889968
5	0xbe097099	-0.13421859
6	0x3e55b59f	0.20870064
7	0x3d1f323c	0.038866267
8	0xbe153b59	-0.1457342
9	0x3e2fd47b	0.17170899

model.12.weight f4 [10, 10]
0	0x3f1949a6	0.59878004
1	0x3d9c719a	0.07638855
2	0xbeb7398f	-0.357861
3	0x3e548b1d	0.20756193
4	0xbf182bf4	-0.5944207
5	0x3e66905e	0.22516009
6	0x3d04969f	0.032370206
7	0xbd4778c0	-0.04869914
8	0xbdaf96f9	-0.085737176
9	0x3dbdcc9f	0.09267544
10	0x3e16e090	0.14734101
11	0x3e1079fb	0.14109032
12	0xbea7c23a	-0.3276537
13	0x3e910de5	0.28330913
14	0xbf3e222d	-0.742709
15	0x3e02eb09	0.12784971
16	0x3e98d148	0.2984717
17	0x3e16c362	0.1472297
18	0x3b3cfc89	0.0028837046
19	0x3ced25ac	0.028948627
20	0x3e971e4e	0.29515308
21	0xbdd890a6	-0.105744645
22	0xbeb6173f	-0.3556461
23	0x3ded4506	0.11585431
24	0xbf06c3d6	-0.5264257
25	0x3c9e4ad6	0.019322794
26	0x3dccc689	0.09998805
27	0x3c83c5d3	0.01608554
28	0x3e242f41	0.16033651
29	0x3e2da473	0.16957264
30	0xbf0cbc47	-0.5497479
31	0x3d75c496	0.060001932
32	0x3e94f701	0.290947
33	0x3e28e537	0.16493689
34	0x3e79e625	0.244042
35	0xbdfcc3e3	-0.1234205
36	0xbe6291f0	-0.22125983
37	0x3ef436c5	0.47698036
38	0xbe2c0e93	-0.16802435
39	0xbdbb30ec	-0.091401905
40	0xbef6407f	-0.48096082
41	0xbe3a0e7a	-0.18169585
42	0x3e31798e	0.17331526
43	0xbec6de8d	-0.38841668
44	0x3f1b9c32	0.6078521
45	0xbcc61819	-0.024181413
46	0x3d8216a9	0.06351978
47	0x3ebfba5b	0.37446865
48	0x3ba64901	0.0050746207
49	0x3e00ebb3	0.12589912
50	0x3db8c669	0.09022219
51	0xbf013052	-0.50464356
52	0xbe760db3	-0.24028663
53	0x3ea0109b	0.3126267
54	0xbe6f491d	-0.23367734
55	0x3ed8360e	0.4222874
56	0xbcd8ea79	-0.026478993
57	0x3e6b23c4	0.22962862
58	0xbcaa6dc0	-0.020804286
59	0x3d1fb813	0.038993906
60	0xbd8bbd93	-0.06823268
61	0x3e27fc90	0.16404939
62	0xbd9e6a2f	-0.07735097
63	0xbeda56f3	-0.42644462
64	0x3eddcd36	0.43320626
65	0xbe1225f5	-0.14272292
66	0xbe0b6913	-0.13614301
67	0x3dc6be94	0.09704319
68	0xbc5868a3	-0.013208541
69	0xbe2b6054	-0.16735965
70	0x3f01e4cf	0.5073976
71	0xbd8f5bca	-0.06999929
72	0x3d86be58	0.06579274
73	0x3d6485cb	0.055791657
74	0xbe4bd5f6	-0.19905838
75	0x3eb043eb	0.34426817
76	0x3e1ae7ee	0.15127537
77	0xbe2143c3	-0.15748505
78	0x3d7f40ce	0.062317662
79	0xbcc7899b	-0.024357608
80	0x3e3c54be	0.18391702
81	0xbecf593b	-0.40497765
82	0x3d4b2352	0.04959423
83	0x3e5d3249	0.21601214
84	0xbe8bc2db	-0.272971
85	0x3ec4cd3b	0.38437828
86	0x3e21ca1c	0.15799755
87	0xbe5dc9b2	-0.21658972
88	0x3e40c2ac	0.18824261
89	0xbd00c092	-0.03143365
90	0xbec01f8d	-0.3752407
91	0xbc7ab2e4	-0.01530144
92	0xbdbece97	-0.09316748
93	0xbdffe87c	-0.12495515
94	0x3e8f3494	0.279698
95	0xbef9a304	-0.48757184
96	0xbd79b37f	-0.060962196
97	0x3e816427	0.25271723
98	0xbe0ffe7c	-0.14061922
99	0xbe219354	-0.15778857

model.12.bias f4 [10]
0	0x3e0f6b61	0.14005806
1	0x3e082a59	0.13297404
2	0x3d971bdc	0.07378361
3	0xbe095958	-0.13412988
4	0x3d4c218c	0.04983668
5	0xbd4e9ff9	-0.05044553
6	0x3e171452	0.14753845
7	0x3e66bfae	0.22534057
8	0xbe502b33	-0.20328979
9	0xbe9ac7d1	-0.30230573

model.14.weight f4 [1, 10]
0	0x3f03e613	0.5152294
1	0x3e9186af	0.28423068
2	0x3ef74979	0.48298243
3	0xbed3ad63	-0.4134322
4	0xbf391a62	-0.7230588
5	0x3e5f90bf	0.2183256
6	0xbec4fc51	-0.38473752
7	0x3e6536a3	0.22384124
8	0x3ea88fc2	0.32922179
9	0xbeae7427	-0.34072992
