NeuralGalerkin/models/autosave/Gen_2_Loss_1.166e-05.pt (torch, 98547 bytes, 15 tensors)

model.0.weight f4 [10, 2]
0	0x3ec6a179	0.3879507
1	0x3f1b443d	0.60651
2	0x3ef36ccd	0.47543946
3	0x3e07e3a7	0.13270436
4	0xbf04b8a6	-0.5184425
5	0xbf519b55	-0.8187764
6	0xbe22760b	-0.15865342
7	0xbf22438d	-0.63384324
8	0x3e857d1f	0.26072022
9	0x3f94ff4b	1.1640409
10	0x3dab965b	0.083782874
11	0x3f562968	0.8365693
12	0xbf1038e0	-0.56336784
13	0xbf40166c	-0.75034213
14	0x3f223dd2	0.6337558
15	0x3f2106fa	0.6290127
16	0x3ed8d091	0.42346624
17	0x3eb792c3	0.35854158
18	0x3f237dfe	0.63864124
19	0xbeeaab9b	-0.4583405

model.0.bias f4 [10]
0	0x3e0d66a2	0.13808683
1	0x3f2a09b3	0.6642105
2	0xbe1c0bc6	-0.15238866
3	0x3f053116	0.52028024
4	0xbcc2f81c	-0.023799948
5	0xbeda954c	-0.4269203
6	0x3e6d3d42	0.23167899
7	0xbe16f6fd	-0.14742656
8	0x3efc3f5c	0.4926709
9	0x3ebb744e	0.3661217

model.2.weight f4 [10, 10]
0	0x3d0c78ce	0.034294896
1	0x3d80ef25	0.06295613
2	0x3df7d35e	0.12100862
3	0xbd45a599	-0.04825363
4	0xbe2eb8e3	-0.17062716
5	0xbe360540	-0.1777544
6	0x3e8951be	0.26820177
7	0xbe899ca3	-0.26877317
8	0xbde499f7	-0.11162179
9	0x3d40501f	0.04695141
10	0x3d65ff26	0.05615153
11	0x3dd719f7	0.10502999
12	0xbe3d094b	-0.18460576
13	0xbec2abcd	-0.380217
14	0x3ec86f4c	0.39147413
15	0x3f1dd14e	0.616475
16	0xbeb03339	-0.3441408
17	0xbdbfd980	-0.09367657
18	0xbd9e5c4d	-0.07732449
19	0xbd3f5291	-0.0467096
20	0x3e3682d5	0.17823346
21	0xbe167cfe	-0.14696118
22	0xbea8735b	-0.3290051
23	0xbe4d0cb6	-0.2002438
24	0x3ed3697a	0.4129141
25	0x3ed7ef23	0.42174634
26	0xbee41e37	-0.44554302
27	0x3e94d88a	0.29071456
28	0x3e35c3b2	0.17750433
29	0xbe9814ed	-0.29703465
30	0xbeaa5223	-0.3326579
31	0xbea818a6	-0.32831305
32	0x3e7c789f	0.24655388
33	0xbe77bd02	-0.24193195
34	0xbe6e576c	-0.23275536
35	0x3e968ac0	0.29402733
36	0xbe0845c4	-0.13307863
37	0x3deede22	0.11663462
38	0xbea1b187	-0.31580755
39	0x3e9a25b1	0.3010688
40	0x3e2bdd30	0.16783595
41	0x3da4ef81	0.08053494
42	0x3e16f63d	0.1474237
43	0x3e84c452	0.2593103
44	0x3dde0e96	0.10842626
45	0xbf59a333	-0.8501465
46	0x3e9e4e74	0.3091923
47	0x3cf51b49	0.029920237
48	0xbc9aa07c	-0.018875353
49	0x3e5e1578	0.21687877
50	0xbd85e7d1	-0.06538356
51	0x3ec190dc	0.3780583
52	0x3e0cf3ce	0.13764879
53	0x3ece7fe9	0.40331963
54	0xbebb18d7	-0.3654239
55	0xbeec70cc	-0.46179807
56	0x3e8465d0	0.25858927
57	0xbf0289d8	-0.5099158
58	0x3e77a1a1	0.2418275
59	0x3ee5e4f6	0.44901246
60	0x3d42a2b1	0.047518436
61	0xbda669b5	-0.08125631
62	0x3eeada37	0.4586961
63	0x3e073548	0.13203919
64	0x3d1005fe	0.035161965
65	0xbef64752	-0.48101288
66	0x3ef4afe0	0.47790432
67	0xbee50a4c	-0.44734418
68	0xbea03e6a	-0.31297618
69	0x3d8c0b11	0.06838048
70	0x3bffdc6e	0.0078082597
71	0xbe212dad	-0.1574008
72	0x3e5e9139	0.21735086
73	0xbe6a65e9	-0.22890438
74	0x3d0b4bc3	0.0340078
75	0x3e70ecdb	0.23527853
76	0xbf09b424	-0.537905
77	0x3e317bc0	0.17332363
78	0x3e955e3b	0.29173455
79	0xbe399bc7	-0.1812583
80	0x3eeb7f26	0.45995444
81	0x3c8230cc	0.015892409
82	0x3e13b4a3	0.14424376
83	0xbf1b2518	-0.60603476
84	0x3eecd517	0.46256325
85	0x3f35b809	0.7098394
86	0xbebf5e16	-0.3737647
87	0x3f01210b	0.50441045
88	0xbe86f0a4	-0.2635547
89	0xbf5f62f8	-0.8726039
90	0xbddd1756	-0.107954666
91	0xbe98fd55	-0.29880777
92	0xbe9a029a	-0.3008011
93	0xbd091c0a	-0.033474006
94	0xbd90542a	-0.07047303
95	0x3ede3cd0	0.4340577
96	0xbeebf9ca	-0.4608901
97	0x3df07a5e	0.1174209
98	0x3e2c5abd	0.16831489
99	0xbe14ee94	-0.14544135

model.2.bias f4 [10]
0	0xbd83cb30	-0.06435239
1	0x3e322117	0.17395435
2	0x3e66c8be	0.22537515
3	0xbe1cb6d0	-0.15304112
4	0x3ecf3075	0.40466657
5	0x3eba67f6	0.3640744
6	0xbeb9fecf	-0.36327216
7	0xbe8ee234	-0.27906954
8	0xbe1e3c63	-0.15452723
9	0xbded3e00	-0.11584091

model.4.weight f4 [10, 10]
0	0x3e4b6720	0.19863558
1	0xbe48e6ea	-0.19619337
2	0xbdea32ce	-0.114354715
3	0xbf078e24	-0.52951264
4	0x3f034324	0.51274323
5	0x3f2df57b	0.679527
6	0x3d96b74f	0.07359182
7	0xbe1ec2d2	-0.15504006
8	0xbe7ef608	-0.24898541
9	0xbed1f0e1	-0.4100409
10	0x3da98a0f	0.08278286
11	0xbe9035be	-0.28166002
12	0xbef11600	-0.47087097
13	0xbd61ea65	-0.055155177
14	0x3ec6f173	0.38856086
15	0x3f0bfaf5	0.54679805
16	0x3d4494be	0.047993414
17	0xbe062724	-0.13100868
18	0xbf6cc3be	-0.9248618
19	0xbe91fdfd	-0.2851409
20	0x3e72dd19	0.23717155
21	0xbeb451ef	-0.3521876
22	0xbe373731	-0.17892148
23	0x3e6f7149	0.23383059
24	0x3f13624b	0.5757186
25	0x3f12e11a	0.5737473
26	0x3df7923e	0.1208844
27	0xbe81e3e1	-0.2536917
28	0xbf4a8a97	-0.7911772
29	0xbf437070	-0.7634344
30	0xbca3ba96	-0.019986432
31	0x3d01b5bb	0.031667452
32	0x3ea392cb	0.31947932
33	0xbdf54d83	-0.11977675
34	0x3e82b44c	0.2552818
35	0xbcad2b67	-0.02113886
36	0xbdea8e67	-0.11452942
37	0x3cf8c855	0.030368963
38	0xbdc7f3fd	-0.09763334
39	0x3e8d9707	0.27654287
40	0xbd053880	-0.032524586
41	0xbed7afd9	-0.4212635
42	0x3da49543	0.08036282
43	0xbe87aaad	-0.26497403
44	0x3d75c361	0.06000078
45	0x3d543fa4	0.051818505
46	0x3ec64334	0.38723147
47	0xbe36189e	-0.17782828
48	0xbf15af22	-0.58470356
49	0xbdf124d3	-0.11774602
50	0x3e882a3d	0.26594725
51	0x3cc83b59	0.024442362
52	0xbbd5624e	-0.006511963
53	0xbe2864cd	-0.16444702
54	0xbe6af555	-0.22945149
55	0xbeb67cf2	-0.356422
56	0x3eaf6a7f	0.34260938
57	0x3ef4e864	0.4783355
58	0x3eadfbac	0.33981073
59	0x3ee15971	0.4401355
60	0xbdb7f8c6	-0.08982997
61	0x3ed92930	0.42414236
62	0x3e8f8ceb	0.280372
63	0x3e0095a6	0.12557086
64	0x3d889acd	0.06670151
65	0xbddadea4	-0.106869966
66	0xbe01a193	-0.12659292
67	0x3da9f4d2	0.08298649
68	0x3e726292	0.23670414
69	0x3b8076e7	0.0039204243
70	0x3e356c5a	0.17717114
71	0x3d8ebc12	0.06969465
72	0x3eb114a4	0.3458606
73	0xbead9aca	-0.33907157
74	0xbc8f09b3	-0.01746068
75	0xbe406cc3	-0.1879149
76	0x3d89f022	0.06735255
77	0xbe9819d5	-0.29707208
78	0x3edd85ae	0.43266052
79	0xbe71d98c	-0.23618144
80	0x3e2d4c0a	0.16923538
81	0x3e88a9e1	0.26692107
82	0x3cab3b4d	0.0209023
83	0xbe218501	-0.15773393
84	0xbe965239	-0.29359606
85	0xbe86e039	-0.26342943
86	0xbea3e075	-0.32007185
87	0x3e8c2f03	0.27379617
88	0x3dcad53a	0.09903951
89	0x3e803e46	0.2504751
90	0x3e083450	0.13301206
91	0xbe1af555	-0.15132649
92	0xbead5fd0	-0.33862162
93	0x3df72716	0.12068002
94	0x3e8e1455	0.27749887
95	0xbe275fc4	-0.16345125
96	0xbde4916b	-0.11160549
97	0x3e5fe5f9	0.21865071
98	0xbe2938f0	-0.16525626
99	0x3df822c3	0.12116005

model.4.bias f4 [10]
0	0x3f26833c	0.65044
1	0xbe3b2fcb	-0.1827995
2	0xbd5acd7c	-0.05341862
3	0x3df9dcca	0.12200315
4	0x3dc763b0	0.09735811
5	0x3d799327	0.06093135
6	0x3e6e121d	0.23249097
7	0x3e72cf35	0.23711856
8	0x3e699439	0.22810449
9	0xbe90376a	-0.28167278

model.6.weight f4 [10, 10]
0	0x3edbee88	0.42955422
1	0x3f2a0b37	0.6642336
2	0x3ea8ba24	0.32954514
3	0xbe83e2ee	-0.2575907
4	0x3e7399e5	0.23789175
5	0xbe2f9482	-0.17146495
6	0xbe2cac20	-0.16862535
7	0xbe01e424	-0.12684685
8	0xbe813804	-0.2523805
9	0x3ea66542	0.3249913
10	0xbe758ed7	-0.2398027
11	0xbec06c91	-0.3758283
12	0xbec40cf9	-0.38291147
13	0x3e8c4bc9	0.2740157
14	0xbe90c2c9	-0.2827361
15	0xbef5caad	-0.48006192
16	0x3eab208c	0.3342327
17	0xbcc8d623	-0.02451617
18	0x3ed5c907	0.41754934
19	0xbd1b2163	-0.037873637
20	0x3ec6f6f6	0.3886029
21	0x3ec67eef	0.38768718
22	0x3eab89ed	0.33503667
23	0xbe580022	-0.210938
24	0x3ed0ec27	0.4080517
25	0xbf0f2bbb	-0.559261
26	0xbe0443f5	-0.12916549
27	0x3da1e851	0.07905639
28	0xbd8078c6	-0.06273036
29	0xbd31a25d	-0.043367732
30	0x3f25775e	0.64635265
31	0x3e3dba76	0.1852816
32	0x3ed2125f	0.4102964
33	0x3f34dfe6	0.7065414
34	0x3e9be412	0.3044744
35	0xbf29b9e8	-0.66299295
36	0x3ee947c2	0.4556256
37	0x3e32c1b3	0.17456703
38	0xbd7c76f8	-0.061636895
39	0xbd422c5d	-0.04740559
40	0xbe696438	-0.22792137
41	0x3e57127e	0.21003148
42	0xbe6f860f	-0.23390983
43	0xbecd5497	-0.401036
44	0x3e94af1d	0.2903985
45	0x3e1b0a4d	0.15140648
46	0xbef078e4	-0.46967232
47	0x3bb5bc5e	0.0055461368
48	0xbe97655f	-0.29569528
49	0x3db9b072	0.090668574
50	0x3edc3a64	0.430133
51	0x3f1d3c20	0.6141987
52	0x3f0c9351	0.54912287
53	0xbe971ebc	-0.29515636
54	0x3ee892b3	0.45424423
55	0x3e077452	0.13227966
56	0xbe9cee40	-0.3065052
57	0xbb39e6bd	-0.002836629
58	0xbf10b32e	-0.56523407
59	0x3e90101b	0.28137287
60	0x3ea99c87	0.33127233
61	0x3e2180b1	0.15771748
62	0xbdfa2b7e	-0.12215327
63	0xbeb19914	-0.34687102
64	0x3e93ca7e	0.28865427
65	0xbd9a961e	-0.07548164
66	0xbf0520d4	-0.52003217
67	0x3cb8fce5	0.022581527
68	0xbdc3dc9a	-0.09563561
69	0x3ea44a92	0.32088143
70	0xbe29236f	-0.16517423
71	0x3e630139	0.22168435
72	0x3e874973	0.26423225
73	0x3ee63488	0.44961953
74	0xbdea2200	-0.11432266
75	0xbef5b916	-0.47992772
76	0xbdbe2d06	-0.09285931
77	0x3ed7a138	0.42115188
78	0x3e772e01	0.24138643
79	0x3d942c05	0.072349586
80	0x3f1007ac	0.56261706
81	0x3f73b91f	0.9520435
82	0x3ecbe866	0.39825743
83	0xbe2da5f8	-0.16957843
84	0x3f06d1fd	0.52664167
85	0xbf39fb63	-0.7264921
86	0xbf27cedf	-0.65550035
87	0xbef45d41	-0.47727397
88	0xbf215491	-0.63019663
89	0xbe3e2997	-0.18570553
90	0x3d9f77a1	0.07786489
91	0xbf07ecc5	-0.53095657
92	0xbebef38e	-0.37295192
93	0xbd2e222d	-0.04251306
94	0xbd8d2382	-0.06891538
95	0x3efc74cb	0.49307856
96	0x3ef3d36a	0.47622234
97	0x3e5b258b	0.2140104
98	0x3e41d6d7	0.18929611
99	0xbdb575bc	-0.08860347

model.6.bias f4 [10]
0	0xbe21a053	-0.15783815
1	0x3dc1f47f	0.09470462
2	0x3e57c73d	0.21072097
3	0x3e5fc70e	0.21853277
4	0x3da2ed38	0.07955402
5	0xbdaf6c27	-0.0856555
6	0xbeb08c65	-0.34482113
7	0x3eccf3a4	0.40029633
8	0x3deb2984	0.11482528
9	0xbc9056f3	-0.017619586

model.8.weight f4 [10, 10]
0	0xbdcf6e9d	-0.1012852
1	0xbe81b94d	-0.25336686
2	0xbde5d6e5	-0.112226285
3	0xbe949d16	-0.29026097
4	0xbc83eb52	-0.01610342
5	0xb9f10c3d	-0.0004597622
6	0x3e592e27	0.21209012
7	0xbdaf3983	-0.08555891
8	0xbe2296fe	-0.15877911
9	0xbe9f94b8	-0.3116815
10	0x3d4301a1	0.047608975
11	0x3ee876c0	0.454031
12	0xbd91d4f8	-0.07120699
13	0x3eae155c	0.3400067
14	0xbed87c89	-0.42282513
15	0xbe2ca7a3	-0.16860823
16	0xbdb81089	-0.08987529
17	0xbde6b776	-0.11265461
18	0xbce57666	-0.028010558
19	0xbd86e245	-0.06586126
20	0xbe89d01b	-0.26916584
21	0x3eb92c1e	0.3616647
22	0xbf035d98	-0.5131469
23	0xbf300032	-0.687503
24	0xbee73f7f	-0.4516563
25	0xbc1e6ffd	-0.009670255
26	0xbe213dc8	-0.15746224
27	0xbe01d6b6	-0.12679562
28	0xbec60bdf	-0.38680932
29	0xbdb1afd4	-0.08676115
30	0x3eacca18	0.33747935
31	0xbed7ce22	-0.42149454
32	0xbe3dc3e8	-0.18531764
33	0x3ebc5c47	0.36789152
34	0x3e8166d2	0.25273758
35	0x3ea57ac9	0.3232024
36	0x3eade0ee	0.3396067
37	0xbe9c448b	-0.30521044
38	0x3d8a1115	0.067415394
39	0xbe59c47d	-0.2126636
40	0xbdd6148a	-0.10453136
41	0x3df03ce0	0.11730361
42	0xbdedf2ca	-0.11618574
43	0x3eb0a5c2	0.34501463
44	0xbe63df76	-0.22253212
45	0xbebbe423	-0.36697492
46	0xbd708269	-0.05871812
47	0xbe7567a5	-0.23965319
48	0x3daa4c69	0.08315355
49	0x3eadbd17	0.33933327
50	0x3e88b6d7	0.26701996
51	0xbeafa615	-0.34306398
52	0xbe002eaf	-0.12517808
53	0xbf0d9458	-0.5530448
54	0x3ec3c7e9	0.38238457
55	0x3e460c2d	0.19340582
56	0xbda77117	-0.08175867
57	0x3eeaac43	0.4583455
58	0xbef9cfcd	-0.48791352
59	0x3e8f0a38	0.27937484
60	0xbdab783c	-0.08372542
61	0xbeb20255	-0.34767404
62	0xbecb0783	-0.39654168
63	0xbe281bd6	-0.16416869
64	0xbcf1d411	-0.029520066
65	0xbd112099	-0.03543148
66	0x3ec44221	0.38331702
67	0xbe9235e9	-0.28556755
68	0xbed57968	-0.41694188
69	0xbe976fae	-0.29577392
70	0x3e278c22	0.1636205
71	0xbe57f3f7	-0.21089159
72	0xbc1eeb96	-0.009699723
73	0x3f0bda27	0.5462975
74	0x3e915f55	0.28393045
75	0x3ed7fb21	0.42183784
76	0x3d7c8453	0.06164963
77	0xbcf29ec1	-0.029616715
78	0x3f1897f3	0.59606856
79	0xbeafb706	-0.34319323
80	0x3e9d75ea	0.30754024
81	0xbf172369	-0.59038407
82	0x3c7605d2	0.015016036
83	0x3ec5e69f	0.38652512
84	0x3c6f5873	0.01460849
85	0x3f16a234	0.5884125
86	0x3d19298a	0.03739313
87	0xbe507dd7	-0.20360504
88	0x3efe7a0c	0.4970249
89	0xbe980aab	-0.2969564
90	0x3dc07203	0.09396746
91	0x3da95882	0.08268835
92	0x3eb1ec4a	0.34750587
93	0x3ccc5b46	0.024945866
94	0xbed671e9	-0.41883782
95	0xbe923036	-0.28552407
96	0xbeb4ed24	-0.35337174
97	0xbececf98	-0.40392756
98	0x3f177d3c	0.5917547
99	0xbe13c1f8	-0.14429462

model.8.bias f4 [10]
0	0x3ea163e9	0.31521538
1	0x3e50d9f1	0.20395638
2	0xbdd3bcb2	-0.10338725
3	0xbac04288	-0.0014668265
4	0xbe4f6791	-0.20254351
5	0x3dfecc0b	0.12441262
6	0x3d95c520	0.07312989
7	0x3e34d9ab	0.17661159
8	0xbeacfbcf	-0.33785865
9	0xbe1b9be1	-0.15196182

model.10.weight f4 [10, 10]
0	0x3e20b457	0.15693794
1	0xbd2fe2bf	-0.04294085
2	0x3ece77f9	0.40325907
3	0x3dfa247d	0.12213991
4	0xbdb10f4f	-0.08645498
5	0x3f03d76b	0.51500577
6	0xbd97e619	-0.074169345
7	0xbec25ee0	-0.3796301
8	0xbe96c1a3	-0.29444608
9	0xbea07360	-0.31338024
10	0xbe6cec60	-0.23137045
11	0x3e3234b6	0.1740292
12	0xbe900000	-0.28125
13	0xbe897a9d	-0.2685136
14	0x3e68dee9	0.22741283
15	0x3dd27319	0.102758594
16	0x3d4b3397	0.049609747
17	0xbe0dc649	-0.13845171
18	0x3db8b9ea	0.09019835
19	0x3df5f7bf	0.120101444
20	0x3d7aa8aa	0.061196007
21	0xbe8f91af	-0.28040835
22	0x3d87b163	0.06625631
23	0xbe6c3e02	-0.23070529
24	0x3e1e926e	0.15485546
25	0xbe91d87c	-0.28485477
26	0xbeb71e49	-0.35765293
27	0x3e0bab66	0.13639602
28	0xbe8a0705	-0.2695848
29	0xbd9a52bd	-0.07535312
30	0x3e485369	0.19563068
31	0x3eb71889	0.35760906
32	0xbd0b646f	-0.034031328
33	0x3e45fbf7	0.19334398
34	0xbe5c4d7c	-0.21513933
35	0x3ed38995	0.41315904
36	0xbe0e57d4	-0.13900691
37	0xbeb51497	-0.3536727
38	0x3e2ddce3	0.16978793
39	0xbe034565	-0.1281944
40	0xbdeee1ac	-0.11664137
41	0x3e18f97b	0.14938919
42	0x3e80b289	0.25136212
43	0xbea66de4	-0.32505715
44	0x3edaac13	0.42709407
45	0xbc766364	-0.015038345
46	0x3db5ef16	0.08883493
47	0xbe98e692	-0.2986341
48	0xbeda9878	-0.4269445
49	0x3d6ac063	0.05731238
50	0xbaa0849f	-0.0012246555
51	0x3dfac7af	0.12245118
52	0xbea9935b	-0.33120236
53	0x3e013126	0.12616405
54	0x3f287e64	0.65817857
55	0xbdd67c02	-0.10472871
56	0xbeb0a45a	-0.3450039
57	0xbd4490a7	-0.047989514
58	0xbea9c805	-0.33160415
59	0x3d229105	0.039689083
60	0x3eacabe8	0.33724904
61	0xbf07ba34	-0.530185
62	0x3e6a605f	0.22888325
63	0x3ef2ff66	0.4746048
64	0xbdc3cd7b	-0.09560677
65	0x3ef52e1e	0.47886747
66	0x3df865ec	0.12128815
67	0xbf0f8318	-0.5605941
68	0xbe819f06	-0.25316638
69	0xbf2a24ed	-0.66462594
70	0xbdd5c2f3	-0.10437574
71	0x3dc7b5d2	0.09751476
72	0x3ea542f4	0.32277644
73	0x3d90aaa6	0.070637986
74	0xbee413e6	-0.4454643
75	0x3f07fef5	0.5312341
76	0x3e3e528a	0.18586174
77	0x3e74a10d	0.23889561
78	0x3e05d36e	0.13068935
79	0xbe694cae	-0.22783157
80	0x3dd7066e	0.10499273
81	0xbe7b6d10	-0.24553323
82	0xbe2e44f8	-0.17018497
83	0xbce6faa6	-0.02819569
84	0xbe06eb4b	-0.13175695
85	0xbe2ff71c	-0.17184108
86	0x3e71e692	0.23623112
87	0x3ea6a267	0.32545778
88	0xbe0e78c0	-0.1391325
89	0xbdb49cb9	-0.08818955
90	0xbd83379a	-0.064070895
91	0xbdee3e5e	-0.11632989
92	0x3e564c1c	0.20927471
93	0xbd934b30	-0.07192075
94	0xbdede0ab	-0.11615118
95	0x3eb54f90	0.35412264
96	0x3ea3eec2	0.32018095
97	0xbe847a07	-0.2587435
98	0x3e95b436	0.29239053
99	0x3d8e1fd4	0.069396645

model.10.bias f4 [10]
0	0xbdfe6a81	-0.12422658
1	0x3e8ae3c2	0.2712689
2	0x3a8c6aae	0.0010712945
3	0xbe50c58b	-0.20387857
4	0x3e85fcc0	0.26169395
5	0xbc1c180a	-0.009527216
6	0x3e76919c	0.24078983
7	0x3e6ee0e3	0.23327975
8	0xbcee7285	-0.029107342
9	0x3e94029c	0.2890824

model.12.weight f4 [10, 10]
0	0x3ecd1702	0.40056616
1	0x3d5f2618	0.05447969
2	0xbdb282af	-0.08716332
3	0x3dfd3a05	0.12364582
4	0x3e427c2b	0.18992679
5	0xbe89701a	-0.2684334
6	0x3f275498	0.65363455
7	0x3da6c53f	0.081430905
8	0x3e69463d	0.227807
9	0xbc02aed0	-0.007976249
10	0x3e54d18c	0.20783061
11	0xbe7e21ec	-0.24817628
12	0x3d935287	0.07193475
13	0x3ec22791	0.37920812
14	0x3e79e0ad	0.24402113
15	0xbea6fc12	-0.3261419
16	0x3f01f7a2	0.5076848
17	0x3e4e8b5c	0.20170349
18	0xbd7913d5	-0.06080993
19	0x3e8eb54c	0.27872694
20	0xbcff6fd8	-0.031181261
21	0xbe1a2443	-0.15052895
22	0xbea5f332	-0.32412106
23	0xbe103a9b	-0.14084856
24	0xbebee466	-0.3728363
25	0xbeaff333	-0.34365234
26	0x3e7d32fb	0.24726479
27	0x3db95448	0.090492785
28	0x3e8fa58f	0.28056
29	0xbca00a2b	-0.019536098
30	0x3e68cce0	0.22734404
31	0xbcf61c85	-0.030042896
32	0xbe9ab498	-0.30215907
33	0x3e8b7b23	0.27242383
34	0xbd8375e8	-0.06418973
35	0xbed45fa8	-0.4147923
36	0x3e44cc4a	0.19218555
37	0x3ec15463	0.37759694
38	0xbeb25689	-0.34831646
39	0x3e997b45	0.2997686
40	0xbe9f4bf2	-0.3111263
41	0x3ea99ec5	0.33128944
42	0x3dc2400f	0.094848745
43	0xbc7933b2	-0.015210079
44	0x3e918e75	0.28429
45	0xbcc42a85	-0.023946056
46	0xbf16d091	-0.58912
47	0xbdcbbdc1	-0.09948302
48	0x3d212036	0.03933736
49	0xbea98b1f	-0.33113953
50	0x3eba5fd8	0.36401248
51	0xbe40336c	-0.18769616
52	0xbe5131f0	-0.20429206
53	0xbbb25d96	-0.005443285
54	0xbe8904b7	-0.2676141
55	0xbdf06d3e	-0.11739586
56	0x3eb257c4	0.34832585
57	0xbbc5f6e7	-0.006041396
58	0xbdd6fffe	-0.104980454
59	0x3e6800e6	0.22656593
60	0x3d64909c	0.055801973
61	0xbe8622e0	-0.26198483
62	0xbe42bb44	-0.19016749
63	0x3e19a890	0.15005708
64	0xbec7796e	-0.3895983
65	0xbe8179e5	-0.2528831
66	0x3ebfdbea	0.3747247
67	0x3d786ee5	0.060652632
68	0x3d9e66f3	0.0773448
69	0x3e1d4967	0.15360032
70	0x3eb41519	0.35172346
71	0xbe6dbe78	-0.2321719
72	0xbe86af7f	-0.26305768
73	0x3e8e7d47	0.27829954
74	0xbe649005	-0.22320564
75	0x3e37d9f4	0.17954236
76	0x3e4fd1be	0.20294854
77	0x3ed0fa38	0.40815902
78	0x3db0db43	0.08635571
79	0xbdd0e915	-0.10200707
80	0xbe2fd952	-0.17172745
81	0xbb336624	-0.0027374113
82	0x3eb1a4f5	0.34696165
83	0x3e46a3a3	0.1939836
84	0x3eb94fd5	0.3619372
85	0xbcadc852	-0.021213684
86	0xbea7b896	-0.32758015
87	0xbefdb991	-0.49555638
88	0x3e2e12bb	0.16999333
89	0xbdc2d794	-0.095137745
90	0x3e70bf25	0.23510416
91	0x3e88cd28	0.26719022
92	0x3e66845d	0.2251143
93	0xbe209c8d	-0.1568472
94	0x3eb30390	0.34963655
95	0x3db060d2	0.08612217
96	0xbe0df036	-0.13861164
97	0xbeba9ffd	-0.36450186
98	0x3e1d4d51	0.15361525
99	0xbcddff81	-0.027099373

model.12.bias f4 [10]
0	0x3e8046a7	0.25053903
1	0x3daa346e	0.083107814
2	0xbc1a6bdc	-0.00942513
3	0x3e8f1a0c	0.2794956
4	0xbe6f79cd	-0.23386307
5	0x3e34466e	0.17604992
6	0x3e22fc0e	0.15916464
7	0xbdee5813	-0.116378926
8	0x3e1b74de	0.151813
9	0x3e9e88d3	0.30963764

model.14.weight f4 [1, 10]
0	0xbe4bca4f	-0.19901393
1	0xbf11932c	-0.5686519
2	0xbe95fff6	-0.29296845
3	0xbe7f3e3b	-0.24926083
4	0x3ea4b4b5	0.3216912
5	0xbea62282	-0.32448202
6	0xbebd340d	-0.36953774
7	0xbebd3fcf	-0.36962745
8	0x3e681a75	0.22666343
9	0x3eb6136e	0.355617
