NeuralGalerkin/models/autosave/Gen_3_Loss_7.5e-07.pt (torch, 561035 bytes, 15 tensors)

model.0.weight f4 [10, 2]
000000 9a 1e d9 3e 03 18 23 3f 79 26 94 be 23 9c 24 bf
       0.4240616 0.63708514 -0.28935602 -0.64300746
000010 27 59 e7 be 8f 3f 10 3f 1c ac f2 be a0 98 2f 3f
       -0.45185205 0.5634698 -0.47396934 0.6859226
000020 b5 e5 83 be 96 72 01 bf c1 4d 11 bf 5d 27 66 3e
       -0.2576119 -0.5056547 -0.5675927 0.22475953
000030 7b 6e 24 3f 76 94 3d 3f f0 9b 53 be 9b de 3a bf
       0.6423108 0.7405466 -0.20664954 -0.7299592
000040 af c9 fb be e3 d4 82 bf bf 0d 17 bf 2a 68 bc 3e
       -0.4917731 -1.0221218 -0.5900535 0.3679822

model.0.bias f4 [10]
000000 73 34 76 be dd a8 0a 3f 39 e1 bb be d5 93 ef be
       -0.24043445 0.54163915 -0.3669527 -0.46792474
000010 f5 b3 35 3e 5b 49 21 3f 52 06 3b be 1b 51 bc 3e
       0.1774443 0.63002557 -0.1826413 0.3678063
000020 2a 12 8d 3e 20 40 08 3f
       0.2755292 0.53222847

model.2.weight f4 [10, 10]
000000 fb 58 35 bf 49 b6 39 3f c6 e8 b0 be da aa 28 bf
       -0.708389 0.7254377 -0.34552592 -0.658857
000010 4f 22 56 3f cb 12 28 be 55 b4 6e bf 0e a7 70 3f
       0.836461 -0.16413419 -0.93243915 0.94004905
000020 86 c6 85 3f ec b8 45 be 22 ac 22 be 74 eb 28 3e
       1.045121 -0.19308823 -0.15885976 0.16496068
000030 bc 7c a5 be bf 4b c0 bd 28 bb 01 be c2 18 c0 3d
       -0.32321727 -0.093894474 -0.1266905 0.09379722
000040 a6 b7 fa 3c de f9 79 3c 74 14 69 3e 4b 69 16 be
       0.030605149 0.015257327 0.22761708 -0.14688604
000050 d5 a9 df be 56 40 f7 3e 7d 87 d7 bd 47 58 54 be
       -0.4368426 0.48291272 -0.10523889 -0.207368
000060 ba ec bb 3d 96 e6 3f be 6b 14 4c be 1b 8c ac 3d
       0.091760114 -0.18740305 -0.19929664 0.084251605
000070 ce 84 4a 3e 8d dc e6 3d 0d 92 41 3e 7f f5 89 bc
       0.19777223 0.112725355 0.1890337 -0.016840694
000080 18 d6 90 bd 41 74 18 3e 46 b8 01 3e b3 ab f5 3c
       -0.07072085 0.14888097 0.12667951 0.0299891
000090 78 06 41 be 3e 2d 2b bd e0 a9 02 3e 6e b4 40 3e
       -0.18850124 -0.041791193 0.12760115 0.18818828
0000a0 8b 5d f7 bd ab 0c fc 3e 58 6a 3d 3d 1f 86 29 3e
       -0.12078389 0.49228415 0.046243995 0.1655507
0000b0 c5 8b c7 3e 12 33 79 bd 28 64 9c bd 24 04 d2 3e
       0.38973823 -0.06083972 -0.07636291 0.41018784
0000c0 12 e8 92 bd ed ce 86 bd 1d 86 d1 bd 12 80 b2 be
       -0.0717317 -0.06582437 -0.10230658 -0.34863335
0000d0 03 f5 16 3f fa ec 70 3e a6 d4 9b be 4e 2a f0 be
       0.5896761 0.235279 -0.30435675 -0.46907276
0000e0 ce 13 5f 3e 36 15 85 be 7d d4 b6 be 2d 71 82 3d
       0.21784899 -0.25992745 -0.3570899 0.06369243
0000f0 ce cb dc be 9f c2 02 3f 66 b3 64 be ef d2 ad bd
       -0.4312424 0.5107822 -0.2233406 -0.08487498
000100 b7 b5 a4 3e 00 04 10 3f 8f 28 73 bd 15 78 e7 3e
       0.32169887 0.56256104 -0.05936485 0.45208803
000110 4e 0c 13 3e f3 73 21 3d 31 9d 17 3d 11 a0 31 bf
       0.14360163 0.03941722 0.037015144 -0.69384867
000120 fa fd b0 3e cd 8d a5 bc 36 f7 f5 be 74 ed 81 be
       0.3456877 -0.020209217 -0.4804017 -0.25376475
000130 66 f5 c2 3e c4 7b 82 bc be 4d 30 be 4a 17 ed be
       0.3807785 -0.015928157 -0.17217156 -0.4630683
000140 8b 64 e2 be d8 93 dd 3e 7d 74 9f be dc 97 41 be
       -0.44217333 0.43276858 -0.3114356 -0.18905586
000150 09 3e 06 3f 25 58 ac be e8 2e 97 be 8f 67 7f 3c
       0.5243841 -0.33661 -0.29527974 0.015588655
000160 40 5d d4 3e ca 44 0c bf 98 7d dd bd d2 ed 12 3f
       0.41477394 -0.54792464 -0.10814971 0.57394135
000170 be 54 d4 bc 6c 90 49 3e ad b5 1e 3e d8 d3 70 3d
       -0.025919314 0.19683999 0.15498991 0.05879578
000180 46 42 3c 3d 88 c1 4f 3e 1c 82 cd 3e 88 a6 7f ba
       0.04596164 0.2028867 0.40138328 -0.0009752293

model.2.bias f4 [10]
000000 22 f9 f6 3b aa d0 10 3e 82 50 9d be da 2b 27 be
       0.007537023 0.14142099 -0.30725485 -0.16325322
000010 2f 6d 94 3c f9 3d 95 be e2 bb 24 3e 1e b2 1d bd
       0.018118469 -0.29148844 0.16087297 -0.038499944
000020 3f 0c d3 be dc 06 80 be
       -0.4122028 -0.25005233

model.4.weight f4 [10, 10]
000000 e7 a5 20 3f 8e 99 85 3e ac a5 db 3e ae b1 db 3d
       0.62753147 0.26093715 0.42899835 0.10727249
000010 bd 57 1a bd eb 39 e8 3d df f1 96 3e 9b 4e a8 bc
       -0.03768133 0.11339172 0.29481408 -0.020545295
000020 f1 95 0e 3e ac ce dd 3e b2 9c 5e be 41 ce 1f be
       0.13924386 0.4332174 -0.21739462 -0.15606023
000030 d0 a8 b3 3e 8a 28 d2 3e 20 ce 6b 3e a9 25 d6 3d
       0.3508973 0.41046554 0.23027849 0.10456402
000040 d9 88 af bd 41 5c 11 bd c3 4d 21 be 3e 87 54 3e
       -0.085710235 -0.03548837 -0.1575232 0.20754716
000050 59 52 9e be 9a 5c 4e 3e ff 03 14 bf 06 61 55 be
       -0.309222 0.20152512 -0.578186 -0.20837793
000060 5f 6d 14 be f4 83 fc be f4 fe b8 3b db fd 03 be
       -0.14494847 -0.49319422 0.005645627 -0.12889807
000070 fb e2 8f bf 5a 90 31 be 0d a9 bd 3d dc 6c 0d 3e
       -1.1241144 -0.17340222 0.092607595 0.13811058
000080 a6 11 86 be 2a fa 59 3e d6 df 88 be ec 99 11 3e
       -0.2618534 0.21286836 -0.26733273 0.14218873
000090 05 ad aa be 5b b8 c9 3e cf ec 84 3e 4d d9 f5 be
       -0.33335128 0.39398465 0.2596192 -0.4801735
0000a0 51 ae 26 bf 7b c2 bf 3d 4b 43 15 bf 1e a1 1b be
       -0.65109736 0.09363266 -0.58305806 -0.1519818
0000b0 d4 c2 88 bd cc 48 84 3e 97 7f 04 be 3d 46 14 3e
       -0.066777855 0.2583679 -0.12939297 0.14479919
0000c0 6f 5a 46 be e9 25 ac be b5 de 0b 3e 71 60 48 be
       -0.19370435 -0.33622673 0.13659175 -0.1956804
0000d0 da 2d 5e 3d 81 31 79 be df 77 7b 3e a5 5a d3 bc
       0.054242946 -0.2433529 0.24557446 -0.025800059
0000e0 f8 3b eb 3c 95 4b 2d be 6b 46 d1 3e 32 4c d2 3e
       0.028715119 -0.16923364 0.40874037 0.41073757
0000f0 9b 9a 6e 3e 6c 71 59 be ff 24 c3 3d ff 9f c9 bb
       0.23301165 -0.21234673 0.09528541 -0.006153106
000100 b2 fd bd 3d 56 50 b7 be 02 aa 9b 3d b7 ef d9 3c
       0.09276904 -0.3580348 0.07600786 0.026603563
000110 19 68 b7 3e 2b 28 d9 bc 67 03 c3 3c 33 99 a9 be
       0.35821608 -0.026508411 0.023805333 -0.33124694
000120 9e 11 12 be 6b 10 17 3c 89 4c e4 3d 46 11 6a 3e
       -0.14264533 0.009220223 0.111474104 0.22858152
000130 fa 4f 84 be f2 f5 09 3f 44 1c 6c 3e 4a 4f 96 3e
       -0.25842267 0.5389091 0.23057657 0.29357368
000140 8d 5d 43 bf 95 e1 9f be 9a 83 0c bf 81 65 4b be
       -0.7631462 -0.31226793 -0.5488831 -0.1986294
000150 8d c3 63 be 18 15 91 3e c9 cb c5 be fd 3e cc 3e
       -0.22242565 0.28336406 -0.38632038 0.39891806
000160 62 de 87 be 24 37 1e bf 70 87 de be 5e e1 88 be
       -0.26536852 -0.6180289 -0.43462706 -0.26734442
000170 92 7f de be d7 1b 17 be bf da aa be f5 56 ca 3e
       -0.43456703 -0.14756714 -0.33370015 0.39519468
000180 1f 83 47 3d 1f 25 80 3d dc 15 1c bd b7 e9 50 be
       0.04870903 0.0625708 -0.038106784 -0.20401655

model.4.bias f4 [10]
000000 ec 1c 5e 3d ec 42 80 be 75 67 ab 3e 00 04 4e be
       0.0542268 -0.25051057 0.3347737 -0.20118713
000010 0f e9 75 3e 94 76 5b be 12 72 4f bd 14 fc bd 3b
       0.24014686 -0.21431953 -0.050645895 0.0057978723
000020 e9 30 b5 3d 39 5c 71 be
       0.088472195 -0.23570336

model.6.weight f4 [10, 10]
000000 42 63 00 be b7 fb fe bd 54 da fb bc 58 01 16 3e
       -0.12537864 -0.124503545 -0.030743755 0.1464895
000010 87 2b 5f 3e e7 7d f9 be 13 e7 c1 be ec 91 97 3e
       0.21793948 -0.48728868 -0.37871608 0.29603517
000020 29 77 f8 3e 71 2b 3f 3e fe a1 cc 3f 80 b8 0e bf
       0.48528412 0.18668915 1.5986936 -0.55750275
000030 6a a9 4d 3e 41 03 ee bf 5d d0 95 bf 7a 60 fb 3e
       0.20084158 -1.8594743 -1.1704212 0.49097043
000040 af 8e bc 3f be 1f 98 bf cc 94 0a c0 06 8c 3c c0
       1.4731044 -1.1884687 -2.1653318 -2.9460464
000050 e5 ac a4 be ff 86 aa be b8 4b 81 be 9f be 07 3f
       -0.32163158 -0.3330612 -0.2525308 0.5302524
000060 a1 ae c9 be 14 7b 7d 3d de 40 89 bd 0a 1e 20 3e
       -0.39391044 0.061884955 -0.067018256 0.15636459
000070 1a 10 2b be ba 7b ed bc c9 37 67 3e a4 a2 18 be
       -0.16705361 -0.028989661 0.22579874 -0.14905792
000080 b0 76 e7 3d 7f 6a 37 bf 3c c1 db be f4 29 25 3e
       0.11301935 -0.71646875 -0.42920864 0.16129285
000090 30 20 c7 3d 66 9f 1e be 17 05 b1 be 0f 1d c0 be
       0.09722936 -0.15490493 -0.34574196 -0.3752217
0000a0 81 82 b9 bd 1c 5e 11 be ee f7 24 3e c9 4c 15 bf
       -0.09058095 -0.14196056 0.16110203 -0.5832029
0000b0 ae 1c 99 3e cc 11 88 3d 9d 48 c1 3b 9d 9f bc be
       0.29904693 0.066440195 0.0058985488 -0.36840525
0000c0 cd 87 05 be 1a 7d 9a be 1e 7e e7 3c c4 e9 94 be
       -0.13040085 -0.3017357 0.02825838 -0.290846
0000d0 8b 4a eb 3e 00 6a dc be e4 99 d2 bd 71 d5 10 bf
       0.4595531 -0.43049622 -0.102832586 -0.56575686
0000e0 4a 11 d6 be 43 a0 a1 3e c1 75 87 3e fe 7b f3 3e
       -0.41810066 0.31567582 0.26457027 0.47555536
0000f0 99 7c e5 be 1b d4 97 be 78 17 9c bd 0b 51 86 3f
       -0.44821623 -0.2965401 -0.07621664 1.0493482
000100 80 1b a2 3e 19 aa 9a be 59 cc 24 bf 60 38 fb bc
       0.31661606 -0.302079 -0.6437431 -0.03066653
000110 d3 9c ac 3e 7d 45 4f 3f 88 23 e9 3c 19 26 ac bc
       0.33713397 0.80965406 0.028459325 -0.02101426
000120 44 6a aa be 2c b1 00 3e 71 59 2a be 04 d7 a7 3d
       -0.332842 0.12567586 -0.16635682 0.08195308
000130 27 50 d2 3c cb eb 11 3e ad 9b b3 be 20 7e ab 3c
       0.025672985 0.14250104 -0.3507971 0.020934165
000140 92 8d b8 be 63 7c e0 3e 75 1c 26 3e 8a 92 09 bf
       -0.3604551 0.438449 0.16221793 -0.53739226
000150 3b b6 8b 3e 8d 35 9c be 00 66 39 be 17 b2 52 be
       0.27287468 -0.30509606 -0.18105316 -0.20575748
000160 0b 89 0e 3e 27 77 fa 3d f1 ec 67 3e 50 1a e2 bd
       0.13919465 0.12229758 0.2264898 -0.11040175
000170 08 cb 3c 3e e0 f3 4f 3e 87 7b 25 be bb 62 90 3e
       0.18436825 0.20307875 -0.16160403 0.28200325
000180 10 eb 51 3e fe 61 0c bc f6 d9 91 3e c2 a0 aa bc
       0.20499825 -0.008568285 0.28486603 -0.020828608

model.6.bias f4 [10]
000000 1b fa 90 bd db 8f 4b 3f 22 a6 ab bc 2c 38 07 be
       -0.07078954 0.7951638 -0.020953242 -0.13205022
000010 c3 04 a4 3e 30 be a3 3d b8 4d 22 be d9 97 0e 3e
       0.32034883 0.0799526 -0.1584996 0.13925113
000020 1f c0 61 bd d7 ce d7 3e
       -0.05511486 0.42149994

model.8.weight f4 [10, 10]
000000 8b 93 65 3d a4 f5 40 be 68 bf ab bd 67 d4 55 be
       0.05604891 -0.18843704 -0.08386117 -0.20881806
000010 4c e9 cb 3e b4 ca c0 3e 0f e7 59 bd e4 28 e1 be
       0.3982643 0.3765465 -0.05319887 -0.4397651
000020 ab 78 c6 3e 5b d7 86 3d a5 f0 6c 3d 13 11 52 3e
       0.38763937 0.065840445 0.057846684 0.20514326
000030 64 53 60 3e 24 b0 35 3c 5b cf f1 be 65 96 05 be
       0.21906811 0.0110893585 -0.47228512 -0.13045652
000040 ec e8 ed 3e 4a b7 90 3e c5 ea cd bb f9 3c dd 3c
       0.46466768 0.28264838 -0.00628409 0.027006613
000050 3e 0a 15 be d5 64 3f 3e 27 ab 22 be 63 cf 7c 3e
       -0.14554688 0.18690808 -0.15885602 0.24688487
000060 40 10 60 3e a1 71 b1 3e ce 32 bd be 2e 0d 8a be
       0.21881199 0.34657004 -0.36952823 -0.2696318
000070 28 68 47 3c 63 b9 41 bd 6b 76 03 3f a6 db 30 bf
       0.012170829 -0.04729594 0.51352566 -0.69085157
000080 8c 05 32 be 56 e9 86 be df f7 ec bd 20 61 f9 3e
       -0.17384928 -0.26349896 -0.11570715 0.48706913
000090 27 06 97 3c 81 d0 2c be c7 5b ed 3e a8 76 c7 be
       0.01843555 -0.16876413 0.46359083 -0.38957715
0000a0 99 5e 9b 3d 17 3c d6 3c f9 e2 99 3e 01 97 0a be
       0.075864024 0.0261517 0.3005598 -0.13534166
0000b0 94 7c bc be bb 72 a7 be 81 fb d4 3e 9b ae 95 bd
       -0.36813796 -0.3270472 0.41598132 -0.07308694
0000c0 3e c2 63 be 3f 58 97 3e e4 d9 b3 be a0 5a d4 3e
       -0.22242066 0.29559514 -0.35127175 0.4147539
0000d0 75 33 93 3e 95 94 a5 3e e9 b1 a2 3c 94 b5 5a be
       0.28750196 0.32339922 0.019860225 -0.21358329
0000e0 52 ba 84 3e e1 1b 3b 3d 3a 92 fb bc 96 4e 16 3e
       0.259234 0.045680884 -0.030709375 0.14678416
0000f0 a4 d6 89 be 6b 81 f9 bb d1 9f a9 3e 16 54 9d 3e
       -0.2692157 -0.007614305 0.33129743 0.30728215
000100 7c 81 a9 3e ad 7f 08 3d 23 32 a9 3d 83 8b 66 3e
       0.331066 0.033324886 0.08261516 0.22514157
000110 be 4f ae be 99 6f 62 bd 2a 57 9b 3f c3 58 b7 bf
       -0.34045213 -0.05528221 1.2135975 -1.4323963
000120 60 3f 00 3d 70 d7 63 bf d6 72 7f be 97 3d 1f 3f
       0.03131044 -0.89000607 -0.2494615 0.62203354
000130 b3 f4 68 3f fe 32 49 bf 3d d4 56 3f 9b 15 b6 bd
       0.9099838 -0.7859343 0.839176 -0.0889084
000140 6c 28 fe bd c6 06 a9 be 11 f6 54 3d b1 00 d6 bd
       -0.124100536 -0.3301298 0.05199248 -0.104493506
000150 5a 31 d0 be 5b d3 82 be 72 04 e0 3e ae fb 07 be
       -0.40662652 -0.25551876 0.43753392 -0.13279602
000160 de b8 25 be 3e 13 e2 bd 83 b3 63 3d 69 3f 71 be
       -0.16183802 -0.110388264 0.055591118 -0.23559345
000170 6a 31 68 be 1c a6 2a 3e 35 2b a1 3e 31 a9 82 3b
       -0.226751 0.16664928 0.31478277 0.0039874543
000180 aa 13 85 3d 44 ff 21 be 41 21 c9 3b 74 3f c0 3e
       0.06497891 -0.15820032 0.0061379974 0.3754841

model.8.bias f4 [10]
000000 9f ea a7 be 83 0e 4e 3e a9 21 9b be d5 b5 79 bd
       -0.3279619 0.20122723 -0.30299118 -0.060964424
000010 5b 8b e0 3e 63 f8 ca be 9f 78 3e bd 6d c7 a8 bb
       0.4385632 -0.3964263 -0.046501752 -0.0051507265
000020 91 20 4f 3e 6d 31 e6 3e
       0.20227267 0.44959584

model.10.weight f4 [10, 10]
000000 3b a8 19 3e df f8 a1 bd 24 85 12 3f 35 5c d6 3e
       0.15005581 -0.079087965 0.57234406 0.41867223
000010 ea ef 02 bf 9f e9 4a 3c 77 58 f9 3e f7 72 e3 bd
       -0.5114733 0.012384801 0.48700306 -0.11105912
000020 9c 0c fe be aa 63 03 bf a5 67 3d be e2 c9 1b 3e
       -0.49618995 -0.5132395 -0.18496569 0.15213731
000030 09 af 55 be 17 d2 d4 3d 0c 63 ad 3e ed 0f 9d 3e
       -0.20867552 0.10391634 0.3386463 0.30676213
000040 f3 83 66 be cc 3e 5c 3e ec de d4 3e ba a0 18 bd
       -0.22511272 0.2150833 0.41576326 -0.037262656
000050 69 64 0d bf 8c cd ec bd 0f 0a c7 3e 38 31 3f bf
       -0.5523134 -0.115626425 0.38874862 -0.74684477
000060 a7 fe 14 3d 9f 09 a2 3e f3 9c e1 3d 66 a5 0e bf
       0.036375668 0.31647965 0.11016264 -0.5572113
000070 00 38 f6 be 1b c6 84 3d 59 2e ea 3e 08 61 df 3d
       -0.480896 0.06483098 0.45738485 0.10907179
000080 a1 c8 8c be 25 d4 03 3f 85 b9 9a 3e 22 57 b0 be
       -0.27496818 0.5149558 0.30219665 -0.34441477
000090 36 dd cc be 3f f2 0d 3f 90 dc 7e 3d ab 44 19 3e
       -0.4001252 0.55447763 0.062222064 0.14967601
0000a0 c6 e7 49 bd 54 d5 bd 3e d1 70 d9 be 06 6c 28 bf
       -0.049293302 0.3707682 -0.42468885 -0.6578983
0000b0 8f ef c9 3e 27 0c 6f be 85 db 01 3e c9 6c 4b bd
       0.3944058 -0.2334448 0.12681396 -0.049664292
0000c0 29 e2 d3 3e f3 06 95 3e 20 b8 df 3e 54 d8 7d be
       0.41383484 0.29106864 0.43695164 -0.24789554
0000d0 bf a0 d8 3e 43 6a 58 bd 14 cf 0d be bd b1 6c 3e
       0.4231014 -0.052835714 -0.13848525 0.23114677
0000e0 cf 77 d6 3d 00 fe 13 bd 3b d4 cd be d2 4a de 3d
       0.104720704 -0.036130905 -0.40200981 0.108541146
0000f0 db 11 a5 3e 58 f2 14 bf a3 28 21 be 5d af 52 3d
       0.32240185 -0.5818229 -0.15738158 0.05143677
000100 5a 7c 2d be 0b f9 10 3c 6d f5 18 3b 43 5a 9d 36
       -0.16941968 0.008848439 0.0023339645 4.6894725e-06
000110 01 76 82 be 0e cc 88 bd 09 f7 31 be de 8b 64 3e
       -0.25480655 -0.06679545 -0.17379393 0.2231898
000120 79 51 bf be 27 b0 43 3e 43 fe d1 3d 36 b7 b3 bd
       -0.37366846 0.19110166 0.10253575 -0.08775179
000130 5d 5c 27 3e ef 53 a3 3b b7 d3 01 3f 02 3f 4f be
       0.16343828 0.004984371 0.50713676 -0.2023888
000140 7a c5 a2 bc e7 6b 89 be 62 d9 39 3e 76 8d 5e be
       -0.019869555 -0.26840135 0.18149331 -0.2173365
000150 d5 14 f0 bd b1 e7 db 3c f4 77 b0 be 64 73 91 bd
       -0.117227234 0.026843878 -0.34466517 -0.07102087
000160 9d 09 5f be 5c 51 88 3e e6 5a b4 3d d9 31 3a be
       -0.21781011 0.26624572 0.088064 -0.18183078
000170 e1 fd 4a 3e 57 12 83 3e 5d f0 11 bf 1e d1 64 bc
       0.1982341 0.2559993 -0.5700739 -0.013965873
000180 9d 3b 7f be 96 b3 83 3d ae f7 83 bd a5 dc 68 3e
       -0.24925084 0.06430738 -0.064437255 0.22740419

model.10.bias f4 [10]
000000 67 9c d9 bd a5 ee 5e be df b8 b2 be c9 e6 4a 3e
       -0.106255345 -0.21770723 -0.3490667 0.198146
000010 5e 1a 99 3e 2d 84 09 be dc 93 55 3e 37 a5 1f 3d
       0.2990293 -0.13429327 0.20857185 0.03897592
000020 4a 48 15 be 7b 9d 2f 3e
       -0.14578357 0.17149918

model.12.weight f4 [10, 10]
000000 92 4f 19 3f f6 69 9c 3d 5d 3a b7 be 37 89 54 3e
       0.5988704 0.07637398 -0.35786715 0.20755468
000010 ef 40 18 bf 54 a6 66 3e 50 15 04 3d 6e cf 47 bd
       -0.5947408 0.22524387 0.032246888 -0.048781805
000020 d9 82 af bd 55 8b bd 3d 6d 06 17 3e 49 66 10 3e
       -0.08569879 0.09255091 0.14748545 0.14101519
000030 b9 cb a7 be a5 14 91 3e 18 5d 3e bf b4 13 03 3e
       -0.32772616 0.28336063 -0.743608 0.12800485
000040 ef c2 98 3e 0f 9a 16 3e 30 e8 41 3b 0d 2e ec 3c
       0.29836223 0.14707206 0.0029587857 0.028830552
000050 fe 2f 97 3e 9e c8 d8 bd 6e 1a b6 be 3c 4b ed 3d
       0.29528803 -0.1058514 -0.3556704 0.115866154
000060 9f ed 06 bf 5d 96 9f 3c 79 b2 cc 3d 54 68 82 3c
       -0.5270633 0.019480878 0.099949785 0.015918888
000070 ed 4b 24 3e 71 94 2d 3e 7f c3 0c bf 0b 0f 76 3d
       0.16044588 0.16951157 -0.54985803 0.06007294
000080 6b f4 94 3e 97 ea 28 3e ab 0c 7a 3e dc 08 fd bd
       0.29092726 0.16495739 0.24418895 -0.123552054
000090 a2 84 62 be cc 4b f4 3e 31 2d 2c be 0f 17 bb bd
       -0.22120908 0.47714078 -0.16814114 -0.091352575
0000a0 80 53 f6 be ba 00 3a be be 87 31 3e 0e e4 c6 be
       -0.4811058 -0.1816434 0.17336938 -0.38845867
0000b0 7e ba 1b 3f f3 46 c7 bc 5a 55 82 3d 21 d0 bf 3e
       0.6083144 -0.024325823 0.06363936 0.37463477
0000c0 8c e4 a3 3b 48 06 01 3e 0a 19 b9 3d fe 38 01 bf
       0.00500161 0.12600052 0.09037979 -0.5047759
0000d0 96 1a 76 be 5b 15 a0 3e 13 11 70 be 9a 4e d8 3e
       -0.24033579 0.31266293 -0.23444013 0.42247468
0000e0 63 07 d9 bc 92 ee 6a 3e c1 5e a9 bc 4c 96 1f 3d
       -0.02649278 0.2294257 -0.020675065 0.038961694
0000f0 b2 0e 8c bd 0a 2b 28 3e 37 45 9e bd f3 5e da be
       -0.068387404 0.16422668 -0.077280454 -0.42650566
000100 e6 2b de 3e 48 5c 12 be 31 76 0b be 1a 3d c7 3d
       0.43392867 -0.14293015 -0.13619305 0.09728451
000110 a6 ef 5a bc 5b 67 2b be c6 f2 01 3f 2d f6 8f bd
       -0.013362801 -0.16738646 0.5076107 -0.07029376
000120 db bc 86 3d 53 8b 64 3d f4 55 4c be 87 6a b0 3e
       0.0657899 0.055796932 -0.19954664 0.34456274
000130 83 eb 1a 3e 8d a6 21 be cc 32 80 3d 17 78 c7 bc
       0.15128903 -0.1578619 0.06259689 -0.024349255
000140 cb 7f 3c 3e 90 6a cf be 19 f8 4a 3d d8 3c 5d 3e
       0.18408124 -0.40510988 0.04955301 0.21605241
000150 19 f2 8b be 0a e6 c4 3e 72 c7 21 3e 7a 05 5e be
       -0.27333143 0.38456756 0.15798739 -0.21681777
000160 9a e7 40 3e 75 bc 00 bd 07 31 c0 be a1 b2 77 bc
       0.18838349 -0.031429727 -0.37537405 -0.015118272
000170 33 dd be bd 58 da ff bd 3a 55 8f 3e d0 bb f9 be
       -0.09319534 -0.12492818 0.2799471 -0.48776102
000180 c0 a7 79 bd f7 83 81 3e 19 31 10 be 59 8d 21 be
       -0.060950994 0.25295994 -0.1408123 -0.15776576

model.12.bias f4 [10]
000000 28 34 0f 3e 95 dc 07 3e 83 b8 96 3d 88 41 09 be
       0.1398474 0.13267739 0.073594116 -0.13403904
000010 bc d5 4c 3d b8 4d 4f bd 37 29 17 3e 3a b2 66 3e
       0.05000852 -0.050611228 0.14761816 0.22528926
000020 61 31 50 be 7a bd 9a be
       -0.20331337 -0.30222684

model.14.weight f4 [1, 10]
000000 56 3c 04 3f 3d b2 91 3e 47 a6 f7 3e 37 02 d4 be
       0.51654565 0.28456298 0.48369047 -0.4140794
000010 4a a2 39 bf cf 6b 60 3e b4 95 c5 be af ba 65 3e
       -0.7251326 0.21916126 -0.38590777 0.22434495
000020 32 d9 a8 3e c1 ca ae be
       0.32978207 -0.34139064
