NeuralGalerkin/models/autosave/Gen_3_Loss_2.44e-06.pt (torch, 188511 bytes, 15 tensors)

model.0.weight f4 [10, 2]
00000000: 79a1 c63e fa3e 253f cd6c f33e 6f57 0c3e
00000010: a6b8 04bf e7ef 4ebf 0b76 22be b67f 21bf
00000020: 1f7d 853e 8711 943f 5b96 ab3d d1c5 543f
00000030: e038 10bf 62af 3ebf d23d 223f 66fa 1f3f
00000040: 91d0 d83e abed b73e fe7d 233f c4ec e9be
0.3879507 0.6454922 0.47543946 0.13705228 -0.5184425 -0.8083481 -0.15865342 -0.63085496
0.26072022 1.1567849 0.083782874 0.83114344 -0.56336784 -0.7448636 0.6337558 0.6249145
0.42346624 0.35923514 0.63864124 -0.4568845

model.0.bias f4 [10]
00000000: 7bd5 0f3e 926f 2b3f fd0c 1fbe 4c44 063f
00000010: 3ed1 c1bc f70c ddbe e1d9 703e afe4 1abe
00000020: 1ac6 023f 7e57 bd3e
0.1404628 0.6696712 -0.15532298 0.5244796 -0.023659345 -0.43173954 0.23520614 -0.15126298
0.5108353 0.36980814

model.2.weight f4 [10, 10]
00000000: 76e4 223d 1a67 863d 01fe ed3d 2705 61bd
00000010: e593 29be 3163 2dbe 3970 853e a019 86be
00000020: 4c8f dcbd 097e 283d b594 513d e896 d73d
00000030: 8073 37be 2baf c0be 8d74 c13e 69b7 1b3f
00000040: 9627 a5be a47b 04be 1ff8 9fbd 40b1 2dbd
00000050: 3c38 3c3e 56e2 0abe a1fd aabe fc11 3fbe
00000060: f597 cb3e 33e2 cf3e 0a9d dabe d188 8a3e
00000070: 6c88 403e f503 91be c881 aebe f964 acbe
00000080: e59a 823e 8b42 93be 23bc 77be 5445 943e
00000090: 0580 01be 9858 e13d 39ed a5be d4df 863e
000000a0: 873b 313e 4ab0 b13d 304e 113e 8858 9d3e
000000b0: c464 e93d 268c 59bf cac5 9c3e af26 083d
000000c0: 9966 54bc ec14 7e3e 12a4 71bd bad2 c43e
000000d0: 1c54 063e c35f da3e 6cc4 b7be 36d9 e9be
000000e0: d56b 813e 7108 01bf 6b29 7e3e 198d ea3e
000000f0: 311a 2a3d a00d b0bd f1f9 ed3e d4ce 023e
00000100: 5c8b fa3c 5df6 f3be 91aa f23e a783 e3be
00000110: e7af a2be 2485 833d 2bcf 763b ccce 25be
00000120: fae2 623e 8dd6 80be 4deb f33c 84d0 703e
00000130: a111 09bf 799c 2e3e ce1b 933e 0c96 51be
00000140: 55a1 ec3e 3688 5b3c b081 113e 59e2 23bf
00000150: 9d2d ef3e ca0a 3d3f 0e6d c5be 986b 033f
00000160: 27a2 87be 39e7 68bf 7861 e5bd 803f 9bbe
00000170: dfde 97be 949a 3fbd fbf9 98bd 83fb dd3e
00000180: 5b92 eabe e44d ea3d 5de8 273e 2888 22be
0.03976866 0.06562634 0.11620713 -0.054936554 -0.16560324 -0.1693237 0.26062182 -0.26191425
-0.10769519 0.04113582 0.05116721 0.1052683 -0.17915154 -0.37633643 0.37784234 0.60826737
-0.32256764 -0.1293779 -0.07810997 -0.042405367 0.18380827 -0.13562903 -0.33396628 -0.18659204
0.39764372 0.40602264 -0.42697936 0.27057508 0.18802041 -0.2832333 -0.3408339 -0.33670786
0.255088 -0.28761706 -0.24192862 0.28959143 -0.12646492 0.11003226 -0.3240755 0.26342642
0.17307864 0.086762026 0.14189982 0.30731606 0.11396173 -0.84979475 0.3061965 0.033240017
-0.012963914 0.24812669 -0.05899436 0.38442022 0.13118023 0.42651185 -0.35892045 -0.4567353
0.25277582 -0.50403506 0.24820487 0.45810774 0.041528884 -0.08596349 0.46479753 0.12774211
0.03058403 -0.47648898 0.47395757 -0.4443638 -0.31774828 0.06421879 0.0037660103 -0.16192168
0.22156897 -0.2516369 0.029775286 0.23517042 -0.53542525 0.17051877 0.2873215 -0.20467395
0.46216837 0.013399174 0.14209628 -0.64017254 0.46714488 0.7384459 -0.38559765 0.5133605
-0.264909 -0.9097782 -0.11200231 -0.30321884 -0.29662225 -0.046778277 -0.07469555 0.4335595
-0.45814785 0.11440638 0.16397233 -0.15872252

model.2.bias f4 [10]
00000000: 7136 80bd 577e 323e f66b 723e 0fcf 25be
00000010: 38ae d23e cbd8 bd3e aa44 bcbe f56b 91be
00000020: 73bd 21be 3718 f7bd
-0.06260384 0.17431007 0.23673996 -0.16192268 0.41148543 0.37079462 -0.36771137 -0.28402677
-0.15794925 -0.120651655

model.4.weight f4 [10, 10]
00000000: 7c59 453e 4dad 40be 4f92 d9bd 0380 09bf
00000010: b495 083f 25ba 2e3f a15d 863d bc5e 28be
00000020: d10d 74be a3dd cebe 6ca1 de3d 8c8d a9be
00000030: 360c 02bf 3dd9 48bd 1b8a cc3e a812 113f
00000040: 6677 8f3d 9a28 18be b208 7dbf 1c81 a4be
00000050: 3f09 763e 3ee4 b5be b14d 37be 055c 683e
00000060: a179 1b3f a531 2b3f aea6 f13d bf70 aabe
00000070: 8819 51bf 4f66 4bbf 76de efbc 54f0 213d
00000080: 41e7 a83e c051 10be c4c9 863e c18f 90bc
00000090: cce6 09be cf02 dd3c 12b5 c3bd aeff 8d3e
000000a0: 0f01 eebc 95fa d8be b67c a53d 5a6e 88be
000000b0: d56b 8a3d d81e 853d 5ace c53e 0224 40be
000000c0: 6bec 1ebf 348a 0cbe fb6b 893e a497 a93c
000000d0: 35d4 2cbc 7260 23be adc2 7abe 8a4a b9be
000000e0: c0c3 b13e b8c8 f73e 17ca ac3e 433f e03e
000000f0: be91 b6bd 646d d63e 4118 8c3e 6432 eb3d
00000100: 8b13 963d bbcb cfbd 54cb 0bbe 194f 9d3d
00000110: 9730 6e3e e84b c6ba ed8e 2a3e 6afc a43d
00000120: 9fc7 b43e 98ed bbbe 6ab6 d8bb da03 3fbe
00000130: 36fa 503d c052 9bbe a279 e53e 448c 72be
00000140: fba8 1e3e 9087 8f3e 7dee c33c e595 25be
00000150: 2259 96be fe03 88be edc1 a6be 5298 8c3e
00000160: 766b e03d abaa 813e 0a7f 0a3e 8168 1bbe
00000170: 7126 afbe 23d1 013e ed9c 8b3e bbbf 2cbe
00000180: bc31 c9bd d1ae 633e 60d0 23be 06b7 fd3d
0.19272417 -0.18816109 -0.10623609 -0.53710955 0.5335343 0.68252784 0.06560827 -0.16442388
-0.23833396 -0.4040347 0.108706325 -0.33115804 -0.5079988 -0.0490353 0.39949116 0.5666909
0.07005195 -0.14859238 -0.98841393 -0.32129753 0.24026965 -0.35525697 -0.1790073 0.22691353
0.60732466 0.66872627 0.1179937 -0.33289143 -0.8167958 -0.79452986 -0.029280882 0.039535835
0.32988933 -0.14093685 0.2632581 -0.017646672 -0.13466948 0.026978878 -0.09556021 0.2773413
-0.02905324 -0.4237868 0.08080427 -0.26646692 0.067588486 0.065000236 0.38633996 -0.18763736
-0.62079495 -0.13724595 0.26840195 0.02070219 -0.010548641 -0.1595476 -0.24488325 -0.3618968
0.34719658 0.48395324 0.33747932 0.43798265 -0.08914517 0.41880333 0.27362254 0.114842206
0.07327946 -0.101462804 -0.13651782 0.07681102 0.23260723 -0.0015128823 0.16656084 0.08055957
0.3530855 -0.36704707 -0.0066135423 -0.18653813 0.05101987 -0.3033657 0.4481936 -0.2368632
0.15494148 0.28033113 0.023917431 -0.16170461 -0.29364878 -0.26565546 -0.3256983 0.2745996
0.109579965 0.25325522 0.13525024 -0.15176584 -0.34209016 0.12677436 0.27268162 -0.16870014
-0.09823939 0.22234656 -0.15997458 0.123884246

model.4.bias f4 [10]
00000000: 1589 283f 5311 3fbe fde6 39bd ef57 0e3e
00000010: 9a9c cb3d 4e56 633d 2f40 773e 91ce 873e
00000020: fbca 6c3e f2e6 91be
0.6583417 -0.18658952 -0.045386303 0.13900732 0.09941979 0.05550223 0.24145578 0.26524785
0.23124306 -0.2849651

model.6.weight f4 [10, 10]
00000000: 56fe d13e 5b2d 2d3f 1c9f ad3e b72c 9ebe
00000010: bc54 7c3e e75b 25be 1261 61be 3c0b 33be
00000020: 16fd 8ebe 883c b43e 0890 78be 1384 c5be
00000030: ad00 c8be e772 8a3e 1dc6 94be f861 f3be
00000040: ed64 ad3e 0b1f 26bc 2d19 d93e 26c6 10bd
00000050: 8760 d93e 63ea c63e 55c0 ad3e ed0a 52be
00000060: 9e13 d73e 8055 32bf 52b1 02be 65d2 a83d
00000070: 41b7 88bd 5acb 41bd b383 273f d3e9 393e
00000080: 4548 d03e 20c4 353f f5c2 983e 1e69 25bf
00000090: 986a eb3e 7d41 373e 702e 67bd bd2f 50bd
000000a0: ce4d 71be 686b 523e 69ae 74be e247 d6be
000000b0: be55 913e 78f3 213e 8e11 edbe 7054 b43b
000000c0: cdf0 93be 05ce bd3d bb31 e03e 359e 203f
000000d0: 9a48 113f b274 94be d19f ed3e 3f65 f43d
000000e0: 9315 9fbe e43b c8bb 83cf 12bf edce 8f3e
000000f0: 7043 a73e 36ab 1d3e 31c1 01be c2d7 b3be
00000100: 6430 903e b020 8ebd 9162 01bf 4ed9 e83c
00000110: 98bb aebd abc2 a13e d585 14be d6aa 5e3e
00000120: cf87 843e f86f e83e 2212 f0bd 4ae0 f7be
00000130: 42a8 b8bd 2a3b da3e 7fb9 793e f5a3 883d
00000140: 50f6 013f eaeb 8e3f 0322 0e3f b529 7fbe
00000150: 0bb0 243f 0305 41bf c2df 3fbf 656a 10bf
00000160: 15d3 3abf b049 eabd 38fa 9f3d f189 10bf
00000170: 4593 d4be 1d34 1ebd 4446 aebd dd3b 033f
00000180: 5e9d fc3e c421 613e c652 5a3e 6946 bbbd
0.41014355 0.6764733 0.33910453 -0.3089349 0.24641699 -0.16148339 -0.22009686 -0.17484754
-0.27927464 0.35202432 -0.24273694 -0.38577327 -0.39063016 0.2704079 -0.29057398 -0.47535682
0.33866063 -0.010139237 0.4240202 -0.03534522 0.42456457 0.38850698 0.339358 -0.2051198
0.42007154 -0.6966171 -0.12762955 0.082432546 -0.06675578 -0.04731307 0.6543533 0.18155603
0.40680137 0.7100239 0.2983624 -0.6461352 0.45979762 0.17896076 -0.05644077 -0.050826777
-0.23564836 0.20548785 -0.23894657 -0.41851717 0.2838573 0.15815532 -0.46302456 0.00550323
-0.28894654 0.09267811 0.4378794 0.62741405 0.56751406 -0.2899528 0.46410993 0.11933374
-0.31071147 -0.006110655 -0.5734789 0.2808756 0.32668638 0.15397343 -0.12671353 -0.35125548
0.2816192 -0.069398284 -0.50541025 0.028423931 -0.085318744 0.31593832 -0.14504178 0.21744856
0.25884864 0.45397925 -0.117222086 -0.48413306 -0.09016468 0.42623264 0.24387167 0.06671897
0.5076647 1.1165745 0.5552065 -0.24918254 0.6433112 -0.7539827 -0.749508 -0.56412345
-0.72978336 -0.11439836 0.07811397 -0.5646048 -0.41518608 -0.038623918 -0.08509496 0.5126322
0.49338812 0.21985537 0.21320638 -0.09144289

model.6.bias f4 [10]
00000000: cd56 32be 7bba ba3d 4c29 5f3e f32b 633e
00000010: 187e 9a3d 23be abbd 5d0e b2be 402d d23e
00000020: 0e3c 733d b53e 8bbc
-0.17415924 0.091175996 0.21793097 0.22184734 0.07543582 -0.08385875 -0.34776583 0.41050148
0.059383444 -0.016997674

model.8.weight f4 [10, 10]
00000000: 6dff d7bd ac91 7ebe 4774 f5bd b94c 8cbe
00000010: fdba c3bc 6d25 93bb 2242 513e 59a8 9bbd
00000020: 8feb 27be 0268 9dbe 05dc 7e3d 061c de3e
00000030: b127 6fbd bbb3 b43e ffa6 d5be 6b35 1ebe
00000040: 4a92 98bd 1f5c bcbd dd01 80bc 7fb6 a5bd
00000050: dbea 8abe 1a59 b93e f800 07bf 0198 31bf
00000060: 330b e7be 463a 54bc db87 22be f64a 09be
00000070: b48b c9be 7ba3 aebd 6891 ab3e 55c2 d8be
00000080: 23cb 43be c74d bc3e 1337 843e 56e8 a33e
00000090: 5d8a af3e 144d 9ebe af43 863d 97a3 57be
000000a0: 40bd d9bd 51e7 fa3d a76a e1bd cc15 ba3e
000000b0: 3f01 6abe 56e1 bcbe f2f1 7ebd 92b8 71be
000000c0: d429 a83d e5b9 ae3e a761 893e c57c b0be
000000d0: 8379 02be b1b3 09bf 0493 c23e 9e62 473e
000000e0: e0e8 aabd 1f0d ef3e 7ce8 f9be 7b60 8e3e
000000f0: fa6f acbd ed90 b1be 75fe ccbe 9f1d 1dbe
00000100: 1543 15bd b8ca 11bd f249 c13e 4266 87be
00000110: 2303 d6be e728 97be c279 413e c551 6abe
00000120: 6a9a e73c bed2 0a3f c217 963e d9d6 e53e
00000130: c8f5 963d 0550 b7bc 94c1 233f 5516 bdbe
00000140: 8dcf c23e 11a8 2ebf c383 4c3d e8ee d43e
00000150: f952 043d b7df 313f 033e 613d 0aa7 34be
00000160: 7f67 243f 8f69 c6be db6d cb3d ef74 9d3d
00000170: e740 b63e 3ff6 3b3c 6a6e d3be 946d 8fbe
00000180: b548 b1be 3188 d1be 5618 193f 8735 19be
-0.105467655 -0.24860257 -0.11985069 -0.27402285 -0.023892874 -0.0044905455 0.20435384 -0.07600469
-0.16398452 -0.30743414 0.062221546 0.43380755 -0.058387462 0.35293373 -0.4172897 -0.15450065
-0.074497774 -0.09197258 -0.015625888 -0.08091449 -0.27132306 0.36200792 -0.52735853 -0.69372565
-0.45125732 -0.012953347 -0.15872137 -0.13407502 -0.39364398 -0.08527275 0.33509374 -0.42335764
-0.1912046 0.3677809 0.25823268 0.32013196 0.3428525 -0.3091818 0.06555878 -0.21058498
-0.106318 0.12251151 -0.110066704 0.36344755 -0.22852038 -0.36890668 -0.062242456 -0.23605564
0.08211103 0.341262 0.26832315 -0.34470192 -0.12741666 -0.5378981 0.3800279 0.19471213
-0.08345199 0.46689698 -0.48810184 0.27807984 -0.08419795 -0.34680882 -0.40037885 -0.15343331
-0.036440928 -0.03559372 0.37751728 -0.26445204 -0.41799268 -0.29523394 0.18894103 -0.22882755
0.028271873 0.5422782 0.29315 0.44890478 0.07371098 -0.022377023 0.6396725 -0.369311
0.38048974 -0.682252 0.049930345 0.4158852 0.03230569 0.69481987 0.05499078 -0.17641845
0.6422042 -0.3875241 0.09933063 0.07688319 0.35596392 0.011472284 -0.41295177 -0.2801329
-0.34625784 -0.40924218 0.5980276 -0.14961825

model.8.bias f4 [10]
00000000: 45d8 a73e 0e5f 5a3e b6ee d5bd 3a78 08bb
00000010: fce1 51be d9ba 093e 3a26 bb3d dd8d 303e
00000020: 4bad aabe 54f8 28be
0.32782188 0.21325323 -0.10445921 -0.0020823614 -0.20496362 0.13450183 0.091381505 0.17241617
-0.33335337 -0.1650098

model.10.weight f4 [10, 10]
00000000: 2dfb 1c3e f83b 16bd a28a d33e 5b7c f23d
00000010: 7be3 a3bd c4aa 023f 79df 93bd 1f17 c9be
00000020: 6295 99be d84e a7be 4a41 76be 0404 343e
00000030: f1a7 90be f90e 8cbe 620f 6d3e 89a6 be3d
00000040: fa58 473d 017b 0ebe b521 af3d c512 f93d
00000050: 690f 413d 99fe 8dbe 3b8d 843d 3fb8 70be
00000060: 4ad2 223e d6fa 9abe 7cc3 b8be 6b53 0a3e
00000070: 8484 8dbe 3898 95bd f83b 4f3e c6e7 b63e
00000080: c935 f9bc fe00 493e 48b4 5dbe bae1 d83e
00000090: ce72 0abe 8388 b6be 0e0a 303e 6db2 08be
000000a0: 0fc8 f7bd dbb0 243e b01c 883e 305f adbe
000000b0: b3f1 e53e 51a5 83bb 3204 c73d 2151 a9be
000000c0: d954 efbe 4ac4 2c3d a514 6dbc ecb6 f83d
000000d0: 49ec a9be 7a53 fb3d 8838 293f f00a e8bd
000000e0: a06e afbe 19d0 49bd 5e63 acbe d38e 283d
000000f0: 5e10 a63e 6e5a 05bf f1de 6f3e 40dd ef3e
00000100: 08e0 b5bd 9abc e23e f0f4 dd3d bd69 11bf
00000110: 8fe4 84be ccb2 2bbf 4c3c b8bd 5dfb c23d
00000120: a128 a63e dc97 993d a7c4 e5be f0b9 0c3f
00000130: c70c 443e 2438 753e 9d14 0b3e 592c 6cbe
00000140: 58c4 c43d e726 79be 8ab5 2cbe d8e7 11bd
00000150: 74c9 01be ed2c 2cbe 02f8 753e b69e a53e
00000160: 9f70 14be d253 b4bd 3356 72bd 19f4 eabd
00000170: 8c26 593e d0ff 8cbd 9781 f0bd 0ca4 b53e
00000180: 5f12 a43e 755a 85be d35c 973e 112d 863d
0.15330191 -0.036678284 0.41316706 0.11840125 -0.08002373 0.5104182 -0.072203584 -0.39275452
-0.29996783 -0.3267734 -0.24048343 0.17579657 -0.2825313 -0.27355173 0.231504 0.09309108
0.04866884 -0.1391411 0.08551351 0.12161783 0.047133837 -0.27733305 0.0647225 -0.23507784
0.15900531 -0.30269498 -0.36086643 0.13508384 -0.27640164 -0.07304424 0.2023772 0.35723704
-0.030421155 0.19629285 -0.21650803 0.42359716 -0.13520357 -0.35651025 0.17191336 -0.13349314
-0.12098705 0.1608309 0.26584387 -0.33861685 0.44910964 -0.00401751 0.09717597 -0.3306971
-0.4674442 0.042179383 -0.014470254 0.121442646 -0.33188084 0.12271781 0.66101885 -0.11330211
-0.34264088 -0.049270723 -0.3366956 0.041151833 0.32434362 -0.5209111 0.23424889 0.46848488
-0.08880621 0.44284517 0.10837734 -0.5680197 -0.25955626 -0.670697 -0.08995876 0.095206
0.32452872 0.07499668 -0.44876596 0.5497122 0.19145499 0.23947197 0.13582082 -0.23063792
0.09607762 -0.24331246 -0.16866127 -0.035621494 -0.12674505 -0.16814013 0.24020389 0.3234765
-0.14496087 -0.0880505 -0.059164237 -0.11472339 0.2120611 -0.0688473 -0.11743467 0.3547672
0.32045266 -0.26045576 0.29563007 0.065515645

model.10.bias f4 [10]
00000000: 26f3 efbd d9d0 883e 7b28 90bb d706 4cbe
00000010: cbe2 833e 65eb e0bc 2326 823e 35de 763e
00000020: a871 1abd 3a92 983e
-0.11716299 0.26721838 -0.004399357 -0.19924484 0.25758967 -0.027455995 0.2541972 0.24108203
-0.037706047 0.29799062

model.12.weight f4 [10, 10]
00000000: 947f d43e f15d 463d f33a c3bd 3aab 0a3e
00000010: 5d18 3d3e 6d3e 90be 0cba 2d3f 5487 cb3d
00000020: feec 663e b102 4c3c ac77 5d3e 16dc 7ebe
00000030: 4ef6 8d3d b6af c43e 281a 783e 9c15 a9be
00000040: 3527 053f d378 573e 6623 82bd feb5 943e
00000050: 5973 d9bc dc3d 23be 2ddf adbe 8414 01be
00000060: 8c2e c6be 52c1 babe 082b 843e 6acf f93d
00000070: 21e8 913e b268 2a3b 5986 6d3e b7f8 0abd
00000080: 2031 9ebe 0bbb 903e 7f5c 90bd 0d76 d8be
00000090: 7da1 4a3e 3ee9 c93e 9203 b2be e37f a03e
000000a0: cf7f a1be 883d a93e 180f c93d fc84 99bc
000000b0: 7f47 933e 93e8 a8bc c9f7 17bf 8f22 dfbd
000000c0: 328f 273d ec30 aebe 8a8b bd3e 2d8a 43be
000000d0: 37ef 58be 6b48 e23b 9a2a 8cbe 013d 01be
000000e0: 2e10 b73e dbdb 5d3c ef99 d7bd 7cde 783e
000000f0: 8353 703d 28c6 87be edf2 4bbe 4de3 273e
00000100: b07c cbbe d891 86be 6869 c23e 9af1 ad3d
00000110: 4f31 a23d 16dc 2d3e 6edb b53e d492 70be
00000120: 6bfb 89be 31e7 913e d0f7 69be 6b14 2f3e
00000130: e6e4 563e 0b0c da3e 3056 b33d 7c75 bcbd
00000140: d54a 32be ba53 98ba 78ce b43e 9b07 413e
00000150: 2965 bc3e 941e 5dbc 632a aabe 211d 03bf
00000160: 3eb7 2c3e c93b d7bd a788 6e3e c884 8b3e
00000170: 220e 713e 045d 27be 5652 b83e 848c d23d
00000180: 50f9 15be feb1 c5be edf5 183e 27bb 21bd
0.41503584 0.048429433 -0.09532728 0.1354188 0.18466325 -0.28172627 0.6786201 0.09937921
0.22551343 0.012451814 0.21627682 -0.24888644 0.069317445 0.38415307 0.24228728 -0.330243
0.5201295 0.21042185 -0.06354408 0.290451 -0.02654426 -0.15941566 -0.33959332 -0.12605482
-0.38707387 -0.36475617 0.2581408 0.12197764 0.28497413 0.0026002345 0.23195781 -0.0339286
-0.30896854 0.28267702 -0.07048892 -0.42277566 0.19788165 0.39435762 -0.3476835 0.3134757
-0.31542823 0.33054757 0.09817332 -0.01874017 0.28765485 -0.020618713 -0.59362465 -0.108952634
0.040908046 -0.340217 0.37020522 -0.19095679 -0.21185003 0.0069056056 -0.27376252 -0.12620927
0.35754532 0.013541187 -0.105274074 0.24303621 0.058673393 -0.2651837 -0.19916888 0.16395302
-0.39743567 -0.26283145 0.37971044 0.084933475 0.07919561 0.16978487 0.35518974 -0.2349351
-0.2694963 0.28496698 -0.22848439 0.17097633 0.20985755 0.42587313 0.08756673 -0.09202096
-0.17411359 -0.0011621632 0.35313773 0.18850558 0.3679593 -0.01349606 -0.33235464 -0.5121632
0.16866776 -0.1050945 0.23294316 0.27249742 0.23540547 -0.16344076 0.36000317 0.102807075
-0.14645886 -0.3861236 0.14937563 -0.039485123

model.12.bias f4 [10]
00000000: 8132 7f3e 9ed9 ad3d 1acf 11bc 5ae7 903e
00000010: f7b7 73be 10ee 363e 0a4e 273e 2397 ebbd
00000020: fee4 183e 9b03 9e3e
0.2492161 0.08488773 -0.0088994745 0.28301507 -0.23800646 0.17864251 0.16338363 -0.115034364
0.14931104 0.30862126

model.14.weight f4 [1, 10]
00000000: 8252 5cbe 96c5 19bf badc a3be 191a 9fbe
00000010: 482c bc3e 68a5 cabe 494a d3be d32d c9be
00000020: 06d1 823e 9d2c bd3e
-0.21515849 -0.6006712 -0.32004339 -0.31074598 0.36752534 -0.3957932 -0.41267613 -0.39292774
0.25550097 0.369481
