NeuralGalerkin/models/autosave/Gen_2_Loss_0.09467182.pt (torch, 98567 bytes, 15 tensors)

model.0.weight f4 [10, 2]
0	0x3ed1491b	0.40876088
1	0x3f0d1e46	0.5512432
2	0xbe53b6b5	-0.20675166
3	0x3eed0ac4	0.46297276
4	0x3eb6b755	0.35686746
5	0x3ef651bb	0.4810923
6	0x3dc5e23c	0.096622914
7	0x3b2eff65	0.002670252
8	0x3ebc6040	0.36792183
9	0xbec63216	-0.38710088
10	0xbe66588d	-0.22494717
11	0xbef3f1c2	-0.47645384
12	0xbf272aa4	-0.6529944
13	0x3ec589c2	0.38581663
14	0x3ea021cf	0.31275794
15	0x3ebd331f	0.36953065
16	0xbaceb7df	-0.0015771351
17	0xbe7ccad3	-0.24686746
18	0x3e03ef66	0.12884292
19	0x3e64b837	0.22335897

model.0.bias f4 [10]
0	0xbabade1a	-0.0014256865
1	0xbe656b6b	-0.22404258
2	0xbee29daa	-0.44260913
3	0xbe250516	-0.16115221
4	0xbed4446c	-0.41458452
5	0xbde46689	-0.111523695
6	0x3ee82810	0.45343065
7	0xbe8e0a36	-0.27742165
8	0xbf075ff8	-0.5288081
9	0xbd2270c0	-0.039658308

model.2.weight f4 [10, 10]
0	0xbe16eeba	-0.14739504
1	0xbd2af359	-0.04173598
2	0xbc85a7ca	-0.01631536
3	0x3d630c28	0.055431515
4	0xbdd253de	-0.10269903
5	0x3dc97fa5	0.098387994
6	0x3e3f9c7c	0.18712038
7	0xbd3dea97	-0.0463663
8	0x3e7d9e08	0.24767315
9	0x3dfad095	0.12246815
10	0xbe3c5b6c	-0.1839425
11	0x3c2415b5	0.010014941
12	0x3e433e80	0.1906681
13	0xbe03f1a0	-0.12885141
14	0x3dfe76af	0.12424981
15	0x3e5b27a9	0.21401848
16	0xbe804021	-0.25048926
17	0x3e1e9a1a	0.15488473
18	0x3e3fd297	0.18732677
19	0xbe569b49	-0.20957674
20	0xbd33c8b5	-0.04389258
21	0x3db1273b	0.08650061
22	0xbe9263bb	-0.28591713
23	0x3e0800e9	0.13281597
24	0x3e360d64	0.17778546
25	0x3e27e01d	0.16394086
26	0x3d29a8ee	0.04142087
27	0xbce5dacf	-0.028058438
28	0x3e38beba	0.18041506
29	0x3e2598cb	0.16171567
30	0x3b944973	0.0045253574
31	0x3e0f6cb1	0.14006306
32	0x3e8a9223	0.27064618
33	0x3e1fb2d4	0.15595561
34	0x3d9752d2	0.073888436
35	0xbd32f752	-0.043692894
36	0xbe8bf783	-0.27337274
37	0x3e7bde0a	0.2459642
38	0xbe8c26ad	-0.27373257
39	0xbe8263d3	-0.25466785
40	0x3e34d783	0.17660336
41	0xbe7c8191	-0.246588
42	0xbd791f13	-0.06082065
43	0xbe40c346	-0.18824491
44	0x3e30ccff	0.172657
45	0x3d4a0f7e	0.04933118
46	0xbdcc9a45	-0.09990362
47	0x3e504676	0.20339379
48	0xbce09f54	-0.027419724
49	0xbeaf6efe	-0.34264368
50	0xbe843bc3	-0.25826845
51	0xbe2c8ab0	-0.1684978
52	0xbe484e25	-0.1956106
53	0xbd0d0ada	-0.034434177
54	0xbea31e2f	-0.31858966
55	0xb995da9a	-0.00028582365
56	0xbe86185b	-0.26190457
57	0xbd92dc07	-0.07170873
58	0x3cf4ae56	0.029868286
59	0x3d88a5b2	0.06672229
60	0x3e15117d	0.14557452
61	0xbe8db2f0	-0.2767558
62	0xbd4a039a	-0.04931984
63	0x3dc0aa88	0.09407526
64	0xbe2879ad	-0.16452666
65	0x3d862f2b	0.06551965
66	0x3e86a06d	0.2629427
67	0xbe146dcc	-0.14495009
68	0x3e57cc9f	0.2107415
69	0x3e85b91b	0.26117787
70	0x3d13d7f1	0.03609461
71	0xbd7b2669	-0.061315928
72	0x3e63cfd7	0.22247253
73	0x3e338399	0.1753067
74	0x3d95e696	0.073193714
75	0x3da6fdc7	0.08153873
76	0xbb874fc9	-0.004129384
77	0xbde71818	-0.112838924
78	0xbe889ecb	-0.2668365
79	0xbe9ca0c9	-0.3059142
80	0xbe8fc4fa	-0.2807997
81	0x3b170f6d	0.0023049966
82	0xbe835b79	-0.25655726
83	0x3e7e8026	0.24853572
84	0xbe1cd7ce	-0.15316698
85	0x3e0dc32f	0.13843988
86	0x3e28a058	0.16467416
87	0x3e0dfa84	0.13865095
88	0x3e282968	0.16422045
89	0xbe0ce561	-0.13759376
90	0xbb0015e5	-0.00195443
91	0xbe95697a	-0.29182035
92	0x3e754af9	0.23954381
93	0x3e1a934d	0.15095253
94	0x3d9c90da	0.07644816
95	0x3c3df227	0.011593378
96	0x3dd7f29d	0.10544322
97	0xbe8c15f8	-0.2736051
98	0x3d9b5579	0.07584662
99	0xbdc0768a	-0.093976095

model.2.bias f4 [10]
0	0x3d00c234	0.031435207
1	0xbe89508a	-0.2681926
2	0xbd8026d0	-0.06257403
3	0xbe08caf9	-0.13358678
4	0xbe75188c	-0.23935145
5	0x3e140f36	0.14458928
6	0x3e4b09b6	0.19827923
7	0xbe8f053d	-0.27933684
8	0xbdc8cb2b	-0.09804376
9	0xbe7d159c	-0.24715275

model.4.weight f4 [10, 10]
0	0xbd90e5bd	-0.07075069
1	0x3dcfca37	0.10145991
2	0x3d9ed0f3	0.07754698
3	0xbe8b93fe	-0.27261347
4	0x3e1346bd	0.14382453
5	0x3e9c9621	0.3058329
6	0x3de700d7	0.11279457
7	0x3dd33378	0.10312551
8	0xbea54023	-0.32275495
9	0x3de56962	0.11201741
10	0x3e56c5b7	0.2097386
11	0x3e64561d	0.22298475
12	0xbdd14860	-0.102188826
13	0x3e871818	0.2638557
14	0xbd9ee572	-0.07758607
15	0xbeb44df4	-0.35215724
16	0x3e586da6	0.21135578
17	0xbc077c64	-0.008269403
18	0xbe19dfc1	-0.15026762
19	0xbda56d07	-0.08077436
20	0xbe9ec8c9	-0.31012562
21	0xbca73c5e	-0.020414528
22	0x3e811362	0.252101
23	0xbd4ece1b	-0.050489526
24	0x3dbbf1e0	0.09176993
25	0xbe90ea26	-0.2830364
26	0x3e6572cf	0.22407077
27	0x3d67b7e5	0.05657186
28	0xbe7c6716	-0.24648699
29	0xbd0d57b4	-0.03450747
30	0xbcabe542	-0.020983342
31	0xbe063ec1	-0.13109876
32	0xbcb01251	-0.021493109
33	0x3e7e51a0	0.24835825
34	0xbd1155c4	-0.035482183
35	0xbe4c9bc6	-0.19981298
36	0xbd78c1f2	-0.060731836
37	0xbe91aa79	-0.28450373
38	0x3e04c8b2	0.12967184
39	0x3e553dc5	0.20824344
40	0x3e89e977	0.26935932
41	0x3df117fe	0.11772154
42	0x3dde19a2	0.10844733
43	0x3e271c8f	0.16319488
44	0xbdfa03d2	-0.1220776
45	0x3d826b04	0.06368068
46	0x3e4a1df4	0.19737989
47	0x3d9c9730	0.07646024
48	0xbe909444	-0.28238118
49	0xbda417ac	-0.080123276
50	0xbe8cbfb0	-0.27489996
51	0xbc291c07	-0.010321624
52	0xbbacc10b	-0.005272036
53	0x3ba566e3	0.0050476654
54	0xbe2ad854	-0.16684085
55	0x3e65e762	0.22451547
56	0x3daa4657	0.083141975
57	0xbe8f3ee6	-0.27977675
58	0x3e5d7f4d	0.21630593
59	0xbd4895e6	-0.04897108
60	0xbe446a32	-0.19181135
61	0xbe365239	-0.17804803
62	0xbeab44da	-0.33450967
63	0xbe8b3350	-0.27187586
64	0x3d491f56	0.04910215
65	0x3d8ec23c	0.06970641
66	0x3e7590f8	0.23981082
67	0x3d574673	0.05255742
68	0x3e005f6e	0.12536404
69	0x3d64f70e	0.055899672
70	0xbe143944	-0.1447497
71	0xbd9bfdd1	-0.07616771
72	0x3e9126ee	0.28350013
73	0xbe4983be	-0.19679162
74	0xbe894748	-0.26812196
75	0xbd91152a	-0.07084115
76	0xbe8fa972	-0.28058964
77	0x3e9c88c9	0.3057311
78	0x3e045d7c	0.12926286
79	0xbdbb47e4	-0.091445714
80	0xbe269fec	-0.16271943
81	0x3dc38a9f	0.09547924
82	0xbe4d3f3b	-0.20043652
83	0x3e10629e	0.1410012
84	0xbe15a855	-0.14614995
85	0x3ea769ec	0.32698
86	0x37f849cb	2.9598266e-05
87	0xbe0b873f	-0.13625811
88	0xbe3b7b8a	-0.18308845
89	0x3e86d486	0.26334018
90	0xbd1c3792	-0.038138933
91	0x3db7ce67	0.08974915
92	0x3d1cd6b4	0.038290694
93	0x3e8b74c4	0.27237523
94	0xbe9bdfd2	-0.304442
95	0x3e7f8052	0.24951294
96	0xbe67fa9d	-0.22654195
97	0x3e242057	0.16027962
98	0x3e1987bd	0.14993186
99	0xbe7cc776	-0.24685463

model.4.bias f4 [10]
0	0x3d8e2111	0.06939901
1	0xbdf14b7c	-0.117819756
2	0x3e878ab9	0.26473024
3	0xbb13f4a2	-0.0022576232
4	0xbc4d6479	-0.012536162
5	0xbe4adb3f	-0.19810198
6	0xbe8c0771	-0.27349427
7	0xbdb77014	-0.08956924
8	0x3e94ac49	0.29037693
9	0xbdc53066	-0.09628372

model.6.weight f4 [10, 10]
0	0xbd8cdd0d	-0.068780996
1	0x3cdd764e	0.027033951
2	0xbe37ba11	-0.17942072
3	0x3dcb4a8c	0.09926328
4	0xbe910ea4	-0.28331482
5	0xbdbda942	-0.09260799
6	0x3e7f882e	0.24954292
7	0x3da78c78	0.08181089
8	0x3e7dd8d1	0.2478974
9	0x3d9da2ed	0.07697091
10	0x3dcd44b9	0.100228734
11	0x3e384b4d	0.17997475
12	0x3de770df	0.11300825
13	0xbe409f89	-0.18810858
14	0x3e26ccb8	0.16289032
15	0xbdffac57	-0.12484043
16	0x3dbb3201	0.09140397
17	0x3dcb3c2c	0.09923586
18	0xbe95a63b	-0.29228386
19	0xbe48365e	-0.1955199
20	0xbd5986b0	-0.053106964
21	0x3dd6d8a9	0.104905434
22	0x3e742ea5	0.23845918
23	0xbe7cc490	-0.24684358
24	0xbe0218f7	-0.12704836
25	0x3c1422c7	0.009041495
26	0xbe7da0bd	-0.24768348
27	0x3c98271e	0.01857334
28	0xbe16b578	-0.14717662
29	0xbe8a2c11	-0.26986745
30	0xbdd0e824	-0.10200527
31	0x3c97c2ca	0.0185255
32	0xbdf770df	-0.12082075
33	0x3da45c05	0.08025364
34	0x3da046c8	0.078260005
35	0x3e489870	0.195894
36	0x3e3dceda	0.18535939
37	0x3eacc0cc	0.33740842
38	0xbdbacfae	-0.09121643
39	0x3ac6b181	0.0015159101
40	0xbea33dc5	-0.31883064
41	0x3eaa0d3d	0.33213225
42	0xbdb52297	-0.08844488
43	0x3d708300	0.05871868
44	0x3e38b63d	0.18038268
45	0x3e4271ba	0.18988696
46	0xbd2ff88c	-0.042961642
47	0x3da8c603	0.08240893
48	0xbeadfa0d	-0.33979836
49	0x3db260ce	0.0870987
50	0x3ea3482e	0.31891006
51	0x3e48969b	0.19588701
52	0xbe042eff	-0.12908553
53	0x3d5d8225	0.054079194
54	0x3d8f0308	0.06983
55	0x3e7f0cc6	0.24907216
56	0x3defbc3d	0.117058255
57	0xbe3da0ee	-0.18518421
58	0x3ea78cfe	0.32724756
59	0xbe41cb3e	-0.18925187
60	0x3e649250	0.22321439
61	0x3c7dec80	0.0154982805
62	0x3df409ff	0.11915969
63	0x3db29a8a	0.08720882
64	0xbd90ab4d	-0.07063923
65	0x3e4b8993	0.19876699
66	0x3d31164e	0.043234162
67	0xbb102f6c	-0.0022000922
68	0x3d4a011c	0.049317464
69	0xbe0c529b	-0.13703386
70	0x3dd19750	0.10233939
71	0xbe8678a0	-0.26263905
72	0xbd39342b	-0.045215767
73	0x3dc904a0	0.09815335
74	0x3e06d6f0	0.1316793
75	0xbe4b4007	-0.19848643
76	0xbe808874	-0.25104105
77	0x3e4449e3	0.1916881
78	0xbdbed423	-0.093178056
79	0xbdf2434a	-0.118292406
80	0xbd2f5697	-0.042807188
81	0xbd21020a	-0.039308585
82	0xbe8da304	-0.27663434
83	0x3d5cf8bd	0.053948153
84	0x39407426	0.00018353816
85	0xbd876c59	-0.066124626
86	0xbe27c0b3	-0.16382103
87	0x3e0bcf53	0.13653307
88	0xbe700cf2	-0.23442438
89	0xbd602d52	-0.05473072
90	0x3e710b8c	0.23539561
91	0xbea4f21b	-0.32215962
92	0x3dc28fa8	0.095000565
93	0xbe12f9af	-0.14353059
94	0xbe911413	-0.28335628
95	0x3d889763	0.066695
96	0xbe8f675f	-0.28008553
97	0x3d190861	0.037361506
98	0xbc8749e1	-0.01651472
99	0xbe945d43	-0.28977403

model.6.bias f4 [10]
0	0xbd7bec11	-0.061504427
1	0xbd92a3bb	-0.07160135
2	0xbd887fff	-0.06665038
3	0x3e1cde01	0.15319063
4	0xbe94ce24	-0.29063523
5	0xbd8536ea	-0.06504615
6	0xbe205f16	-0.15661272
7	0xbd58ee70	-0.052961767
8	0xbeacc763	-0.3374587
9	0xbe62eae7	-0.2215992

model.8.weight f4 [10, 10]
0	0xbe492cb5	-0.1964596
1	0xbc905e03	-0.017622953
2	0x3d1db72d	0.03850477
3	0xbd841f62	-0.06451298
4	0x3dab9934	0.083788306
5	0xbde7346b	-0.11289295
6	0xbe06af12	-0.13152722
7	0x3e1fba19	0.15598334
8	0xbdaef899	-0.0854351
9	0xbe091762	-0.13387826
10	0x3bf95004	0.0076084156
11	0x3e8edc41	0.27902415
12	0x3e7e6fda	0.24847355
13	0x3e72fd2b	0.23729388
14	0x3e6fa844	0.23404032
15	0xbe7aa41f	-0.2447667
16	0xbea2813b	-0.3173922
17	0x3e4dfdc6	0.20116338
18	0x3e48dec7	0.19616233
19	0x3b9f68bf	0.0048647816
20	0x3e80fcc4	0.25192845
21	0xbe03790e	-0.12839147
22	0x3e251d28	0.16124403
23	0x3e395462	0.18098596
24	0xbe8889e3	-0.266677
25	0x3e85b1ab	0.26112112
26	0xbdc63352	-0.09677757
27	0xbe94ab24	-0.2903682
28	0x3e0e675e	0.13906619
29	0xbe3a830f	-0.18214057
30	0xbcffc507	-0.03122188
31	0x3e6f787e	0.23385808
32	0x3ea1d4e4	0.31607735
33	0x3b4031d0	0.0029326566
34	0x3e7b82dd	0.24561639
35	0x3e3a4eb5	0.18194087
36	0xbe4fe8cc	-0.20303649
37	0x3e85f5fe	0.2616424
38	0xbe10ea7b	-0.14151947
39	0xbe6ada6e	-0.22934887
40	0xbe15a051	-0.14611937
41	0x3e5621b4	0.20911294
42	0x3e9341e2	0.28761202
43	0x3ea8289a	0.32843477
44	0x3d87bd5c	0.06627914
45	0xbe8a5f51	-0.27025846
46	0xbe51ec45	-0.20500286
47	0x3e4081a4	0.18799454
48	0xbe34c951	-0.17654921
49	0xbe639803	-0.22225957
50	0x3e31caae	0.17362472
51	0x3e5f63e4	0.21815449
52	0xbea6f6db	-0.3261021
53	0x3e192716	0.14956316
54	0xbe6a648b	-0.22889917
55	0x3e86fb98	0.26363826
56	0xbe4b16e8	-0.19832957
57	0xbe2fe416	-0.17176852
58	0x3e90d510	0.28287554
59	0x3e8b0cee	0.27158302
60	0x3e598f33	0.21246032
61	0xbe5084f7	-0.20363222
62	0xbe956fd5	-0.29186884
63	0x3d25fc1e	0.04052364
64	0xbcb3b559	-0.02193706
65	0x3d27086e	0.040779524
66	0x3e2adba7	0.16685353
67	0x3e1786ab	0.14797466
68	0x3e88fb21	0.26754096
69	0xbe312ef6	-0.1730307
70	0xbea317f9	-0.31854227
71	0xbe39ada8	-0.18132651
72	0x3c3fa23f	0.011696397
73	0xbe27fd24	-0.16405159
74	0x3e57c258	0.2107023
75	0x3e6d84ff	0.23195265
76	0xbdf5689c	-0.11982843
77	0x3d585ce8	0.052822977
78	0x3cdf9acf	0.027295498
79	0xbdf5d877	-0.12004178
80	0xbe83076d	-0.25591603
81	0xbe90739c	-0.28213203
82	0xbe8965c5	-0.26835456
83	0xbced9bf9	-0.029005038
84	0xbeac1d64	-0.33616173
85	0x3e25b74b	0.16183202
86	0x3e5e49bc	0.21707815
87	0xbe191bcf	-0.14952014
88	0xbdf9a9f5	-0.1219062
89	0x3e421849	0.18954577
90	0xbdfbb624	-0.122906
91	0x3e86ea67	0.2635071
92	0x3e414f21	0.18877842
93	0x3dab76b7	0.083722524
94	0x3eaa3e01	0.3325043
95	0x3d9c870c	0.07642946
96	0xbd9e0b62	-0.07717015
97	0x3e9b3260	0.3031187
98	0x3e208a31	0.15677716
99	0xbe12b509	-0.14326872

model.8.bias f4 [10]
0	0xbe38e699	-0.18056716
1	0x3de633f0	0.11240375
2	0xbe769acb	-0.24082486
3	0xbe84f7e7	-0.25970384
4	0x3dba13b6	0.09085791
5	0xbeabdbbc	-0.33566082
6	0xbe8d4d03	-0.27597818
7	0xbe896075	-0.26831403
8	0xbce95dde	-0.028487142
9	0xbd95eb85	-0.073203124

model.10.weight f4 [10, 10]
0	0xbd22f29b	-0.039782148
1	0x3d453479	0.048145745
2	0x3e6a19a6	0.22861347
3	0xbdda97cb	-0.106734835
4	0x3e1af2d7	0.15131699
5	0xbe14e582	-0.14540675
6	0xbdc8d805	-0.098068275
7	0x3e657f45	0.2241183
8	0x3e8c9e57	0.27464554
9	0xbeb3e222	-0.35133463
10	0xbe084440	-0.13307285
11	0xbe7262f9	-0.23670568
12	0x3e1ccdfa	0.15312949
13	0xbdb3ca81	-0.08778859
14	0x3e971e13	0.29515132
15	0xbdb54dc2	-0.08852722
16	0x3dd415ac	0.10355696
17	0x3dd11ba9	0.10210354
18	0xbd968522	-0.07349612
19	0xbe61b854	-0.22042972
20	0xbe42ba3e	-0.19016358
21	0xbe8c1741	-0.2736149
22	0xbe49519d	-0.19660039
23	0x3cc4d0b3	0.024025297
24	0xbdea246f	-0.114327304
25	0x3e0b9d84	0.13634306
26	0x3e6ccd66	0.23125228
27	0xbe005f37	-0.12536322
28	0x3ea1a664	0.31572258
29	0xbe9c451c	-0.30521476
30	0x3db3bb4a	0.08775957
31	0xbe7d230a	-0.24720398
32	0xbe814c57	-0.25253555
33	0x3ddbb24c	0.10727367
34	0xbe38588d	-0.1800253
35	0x3e7a0f04	0.2441979
36	0xbdb2bda4	-0.08727577
37	0x3c6b9ee9	0.014381149
38	0xbe701299	-0.23444594
39	0x3e673eae	0.22582504
40	0x3d26c5a8	0.040715843
41	0xbe2b9135	-0.16754611
42	0x3e42a166	0.19006881
43	0xbd9d2aa4	-0.07674149
44	0xbd25f782	-0.040519245
45	0x3d651e23	0.055936944
46	0xbdf1d23b	-0.118076764
47	0xbe9193d0	-0.28433084
48	0x3e0f34f1	0.1398504
49	0x3d6b568c	0.057455584
50	0xbe174f5d	-0.14776368
51	0x3c2786e3	0.010225031
52	0x3da0baaf	0.07848107
53	0x3d6d3508	0.057911903
54	0xbe751f8b	-0.23937814
55	0x3e178034	0.14795
56	0x3e325f1c	0.17419094
57	0xbca3378a	-0.019923944
58	0x3d05dcee	0.032681398
59	0x3ea7f8ef	0.3280711
60	0x3e27bdc0	0.16380978
61	0xbe726325	-0.23670633
62	0x3e98c349	0.2983649
63	0x3ca008f5	0.019535521
64	0x3e3e8d26	0.18608531
65	0x3e767610	0.24068475
66	0x3de7daf4	0.11321059
67	0xbe6ba59b	-0.23012392
68	0x3e115fe2	0.14196733
69	0x3e5f7daa	0.21825281
70	0x3ea2c90b	0.3179401
71	0x3dd93c91	0.10607255
72	0xbdd963b3	-0.10614719
73	0xbe8dc8f9	-0.27692392
74	0x3d963054	0.073334366
75	0xbe31babe	-0.17356393
76	0xbe815447	-0.2525961
77	0x3e8e1078	0.2774694
78	0xbea83d5d	-0.32859316
79	0x3eb533d8	0.35391116
80	0xbd5d3546	-0.054005884
81	0x3e93ce67	0.2886841
82	0xbd11e621	-0.03561986
83	0xbe7981ea	-0.24365965
84	0xbdb7dabb	-0.089772664
85	0xbe2f0044	-0.17089945
86	0xbd016529	-0.031590614
87	0xbe0cb354	-0.13740283
88	0x3d54b1b3	0.05192728
89	0x3e06ea2e	0.1317527
90	0xbb3a395b	-0.0028415534
91	0xbcb3d3e1	-0.021951618
92	0xbdd63ad1	-0.10460437
93	0x3cd778f7	0.026302798
94	0x3e90333e	0.28164095
95	0xbe486b4e	-0.19572183
96	0xbd859d59	-0.06524152
97	0x3d39ba84	0.04534389
98	0xbe552a93	-0.20817022
99	0x3e504a78	0.20340908

model.10.bias f4 [10]
0	0x3e756040	0.23962498
1	0x3e0061fd	0.1253738
2	0x3e0b6ded	0.13616152
3	0xbe2b67ad	-0.16738768
4	0xbe6fa212	-0.23401669
5	0xbe149275	-0.14508994
6	0xbe04c7e2	-0.12966874
7	0x3dc6c590	0.09705651
8	0xbe86dc40	-0.26339912
9	0xbb2fd83b	-0.0026831764

model.12.weight f4 [10, 10]
0	0xbdc43e51	-0.095821984
1	0x3e6688b2	0.22513083
2	0xbccb40a9	-0.024811106
3	0x3e1544dc	0.14577049
4	0xbdf8a609	-0.12141044
5	0xbddc204c	-0.10748348
6	0xbcdd58b2	-0.027019832
7	0xbe643c5e	-0.22288653
8	0x3c01aa95	0.007914205
9	0xbea4141f	-0.320466
10	0x3ce826b4	0.028338768
11	0x3e0f95a0	0.14021921
12	0x3e58c30c	0.21168154
13	0xbe728d80	-0.2368679
14	0x3e8142f9	0.2524641
15	0xbd87ea6e	-0.06636511
16	0x3df10094	0.117676884
17	0xbd74b018	-0.05973825
18	0x3e06d874	0.13168508
19	0x3dd8b723	0.105818056
20	0x3e5948f1	0.21219231
21	0x3a6e4067	0.0009088576
22	0x3e5807f0	0.21096778
23	0xbe3ae24f	-0.18250392
24	0xbd71652d	-0.05893438
25	0xbdb78359	-0.089605995
26	0x3dac2654	0.08405748
27	0x3d970b8f	0.073752515
28	0x3e270211	0.16309382
29	0x3e0d0be0	0.13774061
30	0xbe87d530	-0.26529837
31	0xbe04a284	-0.1295262
32	0x3b7f96fc	0.0038999906
33	0xbd31ad29	-0.04337803
34	0xbd064ee4	-0.03279008
35	0x3eade714	0.3396536
36	0x3d7d1019	0.06178293
37	0x3caf827c	0.021424524
38	0x3e49daf6	0.19712433
39	0xbe546849	-0.20742907
40	0x3c97c225	0.018525193
41	0xbe4c9c2c	-0.1998145
42	0x3dafb079	0.08578581
43	0xbe8219b2	-0.2541023
44	0xbddce797	-0.1078636
45	0xbd6598ee	-0.05605405
46	0x3e4dc9b3	0.20096473
47	0xbd9c9e19	-0.07647342
48	0x3e420375	0.18946631
49	0xbe2ba58f	-0.16762374
50	0x3c758ffb	0.014987941
51	0x3e36f07a	0.17865172
52	0xbe16f3b3	-0.14741401
53	0xbe91c92a	-0.28473788
54	0x3e9b79bf	0.30366322
55	0xbd9efeda	-0.07763453
56	0xbe0fadfe	-0.14031217
57	0x3e80fb3b	0.25191674
58	0xbe465e33	-0.19371872
59	0xbd1dfa8f	-0.03856903
60	0xbeaf9ed7	-0.34300873
61	0x3c83e977	0.016102536
62	0xbe923deb	-0.28562865
63	0x3eade157	0.33960983
64	0xbe745d3f	-0.23863696
65	0xbe47008a	-0.194338
66	0x3d8b579b	0.06803819
67	0xbc260a5a	-0.010134304
68	0x3e8e5381	0.27798083
69	0xbd2a5f9d	-0.04159509
70	0xbea15938	-0.3151338
71	0x3e836613	0.25663814
72	0xbea853ed	-0.3287653
73	0x3ea13be9	0.3149102
74	0x3db75dd0	0.0895344
75	0x3e3cd12f	0.18439172
76	0xbe20feab	-0.15722148
77	0x3e320808	0.17385876
78	0x3e36b0ef	0.17840932
79	0x3e4e713e	0.20160386
80	0x3e654c41	0.2239237
81	0x3dd45558	0.103678405
82	0x3cf3b64f	0.029750017
83	0x3e0a4a5f	0.13504933
84	0x3e696399	0.227919
85	0x3dd16a18	0.10225314
86	0x3e88baf8	0.26705146
87	0xbe029bdb	-0.12754767
88	0x3de6f852	0.11277832
89	0xbe301ece	-0.17199251
90	0x3e4b39b2	0.19846228
91	0xbe182595	-0.14858086
92	0xbdd4c963	-0.10389974
93	0x3d9fa268	0.077946484
94	0x3e677a00	0.22605133
95	0xbd54108a	-0.051773585
96	0x3e67438f	0.22584365
97	0x3e93449b	0.2876328
98	0x3e0c0ced	0.13676806
99	0xbe3e03a0	-0.1855607

model.12.bias f4 [10]
0	0xbe808872	-0.251041
1	0xbe1735b5	-0.14766581
2	0xbe20a038	-0.15686119
3	0xbe24584e	-0.1604931
4	0x3eaaf406	0.333893
5	0x3cb31c11	0.021863969
6	0xbe966ad2	-0.29378372
7	0xbdf6b85b	-0.12046882
8	0x3e7fc352	0.24976853
9	0xbbc17e94	-0.005904982

model.14.weight f4 [1, 10]
0	0xbe821044	-0.25403035
1	0xbd9e29ba	-0.077228025
2	0x3e7f9650	0.24959683
3	0xbe86eea0	-0.2635393
4	0x3d8df527	0.06931525
5	0xbe3915d4	-0.18074733
6	0xbeae1526	-0.3400051
7	0xbe9be105	-0.30445114
8	0xbd875877	-0.0660867
9	0xbe518512	-0.20460919
