NeuralGalerkin/models/autosave/Gen_3_Loss_0.0.pt (torch, 632955 bytes, 15 tensors)

model.0.weight f4 [16, 2]
0	0x3f233e66	0.6376709
1	0x3f038dae	0.5138806
2	0xbef8df51	-0.48607877
3	0x3e2dc5c8	0.16969979
4	0xbf06a065	-0.5258849
5	0x3ef70d4c	0.48252332
6	0x3e686f52	0.22698715
7	0xbf17ff2f	-0.59373754
8	0x3e358fc3	0.17730622
9	0xbf4649e3	-0.7745649
10	0x3e8f9122	0.28040415
11	0x3ee7dc08	0.45285058
12	0xbe6a7238	-0.22895133
13	0x3ec6d8ba	0.38837224
14	0xbe1afe8c	-0.15136164
15	0xbeacfc22	-0.33786112
16	0x3ebe6564	0.3718673
17	0x3f0dce59	0.55392987
18	0x3e43c629	0.19118561
19	0x3f0e43ac	0.5557201
20	0x3f0daf5a	0.5534569
21	0x3f324041	0.69629294
22	0xbeb1fcfb	-0.3476332
23	0xbd5fd451	-0.05464584
24	0xbefc0632	-0.49223477
25	0xbefb6e84	-0.49107754
26	0xbe9d2cae	-0.3069815
27	0x3f5827f6	0.84435976
28	0x3f1ce55b	0.6128747
29	0x3f428f1b	0.7599961
30	0xbeadc08f	-0.33935973
31	0xbed72da2	-0.42027003

model.0.bias f4 [16]
0	0x3f25b84a	0.6473433
1	0xbee0dae8	-0.43917012
2	0xbebf1fd3	-0.37328967
3	0x3e65b17b	0.22430985
4	0x3dd8c08b	0.105836
5	0x3ed06c14	0.40707457
6	0x3e36e2bf	0.17859934
7	0xbf20f1e4	-0.62869096
8	0x3ddd329e	0.1080067
9	0x3d7d0d0a	0.061780013
10	0xbd67ee72	-0.056623884
11	0x3f1efdd9	0.6210609
12	0xbcb7eb08	-0.022450939
13	0xbe14c1ff	-0.14527129
14	0xbf1c9c06	-0.6117557
15	0xbecc8f12	-0.39952904

model.2.weight f4 [16, 16]
0	0xbb0a28d9	-0.0021081476
1	0x3dc4d102	0.096101776
2	0xbc803dee	-0.01565453
3	0xbeb9b731	-0.36272576
4	0xbec09547	-0.3761389
5	0xbddf1494	-0.10892597
6	0xbb84c947	-0.0040523144
7	0x3cd82868	0.026386455
8	0x3ed24cb0	0.41074133
9	0x3e5a61b0	0.21326327
10	0x3e823096	0.25427693
11	0xbe8dcb82	-0.27694327
12	0xbe851f48	-0.26000428
13	0xbcb246b3	-0.021762228
14	0x3cb20c4c	0.02173438
15	0x3c57dee4	0.0131757
16	0xbe43c078	-0.1911639
17	0xbdb83514	-0.08994499
18	0x3e59c349	0.21265902
19	0xbe9fa923	-0.3118373
20	0xbe0f6f15	-0.14007218
21	0x3df94d9a	0.121730044
22	0xbd5636cc	-0.052298352
23	0xbd166c9a	-0.036724664
24	0x3c909fb3	0.017654276
25	0x3eb8ba37	0.3607957
26	0x3eac22a3	0.33620176
27	0xbd4b9acb	-0.04970817
28	0xbe7526ec	-0.23940629
29	0x3ecaa5f5	0.3957974
30	0x3e867333	0.26259765
31	0x3d030ca1	0.031994466
32	0x3e64cf69	0.22344746
33	0xbede6f0f	-0.43444106
34	0xbeaab44c	-0.3334068
35	0x3e93f5c0	0.2889843
36	0xbdafff2b	-0.08593591
37	0xbd2d4c83	-0.042309295
38	0xbe45cd74	-0.19316655
39	0x3d9208b7	0.071305685
40	0xbe0bc5f4	-0.13649732
41	0xbdd83948	-0.105578005
42	0xbd08d461	-0.033405665
43	0x3e48be08	0.19603741
44	0x3d101362	0.035174735
45	0xbddb187b	-0.10698029
46	0xbe3fd689	-0.18734182
47	0xbda8d75d	-0.08244202
48	0x3e035ac6	0.12827596
49	0xbe4f41be	-0.20239922
50	0xbdb29a8f	-0.08720886
51	0x3ec0b929	0.37641266
52	0x3eb2862b	0.34867987
53	0xbd3b7c60	-0.04577291
54	0xbe761b84	-0.24033934
55	0xbe43c8f6	-0.1911963
56	0xbe6a055e	-0.2285361
57	0xbe8be133	-0.2732025
58	0xbd68f797	-0.056876745
59	0x3e4d19ec	0.2002942
60	0x3bb333cf	0.0054688226
61	0xbe9b3af6	-0.3031842
62	0xbe4a46e5	-0.19753607
63	0x3e5f2ad3	0.2179368
64	0xbd95d7c6	-0.07316546
65	0x3ea0e1ee	0.3142237
66	0xbd865b60	-0.06560397
67	0x3def6f7f	0.11691188
68	0x3db06b64	0.08614233
69	0x3db80d65	0.0898693
70	0x3df28619	0.11841983
71	0xbd4420f5	-0.047882993
72	0x3e163278	0.1466769
73	0x3dcdd9cb	0.10051306
74	0xbe106f36	-0.14104924
75	0xbdc69a69	-0.0969742
76	0xbd901ff3	-0.07037344
77	0x3e67f5d0	0.22652364
78	0x3d4a6bdc	0.04941927
79	0xbd7a5e4d	-0.06112509
80	0xbe1b8049	-0.15185656
81	0xbdd66a86	-0.104695365
82	0x3da8043e	0.08203934
83	0x3e77c1bb	0.24194996
84	0x3ecda639	0.4016588
85	0x3e83cb46	0.25741023
86	0x3cdc64b3	0.026903486
87	0xbe9dbcd6	-0.30808133
88	0x3e216262	0.15760186
89	0x3dd95248	0.10611397
90	0xbec26a0a	-0.37971526
91	0xbe1d211d	-0.15344663
92	0xbcca94cb	-0.024729153
93	0xbe08b118	-0.13348806
94	0xbe5d1990	-0.21591783
95	0x3e12a57b	0.14320938
96	0xbda3129f	-0.07962536
97	0xbd97211c	-0.07379362
98	0x3e53619b	0.20642702
99	0xbeb29245	-0.3487722
100	0x3bd4b656	0.0064914627
101	0xbbd320ae	-0.0064431047
102	0xbdb0f378	-0.08640188
103	0x3d89a92f	0.06721722
104	0x3c8c9b1e	0.01716381
105	0x3e7b35ba	0.24532214
106	0x3ec248fb	0.37946305
107	0xbe3d8e0c	-0.18511218
108	0x3cd8675b	0.026416471
109	0x3e16d71c	0.14730495
110	0x3e1cf25a	0.15326825
111	0xbe60680d	-0.21914692
112	0x3e915845	0.28387657
113	0xbe832a81	-0.25618365
114	0xbee5b3d2	-0.44863755
115	0x3e97abbc	0.2962321
116	0x3e83fddd	0.2577962
117	0x3dd6d71e	0.10490249
118	0x3c9845a7	0.0185879
119	0x3dbbc0ca	0.09167631
120	0xbe77693c	-0.24161237
121	0xbe93515a	-0.28773004
122	0x3d9193e7	0.07108288
123	0x3d4ac55a	0.049504615
124	0x3dcbb98f	0.09947502
125	0xbe5a8e42	-0.2134333
126	0xbe15da0d	-0.14633961
127	0xbce9a2b9	-0.028519975
128	0xbce766b7	-0.02824722
129	0xbe302403	-0.17201237
130	0x3e7baf6f	0.24578641
131	0x3eb1b3d1	0.34707502
132	0x3e68cd8b	0.22734658
133	0xbd9874b5	-0.07444135
134	0x3e1272f6	0.14301667
135	0x3dae6227	0.08514815
136	0xbe7858e8	-0.24252665
137	0xbdd7cb0c	-0.10536775
138	0xbe9a5cd0	-0.30148935
139	0xbe6fedad	-0.2343051
140	0xbe1a71fe	-0.15082547
141	0xbe5ebebb	-0.21752445
142	0xbe198c76	-0.14994988
143	0xbe03ad25	-0.12859018
144	0x3de54319	0.111944385
145	0x3e02f7ba	0.12789813
146	0xbe1b0631	-0.1513908
147	0xbe88be06	-0.26707476
148	0xbead6f90	-0.33874178
149	0x3e80a97d	0.2512931
150	0x3e86cbfb	0.263275
151	0x3e1f712a	0.15570512
152	0xbe40c19f	-0.1882386
153	0xbd730f25	-0.059340615
154	0x3ebe8070	0.37207365
155	0xbe9ba3e8	-0.30398488
156	0x3b7dc559	0.0038722365
157	0x3e473a07	0.1945573
158	0x3c8844ff	0.016634462
159	0xbdd3392e	-0.103136405
160	0x3e65d07c	0.22442812
161	0xbe1883f1	-0.14894082
162	0x3e86e4a8	0.26346326
163	0xbe5490ee	-0.20758411
164	0xbec4d7fc	-0.38446033
165	0x3e66a7e6	0.22524986
166	0x3e09023e	0.13379762
167	0x3e4cba7c	0.19993013
168	0x3df1db6d	0.1180943
169	0xbd44194e	-0.047875695
170	0x3dab2e9a	0.08358498
171	0xbcd276e2	-0.025691453
172	0xbd394299	-0.045229528
173	0x3ec75d86	0.3893854
174	0xbe27b05a	-0.16375867
175	0xbe712dbc	-0.23552603
176	0x3e2dd6bd	0.16976447
177	0x3e7b0597	0.24513851
178	0x3cd35112	0.025795493
179	0xbcf53e00	-0.02993679
180	0xbe913c3c	-0.28366268
181	0x3e5f895b	0.2182974
182	0xbd7abc79	-0.061214898
183	0xbdcb12e0	-0.099157095
184	0xbd0c45bb	-0.034246188
185	0x3dbac873	0.09120264
186	0x3dd9712d	0.1061729
187	0xbe7b77e4	-0.24557453
188	0x3e12f3d4	0.14350826
189	0x3d223b24	0.039607182
190	0x3eb839e3	0.35981664
191	0x3d0b5014	0.034011915
192	0x3d91d430	0.0712055
193	0xbd2b070e	-0.041754775
194	0x3e3403d3	0.17579584
195	0xbde38a48	-0.111103594
196	0x3e733345	0.23750027
197	0x3dedc210	0.1160928
198	0xbe87f1f8	-0.26551795
199	0x3da2a19e	0.07940982
200	0xbd37af4c	-0.04484491
201	0xbd78989d	-0.06069242
202	0xbe9822ff	-0.297142
203	0x3cd874aa	0.026422817
204	0x3d954d47	0.0729013
205	0xbe73dcb8	-0.23814666
206	0x3e2757c9	0.16342081
207	0xbcd1e58b	-0.02562215
208	0xbe86317c	-0.2620963
209	0x3e810597	0.25199577
210	0xbd2555f1	-0.040365163
211	0x3e22e930	0.15909266
212	0xbd7d3081	-0.061813835
213	0x3e027a91	0.12742068
214	0xbe028519	-0.12746085
215	0x3e41b175	0.1891535
216	0xbdc4feef	-0.09618937
217	0x3dd2c0c3	0.10290673
218	0xbcd71761	-0.026256265
219	0x3ccd49eb	0.02505966
220	0x3e27f9bc	0.1640386
221	0xbe6e3ff7	-0.23266588
222	0x3d934e12	0.07192625
223	0xbc8c5d15	-0.017134229
224	0xbde7a375	-0.11310474
225	0xbe83b41b	-0.25723347
226	0x3c837de5	0.016051242
227	0x3e9cb4ed	0.30606785
228	0x3d9770b3	0.073945425
229	0x3e0de891	0.13858248
230	0x3df7e85b	0.12104865
231	0xbd840d86	-0.06447892
232	0xbe8c143e	-0.27359194
233	0xbc6d3b25	-0.014479433
234	0xbe5471f0	-0.20746589
235	0xbcad3f41	-0.021148326
236	0x3c5b74bd	0.013394532
237	0xbe3f01c5	-0.18653019
238	0xbe7d041f	-0.24708603
239	0x3e1f3ee1	0.1555133
240	0xbe1d6b65	-0.15372999
241	0xbd85b635	-0.06528894
242	0xbe9332c4	-0.2874967
243	0x3ec3a3d8	0.3821094
244	0x3d944103	0.072389625
245	0xbd9ef6e6	-0.07761936
246	0xbe03ad97	-0.12859188
247	0xbdc0c60d	-0.09412775
248	0xbe79ecb9	-0.24406709
249	0x3d548631	0.051885787
250	0x3cf8852b	0.030336937
251	0xbe08e1ca	-0.13367382
252	0x3e3d057f	0.18459128
253	0xbecf557e	-0.40494913
254	0xbe6d24df	-0.23158596
255	0xbe1659ca	-0.1468269

model.2.bias f4 [16]
0	0xbe940ef1	-0.2891765
1	0xbea6ac12	-0.32553154
2	0x3d106a0c	0.035257384
3	0x3c0a864c	0.00845487
4	0xbe8f56a5	-0.27995792
5	0x3e0a1168	0.13483202
6	0xbd6bbada	-0.057551242
7	0x3e849e42	0.2590199
8	0xbe0f4816	-0.13992342
9	0xbe923ee8	-0.2856362
10	0x3de2cdc7	0.11074405
11	0xbe0a86ff	-0.1352806
12	0x3e257640	0.1615839
13	0xbdc6a906	-0.097002074
14	0x3e33576b	0.17513816
15	0x3e851152	0.25989777

model.4.weight f4 [16, 16]
0	0x3e8ebba3	0.2787753
1	0x3e15a8cb	0.1461517
2	0x3d7bba54	0.061456993
3	0xbd664108	-0.056214362
4	0x3e6570b9	0.22406282
5	0xbe1f1946	-0.15536985
6	0x3c29a0bb	0.010353263
7	0xbc6a675c	-0.014306869
8	0xbd9f6eef	-0.07784831
9	0xbe20e622	-0.15712789
10	0xbe8f918d	-0.28040734
11	0x3eb7aace	0.358725
12	0xbd93b4c7	-0.07212215
13	0x3e4ac84c	0.1980297
14	0x3c91830e	0.017762687
15	0x3d6e2c87	0.058147933
16	0x3d86509d	0.065583445
17	0xbeacf21d	-0.33778468
18	0xbe1060cd	-0.14099427
19	0x3ea5f81c	0.32415855
20	0x3d2b137b	0.041766625
21	0x3e04c265	0.1296478
22	0xbddc6381	-0.10761166
23	0xbdcf4266	-0.10120086
24	0xbdeec56f	-0.11658751
25	0xbd41904d	-0.047256757
26	0xbd8b1fe8	-0.06793195
27	0xbde89410	-0.11356366
28	0x3df87923	0.1213248
29	0x3e06abdd	0.13151498
30	0xbdf662f3	-0.12030592
31	0x3dd5f1cd	0.104465105
32	0xbe67e4af	-0.2264583
33	0x3d1c435b	0.038150173
34	0x3e77e527	0.24208508
35	0x3e334bd7	0.175094
36	0xbd96b90f	-0.07359516
37	0xbb184498	-0.0023234244
38	0xbea60f8b	-0.32433733
39	0xbe195111	-0.1497233
40	0x3c9ac6b6	0.01889358
41	0x3daa7c96	0.08324544
42	0xbec1ce2d	-0.37852612
43	0x3cc100d0	0.023559958
44	0xbd1a7246	-0.037706636
45	0x3e25671c	0.16152614
46	0xbde1dda6	-0.11028604
47	0x3e8c8a51	0.27449277
48	0xbdbcab60	-0.09212375
49	0x3d1b6bf9	0.037944768
50	0x3e8ea53e	0.27860445
51	0x3de31081	0.11087132
52	0x3e407bee	0.18797275
53	0xbe04f128	-0.12982619
54	0xbe971cf5	-0.2951428
55	0x3e98f8b7	0.29877254
56	0x3d611a7f	0.05495691
57	0xbb8738e9	-0.0041266573
58	0xbcdfe0a6	-0.0273288
59	0xbc9a33f2	-0.018823598
60	0xbdb01e22	-0.085994974
61	0xbe82fe10	-0.2558446
62	0x3d56e15b	0.05246101
63	0x3e071885	0.13192947
64	0xbb661dc5	-0.003511296
65	0xbec628ef	-0.38703105
66	0xbd47801f	-0.04870617
67	0x3e4ad12a	0.19806352
68	0xbcf40ab7	-0.029790265
69	0xbdca4a5e	-0.09877466
70	0x3d9edfc6	0.07757525
71	0x3e9e77b3	0.30950698
72	0x3cc9a6e2	0.024615709
73	0xbee30232	-0.44337612
74	0x3e298280	0.16553688
75	0x3e01b3b1	0.12666203
76	0x3cfadb86	0.030622255
77	0xbd8521f7	-0.06500619
78	0x3e904b68	0.2818253
79	0x3db4e4f8	0.08832735
80	0xbe0ac003	-0.13549809
81	0x3e916427	0.28396723
82	0xbd7038b6	-0.058647834
83	0xbeb9ed99	-0.36314085
84	0x3d26926d	0.040666986
85	0x3d3c70d2	0.04600603
86	0x3e4d8026	0.20068416
87	0xbe8b3731	-0.27190545
88	0xbe1bdbf4	-0.15220624
89	0x3df47b08	0.11937529
90	0x3e56c6b0	0.20974231
91	0x3dd0d7ee	0.10197435
92	0xbe823573	-0.25431404
93	0x3de6c436	0.11267893
94	0xbcc83c01	-0.024442675
95	0xbe96ca47	-0.294512
96	0x3e50bae7	0.20383798
97	0x3e909664	0.2823974
98	0xbd927c0a	-0.07152565
99	0x3bb3b4dd	0.005484207
100	0x3edec07c	0.4350623
101	0xbe92f82e	-0.2870497
102	0x3e8eb626	0.27873343
103	0xbe9be42a	-0.30447513
104	0xbe671015	-0.22564729
105	0xbdc80ac8	-0.09767681
106	0x3d5decf9	0.054181073
107	0xbe42801a	-0.1899418
108	0xbdf719fd	-0.12065504
109	0xbd8ed48b	-0.06974133
110	0x3da35d2b	0.07976755
111	0xbe2799ed	-0.16367312
112	0xbe1a4208	-0.15064251
113	0xbebb1fa8	-0.3654759
114	0xbd52a41c	-0.05142604
115	0x3da918b1	0.08256663
116	0xbdaee004	-0.08538821
117	0x3d961a58	0.073292434
118	0xbe2d3504	-0.16914755
119	0x3db3032d	0.0874084
120	0x3e95eabe	0.29280657
121	0xbde94947	-0.1139093
122	0xbe9cb767	-0.30608675
123	0xbe57a9e0	-0.21060896
124	0x3e85abdf	0.2610769
125	0x3e951bf6	0.29122895
126	0x3e6625ba	0.22475329
127	0x3e8a68bf	0.2703304
128	0xbc0ea5fc	-0.008706566
129	0x3c7f5113	0.015583294
130	0x3e84bcac	0.25925195
131	0x3e99d89c	0.30048072
132	0xbdc1444b	-0.09436854
133	0x3eb0cbee	0.34530586
134	0xbdfbe0fa	-0.1229877
135	0x3e7eb3ba	0.24873248
136	0xbe837746	-0.25676936
137	0xbef245ec	-0.4731897
138	0x3ce44433	0.027864551
139	0x3e063456	0.13105902
140	0xbc86341a	-0.016382266
141	0x3dabf9d0	0.08397257
142	0xbcec85c6	-0.028872382
143	0x3d93831c	0.072027415
144	0x3db54ea1	0.08852888
145	0x3da00550	0.07813513
146	0x3e105486	0.14094743
147	0xbd6667c9	-0.05625132
148	0x3e9785b9	0.2959421
149	0xbe47fb32	-0.19529417
150	0xbde5aad1	-0.11214221
151	0xbd7c8e16	-0.06165894
152	0xbec0e50c	-0.3767475
153	0x3dd52b4b	0.10408648
154	0x3e805c15	0.25070253
155	0xbde6c838	-0.112686574
156	0x3d191f92	0.037383623
157	0xbea14d1a	-0.31504136
158	0x3dfcb178	0.12338537
159	0x3dd52160	0.104067564
160	0xbe08f883	-0.1337605
161	0xbc0ed1a0	-0.008716971
162	0x3e3e86cc	0.18606108
163	0xbe21abfe	-0.15788266
164	0x3e1e225a	0.15442792
165	0x3cbc5186	0.022988092
166	0xbe3237a9	-0.17404045
167	0x3e588bf5	0.2114714
168	0x3d0ff3ba	0.035144545
169	0x3d03bf63	0.032164942
170	0x3e8a2bf5	0.26986662
171	0xbe8fe426	-0.2810375
172	0xbe20704b	-0.15667836
173	0xbd90a1db	-0.070621215
174	0xbe3e1773	-0.18563633
175	0xbd69947a	-0.057026364
176	0xbd7368f7	-0.059426274
177	0xbeb629ac	-0.35578668
178	0x3e832ed5	0.25621668
179	0x3ec1f9b7	0.3788583
180	0xbc0ef582	-0.008725526
181	0x3e9fbb12	0.3119741
182	0xbeacb6ce	-0.3373322
183	0x3e69b30c	0.22822207
184	0xbe01f049	-0.12689318
185	0xbd8d6aca	-0.06905134
186	0x3d82de01	0.0639
187	0x3e2e2445	0.17006023
188	0xbd91589d	-0.0709698
189	0x3e25a1aa	0.16174951
190	0x3e811629	0.2521222
191	0x3ea75f85	0.32690063
192	0xbe6bf282	-0.23041728
193	0xbe9e149d	-0.30875102
194	0x3e9a7635	0.3016831
195	0x3e9841fc	0.29737842
196	0x3d104a03	0.035226833
197	0x3ebcb348	0.3685553
198	0xbe0c5c1a	-0.13707009
199	0x3e064b4c	0.13114661
200	0x3dc17ac9	0.094472475
201	0xbe902e7a	-0.2816046
202	0xbe25c0e0	-0.16186857
203	0xbde53c40	-0.111931324
204	0xbcbb8741	-0.022891643
205	0xbd5fc95c	-0.05463539
206	0x3ec8b541	0.39200786
207	0x3ec117a6	0.37713355
208	0x3e2cb366	0.1686531
209	0x3d3c70c0	0.046005964
210	0xbda55d5a	-0.08074446
211	0xbe9a04bb	-0.30081734
212	0xbe0ebace	-0.13938448
213	0xbe2f1c38	-0.17100608
214	0x3e45b646	0.19307813
215	0x3e332376	0.17493996
216	0xbe069457	-0.13142525
217	0x3ea47ecc	0.32127988
218	0x3e2809db	0.1641001
219	0xbe1d1eb8	-0.1534375
220	0xbe53ad35	-0.20671542
221	0x3dfdf9ec	0.124011844
222	0x3e0f4e78	0.13994777
223	0x3d8d84a3	0.06910064
224	0xbdd44828	-0.10365325
225	0xbe80e26f	-0.25172755
226	0x3d987b3d	0.07445381
227	0xbe4e6ed9	-0.20159473
228	0xbe3fafce	-0.18719408
229	0xbd0673cf	-0.032825287
230	0x3bd5b6f5	0.0065220543
231	0x3e16acfc	0.14714426
232	0xbe442c28	-0.1915747
233	0x3d4bb919	0.04973707
234	0x3e4eb69e	0.2018685
235	0xbea259fc	-0.31709278
236	0xbd73bbfa	-0.05950544
237	0xbe8c0153	-0.2734476
238	0x3e921aac	0.28535974
239	0x3e76f31f	0.24116181
240	0x3ddfcfb8	0.10928291
241	0xbd20ca01	-0.039255146
242	0xbe850238	-0.25978255
243	0xbed656db	-0.4186314
244	0x3e4993a4	0.19685227
245	0x3d91aa28	0.07112533
246	0x3e716425	0.23573358
247	0xbdbb3ed1	-0.09142841
248	0xbe2c3ae3	-0.16819339
249	0x3e31118b	0.17291848
250	0xbdfb7d08	-0.12279707
251	0x3d302afc	0.043009743
252	0xbebd88c9	-0.3701842
253	0xbd66b4c5	-0.05632474
254	0xbe66d4ce	-0.22542116
255	0xbecc466b	-0.39897475

model.4.bias f4 [16]
0	0xbd3b3092	-0.045700617
1	0xbe7881e0	-0.24268293
2	0xbd5edc70	-0.054409444
3	0x3e82c35c	0.25539672
4	0xbd2f2c1a	-0.042766668
5	0x3da258bb	0.0792708
6	0xbe084332	-0.13306883
7	0x3e92a06e	0.28638023
8	0xbd863ea2	-0.06554915
9	0xbcc2fc33	-0.023801899
10	0x3cbc64b1	0.022997232
11	0x3d0a8ede	0.033827655
12	0xbd70b45b	-0.05876575
13	0x3e88f8a5	0.267522
14	0xbcb95899	-0.022625254
15	0xbc3bc0b7	-0.011459521

model.6.weight f4 [16, 16]
0	0x3e0b792e	0.13620445
1	0x3d8ae1cf	0.06781351
2	0x3e0fd0ae	0.14044449
3	0xbd74dd51	-0.059781376
4	0xbe6a004a	-0.22851673
5	0xbe863782	-0.26214224
6	0x3e2cc904	0.16873556
7	0x3e49ec8c	0.19719142
8	0xbe7b9506	-0.24568567
9	0xbea996de	-0.33122915
10	0xbe20a741	-0.15688802
11	0xbb634326	-0.0034677475
12	0x3d5d4f2d	0.054030586
13	0xbda405be	-0.08008908
14	0xbe45531e	-0.19269988
15	0xbd116dd1	-0.03550512
16	0xbdeb4bb6	-0.1148905
17	0x3eb3f20e	0.3514561
18	0x3db372c7	0.087621264
19	0x3d9fa3fd	0.0779495
20	0xbd9e844a	-0.07740076
21	0xbea26d01	-0.31723788
22	0x3da989bd	0.082782246
23	0x3e4ee430	0.20204234
24	0xbcfe8925	-0.031071255
25	0xbe02ca69	-0.12772526
26	0xbe83865c	-0.25688446
27	0x3ec5ddfd	0.38645926
28	0x3e24c20f	0.16089652
29	0x3b454947	0.003010349
30	0xbe10d755	-0.14144643
31	0xbe8e4446	-0.27786463
32	0x3e64e28b	0.22352044
33	0x3d1e3ed6	0.038634144
34	0x3ea5fa9a	0.32417756
35	0xbc6eb99b	-0.014570619
36	0x3e0dba34	0.13840562
37	0xbd69d370	-0.05708641
38	0xbea5f5f3	-0.32414207
39	0x3eabeaca	0.33577567
40	0x3e0f77bd	0.1401052
41	0x3d75c8b2	0.06000585
42	0xbe602be9	-0.2189175
43	0x3c19b29d	0.009380964
44	0x3e8b6fb6	0.27233666
45	0xbe775540	-0.24153614
46	0x3dd8da84	0.105885535
47	0xbe7aa4bb	-0.24476902
48	0x3d9a90ce	0.075471506
49	0x3e8cf7bf	0.27532765
50	0xbd3f7ed9	-0.04675183
51	0xbe4fe89a	-0.20303574
52	0x3d806fa9	0.062712975
53	0x3be790eb	0.007066836
54	0xbe01672a	-0.1263701
55	0x3e8c97d6	0.27459592
56	0x3e2c0ccf	0.16801761
57	0xbe05c7b4	-0.13064462
58	0x3e13afec	0.14422578
59	0x3e145988	0.14487278
60	0x3e21053d	0.15724654
61	0x3cd6b173	0.026207661
62	0x3dbf9d09	0.09356124
63	0xbec0df54	-0.37670386
64	0x3e74b9df	0.23899029
65	0x3e95bf85	0.2924768
66	0x3ed5234d	0.41628495
67	0xbd6ca3d5	-0.05777343
68	0x3e962ea5	0.29332462
69	0xbd925d96	-0.07146756
70	0xbe8c4fd8	-0.27404666
71	0xbd65f4e2	-0.05614174
72	0x3e113df1	0.14183785
73	0xbea75eac	-0.32689416
74	0xbe8afb69	-0.27144936
75	0xbd51047f	-0.05102968
76	0xbddca8f6	-0.10774414
77	0xbef51f75	-0.47875562
78	0xbe5f36d7	-0.21798263
79	0xbe801570	-0.25016356
80	0xbe9cafbc	-0.30602825
81	0xbe785919	-0.24252738
82	0x3ce3c382	0.027803186
83	0x3e7bb043	0.24578957
84	0x3d08b6af	0.033377346
85	0xbe117ce8	-0.14207804
86	0x3e585c8f	0.21129058
87	0xbe9da0fb	-0.3078688
88	0xbe6a3a62	-0.22873834
89	0x3dd7c515	0.10535637
90	0x3d7c4855	0.06159242
91	0x3ceb0e83	0.028693443
92	0xbe9eb8da	-0.31000406
93	0x3e863df2	0.26219136
94	0x3d4e1b32	0.050318904
95	0x3e1b2223	0.15149741
96	0x3e4fb900	0.20285416
97	0xbd64aca3	-0.0558287
98	0xbd44eb7c	-0.048076138
99	0xbe967328	-0.29384732
100	0xbe67cf2a	-0.2263762
101	0x3e24b7cb	0.16085736
102	0xbda14641	-0.07874728
103	0x3d42a3bd	0.047519434
104	0x3c854fc5	0.016273389
105	0xbb9782ff	-0.0046237702
106	0xbeaa53e3	-0.33267125
107	0xbe8a4a3b	-0.27009758
108	0x3d2e6032	0.042572208
109	0xbe3fb529	-0.18721451
110	0xbebf5b48	-0.3737433
111	0x3e8af603	0.27140817
112	0x3e75c07b	0.23999207
113	0xbe1d2b08	-0.15348446
114	0xbe9aa53a	-0.30204183
115	0xbd9645b5	-0.07337514
116	0xbec3e816	-0.38263005
117	0x3ea1dd39	0.31614092
118	0x3e4de023	0.20105033
119	0xbeb9e9da	-0.36311227
120	0xbe82bb07	-0.25533316
121	0xbd811d2b	-0.063043915
122	0xbc62fe98	-0.013854645
123	0xbec8cb69	-0.3921769
124	0xbecdd619	-0.40202406
125	0x39b2bc07	0.00034090897
126	0xbe69c23e	-0.22828004
127	0x3de05e95	0.1095554
128	0x3dfee03f	0.12445115
129	0x3e962b6e	0.2933001
130	0x38061df7	3.1975997e-05
131	0xbe681e87	-0.22667895
132	0xbe17281e	-0.14761397
133	0xbdc181d8	-0.09448594
134	0x3e6d5d2e	0.23180076
135	0x3b9b8fcf	0.004747368
136	0xbe948ed0	-0.29015207
137	0xbe622fed	-0.22088595
138	0xbe4da62c	-0.20082921
139	0xbe0eeefe	-0.13958356
140	0xbe661d5e	-0.2247214
141	0x3e198f77	0.14996134
142	0xbe3e6ce6	-0.18596229
143	0x3e099c21	0.13438465
144	0xbdf09afa	-0.117483094
145	0xbea1c337	-0.3159425
146	0x3dcf3cd5	0.10119025
147	0x3e18e990	0.14932847
148	0x3e0f4844	0.13992411
149	0x3e233fc1	0.15942289
150	0xbcb35b23	-0.021894043
151	0xbe60feb1	-0.21972157
152	0x3e8b9e2f	0.27269122
153	0x3e30d836	0.17269978
154	0x3e62ef0d	0.22161503
155	0x3b4f443c	0.0031626364
156	0xbcbf4f2f	-0.023353187
157	0xbc1a52e3	-0.009419176
158	0x3c2038c7	0.009779162
159	0xbd0d51e6	-0.034501933
160	0x3e192c26	0.14958248
161	0xbe018977	-0.12650095
162	0xbe959c89	-0.2922099
163	0x3e15fb35	0.14646609
164	0xbdf50d8c	-0.119654745
165	0xbe0cdab1	-0.13755299
166	0x3e804486	0.2505228
167	0x3bf4a132	0.007465505
168	0xbd72a1f3	-0.059236478
169	0x3e6b22ac	0.22962445
170	0x3d996a5e	0.07490991
171	0xbeaa22da	-0.33229715
172	0x3ba5f1d9	0.005064231
173	0x3e746e00	0.23870087
174	0x3e186d7f	0.1488552
175	0x3e42b774	0.19015294
176	0xbe6aa621	-0.22914936
177	0xbdd86524	-0.10566166
178	0xbd77f2ce	-0.06053429
179	0x3de51dae	0.111873016
180	0xbdbb04ad	-0.09131751
181	0xbe693d96	-0.227774
182	0xbe9982e3	-0.2998267
183	0x3e3d0fbe	0.18463036
184	0x3e983b31	0.2973266
185	0x3dcb9344	0.09940198
186	0x3e6ad471	0.22932602
187	0x3d6ede4c	0.058317468
188	0x3e02e12c	0.12781209
189	0x3e58c6db	0.21169607
190	0x3e991635	0.29899755
191	0xbd37ac0a	-0.044841804
192	0xbdce83a6	-0.10083704
193	0x3d9d9e1a	0.07696171
194	0x3e313be4	0.17308003
195	0xbe6b93ef	-0.23005651
196	0x3e0c5aa1	0.13706447
197	0xbe857c05	-0.26071182
198	0xbe4eebd1	-0.20207144
199	0x3e2e93e7	0.17048608
200	0xbd0e7a72	-0.03478474
201	0xbe058bbb	-0.13041584
202	0xbe361297	-0.17780529
203	0x3e251fff	0.16125487
204	0x3e46552a	0.19368425
205	0xbd501d20	-0.050809026
206	0xbcc46de7	-0.023978187
207	0xbcc222c6	-0.023698222
208	0x3e6b30b0	0.22967792
209	0x3e085385	0.1331311
210	0x3df3c5f2	0.119029894
211	0x3e29b176	0.16571602
212	0x3e63c2b5	0.22242244
213	0xbec2fee3	-0.38085088
214	0xbea19ccb	-0.31564936
215	0x3e82944c	0.25503767
216	0x3e948ac9	0.29012135
217	0xbd6c794d	-0.05773287
218	0xbe470a69	-0.19437565
219	0x3e1a8215	0.15088685
220	0x3e97dc97	0.29660484
221	0xbe9312c8	-0.28725266
222	0xbdf4a129	-0.11944801
223	0xbe9e9a4d	-0.30977097
224	0xbda2e9a5	-0.079547204
225	0xbe2aedf8	-0.1669234
226	0xbd25e4f9	-0.04050157
227	0xbe098efb	-0.13433449
228	0x3d3c9928	0.0460445
229	0x3e437a2f	0.19089578
230	0x3e1696e4	0.14705998
231	0xbe95e57f	-0.29276654
232	0xbde219cd	-0.11040077
233	0x3ee00d65	0.4376022
234	0x3b73b82c	0.0037188632
235	0xbe4f3888	-0.20236409
236	0xbe9e50c0	-0.30920982
237	0x3e81e2c4	0.2536832
238	0x3cd695dc	0.026194505
239	0x3eaaf3d8	0.33389163
240	0x3e309948	0.17245972
241	0xbcfce3c2	-0.030870322
242	0x3e6cfafd	0.2314262
243	0x3c8260df	0.015915332
244	0xbd609bfa	-0.05483625
245	0xbec22a1e	-0.37922758
246	0xbe5ac6f3	-0.21364956
247	0x3e5c0aa8	0.2148844
248	0x3c186cb4	0.009303261
249	0xbe15d96f	-0.14633726
250	0xbdcb28dc	-0.09919903
251	0x3e9b6433	0.30349883
252	0x3df9423b	0.121708356
253	0xbe12369a	-0.14278641
254	0x3e1be2b0	0.15223193
255	0xbe820976	-0.25397843

model.6.bias f4 [16]
0	0xbdfc1a0b	-0.12309655
1	0xbe410b49	-0.18851961
2	0xbde58d3c	-0.11208579
3	0xbd97110c	-0.07376298
4	0xbe021820	-0.12704515
5	0x3e20ffb1	0.15722539
6	0xbe7f632b	-0.24940173
7	0x3e1f2d02	0.15544513
8	0xbe919d17	-0.28440163
9	0x3e623147	0.2208911
10	0xbd3f487d	-0.04669999
11	0x3e829575	0.25504652
12	0xbdafdea4	-0.08587387
13	0x3e653959	0.22385158
14	0xbe3a573c	-0.1819734
15	0x3e641651	0.22274138

model.8.weight f4 [16, 16]
0	0x3cbc9bf2	0.02302358
1	0x3d1cd831	0.038292114
2	0x3d47acb2	0.04874868
3	0x3de0e1a8	0.109805405
4	0x3ec45eca	0.38353568
5	0xbe6c5a8f	-0.2308142
6	0xbc9e397b	-0.019314518
7	0xbe1ead56	-0.1549581
8	0x3e3bb3cc	0.18330306
9	0xbe4dd825	-0.20101984
10	0xbe8ab995	-0.27094713
11	0xbe2bb475	-0.16768058
12	0x3deb3f8f	0.11486732
13	0x3ea16163	0.31519613
14	0x3e20ade0	0.15691328
15	0x3e0bd16b	0.13654105
16	0x3ead70d6	0.3387515
17	0x3eac35f2	0.33634907
18	0xbd91e6ef	-0.07124125
19	0x3e3bda6c	0.1834504
20	0x3ef19815	0.47186342
21	0xbed87e78	-0.42283988
22	0x3daf13e6	0.08548717
23	0xbe2e5bd4	-0.17027217
24	0xbe1c2bd8	-0.152511
25	0xbd31b0cc	-0.043381497
26	0x3e1f880a	0.15579239
27	0xbea275c7	-0.31730482
28	0xbd8ce602	-0.06879808
29	0xbcc51520	-0.024057925
30	0xbe3a6d26	-0.182057
31	0x3bde81fe	0.0067903986
32	0x3cc42ecc	0.023948096
33	0x3e71ce28	0.23613799
34	0x3dc6deea	0.09710486
35	0x3da61d0b	0.08111008
36	0x3d9eff89	0.07763583
37	0x3b79ef46	0.0038137003
38	0xbe22ffdb	-0.15917914
39	0xbdd8d867	-0.105881505
40	0x3d3735da	0.04472909
41	0x3e4b5adf	0.19858883
42	0x3d809a76	0.06279461
43	0x3e79b9e0	0.24387312
44	0xbdfe271c	-0.12409803
45	0x3e4230cd	0.18963929
46	0xbd7af664	-0.061270133
47	0x3eca9c1d	0.3957223
48	0xbed001d9	-0.4062641
49	0xbe2062ad	-0.15662642
50	0xbda5aca8	-0.08089572
51	0xbcaaf122	-0.020866934
52	0xbeeb9d05	-0.46018234
53	0x3ead51c2	0.3385144
54	0xbd91fdca	-0.071284845
55	0xbce93477	-0.0284674
56	0xbdd5bf9a	-0.10436936
57	0xbda1d3a3	-0.079016946
58	0x3e0e21c7	0.13880073
59	0x3d9d6dfd	0.07686994
60	0xbe231d15	-0.15929063
61	0x3de400a4	0.11132935
62	0x3e3fe321	0.18738987
63	0x3d9e9661	0.07743526
64	0x3e16d8b9	0.1473111
65	0x3da1b5d1	0.07896007
66	0x3ebfb728	0.37444425
67	0x3c1209c4	0.008913461
68	0x3e923758	0.2855785
69	0x3da74bb4	0.08168736
70	0x3e375778	0.1790446
71	0xbe712ace	-0.23551485
72	0xbc88ae51	-0.016684683
73	0xbe10a0b6	-0.14123806
74	0x3c387f42	0.011260809
75	0xbe5177c5	-0.20455845
76	0x3da6e5e7	0.08149319
77	0x3e7cdd6e	0.24693844
78	0xbe66f037	-0.22552572
79	0xbc1a81a6	-0.009430325
80	0x3e46a589	0.19399084
81	0x3e83fd96	0.25779408
82	0x3e04bbf7	0.12962328
83	0x3e88155d	0.265788
84	0xbb9fd93c	-0.0048781913
85	0x3df2b7b8	0.11851448
86	0xbccd98c5	-0.02509726
87	0xbdddb2df	-0.108251326
88	0xbe0ef39c	-0.13960117
89	0xbd98b34e	-0.07456075
90	0xbe8b55e6	-0.27213973
91	0x3d080af7	0.033213582
92	0x3e3e6fb4	0.18597299
93	0x3eb4f0ea	0.35340053
94	0xbe950ba7	-0.29110453
95	0x3e79ce60	0.24395132
96	0xbe70b8d0	-0.23508
97	0x3d3b16cc	0.045676038
98	0x3e8a7117	0.27039406
99	0x3c96842b	0.01837357
100	0x3bb07434	0.0053849462
101	0x3e81e6e4	0.25371468
102	0xbdab7931	-0.08372725
103	0xbd2abf9a	-0.04168663
104	0xbeaf8168	-0.34278417
105	0x3e2b41f7	0.16724382
106	0xbdad529f	-0.08463024
107	0x3e5af39e	0.21381995
108	0xbd5cdcd6	-0.053921543
109	0x3ea60397	0.32424614
110	0xbe11d775	-0.14242347
111	0x3e91c78c	0.28472555
112	0x3cd40680	0.025882006
113	0xbe50c135	-0.20386203
114	0xbcb88897	-0.022526069
115	0x3e4257ab	0.18978755
116	0xbe651695	-0.22371896
117	0x3eb97ed5	0.36229578
118	0xbeb48124	-0.35254776
119	0xbce2962a	-0.027659494
120	0xbe8b58a4	-0.27216065
121	0x3c62ae68	0.013835527
122	0x3b5f1015	0.0034036685
123	0x3e81a764	0.2532302
124	0x3e3fea47	0.18741713
125	0xbd8a4647	-0.067516856
126	0x3c82311e	0.015892562
127	0x3e300b43	0.17191796
128	0x3eb1928a	0.34682113
129	0x3d0e7ce7	0.034787085
130	0x3e201391	0.15632464
131	0x3e8266cd	0.25469056
132	0x3d902388	0.07038027
133	0xb9db7344	-0.00041856815
134	0xbe1dc29c	-0.15406269
135	0xbe851fa5	-0.26000705
136	0x3c096b26	0.008387363
137	0xbdc15773	-0.09440508
138	0xbe125a50	-0.14292264
139	0xbe0fd3a7	-0.14045583
140	0x3eb2acd0	0.3489747
141	0x3e276dbb	0.16350453
142	0xbda1ebcf	-0.07906305
143	0x3e1120dd	0.14172693
144	0x3d05cf0f	0.03266817
145	0xbd6d520d	-0.057939578
146	0x3e1453e3	0.14485125
147	0x3ea5aaea	0.3235696
148	0x3d13f908	0.036126167
149	0x3cdcc38a	0.026948709
150	0x3d5daeea	0.05412189
151	0xbe93d482	-0.28873068
152	0xbe3fdea2	-0.18737271
153	0x3e8a6648	0.2703116
154	0xbc3e7277	-0.01162397
155	0x3e735f57	0.23766838
156	0x3de76b80	0.11299801
157	0xbe06adb2	-0.13152197
158	0xbec41b1f	-0.38301942
159	0x3d092729	0.03348461
160	0xbe5af9ee	-0.21384403
161	0x3e455e34	0.19274217
162	0xbd866915	-0.065630116
163	0x3e53e0b9	0.20691194
164	0x3bed92fe	0.007250189
165	0x3e9c645b	0.30545315
166	0xbde87792	-0.11350931
167	0xbdd0e771	-0.10200394
168	0xbe90542a	-0.28189212
169	0xbc8c06e7	-0.017093135
170	0xbe539719	-0.20663108
171	0x3e6bb364	0.23017651
172	0xbcc1edb2	-0.023672912
173	0x3d10eeec	0.035384104
174	0xbdfca7a1	-0.1233666
175	0xbb7d9718	-0.0038694795
176	0x3e186a9c	0.14884418
177	0x3e6e09ef	0.23245977
178	0x3e8c5db9	0.27415255
179	0xbe1533a5	-0.14570482
180	0x3d30dc6b	0.043178957
181	0xbeb98427	-0.36233637
182	0x3e75a7cc	0.2398979
183	0x3cbb3ef8	0.022857174
184	0x3ded9275	0.116002
185	0x3d50cf4b	0.05097894
186	0xbe49e587	-0.19716464
187	0xbd3e96ca	-0.046530522
188	0x3e7a16f4	0.24422818
189	0x3e27bd69	0.16380848
190	0x3d871c1c	0.06597158
191	0x3e352449	0.17689623
192	0x3df73032	0.120697394
193	0x3eac50d8	0.3365543
194	0xbb413327	-0.0029479952
195	0x3eb291f1	0.3487697
196	0xbdd6f2c5	-0.10495523
197	0xbd9590c4	-0.073030025
198	0x3def1f28	0.116758645
199	0xbed178a6	-0.4091236
200	0x3e7ab1a6	0.2448183
201	0xbdb36fbb	-0.08761545
202	0xbd7732cd	-0.06035118
203	0x3dc58b7a	0.09645744
204	0x3e5b0946	0.21390256
205	0x3da213a6	0.07913904
206	0xbdb4506a	-0.088044
207	0x3d987bef	0.074455135
208	0xbe30aa2c	-0.17252415
209	0x3d94e19b	0.07269593
210	0x3eb1ec94	0.34750807
211	0x3e935865	0.28778377
212	0xbddd8545	-0.10816435
213	0xbe791aa4	-0.24326569
214	0x3dff9fd6	0.12481658
215	0xbea8f6cf	-0.330008
216	0xbe1098a3	-0.14120726
217	0xbcac0eeb	-0.021003207
218	0xbe83b45c	-0.2572354
219	0x3c148678	0.009065263
220	0xbd5c5b0b	-0.053797763
221	0x3e8ac939	0.27106646
222	0xbe18c734	-0.1491974
223	0x3dca0e99	0.098660655
224	0x3c54ccdf	0.012988298
225	0xbe68ac7e	-0.2272205
226	0x3c8c5eec	0.017135106
227	0x3dc119d5	0.09428755
228	0x3df2bd23	0.11852481
229	0xbdab837c	-0.08374688
230	0xbeabdf62	-0.33568865
231	0x3e2f03f0	0.17091346
232	0xbe87529c	-0.26430213
233	0x3d984432	0.07434882
234	0xbe4da02a	-0.20080629
235	0x3ed8e5a4	0.42362702
236	0x3ce6d6d0	0.028178602
237	0xbe7d4db1	-0.24736668
238	0x3db1ffa6	0.08691339
239	0x3e92d19e	0.2867555
240	0xbe155ec4	-0.14586931
241	0x3d5895ae	0.05287712
242	0x3e22e259	0.15906657
243	0x3ea1968a	0.31560165
244	0x3dc70e73	0.09719553
245	0xbe18860b	-0.14894883
246	0xbdda2a3d	-0.106525876
247	0xbea7aca2	-0.32748896
248	0xbef9cc39	-0.48788622
249	0xbd9c2d1c	-0.076257914
250	0xbe410447	-0.18849288
251	0x3f00aa7d	0.50260144
252	0x3e3dca49	0.18534197
253	0x3ed1bde8	0.409652
254	0xbe47acc4	-0.19499499
255	0x3ebd6f99	0.36999205

model.8.bias f4 [16]
0	0xbe5fde1c	-0.21862072
1	0xbe4e8133	-0.20166473
2	0x3e61c2b7	0.22046934
3	0x3d902294	0.07037845
4	0xbe59d630	-0.21273112
5	0x3b83933e	0.0040153554
6	0x3e318e65	0.17339475
7	0xbd34399b	-0.04400025
8	0xbe386a28	-0.18009245
9	0x3e418bce	0.18900988
10	0x3e1dc985	0.15408905
11	0xbe586da2	-0.21135572
12	0xbdeffebc	-0.117185086
13	0xbe72311f	-0.2365155
14	0x3e447f34	0.19189149
15	0x3ed5a00a	0.41723663

model.10.weight f4 [16, 16]
0	0x3e881c23	0.26583967
1	0x3e6939c3	0.2277594
2	0xbe277e16	-0.16356692
3	0xbeb6b1cf	-0.35682532
4	0x3da67cb1	0.08129252
5	0x3e2294d4	0.15877086
6	0xbe268804	-0.16262823
7	0xbe2ef087	-0.17083941
8	0x3e032d57	0.12810265
9	0xbdd63c90	-0.1046077
10	0xbc777de4	-0.015105698
11	0x3e5c5296	0.21515879
12	0x3cffda5e	0.031232055
13	0xbdb0830f	-0.086187474
14	0x3c4f407f	0.012649654
15	0x3b31fd63	0.0027159087
16	0xbd9c638f	-0.07636177
17	0x3e814c65	0.25253597
18	0xbe58c7b7	-0.21169935
19	0xbe4dd438	-0.20100486
20	0xbe3996e7	-0.18123971
21	0xbe0725c6	-0.13198003
22	0xbeb53311	-0.35390523
23	0xbe1dc5bf	-0.15407465
24	0x3da11dc1	0.07867003
25	0xbe7c9c49	-0.24668993
26	0xbe416d7d	-0.18889423
27	0x3e607d5a	0.21922818
28	0xbe69c5c5	-0.2282935
29	0xbe8d1e53	-0.27562198
30	0xbd6530b4	-0.05595465
31	0xbe498ece	-0.19683382
32	0x3e089e46	0.13341627
33	0x3dc72b7d	0.097250916
34	0xbeb491bc	-0.35267437
35	0xbe691f35	-0.22765811
36	0xbbb25cda	-0.0054431977
37	0x3d38c3d1	0.04510862
38	0xbe1dd2ab	-0.15412395
39	0xbec53b77	-0.3852193
40	0x3dda6008	0.10662848
41	0xbeead299	-0.45863798
42	0xbdecd80f	-0.115646474
43	0x3dfd186f	0.12358176
44	0x3df2fbe9	0.11864454
45	0xbd9bc1d7	-0.076053314
46	0x3d091af4	0.03347297
47	0xbd98df64	-0.074644834
48	0xbe31ca28	-0.17362273
49	0x3d8ede86	0.06976037
50	0x3dfef306	0.12448697
51	0xbe5b07c5	-0.21389683
52	0x3e1000cf	0.14062808
53	0x3e603b36	0.21897587
54	0x3d16a464	0.03677787
55	0x3e01a1b6	0.12659344
56	0x3eadb7c5	0.33929268
57	0xbd26ff41	-0.040770773
58	0xbcab2659	-0.020892309
59	0xbe218781	-0.15774347
60	0x3e943706	0.2894823
61	0x3e1e6b0c	0.15470523
62	0xbe81fe23	-0.25389203
63	0x3edc7548	0.43058228
64	0x3e499532	0.1968582
65	0x3c20c4b8	0.009812526
66	0x3ec1d2c4	0.37856114
67	0x3e5c69af	0.2152469
68	0xbd6e617d	-0.05819844
69	0xbd87beca	-0.06628187
70	0x3e2137ec	0.15743989
71	0x3ea8ab3f	0.3294315
72	0x3e39b777	0.18136393
73	0x3eda1bbc	0.42599285
74	0x3e9844ad	0.29739895
75	0xbc40a423	-0.011757883
76	0xbdb3a316	-0.087713405
77	0x3de5996b	0.11210903
78	0x3e8080d2	0.25098282
79	0xbd9a1690	-0.07523835
80	0xbe2031f9	-0.15644063
81	0xbebd6a6b	-0.36995253
82	0x3e25c0aa	0.16186777
83	0x3ce4f25d	0.027947599
84	0xbdff1b9e	-0.124564394
85	0xbe34b0cc	-0.17645568
86	0xbd89452b	-0.06702646
87	0x3e2853dd	0.16438241
88	0xbea4cad0	-0.32185984
89	0x3e1f1cc5	0.15538318
90	0x3d47b4e9	0.048756514
91	0xbe861d99	-0.26194456
92	0x3d16af6b	0.036788385
93	0xbe0f470a	-0.13991943
94	0x3ea18769	0.31548622
95	0x3dfe9f80	0.12432766
96	0x3d616a24	0.055032864
97	0xbe934ec1	-0.28771022
98	0x3eadeaa1	0.3396807
99	0x3d3cfbaf	0.04613846
100	0xbdc4d971	-0.09611786
101	0xbe1a3ce2	-0.15062287
102	0x3ec22dcf	0.37925574
103	0xbc655ebb	-0.013999636
104	0x3e88e2d1	0.26735547
105	0x3d8f59f0	0.06999576
106	0x3ec97970	0.39350462
107	0xbe83e1fa	-0.25758344
108	0x3e0d4239	0.13794793
109	0xbd8d97ac	-0.06913695
110	0x3e9b90e9	0.30383995
111	0x3d87e357	0.066351585
112	0x3daf5d6c	0.08562741
113	0x3e13cd3a	0.14433756
114	0xbe4a9e89	-0.19787039
115	0xbe001237	-0.12506948
116	0x3dbd725b	0.09250327
117	0x3de3eb66	0.11128883
118	0xbebbaac5	-0.36653724
119	0xbe1e72f3	-0.15473537
120	0x3e0531bd	0.13007255
121	0xbec671f9	-0.3875883
122	0xbe8e46d0	-0.277884
123	0x3e8e83d0	0.2783494
124	0xbe3a9727	-0.18221723
125	0xbe8fc0db	-0.28076825
126	0xbe05a83a	-0.13052455
127	0x3d7fad1c	0.06242095
128	0xbe87e85b	-0.2654446
129	0xbe8faf6d	-0.28063527
130	0x3d1555b1	0.036458675
131	0x3ec60dc6	0.38682383
132	0x3d318887	0.043343093
133	0x3e09975f	0.1343665
134	0x3ed849b5	0.42243734
135	0x3d9debe8	0.07711011
136	0xbbe4498b	-0.006966775
137	0x3e23c6cb	0.15993802
138	0x3ee6f15e	0.45106024
139	0xbe26caa8	-0.16288245
140	0x3e0f3e29	0.13988556
141	0x3d64fd16	0.055905424
142	0x3dda0956	0.10646312
143	0x3d967c19	0.073478885
144	0xbdce2eb2	-0.100675
145	0x3e8c9d56	0.27463788
146	0xbe772c75	-0.24138053
147	0xbe86c9ca	-0.26325828
148	0x3dc6a225	0.09698895
149	0xbbe68cc1	-0.007035822
150	0xbec69373	-0.3878437
151	0xbea7ce43	-0.32774553
152	0xbdacfd4d	-0.08446751
153	0xbec2c0a1	-0.3803759
154	0x3d1b3f7a	0.037902333
155	0xbdd2bddb	-0.10290118
156	0x3d86f7c5	0.06590227
157	0xbd399514	-0.045308188
158	0xbeb39668	-0.35075688
159	0x3cc641c8	0.024201289
160	0x3dcb4df0	0.09926975
161	0x3eb08612	0.34477288
162	0xbe45611a	-0.19275323
163	0x3ca1b378	0.019738898
164	0x3e9b6567	0.303508
165	0x3e4f054d	0.20216866
166	0xbe9523ce	-0.2912888
167	0xbe15dabc	-0.14634222
168	0x3d736e3a	0.059431292
169	0x3caec5aa	0.021334488
170	0x3df67ec6	0.12035899
171	0x3e639bec	0.22227448
172	0x3e391e59	0.18077983
173	0x3e50b8c9	0.2038299
174	0x3bfe4d9d	0.007760717
175	0x3ce21581	0.027598144
176	0xbd17faea	-0.037104525
177	0x3e186a73	0.14884357
178	0x3e081bda	0.13291875
179	0x3b43625c	0.0029813265
180	0x3dfef5a9	0.124492
181	0x3eb69b2e	0.35665268
182	0xbeb2389c	-0.34808815
183	0xbe3c5b71	-0.18394257
184	0x3d822e8d	0.06356535
185	0x3d362e9b	0.04447804
186	0xbe16dbfe	-0.14732358
187	0x3ecc2d89	0.3987849
188	0x3e931fb5	0.28735128
189	0x3e2dcfac	0.16973752
190	0xbe2942c1	-0.16529371
191	0x3d4b1a32	0.04958553
192	0xbe3ae43d	-0.18251128
193	0xbbf4ca5e	-0.007470413
194	0x3ddf3a14	0.108997494
195	0xbdac6d75	-0.08419315
196	0xbe1169f9	-0.14200582
197	0xbea0e6c4	-0.3142606
198	0xbd3c5db2	-0.045987792
199	0x3cd482df	0.02594131
200	0xbea0ce24	-0.31407273
201	0x3ec8b079	0.39197138
202	0xbd9d1377	-0.07669728
203	0xbe2ce10d	-0.16882725
204	0xbe8f2ebc	-0.27965343
205	0xbec2d607	-0.38053915
206	0x3ed4d503	0.41568765
207	0xbd241c1c	-0.04006587
208	0x3ed56fe4	0.41686928
209	0x3e5c3949	0.21506228
210	0x3d597137	0.053086486
211	0xbe9e6a69	-0.3094056
212	0x3e8ee8b2	0.27911907
213	0x3ae86f35	0.0017733338
214	0xbe65e59b	-0.22450869
215	0xbebdbb40	-0.37056923
216	0x3d2f515a	0.042802192
217	0xbe397d5f	-0.18114232
218	0xbd3cfba0	-0.046138406
219	0x3e203b73	0.15647678
220	0x3dd58fd6	0.10427825
221	0x3e391624	0.18074852
222	0xbea9469f	-0.33061692
223	0x3e917118	0.28406596
224	0xbe3f7624	-0.18697411
225	0x3d8907ad	0.06690917
226	0x3e6225dd	0.22084756
227	0xbc7d8176	-0.01547276
228	0x3db5d3ff	0.08878326
229	0xbe83043b	-0.25589165
230	0x3eacc9ca	0.33747703
231	0x3e7ef475	0.2489794
232	0xbe1e7016	-0.15472445
233	0x3e90bd8b	0.2826961
234	0x3db10b0e	0.08644687
235	0xbe44bedc	-0.19213432
236	0xbcc663be	-0.024217483
237	0xbe9259b1	-0.28584054
238	0x3e0e9d8c	0.13927287
239	0xbdb344b7	-0.08753341
240	0xbe28565a	-0.1643919
241	0xbe4e1fa2	-0.20129254
242	0x3df3f386	0.11911683
243	0x3da7acc0	0.08187246
244	0xbe17c424	-0.14820915
245	0xbeae3dd9	-0.3403156
246	0x3e8fce04	0.28086865
247	0x3d396348	0.045260698
248	0xbe5f2508	-0.2179147
249	0x3e3e0774	0.1855753
250	0x3e880b64	0.2657119
251	0xbe6231a2	-0.22089246
252	0x3df0152e	0.1172279
253	0xbd83ab50	-0.0642916
254	0xbd92516d	-0.07144437
255	0xbdcec844	-0.100967914

model.10.bias f4 [16]
0	0xbe49b7ef	-0.19699071
1	0x3df82e15	0.121181644
2	0x3da59d76	0.08086674
3	0x3d67fb3e	0.056636088
4	0x3e362048	0.17785752
5	0x3b95bd28	0.0045696683
6	0x3e57ca3b	0.21073239
7	0xbca9a30b	-0.020707628
8	0x3df4bc72	0.119500056
9	0xbc94e4aa	-0.018175442
10	0xbe6f0eab	-0.23345439
11	0xbe2a0c4c	-0.16606253
12	0xbda8622b	-0.08221849
13	0x3da48257	0.08032673
14	0x3ca3b7d5	0.019985119
15	0xbcb2249c	-0.021745972

model.12.weight f4 [16, 16]
0	0xbdd32946	-0.10310607
1	0x3e25ed95	0.16203912
2	0xbd18c083	-0.03729297
3	0x3ec0fc61	0.3769255
4	0xbe4d3656	-0.20040259
5	0xbe8977bc	-0.26849163
6	0xbe8ed5c2	-0.2789746
7	0x3eb82e8a	0.35973006
8	0xbdc5f391	-0.09665597
9	0x3eb546ce	0.35405582
10	0x3e3272e7	0.17426644
11	0x3ea52bef	0.3226008
12	0xbe3da742	-0.18520835
13	0x3d919d91	0.071101315
14	0x3c319c31	0.010840462
15	0xbc0ffdef	-0.00878857
16	0x3eb242e0	0.34816647
17	0x3aebcf11	0.0017990788
18	0x3e292f21	0.16521885
19	0x3eb7d662	0.3590575
20	0xbb921965	-0.0044585937
21	0xbe881db7	-0.2658517
22	0xbe300c79	-0.17192258
23	0x3e524709	0.2053491
24	0xbe1bf81a	-0.15231362
25	0x3e58f3b8	0.21186721
26	0x3ea6fd15	0.3261496
27	0x3dfd5b20	0.12370896
28	0xbd25697a	-0.040383793
29	0x3e814a01	0.25251773
30	0xbe7cec5b	-0.24699537
31	0xba67e651	-0.00088462705
32	0xbe3642f8	-0.17798984
33	0xbeb3205e	-0.34985632
34	0xbe6bd3f2	-0.2303007
35	0xbe7508f5	-0.23929198
36	0x3d76d46d	0.06026118
37	0x3e8a639a	0.27029115
38	0xbdd8c281	-0.10583974
39	0x3dcbbe44	0.099484
40	0x3eae8b81	0.34090808
41	0x3c64d416	0.013966581
42	0x3c8c6b15	0.017140904
43	0xbe6583b9	-0.2241353
44	0x3ec70cee	0.38877052
45	0xbe8e758d	-0.2782406
46	0x3d80ac27	0.062828355
47	0x3e623324	0.22089821
48	0xbe89cb89	-0.26913098
49	0xbd77d73c	-0.060507998
50	0xbec789bd	-0.38972273
51	0xbe96a63d	-0.29423705
52	0x3e598f4a	0.21246067
53	0xb9b1e142	-0.000339279
54	0x3e19933a	0.14997569
55	0xbe62fa1d	-0.22165723
56	0xbcdd4eb4	-0.027015068
57	0x3c9a506c	0.018837176
58	0xbda2fa6b	-0.0795792
59	0xbeb8978f	-0.3605313
60	0xbc7472c7	-0.014919943
61	0x3d94ab3b	0.07259222
62	0x3e73f6cc	0.23824614
63	0x3e3c2492	0.18373325
64	0x3ebac64d	0.36479416
65	0xbd5a8d26	-0.053357266
66	0xbdc0501d	-0.093902804
67	0x3ebc6826	0.3679821
68	0xbebf2907	-0.3733599
69	0x3dc8774f	0.09788381
70	0x3c9030aa	0.01760133
71	0x3e40ef5d	0.1884131
72	0x3ae4e274	0.0017462508
73	0x3ed4cdd9	0.415633
74	0x3e421d3c	0.18956465
75	0x3e1c9a70	0.15293288
76	0xbe27bcdd	-0.1638064
77	0x3e99d54f	0.30045554
78	0xbe56e414	-0.20985442
79	0xbe971028	-0.29504514
80	0xbe6b1848	-0.22958481
81	0xbe9708fe	-0.29499048
82	0xbe993eb5	-0.29930654
83	0x3db9d799	0.09074325
84	0x3ea82aa2	0.32845026
85	0xbd410fdc	-0.047134265
86	0x3e471f7f	0.19445609
87	0xbe3ad326	-0.18244609
88	0x3e324655	0.17409642
89	0x3da80f38	0.08206028
90	0xbe333356	-0.17500052
91	0xbe81b538	-0.2533357
92	0xbdcb19f3	-0.09917059
93	0xbdea6666	-0.11445312
94	0x3ea2654f	0.31717917
95	0x3ead31fb	0.33827195
96	0xbd5f23a6	-0.054477356
97	0xbdf62774	-0.12019244
98	0xbeba511e	-0.36390013
99	0x3d5605a2	0.052251466
100	0x3eaf1f50	0.34203577
101	0x3ecd7681	0.40129474
102	0xbc66420a	-0.014053831
103	0xbd6df4f6	-0.05809494
104	0x3ebc3471	0.3675876
105	0xbe90350a	-0.28165466
106	0xbc2fbe60	-0.010726541
107	0xbe280b33	-0.16410522
108	0x3c466f8b	0.012111555
109	0xbe02bb84	-0.12766844
110	0xbd5aecb7	-0.053448405
111	0x3ea96723	0.330865
112	0xbe3ad1c1	-0.18244077
113	0xbed30616	-0.4121558
114	0xbe5e6eae	-0.21721908
115	0xbeb8475b	-0.3599194
116	0x3dee2e78	0.11629957
117	0x3e2972ed	0.16547747
118	0xbce73a10	-0.028225929
119	0xbea89340	-0.32924843
120	0x3db3e518	0.087839305
121	0xbe9782c1	-0.29591945
122	0xbd269a4e	-0.0406745
123	0xbd969d55	-0.073542275
124	0x3e1cbfc5	0.1530753
125	0x3e4995f8	0.19686115
126	0x3e02cdfe	0.12773892
127	0xbd743b0c	-0.059626624
128	0xbe947527	-0.2899563
129	0xbec9a457	-0.39383194
130	0xbe604e6d	-0.21904917
131	0xbe8806bd	-0.2656764
132	0x3e1a62b1	0.1507671
133	0x3e7732bc	0.24140447
134	0x3e4386e3	0.19094424
135	0x3c9778d7	0.018490238
136	0xbd93fe9f	-0.072262995
137	0xbe489c92	-0.19590977
138	0xbe3f0dbe	-0.18657586
139	0x3d6b8f38	0.05750963
140	0x3e9e5071	0.30920747
141	0xbd9fffb5	-0.07812444
142	0xbe1a3978	-0.15060985
143	0x3e7736fd	0.2414207
144	0x3da634f1	0.081155665
145	0x3ea42fd0	0.32067728
146	0x3ec017bf	0.37518117
147	0x3e137c57	0.144029
148	0xbecdd6dc	-0.40202987
149	0xbddd9ef0	-0.108213305
150	0x3d0b489f	0.034004804
151	0x3e6f5ead	0.2337596
152	0x3dcdfbbb	0.100577794
153	0xbc90d8e6	-0.01768155
154	0x3c1ab489	0.009442457
155	0x3ebc558c	0.36784017
156	0xbd55e83e	-0.052223437
157	0x3e515f70	0.20446563
158	0xbe534105	-0.20630272
159	0xbdb6ac50	-0.08919585
160	0xbe8454d1	-0.2584596
161	0xbe3e784b	-0.18600576
162	0xbd67b00a	-0.05656437
163	0xbe8a3f20	-0.27001286
164	0x3e571c4a	0.21006885
165	0x3e17cba6	0.1482378
166	0x3e9812fa	0.29701978
167	0xbeb3eaed	-0.35140172
168	0xbb994fda	-0.0046787085
169	0xbe4169c5	-0.18888004
170	0xbe301ae1	-0.17197753
171	0xbe83d406	-0.257477
172	0x3e54a968	0.20767748
173	0x3d43583a	0.04769156
174	0xbcbb87d1	-0.02289191
175	0x3d75685e	0.059913985
176	0x3c6c4e6a	0.014422992
177	0x3ecebef4	0.4038006
178	0x3e0f7dbc	0.14012808
179	0x3e0c6827	0.13711606
180	0xbe607c1a	-0.21922341
181	0x3de3f9b9	0.11131615
182	0xbea6d12e	-0.32581466
183	0x3ec4b743	0.38421068
184	0xbea9941e	-0.33120817
185	0x3e7bcb5b	0.24589293
186	0x3db17486	0.08664803
187	0xbdc82188	-0.097720206
188	0xbe5f6572	-0.21816042
189	0xbe0c25a0	-0.13686228
190	0xbeac65a7	-0.33671305
191	0xbea87e07	-0.3290865
192	0xbe490a7a	-0.19632903
193	0xbe1209b8	-0.1426152
194	0xbeab53c5	-0.3346235
195	0x3d82bd72	0.0638379
196	0x3dfff113	0.12497153
197	0x3ea3f180	0.32020187
198	0x3e7daa9d	0.24772115
199	0xb9c597c1	-0.00037687834
200	0xbd0ac1f4	-0.033876374
201	0x3d9bd707	0.076093726
202	0xbdc36db8	-0.095424116
203	0xbeb54832	-0.35406643
204	0x3e97991f	0.2960901
205	0xbe2087b8	-0.15676773
206	0x3e9e0b0a	0.30867797
207	0x3e87542c	0.26431406
208	0x3d78d580	0.060750484
209	0xbeb2d00f	-0.3492436
210	0xbe8ec7d0	-0.2788682
211	0xbe1a2b48	-0.15055573
212	0x3edbdd84	0.4294244
213	0x3bcd2f84	0.006261768
214	0x3ecb51c2	0.39710814
215	0xbe488948	-0.19583619
216	0x3ea2ce26	0.31797904
217	0xbda98632	-0.08277549
218	0xbe4da88e	-0.2008383
219	0xbda31346	-0.079626605
220	0xbd59a970	-0.053140104
221	0xbdc1cc85	-0.09462837
222	0x3dfffc57	0.12499302
223	0x3d9d1da1	0.07671667
224	0x3dc3c94c	0.09559879
225	0x3ea9bacd	0.3315033
226	0x3ddb8509	0.10718734
227	0x3ce97443	0.02849782
228	0xbee6dc89	-0.4509013
229	0x3d292d1d	0.04130279
230	0xbea1f1fd	-0.31629935
231	0x3dea6d65	0.114466466
232	0xbebdbf5b	-0.37060055
233	0x3e7543e1	0.23951675
234	0x3c82c679	0.01596378
235	0x3dd1d459	0.1024558
236	0xbea1abac	-0.31576288
237	0xbd5bc3ca	-0.053653516
238	0xbebeed06	-0.3729021
239	0xbe849dee	-0.2590174
240	0x3e56f14b	0.20990483
241	0x3dace487	0.08442026
242	0xbc255b25	-0.010092531
243	0x3e8c6cdc	0.27426803
244	0xbd7e23c5	-0.06204583
245	0xbe56ed0f	-0.20988868
246	0xbe095e02	-0.13414767
247	0xbca4b96a	-0.020107944
248	0xbd89df26	-0.06732015
249	0x3ec1254b	0.37723765
250	0x3d484d6c	0.04890196
251	0x3eb779c2	0.3583508
252	0x3c5d2d4e	0.013499571
253	0x3e953731	0.2914367
254	0xbe475185	-0.19464691
255	0xbec42402	-0.38308722

model.12.bias f4 [16]
0	0x3d1d7d83	0.038449775
1	0x3da2ac0f	0.07942974
2	0x3e3a46ca	0.18191066
3	0x3de74439	0.11292309
4	0xbd365839	-0.04451773
5	0x3dd12cd7	0.10213631
6	0x3dc85b31	0.097830184
7	0x3d64d496	0.0558668
8	0x3e6a9088	0.22906697
9	0xbd6ab840	-0.05730462
10	0xbd52a766	-0.051429175
11	0xbdfacb93	-0.1224586
12	0xbe3a0064	-0.18164212
13	0x3e8b7e1d	0.27244654
14	0x3ce65a12	0.02811912
15	0xbe39f1ac	-0.18158597

model.14.weight f4 [1, 16]
0	0x3e368167	0.178228
1	0x3ea4d2e8	0.3219216
2	0xbe54fbaa	-0.20799127
3	0xbe3446a7	-0.17605077
4	0x3e12e401	0.14344789
5	0xbe994dc6	-0.2994215
6	0xbe39bdb0	-0.18138766
7	0xbeb8b958	-0.36078906
8	0xbea16c87	-0.31528112
9	0x3e8877cb	0.26653895
10	0xbe9276bf	-0.2860622
11	0x3ea15649	0.31511143
12	0xbe43777b	-0.19088547
13	0xbe3ce0e8	-0.1844517
14	0x3e6550e6	0.22394142
15	0x3e3f9ebc	0.18712896
