NeuralGalerkin/models/autosave/Gen_2_Loss_0.09161337.pt (torch, 102983 bytes, 15 tensors)

model.0.weight f4 [16, 2]
000000 45 b3 f7 3e 47 5a a1 3e 6e ea 2c bd 70 48 09 bf
       0.4837896 0.3151419 -0.042215757 -0.53626156
000010 c0 95 20 3f bd 7a 18 3f 28 c2 31 3f be 67 8c be
       0.627285 0.59562284 0.69436884 -0.274229
000020 72 f3 81 be 79 b9 68 3f 43 da 29 bf 22 b3 67 3f
       -0.25381047 0.9090801 -0.66348666 0.9050771
000030 ce cb 0c bf a9 5f 09 3f 16 19 2a 3f 2d ed 71 3e
       -0.5499848 0.5366159 0.6644453 0.23625632
000040 81 54 5e 3e a6 8b 2b 3f a2 ef d0 3e f6 ab 6d 3d
       0.21711923 0.6700996 0.40807825 0.058025323
000050 88 6e 0e 3f 5d 89 49 bf ee 51 ed 3e 62 b8 15 bf
       0.5563741 -0.78725225 0.4635157 -0.5848447
000060 b8 4c 57 bd 0a ca 3b 3f b5 c9 31 3f 3c 56 ee 3e
       -0.0525634 0.7335516 0.69448406 0.46550167
000070 0f 08 bf be 24 78 5e bd a1 e6 23 3f 1e 38 cf 3e
       -0.37310836 -0.054313794 0.64023787 0.40472502

model.0.bias f4 [16]
000000 97 95 8a 3e 83 0b 5c bf af 5b 03 be 62 c0 10 3f
       0.27067253 -0.85955065 -0.12827943 0.5654355
000010 ab d4 a7 3e d5 45 91 3e 85 16 2a bf 02 5e a1 3e
       0.3277944 0.2837359 -0.6644061 0.31517035
000020 d5 0c 0c bd ef 9d cc bd 54 46 f0 be f5 fb 5f 3e
       -0.034191925 -0.09991061 -0.46928656 0.21873458
000030 fe 66 35 bf 0c ca 10 3f 46 af 23 bf de 75 c5 be
       -0.7086028 0.565583 -0.6393932 -0.38566488

model.2.weight f4 [16, 16]
000000 1d bd 92 bd b1 38 4a 3e ca 05 d6 3d 7f 5e c9 bd
       -0.07164977 0.19748189 0.10450323 -0.09832477
000010 93 54 64 3e 47 bd 93 3e 20 e5 64 3e 76 cb a4 bb
       0.22297888 0.28855345 0.22353029 -0.0050291372
000020 d9 61 c4 3e e3 d4 c3 bd 9a a7 be bd 66 ee ff be
       0.38355902 -0.09562089 -0.09309311 -0.4998657
000030 0f 1a 6d 3d 2f 53 14 be 63 a7 38 3e ee bd db 3e
       0.05788618 -0.14484857 0.18032603 0.42918342
000040 62 b1 52 bd 15 d9 87 be ee 54 71 bd cc 99 1b be
       -0.051438697 -0.26532808 -0.058918886 -0.15195388
000050 04 4e b4 3d 4d 40 13 3e c9 76 2d be a2 d9 72 bd
       0.08803943 0.14379998 -0.16939844 -0.059289582
000060 d3 88 3d 3e a7 e3 62 be 5f 0a 55 be ba 73 40 bd
       0.18509226 -0.22157155 -0.20804738 -0.046985365
000070 99 b2 ba bc 5b 4d 89 bc a6 6f d3 bd 66 6e 06 be
       -0.02279024 -0.016760519 -0.103240296 -0.13128051
000080 5b f7 55 be a3 4b dc 3d 75 c8 4f 3e cf 7c dc bd
       -0.2089514 0.10756614 0.20291312 -0.10765993
000090 90 95 92 3e f4 80 9f 3e 6d 89 7b 3e 0f 44 d2 bd
       0.28629732 0.3115307 0.24564143 -0.102668874
0000a0 9c ea 2a 3e 8b 6e cd bd 11 78 8d be c4 29 87 bd
       0.16691059 -0.1003085 -0.27630666 -0.06599763
0000b0 e8 e1 98 3e 16 b7 5b 3e 18 00 d6 3d b1 af fb bd
       0.29859853 0.2145656 0.10449237 -0.1228937
0000c0 b6 d9 da 3b f2 8d 5d be ce ca 48 3e 88 76 f7 bd
       0.006678785 -0.21636179 0.19608614 -0.12083155
0000d0 1f 24 82 3e e2 5c 81 3e b5 3b 32 3e de fa 1d 3e
       0.25418183 0.25266176 0.17405589 0.1542773
0000e0 b5 29 90 3e 44 c1 f1 bd 69 0c 83 3d 68 ed 5c bd
       0.2815682 -0.118044406 0.063988514 -0.053937346
0000f0 5c 88 67 3d e9 16 0c 3e 83 de 17 3e 7c 38 bd 3d
       0.056526527 0.13680615 0.14830975 0.09239289
000100 ee 71 6a 3d 2b 1f 05 be db e4 e3 3e f0 83 b1 bd
       0.057237558 -0.13000171 0.4451054 -0.08667743
000110 62 6c ba bd 25 5e 08 3e 48 2a ae bc 53 33 b5 bd
       -0.09102704 0.13317163 -0.021260396 -0.0884768
000120 68 2e e0 3d 1f a1 6b bd 16 a7 34 bd e4 d6 f3 be
       0.10946351 -0.057526704 -0.044104658 -0.47624886
000130 f2 cb ad 3e ab 45 7c be 98 62 24 3e 88 de c4 3e
       0.3394466 -0.24635951 0.16053236 0.38451028
000140 e2 40 81 3d f6 24 01 3e 32 a9 ca be f0 1b d7 3b
       0.063112035 0.12611756 -0.3958221 0.0065646097
000150 91 ec 1d 3e 5b 5a 6c be 61 25 10 3d 2d 34 54 3d
       0.15422274 -0.23081343 0.035191897 0.05180757
000160 db fd 03 3c cf 4a 98 3d 3a a8 97 3e 5d 06 d0 3e
       0.008056129 0.074361436 0.29620534 0.40629855
000170 69 99 5d bd 74 8c 32 3d 52 70 ea bd e6 2b 10 3e
       -0.05410138 0.043590978 -0.11447205 0.14079246
000180 3a e1 b7 3d 35 6b 16 be 55 d0 b6 3e 16 81 79 3d
       0.089785054 -0.14689334 0.3570582 0.06091412
000190 27 88 15 3e 5e 36 0e 3d f4 7a 93 3e f4 cc 15 3e
       0.14602719 0.034719817 0.28804743 0.14628965
0001a0 29 a4 54 3e 73 67 45 3e 46 91 7d be 17 d7 f1 3c
       0.20765747 0.19277744 -0.24762449 0.029521508
0001b0 ae db 20 be a1 4f 86 3e 03 19 52 bd 24 55 15 3d
       -0.15708801 0.26232627 -0.051293384 0.03645815
0001c0 ba 91 32 3d 0b e5 86 be 7e 93 93 3e 5b 31 27 3e
       0.043596007 -0.2634662 0.28823465 0.16327421
0001d0 18 c2 3e 3e 62 13 79 3e d6 2f 33 3e 8c 26 e0 bd
       0.18628728 0.243238 0.17498717 -0.10944852
0001e0 23 cb 9a 3e fc 67 a9 bd 90 ba dc 3d 24 ee cf be
       0.30233106 -0.082717866 0.107777715 -0.40611374
0001f0 d7 67 2d 3e 88 d1 82 3e 84 2e 0f bd 2e e4 c6 3d
       0.16934143 0.25550485 -0.03495647 0.097114906
000200 36 67 88 3c 58 f0 9f be f8 f9 1a be 14 a4 ab 3d
       0.016650777 -0.31238055 -0.15134418 0.08380905
000210 b5 31 1a 3e 6c f0 02 be 1a 70 50 bd 42 67 37 be
       0.15058024 -0.12787026 -0.05088816 -0.17910483
000220 23 99 58 be 01 ca d2 be ae 34 b3 bc ca 34 8c 3d
       -0.21152167 -0.41169742 -0.021875706 0.06846006
000230 a6 15 e0 be d5 3b f7 3d 08 71 4c be b2 cf 8d be
       -0.43766516 0.12071959 -0.19964993 -0.2769752
000240 48 3e 57 3e 51 dd 64 3e 38 29 f6 3d 5d 75 d3 bd
       0.21019852 0.2235005 0.120195806 -0.1032512
000250 e8 f9 34 bd 67 ba 75 3e 98 af ed 3d 71 92 6b be
       -0.04418364 0.23996888 0.116057575 -0.23005082
000260 90 8e b1 3e fe 45 89 3c 81 8d 11 3e 94 71 dd be
       0.3467908 0.016757008 0.14214136 -0.43250716
000270 fd f4 ae 3c ec 8d 81 3e f7 a2 4c 3e 14 ad a5 bd
       0.021357054 0.2530359 0.19984041 -0.08089653
000280 f1 c6 89 be 54 12 9e 3c ab 07 aa be 9c c8 0e be
       -0.26909593 0.019295849 -0.33208975 -0.13943714
000290 c2 b3 81 bc 31 46 2b be 25 a6 78 be 69 09 54 be
       -0.015832786 -0.16725995 -0.24282129 -0.20706715
0002a0 00 ab 5b be 1d 98 cf 3d 0e 65 0f be 3d 1c 8e 3e
       -0.2145195 0.10136435 -0.14003393 0.2775592
0002b0 d8 96 8c be 0f ad 42 3e 01 71 2f 3d e8 b3 88 bd
       -0.27458835 0.19011329 0.04283238 -0.066749394
0002c0 32 06 83 be d6 e6 da bc 24 a2 25 be 41 cd b8 3e
       -0.25590664 -0.0267214 -0.16175133 0.36094096
0002d0 bb e2 1e 3d 5c 09 7b 3d 3e 63 aa be 26 3d 3d 3c
       0.038790446 0.061288223 -0.3327884 0.011550223
0002e0 77 b5 0b be ab 4a e4 3c cf 37 0f 3e d2 b9 00 3f
       -0.13643442 0.027867636 0.13986133 0.5028354
0002f0 6a 08 46 be cd e7 00 3d 26 4d c9 bd f6 a7 8b be
       -0.19339147 0.031471062 -0.09829168 -0.27276582
000300 0b d4 41 bd eb bf d7 bd f2 eb 11 be 03 fc 8d 3e
       -0.04732136 -0.10534652 -0.14250162 0.27731332
000310 4a c1 3e be 14 6b 9a be 46 52 bc be 66 3d aa 3d
       -0.18628421 -0.3015982 -0.3678152 0.08312492
000320 54 24 4c be 41 4c 2a 3d d4 57 8d 3e 5c a1 ce 3e
       -0.19935733 0.041576628 0.2760607 0.40357482
000330 b9 f6 80 be 26 1a 0e be 0b fa 1a be fe 45 01 be
       -0.25188234 -0.13877162 -0.15134446 -0.12624356
000340 c9 e1 c5 bd ba a7 83 3e ef 22 c5 3e 7e 8b 89 be
       -0.09662206 0.25713903 0.38503215 -0.26864237
000350 7f a6 a4 3e ce e0 88 3e 7b 81 b8 3e fc 6c a6 bc
       0.32158276 0.26734012 0.36036286 -0.02031564
000360 8b dd 8d 3e 72 30 eb 3e 11 39 84 bc 8c a7 89 be
       0.27708086 0.45935398 -0.016140493 -0.2688564
000370 18 83 ea 3e 41 13 9a 3d 48 07 8b 3d 52 cc f8 3e
       0.45803142 0.07523204 0.06788498 0.48593384
000380 42 99 6a 3e 15 13 21 3e 93 49 da 3e e1 67 27 3d
       0.22910026 0.15729935 0.42634258 0.04087055
000390 44 d5 f2 bd e8 62 f2 bd be 2f 83 3e 18 b2 55 3e
       -0.118570834 -0.11835271 0.25622362 0.20868719
0003a0 2e a9 0f 3e 9d 47 94 3e ce bc ca 3d 69 dc 70 be
       0.1402938 0.28960887 0.09899293 -0.2352158
0003b0 69 1a 00 be ad 8c 1f 3e 4e b0 61 3d eb ad a7 3d
       -0.12510075 0.15581007 0.055099778 0.08187469
0003c0 79 b2 0f be 4a dc 8b 3d b9 45 d6 3e 36 19 1e be
       -0.14032926 0.06829126 0.4185007 -0.15439305
0003d0 87 4f 21 be d9 28 7e 3d 49 b7 ba bd d3 af 3c be
       -0.15752994 0.062050674 -0.0911699 -0.18426447
0003e0 98 f2 6c bd df bc 49 be 38 8b 11 be 3d 6e 80 be
       -0.057848543 -0.19700955 -0.14213264 -0.25084105
0003f0 b5 a1 7e 3e d0 db 99 3e 76 6e 15 be 9c df 61 3e
       0.24866374 0.30050516 -0.14592919 0.22057956

model.2.bias f4 [16]
000000 3d e3 20 bd 9c 0a 48 3e d2 fe 4a 3e 43 a3 32 3e
       -0.03927921 0.19535297 0.19823769 0.17445092
000010 b0 ee 25 bd ec 39 21 be 9c d3 07 be ea 59 b5 3d
       -0.040510833 -0.15744752 -0.13264316 0.0885504
000020 46 49 2e 3e 28 a1 44 3e e9 f1 06 bc fd 05 8e 3e
       0.17020139 0.19202101 -0.008236387 0.27738944
000030 c1 03 6d 3e ff 35 30 bd 35 d0 5a 3e d5 45 61 bd
       0.23145963 -0.043020245 0.21368487 -0.054998238

model.4.weight f4 [16, 16]
000000 00 1c 54 bd 05 af d4 3c 55 69 79 3e 22 68 c2 bd
       -0.051784515 0.025962362 0.24356587 -0.09492518
000010 bd 9c 70 be 17 ea 2a be ba 95 8f 3e 4a 7f bc 3d
       -0.23497291 -0.1669086 0.2804392 0.09203966
000020 ff a9 aa 3e 31 07 6b be 32 9a 27 3e d3 2b 45 3e
       0.33332822 -0.22951962 0.16367415 0.19254999
000030 72 a1 bb 3e 60 6d 83 be d3 75 0f be 65 75 b8 bd
       0.3664661 -0.25669384 -0.1400979 -0.09006766
000040 d8 e4 d2 3e 3d 09 3e 3e 2b ef a9 3e 28 c9 2d bd
       0.4119022 0.18558212 0.33190283 -0.042428166
000050 7a f3 28 3c 90 64 6c be 94 cb ac 3e 41 9a 09 3e
       0.010311956 -0.23085237 0.33749068 0.1343775
000060 99 fb b3 bd 47 24 37 3e de 2f a6 be 0c 82 8f 3d
       -0.08788223 0.17884932 -0.32458395 0.07007226
000070 8e 18 c0 be 2f 5e 6a 3e 0a 68 fe 3c e4 23 22 bd
       -0.37518734 0.2288749 0.031055469 -0.03958501
000080 51 88 13 be 91 84 cd bb 1a 1f 88 be 45 97 d2 3d
       -0.1440747 -0.0062719067 -0.2658623 0.102827586
000090 6b 6b 75 be a7 3a 5a 3e 9c b1 28 be 38 3d 6d bd
       -0.23966758 0.21311437 -0.16474003 -0.05791971
0000a0 5a 18 1d 3d 04 44 4b be 26 6c 20 3e 72 66 a3 3c
       0.0383533 -0.19850165 0.15666255 0.01994631
0000b0 66 ef 6c 3c 5e 14 ac be ba 3c 85 be fd 15 8e 3c
       0.014461374 -0.3360929 -0.26022893 0.01734447
0000c0 45 ed 11 be c7 79 31 be 0d c7 53 be 23 00 2d be
       -0.14250667 -0.1733161 -0.206814 -0.16894583
0000d0 d8 62 a2 be 6b 04 2b be 6b 2d bc 3d ee 59 bf 3c
       -0.31716037 -0.16700904 0.0918835 0.023358312
0000e0 65 38 3c 3e b8 56 e7 bd 4c 02 c4 3e d6 60 69 3b
       0.18380888 -0.11295837 0.38283002 0.0035610697
0000f0 52 58 ac 3e d7 b7 8f be 97 7f 6d bd e5 3e 9f be
       0.33661133 -0.28069946 -0.057983007 -0.31102672
000100 ce 81 63 3d 3c 10 a2 3c 36 46 a3 3e e8 82 22 3e
       0.055543713 0.019783132 0.31889504 0.1587025
000110 22 bc 25 3e 50 d2 c4 be c0 75 44 3e 91 71 af 3e
       0.16185048 -0.38441706 0.19185543 0.34266332
000120 5d a2 aa 3e 4b a0 04 3e ed 46 1e be a9 07 60 3d
       0.33326998 0.12951772 -0.15456744 0.054694805
000130 da cb bd be ee eb 3b 3e d3 eb 6c 3e f9 fe 4a 3e
       -0.3706959 0.18351719 0.23136835 0.19823827
000140 3b 3b 84 be da 50 38 3e 32 db 0a be a4 f2 58 3e
       -0.2582644 0.17999592 -0.13560179 0.2118631
000150 8d 71 56 3d 00 4f 2d be 98 c4 2e 3e 95 3d 99 bd
       0.052354384 -0.16924667 0.17067182 -0.07482449
000160 a4 f5 74 3e 1c 7a ae bd 89 65 55 be ab 18 8f 3e
       0.2392183 -0.08519384 -0.20839514 0.27948508
000170 e3 f7 8b 3e d1 fe 75 be a7 22 83 be 14 20 17 3d
       0.2733756 -0.24022986 -0.25612375 0.036895826
000180 00 6b 9e be cb 65 96 3d c9 37 02 3d 03 9b 78 3e
       -0.3094101 0.07343634 0.031791482 0.24277882
000190 d9 1e 31 be ce f5 90 3d f2 e0 1e bb e3 12 44 3e
       -0.17296924 0.070781335 -0.0024242965 0.1914783
0001a0 3d a1 6f 3e 34 71 41 3e f3 72 6c 3e 3f 87 96 3e
       0.23401351 0.1889084 0.23090725 0.2940006
0001b0 2c ff 56 3e 28 d7 a1 be a4 d2 c6 3d 2d d1 5e be
       0.20995778 -0.31609464 0.09708145 -0.21759482
0001c0 d7 2a d8 be 38 24 16 3e 0e e6 95 3b bd 84 70 be
       -0.42220184 0.14662254 0.004574544 -0.23488136
0001d0 b4 12 6a be a5 28 2b 3e 09 22 83 be d2 e4 4d 3e
       -0.22858697 0.16714723 -0.25611904 0.2010682
0001e0 fa 8b 9b 3e 89 0c 89 3d f9 87 31 3e d5 19 8d 3e
       0.3038023 0.06691844 0.17337026 0.2755877
0001f0 ea 0a 87 3e bd 55 d3 be 15 7f 95 bd c4 01 00 3b
       0.26375514 -0.4127635 -0.072996296 0.0019532302
000200 09 0f c8 be 14 4a 10 be dc ef 2e be 87 0d 8d be
       -0.3907397 -0.14090759 -0.17083687 -0.27549383
000210 25 10 1b bd 34 bb 77 3e ce eb 97 be 56 b1 32 3c
       -0.037857193 0.24192506 -0.29672092 0.010906538
000220 ef c1 de 3d e4 fb 23 be 09 d8 51 3e 2b d0 69 bd
       0.10876834 -0.16014057 0.20492567 -0.05708329
000230 74 24 19 3e 9a a5 cf be e8 1a 9f be 61 7f 0c be
       0.14955312 -0.4055603 -0.31075215 -0.13720466
000240 1c a8 ce 3e 91 8d f0 bd f9 6f 48 3e 20 b5 90 3e
       0.40362632 -0.11745752 0.19573964 0.28263187
000250 84 b5 bc 3d 06 99 c2 bd 4c fc 77 3e 9e f6 eb 3d
       0.09214309 -0.09501843 0.24217337 0.11521648
000260 8d b7 50 3e 5f f1 25 bd cf 91 07 3d 00 12 16 be
       0.20382519 -0.040513393 0.03309804 -0.14655304
000270 ac 8f 9c be 39 5e c5 3e 84 b1 a5 3e 13 ce 21 3e
       -0.30578363 0.3854845 0.32361996 0.15801267
000280 7d 0c d7 3e f1 b2 8b be 16 9a 31 be e0 b2 28 ba
       0.42001715 -0.2728496 -0.17343935 -0.0006435346
000290 5b 90 df 3e 68 02 5a bd a4 37 8e bd 09 af 32 be
       0.43664822 -0.05322495 -0.06944206 -0.17449583
0002a0 48 29 68 bd af 49 1e bd ef f0 92 be 9b 07 29 be
       -0.056679994 -0.03864449 -0.28699443 -0.16506808
0002b0 65 6b 4d be 53 86 0a 3f eb f8 63 3e e9 35 29 3e
       -0.20060499 0.5411121 0.22262923 0.16524471
0002c0 55 05 cc 3e f8 c7 da bc 2c b3 6c 3e 85 1e c7 bd
       0.39847818 -0.02670668 0.23115224 -0.09722618
0002d0 3d b1 f8 3c 5d 40 f2 3c 71 82 e0 3d 74 19 05 3e
       0.030357951 0.029571706 0.1096238 0.12997991
0002e0 16 4f ad be 57 df 93 3e bd e7 af be 70 8b 4f be
       -0.338494 0.28881332 -0.3435649 -0.20268035
0002f0 dd 06 de bd f3 35 d6 3d a0 7a 80 3e 8f 82 59 bd
       -0.10841153 0.10459509 0.25093555 -0.053103026
000300 1d 26 ca be 22 cc da bd 91 70 13 3d 9f 00 30 bd
       -0.39482203 -0.106834665 0.035996024 -0.042969342
000310 a5 b6 ce be 42 89 8b 3a c8 88 e0 bd 86 bd 2b be
       -0.40373722 0.0010645764 -0.10963589 -0.16771516
000320 50 b5 99 3c 17 b3 16 be ff cc 0d 3c da 63 a0 bb
       0.018763214 -0.14716755 0.008654832 -0.0048947157
000330 85 12 b0 3e a4 b6 92 be c0 52 2e 3c 8e d4 bc bd
       0.3438913 -0.2865497 0.010639846 -0.09220229
000340 25 60 55 bd b3 9c f2 bd 75 4a 25 bd 55 cd 2b be
       -0.052093644 -0.11846294 -0.04035421 -0.16777547
000350 b6 ea 62 be 3b 68 c2 3d 80 17 9e be 6b 39 48 be
       -0.22159848 0.09492537 -0.30877304 -0.19553153
000360 fc 6b ca 3d af 3f 9e be b3 10 8d 3e f7 ed 2c 3e
       0.09883878 -0.30907962 0.27551803 0.16887651
000370 ac 8a b7 3e f9 60 57 be 57 e4 47 be ad e2 5a 3d
       0.35847986 -0.21033086 -0.19520698 0.05343883
000380 92 f2 64 3a be 08 fc bd ae 45 5a 3e 84 62 1f 3c
       0.00087336556 -0.12306355 0.21315643 0.009728078
000390 ec 9f 17 be 91 12 8a be 7c f7 19 3e 5e 21 c2 3d
       -0.14807099 -0.2696729 0.15035814 0.094790205
0003a0 ba 40 0b 3e 31 08 b0 3c 7b 3c aa be 52 ba 70 be
       0.1359891 0.021488281 -0.33249268 -0.23508576
0003b0 76 42 92 be be d0 5f bd 20 01 ec 3d b4 31 03 bb
       -0.2856633 -0.05464243 0.11523652 -0.002001864
0003c0 fa e0 49 3e 1d 8f d8 3d cf 30 f6 3d 2f 7b 7c 3e
       0.19714728 0.10574172 0.12021028 0.24656366
0003d0 73 6e 90 3e e7 ad 17 bd f2 ff 45 3e b1 a5 91 3e
       0.28209266 -0.03703108 0.19335917 0.28446725
0003e0 c4 ec 4b be 8b 2d f6 3d 2c f4 57 3d 7e a9 d8 bc
       -0.19914538 0.120204054 0.052723095 -0.026448008
0003f0 4d 67 61 3d 5f 35 e6 3d a2 09 8c 3e bf b6 76 3e
       0.055030156 0.112406485 0.273511 0.2409315

model.4.bias f4 [16]
000000 1d e0 fe 3d 88 0c 03 be ff 4d 86 3e 41 26 d0 3d
       0.1244509 -0.12797749 0.2623138 0.10163546
000010 f8 77 89 3d 70 e5 92 bd f4 81 7c 3e 01 5b 1d be
       0.06712335 -0.07172668 0.24658948 -0.15366746
000020 da f4 29 bd 8c 31 8f 3d 0d 81 67 be 44 fe 56 be
       -0.041493274 0.06991872 -0.22607823 -0.20995432
000030 ea a0 82 3d dd fe e7 3d a6 44 cc 3d 40 f4 52 3d
       0.06378348 0.11327908 0.09974031 0.051502466

model.6.weight f4 [16, 16]
000000 fc 1d 84 3e 4f 13 11 3e 92 ee 1a be 57 5b a3 bd
       0.25804126 0.14167522 -0.1513007 -0.07976406
000010 14 ae 8b 3e 92 55 40 3c 40 be 1e 3e 20 3c 8d be
       0.2728125 0.011739152 0.15502262 -0.27584934
000020 9c e3 46 be 8f 9e 27 3e dc d5 42 3e 7c 93 8b 3d
       -0.19422764 0.16369079 0.19026893 0.0681524
000030 00 4e ad be 1b ab c0 bd 5c f1 1a be 80 e5 b8 3d
       -0.33848572 -0.09407636 -0.15131134 0.09028149
000040 1a 5d a9 bd c6 a3 52 3d bb ac 5b be 31 d6 46 3e
       -0.08269711 0.051425718 -0.2145261 0.19417645
000050 55 c9 4a 3e 11 96 89 3e 2f bc c8 3d 4c 24 20 3d
       0.19803365 0.26872304 0.09801518 0.039097115
000060 0f 55 ed bc 49 a0 8d bc 97 ad ca bd 8c 1d 30 be
       -0.028971223 -0.017288344 -0.09896391 -0.17198771
000070 ee d6 45 be 2d 01 d1 bd 34 a1 72 3e de 27 a7 bd
       -0.1932027 -0.102053024 0.23694307 -0.08161901
000080 0b 7d 2c be b4 21 0c 3e 3e 34 af be ee 4c 76 be
       -0.16844575 0.13684732 -0.34219545 -0.24052784
000090 6c 34 3b be 0f 96 fe be 32 75 bd be 65 36 97 be
       -0.18281716 -0.4972386 -0.37003475 -0.29533687
0000a0 79 74 66 3d aa 84 c2 3e 77 e9 ba 3e 4b 26 47 3e
       0.05626342 0.3799184 0.36506245 0.19448201
0000b0 4a 59 aa be 75 78 3d bc 5f 61 43 3d 45 4e 14 3e
       -0.33271247 -0.011564364 0.047700282 0.14482982
0000c0 63 7c 35 bd f8 4c af be 9c c0 ff 3c 94 66 ae 3d
       -0.044308078 -0.3423841 0.031219773 0.08515659
0000d0 8f fe cf be f1 37 60 be 7e cf ab 3d a6 e9 a6 3e
       -0.406239 -0.2189634 0.08389185 0.32600135
0000e0 c6 42 c1 3e 19 71 c2 be 48 1f bc 3d 4e 2e 81 be
       0.37746257 -0.37976912 0.09185654 -0.2523064
0000f0 d1 0a f6 39 09 29 c5 3d 75 9a 50 be c6 f1 80 3d
       0.00046928835 0.096269675 -0.2037142 0.062961146
000100 d4 01 e3 bd 39 71 ac be 0f a8 a0 3e d4 bf 75 3e
       -0.11084333 -0.33680132 0.3137822 0.23998958
000110 92 b1 ce 3d 7d 0b 3f be 5f ee e5 bd 53 4c 0d 3c
       0.100924626 -0.18656726 -0.11227106 0.008624154
000120 1d 00 70 3e 1c 40 6e be 74 80 1e 3d d8 bc 99 3d
       0.23437543 -0.23266643 0.03869672 0.07506722
000130 99 67 9d 3d 2d 86 7e 3e 0e 48 75 be 19 ed 2a be
       0.07685775 0.24855871 -0.23953268 -0.16692008
000140 4a 09 66 3e ed e0 9a bd d2 d7 8f 3d af 8b 9c be
       0.22464481 -0.075624324 0.07023586 -0.3057532
000150 92 db dc 3d f5 c1 08 3d 75 2f cf bd 79 87 b3 3d
       0.10784067 0.033388097 -0.101164736 0.08766074
000160 33 88 1c be 29 d9 34 3e 74 1e df bd ff 12 da 3d
       -0.15286331 0.17660965 -0.1089448 0.106481545
000170 19 f3 e2 3c 5f 82 af be f1 34 11 3e f1 12 21 3e
       0.027703809 -0.34279153 0.14180352 0.15729882
000180 e3 fe dd bd 93 01 7b be ab 99 8b 3e 98 ee 48 3e
       -0.108396314 -0.2451232 0.27265677 0.19622266
000190 c8 c0 c5 bd 0e 08 70 3d f8 ce 82 be 39 a7 94 3d
       -0.09655911 0.05860143 -0.2554853 0.07258458
0001a0 c2 ed a5 3e c3 ac 83 be 37 51 9f bd 80 69 8b 3d
       0.32407957 -0.25717744 -0.077791624 0.06807232
0001b0 72 5f a8 3e 97 56 77 3e c2 02 de bc b3 8c 0a be
       0.3288532 0.24154125 -0.027100924 -0.13530235
0001c0 aa df 29 be 19 5a b4 bc c7 e9 26 3e 42 61 a9 bd
       -0.16589227 -0.022015618 0.16300116 -0.082705036
0001d0 05 9a 98 3e d5 17 06 3e 43 bf 18 3e 4b 25 94 be
       0.29805008 0.13095029 0.1491671 -0.28934702
0001e0 66 d0 d6 bc 15 d2 b3 3e 73 ed 54 bd b5 77 23 bb
       -0.026222419 0.35121217 -0.05198426 -0.0024943177
0001f0 b6 9e 1d 3d d7 09 90 bd 7e fd 91 3e 22 58 ad 3d
       0.038481437 -0.07033127 0.28513712 0.084640756
000200 b9 b0 f1 3e 4b fb d3 bd 35 0c bb 3e ac a7 e5 3d
       0.4720514 -0.10350665 0.3653275 0.112136215
000210 7c d2 13 3e 65 f1 98 3e 18 66 1f be 19 c4 e3 3e
       0.14435762 0.2987167 -0.1556629 0.44485548
000220 1c f4 d8 bb d0 8f c6 bd dd 68 e1 bd 21 48 eb be
       -0.006620897 -0.09695399 -0.11006329 -0.45953467
000230 fe 51 c7 3e 24 4c bd 3c 06 5b 5b be 22 f2 26 bc
       0.38929743 0.023107596 -0.21421441 -0.010189565
000240 d7 76 64 be cc 59 29 be 05 2b be 3e e7 a9 70 bd
       -0.22310959 -0.16538161 0.37142196 -0.05875578
000250 e4 7d 36 bd f8 61 0e 3e d4 c3 f0 bb 91 be 73 3e
       -0.044553652 0.1390456 -0.0073475633 0.23803164
000260 71 a3 7d 3e 77 7d d0 be 97 61 ca bd 57 b4 6a be
       0.24769379 -0.40720722 -0.09881895 -0.22920357
000270 23 ae 2d 3e 4a 3e b4 3e 55 b1 f7 3d b3 1e 46 be
       0.16960959 0.35203773 0.1209437 -0.19347648
000280 4b e5 18 be 84 b4 c0 3e f8 95 ba bd 9e b1 7c be
       -0.14931218 0.37637722 -0.091106355 -0.2467713
000290 28 88 03 3e e2 ac 86 3e e8 09 92 bd 56 a0 00 be
       0.12844908 0.26303774 -0.07130796 -0.12561163
0002a0 83 f9 1d be e0 09 d2 3e 94 eb 10 3e 65 b3 f6 3d
       -0.15427212 0.4102316 0.14152366 0.120459355
0002b0 58 57 c4 bd a5 cd 9c be 7d 1a b4 3e a9 12 af 3e
       -0.09586972 -0.30625644 0.3517646 0.34193924
0002c0 9f ff 0d 3f 9e 8d 75 be b8 86 7c 3e 45 d9 b3 3e
       0.5546817 -0.23979804 0.24660766 0.351267
0002d0 0e 31 ed bd 08 65 dc 3e 75 f0 9d 3e a8 0b b5 3e
       -0.11581622 0.4304583 0.30847517 0.35360456
0002e0 43 c4 d9 3c 52 6f 10 be df 02 e5 be 65 8b 12 bd
       0.026582843 -0.14104965 -0.44728753 -0.03577747
0002f0 a2 3d 89 3e 99 6e b2 3e 5a 89 56 3e 1f 62 61 be
       0.26804835 0.34850004 0.20950833 -0.22010086
000300 10 b0 af 3d ed 28 98 bc 0a 4a 1a 3c aa 98 dc bb
       0.08578503 -0.018574202 0.009417066 -0.006732066
000310 c6 39 2a be 3c 63 7c 3d 89 b5 00 be 91 25 4c 3d
       -0.16623601 0.061618075 -0.1256925 0.049840514
000320 1a be 9e 3e 23 55 8e be c0 40 4c 3e d1 49 fb bd
       0.3100441 -0.2779933 0.19946575 -0.12269939
000330 e0 a4 d4 3d f1 20 82 3e 12 a0 b2 3d 7c ea d4 3c
       0.1038301 0.25415757 0.08721937 0.025990717
000340 ee d4 b8 be 68 dd 45 bd f5 6c d0 bd f8 ce 75 3d
       -0.36099952 -0.048306853 -0.10177032 0.060011834
000350 b0 91 bb bd ce 93 33 bd 0b ab dd bd b6 ad 8e 3d
       -0.09158647 -0.04384213 -0.108236395 0.069667265
000360 c2 4b ba 3d c6 c1 3d be f3 4f a4 3d 3c c7 7d bc
       0.09096481 -0.1853095 0.080230616 -0.015489396
000370 58 31 fa 3b d9 8f 81 3d e4 f1 25 3d 5d b2 a9 bc
       0.0076352768 0.06326265 0.040513888 -0.020714933
000380 ab 78 f1 3c 37 5b 33 bd 21 a8 8b be 72 20 5a be
       0.029476484 -0.04378816 -0.2727671 -0.2130144
000390 06 1f 40 3d 0c f2 aa 3d a7 9f 2e be 67 72 40 3d
       0.046904586 0.08346948 -0.1705309 0.046984103
0003a0 36 02 be 3d 9d cc e8 bc 83 ce 8e 3e a3 d8 64 3e
       0.092777655 -0.02841788 0.2789193 0.22348265
0003b0 7a 69 8b be 40 fa ae be 44 4c 84 3e 52 d9 4b bc
       -0.2722891 -0.341753 0.25839436 -0.01244195
0003c0 cf 58 b7 be 74 86 f2 3d f8 4b 98 be a0 69 a8 be
       -0.35809943 0.11842051 -0.2974546 -0.32893085
0003d0 7f 5d b7 3c c5 ae 6d be ad 2d 14 be b8 27 83 be
       0.02238345 -0.232112 -0.14470549 -0.2561624
0003e0 20 de 42 be bc 1e d4 bd 7c 15 86 3e cc 50 ac 3e
       -0.19030046 -0.103574246 0.26188266 0.33655393
0003f0 73 19 16 3e 01 41 04 be f6 c3 21 3d 4d 72 2a 3e
       0.14658146 -0.12915422 0.039493524 0.16645165

model.6.bias f4 [16]
000000 cc dd 95 3d 1c 4e 88 3e cb e6 54 be 27 13 11 be
       0.07317695 0.26622093 -0.20791166 -0.14167462
000010 07 90 0f be 90 70 21 3d de 8d 75 3a 86 6d 69 3d
       -0.14019786 0.03941399 0.0009367148 0.056989215
000020 d0 8d 1f 3e c6 bb c0 bd 0b 7c 29 3e 0b 8f 91 3e
       0.15581441 -0.09410815 0.16551225 0.28429446
000030 94 b0 05 bd 30 0b 8b be 25 e9 72 bd 36 64 0b 3e
       -0.0326391 -0.27156973 -0.059304375 0.13612446

model.8.weight f4 [16, 16]
000000 98 32 8d be e9 d5 3a be da f4 23 3c b6 43 a4 3e
       -0.27577662 -0.18245663 0.010007108 0.3208291
000010 34 53 4b 3e 10 7c 93 be 23 8e c4 3c 25 d7 3b be
       0.19855958 -0.2880559 0.023993557 -0.1834379
000020 71 30 13 bd f1 e6 2c 3e fb 5d 76 bd 75 15 1b 3e
       -0.03593487 0.16884972 -0.06014822 0.15144904
000030 9f 2c 50 3e d3 a2 79 3e 8a 83 df 3d 76 90 93 be
       0.20329522 0.24378519 0.10913761 -0.28821152
000040 88 ed 67 bd 0e 4b 4a 3e 2e bd 6b 3e 4e ea f0 3d
       -0.05662301 0.19755194 0.23021385 0.1176344
000050 3e 55 75 3e b0 e9 71 be c3 80 86 3e af 7c 02 be
       0.23958299 -0.23624301 0.26270112 -0.12742876
000060 6d da f8 bc 48 1d e8 3d f3 f9 06 3e 25 55 83 be
       -0.030377591 0.1133371 0.13181286 -0.25650898
000070 a2 bf dc 3c 86 14 77 be c2 27 01 bd 97 49 83 be
       0.026946846 -0.24128923 -0.031532057 -0.25642082
000080 81 ce 82 bd 64 00 26 3e 87 4a b2 3e 99 57 bd 3d
       -0.06387044 0.16211087 0.34822485 0.092452236
000090 2c d9 48 3d bf b3 8e 3e e7 22 d1 bc 4c c3 3c 3e
       0.049035236 0.2787151 -0.025529338 0.18433875
0000a0 7c e7 e0 be b5 15 7a bc 11 db 3d bd dd 52 5e 3d
       -0.4392661 -0.015263964 -0.046351496 0.054278243
0000b0 b9 fd 1f 3e b3 2e f8 3c 01 ff 1a 3e 82 12 8b 3e
       0.15624131 0.030295705 0.15136339 0.27162558
0000c0 63 7b 03 3e 7a ac 81 be 28 87 d5 bd f0 ba 3b 3e
       0.12840037 -0.25326902 -0.1042617 0.1833303
0000d0 d1 d6 c3 3d 75 52 ae be 14 44 9d 3e e0 6a 1b bd
       0.09562457 -0.34047285 0.30716002 -0.03794372
0000e0 8a 03 fe 3d 41 ff 9e 3e 00 6d e9 3c 73 6f 8a 3e
       0.12403019 0.31054118 0.028494358 0.27038154
0000f0 e9 67 a5 3d b1 23 e8 39 33 79 56 3e ed ed 88 3d
       0.0807646 0.0004427708 0.20944671 0.06686006
000100 3d 6e 9e bd 76 35 3f be 69 6b 90 3e 89 c1 a6 bd
       -0.0773587 -0.18672737 0.28206947 -0.08142383
000110 10 16 10 be 1b 5b 71 3e 65 77 2f bd 9f 5c fd 3b
       -0.14070916 0.2356991 -0.042838473 0.0077319886
000120 46 37 a9 be 80 54 79 bd be f3 98 bd 3f 5f ba be
       -0.33049983 -0.0608716 -0.07468365 -0.36400792
000130 09 ef 14 be f0 a2 ff 3d 6a 9c 71 3e 92 a7 33 3e
       -0.1454431 0.1248225 0.23594823 0.17544392
000140 9b f7 c7 bc 8b 93 21 be 5e 16 1b 3d 34 a2 60 3e
       -0.02441006 -0.1577894 0.037863128 0.21936876
000150 d9 fa 82 3e 83 b9 50 3e f5 ee 5d 3d 4e 30 05 3c
       0.25582007 0.20383267 0.054182965 0.0081291925
000160 7d 46 4d be 59 09 a9 bd 48 72 95 3d 7d 63 45 be
       -0.2004642 -0.08253736 0.07297188 -0.19276233
000170 0f 13 61 be 57 92 55 be 7d a9 b2 3e 1e 0e d6 bd
       -0.21979927 -0.20856605 0.34894934 -0.104519114
000180 f4 36 48 3e b4 e0 e9 3d e7 c3 43 3e b8 21 9c be
       0.19552213 0.11419812 0.191177 -0.30494475
000190 51 e2 ea bd a8 97 a3 3e 1a 19 cf 3d 27 87 a1 bd
       -0.11468948 0.31951642 0.101122096 -0.078871064
0001a0 e8 de 13 be 4c c9 e8 3d 02 46 a9 3e cc b9 91 be
       -0.144405 0.11366519 0.33061224 -0.28462064
0001b0 5a cf b5 be 0e 7a 8d 3d f7 6d 9b bd d2 47 9f 3e
       -0.3550976 0.06908046 -0.075893335 0.31109482
0001c0 a2 d6 90 bd c0 c9 ac 3b 84 e4 b1 be a5 7e b8 bd
       -0.07072188 0.005273074 -0.34744656 -0.090085305
0001d0 c7 45 a7 3c 36 5b 3d 3e 04 3a 02 3e fe 20 1a bd
       0.020419015 0.18491825 0.12717444 -0.03762912
0001e0 2a 65 e1 3e bf 7a c9 bc c0 aa ae 3d d3 e2 97 3e
       0.44022495 -0.024594663 0.08528662 0.2966524
0001f0 c0 05 93 3c 01 d7 7d 3e ef ac 7a bd 1d a5 8e be
       0.017947078 0.24789049 -0.06120008 -0.27860346
000200 43 d7 39 be cc 14 76 be bb 95 40 be dd 58 98 3e
       -0.18148522 -0.24031371 -0.18807118 0.29755297
000210 7f 5c 3f 3e 23 cb 5b 3d 94 96 93 3e 02 c9 6a be
       0.18687628 0.053660523 0.2882582 -0.22928241
000220 d3 a0 c7 3c d7 2b e0 3d c0 79 5c be 35 22 b8 bc
       0.02436868 0.10945862 -0.21530819 -0.022477249
000230 03 3c 8f 3e 28 4f 87 bc 30 98 82 3d c0 87 0e 3e
       0.27975473 -0.016517237 0.06376684 0.13918972
000240 75 b9 38 3e c4 f6 33 3e 2f 7e 9a bc 4b ed a6 be
       0.18039496 0.17574602 -0.018858997 -0.32602915
000250 3a 1b 4a be d3 16 79 3e 76 8a 9f be f9 4a d4 3d
       -0.19736949 0.24325113 -0.31160325 0.103658624
000260 14 bf 2f bc c0 48 c6 be 47 82 94 3e 03 78 8f be
       -0.010726709 -0.3872738 0.29005644 -0.2802125
000270 7b bf a8 be 51 f4 7b be 35 bf f2 bd d4 94 a3 bd
       -0.32958588 -0.24604918 -0.11852876 -0.07987371
000280 00 43 87 be cf 10 5b be f4 25 d6 bd 9f 4a aa bd
       -0.26418304 -0.2139313 -0.10456458 -0.08315014
000290 3c 20 76 3d 4e 8b 57 be 84 d5 e2 3d ac cc 99 be
       0.060089335 -0.21049234 0.11075881 -0.30038965
0002a0 df 89 94 3d 3c 3a a4 bd 14 15 82 3c 62 cf 07 3e
       0.07252859 -0.0801892 0.015879191 0.13262704
0002b0 46 6a 82 3e a5 07 1b 3e 17 e4 58 be 8b 29 87 be
       0.25471705 0.15139635 -0.2118076 -0.26398882
0002c0 ef 55 ab 3e f0 14 5e 3d 73 d6 c6 3d 3b 06 90 be
       0.33464 0.054219186 0.09708872 -0.28129753
0002d0 5f 2d 89 be de 2b 9f 3d 05 ba aa 3d b8 53 16 3e
       -0.26792428 0.07772039 0.08336262 0.14680374
0002e0 01 d0 da bb d0 ac 5c be 9f 69 a5 3e d5 36 11 3c
       -0.006677628 -0.21550298 0.32307145 0.008863171
0002f0 cc 7e 06 3e 4c 08 04 bc 24 21 61 3c 4e 66 e1 bd
       0.13134307 -0.008058619 0.0137408115 -0.11005841
000300 cf ca 27 3d 3a ca 97 be 3c fb a8 be 42 ef b9 be
       0.040964898 -0.29646474 -0.33004177 -0.36315352
000310 47 c5 76 be 8b 66 1a be 1b fc 78 be 05 bb d6 bd
       -0.24098693 -0.1507818 -0.2431492 -0.1048489
000320 5c c1 81 3e 2b c1 29 3e 84 9c 83 3e 6d 5e 5e 3e
       0.25342834 0.16577594 0.2570535 0.21715708
000330 62 0d b0 be b0 26 62 3e 40 28 c7 bd 59 30 10 be
       -0.3438521 0.2208507 -0.09724474 -0.14080943
000340 ff dc 2c 3d e6 41 fa bc 83 b9 95 be 73 7f 1c be
       0.042202946 -0.030549001 -0.29243097 -0.15282993
000350 eb 8e 7b be 2c c3 35 be 28 ff 60 be 58 61 cd bd
       -0.24566238 -0.17750233 -0.21972334 -0.100283325
000360 a2 97 4b 3e 64 65 ad be 27 eb 80 3e c2 63 0f bd
       0.19882062 -0.33866417 0.25179407 -0.035007246
000370 b1 ae de bd d5 47 30 3e 4d 93 29 3e af f8 e1 bd
       -0.108731635 0.17214902 0.16560097 -0.11033761
000380 d4 53 a5 bc 88 de 00 3c dc 59 c8 3e 1f 69 93 be
       -0.020181574 0.007865556 0.39131057 -0.2879114
000390 f1 74 3e bd 04 43 58 3e 8b d9 bd bb 73 02 83 be
       -0.046498243 0.21119314 -0.0057937554 -0.25587806
0003a0 a8 99 99 3d 40 6a a4 be 6c 53 15 3e c8 df 90 be
       0.07500011 -0.32112312 0.14582604 -0.28295732
0003b0 3e c1 86 bd 98 e7 6f 3e 51 e1 34 3e b8 47 9c 3e
       -0.06579827 0.2342819 0.17664076 0.30523467
0003c0 10 4b 84 3e 84 ac 3c 3e 6d c9 94 bd 78 6b 4b 3d
       0.25838518 0.18425184 -0.072649814 0.049663037
0003d0 8e 1f 5a be d0 02 28 3e 31 27 3b bd 8f af 6b 3e
       -0.213011 0.16407323 -0.045691673 0.23016189
0003e0 de 66 07 be 07 3a 99 be 58 37 4d 3e ed 7d ca bd
       -0.13222834 -0.29927084 0.20040643 -0.098873
0003f0 d5 d1 98 bb 4b c1 a5 be e4 33 ed 3d fa c2 59 bc
       -0.004663686 -0.32374033 0.11582163 -0.013291115

model.8.bias f4 [16]
000000 23 36 50 3d 61 54 38 be 85 78 3b be 76 de 6f be
       0.05083288 -0.18000938 -0.18307693 -0.23424706
000010 a0 85 6a be a1 99 ad 3b 81 ed fa 3d c9 59 c9 3d
       -0.22902536 0.005297855 0.122523315 0.09831578
000020 69 0f 38 be 05 85 f6 bd 57 39 7e be c4 df 9e bd
       -0.17974629 -0.1203709 -0.24826561 -0.07757524
000030 90 6e 83 be 5c c1 f7 bc 8f 60 ff 3d 49 f2 a3 bc
       -0.2567029 -0.030243568 0.12469589 -0.020012992

model.10.weight f4 [16, 16]
000000 09 52 e3 bd 63 68 49 be c4 76 b1 be 64 5b 52 3e
       -0.11099631 -0.19668727 -0.34660923 0.20542675
000010 c2 ed 33 be 20 df 42 be 33 83 49 3e 1d ad dd 3e
       -0.17571166 -0.19030428 0.19678955 0.43296137
000020 6b f8 50 3e 6b 18 6c 3e 02 20 ea bd 51 bb a0 3c
       0.20407264 0.2305619 -0.11431886 0.01962057
000030 fd 00 89 3e 41 9b b3 3d d5 6b 52 be e1 1c 3f be
       0.26758566 0.08769847 -0.20548947 -0.1866336
000040 e5 29 0f be bb 72 42 3e 7a af 35 3e d0 1c f4 3c
       -0.13980825 0.18989079 0.1774272 0.029798895
000050 7f 5c a3 3e ce 3f 81 3e 7f e8 11 3e d4 9b dc be
       0.31906506 0.25243992 0.14248846 -0.43087637
000060 d4 99 9f bb 39 b1 f0 bd 25 08 50 3e 39 ed 72 3e
       -0.0048706327 -0.117525525 0.20315607 0.23723306
000070 d5 ed 54 be 97 21 9b be 58 56 3d 3e c7 0d 93 be
       -0.2079385 -0.30299065 0.18489969 -0.2872145
000080 d8 b4 58 3e 73 bb 4f 3d 95 ea 1a 3e a4 91 89 3c
       0.21162736 0.050715875 0.15128548 0.01679308
000090 63 3d 40 3d 8e 03 19 bd 1b fa a1 be f6 03 68 3e
       0.046933543 -0.037356906 -0.31636128 0.22657761
0000a0 e9 b2 6a 3e 0a 51 87 be d3 39 86 bc c6 8b d4 bd
       0.22919811 -0.26429015 -0.016384995 -0.10378222
0000b0 c8 c7 d7 bd 32 e2 cd be 4e 97 2f be a8 74 b5 be
       -0.10536152 -0.40211636 -0.17147562 -0.35440564
0000c0 88 fa 76 3d 28 80 27 3d 1f 48 4e be b9 9e 88 3b
       0.06029752 0.040893704 -0.201447 0.004169312
0000d0 53 35 1f bd 01 1e 4c 3e f8 77 1a 3e 00 d0 58 3d
       -0.038869213 0.1993332 0.15084827 0.05293274
0000e0 39 d4 56 be c8 46 06 3e c3 82 30 be eb 6e 26 3c
       -0.20979394 0.13112938 -0.17237382 0.010158281
0000f0 3d 1e 26 3d 53 60 8d bc 66 f9 5d be 1e f8 04 3e
       0.04055618 -0.017257845 -0.21677169 0.12985274
000100 a4 4a 37 be d6 e7 de bd 43 2e 8f bd 26 b0 30 3e
       -0.17899567 -0.10884063 -0.069912456 0.17254695
000110 26 fe 9a be 7d 40 f1 3c 31 4a 35 be 83 29 2f 3e
       -0.30272025 0.029449696 -0.17704083 0.17105679
000120 d7 51 ff 3d 1b fc 64 3e cc a5 11 3d a8 db 98 3d
       0.124667816 0.22361796 0.035558507 0.07463771
000130 67 06 45 3e d4 50 0c be 45 6c 58 3d ac 7c bd 3d
       0.19240724 -0.13702708 0.05283763 0.09252295
000140 c7 64 8d 3c a3 49 e0 3d 59 f1 b7 3d 35 29 96 3e
       0.017259968 0.10951545 0.0898158 0.29328313
000150 42 c8 86 bd ee 71 00 3e 67 41 9a be 0d cf 29 be
       -0.06581165 0.1254346 -0.30128023 -0.1658289
000160 91 44 18 3e f8 90 90 be e4 a0 24 3e a0 93 8b bd
       0.14869906 -0.28235602 0.16077 -0.068152666
000170 f0 67 72 3e 11 ea 47 be d8 5b 75 be 1e d4 ae be
       0.23672462 -0.19522883 -0.23960817 -0.34146208
000180 8f d2 4e 3d 74 c4 e0 3d c8 53 5a 3e cb 49 31 3e
       0.050493773 0.109749705 0.21321023 0.17313306
000190 2e 8a ae 3e b9 f8 46 3e 67 47 10 3e 01 43 3a be
       0.34089798 0.19430818 0.14089738 -0.18189622
0001a0 45 6a af bc fa 04 90 be e6 6c 31 be 6e 8c 1d be
       -0.021412978 -0.28128797 -0.17326698 -0.15385601
0001b0 16 47 66 be 9c 43 f9 bd 53 08 44 be 5f b2 d1 3d
       -0.22488055 -0.121710986 -0.191438 0.102391
0001c0 f7 9c cb 3d cc 1e 4d 3e 16 2e 8d 3d 2a 3f 40 be
       0.09942048 0.2003128 0.06893556 -0.18774095
0001d0 6d 7b 97 3e 64 68 86 3e 3c e5 5f be e5 9e 72 be
       0.29586354 0.2625152 -0.2186479 -0.23693426
0001e0 4a 6e ac 3d 11 54 8e bd 14 93 25 bd 2f b3 14 3e
       0.084194735 -0.06949628 -0.040423468 0.14521478
0001f0 e4 4f dc bd 48 8c 66 be d3 30 d7 3c 11 b1 64 be
       -0.107574254 -0.2251445 0.026268398 -0.2233317
000200 d0 ba 91 be 72 04 98 3d 94 ab 4d be 8e ed b2 3d
       -0.2846284 0.07422723 -0.20084983 0.08736716
000210 f3 69 35 3e 19 7e 7c be a5 4a 63 3d bd 68 87 3d
       0.17716198 -0.24657477 0.05549111 0.06611774
000220 28 c9 0d be af 34 9e 3e 66 ce 1b be 4e ab 3c 3e
       -0.13846266 0.3089957 -0.15215454 0.18424723
000230 97 ec 6b ba 69 8e 8f 3e 6b ea 71 3e b2 c2 bc bd
       -0.0008999793 0.28038338 0.2362458 -0.09216823
000240 80 9b 18 3e b6 f0 a3 bb c8 06 1b 3e f3 8f c0 3d
       0.14903069 -0.00500306 0.15139306 0.09402456
000250 26 d2 0d 3d 20 50 7a be ab 74 f8 bd e5 27 ef 3d
       0.03462424 -0.24444628 -0.12131628 0.11677531
000260 31 9e 9e 3d 94 26 87 3e 0b c5 7e bd d0 93 ab 3d
       0.07745016 0.2639662 -0.062199634 0.08377802
000270 f3 0d 75 3e 71 fd 4c 3d b6 5b 98 bd a7 d1 e8 bc
       0.23931102 0.050046388 -0.074393675 -0.028420283
000280 58 f1 54 3e 0c 93 ac bd 94 db 95 3e 4e a4 a8 bd
       0.2079519 -0.084264845 0.29269087 -0.08234464
000290 a4 3d 39 3e 3a 59 57 3e da c0 a6 3d 28 a6 62 be
       0.1808992 0.21030131 0.08142252 -0.22133696
0002a0 aa d7 c9 bd d2 78 14 be b4 95 42 bd c8 80 2c bd
       -0.09855588 -0.14499214 -0.04750605 -0.042115003
0002b0 c0 5f 9d be f7 c8 e7 3c 90 2d a3 bc 26 6a 75 be
       -0.30737114 0.02829407 -0.019919187 -0.23966274
0002c0 5b 64 48 3e 1d 4c 93 3e 91 ba a6 bc ec 58 cc 3d
       0.19569533 0.28769007 -0.020352634 0.09977898
0002d0 05 02 89 bd e8 90 39 be 8e 52 14 be 99 4b d7 bd
       -0.06689838 -0.18121684 -0.14484617 -0.10512466
0002e0 1c 38 34 3e 08 a4 c3 bc e2 0a e5 3d a9 ec 8d be
       0.17599529 -0.023881927 0.11183716 -0.2771962
0002f0 2f 3b 43 3e af 33 41 be ec c2 58 be 2d 09 b8 be
       0.19065545 -0.18867372 -0.21168107 -0.359445
000300 4c ea 3d 3e 3c f6 28 3e 4b c8 a3 3d df 4b 0a 3e
       0.18546408 0.16500181 0.07997187 0.13505505
000310 f8 a4 80 be c1 e8 33 3e e4 57 4b be a7 cd 82 bd
       -0.2512586 0.17569257 -0.19857746 -0.06386881
000320 f9 33 85 bd 02 ef bb bd ef 64 31 be 43 f6 62 be
       -0.065040536 -0.091764465 -0.1732366 -0.22164254
000330 93 ac 88 bd d3 26 53 be 93 79 50 be a6 4f 0a be
       -0.06673541 -0.20620279 -0.20358877 -0.13506946
000340 3f b9 4b bd ae 7c 02 be d9 58 1a be 0c 72 12 be
       -0.04973721 -0.12742874 -0.15072955 -0.14301318
000350 fc ab 2e 3d d5 58 37 3e 4f 69 f4 3d f9 51 a3 3e
       0.042644486 0.1790498 0.119341485 0.31898478
000360 26 28 33 be 0c a9 17 3e 91 d4 b0 3d d9 55 7e 3e
       -0.17495784 0.1481058 0.08634294 0.24837436
000370 59 7c 96 3c e3 bc 11 3e 3c 26 10 bd c5 31 78 bc
       0.01836984 0.14232211 -0.035192713 -0.015148585
000380 e7 52 26 3d 9c 7b 63 bd 08 00 70 3e cb ca f4 3b
       0.040606406 -0.055537805 0.23437512 0.007470464
000390 d7 2e 37 bd 95 c4 41 3e 0d 03 ba 3d a7 5e a4 3c
       -0.044722404 0.18922646 0.09082613 0.020064665
0003a0 12 e5 20 bd 5e a8 f2 3c 3c 21 e0 bd 6c e2 3e be
       -0.03928096 0.0296213 -0.10943839 -0.1864106
0003b0 cd cf 02 be a7 79 8c be fe 4c 40 3e a0 a9 0a 3d
       -0.12774582 -0.27436563 0.1877937 0.033853173
0003c0 cb 95 91 3e 37 f7 f6 3d d4 72 3e be 56 bb 10 3d
       0.28434595 0.12058871 -0.18598491 0.035334907
0003d0 b6 31 63 3e 51 da c3 3d 9a 02 ad bd d6 6c 6f 3c
       0.22186932 0.09563125 -0.08447762 0.014613351
0003e0 7d 17 9a 3d 03 95 03 3e c1 32 8c 3e 7d 04 03 be
       0.07524011 0.12849812 0.27382472 -0.12794681
0003f0 90 c5 dd 3d a7 85 c5 bd 49 f1 16 3d 78 93 77 be
       0.10828698 -0.09644633 0.0368512 -0.24177349

model.10.bias f4 [16]
000000 2f aa 32 3d f3 0f 0c 3e 9a 62 fe bd 09 d2 59 3d
       0.04361933 0.13677959 -0.124211505 0.05317882
000010 28 48 2d 3e 78 0f 0d bd d1 20 5b 3e 01 cf a8 bd
       0.16922057 -0.03443858 0.21399237 -0.08242608
000020 9c 14 39 3d 1f e2 2b be f2 7f 15 bd 44 48 e7 bd
       0.04518567 -0.16785477 -0.03649897 -0.112930804
000030 ca 73 89 bd bd 3b 85 3c 57 a2 59 3e bc 88 52 be
       -0.06711538 0.016263837 0.21253334 -0.20559973

model.12.weight f4 [16, 16]
000000 cb f2 d3 3d ad 2d 22 bc 2a 14 0c 3e 8e 75 2b 3e
       0.103490435 -0.009898585 0.13679567 0.16744062
000010 72 86 34 be e1 d6 b1 3b 67 05 ed 3d 89 4e 62 bd
       -0.17629412 0.005427227 0.11573296 -0.05525068
000020 1b 78 cb bc 54 e7 4a be 0d da 19 bd fc 47 a2 bd
       -0.024837544 -0.19814807 -0.037561465 -0.07923886
000030 16 e4 34 3e 45 68 19 3e 84 25 06 3e 43 17 02 be
       0.17665133 0.14981182 0.13100249 -0.12704186
000040 0e bc 94 be 14 f0 a9 3e da 9f 24 bd fd e1 90 3d
       -0.29049724 0.33190978 -0.04019151 0.07074354
000050 5b 74 65 be 72 ad 11 3e 10 ac b0 3c f8 13 30 3e
       -0.22407667 0.1422632 0.02156642 0.17195117
000060 1b a6 73 be 64 6e 0a be c1 2c a6 3e aa a7 f5 3d
       -0.23793833 -0.13518673 0.3245602 0.1199487
000070 e2 28 12 3e 0b ad 2e 3e 26 32 47 3e 29 2d 75 3d
       0.14273408 0.17058198 0.19452724 0.05985752
000080 3c 6c 2c 3e b6 d5 7e 3e 90 6d 71 3e 66 3f af 3d
       0.16838163 0.24886212 0.23576951 0.08557014
000090 cb a7 7a be 63 35 9d 3e 7c f4 6b 3c 63 41 0e bc
       -0.2447807 0.30704793 0.014401551 -0.008682582
0000a0 ce 84 58 be 2d 77 7b 3e a4 a8 8f 3e b3 db 74 3d
       -0.21144411 0.2455718 0.2805835 0.059779834
0000b0 18 81 08 3e be 53 3b bd 98 d2 5d 3d 42 52 b8 bb
       0.13330495 -0.04573416 0.054155916 -0.0056250403
0000c0 c9 e8 1e 3e 5f 44 7c be 1e 0b 55 be c1 ff 24 bd
       0.15518488 -0.24635457 -0.20805022 -0.04028297
0000d0 b5 78 8d 3d f8 93 27 3e 98 91 00 3d 86 4e 84 be
       0.06907789 0.1636504 0.03138885 -0.2584116
0000e0 68 75 f4 3d 99 14 95 3d a0 2d 88 bd 04 9e 92 bd
       0.11936456 0.07279319 -0.06649327 -0.07159045
0000f0 f1 1c e7 3d 34 b1 a1 3e 87 e8 d1 3d fb 31 3c 3b
       0.11284817 0.31580508 0.10249429 0.0028716314
000100 be 3c 64 3e 88 b8 dd be 24 5f 0e be 26 1f ec 3d
       0.22288796 -0.4330485 -0.13903481 0.115293786
000110 36 08 81 3e 66 3e 36 bd d2 e2 dd bc aa 24 d5 bd
       0.25201577 -0.0444931 -0.027085695 -0.10407384
000120 3e d7 2d 3e df eb 0a be fb b3 1a 3d 99 be 57 bd
       0.1697664 -0.1356654 0.0377693 -0.052672002
000130 41 0a a3 3d 04 3e 34 3e 5f ba 1a bd 03 1b 37 be
       0.0796094 0.17601782 -0.037775394 -0.17881398
000140 e1 2d aa bb e3 39 a1 be 1f d5 73 be eb 6e e2 3d
       -0.0051934575 -0.31489477 -0.23811768 0.11056312
000150 6a df 8d bd 1d c7 76 be 3f d6 29 be e5 eb 42 3e
       -0.069273785 -0.24099393 -0.16585635 0.19035299
000160 a5 14 81 3e 9c dd 08 3e c4 db b3 bd 85 11 16 bd
       0.25211063 0.13365787 -0.08782151 -0.0366378
000170 d8 1c 7f be 22 1a 8d 3e 37 6b 3b 3d bd e3 08 be
       -0.24913347 0.27559 0.045756545 -0.13368125
000180 c6 47 b2 3e 39 ea ce be fc 89 fb 3d f5 1a 8b 3e
       0.34820384 -0.40413073 0.12282178 0.27169004
000190 c7 86 15 be cb b6 42 3e 3c d4 3d be 21 aa d4 bd
       -0.14602195 0.19015042 -0.18537992 -0.10384012
0001a0 79 b2 ed bd 36 5b 05 be 09 b3 27 be 5e 79 fd 3d
       -0.116063066 -0.13023075 -0.1637689 0.123766646
0001b0 25 ad 3a bc c9 4d 4f 3e bb 28 01 3d 7a 56 3d 3c
       -0.01139382 0.20244516 0.031532984 0.011556262
0001c0 42 50 d5 bd 2b 73 45 3e ba 79 88 3e 89 e7 f8 3c
       -0.104156986 0.19282214 0.2665537 0.030383842
0001d0 29 13 7f be e3 15 81 3e 66 a5 9c 3e ea 65 41 3e
       -0.24909653 0.2521201 0.3059494 0.18886533
0001e0 be f8 d1 bd 3f 02 f0 3c 6d 5f 8f 3e 2c 79 68 3e
       -0.10252522 0.029297946 0.28002492 0.22702473
0001f0 36 51 da 3c 57 4f 90 bd 2d 88 11 3e 11 30 ed 3c
       0.026650053 -0.07046383 0.14212103 0.028953584
000200 a4 22 6b 3e 82 b4 bf bd 71 08 25 be d9 40 0c bd
       0.22962433 -0.09360601 -0.16116501 -0.03424153
000210 53 09 49 3d 1a 12 11 bd ac a8 3a be 1e 54 d9 bd
       0.049081158 -0.035417654 -0.18228406 -0.10611747
000220 c8 a3 89 3e e3 13 1f 3d 97 9e a0 bd 70 2e 82 be
       0.26882768 0.038837325 -0.078427486 -0.25426054
000230 91 18 0f be 01 de 0c 3e ab 8e 53 3e f8 bd 4f bd
       -0.13974215 0.13756563 0.20659892 -0.050718278
000240 50 5c 6e bd a9 04 d8 3e 2a ff 07 3d a8 c4 86 bd
       -0.058193505 0.42191055 0.033202328 -0.06580478
000250 fc df bf bd e5 00 91 3e 24 56 99 bd ae 65 fc bd
       -0.093688935 0.28320995 -0.07487133 -0.12324081
000260 2d 84 96 3d a2 c1 29 3d 6c ab d2 bc 07 eb ac 3d
       0.07349429 0.04144443 -0.025716506 0.084432654
000270 4c a1 56 bd 8b de ab be a4 1a 0e 3e 1c ed 4a 3c
       -0.05239992 -0.33568224 0.1387735 0.012385633
000280 3e 09 bd be 67 f4 c1 3e 9c 4e 17 bd 69 84 8c bd
       -0.36921114 0.37881777 -0.036940202 -0.06861193
000290 8c 52 0c be 51 2c 95 bd 2b 8b 0e 3d 3b 6f 18 be
       -0.13703364 -0.07283843 0.03480069 -0.14886181
0002a0 37 cf e0 bd 06 b1 e3 3d 2e c2 d3 3e ec 7b a9 3b
       -0.10977023 0.11117749 0.41359085 0.0051722433
0002b0 e6 d1 77 bd 12 d4 7b be c2 57 ee bd 7d 87 70 3d
       -0.06050291 -0.24592617 -0.11637832 0.05872296
0002c0 4c 04 22 bd e8 40 92 be ad be a6 3d 66 84 4d be
       -0.03955488 -0.28565145 0.08141837 -0.20070037
0002d0 7f af 5c 3e 01 02 49 bd 63 3a 90 be f7 e8 76 be
       0.21551321 -0.049074177 -0.28169546 -0.24112307
0002e0 ed 37 95 3e 70 5e 61 3e 15 9d c9 3d 9f f8 35 be
       0.2914423 0.22008681 0.09844414 -0.17770623
0002f0 a3 d1 f3 bd 08 50 a5 3d 8e 6e 09 be 77 2b 31 be
       -0.119052194 0.080719054 -0.1342108 -0.17301737
000300 49 39 43 3c e5 80 75 3e e6 34 15 3e 96 ea bd 3d
       0.011915513 0.2397495 0.1457096 0.09273259
000310 1c ce ce bd 0f 20 90 3e 87 34 d0 bd 7a 00 aa 3d
       -0.10097906 0.2814946 -0.10166269 0.08300872
000320 bd 32 6c 3d 6b 16 20 be b7 a0 08 3e a1 6a 88 3e
       0.057665575 -0.15633552 0.13342558 0.2664385
000330 3a 6f 35 bd 7c 04 0e be 05 ea dc 3d 12 39 4a 3e
       -0.044295527 -0.13868898 0.10786823 0.19748333
000340 34 cf a6 be a1 11 64 3e 08 ab 48 be c4 4f 85 be
       -0.32579958 0.2227235 -0.19596493 -0.2603742
000350 2c 0e 87 be 47 e9 2b 3e 1e c0 be 3e 76 c9 81 bd
       -0.26378 0.16788207 0.3725595 -0.06337254
000360 f1 b1 11 3d 32 54 b9 3d 79 55 b3 3e 2e e8 7a 3e
       0.03557009 0.09049262 0.35026148 0.24502632
000370 d3 a2 8a 3c 62 14 56 be 23 22 80 3d 58 23 76 3d
       0.016923344 -0.20906213 0.06256511 0.0600923
000380 d4 1c db bd 73 de e6 3e aa 64 df bd c0 33 87 3b
       -0.10698858 0.4509159 -0.10907872 0.004126042
000390 cd 39 9d be 0a 27 8b 3e 5f dc e3 3d 25 ef 37 3e
       -0.3070816 0.27178222 0.11126017 0.1796232
0003a0 bc 2a 0c 3d 2d 9f 92 3d f6 10 eb 3d f3 fd 27 3e
       0.034220442 0.071592666 0.114778444 0.16405468
0003b0 91 fd 36 3e 28 41 00 bd 50 52 38 3e 2f ea 23 be
       0.17870165 -0.031312138 0.1800015 -0.16007303
0003c0 f0 c0 89 3e 69 51 96 be 42 92 9e 3d 28 25 ed bb
       0.26905012 -0.29358986 0.0774274 -0.0072370954
0003d0 5f c1 95 bb 30 a5 86 be fd f7 b6 be c3 7c aa 3c
       -0.004570171 -0.26297903 -0.35736075 0.020811444
0003e0 36 82 90 bd 25 e0 63 3e 82 cf f5 bd df e1 75 bd
       -0.07056086 0.22253473 -0.120024696 -0.06002986
0003f0 2f 59 37 3e 16 da 53 3e d5 24 da bd 03 bf 1e be
       0.17905115 0.20688662 -0.106515564 -0.15502553

model.12.bias f4 [16]
000000 f3 94 07 be 8e dd 07 3d 9d 34 65 be d1 74 4c 3d
       -0.13240413 0.033170275 -0.22383352 0.049916092
000010 44 f4 bc 3d b0 7f 9e 3d 2d 19 67 3e 91 b6 b6 bd
       0.092262775 0.07739198 0.22568198 -0.089215405
000020 8b a5 9c bd 59 66 47 be de d7 e3 bd 1a 11 5b 3e
       -0.07648762 -0.19472636 -0.11125158 0.21393242
000030 4a 2a 59 3e 6e a7 ca 3d 8f 49 a5 3d 97 04 42 3e
       0.21207538 0.09895216 0.08070671 0.18947063

model.14.weight f4 [1, 16]
000000 6f 23 dc ba 61 1e ad 3e e5 dd f2 3d 4b ec ab be
       -0.0016795228 0.3381224 0.11858729 -0.33578715
000010 a2 ca da bd aa d3 8a be b5 43 5d be 19 bb 3e 3e
       -0.106831804 -0.27114612 -0.2160786 0.1862606
000020 56 09 5d be 0a 9b 36 3e 8d a0 06 3e 0c 0d 2e be
       -0.21585593 0.1783258 0.13147183 -0.16997164
000030 f3 b5 98 3e 4d 11 80 3e 3a d6 70 3e 65 de 9b be
       0.29826316 0.250132 0.23519221 -0.3044311
