NeuralGalerkin/models/autosave/Gen_2_Loss_0.09068.pt (torch, 118859 bytes, 15 tensors)

model.0.weight f4 [30, 2]
0	0x3f31e74d	0.6949356
1	0x3f347876	0.7049631
2	0x3f32844a	0.6973311
3	0xbe2700e4	-0.16308933
4	0x3defcbb2	0.11708774
5	0xbf2d474b	-0.6768691
6	0xbf2c77b8	-0.67370176
7	0xbe2ef22a	-0.17084566
8	0xbda58428	-0.080818474
9	0xbeec4a11	-0.46150258
10	0xbbe5efcf	-0.007017113
11	0x3ec42c8f	0.38315246
12	0xbf078ef0	-0.5295248
13	0x3db8291d	0.08992217
14	0x3eeb82e8	0.4599831
15	0x3e959a50	0.29219294
16	0xbf078308	-0.5293431
17	0xbc42c153	-0.011886912
18	0xbf2b90c2	-0.6701776
19	0xbf1b9e41	-0.6078835
20	0xbeb768f4	-0.3582226
21	0xbef287c0	-0.47369194
22	0x3ed08fcf	0.40734717
23	0x3f017228	0.50564814
24	0x3e0c570e	0.13705084
25	0xbe860651	-0.26176694
26	0x3ee9d2c7	0.45668623
27	0xbea8d35b	-0.3297375
28	0x3eb8b57a	0.36075956
29	0x3f568e8a	0.8381125
30	0x3f0e32d3	0.555463
31	0x3f315845	0.69275314
32	0x3eb2818a	0.34864455
33	0x3f5c227e	0.8599013
34	0xbe9c0ccf	-0.30478522
35	0x3ed5ddcb	0.41770777
36	0xbec35cc7	-0.3815672
37	0xbe8222e5	-0.25417247
38	0x3e8db94e	0.2768044
39	0xbf5693d8	-0.8381934
40	0x3f33babc	0.7020681
41	0xbe885be0	-0.26632595
42	0x3bc82d71	0.0061089327
43	0x3f3c4377	0.73540443
44	0x3f14ae5a	0.5807854
45	0xbe2605b6	-0.16213116
46	0x3eaa9fad	0.33324948
47	0x3f41b5ea	0.75668204
48	0x3f20263d	0.62558347
49	0xbe0473ff	-0.12934874
50	0x3e94cb58	0.2906139
51	0x3ebca115	0.36841646
52	0xbdfb623b	-0.12274595
53	0x3f02417e	0.50881183
54	0xbe94a154	-0.29029334
55	0x3f067b9e	0.52532375
56	0x3e21ebf2	0.15812662
57	0x3e6a3ca6	0.22874698
58	0x3e2fe5e3	0.17177539
59	0x3edc5540	0.4303379

model.0.bias f4 [30]
0	0x3da4d299	0.08047981
1	0x3e86739e	0.26260084
2	0xbdc5efa5	-0.09664849
3	0x3dbe116b	0.09280666
4	0xbf191f62	-0.5981351
5	0xbf14c828	-0.58117914
6	0x3ef2c4f8	0.474159
7	0x3ecb52f6	0.39711732
8	0x3f0386af	0.51377386
9	0xbec73f08	-0.38915277
10	0x3e83719a	0.2567261
11	0x3f0edb69	0.55803543
12	0x3ef3e4f8	0.47635627
13	0x3e39309f	0.18084954
14	0xbe9e2b8c	-0.308926
15	0x3d2629ce	0.04056721
16	0x3e2b9802	0.16757205
17	0x3efe4a7d	0.49666205
18	0x3d45c983	0.04828788
19	0x3e85a57f	0.26102826
20	0x3e8dfe15	0.27732912
21	0x3e790a04	0.24320227
22	0xbf0c2709	-0.5474706
23	0xbed91dd9	-0.42405584
24	0x3f36fce0	0.71479607
25	0xbeaa7022	-0.33288676
26	0x3edb7a4f	0.42866752
27	0xbf02b286	-0.51053655
28	0xbf382f9a	-0.71947634
29	0x3e3076ff	0.17232893

model.2.weight f4 [30, 30]
0	0xbde5beea	-0.112180546
1	0xbd38e850	-0.045143425
2	0xbd8ae28c	-0.06781492
3	0xbe8b8aa2	-0.27254206
4	0x3e46e779	0.19424237
5	0xbda4c319	-0.080450244
6	0x3da607a7	0.08106928
7	0xbe031619	-0.12801398
8	0xbe5af826	-0.21383724
9	0xbdefb4aa	-0.11704381
10	0xbe76b7e3	-0.24093585
11	0xbd437e75	-0.04772802
12	0xbe451693	-0.19246893
13	0xbe276e02	-0.16350558
14	0x3ea93adf	0.33052728
15	0x3df2c9ad	0.11854873
16	0x3c1b6c47	0.009486265
17	0x3d39f535	0.045399863
18	0xbdce0e4a	-0.10061319
19	0xbe239455	-0.15974553
20	0xbe7a1dd5	-0.24425443
21	0x3c9071be	0.017632362
22	0x3cb02f43	0.021506911
23	0x3e6d8c85	0.23198135
24	0xbe3209e5	-0.17386587
25	0x3ce23bd3	0.027616417
26	0xbdfd94e3	-0.123819135
27	0x3cc6a5b9	0.024248945
28	0xbc1d51ff	-0.009602069
29	0x3df3f5d1	0.1191212
30	0xbc8209ae	-0.015873756
31	0xbdb2a53e	-0.08722924
32	0x3cc7c172	0.024384234
33	0x3e164e47	0.14678298
34	0xbd9b230d	-0.07575045
35	0xbe248505	-0.16066368
36	0xbd8b9a20	-0.068165064
37	0x3de80b62	0.11330296
38	0xbdcd1824	-0.1001437
39	0x3b5b03c7	0.0033419
40	0x3e3d8e59	0.18511333
41	0x3e08829c	0.13331074
42	0x3dc442ce	0.095830545
43	0x3d79be23	0.060972344
44	0xbea73ae2	-0.32662112
45	0xbe3af8b4	-0.18258935
46	0xbde1c1a5	-0.11023263
47	0xbdc3521a	-0.09537144
48	0x3e86e517	0.26346657
49	0xbc4f5bd7	-0.012656174
50	0x3e253dab	0.16136806
51	0xbc6b3076	-0.014354816
52	0x3e1f9d95	0.15587457
53	0xbdfa805b	-0.12231513
54	0x3d81f896	0.06346242
55	0xbe5bf9d5	-0.21482022
56	0xbda456ce	-0.08024369
57	0xbde01e01	-0.10943223
58	0xbe1ebee5	-0.15502508
59	0xbe3175aa	-0.17330042
60	0xbda234f1	-0.07920254
61	0xbdb89616	-0.090130016
62	0x3d876c7c	0.066124886
63	0x3e8f3683	0.27971277
64	0xbcb71072	-0.022346709
65	0x3d83d081	0.06436253
66	0x3e080a18	0.132851
67	0xbe20d837	-0.1570748
68	0x3d982189	0.07428271
69	0xbd64f0e3	-0.05589379
70	0x3df80928	0.121111214
71	0x3dc02dee	0.093837604
72	0xbdb1526f	-0.08658301
73	0x3dadaa7e	0.084797844
74	0xbd9f7d37	-0.07787555
75	0x3d936e0b	0.071987234
76	0xbdb689cf	-0.08913004
77	0xbe21c13c	-0.1579637
78	0xbdaff145	-0.085909404
79	0xbd6f2de5	-0.058393378
80	0x3e311d70	0.17296386
81	0x3d4ffe35	0.05077954
82	0x3e0e35a4	0.1388765
83	0xbe9fcf17	-0.31212685
84	0x3dd7f7be	0.105453
85	0xbe341c50	-0.17588925
86	0xbe015606	-0.12630472
87	0x3d9c4e28	0.076320946
88	0x3ddad6ae	0.10685478
89	0x3c83b97a	0.016079653
90	0xbe174d5a	-0.14775601
91	0xbd461d07	-0.048367526
92	0x3e05e974	0.13077337
93	0xbd9cca88	-0.07655817
94	0xbdfcf70f	-0.1235181
95	0xbd742b43	-0.05961157
96	0xbcb19a6e	-0.021680083
97	0xbd2e69e3	-0.04258145
98	0x3d16d297	0.036821928
99	0xbda8ff54	-0.08251825
100	0xbe902eb3	-0.2816063
101	0x3c879535	0.01655064
102	0xbdffeae2	-0.12495972
103	0xbe68d5bb	-0.22737782
104	0x3db52aea	0.08846076
105	0x3d0e788a	0.034782924
106	0x3d6f272f	0.058386978
107	0xbe12268e	-0.1427252
108	0x3d6e1e66	0.05813446
109	0xbe10a510	-0.14125466
110	0xbd14b51b	-0.036305528
111	0x3df5bcdd	0.119989134
112	0xbe0d2979	-0.13785352
113	0x3e89dbca	0.26925498
114	0xbe395891	-0.18100192
115	0x3e4aed3a	0.19817057
116	0xbe415025	-0.18878229
117	0x3e3b6ef2	0.18304041
118	0x3cf98e71	0.03046343
119	0x3c81be28	0.015837744
120	0xbcb15e6b	-0.021651467
121	0xbd27c251	-0.0409568
122	0xbdf3e24a	-0.119083956
123	0x3d30fac5	0.043207902
124	0x3df50924	0.11964634
125	0x3c51ed05	0.0128128575
126	0x3ddc805c	0.1076667
127	0x3c974a73	0.018468117
128	0xbbf3d04e	-0.0074406033
129	0xbe191f3d	-0.14953323
130	0x3eaca9f1	0.33723405
131	0xbe0c0a3f	-0.13675784
132	0xbd905b16	-0.07048623
133	0x3e8a183e	0.2697162
134	0xbe01097d	-0.12601276
135	0xbe2b3c7c	-0.16722292
136	0x3d86e089	0.065857954
137	0x3e167387	0.14692508
138	0xbd2bbe36	-0.041929446
139	0x3e57d84d	0.21078606
140	0x3e0a55c0	0.13509274
141	0x3e31d50e	0.1736643
142	0x3e0dca59	0.13846721
143	0xbe52eb66	-0.2059761
144	0x3e49880e	0.19680807
145	0xbe4a245a	-0.1974043
146	0x3b439e7f	0.002984911
147	0xbb293fdb	-0.0025825414
148	0x3d6f8e46	0.058485292
149	0xbe2ae3fd	-0.16688533
150	0x3d7c2f65	0.061568636
151	0x3e338922	0.17532781
152	0x3b4d794d	0.0031352818
153	0xbe63d4eb	-0.2224919
154	0x3df93c91	0.12169755
155	0xbe39fa5e	-0.18161914
156	0xbde5df38	-0.11224216
157	0x3d883d0d	0.066522695
158	0x3e36b1e4	0.17841297
159	0xbde7ae2c	-0.113125175
160	0xbe5af393	-0.21381979
161	0x3bcfcaf4	0.0063413326
162	0xbe1cb4d4	-0.15303355
163	0xbdf42863	-0.11921766
164	0x3ddd9584	0.108195335
165	0xbe128c27	-0.14311276
166	0x3e3c2210	0.18372369
167	0x3d98f07e	0.07467745
168	0xbdf26a60	-0.11836696
169	0xbdb5c405	-0.088752784
170	0xbd31abfd	-0.04337691
171	0x3de02980	0.109454155
172	0x3e1e2c4b	0.15446584
173	0x3e15a1c7	0.14612494
174	0xbdf056cb	-0.117353044
175	0x3e3bcb6e	0.18339321
176	0xbd887d56	-0.06664531
177	0xbdda41cb	-0.1065708
178	0xbe3d3a60	-0.184793
179	0xbde91d55	-0.11382548
180	0xbdcc1a45	-0.09965948
181	0x3c3f0501	0.011658908
182	0x3d5488f1	0.05188841
183	0x3d1ea0f6	0.038727723
184	0x3e1a4c81	0.15068246
185	0xbd85234e	-0.065008745
186	0xbcb304c8	-0.021852866
187	0xbd2f8ea8	-0.042860657
188	0xbd133f70	-0.03594917
189	0xbd225d5e	-0.039639823
190	0x3e75d997	0.24008785
191	0xbe473e73	-0.19457416
192	0xbcdb0a8e	-0.026738431
193	0x3c8ff02d	0.01757058
194	0xbd9baf6f	-0.07601821
195	0xbe555cc4	-0.20836169
196	0xbc8cb815	-0.01717762
197	0xbd3ff623	-0.046865594
198	0x3c880a79	0.016606556
199	0x3e68afa4	0.22723252
200	0x3e5c1716	0.21493182
201	0xbdc5ba31	-0.09654654
202	0x3ddbc6e3	0.10731294
203	0xbe5a0b46	-0.21293363
204	0xbda0b5d0	-0.07847178
205	0xbe15aca6	-0.14616641
206	0x3d140e11	0.036146227
207	0x3dd757f3	0.10514822
208	0x3ded1b75	0.11577503
209	0x3c724b4c	0.01478846
210	0xbd4d683e	-0.05014824
211	0xbe2bb442	-0.16767982
212	0xbe1399f6	-0.144142
213	0xbd33710b	-0.043808978
214	0xbd9129cf	-0.070880525
215	0x3e4dbc08	0.2009126
216	0x3d7bbf6a	0.061461844
217	0xbd970908	-0.073747694
218	0x3de7208d	0.112855054
219	0xbe558212	-0.20850399
220	0xbe3d5471	-0.18489243
221	0x3e06140a	0.13093582
222	0xbd1fd198	-0.039018244
223	0xbeb62168	-0.35572362
224	0x3ebeff1c	0.37304008
225	0x3e60f65a	0.21968976
226	0x3d6b621d	0.057466615
227	0x3e0e3f0f	0.13891242
228	0xbe0e1c4e	-0.13877985
229	0xbe22ca36	-0.1589745
230	0xbe1813c3	-0.14851288
231	0xbe0400df	-0.12890957
232	0x3e2e750b	0.17036836
233	0x3ea7c414	0.32766783
234	0x3e29482d	0.16531439
235	0x3d52cefc	0.051466927
236	0xbdb17423	-0.086647294
237	0xbd78c014	-0.060730055
238	0xbc4b5443	-0.012410226
239	0xbe04983b	-0.12948696
240	0xbd705ebd	-0.0586841
241	0x3e3ecf20	0.186337
242	0x3d803410	0.0625993
243	0x3d86a02e	0.065735206
244	0xbcf76af9	-0.030202376
245	0xbe25a2ef	-0.16175435
246	0xbbb4a9f0	-0.005513422
247	0x3e21f90a	0.15817657
248	0x3e38fc08	0.18064892
249	0x3e03034d	0.12794228
250	0x3e6de822	0.23233083
251	0x3d2e48af	0.042549785
252	0x3e49f796	0.19723353
253	0x3e44e157	0.19226585
254	0x3dab70d3	0.08371129
255	0x3de64029	0.11242706

model.2.bias f4 [30]
0	0xbe4fa8b7	-0.20279203
1	0x3e36cb14	0.17850906
2	0x3c7e3830	0.015516326
3	0xbe615af4	-0.22007352
4	0x3aa23ffb	0.0012378687
5	0x3ce24aa7	0.027623488
6	0x3e0513fa	0.12995902
7	0xbe31be24	-0.17357689
8	0x3e1fb5cf	0.15596698
9	0x3e0fa679	0.14028348
10	0x3d32c723	0.043646943
11	0xbcff03ae	-0.031129684
12	0xbe535d1f	-0.20640992
13	0xbdefeb3a	-0.11714788
14	0xbe33ef01	-0.17571642
15	0x3ddf0f32	0.1089157
16	0xbd70bd74	-0.058774427
17	0x3bc17261	0.0059035276
18	0x3de6586a	0.112473324
19	0xbd9b9678	-0.07597059
20	0xbdbb57dc	-0.09147617
21	0xbe100f00	-0.14068222
22	0xbcc2b48f	-0.023767738
23	0x3c853f81	0.016265633
24	0x3e375112	0.1790202
25	0x3d03fa28	0.03222099
26	0xbd43056e	-0.0476126
27	0xbe1330e0	-0.14374113
28	0xbd994328	-0.07483512
29	0x3ca5ce01	0.020239832

model.4.weight f4 [30, 30]
0	0x3e43b8f3	0.19113521
1	0xbe4a3513	-0.19746809
2	0x3d318f73	0.043349694
3	0x3e13c3b3	0.14430122
4	0xbd5cdc21	-0.05392087
5	0x3e119aef	0.14219259
6	0xbe408be5	-0.18803366
7	0x3e887c07	0.26657125
8	0xbe9208fc	-0.2852248
9	0x3e532730	0.20620418
10	0x3e57632c	0.21033925
11	0x3e328b75	0.17436011
12	0x3e9d9657	0.30778763
13	0xbc1b7c93	-0.00949015
14	0x3e5cc098	0.21557844
15	0xbdcdff04	-0.10058406
16	0x3dd587bd	0.10426281
17	0x3e58edc7	0.21184455
18	0xbde2513d	-0.11050651
19	0xbd6f69f5	-0.058450658
20	0xbd3a031a	-0.045413114
21	0xbcb4ad3f	-0.022055266
22	0xbe056395	-0.13026269
23	0xbd0dedce	-0.034650616
24	0xbe8af9f2	-0.27143818
25	0x3dbd50c0	0.092439175
26	0xbe0ddfd6	-0.13854918
27	0x3e6e73ea	0.23286405
28	0x3dcfbaca	0.10143049
29	0xbe09fec9	-0.13476099
30	0x3d9c2533	0.07624283
31	0xbdc1095f	-0.094256155
32	0x3ddf02bd	0.10889194
33	0x3d85fabf	0.06541967
34	0xbd2eb66f	-0.04265445
35	0xbe267e7e	-0.1625919
36	0xbdd3c338	-0.103399694
37	0xbe17518c	-0.14777201
38	0xbe0ada23	-0.13559775
39	0xbc9016cc	-0.017588995
40	0x3d8af131	0.06784285
41	0xbde8c5ca	-0.1136585
42	0x3e3022ad	0.17200728
43	0x3e231c2f	0.1592872
44	0xbe34d62d	-0.17659827
45	0x3d70f8ef	0.05883115
46	0x3d1fffa9	0.039062176
47	0xbdbbb769	-0.09165842
48	0xbe3bea9d	-0.18351217
49	0x3d9106af	0.07081353
50	0x3e5d344f	0.21601985
51	0x3e4b1858	0.19833505
52	0x3e484d03	0.19560628
53	0x3c92b10f	0.017906694
54	0xbddc168a	-0.107464865
55	0xbcb48ad2	-0.022038851
56	0xbd899a51	-0.06718887
57	0xbe795ed5	-0.24352582
58	0xbe841d20	-0.2580347
59	0xbdc2e15a	-0.09515639
60	0xbd30cd75	-0.04316469
61	0x3db76240	0.089542866
62	0xbdad8b55	-0.08473841
63	0xbd40be08	-0.047056228
64	0xbdb7f829	-0.0898288
65	0x3cc93c0a	0.024564762
66	0x3dc45411	0.09586347
67	0x3c0bd2d2	0.00853415
68	0x3bcd8e40	0.006273061
69	0xbb8ee8c0	-0.004361242
70	0xbd2c4d86	-0.04206612
71	0x3dd016d5	0.10160605
72	0xbc9d0c0c	-0.019170783
73	0x3e3a3cdc	0.18187279
74	0x3e05ad14	0.13054305
75	0x3cbda75f	0.023151098
76	0xbdef2f4f	-0.11678945
77	0x3ca0d71b	0.01963382
78	0x3e560a5f	0.20902394
79	0xbdcdaeab	-0.10043081
80	0xbdebe854	-0.115189224
81	0xbe09dd6c	-0.13463372
82	0x3da5e4ed	0.08100305
83	0xbcc9edcf	-0.024649529
84	0xbd2e71b7	-0.042588916
85	0x3e2edb2f	0.170758
86	0x3d5c5691	0.053793494
87	0xbc079534	-0.008275319
88	0x3ac8b8ef	0.0015313904
89	0x3dff2e34	0.124599844
90	0xbda15fad	-0.07879577
91	0x3db089fa	0.08620067
92	0x3dc2f691	0.09519685
93	0x3dc8a45b	0.09796973
94	0xbcb8ab33	-0.022542572
95	0xbd0e5a90	-0.034754336
96	0xbcf3e572	-0.029772494
97	0x3e5eddb0	0.21764255
98	0xbcce6ae4	-0.025197454
99	0x3caf56fa	0.021403778
100	0x3e2908ff	0.16507338
101	0xbdef10c8	-0.11673123
102	0xbe049a0d	-0.1294939
103	0xbdbb38c7	-0.09141689
104	0x3d17d2ac	0.037066147
105	0x3e541c9a	0.20714036
106	0xbb48a79e	-0.0030617486
107	0xbc5c7794	-0.013456244
108	0x3da2d560	0.07950854
109	0xbe55c8fb	-0.20877449
110	0xbe0d61b0	-0.13806796
111	0x3d7e61fa	0.062105156
112	0xbd3afac4	-0.045649305
113	0x3dda83d1	0.10669673
114	0x3d568077	0.052368607
115	0x3e8b8c96	0.27255696
116	0xbd571309	-0.052508388
117	0xbd886de4	-0.06661585
118	0x3e7c51cb	0.24640577
119	0xbc0647f8	-0.00819587
120	0x3e4daf54	0.20086414
121	0x3cc32676	0.02382205
122	0xbd68ae4b	-0.056806844
123	0x3d5b4b2a	0.05353848
124	0xbe4c839b	-0.19972079
125	0xbe44dbad	-0.19224425
126	0x3d9b53c8	0.075843394
127	0xbe54a583	-0.20766263
128	0x3dbc053c	0.09180686
129	0xbe8073b8	-0.25088286
130	0xbea43352	-0.32070404
131	0xbea47d61	-0.32126907
132	0x3defe77f	0.11714076
133	0xbdc6f7e5	-0.09715251
134	0xbe878dd5	-0.26475397
135	0xbe829e2f	-0.2551131
136	0xbb1456de	-0.0022634785
137	0x3c9e91f1	0.0193567
138	0xbe7b0e70	-0.24517226
139	0x3e60d79a	0.21957245
140	0x3ea97e37	0.33104107
141	0xbd16a852	-0.036781617
142	0xbc8f2118	-0.017471835
143	0xbe3b20e3	-0.18274264
144	0x3e03bfe0	0.12866163
145	0xbe2ed904	-0.17074972
146	0xbd247d42	-0.040158518
147	0xbd580ef6	-0.052748643
148	0xbea381d8	-0.31935
149	0x3da1482a	0.07875092
150	0xbe363e77	-0.17797266
151	0x3e730b29	0.23734726
152	0x3db47590	0.08811486
153	0xbe75199f	-0.23935555
154	0x3df78d02	0.12087442
155	0xbe267a77	-0.16257654
156	0x3e4ef578	0.20210826
157	0xbb918035	-0.0044403323
158	0xba892101	-0.0010462106
159	0xbdea5787	-0.11442476
160	0xbe7229cb	-0.23648755
161	0xbdde6729	-0.1085952
162	0xbd774485	-0.06036808
163	0x3e329d6e	0.17442867
164	0xbd9b3e6c	-0.075802654
165	0xbe07ccb4	-0.13261682
166	0x3cf0ead8	0.029408857
167	0xbdab3c4b	-0.08361109
168	0x3de2e9a1	0.110797174
169	0x3debe4dd	0.115182616
170	0xbd71a45b	-0.058994632
171	0xbd1426db	-0.036169868
172	0xbcb8d943	-0.022564536
173	0xbe244025	-0.16040094
174	0x3eaf8bd6	0.34286374
175	0xbe7a2bbf	-0.2443075
176	0x3d72de82	0.05929423
177	0xbe76ef16	-0.24114642
178	0x3b8540aa	0.0040665464
179	0x3d902243	0.07037785
180	0x3cbe23f1	0.023210498
181	0xbdf941bd	-0.12170742
182	0xbe07aa36	-0.13248524
183	0xbd5eaf78	-0.05436656
184	0x3cad106c	0.021125995
185	0x3c85b2d7	0.016320629
186	0x3dc5ecde	0.096643195
187	0xbd97e6c4	-0.07417062
188	0x3c02adaa	0.007975975
189	0x3e026780	0.12734795
190	0xbe3375c4	-0.17525393
191	0x3cf4ecff	0.029898165
192	0xbbee3b00	-0.007270217
193	0x3df8fd10	0.12157643
194	0x3d8db1b2	0.06918658
195	0x3e029b49	0.12754549
196	0xbe0ed6e5	-0.13949163
197	0x3dc97fee	0.09838854
198	0x3ce23528	0.027613238
199	0x3e33d809	0.1756288
200	0x3d42c973	0.0475554
201	0x3cf6b570	0.030115813
202	0x3d111a51	0.035425488
203	0xbe069958	-0.13144433
204	0xbcc02457	-0.023454828
205	0x3dea20be	0.11432026
206	0x3e0ba497	0.13637005
207	0xbe191450	-0.14949155
208	0xbda66ac0	-0.0812583
209	0x3e4ec015	0.20190461
210	0xbde0933c	-0.10965583
211	0xbdc9efda	-0.09860201
212	0x3dca76c4	0.09885934
213	0xbd034a73	-0.032053422
214	0xbb6290e9	-0.0034571236
215	0x3d44b98d	0.048028518
216	0xbd9bcc03	-0.076072715
217	0xbc8f39a2	-0.017483536
218	0xbceddbd5	-0.029035488
219	0xbe05b3ab	-0.13056819
220	0x3e982f5e	0.29723638
221	0x3e33cead	0.1755931
222	0x3dce50df	0.10074019
223	0xbd6edff6	-0.058319055
224	0x3de6715a	0.11252089
225	0xbdbc1263	-0.091831945
226	0x3e064ca8	0.1311518
227	0xbe186a6a	-0.14884344
228	0x3c4513e5	0.012028669
229	0x37c9dde0	2.4064386e-05
230	0x3d915b6d	0.07097516
231	0x3d6aff65	0.05737247
232	0xbe1516f9	-0.14559545
233	0x3d90f68e	0.070782766
234	0x3c9c94c4	0.019113906
235	0xbd36124c	-0.044451043
236	0xbd84b935	-0.06480638
237	0x3d8cf4d3	0.06882634
238	0x3e6d02c0	0.2314558
239	0xbd034f2b	-0.032057922
240	0x3c753bcf	0.014967873
241	0xbe3e3f3a	-0.18578807
242	0xbd9ce75f	-0.07661318
243	0x3c67a7a3	0.014139089
244	0x3dd9a8d0	0.106279016
245	0x3dab31c8	0.083591044
246	0x3c8e38cc	0.017361067
247	0xbdafdbe6	-0.08586864
248	0x3e02496e	0.12723324
249	0x3dd7c29d	0.105351664
250	0x3d908365	0.070563115
251	0xbdae7374	-0.08518115
252	0x3ca826f8	0.020526394
253	0xbd8566a2	-0.06513716
254	0x3e269adf	0.16270016
255	0x3dddf6e5	0.10838107

model.4.bias f4 [30]
0	0xbdb4fcea	-0.08837302
1	0xbe0c0631	-0.13674237
2	0x3e5ba915	0.21451218
3	0x3e0765af	0.13222383
4	0xbe3a9548	-0.18221009
5	0xbde9a556	-0.114084885
6	0xbdae492f	-0.085100524
7	0x3e44416b	0.1916558
8	0x3e4c84ac	0.19972485
9	0x3d820b3a	0.063497975
10	0xbd8278fb	-0.063707314
11	0xbd8b3ff3	-0.06799307
12	0xbd0cb5d8	-0.034353107
13	0x3e2df251	0.16986968
14	0x3c945eeb	0.018111667
15	0xbdaf8895	-0.08570973
16	0x3e1a1159	0.1504568
17	0xbd47c41f	-0.04877102
18	0x3ddf0500	0.108896255
19	0x3da8673f	0.08222818
20	0x3d7ea73d	0.06217121
21	0xbd1c2c17	-0.038127985
22	0x3d2013ca	0.039081372
23	0x3dbc0272	0.09180154
24	0xbd70041c	-0.05859767
25	0xbcb96eb7	-0.0226358
26	0x3e0e2a4e	0.13883325
27	0xbcb094cb	-0.021555325
28	0xbd871459	-0.06595678
29	0xbdcb4451	-0.0992514

model.6.weight f4 [30, 30]
0	0xbe64d5fc	-0.22347254
1	0x3de6d32f	0.11270749
2	0xbe109298	-0.14118421
3	0xbe0fd731	-0.14046933
4	0x3d0b925a	0.03407512
5	0x3e66c553	0.2253621
6	0xbdc0532f	-0.09390866
7	0x3d5bafa8	0.053634316
8	0xbddd79da	-0.10814257
9	0xbe1ad9c1	-0.15122129
10	0x3e197cd2	0.14989021
11	0x3d85ef06	0.06539731
12	0xbd2a1075	-0.0415196
13	0x3e3b24e1	0.18275787
14	0xbe2a2ecf	-0.16619419
15	0xbd941a2f	-0.072315566
16	0xbca6a39f	-0.020341692
17	0xbc23e0fe	-0.010002373
18	0xbdb02420	-0.0860064
19	0xbe16f69e	-0.14742514
20	0x3ddcbda1	0.10778356
21	0xbe190172	-0.14941958
22	0x3dc11aba	0.09428926
23	0x3d351c6a	0.04421655
24	0xbe21e1d1	-0.15808798
25	0x3e2677cb	0.16256635
26	0xbe0be929	-0.13663162
27	0xbd14ee63	-0.036360156
28	0x3c21762a	0.009854833
29	0xbd66a8f8	-0.056313485
30	0x3ea9a7bc	0.33135784
31	0xbc4a80ba	-0.012359792
32	0x3c9569d6	0.018238943
33	0x3e32fbad	0.17478819
34	0xbe414a7d	-0.18876071
35	0xbe851658	-0.2599361
36	0xbbb4c7f0	-0.0055169985
37	0x3d724a05	0.05915262
38	0x3e5653d3	0.20930414
39	0x3d839aba	0.06425996
40	0xbbb62338	-0.0055583976
41	0xbe8bc44c	-0.272982
42	0xbe4b038c	-0.19825572
43	0x3deb7dc3	0.114985965
44	0x3e53690c	0.20645541
45	0xbd9af81c	-0.07566854
46	0x3d844a56	0.06459491
47	0x3dc5fd71	0.09667481
48	0x3d3e0caf	0.046398815
49	0xbe85b33c	-0.26113307
50	0xbe45e443	-0.19325356
51	0x3e70d050	0.23516965
52	0x3ce5f715	0.02807192
53	0x3d644c77	0.055736985
54	0xbd3aa8b5	-0.045571048
55	0xbdd44a79	-0.10365767
56	0xbc21bf1a	-0.009872222
57	0xbd99210e	-0.07477008
58	0xbe5d60b7	-0.21618925
59	0xbcfcbdaa	-0.030852158
60	0x3e7119b5	0.23544963
61	0x3d76fcad	0.060299564
62	0xbdfc54d3	-0.123208664
63	0x3e09ec60	0.13469076
64	0x3d993b95	0.074820675
65	0x3b9d62b2	0.004803025
66	0x3d040a95	0.032236654
67	0xbd267d6a	-0.040646948
68	0xbe1ab1f9	-0.15106954
69	0x3cea7104	0.028618343
70	0x3e252584	0.16127592
71	0xbe878033	-0.26464996
72	0xbe7827c7	-0.24233924
73	0xbe252dbc	-0.16130728
74	0x3e5c279e	0.21499488
75	0xbe0ee135	-0.13953097
76	0x3cb2ec91	0.02184132
77	0xbc366972	-0.011133539
78	0xbd8f33b3	-0.06992283
79	0x3de36a78	0.11104292
80	0xbe3b57c7	-0.18295203
81	0x3e8229c6	0.25422496
82	0xbdae0156	-0.084963486
83	0xbe4aea35	-0.19815905
84	0xbd203c55	-0.039120037
85	0xbdc56eaf	-0.09640252
86	0xbcd8292e	-0.026386824
87	0x3e6e18d5	0.2325166
88	0xbe62a448	-0.22132981
89	0x3e5f101a	0.21783486
90	0xbe62694e	-0.22110483
91	0x3d848adc	0.06471798
92	0xbc099ad8	-0.008398734
93	0x3c108560	0.008820862
94	0x3cc2c9c2	0.023777846
95	0xbd9a834a	-0.07544573
96	0x3ddb5422	0.107094064
97	0x3c1d28cc	0.009592246
98	0x3d9e6f55	0.07736079
99	0xbe183be1	-0.14866592
100	0x3c467223	0.012112173
101	0x3cdc3906	0.02688266
102	0x3e120567	0.14259873
103	0x3e05f4a1	0.130816
104	0xbe3ab7a8	-0.18234122
105	0xbd3f1082	-0.046646602
106	0xbdaff3c1	-0.08591414
107	0xbe180c05	-0.14848335
108	0xbe2d93fe	-0.16950986
109	0x3e30326b	0.17206733
110	0xbd4f2dcd	-0.05058079
111	0xbc4f6d05	-0.01266027
112	0x3dca3e35	0.09875146
113	0x3dc30d95	0.09524075
114	0x3e2ee13a	0.17078105
115	0x3e57444f	0.21022151
116	0x3ddbba73	0.10728922
117	0x3dd5a0c5	0.10431055
118	0xbdd52539	-0.1040749
119	0x3d06e765	0.03293552
120	0xbe018468	-0.12648165
121	0xbe275686	-0.163416
122	0x3e67acdb	0.22624533
123	0xbd30f8c6	-0.043206
124	0xbb58eff4	-0.0033102008
125	0x3c6148c8	0.013750263
126	0xbddc092d	-0.10743938
127	0x3db394fc	0.08768651
128	0xbd043865	-0.032280345
129	0x3ddd3bc5	0.10802416
130	0xbc02a3f4	-0.00797366
131	0xbe1f346c	-0.15547341
132	0xbdf596b0	-0.11991632
133	0xbda843b2	-0.08216037
134	0x3d503346	0.05083015
135	0xbd5bde3a	-0.05367873
136	0xbe0ef9e1	-0.13962509
137	0x3e0493e6	0.12947044
138	0xbda6e8f6	-0.081499025
139	0x3e2bea03	0.16788487
140	0xbce37f85	-0.027770767
141	0x3cbefe7c	0.023314707
142	0xbe06d9bc	-0.13168997
143	0x3e1f8a8e	0.15580198
144	0x3d47df4a	0.04879693
145	0xbdd8250c	-0.10553941
146	0x3e1ab6bc	0.1510877
147	0xbc4c8115	-0.012481947
148	0x3e0978a1	0.13424923
149	0xbe54bd42	-0.20775321
150	0xbe3ad597	-0.1824554
151	0xbe58329e	-0.21113059
152	0x3c389d46	0.011267966
153	0x3e374b20	0.17899752
154	0x3de756d6	0.112958595
155	0x3d7bb19c	0.06144868
156	0xbcc8ae48	-0.024497166
157	0xbd8e6c17	-0.0695421
158	0x3e26c781	0.16287042
159	0xbe04c710	-0.12966561
160	0xbdfcd78d	-0.123458005
161	0xbc20e517	-0.009820244
162	0x3e45ad6b	0.19304435
163	0xbdf4c217	-0.11951082
164	0x3d98a6a1	0.07453657
165	0xbccc8af6	-0.024968605
166	0xbddeb498	-0.10874289
167	0xbd898db2	-0.06716479
168	0x3e6294f9	0.22127141
169	0xbd947499	-0.07248802
170	0xbdce9477	-0.10086911
171	0xbe0a8866	-0.13528594
172	0x3deb7999	0.11497802
173	0x3d8aea2c	0.06782946
174	0x3c889790	0.016673833
175	0xbe311e80	-0.17296791
176	0x3d833af9	0.064077325
177	0x3e089c2e	0.13340828
178	0x3d50863b	0.050909262
179	0xbd9d0f23	-0.07668903
180	0xbc1cfce6	-0.00958178
181	0xbdca6b6a	-0.09883769
182	0x3de1f511	0.11033071
183	0x3e5ff70b	0.21871583
184	0xbdae6351	-0.08515037
185	0xbc522239	-0.012825542
186	0x3c72a10d	0.014808905
187	0x3d36dd51	0.044644658
188	0x3e53121f	0.20612381
189	0xbc4ee36d	-0.012627465
190	0xbe39ae2d	-0.18132849
191	0xbdc13369	-0.09433634
192	0xbcf39001	-0.029731752
193	0x3bfa6c60	0.007642314
194	0x3c3e4435	0.0116129415
195	0x3d9bfcbd	0.076165654
196	0x3e41f2b9	0.18940248
197	0x3e371737	0.1787995
198	0x3d18400b	0.03717045
199	0xbddc714e	-0.10763799
200	0xbe077f84	-0.13232237
201	0x39dccc0b	0.00042113694
202	0xbe4f9e89	-0.2027532
203	0xbe08cddf	-0.13359784
204	0xbe36d529	-0.17854752
205	0x3d44f8af	0.048088726
206	0x3e412567	0.18861924
207	0x3dc8f57e	0.09812449
208	0x3d936515	0.07197014
209	0x3e50a570	0.2037561
210	0x3e30112b	0.17194049
211	0x3e1553a4	0.14582688
212	0x3e2028fa	0.15640631
213	0x3dd85e4f	0.10564863
214	0xbe1f75c7	-0.15572272
215	0xbe892e9e	-0.2679338
216	0x3dae6e12	0.08517088
217	0xba69c4b1	-0.0008917554
218	0x3e26da35	0.16294177
219	0x3cf8511e	0.030312117
220	0xbd12ac63	-0.035808932
221	0x3c8f83c7	0.017518891
222	0xbe9ad8c1	-0.30243495
223	0xbe74bc5b	-0.23899977
224	0x3c945de4	0.018111177
225	0xbe0274a5	-0.12739809
226	0x3d87d437	0.06632274
227	0x3dfbb3c0	0.12290144
228	0xbd8e0de3	-0.069362424
229	0x3de8c2d2	0.11365284
230	0xbe8bef18	-0.27330852
231	0x3e328800	0.17434692
232	0xbe6c0be3	-0.2305141
233	0xbb8fa683	-0.0043838634
234	0xbd40c27a	-0.047060467
235	0x3e04d6d9	0.12972583
236	0x3b9ff66c	0.0048816707
237	0x3eadcba9	0.33944443
238	0xbe955e4a	-0.291735
239	0x3db4e40b	0.08832558
240	0x3e32264d	0.17397423
241	0x3d1ea52e	0.038731746
242	0x3df3277d	0.11872766
243	0x3e0757bc	0.13217062
244	0xbb839227	-0.0040152255
245	0xbda22480	-0.07917118
246	0x3d0efe76	0.03491064
247	0x3decd542	0.11564113
248	0x3e0bb06b	0.13641517
249	0xbdb5ac5f	-0.08870768
250	0x3bd0aef9	0.0063685146
251	0xbe845cc9	-0.2585204
252	0xbe76ce9e	-0.24102256
253	0x3b6f7518	0.00365383
254	0x3e642e78	0.22283351
255	0x3db691b9	0.08914513

model.6.bias f4 [30]
0	0x3c0d710f	0.008632912
1	0x3dff9936	0.124803945
2	0xbcea1618	-0.028574988
3	0x3db95bc0	0.09050703
4	0xbdbda798	-0.092604816
5	0x3e452e27	0.19255887
6	0x3d3f7659	0.046743724
7	0xbe495c70	-0.19664168
8	0x3e1f6f2d	0.15569754
9	0xbe1822d1	-0.14857031
10	0xbd5d92b7	-0.054094996
11	0x3dbbb15d	0.09164689
12	0xbe442d77	-0.19157968
13	0x3e3a5e6e	0.18200085
14	0x3e1641eb	0.14673583
15	0x3e1876bd	0.14889045
16	0x3e1b7bed	0.15183993
17	0xbe094ffb	-0.13409416
18	0xbdd67cb9	-0.10473008
19	0x3db66653	0.089062355
20	0x3dda6fda	0.10665865
21	0x3d4dea25	0.050272126
22	0xbe21da89	-0.15806021
23	0xbd97bc37	-0.07408946
24	0xbc173da1	-0.009231002
25	0xbac9622e	-0.0015364343
26	0x3cc2877a	0.02374624
27	0xbe56bc72	-0.20970324
28	0xbe1ddf15	-0.1541713
29	0xbd6b0d0d	-0.057385493

model.8.weight f4 [30, 30]
0	0x3e16fb58	0.14744318
1	0xbe2c352b	-0.16817157
2	0x3e076cdd	0.13225122
3	0x3d1cc166	0.038270377
4	0x3da1f76c	0.0790852
5	0xbe26a29d	-0.1627297
6	0xbe22e761	-0.15908577
7	0x3dd72af4	0.105062395
8	0xbdd32aeb	-0.1031092
9	0xbe19d697	-0.15023266
10	0xbe354d98	-0.17705381
11	0xbc83526b	-0.01603051
12	0xbe015fc5	-0.1263419
13	0x3e2a78fb	0.16647713
14	0xbc17f224	-0.009274039
15	0xbe4a4eb8	-0.19756591
16	0xbc824554	-0.015902199
17	0xbe4f565d	-0.20247789
18	0xbe387b4c	-0.18015784
19	0xbc9558a6	-0.018230747
20	0x3d8599c1	0.06523467
21	0xba9f2cbf	-0.0012144073
22	0x3e00983f	0.12558077
23	0x3e41f110	0.18939614
24	0xbc5a841b	-0.01333716
25	0x3e22b62e	0.15889809
26	0x3e2a550e	0.16634008
27	0x3e4faadd	0.20280023
28	0x3e310f42	0.17290977
29	0xbe27b5f7	-0.16378008
30	0xbe0582a3	-0.13038115
31	0xbe31bebd	-0.17357917
32	0x3e6e903f	0.23297213
33	0x3cbf65d0	0.023363978
34	0xbd5931b3	-0.053025912
35	0x3ddb337a	0.10703178
36	0xbe33ab4e	-0.17545816
37	0x3dcbc544	0.09949735
38	0xbd2f35d8	-0.04277596
39	0x3dd1bee0	0.10241485
40	0xbd4370f2	-0.047715135
41	0xbc5fad4f	-0.01365216
42	0xbe3e20da	-0.1856722
43	0xbe040f7f	-0.12896536
44	0xbd9e86dc	-0.07740566
45	0x3e07c9fe	0.13260648
46	0xbd2e95c3	-0.042623293
47	0x3e2a1310	0.16608834
48	0x3e3dea13	0.18546323
49	0xbc7847c7	-0.015153832
50	0xbd98881c	-0.07447836
51	0x3d11263e	0.03543686
52	0x3e15cddd	0.14629312
53	0xbe4567f2	-0.19277933
54	0xbd433fa5	-0.047668118
55	0xbd89b259	-0.0672347
56	0x3e143e56	0.14476904
57	0xbd2890ee	-0.04115384
58	0x3d55b3f9	0.05217359
59	0xbac59adc	-0.0015076059
60	0xbe33307a	-0.17498961
61	0x3e2db5a1	0.16963817
62	0x3b38c676	0.0028194464
63	0xbe861f2f	-0.26195666
64	0xbe627e71	-0.22118546
65	0x3e43ac9c	0.19108814
66	0x3e47b910	0.1950419
67	0x3c18b77a	0.009321088
68	0x3e8d1fe5	0.27563396
69	0x3db6c901	0.08925057
70	0x3e4b16e7	0.19832955
71	0x3de1c874	0.110245615
72	0x3cc8d9d3	0.02451793
73	0x3d80e775	0.06294147
74	0x3e7f471e	0.24929473
75	0x3dec10c8	0.11526638
76	0xbd06192f	-0.03273886
77	0x3e7c6fbf	0.24652003
78	0x3cdc9f6e	0.02693149
79	0xbe5b2866	-0.2140213
80	0xbdd799de	-0.10527395
81	0xbe52f1ef	-0.20600103
82	0xbe808932	-0.25104672
83	0xbdb5e65b	-0.088818274
84	0xbd800c59	-0.06252355
85	0xbded1979	-0.11577124
86	0x3dee34b7	0.11631148
87	0xbe84133c	-0.25795925
88	0x3d400c28	0.046886593
89	0x3e091ad8	0.13389146
90	0x3e310e82	0.1729069
91	0xbe1bce82	-0.15215495
92	0x3d2fc0ba	0.042908408
93	0x3df2b8a6	0.11851625
94	0xbdb25b8f	-0.0870887
95	0x3d907d41	0.0705514
96	0xbe1bb560	-0.15205908
97	0xbebe2dd0	-0.37144327
98	0x3cd6eeac	0.026236854
99	0xbe2ba391	-0.16761614
100	0x3c903e69	0.017607884
101	0x3da92909	0.0825978
102	0xbdecdb2d	-0.11565242
103	0x3e8c442d	0.27395764
104	0x3e1a4040	0.15063572
105	0xbe14865d	-0.1450438
106	0x3d8c90df	0.068635695
107	0xbdc4449a	-0.09583397
108	0xbe1bd00b	-0.15216081
109	0x3e73dd1b	0.23814814
110	0x3d0dc4ea	0.03461162
111	0x3dda2553	0.1065165
112	0x3e19fff6	0.15039048
113	0x3b2a931d	0.0026027628
114	0x3e6e4f44	0.23272425
115	0x3d8bf3a9	0.06833584
116	0x3e6adda9	0.22936119
117	0x3dc81bbc	0.09770915
118	0xbd9aa388	-0.07550722
119	0x3d298c67	0.041393664
120	0x3d622e0d	0.0552197
121	0x3d810a4a	0.063007906
122	0xbd6356e5	-0.05550279
123	0xbd3b2de3	-0.045698058
124	0xbd2fef55	-0.042952854
125	0xbe58cc88	-0.21171772
126	0x3e2d4fd9	0.1692499
127	0x3d66d37e	0.05635404
128	0xbbda2d44	-0.006658228
129	0x3cc714ad	0.024301851
130	0x3e1d925c	0.15387863
131	0x3d26f088	0.040756732
132	0xbd4e3847	-0.05034664
133	0x3da98462	0.08277203
134	0x3df0452f	0.11731946
135	0x3e347085	0.17621048
136	0x3e70269d	0.2345223
137	0xbd56cc90	-0.05244118
138	0xbd999511	-0.07499135
139	0x3d03843b	0.032108527
140	0x3de8feb6	0.11376707
141	0x3e510355	0.20411427
142	0x3dda736d	0.10666547
143	0xbc6ae6c1	-0.014337243
144	0x3ce10226	0.027466845
145	0xbd4a0782	-0.049323566
146	0x3db42f36	0.08798067
147	0xbd461433	-0.048359107
148	0xbd1b4d60	-0.037915587
149	0xbce84366	-0.02835245
150	0x3ded0583	0.11573317
151	0x3dfb6c0f	0.1227647
152	0xbc93dd6a	-0.018049914
153	0xbd8797a1	-0.06620718
154	0x3d685fb6	0.056731902
155	0x3dc004ce	0.093759164
156	0x3e17e7eb	0.14834563
157	0x3e25677e	0.1615276
158	0xbd5e1219	-0.054216478
159	0x3e2068c1	0.1566496
160	0xbc5f9834	-0.013647128
161	0xbdd25242	-0.10269596
162	0xbe1520ba	-0.14563265
163	0xbe0aef99	-0.13567962
164	0x3e4f1f91	0.20226885
165	0x3e0963a9	0.13416924
166	0xbdde7d2b	-0.10863718
167	0xbd48e1d9	-0.04904351
168	0x3e05be6c	0.13060921
169	0xbe2a8bf6	-0.16654953
170	0x3d5a8eb7	0.05335876
171	0x3c090ae9	0.008364418
172	0x3dad51d6	0.084628746
173	0xbdfde84c	-0.12397823
174	0x3e518a7b	0.20462982
175	0xbe72455b	-0.2365927
176	0xbdf42e9b	-0.11922952
177	0xbe04c730	-0.12966609
178	0xbe515c9f	-0.20445488
179	0x3cf3664c	0.029711865
180	0x3e29aa97	0.16568981
181	0xbd8c1a21	-0.06840921
182	0x3c6f611f	0.014610558
183	0x3d671caa	0.05642382
184	0xbdee6777	-0.11640828
185	0x3db602d1	0.08887256
186	0xbd8dbd9c	-0.06920931
187	0x3c112340	0.008858502
188	0xbe01ee6c	-0.12688607
189	0xbe1aa6a3	-0.1510263
190	0xbd070d51	-0.032971684
191	0x3e24b084	0.1608296
192	0x3dc3dd23	0.09563663
193	0x3e49f403	0.1972199
194	0x3d8bd6c4	0.06828073
195	0xbddd13e5	-0.1079481
196	0x3e329258	0.17438638
197	0xbe1cef75	-0.1532572
198	0x3df86793	0.1212913
199	0xbce8be47	-0.028411044
200	0x3e44b1c1	0.19208433
201	0xbe1f3d6c	-0.15550774
202	0xbe040c12	-0.1289523
203	0x3e225515	0.15852769
204	0xbd655515	-0.055989344
205	0xbdb71f1e	-0.08941482
206	0x3e25fe20	0.16210222
207	0xbdc7d352	-0.09757103
208	0xbe1d81d5	-0.15381558
209	0x3d583ab9	0.052790377
210	0x3d3ee112	0.046601363
211	0xbc96984c	-0.018383168
212	0x3e0a260a	0.13491073
213	0xbdcf44af	-0.10120522
214	0xbd1ff2c8	-0.039049894
215	0x3dbe58eb	0.092943035
216	0xbd8e947e	-0.069619164
217	0x3e281156	0.16412863
218	0x3dcb4e4f	0.099270456
219	0xbdbc7cc7	-0.09203487
220	0x3d2112d8	0.03932461
221	0x3c8210f6	0.015877228
222	0xbe3ee9be	-0.18643853
223	0xbdab4a75	-0.08363811
224	0xbe490bda	-0.19633427
225	0xbcc437b1	-0.023952337
226	0xbe230794	-0.1592086
227	0x3d50ddfb	0.050992947
228	0x3d661053	0.05616791
229	0xbe6c8e05	-0.23101051
230	0xbe15a9ab	-0.14615504
231	0xbe457e34	-0.19286424
232	0x3de85cb8	0.1134581
233	0xbd145b9b	-0.036220174
234	0xbe38eb66	-0.18058547
235	0x3c8211fd	0.015877718
236	0xbc915d2d	-0.017744625
237	0xbda36a39	-0.07979245
238	0xbe0e98ee	-0.13925526
239	0x3e1fe818	0.1561588
240	0x3e07fed4	0.13280803
241	0xbde37ab0	-0.11107385
242	0xbe2fffc5	-0.17187412
243	0x3e2595b4	0.16170388
244	0x3da9b021	0.08285547
245	0xbd6f378c	-0.058402583
246	0xbe46b11c	-0.194035
247	0x3d60178a	0.05470995
248	0x3d394c84	0.045238987
249	0x3c299a1e	0.010351686
250	0xbe4b356c	-0.19844598
251	0x3d7222c3	0.059115183
252	0xbe0fada5	-0.14031084
253	0xbd793725	-0.060843606
254	0x3de40e52	0.11135544
255	0xbd57a0bc	-0.052643523

model.8.bias f4 [30]
0	0xbe214cbb	-0.15751927
1	0xbd22f258	-0.0397819
2	0x3e1d54f4	0.15364438
3	0x3e2c571e	0.16830108
4	0xbded385a	-0.11583014
5	0x3db6832b	0.08911737
6	0xbe3c8bba	-0.18412676
7	0xbe080082	-0.13281444
8	0x3d240258	0.040041298
9	0x3b2d01d4	0.0026398795
10	0x3e3ea0e7	0.18616067
11	0x3d5c1834	0.05373402
12	0xbe3934d7	-0.18086563
13	0xbe0fe7ef	-0.1405332
14	0xbd44c161	-0.048035983
15	0xbdf983e3	-0.121833585
16	0x3d9e71b3	0.0773653
17	0x3e2c9f08	0.1685754
18	0x3df2c62b	0.11854204
19	0xbd8f122f	-0.0698589
20	0xbd672b6c	-0.056437895
21	0xbe195a61	-0.14975883
22	0xbd2fb8ac	-0.042900726
23	0xbad0e5f5	-0.0015937673
24	0x3e1cf528	0.15327895
25	0x3d0f9eae	0.035063438
26	0xbd6de0a5	-0.058075566
27	0xbe022dbc	-0.12712759
28	0x3cb1e404	0.021715172
29	0xbd92304f	-0.071381204

model.10.weight f4 [30, 30]
0	0x3dbf2c2c	0.09334597
1	0x3e2ea45e	0.17054889
2	0x3bc2e829	0.005948086
3	0xbdb92d68	-0.09041864
4	0x3d8034e8	0.06260091
5	0xbda3a25e	-0.079899535
6	0xbe0bfacc	-0.1366989
7	0xbd598792	-0.053107806
8	0xbdf62e0e	-0.12020503
9	0x3ce36245	0.02775682
10	0xbe3c2433	-0.18373184
11	0x3e233636	0.15938649
12	0xbe3b5ed5	-0.18297894
13	0xbeaacfd5	-0.33361688
14	0xbd2c6204	-0.042085662
15	0x3de2ab7d	0.11067865
16	0x3d89e218	0.06732577
17	0x3e2501fd	0.1611404
18	0xbe609b97	-0.21934353
19	0xbc76ac61	-0.015055747
20	0xbd3ebedf	-0.046568748
21	0xbe0b6c7e	-0.13615605
22	0x3e2ff406	0.17182931
23	0x3c8c4b0f	0.017125634
24	0xbe5c56e0	-0.21517515
25	0x3e391c8b	0.18077295
26	0xbd70f699	-0.058828924
27	0xbe800123	-0.25000867
28	0xbdb45621	-0.0880549
29	0x3ba73e62	0.005103872
30	0xbe4404de	-0.19142482
31	0x3cd8965c	0.026438884
32	0xbe231efa	-0.15929785
33	0xbdf3b09c	-0.1189892
34	0x3d800a74	0.06251994
35	0xbc93f65b	-0.018061807
36	0x3e27c5c0	0.1638403
37	0x3cd1244c	0.025530003
38	0x3e51578e	0.20443556
39	0xbcee758a	-0.029108781
40	0x3e775dfb	0.24156944
41	0xbe0a66f3	-0.13515835
42	0x3d457375	0.04820581
43	0x3e8d5235	0.2760178
44	0xbc845fc4	-0.016158946
45	0xbe2ac1c1	-0.16675474
46	0xbc95fcf5	-0.018309096
47	0x3e32fccf	0.17479251
48	0x3cb727a2	0.022357766
49	0x3cf3599e	0.029705819
50	0x3e200d6e	0.15630123
51	0x3d842f6b	0.06454357
52	0xbd70cd63	-0.058789622
53	0xbe699fc0	-0.22814846
54	0xbda892d6	-0.08231132
55	0xbde0f920	-0.10985017
56	0x3d3634d7	0.044483986
57	0x3e4a0142	0.19727042
58	0xbe24f554	-0.1610921
59	0xbdd167af	-0.10224854
60	0x3d994ddb	0.07485553
61	0x3cfd78c0	0.030941367
62	0xbddb0313	-0.10693946
63	0x3c91db34	0.01780472
64	0xbd764779	-0.060126755
65	0xbd877888	-0.066147864
66	0x3dd03fa4	0.101683885
67	0xbd144adc	-0.036204204
68	0x3e063c31	0.13108899
69	0x3db80e39	0.08987088
70	0x3c979901	0.018505575
71	0xbdb8833c	-0.09009406
72	0x3e51888e	0.20462248
73	0xbd86355a	-0.06553145
74	0xbe25b7c2	-0.1618338
75	0x3e0d0e89	0.13775076
76	0x3e2afea4	0.166987
77	0x3e20a139	0.15686502
78	0x3d92121b	0.071323596
79	0x3d9fe7aa	0.07807858
80	0xbd20b052	-0.039230652
81	0x3c9f3633	0.019435024
82	0x3d3d765d	0.04625546
83	0xbd8ccb92	-0.068747655
84	0x3d79cbe7	0.060985472
85	0xbdceb686	-0.10093407
86	0x3dd1f787	0.1025229
87	0xbd50b1a1	-0.05095065
88	0xbdcf3ec5	-0.10119394
89	0xbc89214e	-0.016739514
90	0xbd8c5fe6	-0.06854229
91	0x3e4793f4	0.19490033
92	0xbd973d30	-0.073847175
93	0xbe04da39	-0.1297387
94	0x3d487632	0.048940845
95	0xbddf6a79	-0.1090898
96	0x3d8f1395	0.06986157
97	0xbd1bc4a8	-0.038029343
98	0xbe176642	-0.14785102
99	0xbdfee3b3	-0.12445774
100	0x3d989a57	0.07451313
101	0x3df0ba13	0.11754241
102	0xbbddeb0b	-0.006772404
103	0xbe8f1309	-0.2794421
104	0x3d87b988	0.06627184
105	0xbdf8320d	-0.121189214
106	0xbdda9845	-0.10673574
107	0xbd7b86cc	-0.06140785
108	0xbe24af07	-0.16082393
109	0xbe230f67	-0.15923844
110	0xbe00188f	-0.12509368
111	0xbd2b6058	-0.041839927
112	0xbe0f65fe	-0.1400375
113	0xbdf9911a	-0.12185879
114	0xbe369179	-0.17828931
115	0x3ce45fd5	0.027877728
116	0x3de01733	0.10941925
117	0xbe89c6a8	-0.26909375
118	0xbd73fac1	-0.05956531
119	0xbe0021b1	-0.12512852
120	0x3d0493cb	0.03236751
121	0x3e45426f	0.19263624
122	0x3e0487af	0.12942384
123	0xbe6a72d7	-0.2289537
124	0xbe207e7d	-0.15673251
125	0x3da48317	0.08032816
126	0x3dc706e4	0.09718111
127	0x3e379243	0.17926888
128	0x3d025188	0.031816036
129	0xbd8aaca8	-0.06771213
130	0xbcf80398	-0.030275151
131	0x3d455e1b	0.04818545
132	0xbdee0ff3	-0.11624136
133	0xbd141092	-0.036148615
134	0x3dbd89aa	0.09254773
135	0x3dd1ff60	0.10253787
136	0x3d354b5f	0.044261333
137	0x3ac0078f	0.001465069
138	0x3cf03475	0.029321888
139	0xbd971e77	-0.073788576
140	0x3d842e00	0.06454086
141	0x3e085b30	0.13316035
142	0x3e35177b	0.17684738
143	0xbc519e89	-0.012794145
144	0x3d2e143a	0.04249976
145	0x3dfe78f5	0.124254145
146	0xbd6d9623	-0.05800451
147	0x3d10ca3f	0.035349127
148	0x3db58cab	0.08864721
149	0x3d8f5e1b	0.07000371
150	0xbdabd51e	-0.08390258
151	0xbe136aba	-0.14396182
152	0x3e01b70a	0.1266748
153	0x3c933185	0.017967949
154	0x3dc47176	0.095919535
155	0x3e42af56	0.19012198
156	0xbe1b9b7c	-0.15196031
157	0xbe03b688	-0.12862599
158	0xbe1593ce	-0.14607164
159	0x3e02b263	0.12763362
160	0x3c378b88	0.0112027
161	0x3d4b9dfa	0.049711205
162	0x3ce7cc5c	0.028295688
163	0xbe2405e4	-0.16017872
164	0x3dc8f978	0.098132074
165	0xbe5343b7	-0.206313
166	0xbe5d9290	-0.2163794
167	0x3e30748a	0.17231956
168	0xbe049572	-0.12947634
169	0xbdb29158	-0.08719128
170	0xbe1868d6	-0.14883742
171	0xbd805327	-0.0626586
172	0x3cbd4524	0.023104258
173	0x3e137c74	0.14402944
174	0x3d246543	0.040135633
175	0xbe794de4	-0.24346119
176	0xbdf7143f	-0.120644085
177	0xbd207f89	-0.039184127
178	0x3e287e59	0.16454448
179	0xbe5d5335	-0.21613772
180	0xbd4ef1dc	-0.050523624
181	0xbe13c47f	-0.14430426
182	0xbd2e6b43	-0.04258276
183	0x3e3c4793	0.18386678
184	0x3e281ddc	0.1641764
185	0x3e1d17c8	0.15341103
186	0xbdcde8ce	-0.100541696
187	0x3e06769b	0.13131182
188	0xbd190f4f	-0.037368115
189	0xbdea9101	-0.114534386
190	0x3d86f4b8	0.06589645
191	0xbd83e99e	-0.06441043
192	0xbdb7aaf4	-0.089681536
193	0xbc74406e	-0.014907939
194	0x3d51a392	0.051181383
195	0xbce8c290	-0.028413087
196	0xbe4bde94	-0.19909126
197	0xbdc23db1	-0.09484423
198	0xbd25db75	-0.040492494
199	0x3d97584b	0.073898874
200	0x3d812bf9	0.06307215
201	0xbe56fb6e	-0.2099435
202	0x3d89604f	0.067078225
203	0x3e0857bc	0.13314718
204	0x3d6bf946	0.057610773
205	0xbe41e02d	-0.18933173
206	0xbdd653ba	-0.10465188
207	0xbe2edb71	-0.17075898
208	0xbe087c67	-0.13328706
209	0xbd878607	-0.066173606
210	0x3d171ccf	0.03689271
211	0x3e302c7f	0.17204474
212	0xbe75e973	-0.24014835
213	0xbdd70e9d	-0.10500834
214	0xbdc27cde	-0.09496473
215	0xbe498214	-0.19678527
216	0xbe505361	-0.20344307
217	0xbe19e91d	-0.15030332
218	0x3e2fe4b8	0.17177093
219	0xbca66971	-0.02031395
220	0x3da134c0	0.078713894
221	0x3d323727	0.04350963
222	0xbdadc8f7	-0.084855966
223	0x3e06102b	0.13092105
224	0xbd27a23e	-0.04092621
225	0x3e2a7b52	0.16648605
226	0xbd95942c	-0.07303652
227	0xbe514699	-0.20437087
228	0x3d84aa53	0.06477799
229	0x3e115ab6	0.1419476
230	0x3d843f2e	0.06457363
231	0x3d8561bf	0.06512784
232	0x3e02d34d	0.12775917
233	0xbe23437c	-0.15943712
234	0xbd913d82	-0.0709181
235	0x3e4e4676	0.20144066
236	0x3e40bc33	0.18821792
237	0xbd9120b5	-0.070863165
238	0xbd118b1f	-0.035533067
239	0x3d82fa32	0.06395377
240	0x3e064249	0.13111223
241	0x3d86f1e2	0.06589104
242	0xbde92cf7	-0.113855295
243	0xbdc4c55c	-0.09607956
244	0xbca4a176	-0.020096522
245	0x3e140a05	0.14456947
246	0xbe21127f	-0.15729712
247	0x3d90cf9f	0.070708506
248	0xbdffc8b0	-0.1248945
249	0xbda72655	-0.08161608
250	0xbe157a61	-0.14597465
251	0x3e26eed0	0.16302037
252	0x3d01a6ba	0.031653143
253	0xbe47e0d3	-0.19519357
254	0xbca74d54	-0.020422615
255	0xbd811efa	-0.063047364

model.10.bias f4 [30]
0	0x3dc4f102	0.09616281
1	0x3daf9457	0.085732155
2	0xbcd19785	-0.025584945
3	0xbd706e6f	-0.058699068
4	0x3c441049	0.011966773
5	0x3e4d0f89	0.20025457
6	0xbe0fcfaf	-0.14044069
7	0xbd5af447	-0.053455617
8	0xbe08e99c	-0.13370365
9	0xbda2e652	-0.07954086
10	0xbda56fb8	-0.08077949
11	0xbc4260f2	-0.011863934
12	0x3d727f0f	0.059203204
13	0xbd1f510c	-0.03889565
14	0x3e09707e	0.13421819
15	0xbddea5e9	-0.108714886
16	0x3c88b158	0.016686127
17	0xbd0a4a7a	-0.033762433
18	0x3dac00f6	0.08398621
19	0xbc2e890a	-0.01065279
20	0xbdfa6e39	-0.122280546
21	0xbe39e9c5	-0.18155582
22	0xbd8886d5	-0.06666342
23	0x3e40a6c7	0.1881362
24	0x3e20b55b	0.15694182
25	0xbdc9afb1	-0.098479636
26	0x3e27930f	0.16364692
27	0x3d37bb60	0.04485643
28	0xbd474617	-0.048650827
29	0xbd82dacb	-0.06389388

model.12.weight f4 [30, 30]
0	0xbeb66439	-0.3562334
1	0x3dd7bc25	0.105339326
2	0x3d7a9096	0.061173044
3	0xbe233dce	-0.15941545
4	0xbe35696d	-0.17715998
5	0xbd8a3a6c	-0.06749424
6	0x3c4ff332	0.01269226
7	0x3ddca929	0.10774452
8	0x3e163829	0.14669861
9	0x3b5d5c46	0.0033776923
10	0xbe1872e1	-0.14887573
11	0xbdc2a87f	-0.09504794
12	0xbd60819d	-0.05481111
13	0xbce9104f	-0.02845016
14	0xbc279843	-0.010229173
15	0x3ec287bd	0.37994185
16	0xbdcee438	-0.10102123
17	0x3cfd59fc	0.030926697
18	0x3d32a246	0.043611787
19	0x3dce2149	0.100649424
20	0x3d31a43a	0.04336951
21	0xbe4d4c4b	-0.20048635
22	0x3e09ec7c	0.13469118
23	0xbce55e41	-0.027999045
24	0x3e183af9	0.14866246
25	0xbdb1a8f4	-0.086748034
26	0x3d8cd15f	0.06875872
27	0x3db033be	0.08603619
28	0x3c970015	0.018432656
29	0xbe015256	-0.12629065
30	0x3e0d9cb8	0.13829315
31	0xbcd7233a	-0.026261915
32	0xbe07bd22	-0.13255742
33	0x3d074172	0.033021398
34	0x3ced65ed	0.028979266
35	0xbd68752a	-0.05675236
36	0x3c30e958	0.010797821
37	0xbdd7f111	-0.10544027
38	0x3d8924b6	0.06696455
39	0x3da252b6	0.07925932
40	0xbdc5efd6	-0.09664886
41	0x3d77f105	0.06053259
42	0xbd608a29	-0.05481926
43	0x3e112062	0.1417251
44	0xbdb8540b	-0.09000405
45	0xbdb3b478	-0.08774656
46	0x3e681855	0.22665532
47	0xbde3ba59	-0.11119527
48	0x3d7a69b7	0.061135974
49	0x3e518198	0.20459592
50	0x3ddbf619	0.10740299
51	0x3e367b9b	0.17820589
52	0xbe2f66b5	-0.17129023
53	0x3d960286	0.073247
54	0xbe0287a0	-0.1274705
55	0xbe1c8f5a	-0.1528906
56	0x3dd100a6	0.10205202
57	0xbe35aef8	-0.17742527
58	0x3e1ca49a	0.15297166
59	0x3e484713	0.19558363
60	0x3ee34580	0.44388962
61	0xbb6ec8e3	-0.0036435656
62	0x3db43e87	0.08800989
63	0x3e57749d	0.21040578
64	0x3da13c3d	0.07872818
65	0x3b972fd9	0.004613858
66	0x3dbfdc3c	0.09368178
67	0x3d9e87ae	0.077407226
68	0xbce8cd0b	-0.028418085
69	0xbe12be98	-0.14330518
70	0xbdc08053	-0.09399476
71	0xbe202f5a	-0.15643063
72	0x3e757381	0.23969842
73	0x3e28f63b	0.1650018
74	0xbe4c0ffc	-0.19927973
75	0xbec01387	-0.37514898
76	0x3d21f172	0.0395369
77	0xbcbdc254	-0.023163952
78	0xbc2a4076	-0.010391345
79	0x3dc26e0b	0.09493645
80	0x3e079acc	0.13242644
81	0x3cda5a16	0.026654284
82	0xbe6b5eef	-0.22985433
83	0x3e28b659	0.1647581
84	0xbdbc984e	-0.09208737
85	0xbd4a6071	-0.04940838
86	0x3e735028	0.23761046
87	0x3d0d7772	0.03453774
88	0x3e610ac4	0.21976763
89	0x3dd60bbe	0.104514584
90	0x3ec64639	0.3872545
91	0xbe4ca0b4	-0.19983178
92	0xbe102365	-0.14076002
93	0xbd883674	-0.06651011
94	0xbcbade08	-0.02281095
95	0xbd91cf39	-0.07119603
96	0xbdd0e2ce	-0.101995096
97	0x3d707c53	0.058712315
98	0x3d1a66a2	0.037695535
99	0xbe023fab	-0.127196
100	0xbdfe04be	-0.12403248
101	0xbd5907de	-0.05298602
102	0x3cb05eab	0.021529516
103	0x3e242fe2	0.16033891
104	0x3dc82fe7	0.09774762
105	0xbedc7af7	-0.43062565
106	0x3e379972	0.17929628
107	0xb98015cf	-0.0002443031
108	0x3d39414f	0.0452283
109	0xbd4faca1	-0.05070174
110	0x3ccd7684	0.025080927
111	0xbd879aea	-0.066213444
112	0xbe38c038	-0.18042076
113	0x3c8a3cbd	0.016874665
114	0xbd97fa6e	-0.074208125
115	0x3c4553a2	0.012043865
116	0x3d3d6bc2	0.046245344
117	0xbdff0fb3	-0.12454166
118	0x3dae363f	0.0850644
119	0x3d95d842	0.073166385
120	0xbedaad09	-0.4271014
121	0x3ddeacaf	0.108727805
122	0xbe1593e1	-0.14607193
123	0xbe08cb05	-0.13358696
124	0xbe233a89	-0.15940298
125	0x3e4b444a	0.19850269
126	0xbd916810	-0.070999265
127	0xbd66c65f	-0.056341525
128	0xbe3f2019	-0.18664588
129	0x3d1e0e4e	0.03858786
130	0x3e0db7cc	0.13839644
131	0xbc9ff80e	-0.019527461
132	0x3d7eb25b	0.06218181
133	0xbe2e707a	-0.17035094
134	0x3dab2b32	0.08357848
135	0x3eb3a00d	0.35083047
136	0xbe120c76	-0.14262566
137	0x3c4af45b	0.01238736
138	0x3e1d35fb	0.15352623
139	0xbc93b8d2	-0.018032465
140	0x38acb487	8.235225e-05
141	0xbdba6ba7	-0.09102564
142	0xbc8bd8ea	-0.017071206
143	0x3e3ae9de	0.18253276
144	0xbcb47d50	-0.02203241
145	0x3dc418f7	0.09575074
146	0x3d47b987	0.048760917
147	0xbcfd1e0c	-0.030898117
148	0xbd3f3c36	-0.04668828
149	0xbd096bde	-0.033550136
150	0x3e531685	0.2061406
151	0x3dd68197	0.10473936
152	0x3db34b10	0.087545514
153	0x3e2507e0	0.16116285
154	0x3de68b70	0.11257064
155	0xbe3efaec	-0.18650407
156	0x3da2a8ae	0.07942329
157	0x3cc2a6b5	0.023761133
158	0x3e53e72d	0.20693655
159	0x3dff91ba	0.12478967
160	0xbd608e5c	-0.054823264
161	0xbcd32b99	-0.025777625
162	0x3e4f3506	0.2023507
163	0xbdfbab55	-0.12288538
164	0xbd93018c	-0.071780294
165	0xbe1a6f3b	-0.15081494
166	0x3e8ba995	0.27277818
167	0x3d7779c4	0.06041886
168	0xbddb2f68	-0.107024014
169	0x3e1b4828	0.15164244
170	0xbd5446e5	-0.051825423
171	0x3c73dd51	0.014884309
172	0xbd5801fc	-0.052736267
173	0xbb3958e6	-0.0028281747
174	0xbe31aa3f	-0.173501
175	0xbe0e8634	-0.13918382
176	0xbcde6b7f	-0.027150868
177	0xbe0272b2	-0.12739065
178	0x3e159eeb	0.14611404
179	0xbdce2c3a	-0.10067029
180	0xbe266376	-0.16248879
181	0x3d76c1c2	0.060243376
182	0xbe108e69	-0.14116825
183	0xbd07030a	-0.032961883
184	0xbe38752d	-0.18013449
185	0x3df81d87	0.12115007
186	0xbd2cfe7c	-0.042234883
187	0xbda88e52	-0.082302704
188	0x3c80972a	0.01569708
189	0x3ce7d3f9	0.028299319
190	0x3d8aa498	0.06769675
191	0x3da23aa2	0.079213396
192	0xbe59b403	-0.21260075
193	0xbdb60ee3	-0.08889558
194	0x3e2dee16	0.16985354
195	0x3eb8ee5a	0.36119348
196	0xbd934338	-0.07190555
197	0x3db7d679	0.08976454
198	0x3e43a1e9	0.19104733
199	0x3dd889a6	0.10573129
200	0x3e096d3b	0.13420574
201	0x3d81bde1	0.06335045
202	0xbd105ba7	-0.035243656
203	0xbde7cdc5	-0.11318544
204	0x3e4fc2b8	0.20289123
205	0xbd8a9b65	-0.067679204
206	0xbdac55b5	-0.08414785
207	0x3d6d50c3	0.05793835
208	0xbe94fdcf	-0.2909989
209	0xbe60a44c	-0.21937674
210	0x3e35f4bc	0.1776914
211	0xbd9e4fa9	-0.07730038
212	0xbde278fe	-0.11058234
213	0xbdca23cb	-0.09870108
214	0xbbf3af6d	-0.007436684
215	0xbe2d5e89	-0.16930594
216	0x3dd204a3	0.10254791
217	0x3dd13973	0.10216036
218	0x3d97a805	0.07405094
219	0x3d94eca6	0.072716996
220	0xbde850dc	-0.11343548
221	0x3dd548c8	0.104142725
222	0x3e455061	0.19268943
223	0x3dda57f3	0.10661306
224	0xbe2c5009	-0.16827406
225	0xbe08ae71	-0.13347794
226	0xbbb1ae62	-0.0054223994
227	0xbbff9531	-0.0077997674
228	0x3d08f6e6	0.033438586
229	0xbe08aece	-0.13347933
230	0xbd9f80d2	-0.077882424
231	0x3cab4d50	0.020910889
232	0xbe0d5b5b	-0.1380438
233	0x3c77c585	0.015122776
234	0x3dd8dc8b	0.1058894
235	0xbe01c1ef	-0.12671636
236	0xbd5e6df5	-0.054304082
237	0xbdc8fbde	-0.09813665
238	0x3e767779	0.24069013
239	0xbc4aa078	-0.01236736
240	0x3eb43d24	0.35202897
241	0xbdbae3ee	-0.091255054
242	0x3c428a2e	0.011873765
243	0x3e51a510	0.20473123
244	0x3d89ec3c	0.06734511
245	0x3d14a979	0.036294434
246	0xbdde236c	-0.108466
247	0x3e3b22f4	0.18275052
248	0xbdacb6f8	-0.08433336
249	0xbdc39e8d	-0.095517255
250	0x3d589944	0.05288054
251	0x3c13da57	0.009024224
252	0x3e2a7279	0.1664523
253	0xbd1d93f4	-0.038471177
254	0xbd08338b	-0.03325228
255	0xbe901fcc	-0.2814926

model.12.bias f4 [30]
0	0xbe13547b	-0.14387695
1	0x3ae8d6d7	0.0017764223
2	0xbd25015b	-0.040284496
3	0x3dff979f	0.12480091
4	0x3dac1d04	0.08403972
5	0x3df87faf	0.12133729
6	0x3d3c5062	0.045975097
7	0xbdf77136	-0.1208214
8	0xbe0e5f78	-0.13903606
9	0xbdc7a548	-0.09748322
10	0x3e23a722	0.15981725
11	0x3cc38468	0.023866847
12	0xbe10bc6a	-0.14134374
13	0xbe182f1d	-0.14861722
14	0x3e1a6762	0.150785
15	0x3d4f9037	0.050674643
16	0xbd2760f6	-0.040863954
17	0xbd22e28f	-0.039766844
18	0xbe112476	-0.14174065
19	0xbdf8dbf1	-0.121513255
20	0x3dd601a0	0.10449529
21	0x3d661c97	0.05617961
22	0x3e385425	0.18000849
23	0xbd149451	-0.036274258
24	0x3d2d5d02	0.042325027
25	0x3db6435b	0.08899566
26	0xbd9e64e3	-0.07734086
27	0xbd6d0636	-0.05786725
28	0xbc820652	-0.015872154
29	0x3cdf2610	0.02723983

model.14.weight f4 [1, 30]
0	0xbd0c5398	-0.03425941
1	0x3e536a9e	0.2064614
2	0x3dee70ea	0.116426304
3	0x3e2c3eff	0.16820906
4	0xbd80ed02	-0.06295206
5	0x3e324315	0.17408402
6	0xbe8f40c0	-0.27979088
7	0x3e55b8d6	0.2087129
8	0x3e5ed2e5	0.21760137
9	0x3e8885d8	0.26664615
10	0xbdc77d81	-0.09740735
11	0x3e59707c	0.21234316
12	0xbdbedcdc	-0.09319469
13	0x3e585d7a	0.21129408
14	0xbcb84da9	-0.022497969
15	0x3d1c4d0e	0.038159423
16	0x3dd0d3f0	0.10196674
17	0x3dfc5ea1	0.123227365
18	0xbe0e4d9e	-0.13896796
19	0xbe2f2208	-0.17102826
20	0xbeadc539	-0.3393953
21	0x3e12d494	0.14338905
22	0xbd833f07	-0.06408506
23	0xbe1dd640	-0.15413761
24	0x3e2f4dd3	0.17119531
25	0x3e64b785	0.22335632
26	0xbe72db58	-0.23716486
27	0x3e843644	0.2582265
28	0xbcf2aad5	-0.029622475
29	0x3e5db6ce	0.21651766
