NeuralGalerkin/models/autosave/Gen_2_Loss_0.00072123.pt (torch, 120967 bytes, 15 tensors)

model.0.weight f4 [16, 2]
00000000: cc74 1d3e 98f7 d1be 815f 96be 62f7 023d
00000010: 4485 df3e 8dee 1dbf a685 0e3f aed2 2f3f
00000020: 509b fa3e 2fdc b7be 4577 9e3e bf49 10bf
00000030: 3118 0b3f 4a0d 363f 16cf dc3e bcab 893c
00000040: c3f4 0c3f 51e9 063f 55d7 21bc c61c 2ebf
00000050: 7440 853e 760e 11bf a5b0 f43c 9e97 25bf
00000060: 12a4 c43e 6791 60be ff0a 54be 0b17 a3be
00000070: 84e2 0f3f 34ba 763e 91ae ec3d edd0 293f
0.15376586 -0.41009212 -0.2936974 0.031974204 0.4365636 -0.61692125 0.5567268 0.68680847
0.4894662 -0.35910174 0.3095037 -0.5636253 0.5433379 0.7111403 0.43126744 0.016805522
0.55060977 0.5269976 -0.009877999 -0.68012655 0.26025736 -0.5666269 0.029869387 -0.64684474
0.38406426 -0.21930467 -0.2070732 -0.31853518 0.5620501 0.24094468 0.115567334 0.6633442

model.0.bias f4 [16]
00000000: 1eed bc3e cf77 cd3d bf1d e73e 85a7 39be
00000010: c490 c0be b77f 02be 0169 88bd e75d d43d
00000020: 084e ebbe c1a6 c2be 05c3 cb3d 20a1 36bf
00000030: f1b0 f5be 7cb8 2dbf cd5a 6f3d 8826 8d3e
0.36899656 0.10032617 0.45139882 -0.1813031 -0.37610447 -0.12744032 -0.06660653 0.10369473
-0.4595797 -0.38017848 0.099493064 -0.7133961 -0.47986558 -0.67859626 0.058436204 0.2756846

model.2.weight f4 [16, 16]
00000000: 5b60 833e 7ba9 e63d fbdc 703e 80ab 5c3e
00000010: a26c 81be 8b12 a23d 758b b73c b4eb 673e
00000020: c680 cf3d e00b 3dbc c077 69be 5891 40be
00000030: 3d59 ecbd 752a 00be e0d6 a23e fe18 fa3d
00000040: ebae e33c a6b8 3fbe 569b 7ebc e9d7 3bbe
00000050: 695c 0e3d b90b f2bc 9595 8cbe 675c 33bd
00000060: e768 54bd 6128 1c3d a58f 9a3e c604 2f3e
00000070: 31e1 bb3d df0a 633e 8fcf 01be 07ba 3fbe
00000080: e06b 4abe 67df 22be d9a7 d5bd 1d52 01be
00000090: f6f5 8d3e 18f9 163e 2565 0abe 9eca 9bbe
000000a0: 6966 6a3e ab21 933e cdf2 b9bd 48de 473d
000000b0: 8417 43bd 3bca 973e 309b 0f3e 7671 273d
000000c0: 4bff 9d3e 0e21 863e 8485 aebc 413c 533e
000000d0: 8d1a ee3d 81e8 553d 35aa 053e c8f2 dbbd
000000e0: b953 5a3b 6d72 6fbe d733 30bd 33b8 143e
000000f0: 7254 6ebe c3f0 183d 3d44 713e 36c4 133e
00000100: 67d5 3dbe 5e54 043e b95f b5bd a1ba fabd
00000110: 58cf 6abd 0d06 28be 3dab 1abe cd43 44be
00000120: 5302 0b3e ee9c fd3b b65b 6dbe 9b07 57bd
00000130: cc3a 4d3e 0143 9f3d 72ab 833e 8bcd 663e
00000140: c6fc 40be 20fb 9a3d b0e4 89be 247d 3bbe
00000150: c3ac c53d 9a6a c8bb 7bc1 373d 2830 20be
00000160: 323e 8e3e 6f44 873e 5aa6 a43e f92b 29be
00000170: 5713 02be d54b 4d3e 43d0 acbe a30e 4abe
00000180: 622d 44bd bef5 0d3d 267b 8b3e 44a5 8abd
00000190: 954c 92be f07f a73c 5da7 31be 3b94 6cbd
000001a0: bda8 19be 682b 16be 807d 47be 66a2 8cbd
000001b0: 61e3 87be 27e8 a5bd dd04 4f3e fba5 383e
000001c0: 562d 803e 18b4 1abe ec9b 813e 2772 07be
000001d0: a60a ee3d 3aba 073e 2975 903e afea a03d
000001e0: b635 fcbd 74f8 00be 8e57 d7bd 88b2 23be
000001f0: 4885 1fbe 8e44 63be aaf4 593e 130b 8f3e
00000200: af0c 1cbd 3e89 893e 2a8b a13e 7262 cd3c
00000210: 3550 cfbd bcdc 97be b041 99bd 7ec0 983d
00000220: 8897 34be da03 95bd a14a 1fbe 7b2c 4dbe
00000230: d4aa f23d a91c 2dbe 97c9 12be 5b1b b13c
00000240: 2d20 26be 8ec4 ccbc 18d9 0f3e 9935 003d
00000250: 92cd 823e 9d2c 913e 13db 84be 93f9 1e3e
00000260: 7482 f23d ad7b 183e 5e72 8fbd 3ee5 72bd
00000270: a03b 7a3e d543 b53d 6462 34be 08be 9dbe
00000280: 7db8 ca3d 23d5 9dbc d40d 0e3d 0d24 713e
00000290: be8c df3d 7f72 7fbe 98f1 2bbd 8440 613e
000002a0: bcd7 91be 482c 253e fc48 b93d db85 8c3d
000002b0: 73a4 0bbc c8dc 91be 1669 ecbd 083f 993e
000002c0: dfe0 a6bd aa2f 403c a956 a23d ae1f 23bb
000002d0: a431 0ebe afb0 79bd 2d8d 353e fedd ecbd
000002e0: eab8 6bbe 448d 113e ef40 88be 8b14 4a3e
000002f0: 9dff 38be 1892 95be 4eb9 7c3e 87f4 86bc
00000300: 6a93 98be 4ea5 ed3b 9194 d83c 1fd5 5abe
00000310: 544d 18be 4463 19bd 5cc6 fe3d a137 25be
00000320: 6be7 263e f337 06bd ae1e ae3d 0fab f2bd
00000330: f717 d63d 7c28 d03d afc8 fbbc 19ec 843d
00000340: 1a90 13be 52c0 32bc 2b22 a1bc 7ed9 81be
00000350: 6843 c73d 922e 913d f1b0 9bbe 8cf4 7cbb
00000360: 0473 eebd 233b f6bd c0db 323e d8d7 20be
00000370: 0baf c7bd 78de 62bd db11 d53c c037 09be
00000380: ce99 b3bd 2a6b 233e 483d c63d 53dc 6cbe
00000390: 0438 e3bd 51fe 843e 5b5e 91be 9407 81be
000003a0: d7a5 cebd 711a 133e 0b2f e63d 3ccb 053d
000003b0: 0674 543d 4b1d 8d3d fb33 a7bb 4adf 183e
000003c0: 648e 883c b446 823e d6ce 9a3e 87fb 663d
000003d0: 0825 27be acaa 5c3b baae 953e 0462 1abe
000003e0: e610 04be b688 23bd 41a3 98bd dc87 63bd
000003f0: 2a46 30be bedb 5ebe 91df 473e 1fa2 333e
0.2565945 0.112627946 0.23521797 0.21549797 -0.25278193 0.07913693 0.022405365 0.22648507
0.101319835 -0.011538476 -0.22799587 -0.18805444 -0.11540458 -0.12516196 0.31804562 0.12211798
0.027793368 -0.18722782 -0.015539965 -0.18344082 0.034756098 -0.029546605 -0.27457872 -0.043789294
-0.051857855 0.038124446 0.30187717 0.17091665 0.09173811 0.22172116 -0.12676834 -0.18723308
-0.19767714 -0.15905534 -0.10432405 -0.1262898 0.27726716 0.14743459 -0.13515146 -0.30428022
0.22890629 0.28736624 -0.09079514 0.04879597 -0.047629848 0.29646477 0.14024043 0.04087969
0.30858836 0.26197094 -0.0213039 0.20628454 0.11626158 0.052223686 0.1305321 -0.10739666
0.0033314063 -0.23383494 -0.04301819 0.14523391 -0.23274401 0.037338983 0.23561187 0.14430317
-0.18538438 0.12922809 -0.08856148 -0.12242628 -0.057326645 -0.16408558 -0.15104385 -0.19166489
0.13575105 0.0077396547 -0.23179516 -0.052497488 0.2004196 0.07776452 0.2571674 0.22539346
-0.18846425 0.075674295 -0.26932287 -0.18309456 0.09652092 -0.0061162235 0.04486225 -0.1564337
0.27781826 0.26419398 0.32158166 -0.1652068 -0.1270269 0.20048459 -0.3375264 -0.19732146
-0.047894843 0.034658186 0.27242392 -0.06769803 -0.28574052 0.020446748 -0.17349 -0.05775855
-0.15005775 -0.14664996 -0.19481468 -0.068669125 -0.26540664 -0.0810092 0.20216699 0.18032067
0.2503459 -0.15107763 0.2531427 -0.1322714 0.11623125 0.13254634 0.28214386 0.07857262
-0.12314932 -0.12594777 -0.105147466 -0.15986073 -0.15578187 -0.2219412 0.21284738 0.27938136
-0.038098034 0.2686252 0.31551486 0.025071356 -0.1012272 -0.29660594 -0.07483232 0.0745859
-0.1763593 -0.07276125 -0.15555812 -0.20036499 0.11848989 -0.16905464 -0.14334713 0.02161949
-0.16223212 -0.024996068 0.14047658 0.031301115 0.25547463 0.2835435 -0.2594839 0.15524893
0.11841288 0.14890929 -0.07004236 -0.059300654 0.24436808 0.088508286 -0.17615658 -0.30809045
0.098984696 -0.01926667 0.034681156 0.23548909 0.10915516 -0.2494602 -0.04197845 0.21997267
-0.28484905 0.16130173 0.09047124 0.068614684 -0.0085230945 -0.28488755 -0.11543481 0.29930902
-0.081483595 0.011730114 0.07926685 -0.0024890709 -0.13886124 -0.060959514 0.17729636 -0.11565779
-0.23019758 0.14214045 -0.2661204 0.19734399 -0.18066259 -0.29213023 0.24680063 -0.016474022
-0.29799968 0.007252372 0.02643803 -0.21370362 -0.14873248 -0.037448183 0.12440178 -0.16134502
0.16299216 -0.0327682 0.085019454 -0.11849033 0.1045379 0.10163972 -0.030735342 0.064903446
-0.14410439 -0.010910111 -0.019669613 -0.25361246 0.097296536 0.07088961 -0.30408433 -0.003859791
-0.11643031 -0.12022998 0.1746664 -0.15707338 -0.09750184 -0.055387944 0.02600949 -0.13400173
-0.0876957 0.15958849 0.09679657 -0.23130922 -0.110946685 0.25975278 -0.283923 -0.25201094
-0.10090225 0.14365555 0.112394415 0.032664523 0.05186846 0.06890353 -0.005102632 0.14928928
0.01666946 0.25444567 0.30235928 0.05639222 -0.1632272 0.0033671064 0.29234868 -0.15076452
-0.12897071 -0.0399253 -0.07453013 -0.055549487 -0.17214265 -0.21763512 0.19518878 0.17542313

model.2.bias f4 [16]
00000000: 3c52 04be 8243 81be 8053 3e3e ed12 5b3e
00000010: cc70 89bd 8cef 0a3e f95f bebd db10 313e
00000020: 07c3 173e dd48 0fbe becb 8f3e dbdc 0c3e
00000030: e2bc 81be eeb9 a3be 05d9 78be 8022 b8bd
-0.12921995 -0.25246817 0.1858654 0.21393938 -0.067109674 0.13567942 -0.09295649 0.17291586
0.14820491 -0.13992639 0.2808513 0.13756125 -0.2533942 -0.3197779 -0.24301536 -0.08990955

model.4.weight f4 [16, 16]
00000000: d2da ae3d 73b4 16be 7023 8b3e 36d3 aabe
00000010: 84b3 e03d 38b4 813e 9c88 d33d b621 aabe
00000020: d041 823d 94d4 1fbe fe23 a8be c06f 173e
00000030: 334d 2c3c 6b26 843c 4bee 5b3e a5c9 2fbe
00000040: d272 333e c10e 88bc 4e06 723e f969 3bbe
00000050: 4414 1dbe 30de d13d 4ade 9cbd 407a 143e
00000060: 0a56 bdbd db2f 833e 393a 4cbd bf6c 9abd
00000070: be5f 75bc 4ef1 c73d f059 083e 6ba5 93be
00000080: fa11 22bb f7b8 ba3d fa07 37be 0978 f2bd
00000090: 75d9 123e 2850 3bbd 900a 2fbe e447 883e
000000a0: 0715 03be 4acd 22be b091 14be 240f 2bbe
000000b0: 6bec 15be 5fac 123e c85d 8ebe 61b8 12be
000000c0: 5b69 35be 080c 51be c0d9 2abe 851f 70be
000000d0: c5aa 66bc 4540 943e a10c 91be 2fec 03be
000000e0: a39e 1ebd c276 293e 9656 2dbe 6ba4 b2bd
000000f0: e5ea df3d bc0e 00be 38c2 d1bd ef1a 8abe
00000100: 31f7 423e 9566 91be 3805 66bd 0708 afbd
00000110: de03 4c3e c941 453e 6989 2a3c 0973 7c3e
00000120: 464c 37bd b354 81be abf9 8d3e 57e9 4abd
00000130: 4a7b 4cbd dba7 45be f4f9 70be 9e0c 1f3e
00000140: 90d8 82be 0d94 603e 75ce 1abe ded7 8dbd
00000150: 3c40 463e 305f 09bd d621 2a3e b404 2d3b
00000160: 30e2 7bbe 7f54 993e 9a5e 53bd 53e7 45bd
00000170: 0bbc d9bc 8325 91bc 3a41 943d 9945 573c
00000180: 61c7 5e3e c8fc 563e 3722 d3ba 46a1 2cbe
00000190: 2cc3 57bd 9348 97bd 22a8 89bc 0944 92bd
000001a0: 8d36 2f3e cdd9 a4bd e2f3 fbbc e084 4f3e
000001b0: fe25 1bbe 459a bfbd a6f3 5abe f708 193e
000001c0: 8211 283d b217 593d 719f 193e 1999 2bbe
000001d0: e144 c43d 4c28 823c 315e cdbb 0280 72be
000001e0: 7f95 9ebe f894 923d 6c4e 8c3d f435 e53d
000001f0: 0677 203e 1983 ee3d be4a a43d c03d 5cbe
00000200: 9268 0a3e 08cc 6dbd 4ce4 7bbe cff8 99bd
00000210: 659c 22bd dbe8 133d 10a2 093e 41be 633e
00000220: 5116 443e 772d 6b3c f490 423e 5363 24be
00000230: e7f6 67be 4149 203d 0c97 76be 6573 973e
00000240: b1a5 cf3d c86c 55be ee44 55be 9bfe 993e
00000250: b495 743d fd2c 54bd 0607 dc3c 5d5b bcbd
00000260: f783 22be b7fe 61be 7f0c 6f3c d807 9fbd
00000270: 7acd 7c3e c476 473e 5e2e a3b9 37d5 aa3d
00000280: 410d 9a3e d525 093e 5178 27bc c06a 313e
00000290: 1946 263e b9ec 05be 1826 5f3e c305 8d3e
000002a0: ed5e 8f3e c64f 23be 60b3 253d 9f45 8d3e
000002b0: a07d 14bd 93d6 5fbe b7f8 68be f4c3 633e
000002c0: 7e13 1f3e 75ba 82be d307 a5be 81af 963c
000002d0: 09ce 403e e0cc 2d3d 66e4 563e 943e 903e
000002e0: 52a4 8d3d 9f5d 803d a027 07bd 231d a83e
000002f0: 6dc3 2dbe 41df 6dbd bc7c 53be e8e0 a33d
00000300: 3083 acbe 3613 033e 43bd 273e 2915 d23d
00000310: 9945 28be 9040 893e 5193 97be 2091 35be
00000320: f02b 65be 2a20 2fbe c797 a7bb 817f dbbc
00000330: 7cd9 213e e491 26be cc70 293e 18b5 34bd
00000340: ed9a 713e 6ae5 6dbe c330 5fbe fa94 943d
00000350: 75a6 68be 3c43 67be 30be 763c 0ae7 fe3d
00000360: 0e45 643e c20e b1bc d51e 4c3e 2830 4c3e
00000370: 7ae1 c4bd fa29 b6bd 14b0 093e c109 223e
00000380: 28cd 5fbe 44fc 733e b265 9f3e 7d2c 543c
00000390: 1280 b33c 6145 183e 1ff4 60be 71ce d83c
000003a0: c9b3 32be e7f9 163d 5171 8abd 1b59 84be
000003b0: d59b d4bc 4e51 6a3e d9dc 0f3e 25ce 043e
000003c0: 3ddc 12be 7478 fc3d 49a3 58be 27f7 0b3e
000003d0: 15d6 0a3e a3e5 80bd 9c88 d8bd 06ae 833e
000003e0: 3634 953d 1ba8 3ebd dfd0 bcbd 4b8b 193e
000003f0: 9628 163e ad95 0dbe 340e 97bd d0e4 9f3e
0.085378304 -0.14717273 0.27175474 -0.33364266 0.1097174 0.25332808 0.103287905 -0.33228844
0.06360209 -0.15608436 -0.3283996 0.14788723 0.010516453 0.0161316 0.2147762 -0.17166765
0.17524269 -0.016608598 0.23635218 -0.18302144 -0.15339762 0.10247457 -0.07659586 0.1449976
-0.09244926 0.25622448 -0.049860213 -0.07540273 -0.01497644 0.09762822 0.13315558 -0.2883714
-0.0024729953 0.091173105 -0.17874137 -0.11839301 0.14340766 -0.04573074 -0.17093873 0.26617348
-0.1280099 -0.15898624 -0.145087 -0.16704994 -0.14640968 0.14323567 -0.27805924 -0.14328147
-0.17715971 -0.20414746 -0.16684628 -0.23449524 -0.014078801 0.28955284 -0.28329948 -0.12883066
-0.038725507 0.16549209 -0.16927561 -0.087227665 0.109334745 -0.1250562 -0.102421224 -0.26973674
0.19039609 -0.28398576 -0.05615732 -0.08546453 0.1992335 0.19263376 0.010408738 0.24653257
-0.044750474 -0.25259933 0.27729544 -0.049538936 -0.049922265 -0.19302313 -0.2353285 0.15532157
-0.2555585 0.21931477 -0.1511782 -0.06925939 0.19360441 -0.033538043 0.1661447 0.0026400508
-0.24598002 0.29947278 -0.05160389 -0.04831631 -0.026578924 -0.017718082 0.072390035 0.013139152
0.21755745 0.20994866 -0.0016108219 -0.16858396 -0.052676365 -0.07386889 -0.016803805 -0.07141883
0.17110653 -0.08049355 -0.03075594 0.20265532 -0.15151212 -0.093555965 -0.21382007 0.14944826
0.04103232 0.053001113 0.15002228 -0.16757621 0.0958345 0.015888356 -0.006267332 -0.23681644
-0.3097343 0.0715732 0.06850895 0.11191931 0.15670404 0.11646099 0.080220684 -0.21507931
0.13516453 -0.058055907 -0.24598807 -0.075181596 -0.03969993 0.03611074 0.13440728 0.22240545
0.19149138 0.014354101 0.19000608 -0.16053514 -0.2265278 0.03913236 -0.24081057 0.29580227
0.10139025 -0.20842278 -0.20827076 0.3007706 0.05971308 -0.051800717 0.026858818 -0.09197114
-0.15870653 -0.22069822 0.014590382 -0.07765168 0.24687758 0.19478899 -0.0003112433 0.08341449
0.30088237 0.13393338 -0.010221557 0.17325878 0.16237678 -0.13078584 0.21791875 0.27543458
0.2800211 -0.159484 0.04045427 0.2759218 -0.036252618 -0.21859197 -0.22751127 0.22242719
0.1553478 -0.2553288 -0.32232532 0.018394234 0.18828596 0.042431712 0.20985565 0.28172743
0.06916107 0.06267857 -0.032996774 0.3283473 -0.1696908 -0.05807424 -0.20653051 0.08001882
-0.33693838 0.12800297 0.16380791 0.10257942 -0.164328 0.2680707 -0.2960458 -0.17731142
-0.22380042 -0.17102113 -0.005114529 -0.026794197 0.1580562 -0.1626659 0.16546935 -0.044118017
0.23594256 -0.23232046 -0.21795945 0.072549775 -0.22719748 -0.22584242 0.015059993 0.12446411
0.22291967 -0.021613482 0.19933636 0.19940245 -0.09613319 -0.08894725 0.13446075 0.15824033
-0.21855605 0.238267 0.31132275 0.01295006 0.021911655 0.14870216 -0.21968125 0.026465626
-0.17451395 0.03685942 -0.06759895 -0.25849232 -0.025953213 0.22882578 0.1404909 0.12969263
-0.14341827 0.12327662 -0.21156038 0.136685 0.13558228 -0.062938 -0.10572931 0.25718707
0.07285349 -0.046547037 -0.092195265 0.14994542 0.1466392 -0.13826628 -0.07375756 0.31229258

model.4.bias f4 [16]
00000000: 2069 1cbe fabb 13be 7650 59be 1d77 17be
00000010: aee0 ccbc 6efb c4bd 756b 093d 5c02 91be
00000020: d874 88bd 212b 9b3e 8dfa 273d 2644 c73c
00000030: 9504 ce3d 997b 543d 378e 92b8 ac2e 1c3e
-0.15274477 -0.14427176 -0.212221 -0.14791532 -0.02500948 -0.09618269 0.033549745 -0.28322113
-0.06662911 0.30306342 0.04101043 0.024324488 0.10059468 0.051875684 -6.988312e-05 0.15252179

model.6.weight f4 [16, 16]
00000000: d569 093e 153c 88bc 1dbd f93c 3206 06be
00000010: eb28 6dbd 6de5 2d3d 589d 843d 8131 fdbb
00000020: 6502 2abe 0066 70be 257f 4ebd 19a2 c53d
00000030: 9e2b b23d 01a2 aa3d 0f8f 9c3d 3b94 71be
00000040: a772 513e 0c68 04be fc0c 08bd c12c 563e
00000050: bc35 1f3d d171 c43d b82c fc3d 7a38 283e
00000060: e2eb 7abd a901 00be 604e 1bbe d0ad 91bd
00000070: 4821 473e a0b4 1b3e 7fd4 2ebc 86ef 913d
00000080: 7845 cbbc 2715 34be 1bd8 643d 1c00 3c3b
00000090: f373 923b 8ce4 0b3e 0e4f 69be fd2f 633e
000000a0: cd22 51be f712 98be 2c86 8ebe 0cc2 22bd
000000b0: d76d 783e 22a9 7ebd f5f1 9e3d 4772 82bd
000000c0: 2ff5 e1bd 8b12 16be 4bfe 163e 3ce0 d4bd
000000d0: 0ec1 26be ac28 213a 7f70 82bd 52c0 1abe
000000e0: b062 b6bd 6e4c d1bd e8e7 283e 8f17 673e
000000f0: 7a29 e53d f4a4 aa3e fba2 87bc 728c 1d3e
00000100: 2f3c 89be 28d8 18be 5483 c9bd 9494 953c
00000110: 4a0b d03c c182 97bd ce57 073e 4998 61be
00000120: ba6e 243e 2ea1 31be 04ae 8ebc 62cb 923d
00000130: d5d7 4fbe cbd5 1c3e 6739 5ebe efba a33e
00000140: 376f 24be 62ff a0be 10c1 adbd f9e0 2fbd
00000150: 9a05 803e fb83 c53d 99d4 a93e 6c76 05be
00000160: 7bb3 abbd e5db 0fbe c7db 5d3e 2a9b a5bd
00000170: 80ac 84be e6f2 a63e a2b6 a4bd 79d6 953d
00000180: 0320 7ebd 9833 93bd 5640 ab3d 6599 37be
00000190: fa94 3d3d 3a2b af3d 7413 14be a9fe 75be
000001a0: 27fc b73d 4f6f 203e 7316 a33e 4a4e 133e
000001b0: b655 453d 9017 72bd 97a4 b03c b8fb 18be
000001c0: 3ff6 803e 1b34 443b b9d2 0e3e d3e0 72bd
000001d0: 6076 c03d bcd3 9c3e 4c77 043b efbd fb3d
000001e0: 4f3d 87be 8337 4dbc e50a 70be 283d 70be
000001f0: 36f7 49be 0244 61be 0f6d a83e c9f4 cb3d
00000200: 78f1 64be 736e 09be 70b0 023e a79b 253c
00000210: 073f 963e 358a fdbd c85e 2cbe 0360 8bbe
00000220: fc98 993d afe0 633e b489 8fbd b432 813e
00000230: c68a 73be 5855 673d 9d07 81be cde1 303e
00000240: d725 c9bd 91ba 203d 464d 193e d944 663e
00000250: 2cf2 603d d209 6e3e 8160 2bbe 0557 5a3e
00000260: 74d5 683d 2a34 81be afb9 c0bd 0b01 61be
00000270: 21c5 a2bd f1df 7cbc 2f5d 993d aa7e dabd
00000280: f488 a0be d5fd 48be e788 aa3d 5ce9 2cbd
00000290: d3eb a1bc f613 243e faaf 8a3c 93f1 98be
000002a0: 500d 263b 03e0 d13d 02c5 ee3d f48f 963e
000002b0: f304 81bd 4466 a83e bec7 dfbd 6d5b c33d
000002c0: df21 533e e330 4fbe bd5e 36be 1325 cd3d
000002d0: c2b0 cbbd 2e9b 5ebd bfae 623c 5cf3 833e
000002e0: 8a49 84bd db6b 28bd 3fa6 eb3d c290 26be
000002f0: b21a 0d3e 8afa 88be 0a50 983e da94 aebd
00000300: 88f7 cabb e245 1a3c 4c3e 2bbd da94 9cbe
00000310: e3b7 823c d80c 6e3c 8cc5 a63d 16be 29be
00000320: d4a7 5d3e 9003 313c 46f9 623e 7414 373d
00000330: 4986 d8bc e96e 3d3e a6fc a5bc bfef 013d
00000340: b876 88bd 2d68 593e 11d8 1a3e f11c 1a3e
00000350: da88 3dbe 3b00 993c 6f77 2c3d 0cbc c8bd
00000360: 8a2b 3abe 0422 f6bd 118d 10be c814 1dbe
00000370: d60c 883d 23c6 29be e512 fb3d 8645 98bd
00000380: 335e f8bd b473 fabd 1744 92bd 2cfd c23c
00000390: de62 12be 3a07 213e 5711 b63d cc86 b03d
000003a0: ff42 3d3e 4147 b3bd a039 0cbe 6357 b83c
000003b0: 7a29 383e 5477 d93d ccaf d93d a5da 483e
000003c0: 3840 9f3c 5c9b 8b3e ab7c 02be ba12 553d
000003d0: cac4 8abe 0413 603e a7b0 46be 01a8 5ebd
000003e0: 35e1 01be 74ea 46be 5b86 50be 1efa 4bbe
000003f0: 29cd e53d 86e8 82be 2c61 963e ae7b 9dbe
0.13419278 -0.016630212 0.030485684 -0.13088301 -0.05790035 0.042455126 0.064753234 -0.0077268486
-0.16602476 -0.2347641 -0.050414223 0.09650058 0.086997256 0.08331681 0.07644474 -0.23591702
0.20453893 -0.12930316 -0.033215508 0.2091551 0.038869604 0.09592021 0.12313217 0.16427794
-0.06126011 -0.12500633 -0.15166616 -0.0711323 0.1944629 0.15205622 -0.01067078 0.071257636
-0.024813399 -0.17586194 0.055870157 0.0028686589 0.0044693886 0.13661402 -0.22784063 0.22186275
-0.20423432 -0.2970197 -0.2783674 -0.03973584 0.2426065 -0.062173016 0.077609934 -0.06369453
-0.11033093 -0.14655511 0.14745443 -0.10394332 -0.16284582 0.0006147723 -0.06369113 -0.15112427
-0.08905542 -0.10219656 0.16494715 0.2256758 0.11189552 0.33328974 -0.016557207 0.15385607
-0.2680373 -0.14926207 -0.09839502 0.018259324 0.025396008 -0.07397986 0.13217089 -0.22030748
0.16057864 -0.17346641 -0.017416961 0.071676984 -0.20297177 0.1531593 -0.21701585 0.31978557
-0.1605805 -0.31444842 -0.084840894 -0.04293916 0.25004274 0.09644314 0.33170012 -0.13033456
-0.083838426 -0.14048727 0.2166587 -0.08086236 -0.25912857 0.32607192 -0.08042647 0.07316298
-0.062042248 -0.07187575 0.083618805 -0.17929609 0.046284653 0.08553167 -0.14460546 -0.24022926
0.08983641 0.15667461 0.31853065 0.14385334 0.048177443 -0.059104502 0.021562858 -0.14939773
0.2518787 0.0029938284 0.13947572 -0.05929644 0.09397578 0.3063029 0.0020212708 0.12292086
-0.26413962 -0.012525442 -0.23441656 -0.2346083 -0.1972321 -0.21998599 0.32895705 0.099587984
-0.22357738 -0.1342104 0.12762618 0.010107911 0.2934496 -0.123798765 -0.16833031 -0.2722169
0.074998826 0.22253679 -0.07008687 0.25233996 -0.23783407 0.056477875 -0.2520112 0.17273636
-0.098216705 0.039240424 0.14970884 0.22487201 0.054918453 0.23245934 -0.16736032 0.21322258
0.05684419 -0.2523511 -0.09410416 -0.21973054 -0.079477556 -0.015434251 0.074884765 -0.106686905
-0.31354487 -0.19628079 0.08326893 -0.042214736 -0.01976577 0.1602324 0.016929615 -0.29871807
0.0025337525 0.10247805 0.1165867 0.29406703 -0.06299772 0.32890522 -0.1092677 0.095389225
0.2061839 -0.20233493 -0.17809577 0.10016837 -0.09945823 -0.05434721 0.013835608 0.25771606
-0.06459339 -0.041118484 0.11506318 -0.16266158 0.13779715 -0.26753646 0.29748565 -0.08524485
-0.006194059 0.009416075 -0.041807458 -0.30582315 0.015956825 0.014529429 0.08143148 -0.16576418
0.21646053 0.010804072 0.22165403 0.04469724 -0.02643122 0.1849934 -0.020262074 0.03172278
-0.06663269 0.21231146 0.15121485 0.15050103 -0.18509236 0.018676868 0.04210609 -0.09801492
-0.18180671 -0.12018207 -0.14116313 -0.15339959 0.06643073 -0.1657949 0.12259463 -0.074351355
-0.12127342 -0.122291 -0.07141893 0.023802362 -0.14295527 0.15725413 0.08890026 0.086194605
0.18482588 -0.08753825 -0.13693857 0.022502607 0.17984572 0.10618463 0.10629234 0.19614656
0.019439802 0.27266967 -0.1274287 0.052019812 -0.27103263 0.21882254 -0.19403325 -0.05435944
-0.12683566 -0.19425374 -0.20363753 -0.19919631 0.11220772 -0.25568026 0.2937101 -0.30758423

model.6.bias f4 [16]
00000000: c11d 93be 7a5a 76bd 8f87 8dbe f12c 8c3e
00000010: 7cbe 773e 5a1d 013e c7a6 863d 4ee3 1f3e
00000020: 95f4 acbd ff7f 7bbe 940b 413e ec07 83bc
00000030: b871 673d 84aa 03be dd46 263d a21d ae3c
-0.28733638 -0.06014488 -0.27642485 0.27378038 0.24193758 0.12608853 0.06574779 0.15614054
-0.08445088 -0.24560545 0.18852073 -0.015994988 0.056504935 -0.12858015 0.040594924 0.021254364

model.8.weight f4 [16, 16]
00000000: 9ded 28bd d97e 973d 68b5 4bbe e960 243b
00000010: 0778 f83d 17c4 8c3e cce8 243d 0fec b53b
00000020: ee15 583e cf76 09bd e290 a9bd 411b c8bb
00000030: 418a 523e 748d 63be c93d 193e ca11 133e
00000040: 3ce8 813e 02bb dd3d 4b51 353d 2f68 223c
00000050: 5856 58be 9433 df3d fd65 a9bd 660a 923e
00000060: 240d 30be a052 8f3d aa26 073e b01c 9abb
00000070: 44fa aebe c253 3bbd 18a2 8cbc 66e7 013e
00000080: 679a 0d3e 3912 8e3b c2a3 35be 2b51 983e
00000090: 0cd8 9c3c 0541 21bd 2645 eabc 5093 99be
000000a0: 33f6 4e3d 1ce8 d5bd 7c06 7f3e 8ced a2be
000000b0: 6eef 883d 3a12 983d 9e84 90bc 70a4 a13d
000000c0: a4ed b73d dd89 ed3d b9ba 423e a447 99be
000000d0: 2050 013e 9df6 033e 0526 10be 408f 64bc
000000e0: 5baa 8cbe 52f5 7a3c 29fd a3be c012 433e
000000f0: 5a40 aa3d 65b1 0f3e ef87 aebd 6e6c 8abd
00000100: 3175 96be 824b 2e3e 14f2 18be 6009 5d3e
00000110: d0f2 9f3e 7a75 39bc e2a6 233e 4c8f 9bbe
00000120: 5eff 11be 338e 3ebe 765c 9c3e 53f8 a43d
00000130: 2d39 f9bd 3117 783d 79ca 383e bfc1 6cbe
00000140: fce3 76bd 7dc8 f53b 460c 833e 1ccb 893d
00000150: 47e2 a43d 956d 063e c14f 5bbe 4fdf d73d
00000160: 1d7a b7bd 7f8d 963d a0a5 33be 67af aa3e
00000170: 097c 5bbe 3647 a43e e655 3c3e f8bd 393d
00000180: 63ba 573e a240 723e 2d00 d43d d362 7f3d
00000190: d8c2 83bd aae9 8fbe 052f 5dbb 19cd 983e
000001a0: 6153 613d 1a38 eb3d 0e37 f93c 4ca9 e6bd
000001b0: 07fd b3be 578f 6e3e f595 a0bc 3caa eebd
000001c0: f44e b8bc 60e9 0cbe 422c 933e b935 153e
000001d0: f0d1 fdbd 18d5 dfbc cd0f d8bc 2b9f 2dbe
000001e0: d930 6bbc 2db9 803d b642 6dbe 632b 683e
000001f0: 5d4b 39be 34d6 823c c46c 0b3c 7cff a43e
00000200: 94b0 1e3e 1a3f 873e b886 823e 8a18 10be
00000210: a2f1 763d eff0 98bd a2f0 313c eb24 373e
00000220: afb4 9bbe d19a 383e 8c76 6cbe bbd9 a2bd
00000230: 362d 94bc f831 323e 9d85 0fbe ffee 993e
00000240: c4a0 bfbd dc21 053e b9ff 26bd d8b9 973e
00000250: 6f3b 213e 8a86 7a3e a840 343e 0faa d5bd
00000260: 59ba 543e 2a0d 0dbe 309f a73c a0c0 f53c
00000270: ba87 0b3e 576b 80be 9586 8dbe 38b3 8dbe
00000280: 1979 b13d 000c 98be 1e9e 553d 53b3 753e
00000290: bf0a 1abe 9c0c 9a3e ebde 223e ac10 993c
000002a0: 8b70 08bd 276b c23d 9d58 953e 02c9 9abd
000002b0: 620a 303e 6274 253e 0b27 143d dad1 c6bc
000002c0: 0561 223e 393b 923d fbb3 f13d 409e f6bd
000002d0: d326 43be a6f6 7cbe 5ea9 1fbe 9eba 44bc
000002e0: 7f02 62be def2 423e d27b b5bd b610 88bc
000002f0: 1589 0bbe 18f1 af3d 164d 25be 488e bc3c
00000300: ea36 b0bd 4879 36be 1559 fabd 478f 77bd
00000310: 2d8f 7e3e f19b dabd 3f1d 903c 2a3d 0dbe
00000320: 24f7 2dbd bd33 8dbe b5e4 23bd 3b43 54be
00000330: 44b7 8e3d 0417 c2bc 80ac 823d 23ee 113d
00000340: f551 eb3d 49c8 9abe 873d 0fbe 4de7 0c3e
00000350: b37e 2b3e 6bde 713d 8026 563c 2ef1 79be
00000360: 15a4 443c 1c8e 6cbd e846 7f3e 66c3 88bd
00000370: d8b3 983e bfe9 4b3d 9f06 32bd 7064 7dbe
00000380: 7cd7 983d 1f53 aabc d633 283e 1eb8 a7bc
00000390: a1f7 5bbe cc6b a6bd 97c5 63be 3c4c 8d3e
000003a0: 2e23 93be e9f4 48be 8fbd e1bd b739 a73e
000003b0: 578d 8fbd 163b fc3d e04a 0d3e 7f1d e63d
000003c0: f73c 6bbe 46e7 1e3e 9676 20be 5382 313a
000003d0: b285 04be 236b f13d 7ac4 5d3e b506 3cbe
000003e0: c900 953e 9262 2fbe f162 a03d 9ced 993c
000003f0: d32a 7f3e 1176 82be f6e7 073e d13c 91be
-0.04124223 0.07397241 -0.1989342 0.0025082177 0.121322684 0.27493355 0.040261075 0.005551822
0.21102116 -0.03356057 -0.08279587 -0.0061067645 0.20560552 -0.22221929 0.14964975 0.14362255
0.25372493 0.108266845 0.04426698 0.009912535 -0.21126688 0.108985096 -0.08271406 0.28523558
-0.17192513 0.06998181 0.13198343 -0.004703127 -0.34175313 -0.045734175 -0.017167136 0.12685928
0.13828431 0.0043356684 -0.1773825 0.29749426 0.019145988 -0.039368648 -0.028597426 -0.29995203
0.050527763 -0.10444662 0.24904817 -0.3182186 0.066862926 0.074253514 -0.017641362 0.07892692
0.08980873 0.11598561 0.19016542 -0.2993747 0.12628222 0.12887044 -0.14077003 -0.013950169
-0.2747372 0.015317278 -0.32029083 0.19050121 0.08313055 0.14032514 -0.08522021 -0.067589626
-0.29386285 0.17020991 -0.14936095 0.21585608 0.3123994 -0.0113195125 0.1598163 -0.30382764
-0.14257571 -0.18608932 0.30539292 0.080551766 -0.121691085 0.060568992 0.18045987 -0.23120783
-0.060276017 0.0075007067 0.255953 0.06728193 0.080509715 0.1312774 -0.21417142 0.105406396
-0.08958838 0.07351207 -0.1754365 0.33336946 -0.21434034 0.3208558 0.18392143 0.045347184
0.21067195 0.23657468 0.10351596 0.062350105 -0.06433648 -0.2810796 -0.003374995 0.29843977
0.055011157 0.1148531 0.03042176 -0.112627596 -0.35153982 0.23296867 -0.019602755 -0.116535634
-0.022498585 -0.137609 0.28744704 0.14571275 -0.12393558 -0.02732329 -0.026374722 -0.16955249
-0.014354908 0.062853195 -0.2316998 0.226728 -0.18095155 0.01597128 0.008509818 0.3222617
0.15497047 0.2641533 0.25493407 -0.14071861 0.060289033 -0.074678294 0.010860594 0.17885177
-0.30411288 0.18027808 -0.23092097 -0.07951685 -0.018087965 0.17401874 -0.14015813 0.30065152
-0.093568355 0.13001198 -0.04077122 0.29633975 0.15745328 0.24465385 0.1760279 -0.10432827
0.20774211 -0.13774553 0.020461649 0.029999077 0.13625994 -0.25081894 -0.2764174 -0.27675796
0.08665676 -0.29696655 0.052152745 0.23994188 -0.15043162 0.30087745 0.15905349 0.018684708
-0.033310454 0.09493094 0.2916917 -0.075578704 0.1719146 0.16157678 0.036170047 -0.024269987
0.15857323 0.07140202 0.11801907 -0.120419025 -0.19057779 -0.24703464 -0.15591952 -0.012007384
-0.22071265 0.19037959 -0.088615075 -0.01660953 -0.13626511 0.08590907 -0.16142687 0.023017064
-0.08604224 -0.17819703 -0.12224022 -0.060439374 0.24859305 -0.10674275 0.01759207 -0.13792863
-0.04247202 -0.27578536 -0.040013034 -0.20728771 0.06968549 -0.023692615 0.06380558 0.035627495
0.114902414 -0.3023093 -0.13988315 0.13760109 0.1674755 0.059050005 0.013070703 -0.24408409
0.012002011 -0.057752714 0.24929392 -0.06677894 0.2982471 0.049783465 -0.043463346 -0.24745345
0.074629754 -0.020791588 0.16426024 -0.020473536 -0.21481182 -0.08126029 -0.22243343 0.27597225
-0.28737777 -0.19624676 -0.110224836 0.3266122 -0.0700938 0.12315957 0.13798094 0.11236095
-0.22972475 0.15517911 -0.15670237 0.0006771434 -0.12941626 0.11788013 0.21656981 -0.18361934
0.29102162 -0.17127445 0.078313716 0.018790059 0.2491868 -0.25480703 0.1327208 -0.28366712

model.8.bias f4 [16]
00000000: b07d 893e bf2f 4fbe d6de 4f3e a7a9 9abe
00000010: adbe 253e b00a fcbd 13c0 5cbe 33d4 0e3d
00000020: 1676 53be 0aa9 9c3d 6503 51bd a871 8abe
00000030: 6d1c b7bd 16e1 493e ee67 7cbd 091a 673c
0.26853704 -0.20233057 0.20299849 -0.3020756 0.16186018 -0.12306726 -0.21557645 0.034870338
-0.20650515 0.07649429 -0.051028628 -0.27039838 -0.08940969 0.1971477 -0.061622553 0.014105328

model.10.weight f4 [16, 16]
00000000: 7f0c 52be ece8 6f3e 5256 73be 6ef4 bb3d
00000010: bc02 3b3e 058d a23e 6af1 b83d 3fbb 653e
00000020: 5d4e 1a3e ec23 74be a780 bc3d e2d1 673e
00000030: 4a04 fa3d c6da 0b3e 4e79 3d3e edd2 6fbe
00000040: 6204 cf3d 5062 043d c656 5a3e 667e 50be
00000050: 1665 943e fc4d 42be 6bf6 90be 3c25 133e
00000060: ca3a 12be 2b43 0b3e 0720 0f3e 232a b23d
00000070: b2d8 d6bd 092b 9c3d dd24 1ebe 8399 113e
00000080: 45d2 0d3e fdc7 c2bd 7fc4 823d 075b 8bbe
00000090: 9504 b43d acb7 b5bd 2e9e 9cbd 278a ad3b
000000a0: bd45 7d3d 976a c1bd efea 813e fde5 38be
000000b0: 43ed 13be d628 b73e cf58 843d 10eb 7a3e
000000c0: 0885 f93d 2583 abbe 0eb5 333e 453c 8d3c
000000d0: 73bc 523e d9f5 e03d 8aad 43be 52e2 a0be
000000e0: 5847 3bbe 7a51 863b 56fc d23d efb3 193e
000000f0: 8679 5a3e 4735 78bc 6c77 58be 2f94 edbc
00000100: 2d4f 653e 85cc a4bc b464 853c 1da4 65be
00000110: 74ac 3dbd d6ea 52bd dcb8 96be fc4e 6bbe
00000120: 4b02 d73a f9ad 133e 935a e63d 8825 68be
00000130: 19fb 863e 5303 e43d 2539 e8bd 275b 753e
00000140: c84d 00be 3c30 7a3e e3c7 873d 0dad 953e
00000150: c9a3 82be 65e2 0c3e a496 1dbe 1a2d 933e
00000160: 60da e7bd 825d 723d 4d66 3e3e 9db6 123e
00000170: 6904 1abe aee5 97be 739e 6e3e 6937 5abd
00000180: cbc0 543d d8b6 bcbc 72c9 bb3e 3a49 90be
00000190: 1355 893e 2ce0 83be d189 93be a0d3 53be
000001a0: fb57 1d3d e995 8f3e 34d6 773c 56fe 063e
000001b0: 24d2 683e 6264 df3d 9a95 093e f8ca 02be
000001c0: d9cd 753e b005 7fbe 7e6a 483e 5a2a f83c
000001d0: 9f1b 153e 4a83 13be 96e1 91be 44ac 8d3d
000001e0: 5127 573d 4d49 e4bb b283 db3d 7c69 21be
000001f0: d4d4 163e 7b59 9d3e 7630 aabd 00c2 843e
00000200: c065 e8ba 06e1 523d 5873 893e db55 983b
00000210: 45b9 553d 138f 94be 3681 0abe 7c2f 8abe
00000220: 202b 733c 38fb 873e 05a0 cebc 3634 b1bc
00000230: 99b0 513e d777 9c3c 52e8 80be 6c4a 193e
00000240: eec7 10be f3c2 943e 9e0b f93c f3e9 a4bc
00000250: 6208 30be e5c7 00be 9352 48bd 318d ffbd
00000260: 7360 a03e 9ae7 b8bd 6e50 34be a79d 323e
00000270: 2f63 3fbe 8f9f 803d c382 193e e259 54be
00000280: d18f 8c3d 3bfe 213d af48 4ebc 3d74 a73e
00000290: 7c89 95be 3ce6 673b 4c26 78bd 9f4b 833e
000002a0: 1e78 733e 96d7 69be ad39 663e daa2 1cbd
000002b0: 5bc0 373e b5e8 f7bd 8e4e 423d 7b52 51bb
000002c0: 2eaa cdbd 025d 13be bb87 6d3d a7d1 623d
000002d0: 54b4 103e ad2e 683e 2424 953d 02f2 873e
000002e0: 4d38 5e3e 66ac abbc c988 ccbb bdd0 8d3e
000002f0: 918f 01be 1166 a8be 1c3c 913e 2e61 91be
00000300: 1b6f 32be 4db7 68bd 7989 34be 96ac d7bd
00000310: eb1d 223d 6aa0 6a3d bfec cfbd 9a8f 923e
00000320: 654e 6e3e 4a14 a0be 0a59 5abe 1f9a c33d
00000330: 9e80 60be 8984 bbbc cffc a93e 921d 11be
00000340: 56ad 7cbe 1290 923e 197e 083e ca0c 0c3e
00000350: 9652 a3be 0a6c 5f3e f9c0 523e 155f 38bd
00000360: 2d80 35ba 2fc5 b5bd 44c3 dbbd 9b1e 503c
00000370: c5dd 353e 35c2 a5bd 0761 933e b6b7 4abe
00000380: 6cc5 373e ff14 99be 1937 94bd aa5e 53bd
00000390: 50a1 903e 8677 dd3d 368b 20be 20dd 3a3d
000003a0: d324 67be 44c1 7c3e 9d41 6fbd 4ae5 48be
000003b0: 28fa 6bbd 9efe c9bd ed26 92be 8852 553e
000003c0: 08bb 1d3d e781 a8be 3815 a13e 0666 5ebe
000003d0: ce65 d93d 478e 90be 601a 23be d5ba 66bd
000003e0: 096c 2abe af21 433e ba27 e9bd a3ba a23d
000003f0: 7336 903d 0f2e 433e 3895 923c 759b fb3a
-0.2051258 0.23428696 -0.23763397 0.09177481 0.18262762 0.31748214 0.09030421 0.2243471
0.15068956 -0.23841828 0.09204226 0.22638658 0.12207849 0.13657674 0.18503305 -0.23420306
0.10108258 0.03232032 0.21322164 -0.20360717 0.28983372 -0.18975061 -0.28313002 0.14369673
-0.14280239 0.13599841 0.13977061 0.08699443 -0.1049055 0.07625396 -0.1544375 0.14218716
0.13849743 -0.09510801 0.06385135 -0.27217886 0.087899365 -0.08872923 -0.07647358 0.00529601
0.061834086 -0.094441585 0.25374553 -0.18056484 -0.14445977 0.35773343 0.064622514 0.24503732
0.12183577 -0.33498493 0.17549536 0.017240653 0.205797 0.10984392 -0.19109169 -0.3142267
-0.18288934 0.004099068 0.103020355 0.15010045 0.2133542 -0.015149421 -0.21139306 -0.029001324
0.22393484 -0.020117054 0.01628337 -0.22425885 -0.046307042 -0.05149349 -0.29437912 -0.22979349
0.0016403882 0.14421834 0.112477444 -0.22670567 0.26363447 0.111334465 -0.113390245 0.23960553
-0.12529671 0.24432462 0.06629922 0.2923359 -0.25515583 0.13758238 -0.15389496 0.28745347
-0.113209486 0.059171207 0.18593712 0.14327474 -0.15040745 -0.2966742 0.23302631 -0.0532755
0.051941674 -0.023036405 0.36677128 -0.28180867 0.2682272 -0.25756967 -0.28816083 -0.20686197
0.038413983 0.2804406 0.015126754 0.13182959 0.22736412 0.109078184 0.13435975 -0.12772739
0.24004306 -0.24904513 0.19571874 0.030293632 0.14561318 -0.14405552 -0.2849242 0.06917623
0.05252773 -0.006966746 0.10718478 -0.15762895 0.14729625 0.3073233 -0.083100244 0.2592926
-0.0017730519 0.05148413 0.26845813 0.0046489066 0.05217864 -0.29015407 -0.13525853 -0.26989353
0.014841825 0.26558852 -0.025222788 -0.021631341 0.20477523 0.019100113 -0.25177246 0.14969796
-0.14138767 0.29054984 0.030401047 -0.020131087 -0.17190698 -0.12576254 -0.048906874 -0.12478102
0.31323585 -0.090285495 -0.17608806 0.17442952 -0.1869018 0.062804334 0.14991288 -0.20737413
0.06863368 0.039549094 -0.012590571 0.3270587 -0.29206455 0.0035385033 -0.060583398 0.25643632
0.2377629 -0.22836146 0.22482939 -0.038241245 0.17944472 -0.12104932 0.047438197 -0.0031940031
-0.10042225 -0.14390948 0.05799077 0.05537572 0.1413129 0.22674055 0.07282284 0.26551825
0.21701165 -0.02095623 -0.006241892 0.27698317 -0.12652422 -0.3289037 0.28366172 -0.28394455
-0.17425196 -0.056815434 -0.17630567 -0.10530965 0.039579313 0.05728189 -0.101525776 0.28625184
0.23272093 -0.3126548 -0.21323028 0.09550881 -0.21924064 -0.022890346 0.3320069 -0.14171436
-0.24675497 0.28625542 0.13329352 0.13676754 -0.31898946 0.21818557 0.20581426 -0.045012552
-0.0006923702 -0.088755004 -0.10730603 0.012702609 0.1776038 -0.08093683 0.28784963 -0.19796643
0.17946404 -0.2989883 -0.072370715 -0.05160395 0.28248072 0.10813813 -0.15678105 0.045621037
-0.22572641 0.246831 -0.058412183 -0.19618717 -0.057611614 -0.098630175 -0.28545323 0.20832264
0.038508445 -0.32911608 0.314615 -0.21718606 0.10615121 -0.2823355 -0.1592803 -0.05633052
-0.16642775 0.19055818 -0.1138453 0.079457544 0.07041635 0.19060539 0.017893419 0.001919611

model.10.bias f4 [16]
00000000: 3ee3 fcbd 6e23 763e b0e7 c43d 0d81 3a3e
00000010: cd32 d83c 7e27 22bd f832 033e 2859 373e
00000020: 7ce1 263e 91a2 08bd a511 1cbe 1fcf 233e
00000030: dbb6 38be 97b7 9fbd 4dec c73d a726 69bd
-0.123480305 0.24036953 0.096145034 0.18213291 0.026391411 -0.039588444 0.12812412 0.17905104
0.16296953 -0.03335816 -0.15241106 0.15996979 -0.18038504 -0.07798689 0.09761868 -0.056921627

model.12.weight f4 [16, 16]
00000000: 9cd3 08bd a091 8bbc 1808 c8be 6504 193d
00000010: 58d0 95be 866e cebc 099c 62be fd31 323d
00000020: 49d3 febd b5a6 3cbc 277e 853d 17cc 6a3e
00000030: 2d96 d03d 24e2 473e 206f f0bd c2d8 22be
00000040: 747b b1be 4ff9 913d 7fe3 793e ba65 37bc
00000050: c65d 0d3d 1dd2 a73d 1ee6 a33e c03d 97bd
00000060: ca3d dd3d 41c4 b0be b4ff d9bd e612 ef3d
00000070: a784 8dbd 9782 bbbe 6402 673e 68d7 b63e
00000080: c6ee 0ebe cfb0 2abd 152b 9fbd 71bb aa3e
00000090: 6f6b 153e b53b a2bd f8ac a33e c66b 183e
000000a0: 8e03 b93d 6512 6cbd 952a 85be 332d 0a3c
000000b0: 3186 7fbe 25bd 063e 1453 ac3e a2d0 d0bd
000000c0: ddf2 73be f9aa 01be a561 9a3e 24c5 fc3d
000000d0: 1014 133e 3043 19be 9858 90bd 9400 a03e
000000e0: c610 aa3e 70d5 90be ec8a 8fbe 3694 023c
000000f0: 5a73 cd3d f036 a9bd 3429 033e 8289 233e
00000100: 49eb b5bc 9e95 a93e 92a8 ae3e 52d8 f43d
00000110: 7374 953e 590f 78be 0eae 4a3e 4f5e d23d
00000120: beca 403e 1ab3 94bc ada4 9fbc 5263 6cbe
00000130: 3658 0b3c dbdc a7bd bd53 7fbd 7f64 0abd
00000140: 9acd 893e 0504 67be 59c6 43be f16e 25be
00000150: 9d45 a0bd 6590 53bd 40d0 8abd d76d dfbd
00000160: ac2e 98be 7fa6 cfbd 00ca a93e 357a 373e
00000170: 584c 5dbd 533f 5f3e 54e0 253b 848a 80be
00000180: 6171 1bbe 8e4a e53c 7cc6 fe3d 23bf 8f3e
00000190: 6164 a13e 1d99 afbd 05c5 503e 2ca8 d0bb
000001a0: 90bd ccbd f623 80be 8e29 a1be e15a 443e
000001b0: c4c5 4ebe 68a1 99be 6bc3 9a3e 060b a6bd
000001c0: 0f15 cdbd dc03 883e 1ea1 53bd a00e dcbd
000001d0: 5e54 8a3c 5a25 bebe 36aa 263e ef74 8a3e
000001e0: 6425 593e b533 e13d 63c5 003e bb33 b0bc
000001f0: 9ba1 33be 9920 abbe d67f 06be 985d 333e
00000200: 9606 743e 6798 9abe f4a2 57be e388 66bc
00000210: 6cdc 91bd 1902 183e e8b1 42be b060 69be
00000220: 64bf 7fbe f04c 313e 3070 a73d 9045 283e
00000230: fd35 12be 68ed 323e ac24 dabd 3c81 aabe
00000240: 5f1b 82be fbbd e1bd b352 653c 9edf 973d
00000250: f24d e43d d765 6bbe 7b1d 84bd 192c 35bd
00000260: d54e 20bc f586 2fbe a88b 54bc f9b8 9ebe
00000270: 156c b5be 5d79 a2bc 433e 953e 6b34 4c3e
00000280: 8118 ce39 01d4 f1bd e138 c73e 1848 fe3c
00000290: ad36 ef3d df28 c0bd 88e8 42bd 9a4e 9ebb
000002a0: a8b1 4d3e de6d 96be b7c9 c4bd 4abd 65be
000002b0: 11a7 023c 52aa c6bd 5ae8 c4bc 5822 b03e
000002c0: 87f8 acbb 23c2 483d 2ff5 56be 0073 9bbc
000002d0: 3a25 9d3d 7aa8 09be 94dc 12be 3a7c 23bd
000002e0: 10be 62be 154f 9e3e b43d 433e 46a4 723e
000002f0: dd2a a43e 2cc7 c03d 9944 36be d5fb 6cbe
00000300: d7e6 a8bd e5bf 703e dc61 a93e 885a 3d3e
00000310: 7768 40bc 8052 90be cd32 043d 0554 493d
00000320: b50f 0f3e e66e 93be 61ed 42be 8043 febd
00000330: 2adb a3bd 1bca 10be cdba 2cbd 639b b83d
00000340: 7f00 8ebe 35e9 6b3e b564 74bd cf13 913e
00000350: 27bc 4e3d 6bed 29be 5bd1 0e3e 2c97 a0bd
00000360: 9ab7 c43d 213f a0bd a582 c73d c80c 22be
00000370: 1ced a1be 7f2e 77be 15a5 493e ad05 713d
00000380: f8d9 48bc 3768 903e d0dc ae3e b96e 85bd
00000390: 6ef7 b33e 59b0 cdbd 2a20 95bc 9f0e 1a3c
000003a0: bf2c 64bd 593f 49bd fe37 fbbd e98b 59be
000003b0: a8c8 39bd 6e91 5abe 08f8 923e 6ca8 603e
000003c0: 5999 2ebd 1d3c f6bd 96f0 96bb 4a66 3abe
000003d0: 7945 fcbd 007f 263e 8a4a 8ebe 5a66 adbe
000003e0: cff2 a2be bcf3 07bc a353 1cbe 8d45 9e3d
000003f0: 8244 813e 9499 bbbd de29 45be 542b 22be
-0.03340493 -0.017037213 -0.39068675 0.037357707 -0.29260516 -0.025199186 -0.22129835 0.043504704
-0.12442643 -0.011514355 0.06518202 0.22929417 0.10184894 0.1951986 -0.117399454 -0.15902999
-0.346645 0.0712763 0.24403189 -0.011193687 0.034513257 0.08194373 0.32011503 -0.07384825
0.10802801 -0.3452473 -0.106444746 0.116735265 -0.06910067 -0.3662307 0.22559506 0.35711217
-0.13958272 -0.041672524 -0.07771889 0.3334613 0.14591764 -0.079215445 0.31967902 0.14884862
0.09033881 -0.05763473 -0.2600905 0.008433628 -0.24953534 0.1315809 0.33657134 -0.101960436
-0.23823114 -0.12662877 0.30152622 0.12342289 0.14363122 -0.14967036 -0.07048148 0.3125044
0.33215922 -0.2828784 -0.28035676 0.007969907 0.10031767 -0.082624316 0.12808686 0.15970424
-0.02220692 0.3312196 0.34112984 0.11955322 0.29190406 -0.24224605 0.19792959 0.10271894
0.1882734 -0.018151809 -0.019487703 -0.23084763 0.008504918 -0.08196422 -0.06233572 -0.033787247
0.26914674 -0.22560127 -0.19118632 -0.16155602 -0.07825778 -0.051651377 -0.06778002 -0.10909622
-0.29723108 -0.101391785 0.33161926 0.17917712 -0.054027885 0.218015 0.0025310712 -0.2510568
-0.1517997 0.027989652 0.12440202 0.28075513 0.31521896 -0.08574126 0.20387657 -0.006367704
-0.09997094 -0.25027436 -0.31477016 0.19175293 -0.20192629 -0.30005956 0.30227217 -0.08107571
-0.10013782 0.26565444 -0.051667325 -0.10744977 0.016885933 -0.37137872 0.16275868 0.27042338
0.2120567 0.109961905 0.12575297 -0.021509042 -0.17542116 -0.33423308 -0.13134703 0.17516172
0.23830637 -0.301944 -0.21058255 -0.014070722 -0.0712212 0.1484455 -0.19013178 -0.2279079
-0.24975353 0.17314506 0.08175695 0.16432786 -0.14278407 0.17473376 -0.10651526 -0.33301723
-0.25411507 -0.11022564 0.013996768 0.074156985 0.111476794 -0.22988068 -0.064509355 -0.044231508
-0.00978442 -0.17141326 -0.01297275 -0.31000498 -0.35434023 -0.019833261 0.29149064 0.19941871
0.0003930964 -0.11808015 0.38910583 0.031040236 0.116803505 -0.093827955 -0.04758504 -0.0048311474
0.20087302 -0.29380697 -0.096087866 -0.2243549 0.007974402 -0.09700455 -0.024036575 0.34401202
-0.00527865 0.04901327 -0.20991968 -0.018975735 0.07673116 -0.13443175 -0.14341956 -0.039913394
-0.22142816 0.3091971 0.19066507 0.23695478 0.32063952 0.09412989 -0.17799605 -0.23142941
-0.08247154 0.23510702 0.33082473 0.18491566 -0.011743656 -0.28187943 0.03227501 0.049152393
0.13970836 -0.28795546 -0.19035865 -0.12415218 -0.080007866 -0.14139597 -0.042170335 0.09014013
-0.27734753 0.2303818 -0.059666354 0.28335425 0.050472405 -0.16594474 0.1394705 -0.07841334
0.09605332 -0.07824541 0.09741715 -0.15825188 -0.31626213 -0.2413883 0.1969188 0.058843303
-0.012258999 0.2820451 0.34152842 -0.06515259 0.3514971 -0.10043401 -0.018203814 0.0094029
-0.055706736 -0.04913268 -0.12266539 -0.21244778 -0.045357376 -0.2134454 0.28704858 0.21939248
-0.042626712 -0.120231844 -0.004606317 -0.18203083 -0.12317938 0.16259384 -0.27791244 -0.3386715
-0.31825873 -0.008297857 -0.1526628 0.077281095 0.2524758 -0.09160152 -0.19254252 -0.15836841

model.12.bias f4 [16]
00000000: a498 d4bc e6b0 c5bd 6472 753e 28ee 0e3e
00000010: 5882 e63c 9d0b 9a3c 75a7 813e 3e28 a03e
00000020: 72c9 16be 36ed aa3d d359 af3d 3427 73be
00000030: eac4 303d 863e 443c a27f 7f3e 1db1 b53d
-0.025951691 -0.09652881 0.23969418 0.13958037 0.028138325 0.018804366 0.25323072 0.31280702
-0.14725283 0.08346026 0.085620545 -0.23745424 0.043156542 0.011977797 0.24951032 0.08871672

model.14.weight f4 [1, 16]
00000000: d15e 4f3e 4da4 2ebe b310 6cbe 37fa 6dbe
00000010: 4f5e 5dbe 0a56 6f3e 47fc a3be a0e0 46be
00000020: 5ec9 9e3e 64de 9dbe edff 1ebe 96f3 673e
00000030: 9a85 babe fe93 8fbe 96fd 16be 757f a63e
0.20251013 -0.17054863 -0.23053245 -0.2323998 -0.21618007 0.23372665 -0.3202841 -0.19421625
0.31013006 -0.30833733 -0.15527315 0.22651514 -0.36430055 -0.28042597 -0.14745173 0.32519117
