NeuralGalerkin/models/autosave/Gen_3_Loss_0.27581501.pt (torch, 192967 bytes, 15 tensors)

model.0.weight f4 [16, 2]
0	0xbe737e4a	-0.23778644
1	0xbe4afb96	-0.19822535
2	0x3f07395b	0.5282189
3	0x3ea60a2d	0.32429639
4	0xbe3bc157	-0.18335472
5	0xbf0da516	-0.55330026
6	0xbe05b7ab	-0.13058345
7	0xbed15363	-0.40883932
8	0x3ecbe970	0.39826536
9	0xbf294955	-0.6612752
10	0x3f0fdd5e	0.56197155
11	0xbe8761cc	-0.264418
12	0xbec25b0e	-0.37960094
13	0xbec1355f	-0.3773603
14	0x3e453db3	0.19261818
15	0xbe787e45	-0.24266918
16	0xbd80469d	-0.062634684
17	0x3f0a1ae5	0.5394729
18	0x3e510f47	0.20415984
19	0x3e95d76d	0.2926592
20	0x3e2949f5	0.16532119
21	0x3e183462	0.14863732
22	0x3e06b3e0	0.13154554
23	0x3f283423	0.65704554
24	0x3e181048	0.14849961
25	0x3ea0627f	0.31325147
26	0x3f05d566	0.52278745
27	0xbe647b6c	-0.22312707
28	0x3ea13b9a	0.31490785
29	0xbf37580e	-0.71618736
30	0x3ea1fb45	0.31637016
31	0x3ee8a326	0.45436972

model.0.bias f4 [16]
0	0xbd4f4c9b	-0.050610166
1	0x3d138d97	0.036023702
2	0xbc50ddb2	-0.012748169
3	0xbf2604bb	-0.6485097
4	0x3cc32000	0.02381897
5	0xbf0d8d45	-0.55293685
6	0xbe4aafa6	-0.19793567
7	0x3f012ab4	0.50455785
8	0x3e6b7cd0	0.22996831
9	0x3f149bf4	0.58050466
10	0x3ea99ee7	0.33129045
11	0x3df28768	0.11842233
12	0xbeea71fb	-0.45790085
13	0x3ebae2d2	0.36501175
14	0xbf2b670a	-0.669541
15	0x3d4058a6	0.04695954

model.2.weight f4 [16, 16]
0	0xbe2cbf29	-0.16869797
1	0x3e25cb82	0.16190913
2	0xbe4bf135	-0.19916232
3	0xbc98dade	-0.018659052
4	0xbd3fb751	-0.046805684
5	0xbd6e74db	-0.05821691
6	0xbe3d9311	-0.18513133
7	0xbe4077bc	-0.18795675
8	0x3e3ba43d	0.1832437
9	0xbe4a40a7	-0.19751225
10	0x3e1db811	0.15402247
11	0xbdf75ece	-0.120786294
12	0xbd96aa57	-0.073567085
13	0x3db903c4	0.09033921
14	0xbe8afc12	-0.2714544
15	0xbe4629ae	-0.19351837
16	0xbe3be764	-0.18349987
17	0x3e778736	0.24172673
18	0x3e0cf190	0.13764024
19	0xbdd9beae	-0.106320724
20	0xbe95d95f	-0.29267403
21	0xbe2b66c2	-0.16738418
22	0xbe86ba38	-0.2631395
23	0x3e0fe0c5	0.14050587
24	0x3c788874	0.015169252
25	0xbd124a40	-0.03571534
26	0x3e95dcf4	0.29270136
27	0x3e5a95a0	0.2134614
28	0x3e36757e	0.17818257
29	0xbd534228	-0.051576763
30	0xbc88815c	-0.016663246
31	0x3e5218a4	0.20517212
32	0xbe23849d	-0.15968557
33	0x3dca33ee	0.09873186
34	0x3d988950	0.07448065
35	0x3e3154e9	0.17317547
36	0xbd810afa	-0.06300922
37	0xbe4fd87b	-0.20297424
38	0x3bae7ca6	0.005324918
39	0x3e48cd1f	0.19609497
40	0x3dc087d6	0.09400909
41	0x3d1251ca	0.03572253
42	0xbdb16b93	-0.08663096
43	0xbd8fb1d7	-0.07016342
44	0x3cbe133d	0.023202533
45	0x3d890098	0.066895664
46	0xbe947cd5	-0.2900149
47	0x3e39b7de	0.18136546
48	0x3d26afea	0.04069511
49	0xbdc0332f	-0.093847625
50	0x3d8ab031	0.06771887
51	0xbdc84763	-0.09779241
52	0xbd8928fc	-0.0669727
53	0x3d62eb5a	0.05540023
54	0xbe47d686	-0.19515428
55	0xbd30030c	-0.042971656
56	0x3df8f373	0.12155809
57	0x3e05c824	0.13064629
58	0x3ddb5b51	0.107107766
59	0xbdc4e4f2	-0.0961398
60	0xbe37f6cf	-0.17965244
61	0x3e85cd68	0.26133275
62	0xbe1a85da	-0.15090123
63	0xbc29090e	-0.0103171
64	0x3d78785d	0.060661662
65	0x3e88f869	0.26752022
66	0xbd8abb2a	-0.0677398
67	0xbe1807f3	-0.14846782
68	0xbe007d3c	-0.12547773
69	0xbe636a5b	-0.2220854
70	0xbd9e1418	-0.07718676
71	0x3df3ff9c	0.11913988
72	0x3d886c6f	0.06661307
73	0x3b453863	0.0030093424
74	0xbe166902	-0.14688495
75	0xbe5c8795	-0.21536095
76	0xbdcb32fa	-0.099218324
77	0x3d9e0ba3	0.07717063
78	0xbd98392d	-0.074327804
79	0x3dbf319f	0.09335636
80	0x3d25723f	0.040392157
81	0x3cfd86c4	0.03094805
82	0xbe2c4d33	-0.16826324
83	0x3e794e81	0.24346353
84	0x3e68dbc5	0.22740085
85	0x3c2ccbbe	0.010546623
86	0x3e7d9f0d	0.24767704
87	0x3db05c05	0.08611301
88	0x3dd4e2e1	0.10394836
89	0xbe001bf6	-0.12510666
90	0xbe680a95	-0.22660287
91	0x3e3636db	0.17794363
92	0x3e749532	0.23885038
93	0x3cf49fa5	0.02986128
94	0xbd1276d5	-0.03575786
95	0xbc841a74	-0.016125895
96	0xbdbb2b58	-0.091391265
97	0xbe8964c8	-0.26834702
98	0x3e6d159f	0.23152779
99	0x3e83f496	0.25772542
100	0x3d9a7b49	0.07543046
101	0x3c6c9e89	0.014442095
102	0x3dd0fc4c	0.10204372
103	0xbe8b9039	-0.2725847
104	0xbd812d8d	-0.06307516
105	0xbe7c3087	-0.24627887
106	0x3e057dc8	0.13036263
107	0xbe7092dc	-0.23493522
108	0xbdda39eb	-0.10655578
109	0xbc6e6ecd	-0.014552784
110	0x3e81de59	0.2536495
111	0xbc9da12f	-0.019241897
112	0x3e23636a	0.15955892
113	0xbe9655a6	-0.2936222
114	0x3ea2a176	0.3176381
115	0xbcecfd09	-0.02892925
116	0x3e2a9127	0.16656934
117	0x3d62cdf5	0.055372197
118	0x3ea0544a	0.31314307
119	0xbd046c86	-0.03233006
120	0xbe39d4a9	-0.1814753
121	0x3d73409c	0.05938779
122	0xbe4b2944	-0.1983996
123	0x3e237e3e	0.15966126
124	0xbe3a88b1	-0.18216206
125	0x3e15352d	0.14571066
126	0xbd32c84d	-0.043648053
127	0xbd819c3e	-0.06328629
128	0x3e019a2e	0.12656471
129	0x3e3b40a3	0.18286376
130	0xbe571817	-0.21005283
131	0xbe93f5b5	-0.28898397
132	0x3e0eb57b	0.13936417
133	0xbdf98b42	-0.121847644
134	0xbe1415bf	-0.1446142
135	0x3e6b177c	0.22958177
136	0xbd9f8713	-0.07789435
137	0x3de33e9d	0.11095927
138	0xbdb21ae2	-0.08696534
139	0x3ccc9cfa	0.024977196
140	0xbd30d903	-0.04317571
141	0xbe2b673e	-0.16738603
142	0xbe159fa6	-0.14611682
143	0xbd079992	-0.03310544
144	0xbe7b5176	-0.24542794
145	0x3e21c9da	0.15799657
146	0x3dde84de	0.10865186
147	0xbe969f39	-0.29418352
148	0xbe6b3345	-0.22968777
149	0xbdac8fdc	-0.084258765
150	0xbe8df9f5	-0.27729765
151	0x3e4fda67	0.20298158
152	0x3cb3a653	0.021929896
153	0x3e1dab5f	0.15397404
154	0x3cb48b0b	0.022038957
155	0xbca6716b	-0.020317754
156	0xbb08fb3b	-0.0020901698
157	0xbd6c9fbb	-0.05776952
158	0xbe97f3a1	-0.29678062
159	0x3b8a54fc	0.0042215567
160	0xbe1556fb	-0.14583962
161	0xbe13c684	-0.14431196
162	0x3e8e4107	0.27783987
163	0x3e72e183	0.23718838
164	0x3d32e08f	0.043671187
165	0x3e393aa2	0.18088773
166	0x3e75bd0c	0.23997897
167	0xbe489926	-0.19589671
168	0x3d88117e	0.06643961
169	0x3d17c1b4	0.037049964
170	0x3d4dc696	0.050238214
171	0xbe5de07c	-0.21667665
172	0x3cdc9e4d	0.026930952
173	0x3d493e33	0.049131583
174	0x3ba1091f	0.0049144174
175	0xbe873390	-0.26406527
176	0x3caff6e6	0.021480035
177	0xbe966dfb	-0.29380783
178	0xbd9f7ebb	-0.07787844
179	0xbdc8a51f	-0.09797119
180	0x3e0800c3	0.1328154
181	0x3d6bc1ec	0.057557985
182	0xbe02fc9a	-0.12791672
183	0xbe9436d9	-0.28948095
184	0xbe8c823d	-0.27443114
185	0x3c8a5de4	0.016890474
186	0xbe45d9bb	-0.19321339
187	0xbe46f043	-0.1942759
188	0xbd8d7619	-0.06907291
189	0xbe0aca00	-0.1355362
190	0x3e88960f	0.26676986
191	0x3d390830	0.045173824
192	0x3e33f8e1	0.17575409
193	0xbe03ed43	-0.12883477
194	0xbe4f06d5	-0.2021745
195	0xbe2af330	-0.16694331
196	0xbce77928	-0.028256014
197	0xbe1acf55	-0.15118153
198	0xbe91cf56	-0.28478497
199	0x3e2579ff	0.16159819
200	0x3d867876	0.06565945
201	0xbbb118db	-0.0054045743
202	0xbd1ee281	-0.03879023
203	0xbd835af3	-0.064138316
204	0xbd7bd14d	-0.0614789
205	0x3e5adbeb	0.21372955
206	0xbe48fa46	-0.19626722
207	0x3e7ff184	0.24994475
208	0x3d61630d	0.055026103
209	0xbe1260cf	-0.14294742
210	0xbd4f7e27	-0.050657418
211	0xbcc28ee0	-0.023749769
212	0x3e56e08d	0.20984097
213	0xbe561bc0	-0.20909023
214	0xbd38d8ae	-0.045128517
215	0x3d4f6818	0.05063638
216	0xbdd2deca	-0.102964
217	0xbd11422e	-0.035463504
218	0x3dc37644	0.09544042
219	0x3d3a4349	0.045474324
220	0x3d8f5919	0.06999416
221	0xbe422dd9	-0.18962802
222	0x3dd9d993	0.10637202
223	0x3e1b1aae	0.15146896
224	0xbe1179ed	-0.14206667
225	0x3c811ce1	0.01576084
226	0x3dfcca58	0.123432815
227	0xbd0025c5	-0.03128602
228	0x3ea54499	0.32278898
229	0x3d89f188	0.067355216
230	0x3cb61383	0.0222261
231	0x3e27f6f6	0.16402802
232	0xbe51eba4	-0.20500046
233	0xbe6b7f29	-0.22997727
234	0xbe7ae636	-0.24501881
235	0xbe4a65db	-0.19765417
236	0xbde46a35	-0.1115307
237	0x3c3ea376	0.011635652
238	0x3e270ecf	0.16314243
239	0xbe47c454	-0.19508487
240	0x3e02a357	0.12757622
241	0xbd2d28e5	-0.04227533
242	0x3e07cf57	0.13262688
243	0xbdd849dd	-0.10560963
244	0x3e130587	0.14357577
245	0x3e81a122	0.25318247
246	0xbd9acd98	-0.07558745
247	0xbdc54531	-0.09632338
248	0xbe9ebdcb	-0.31004176
249	0xbe9f9c82	-0.31174093
250	0x3db47ec0	0.08813238
251	0x3e006b93	0.12541036
252	0xbe177414	-0.14790374
253	0x3de5614a	0.11200197
254	0x3e6fe03f	0.23425387
255	0x3d2761a4	0.0408646

model.2.bias f4 [16]
0	0x3dc14b5d	0.094382025
1	0x3e9f0f3b	0.31066307
2	0x3e6f3481	0.23359872
3	0x3d9e4ef7	0.07729905
4	0x3d3c07eb	0.04590599
5	0xbe2bf12a	-0.16791216
6	0x3e36a300	0.17835617
7	0xbdd14cae	-0.102197036
8	0xbd7100ed	-0.058838774
9	0x3d89aa6c	0.067219585
10	0x3c042e57	0.008067689
11	0x3c5ae743	0.013360801
12	0x3df16c2a	0.11788209
13	0x3e3cdbb2	0.18443182
14	0xbe16921a	-0.14704171
15	0xbd34dc2d	-0.04415529

model.4.weight f4 [16, 16]
0	0x3e840ab8	0.25789428
1	0x3e0acf24	0.1355558
2	0x3e3293a1	0.17439128
3	0x3de95af2	0.113942996
4	0x3d1ecec1	0.038771395
5	0x3e2248de	0.15848109
6	0xbe44e7f0	-0.19229102
7	0x3e0e81ab	0.13916652
8	0x3d44f125	0.048081536
9	0xbd22057b	-0.039556008
10	0xbda3f048	-0.080048144
11	0xbe9bb779	-0.30413416
12	0x3e866c5e	0.26254553
13	0xbd953490	-0.07285416
14	0x3e20c49f	0.15700005
15	0xbe8e220d	-0.27760354
16	0x3def48e6	0.11683826
17	0xbe2368d9	-0.15957965
18	0xbe8ff80e	-0.28118938
19	0x3dfb1e63	0.12261655
20	0x3c77bf2c	0.0151212625
21	0x3d97cece	0.07412492
22	0x3e853dec	0.26023805
23	0x3e238f68	0.15972674
24	0xbe93a3fd	-0.2883605
25	0x3d4471d0	0.047960103
26	0x3e871635	0.2638413
27	0xbdc2672e	-0.09492336
28	0xbdbbe3dd	-0.09174321
29	0x3e2ee939	0.17081155
30	0x3e6a6bef	0.22892736
31	0x3e3fa106	0.1871377
32	0x3e4631ee	0.19354984
33	0xbcabd8fb	-0.020977488
34	0xbdeabf5e	-0.11462282
35	0x3e738ca5	0.2378412
36	0xbd237f37	-0.039916243
37	0x3cd77628	0.026301458
38	0xbdd4a01d	-0.10382102
39	0xbc967fdd	-0.018371517
40	0xbde8571f	-0.11344742
41	0x3dbafae8	0.09129888
42	0x3d9f4e20	0.07778573
43	0x3dfb4562	0.12269093
44	0x3e5e4f80	0.21710014
45	0xbd091414	-0.033466414
46	0xbdf4d613	-0.11954894
47	0xbdfb7b74	-0.12279406
48	0xbca14565	-0.01968641
49	0xbb197a2f	-0.0023418774
50	0xbdf4d785	-0.119551696
51	0x3ea475f7	0.3212125
52	0x3e230f7f	0.1592388
53	0x3d9c359e	0.07627414
54	0x3e30161e	0.17195937
55	0x3dfead84	0.12435439
56	0xbd33ff04	-0.043944374
57	0x3e0ac0f8	0.13550174
58	0xbe971225	-0.2950603
59	0xbdeeb499	-0.1165554
60	0x3e650532	0.22365263
61	0xbcc2daaf	-0.023785917
62	0xbd010bd1	-0.03150541
63	0xbd49962c	-0.04921548
64	0xbd9d703c	-0.07687423
65	0xbe018c8b	-0.12651269
66	0xbd36f76e	-0.04466956
67	0x3dc8a56c	0.09797177
68	0xbda3b9e1	-0.07994438
69	0x3c446b9d	0.011988548
70	0xbe49b68e	-0.19698545
71	0xbcdfc8a5	-0.027317354
72	0xbc260195	-0.010132213
73	0xbd582717	-0.052771654
74	0xbdd1195d	-0.10209916
75	0xbe548213	-0.20752744
76	0x3ea352ee	0.31899208
77	0xbe1bbfd7	-0.152099
78	0x3db10a91	0.086445935
79	0xbe283327	-0.16425763
80	0xbe40217e	-0.18762776
81	0xbe826c58	-0.25473285
82	0xbdb893f6	-0.09012596
83	0x3d0d3fc1	0.03448463
84	0xbe64daa8	-0.22349036
85	0x3e883308	0.26601434
86	0x3db8e92e	0.090288505
87	0x3e225db0	0.15856051
88	0x3ab10b25	0.001350735
89	0x3e02aee2	0.12762025
90	0x3d9e0aef	0.07716929
91	0x3e7a15ac	0.2442233
92	0x3e0ce74d	0.13760109
93	0x3cf320f9	0.029678809
94	0x3e2002fc	0.15626138
95	0xbe19a79a	-0.15005341
96	0x3d028af4	0.031870797
97	0x3e158299	0.146006
98	0xbe3223ed	-0.17396517
99	0xbe8cf2b3	-0.27528915
100	0xbe47ba70	-0.19504714
101	0xbe0f5783	-0.13998227
102	0x3e811547	0.25211546
103	0x3dc507e6	0.09620647
104	0xbda55e4b	-0.080746256
105	0xbe65113a	-0.22369853
106	0xbe24da4e	-0.16098902
107	0xbcf49d24	-0.029860087
108	0x3e2693fa	0.16267386
109	0x3e4625c3	0.19350342
110	0x3d6e0455	0.0581096
111	0x3e912ff9	0.28356913
112	0xbe506fa2	-0.20355085
113	0x3df4c70b	0.11952027
114	0xbe320bc6	-0.17387304
115	0xbea4bcf7	-0.3217542
116	0x3de5d0cf	0.11221468
117	0x3e473a09	0.19455732
118	0xbe29a47c	-0.16566652
119	0x3e425f90	0.18981767
120	0x3d4db936	0.05022546
121	0xbe7500be	-0.23926064
122	0x3e34241a	0.17591897
123	0x3e494725	0.19656046
124	0xbdf1a597	-0.11799162
125	0x3d224fee	0.03962701
126	0xbdb6ae62	-0.0891998
127	0x3e72e1fa	0.23719016
128	0xbe876f36	-0.26452035
129	0xbc8472df	-0.016168056
130	0xbd8de3ca	-0.06928213
131	0xbd03f9b4	-0.032220557
132	0xbe596be3	-0.21232562
133	0xbe0656d2	-0.13119057
134	0xbdfe7b7e	-0.12425898
135	0x3e8885c5	0.26664558
136	0xbea82710	-0.32842302
137	0x3d8cc99d	0.06874392
138	0x3d390515	0.045170862
139	0x3d31dabf	0.043421503
140	0xbda99f93	-0.082823895
141	0x3e53c35c	0.20679992
142	0x3e537b5d	0.20652528
143	0x3e7dfac6	0.24802694
144	0x3e947b16	0.29000157
145	0x3e8f4621	0.27983192
146	0xbd20b00e	-0.0392304
147	0x3e55d8ce	0.20883486
148	0xbbd72ad0	-0.006566383
149	0xbda07611	-0.078350194
150	0xbd7cc9af	-0.061715778
151	0x3dacd8ac	0.084397644
152	0x3d391757	0.045188274
153	0xbcea8860	-0.028629482
154	0xbc2d9b41	-0.010596097
155	0xbe921773	-0.28533515
156	0x3e9c746a	0.30557567
157	0x3d43245e	0.047642104
158	0x3e091737	0.13387762
159	0xbe6747eb	-0.22586028
160	0xbdd6efaf	-0.10494935
161	0x3e162c37	0.14665304
162	0xbe0405cd	-0.12892838
163	0xbdd0c290	-0.1019336
164	0xbe26c682	-0.16286662
165	0x3e0b8835	0.13626178
166	0x3d7572a7	0.059923794
167	0x3e4caa22	0.19986776
168	0xbdec6717	-0.115431
169	0xbe95b1ac	-0.29237115
170	0x3dbcdfc2	0.09222366
171	0x3e721189	0.23639502
172	0x3da835b0	0.08213365
173	0x3dc8d46f	0.098061435
174	0x3e0b1810	0.13583398
175	0x3e31572f	0.17318414
176	0xbe3119cf	-0.17295001
177	0x3df038c8	0.1172958
178	0xbd25f992	-0.040521212
179	0xbe1eccb3	-0.15507774
180	0x3dc5e6c8	0.09663159
181	0xbd5d939a	-0.054095842
182	0x3e543fef	0.20727514
183	0x3def972c	0.116987556
184	0x3c7c97a7	0.015417016
185	0x3cbb182b	0.022838673
186	0x3e34eec8	0.17669213
187	0x3e712421	0.23548938
188	0xbe4183d1	-0.1889794
189	0xbdd2c730	-0.10291898
190	0x3db68968	0.08912927
191	0x3e3ee581	0.18642236
192	0x3e7fe3c3	0.24989228
193	0xbe27944f	-0.16365169
194	0x3e7a94ec	0.24470872
195	0x3ea0dd2c	0.3141874
196	0x3c870048	0.016479626
197	0x3e262d63	0.16228251
198	0xbe4f1f78	-0.20226848
199	0xbe4a0e64	-0.19732052
200	0x3c4033b8	0.011731081
201	0x3e4f6a4c	0.20255393
202	0xbe693f5c	-0.22778076
203	0xbe7c5373	-0.24641208
204	0xbdab27f3	-0.08357229
205	0x3d929a57	0.07158344
206	0xbe35ac30	-0.17741466
207	0xbd913db0	-0.07091844
208	0x3c121c87	0.008917934
209	0xbe77f9cf	-0.24216388
210	0x3dee541a	0.11637135
211	0xbe852631	-0.260057
212	0x3e1144f9	0.14186467
213	0x3e913d47	0.28367063
214	0x3d1ece64	0.03877105
215	0x3ce045f9	0.027377116
216	0xbe90a6cb	-0.28252253
217	0x3d997609	0.074932165
218	0x3d15314f	0.036423977
219	0x3d0c9249	0.034319196
220	0xbe9aa79a	-0.30205995
221	0xbcb23137	-0.021751983
222	0x3e1f6817	0.15567051
223	0x3e4b3af4	0.19846708
224	0xbe8cfdf3	-0.27537498
225	0xbe8d290b	-0.27570376
226	0xbe56eb0c	-0.20988101
227	0x3d75fbcc	0.060054585
228	0x3dadafd9	0.08480806
229	0xbd4e9468	-0.0504345
230	0x3e8afa27	0.27143976
231	0x3e87cf37	0.2652528
232	0xbe2a6994	-0.16641837
233	0x3e231408	0.1592561
234	0xbdef6b3d	-0.11690376
235	0x3e7b572b	0.2454497
236	0x3b2e83d2	0.0026628864
237	0xbd8fe8d8	-0.07026833
238	0x3dbc7b1d	0.092031695
239	0x3e947315	0.2899405
240	0xbdf4e46e	-0.11957632
241	0xbd436ca5	-0.047711033
242	0xbd25fa81	-0.040522102
243	0xbdaa049c	-0.083016604
244	0xbddb4578	-0.107066095
245	0xbe939d75	-0.28831068
246	0x3dda1e84	0.10650352
247	0xbd5940ed	-0.053040434
248	0x3e37c2b3	0.17945366
249	0x3d9cc96e	0.07655607
250	0xbe5f12e5	-0.21784551
251	0xbe49891d	-0.19681211
252	0x3e389504	0.18025595
253	0x3e3e9141	0.18610097
254	0xbdb26bcf	-0.08711969
255	0x3d848930	0.06471479

model.4.bias f4 [16]
0	0x3ca5820d	0.020203615
1	0xbcc29ec1	-0.02375734
2	0x3e108e56	0.14116797
3	0x3d99a875	0.07502834
4	0xbd21568d	-0.039389182
5	0xbdcd15c0	-0.10013914
6	0x3e2cb93f	0.16867541
7	0xbe7624ff	-0.2403755
8	0xbdcbd0fb	-0.09951969
9	0xbcd814d6	-0.026377123
10	0xbe102019	-0.14074744
11	0x3e5a7444	0.21333414
12	0x3d7acf0d	0.061232615
13	0x3e2185c0	0.15773678
14	0xbd89dd87	-0.06731706
15	0x3e14c7c8	0.14529335

model.6.weight f4 [16, 16]
0	0x3de01e3e	0.10943268
1	0x3e05434a	0.1301395
2	0xbddeeb33	-0.108847044
3	0xbe47c284	-0.19507796
4	0x3e76db1f	0.24107026
5	0x3df55c96	0.1198055
6	0xbe039a06	-0.12851724
7	0x3e1ca29d	0.15296407
8	0x3de64bf8	0.11244959
9	0xbe702102	-0.23450091
10	0xbdaaefca	-0.083465174
11	0xbe84b17d	-0.25916663
12	0xbdebb911	-0.11509908
13	0xba989c90	-0.0011643339
14	0x3e735ae7	0.23765145
15	0xbe1edfbf	-0.1551504
16	0xbe1c6ff3	-0.1527708
17	0xbcf0c468	-0.029390529
18	0x3e84edb2	0.25962597
19	0xbcb6869f	-0.02228099
20	0x3e28a515	0.16469224
21	0x3cde36fc	0.027125828
22	0x3d8738ac	0.06602606
23	0x3daa6cf1	0.0832156
24	0x3d873018	0.0660097
25	0x3db00ab9	0.08595795
26	0xbe99b074	-0.30017436
27	0xbe5178bd	-0.20456214
28	0x3e02dc4a	0.12779346
29	0xbd10abf4	-0.035320237
30	0xbd356f5c	-0.044295654
31	0x3e88a608	0.26689172
32	0xbe99d4b7	-0.300451
33	0x3e903cef	0.2817149
34	0x3e4fa859	0.20279063
35	0xbd158aff	-0.03650951
36	0x3d835b24	0.06413868
37	0x3e790da5	0.24321611
38	0x3e494ad9	0.19657458
39	0x3e972921	0.29523566
40	0x3e38ea30	0.18058085
41	0xbd916aaa	-0.07100423
42	0xbd04eeff	-0.032454487
43	0xbe78a245	-0.24280651
44	0xbdad0e62	-0.08450009
45	0x3e5417dc	0.20712227
46	0xbc3a21cf	-0.0113606
47	0xbe1f4d33	-0.15556793
48	0x3e161841	0.1465769
49	0x3e4092a6	0.18805942
50	0x3df07ce2	0.117425695
51	0xbe2228d7	-0.15835892
52	0xbd73b32d	-0.059497047
53	0x3e70c3d7	0.23512207
54	0x3e260ce1	0.1621585
55	0x3e22792b	0.15866534
56	0x3d9e5dc9	0.07732732
57	0xbe755367	-0.23957597
58	0x3e9936c6	0.299246
59	0x3c900839	0.017582046
60	0xbd203c67	-0.039120104
61	0x3dcd1205	0.100132026
62	0x3e57971b	0.21053736
63	0xbda722a0	-0.08160901
64	0xbe88c090	-0.26709414
65	0x3e8ce539	0.27518633
66	0xbde419f0	-0.1113776
67	0xbe0ae777	-0.1356486
68	0xbe38e7b9	-0.18057145
69	0xbe19a001	-0.15002443
70	0xbe043435	-0.1291054
71	0x3e6284d0	0.22120976
72	0xbe000111	-0.12500407
73	0xbd2e9972	-0.042626806
74	0x3d3962b0	0.04526013
75	0xbdff2f0b	-0.124601446
76	0xbd96d6b2	-0.07365169
77	0xbd32a429	-0.043613587
78	0x3ea86651	0.3289056
79	0xbdd36a32	-0.103229895
80	0x3cdb266c	0.02675172
81	0xbd687cb1	-0.05675954
82	0x3dd881f6	0.10571663
83	0x3e2261d0	0.15857625
84	0x3e7d0163	0.2470756
85	0xbd719f9d	-0.05899011
86	0x3c5c4ca9	0.013446012
87	0xbd6971d9	-0.05699334
88	0xbe9770c4	-0.2957822
89	0xbe269e6a	-0.16271368
90	0xb859b3c0	-5.1904237e-05
91	0xbd95d2b8	-0.07315582
92	0x3e0687f6	0.13137802
93	0xbde65607	-0.11246877
94	0xbcdc1bc2	-0.026868705
95	0x3e6814a9	0.22664131
96	0x3d86f87c	0.065903634
97	0xbd8c682b	-0.06855806
98	0x3d577206	0.052598976
99	0xbdae516a	-0.08511622
100	0xbc86d29d	-0.01645785
101	0x3d50cdbe	0.05097746
102	0xbe06f029	-0.13177551
103	0xbc98a76d	-0.018634522
104	0xbbec5721	-0.007212535
105	0xbe7d20bb	-0.24719517
106	0x3e662417	0.22474705
107	0xbde7bd8c	-0.1131545
108	0x3d420ae4	0.047373667
109	0xbcdbc295	-0.026826182
110	0x3e021d14	0.12706405
111	0x3dce15f0	0.10062778
112	0x3e9897ac	0.29803216
113	0xbe3cfc47	-0.18455611
114	0x3ca07af5	0.01958988
115	0x3e447592	0.19185475
116	0xbe2a3586	-0.1662198
117	0xbe7d522e	-0.2473838
118	0x3e039cb0	0.1285274
119	0xbe65387d	-0.2238483
120	0xbd8c03dd	-0.06836674
121	0xbc2d9235	-0.0105939405
122	0x3d968dce	0.07351266
123	0x3dc12a59	0.09431905
124	0x3db9fe2a	0.09081681
125	0xbddff1cb	-0.1093479
126	0xbceb12fb	-0.028695574
127	0xbe25580f	-0.16146873
128	0xbc0517ab	-0.008123319
129	0xbe43b428	-0.19111693
130	0x3d513d73	0.051083993
131	0x3d0fa06e	0.035065107
132	0x3e015443	0.126298
133	0xbe2e5270	-0.17023635
134	0xbc280ffa	-0.010257715
135	0xbe8a8693	-0.27055797
136	0xbe42bff1	-0.19018532
137	0x3b460270	0.0030213855
138	0x3db923cf	0.09040033
139	0xbe139f21	-0.14416172
140	0x3d17895e	0.036996238
141	0xbe2c4b34	-0.16825563
142	0x3d884f21	0.06655718
143	0xbdc5dcfa	-0.096612886
144	0x3dbac0d7	0.091188125
145	0x3e3ce985	0.18448456
146	0x3d6fae21	0.05851567
147	0xbd8cf19c	-0.06882021
148	0xbd6bab28	-0.057536274
149	0xbd5d2fca	-0.054000653
150	0x3e8068ee	0.25080055
151	0xbda2caee	-0.07948862
152	0x3e7585cf	0.23976825
153	0xbe1f3104	-0.15546042
154	0x3e9be1cd	0.3044571
155	0x3da7cc4a	0.08193262
156	0xbd3eb798	-0.046561807
157	0x3e899cd9	0.26877478
158	0x3e1b81c1	0.15186216
159	0xbc8e9cf7	-0.017408831
160	0xbe0dd48d	-0.13850613
161	0x3d43e3dd	0.04782473
162	0x3e360b2f	0.17777704
163	0xbdd0ba3b	-0.10191771
164	0x3d8db6a1	0.06919599
165	0x3e3b439c	0.1828751
166	0x3d855f79	0.065123506
167	0xbdd7e160	-0.10541034
168	0xbe08a909	-0.13345732
169	0x3e4ef908	0.20212185
170	0x3d39da8e	0.045374446
171	0xbe6bfa6c	-0.23044747
172	0x3e84403e	0.25830263
173	0xbc448112	-0.011993663
174	0xbe33e677	-0.17568384
175	0x3dcbe7ab	0.099562965
176	0xbe433929	-0.19064774
177	0x3e6679a3	0.22507338
178	0x3deb2aa9	0.11482746
179	0x3e0a6246	0.13514051
180	0xbe79aa76	-0.24381432
181	0xbc8e49d3	-0.017369187
182	0x3e392ca5	0.18083437
183	0x3e0a840b	0.13526933
184	0x3e00f2ba	0.12592593
185	0xbd096f9e	-0.033553712
186	0x3e96b2e6	0.29433364
187	0x3e2c8519	0.16847648
188	0xbe982bc3	-0.29720888
189	0x3e0480fd	0.1293983
190	0x3e9b0420	0.30276585
191	0xbe8ae9f6	-0.27131623
192	0xbe97f4b0	-0.2967887
193	0x3ddd24ae	0.10798012
194	0xbdbe24ed	-0.09284387
195	0xbdd8e6be	-0.105908856
196	0xbe48357d	-0.19551654
197	0x3e6393f7	0.22224413
198	0x3c865483	0.01639772
199	0xbd84cf10	-0.064848065
200	0x3e94d1c7	0.29066297
201	0xbe8f7fa3	-0.28027067
202	0x3e382118	0.17981374
203	0x3e153e31	0.14574505
204	0xbe63a29d	-0.22230001
205	0x3e249891	0.16073824
206	0x3e9c1f23	0.30492505
207	0xbe3e63db	-0.1859278
208	0x3eaeec32	0.34164578
209	0xbe4a7cde	-0.19774196
210	0xbd593c95	-0.05303629
211	0x3e302cec	0.17204636
212	0xbd9af088	-0.07565409
213	0xbddc5351	-0.10758079
214	0xbe53d868	-0.20688021
215	0x3e1f297f	0.15543173
216	0xbe9e4750	-0.30913782
217	0xbd65353b	-0.055958968
218	0xbdaec506	-0.08533673
219	0xbc82673c	-0.015918367
220	0x3e2f8d46	0.17143735
221	0x3deef8f3	0.11668577
222	0x3e06686c	0.13125771
223	0x3e7cf76d	0.2470376
224	0x3e57da18	0.2107929
225	0xbdad2737	-0.08454745
226	0x3d3dc387	0.046329048
227	0x3e4b392b	0.19846027
228	0xbd13d7bb	-0.03609441
229	0xbe85b322	-0.2611323
230	0xbe01b4b9	-0.12666596
231	0xbd8110b5	-0.06302015
232	0xbe101bdf	-0.14073132
233	0x3e9618fd	0.2931594
234	0xbde7c1ef	-0.11316287
235	0x3e01ab3c	0.12662977
236	0x3c799a41	0.015234531
237	0x3e4775fb	0.194786
238	0x3de3d76f	0.11125075
239	0x3e9a6e7b	0.30162415
240	0xbd1604e0	-0.036625743
241	0xbd14fc4b	-0.036373418
242	0xbd872760	-0.06599307
243	0xbe6693ff	-0.22517394
244	0x3b9ecd9f	0.0048462893
245	0xbd9cf16e	-0.076632366
246	0x3c964651	0.018344076
247	0x3e1a0efa	0.15044776
248	0xbd1a5c8a	-0.03768591
249	0xbe5fa700	-0.21841049
250	0xbdd81cfb	-0.105524026
251	0x3e51d4bf	0.20491312
252	0xbe9433cb	-0.28945765
253	0x3e56a9bb	0.20963185
254	0x3e3aeb88	0.1825391
255	0x3ceca47d	0.028887028

model.6.bias f4 [16]
0	0xbda4b6a9	-0.08042652
1	0x3e29050c	0.16505831
2	0xbe5361bf	-0.20642756
3	0xbe39fa1a	-0.18161812
4	0xbe0fea79	-0.14054288
5	0x3e3f32c4	0.1867171
6	0xbe84bf35	-0.2592713
7	0x3e6a2684	0.22866255
8	0xbd642368	-0.05569783
9	0xbe7e1eeb	-0.24816482
10	0x3e199369	0.14997639
11	0xbd1d4766	-0.03839817
12	0xbe8d2995	-0.27570787
13	0xbdd6f08f	-0.10495102
14	0xbd2cb8fe	-0.04216861
15	0xbe86f873	-0.26361427

model.8.weight f4 [16, 16]
0	0xbcddca8b	-0.02707412
1	0xbd42964a	-0.047506608
2	0x3d4b4345	0.0496247
3	0x3d508648	0.05090931
4	0xbda705ca	-0.08155401
5	0xbdf83d48	-0.121210635
6	0x3ddb2b6d	0.10701642
7	0x3e401240	0.18756962
8	0xbc536f5b	-0.012904967
9	0xbdeb871d	-0.1150038
10	0x3e93e10b	0.28882632
11	0xbea4f12b	-0.32215247
12	0xbd91d960	-0.07121539
13	0x3e284c6e	0.16435406
14	0x3e82b461	0.25528243
15	0xbe411c35	-0.18858416
16	0xbe9586d1	-0.2920442
17	0xbd01bbe6	-0.031673335
18	0xbe946dd5	-0.28990045
19	0xbcc0a315	-0.023515264
20	0xbc39cdee	-0.011340601
21	0x3e4aea70	0.19815993
22	0x3d8ebdbe	0.06969784
23	0x3e899350	0.26870203
24	0x3d9159bc	0.070971936
25	0xbe58e7cc	-0.21182173
26	0x3d4982ff	0.049197193
27	0x3dcf5588	0.10123736
28	0xbe32babb	-0.17454045
29	0x3e194b83	0.14970212
30	0x3e9b1bc1	0.30294612
31	0xbdb868b0	-0.090043426
32	0x3d3851a9	0.044999752
33	0x3dce00ce	0.10058747
34	0x3e1dd84f	0.15414546
35	0x3e88d2d6	0.26723355
36	0x3e6cea2d	0.23136206
37	0xbe8650e2	-0.26233584
38	0xbd7f49a4	-0.06232609
39	0xbdf15d41	-0.11785365
40	0xbe5fcfdd	-0.21856637
41	0x3dd4820f	0.10376369
42	0xbe81d8ec	-0.2536081
43	0x3e624e7d	0.22100253
44	0x3e1480df	0.14502285
45	0x3daabb0b	0.08336457
46	0x3e2f0ba2	0.17094281
47	0xbe00e2fd	-0.12586589
48	0x3dc249a1	0.094867
49	0x3e3a5687	0.1819707
50	0xbe8538ff	-0.26020047
51	0xbea1ea7d	-0.31624213
52	0xbd10716f	-0.03526443
53	0x3df2b5d5	0.11851088
54	0xbdc7b1ee	-0.09750734
55	0x3e86f231	0.26356652
56	0xbe0d9359	-0.1382574
57	0x3ba8b0b4	0.005148018
58	0x3e2c8f7e	0.16851613
59	0xbe19a47a	-0.15004149
60	0xbe0f19e1	-0.13974716
61	0xbe317bd3	-0.17332391
62	0x3d4ad2f8	0.0495176
63	0xbe55f41f	-0.20893906
64	0xbd20cea8	-0.039259583
65	0x3e08c21e	0.133553
66	0x3e5da97d	0.21646686
67	0x3db27ce1	0.08715225
68	0x3e8c7d73	0.2743946
69	0xbdaa5ecb	-0.083188616
70	0xbe108f2d	-0.14117117
71	0x3df2c9ea	0.11854918
72	0xbe5af927	-0.21384107
73	0x3dfa4f9a	0.12222214
74	0xbd6e4e72	-0.05818028
75	0x3df350d7	0.11880653
76	0x3c8ff234	0.017571546
77	0xbe590b9e	-0.21195838
78	0xbea34e12	-0.318955
79	0xbe150cca	-0.1455566
80	0xbde66c82	-0.11251165
81	0x3d19eb56	0.03757795
82	0x3e21f668	0.15816653
83	0x3e171dc8	0.14757454
84	0xbdf4d858	-0.11955327
85	0x3e6b9470	0.23005843
86	0xbdc414a1	-0.09574247
87	0x3e3fc978	0.18729198
88	0x3d13e082	0.03610278
89	0xbe90db66	-0.28292388
90	0x3e382697	0.17983471
91	0xbbfb443e	-0.007668047
92	0xbd98efa8	-0.07467586
93	0xbe325379	-0.17414655
94	0x3d345969	0.04403058
95	0xbe0b909b	-0.13629381
96	0x3e2c5ccf	0.16832279
97	0x3e31b43a	0.17353907
98	0x3ce006a7	0.027346922
99	0xbc0830e2	-0.008312436
100	0x3e1dffc0	0.15429592
101	0xbcfdccd0	-0.030981451
102	0xbe883f4f	-0.266108
103	0xbe315cab	-0.17320506
104	0xbe0a7c6a	-0.13524023
105	0xbdf5fdb8	-0.12011284
106	0xbde7d229	-0.11319382
107	0xbd01145f	-0.031513568
108	0x3b0eb41c	0.0021774834
109	0x3e675ae8	0.22593272
110	0xbd03f99b	-0.032220464
111	0xbe42aa31	-0.19010235
112	0xbdea95d1	-0.114543565
113	0x3d26c7e8	0.04071799
114	0x3b0312fe	0.0020000334
115	0xbddddaf1	-0.108327754
116	0x3e7cd81f	0.24691819
117	0xbe156ce1	-0.14592315
118	0x3e244461	0.1604171
119	0xbea0985d	-0.31366244
120	0xbdbd76e2	-0.09251191
121	0x3e957bd1	0.29196027
122	0xbd82a071	-0.06378258
123	0x3e885b84	0.2663232
124	0x3e1bec9f	0.15226983
125	0x3d25a00a	0.04043583
126	0xbe50d875	-0.20395072
127	0x3e9728e1	0.29523376
128	0xbe1fcbad	-0.1560504
129	0x3e0c738e	0.13715956
130	0xbdb4bd93	-0.08825221
131	0x3e07359e	0.13204047
132	0xbcf42430	-0.029802412
133	0x3e3920d2	0.18078926
134	0xbd98aa41	-0.07454348
135	0x3e86f87a	0.26361448
136	0x3e7e6bea	0.24845853
137	0x3d7c7dd1	0.061643425
138	0x3e9c6aaa	0.30550128
139	0x3d1cb626	0.038259648
140	0xbe29857c	-0.16554826
141	0x3da12d10	0.07869923
142	0xbca62b61	-0.020284357
143	0xbe8d12e1	-0.27553466
144	0xbd7ed4a4	-0.06221451
145	0x3d99567f	0.07487201
146	0xbd89a3d7	-0.06720703
147	0xbe017455	-0.12642033
148	0xbdde3ccb	-0.10851439
149	0xbdd39142	-0.1033044
150	0xbe2ab009	-0.16668715
151	0xbc35f0f3	-0.01110481
152	0x3df4dc1f	0.11956047
153	0xbcbb038a	-0.022828836
154	0xbe3375b5	-0.1752537
155	0xbd1d4ec3	-0.03840519
156	0xbda60071	-0.08105553
157	0x3d29614a	0.041352548
158	0x3e8b7a9b	0.27241978
159	0x3d66b526	0.0563251
160	0xbe1bfe4f	-0.1523373
161	0xbe11951b	-0.14217035
162	0xbe642064	-0.22277981
163	0xbe886bf8	-0.26644874
164	0xbe085818	-0.13314855
165	0x3e1dc0ee	0.15405628
166	0xbe01fcc3	-0.12694077
167	0x3e7e80a2	0.24853757
168	0x3e199b2e	0.15000603
169	0xbe5a1ee8	-0.21300852
170	0xbdab02a9	-0.08350117
171	0xbe71bc62	-0.23607019
172	0xbc316242	-0.010826649
173	0xbe4d5bb0	-0.20054507
174	0x3e988fda	0.2979725
175	0xbdb9d90a	-0.090746
176	0x3c536a53	0.012903768
177	0xbe8bca4f	-0.27302787
178	0x3e6f682d	0.23379584
179	0x3e8ab234	0.27089083
180	0xbd8f0cca	-0.06984861
181	0xbe3ecc59	-0.1863264
182	0x3d0e08e1	0.034676436
183	0xbe5b6345	-0.21424587
184	0x3e3bb9fb	0.18332665
185	0xbcc16930	-0.023609728
186	0xbe60056e	-0.21877071
187	0x3e2467a2	0.16055158
188	0x3e7b4cdd	0.2454104
189	0x3cbd9691	0.023143085
190	0xbdc70a0d	-0.09718714
191	0x3e3f3243	0.18671517
192	0xbe35ea01	-0.17765047
193	0xbc199798	-0.009374522
194	0x3c2a52e2	0.010395737
195	0xbd9ea269	-0.07745821
196	0xbd503394	-0.05083044
197	0xbe0e1285	-0.13874252
198	0xbd2e14e4	-0.04250039
199	0x3e60057d	0.21877094
200	0x3e8639ca	0.26215965
201	0xbdc608f0	-0.096696734
202	0xbe4c5461	-0.19954063
203	0x3cc70592	0.024294648
204	0xbe4fb448	-0.20283616
205	0x3dd5598a	0.10417469
206	0xbe121c20	-0.14268541
207	0xbd51c54c	-0.051213548
208	0x3d06d418	0.032917112
209	0x3e68172a	0.22665086
210	0x3e3a1fa4	0.18176132
211	0xbe9156f8	-0.28386664
212	0xbe4acdb4	-0.19805032
213	0xbdc6f02b	-0.09713777
214	0xbe16d8e8	-0.1473118
215	0xbd77df2e	-0.060515575
216	0x3be734ff	0.007055878
217	0x3bf9cfee	0.007623664
218	0x3d884b2c	0.06654963
219	0xbabf344f	-0.0014587733
220	0x3e23fe78	0.16015041
221	0x3d370e71	0.044691507
222	0xbcc1be89	-0.023650425
223	0xbdf88cc4	-0.12136224
224	0x3e84b39a	0.25918275
225	0xbe751b91	-0.23936297
226	0x3e7f6577	0.2494105
227	0xbd3b0005	-0.045654316
228	0x3e921249	0.28529575
229	0xbdbc37c3	-0.09190323
230	0xbe1bbb9c	-0.15208286
231	0x3de0abb9	0.109702535
232	0xbe4bc260	-0.19898367
233	0x3e8503e8	0.25979543
234	0x3d164bd2	0.0366934
235	0x3e4e8fcc	0.20172042
236	0x3d615ba5	0.05501904
237	0xbe14f006	-0.14544687
238	0xbcf56100	-0.02995348
239	0x3e6c8bd5	0.23100217
240	0x3e29e699	0.16591872
241	0x3e772a03	0.2413712
242	0xbe5d4b01	-0.21610643
243	0xbe035f06	-0.12829217
244	0xbe6e1f1e	-0.23254058
245	0x3b975c17	0.0046191323
246	0x3e1290a6	0.14312991
247	0xbd85f131	-0.06540144
248	0xbd93fdf2	-0.072261706
249	0xbdb5f7bc	-0.08885142
250	0x3cbbadcf	0.022910027
251	0x3d0c9855	0.034324963
252	0xbe540a69	-0.20707096
253	0xbd3973c5	-0.045276422
254	0x3c7beae3	0.015375826
255	0xbe873809	-0.2640994

model.8.bias f4 [16]
0	0x3e85d57c	0.26139438
1	0xbda09860	-0.07841563
2	0xbe8f4145	-0.27979484
3	0x3e0c5727	0.13705121
4	0xbe315446	-0.17317304
5	0x3c64fbab	0.013976018
6	0x3e8dd9cf	0.27705237
7	0xbdd53352	-0.10410179
8	0xbc832421	-0.016008439
9	0x3e5f71e4	0.2182079
10	0x3cd79f46	0.026321065
11	0x3e221c72	0.15831164
12	0x3df098df	0.11747908
13	0x3e8eb305	0.27870956
14	0xbe142d6d	-0.14470454
15	0xbdebc7d1	-0.11512721

model.10.weight f4 [16, 16]
0	0xbdf4dce5	-0.11956195
1	0x3e2a4f26	0.16631755
2	0x3e180763	0.14846568
3	0x3cffbcdc	0.031217985
4	0x3be3399f	0.006934359
5	0xbd329297	-0.04359683
6	0x3e737bb8	0.23777664
7	0xbe696d34	-0.22795564
8	0xbd9ac13e	-0.07556389
9	0x3d20864d	0.03919058
10	0x3e2d6a1d	0.1693501
11	0xbda948b4	-0.0826582
12	0x3e4da90e	0.2008402
13	0xbc652eda	-0.013988221
14	0xbe0a57ef	-0.13510107
15	0x3e763daa	0.2404696
16	0x3d66db72	0.056361623
17	0x3e70b19a	0.2350525
18	0xbe1973c1	-0.14985563
19	0x3e56c74c	0.20974463
20	0xbe7fdc66	-0.24986419
21	0xbb6446f6	-0.0034832335
22	0x3e843186	0.25819033
23	0x3e0d1cf6	0.13780579
24	0x3e2ef298	0.1708473
25	0xbda9d006	-0.082916304
26	0x3dd4e46b	0.1039513
27	0xbdfd8667	-0.12379151
28	0x3e9a4427	0.3013012
29	0x3e72b90d	0.23703404
30	0xbe85d0e3	-0.2613593
31	0x3e50c125	0.20386179
32	0xbe0c2406	-0.13685617
33	0xbdec08b9	-0.11525101
34	0x3e3af0f3	0.18255977
35	0x3e46a8b7	0.19400297
36	0x3d2190ef	0.03944486
37	0xbe3712cf	-0.17878269
38	0x3d87b808	0.06626898
39	0x3d090ea0	0.033461213
40	0x3cd96c2f	0.026540844
41	0xbe44bd1e	-0.19212767
42	0xbe49d8e2	-0.1971164
43	0xbe005662	-0.12532952
44	0xbe4afbba	-0.19822589
45	0x3e3db1c4	0.18524843
46	0xbd86bba5	-0.06578759
47	0x3dcaa882	0.098954216
48	0xbe77d206	-0.24201211
49	0xbd8ee8dd	-0.06978009
50	0x3c9f41a8	0.019440487
51	0xbe5fa721	-0.21841098
52	0x3dd07af1	0.10179699
53	0x3e00a971	0.12564637
54	0xbce4f833	-0.027950382
55	0x3d68b760	0.056815505
56	0xbdd78696	-0.10523717
57	0xbe35ac4c	-0.17741507
58	0xbe6de922	-0.23233464
59	0xbd35f322	-0.044421323
60	0x3ce5272f	0.027972786
61	0xbde5dc6c	-0.11223683
62	0x3e38675c	0.18008178
63	0x3e55eedc	0.20891899
64	0xbe330cc2	-0.17485335
65	0x3e81d6dc	0.25359237
66	0xbd328f04	-0.04359342
67	0xbdd8a680	-0.10578632
68	0x3e1f2429	0.15541138
69	0xbdf8c88a	-0.12147625
70	0x3e224151	0.15845229
71	0xbce818ef	-0.028332202
72	0x3e4250bb	0.18976109
73	0x3e7b044d	0.2451336
74	0x3e8bd183	0.27308282
75	0xbe918624	-0.28422654
76	0x3e2abdda	0.16673985
77	0x3e5630d5	0.20917065
78	0xbe90f312	-0.28310448
79	0xbdfe90b1	-0.124299414
80	0x3dfcd622	0.1234553
81	0x3e8fb3f3	0.28066978
82	0xbdf4e36a	-0.11957438
83	0x3e3701fc	0.1787185
84	0xbe83d988	-0.257519
85	0x3e74fe6c	0.23925179
86	0x3e2d3ae3	0.16916995
87	0x3c9937e1	0.018703403
88	0x3e1c3f2d	0.15258475
89	0x3e3f77a5	0.18697985
90	0x3dd8a5bb	0.105784856
91	0xbbd5db10	-0.0065263584
92	0xbe2ff55b	-0.1718344
93	0x3e88fc1c	0.26754844
94	0xbe9489ff	-0.29011533
95	0x3e6ec652	0.2331784
96	0x3de6837c	0.112555474
97	0xbd80d2ea	-0.06290229
98	0xbcd9566c	-0.026530467
99	0xbaad32bb	-0.0013213971
100	0xbd13a920	-0.036049962
101	0x3e082569	0.13295521
102	0x3d8cb442	0.06870319
103	0xbe850d74	-0.25986826
104	0xbd514b0c	-0.05109696
105	0x3e6f7f41	0.23388387
106	0x3ca4c0df	0.0201115
107	0xbe86cec4	-0.26329625
108	0x3cf5f4f2	0.030024026
109	0xbe131d14	-0.14366561
110	0x3e1ae55b	0.15126555
111	0x3e7d0f9a	0.24712983
112	0x3e93da1e	0.28877348
113	0xbadc04d7	-0.001678611
114	0x3c53fafd	0.012938258
115	0x3e3458dc	0.17612022
116	0xbea74e3b	-0.32676873
117	0x3e92172e	0.2853331
118	0xbe0d0e9a	-0.13775101
119	0xbea6c931	-0.32575372
120	0x3e839671	0.25700715
121	0x3c3dffb3	0.011596608
122	0xbe145be9	-0.14488186
123	0xbdc4f44f	-0.09616911
124	0xbe454930	-0.192662
125	0x3e44962d	0.19197913
126	0xbe8fad2b	-0.28061804
127	0x3caea2f1	0.02131793
128	0x3e1631f1	0.14667489
129	0x3e890373	0.26760444
130	0xbe8446c2	-0.25835234
131	0xbded7207	-0.115940146
132	0xbc92f613	-0.017939603
133	0x3d3b5472	0.04573483
134	0x3db812c7	0.089879565
135	0xbea2c3a0	-0.31789875
136	0x3e423aeb	0.18967788
137	0x3e024a23	0.12723593
138	0x3e3ac6f6	0.1823996
139	0xbdc988a9	-0.09840519
140	0x3c1d1eb8	0.009589843
141	0x3db03b78	0.08605093
142	0xbd9b9e74	-0.07598582
143	0x3dc1a942	0.094561115
144	0xbe8cc567	-0.27494356
145	0x3dec42f3	0.11536207
146	0xbe103261	-0.14081718
147	0xbe83cdc7	-0.25742933
148	0x3d0056db	0.03133283
149	0xbde961d4	-0.11395612
150	0x3d1395c4	0.0360315
151	0x3c699dfb	0.014258857
152	0xbe7ae230	-0.24500346
153	0x3e0f4c5c	0.13993973
154	0x3d4f92e4	0.050677195
155	0x3eaaa028	0.33325315
156	0xbcc61e2b	-0.024184307
157	0xbe7003bb	-0.23438923
158	0x3e8d6622	0.27616984
159	0x3da5a481	0.08088017
160	0xbbf766a5	-0.007550078
161	0x3e975528	0.29557157
162	0xbd7dad34	-0.061932757
163	0x3e7f720a	0.24945846
164	0xbe846a6a	-0.25862437
165	0x3e06991d	0.13144346
166	0x3e3af228	0.18256438
167	0xbe6654b7	-0.22493254
168	0x3e36c567	0.1784874
169	0xbe31dcad	-0.17369337
170	0x3dc9d896	0.098557636
171	0xbdb2af60	-0.087248564
172	0x3d91eb47	0.07124954
173	0xbde4bf80	-0.11169338
174	0x3df5afcc	0.11996421
175	0x3e5885d1	0.21144797
176	0x3e3ec9ac	0.18631619
177	0x3c838dcd	0.016058827
178	0x3e1e7888	0.15475667
179	0x3e2d411b	0.16919367
180	0xbdcac366	-0.099005505
181	0xbe33085a	-0.17483655
182	0xbdae50e9	-0.08511526
183	0x3e1ddead	0.15416975
184	0x3de8ee05	0.113735236
185	0x3e7a6866	0.24453887
186	0xbdfe29a2	-0.124102846
187	0xbe79ed6a	-0.24406973
188	0xbdb9dadb	-0.090749465
189	0x3db981dc	0.09057972
190	0xbe7f0f2b	-0.2490813
191	0x3d8423e8	0.06452161
192	0xbe4ddb5f	-0.20103215
193	0xbe9b89b1	-0.30378488
194	0x3e96fea2	0.29491144
195	0xbdda3e02	-0.10656358
196	0x3e67dfb3	0.22643928
197	0xbdbe63c7	-0.09296375
198	0xbe87a951	-0.26496366
199	0x3d6e52e4	0.05818452
200	0xbe9cc2a7	-0.30617258
201	0xbde3863c	-0.111095876
202	0xbd5f0a09	-0.05445293
203	0x3d159882	0.036522396
204	0x3e1a27af	0.150542
205	0xbe5676a1	-0.20943691
206	0x3d0e98d6	0.034813724
207	0xbd8cc6b0	-0.06873834
208	0x3ddf64fb	0.10907932
209	0x3e30ff31	0.17284848
210	0xbe1b6629	-0.1517569
211	0xbd473730	-0.048636615
212	0x3deede0b	0.11663445
213	0x3e3d9e89	0.18517508
214	0xbd243e76	-0.04009863
215	0xbe33d9ba	-0.17563525
216	0x3e803c9d	0.25046244
217	0x3e7ab3ce	0.24482653
218	0xbdffc545	-0.12488798
219	0xbe991dc1	-0.29905513
220	0xbd9ffab1	-0.078114875
221	0xbd793720	-0.060843587
222	0xbdd4abc7	-0.103843264
223	0xbd44aca6	-0.048016213
224	0xbe0c14a3	-0.13679747
225	0xbeaf96cf	-0.34294745
226	0xbe24e72f	-0.16103815
227	0xbea35eb0	-0.31908178
228	0xbda9249b	-0.08258935
229	0x3d5e83a9	0.05432478
230	0x3d2a2b63	0.041545283
231	0xbd2fb13a	-0.042893626
232	0xbe88f94d	-0.267527
233	0xbd486f94	-0.048934534
234	0x3c64b143	0.013958278
235	0x3ea9cbc3	0.3316327
236	0xbe6919e7	-0.22763787
237	0xbe37d565	-0.17952497
238	0x3da11c54	0.07866731
239	0xbe9ef414	-0.31045592
240	0xbd808290	-0.06274903
241	0x3e135ec7	0.14391623
242	0x3ea7f7d9	0.3280628
243	0xbcc2445a	-0.023714233
244	0xbdffef09	-0.12496764
245	0x3c39502c	0.011310618
246	0xbea9488e	-0.33063167
247	0x3e8be792	0.27325112
248	0xbe93f383	-0.28896722
249	0xbd4ecb2f	-0.05048674
250	0xbe04ad31	-0.12956692
251	0x3bf5de54	0.00750331
252	0xbea57758	-0.32317615
253	0x3d156931	0.03647727
254	0x3e954369	0.29152992
255	0x3e168f9e	0.14703223

model.10.bias f4 [16]
0	0xbdc07409	-0.09397132
1	0xbe321d2f	-0.17393945
2	0x3e5db4d3	0.2165101
3	0xbe471f84	-0.19445616
4	0x3e38d41e	0.18049666
5	0xbe15f7c8	-0.14645302
6	0x3e604aed	0.21903582
7	0x3e9142f0	0.28371382
8	0xbd23e655	-0.040014584
9	0xbc04590f	-0.008077874
10	0x3e882464	0.26590264
11	0x3e8a0a03	0.26960763
12	0xbda3c2a1	-0.07996107
13	0x3e51749b	0.20454638
14	0xbd62ceb9	-0.055372927
15	0xbe03dbbf	-0.12876795

model.12.weight f4 [16, 16]
0	0x3d397541	0.045277838
1	0xbcdd975c	-0.027049713
2	0x3e665d79	0.22496594
3	0x3e7cd9ac	0.2469241
4	0xbe286cdd	-0.16447778
5	0xbd876270	-0.06610572
6	0xbeb98933	-0.36237487
7	0xbd71c84e	-0.059028916
8	0xbe86fe5d	-0.2636594
9	0x3e40305a	0.18768445
10	0xbcad577f	-0.021159885
11	0xbe5906b1	-0.21193959
12	0x3e230f5f	0.15923832
13	0xbe30142f	-0.171952
14	0xbdf7a40d	-0.12091837
15	0x3c81831e	0.015809592
16	0xbc833f08	-0.016021267
17	0xbdb45277	-0.088047914
18	0x3e1e6d9e	0.15471503
19	0xbd7c34b3	-0.061573695
20	0x3e052ca7	0.13005315
21	0x3e05b5fc	0.13057703
22	0xbdb2928b	-0.08719357
23	0x3eaf6073	0.34253272
24	0x3d73d135	0.059525687
25	0xbd4ce092	-0.050018854
26	0xbdcc7909	-0.09984023
27	0x3dfb0931	0.122576125
28	0xbe28d111	-0.16486003
29	0xbdd5ccbf	-0.10439443
30	0xbdfc87f2	-0.12330617
31	0xbd703366	-0.058642767
32	0xbe4db24b	-0.20087545
33	0x3ccb37de	0.024806913
34	0x3d4112e1	0.047137145
35	0x3a1ef52f	0.0006063757
36	0x3d85eb89	0.065390654
37	0x3e805435	0.25064245
38	0x3dc912cb	0.098180376
39	0xbde7ece9	-0.11324484
40	0x3e938783	0.28814325
41	0x3cf5c390	0.030000478
42	0x3b23609e	0.0024929415
43	0x3e83f10e	0.25769848
44	0xbd3ec2a0	-0.046572328
45	0x3e897885	0.26849762
46	0xbe7417a3	-0.23837142
47	0xbe044281	-0.12915994
48	0xbd3b5584	-0.04573585
49	0xbdd35142	-0.10318233
50	0x3d81e1c9	0.06341893
51	0xbcac7051	-0.02104965
52	0x3cca0182	0.024658922
53	0x3d7452eb	0.05964939
54	0xbea7f6ad	-0.32805386
55	0x3c844449	0.016145842
56	0x3c9cadb1	0.019125791
57	0xbd9dac27	-0.07698851
58	0xbe732f2a	-0.2374846
59	0xbe7dc4c6	-0.24782094
60	0x3e43afb2	0.19109991
61	0xbe8d4c3a	-0.2759722
62	0xbdfc8f4e	-0.12332021
63	0x3e340300	0.1757927
64	0xbe137585	-0.14400299
65	0x3df259bd	0.118335225
66	0xbd175885	-0.036949653
67	0xbd93e2ac	-0.072209686
68	0xbdda12db	-0.10648128
69	0xbc417040	-0.011806548
70	0xbe60031c	-0.21876186
71	0xbe0d7d05	-0.13817222
72	0xbe5a70d3	-0.21332102
73	0x3e093ffe	0.13403317
74	0x3dc6f55e	0.09714769
75	0xbe932e04	-0.28746045
76	0x3eaef168	0.34168553
77	0x379887de	1.818308e-05
78	0xbd413cce	-0.04717713
79	0x3d19f1b2	0.037584014
80	0x3dfeb681	0.124371536
81	0x3ea43c75	0.32077375
82	0x3e58dac0	0.21177197
83	0xbe54d637	-0.20784841
84	0x3e11577c	0.14193529
85	0x3e9d6e1c	0.3074807
86	0x3e6fc1e4	0.23413807
87	0xbe265d15	-0.16246445
88	0x3decd1fc	0.11563489
89	0xbda932ff	-0.0826168
90	0x3dc9f13b	0.09860464
91	0xbe0d797a	-0.13815871
92	0x3deda78e	0.11604224
93	0x3e4e7b95	0.2016433
94	0xbe8e346c	-0.2777437
95	0x3e18c99e	0.14920661
96	0xbdbd01bf	-0.09228849
97	0x3e911aa3	0.28340635
98	0x3dc9e6d3	0.09858479
99	0x3e109ec4	0.14123064
100	0x3e8386ef	0.25688884
101	0x3e8a160e	0.2696995
102	0xbd078dec	-0.03309433
103	0x3d90b478	0.07065672
104	0x3da0c0dc	0.07849285
105	0xbe660dd6	-0.22466215
106	0xbdd211b5	-0.102572836
107	0xbd51b227	-0.05119529
108	0x3d901b85	0.07036499
109	0x3e9d2fa4	0.3070041
110	0xbd8390ae	-0.0642408
111	0xbdf239c8	-0.11827427
112	0x3e3fefaf	0.18743776
113	0x3e6d8fec	0.23199433
114	0xbe32c907	-0.17459498
115	0xbe63c874	-0.22244436
116	0x3c832816	0.016010325
117	0x3e782b5b	0.24235289
118	0x3e75d3ce	0.24006578
119	0xbdec511b	-0.11538907
120	0x3d59a646	0.053137086
121	0x3df19a24	0.11796978
122	0xbde593a7	-0.11209803
123	0xbd996109	-0.07489211
124	0xbe9fb9db	-0.31196484
125	0x3e3c03ca	0.1836082
126	0xbe6e8c70	-0.2329576
127	0xbc8e31a2	-0.017357651
128	0xbd978d51	-0.07400001
129	0xbe996d74	-0.2996632
130	0x3dd3674e	0.10322438
131	0x3c194b76	0.00935637
132	0xbe45dcd9	-0.19322528
133	0xbe9894f3	-0.2980114
134	0x3dc98a8d	0.098408796
135	0xbda4b1de	-0.08041738
136	0xbe47bbd7	-0.19505249
137	0x3ea0d2e9	0.31410912
138	0x3dd754af	0.10514199
139	0xbe89fb1a	-0.26949388
140	0xbcf28e27	-0.0296088
141	0x3dec2b93	0.115317486
142	0x3eaab439	0.33340624
143	0xbe17ea88	-0.1483556
144	0x3e369175	0.17828925
145	0xbe1d2ea2	-0.1534982
146	0xbbca72d8	-0.006178241
147	0xbe85be26	-0.26121634
148	0x3e5f5a93	0.21811895
149	0x3e596b1e	0.21232268
150	0x3e746e9a	0.23870316
151	0x3e37d672	0.17952898
152	0x3c529c47	0.012854642
153	0xbe51fe17	-0.20507084
154	0x3df7f135	0.121065535
155	0x3e31e242	0.17371467
156	0xbe6b6f62	-0.22991708
157	0x3d68c989	0.056832824
158	0xbe61ef69	-0.22063984
159	0xbe19ab07	-0.15006648
160	0xbe289dbc	-0.16466421
161	0xbdc99b6f	-0.098441
162	0x3e41b01e	0.1891484
163	0x3e91a2e2	0.28444582
164	0xbe5ee815	-0.2176822
165	0x3df00cae	0.117211685
166	0xbe4ca97c	-0.19986528
167	0xbd765775	-0.060142
168	0xbe384b14	-0.1799739
169	0xbd06ded4	-0.03292735
170	0xbdbe1d0d	-0.09282885
171	0xbe0aa37b	-0.13538925
172	0x3e7e30ee	0.24823353
173	0x3db3d8b1	0.08781565
174	0x3e535ccb	0.20640866
175	0x3e6f6a3e	0.23380372
176	0x3e4af576	0.19820198
177	0xbe0b2a9b	-0.13590471
178	0xbdb959f7	-0.090503626
179	0xbe1f7779	-0.15572919
180	0x3e737bf0	0.23777747
181	0x3e8f205c	0.27954376
182	0x3e9c7c77	0.3056371
183	0x3e29b2a3	0.16572051
184	0xbcb02472	-0.021501753
185	0x3da91659	0.082562156
186	0x3dde0129	0.10840065
187	0xbda1f465	-0.07907943
188	0xbda423d1	-0.08014644
189	0x3dd9c8a6	0.10633974
190	0xbe403e69	-0.18773808
191	0xbe345675	-0.17611106
192	0xbd12ecb2	-0.03587026
193	0x3dcb67fc	0.09931943
194	0x3e4e01b4	0.20117837
195	0xbe2bec41	-0.16789342
196	0x3dceb519	0.100931354
197	0x3e380232	0.17969587
198	0x3e9b55f0	0.30339003
199	0x3e65c037	0.22436605
200	0x3d56b7f8	0.05242154
201	0xba58f97f	-0.0008276924
202	0x3e18d34a	0.1492435
203	0x3dc13fd1	0.09436
204	0xbe803a04	-0.25044262
205	0x3e8f0ee3	0.27941045
206	0x3e0b0e02	0.13579562
207	0x3c51832e	0.012787623
208	0xbdbe368c	-0.09287748
209	0xbe557494	-0.20845252
210	0x3d9e6b81	0.077353485
211	0x3df179a2	0.11790778
212	0xbe70f9d3	-0.235328
213	0xbd0bdbb6	-0.03414508
214	0xbb80002c	-0.0039062705
215	0xbe3fc7ca	-0.18728557
216	0x3d96fbb2	0.07372226
217	0x3e96560f	0.29362532
218	0xbe989262	-0.2979918
219	0xbe90c1cf	-0.28272864
220	0x3e31ce60	0.17363882
221	0x3c12104e	0.00891502
222	0xbde6599f	-0.112475626
223	0x3d458822	0.04822553
224	0x3e43a956	0.19107565
225	0xbe1e522f	-0.15461038
226	0x3df5957b	0.11991402
227	0xbd58c116	-0.052918516
228	0xbcd23703	-0.025660997
229	0x3eaab0e8	0.33338094
230	0xbd77bc76	-0.060482465
231	0x3e02b0a8	0.12762702
232	0x3dfb2454	0.122627884
233	0xbea2d32f	-0.31801745
234	0x3d84756d	0.0646771
235	0x3dafa46a	0.08576281
236	0x3ddfdbf6	0.10930626
237	0x3e3a02e6	0.18165168
238	0xbe814bda	-0.25253183
239	0xbe4e3d08	-0.20140469
240	0x3e54d8e9	0.2078587
241	0x3e65ea77	0.22452722
242	0xbe233ea1	-0.1594186
243	0xbe5a4f6e	-0.21319363
244	0x3e88f904	0.26752484
245	0x3e83faa2	0.25777155
246	0x3c07f913	0.00829913
247	0x3de047f6	0.109512255
248	0x3e136bd8	0.14396608
249	0x3e269f52	0.16271713
250	0x3e3ed3f2	0.18635538
251	0x3e3b4c02	0.18290713
252	0xbe4e7fc7	-0.2016593
253	0x3d8f17a9	0.06986935
254	0x3dafd2ef	0.08585154
255	0xbd907a52	-0.07054581

model.12.bias f4 [16]
0	0x3e45951b	0.1929516
1	0x3e705a4d	0.23471947
2	0x3e3a2e71	0.18181778
3	0x3e457449	0.1928264
4	0xbea10fb7	-0.31457302
5	0x3e4dc228	0.20093596
6	0x3e29f511	0.16597392
7	0x3d51406a	0.05108682
8	0xbd5050f0	-0.050858438
9	0x3d04db22	0.032435544
10	0x3e449dd7	0.19200836
11	0x3bbb5b64	0.0057176817
12	0xbdf2a14c	-0.11847171
13	0xbdee00bb	-0.11621233
14	0x3e62dc58	0.22154367
15	0xbc7dc97d	-0.015489933

model.14.weight f4 [1, 16]
0	0x3e244363	0.16041331
1	0xbddf0fb4	-0.10891667
2	0xbeb10394	-0.34573042
3	0x3e3ae236	0.18250355
4	0x3dcb6f79	0.09933371
5	0xbe85e746	-0.2615301
6	0xbe6c201c	-0.23059124
7	0xbe7b22b5	-0.24524958
8	0x3ea30c5b	0.31845364
9	0xbe33eb2b	-0.17570178
10	0x3e838d1f	0.25693604
11	0xbe9349aa	-0.2876714
12	0xbeaf7cea	-0.3427499
13	0x3e7ca244	0.24671274
14	0xbe4b6924	-0.19864327
15	0xbea0edf5	-0.31431547
