NeuralGalerkin/models/autosave/Gen_3_Loss_0.27582818.pt (torch, 192967 bytes, 15 tensors)

model.0.weight f4 [16, 2]
0	0xbf1ee404	-0.62066674
1	0x3f224720	0.6338978
2	0xbf2876f1	-0.6580649
3	0x3f3892cc	0.72098994
4	0x3f15c1df	0.5849895
5	0x3dd5da78	0.1044206
6	0xbed8bcb8	-0.4233148
7	0xbe90d73d	-0.28289214
8	0x3e6f8c7f	0.23393439
9	0x3ef30e6c	0.4747194
10	0xbdacfc71	-0.08446587
11	0xbee58303	-0.44826517
12	0x3eddc277	0.43312427
13	0x3ec2722b	0.37977728
14	0xbf31f09f	-0.69507784
15	0xbf251ba2	-0.6449529
16	0xbf10528e	-0.5637597
17	0x3f311cc3	0.6918451
18	0xbe544673	-0.20729999
19	0x3dcbfe7f	0.09960651
20	0xbf2e572f	-0.6810178
21	0xbf1f22a7	-0.6216225
22	0x3eba87cb	0.36431727
23	0x3f2910c2	0.66041195
24	0x3d4ed756	0.05049833
25	0x3edc5aa1	0.43037894
26	0xbf043c48	-0.5165448
27	0x3ef4c633	0.47807464
28	0xbf0a27bb	-0.53966874
29	0xbe204984	-0.15653044
30	0xbeac3fcc	-0.33642423
31	0xbf15f925	-0.5858329

model.0.bias f4 [16]
0	0x3994e5e4	0.00028400042
1	0x3f221607	0.6331486
2	0xbf096b56	-0.53679407
3	0xbf1ea539	-0.6197086
4	0xbc61c21b	-0.0137791885
5	0x3f1cbc48	0.61224794
6	0x3e8c2fc7	0.273802
7	0xbd4181cb	-0.04724292
8	0x3d4118b3	0.047142696
9	0x3e63b451	0.22236754
10	0xbf19d3a3	-0.60088557
11	0xbe59af66	-0.21258315
12	0xbeeb1559	-0.45914724
13	0xbf30c6c6	-0.69053304
14	0x3e4eecbe	0.20207497
15	0xbc5d9371	-0.013523922

model.2.weight f4 [16, 16]
0	0x3ddf114b	0.1089197
1	0xbe95966f	-0.29216334
2	0x3e8b9a79	0.2726629
3	0x3e574545	0.21022518
4	0x3e37c9b0	0.17948031
5	0xbe8fa8e9	-0.28058556
6	0xbbd27c5d	-0.0064235167
7	0x3e3ce77d	0.18447681
8	0xbe8a77c1	-0.2704449
9	0xbe805b92	-0.25069863
10	0x3e32c0f2	0.17456415
11	0xbda3eead	-0.08004508
12	0xbe3a6018	-0.1820072
13	0xbdf64aa3	-0.120259546
14	0xbcdd9fa9	-0.027053671
15	0x3e347eb5	0.1762646
16	0xbd0fee35	-0.03513928
17	0xbe040a00	-0.1289444
18	0xbd3d40cd	-0.046204377
19	0xbd2e8ab5	-0.04261275
20	0xbe889226	-0.26674002
21	0xbe91b528	-0.28458524
22	0xbe745366	-0.23859939
23	0x3e341e7b	0.17589752
24	0x3d1b57a8	0.037925392
25	0xbe6db348	-0.23212922
26	0xbd18b061	-0.037277583
27	0x3c87a011	0.016555818
28	0x3e2d142e	0.16902229
29	0x3d6feb29	0.058573876
30	0xbd8d43a9	-0.06897671
31	0xbd5b5691	-0.053549353
32	0x3e1b02a2	0.15137723
33	0xbc89d745	-0.016826281
34	0x3d6c0b7c	0.05762814
35	0x3e9aab3f	0.30208775
36	0xbe7ec513	-0.24879865
37	0x3dec1d3b	0.11529013
38	0xbdba88d8	-0.09108132
39	0x3d684910	0.056710303
40	0x3e188933	0.14896087
41	0xbe9457db	-0.28973278
42	0x3dc71860	0.09721446
43	0xbc674045	-0.014114444
44	0x3d14dbeb	0.036342543
45	0xbe1d79c7	-0.15378486
46	0xbe94c247	-0.29054472
47	0xbe261c27	-0.16221677
48	0x3e379dbb	0.17931263
49	0x3d8cbafd	0.06871603
50	0xbe0f5543	-0.13997369
51	0xbe7f4136	-0.2492722
52	0xbe124eec	-0.14287919
53	0xbb93177f	-0.004488885
54	0x3e0f56f7	0.13998018
55	0xbdabaca9	-0.08382542
56	0x3e89b6f4	0.26897395
57	0x3e9209ec	0.28523195
58	0xbe5884f7	-0.21144472
59	0x3c8454dc	0.016153745
60	0x3e1eb127	0.15497266
61	0xbc8ac19b	-0.016938021
62	0x3e59296d	0.21207209
63	0xbe9e13e2	-0.30874544
64	0x3c41a4d6	0.011819085
65	0xbe5a3d8e	-0.21312544
66	0xbe355128	-0.1770674
67	0x3e354040	0.1770029
68	0xbe8edad1	-0.2790132
69	0x3e3122c6	0.17298421
70	0xbdf13fc4	-0.117797405
71	0x3dcd8cd1	0.10036624
72	0xbdb01974	-0.08598605
73	0xbd1aea53	-0.037821125
74	0xbe4e97f5	-0.20175155
75	0x3e0d78dc	0.13815635
76	0x3e047347	0.129346
77	0x3c86e0d8	0.016464636
78	0xbe7c50c6	-0.24640188
79	0xbc054f67	-0.008136607
80	0x3dc72522	0.097238794
81	0xbe0214b2	-0.12703207
82	0x3e7cee2c	0.2470023
83	0xbd1498b7	-0.036278453
84	0xbe0b8b2a	-0.13627306
85	0x3d21f84f	0.039543446
86	0x3e2a251e	0.16615722
87	0x3e592464	0.21205288
88	0x3ddde343	0.10834362
89	0xbdb1f3ca	-0.08689077
90	0x3e137095	0.14398415
91	0x3e350d50	0.1768086
92	0x3e8aa0a9	0.270757
93	0x3d11619b	0.035493474
94	0x3c55cf45	0.013049905
95	0x3e838d8c	0.2569393
96	0xbde57416	-0.11203782
97	0xbdb7012a	-0.08935769
98	0x3e8ad54f	0.27115867
99	0x3e6df12d	0.23236533
100	0xbe743258	-0.2384733
101	0xbe1b9ce1	-0.15196563
102	0xbe896a75	-0.26839033
103	0xbd483027	-0.048874047
104	0xbe46a3d5	-0.19398434
105	0xbe0b8831	-0.13626172
106	0xbc1236f5	-0.008924236
107	0xbe1d9dd6	-0.15392241
108	0xbdb6d246	-0.08926825
109	0x3e1e5682	0.15462688
110	0x3d130fb2	0.03590364
111	0x3e35228e	0.17688963
112	0xbe764ded	-0.24053164
113	0xbdd4e09c	-0.10394403
114	0x3e740ad1	0.23832251
115	0x3e815a8d	0.25264397
116	0xbe400123	-0.18750434
117	0x3da7d842	0.08195545
118	0xbdbad48e	-0.09122573
119	0xbe094570	-0.13405395
120	0x3e50f83f	0.20407198
121	0x3e17fbde	0.14842173
122	0x3e5ca633	0.21547775
123	0xbce19e64	-0.027541347
124	0xbde3bcc6	-0.1111999
125	0x3e873164	0.2640487
126	0xbdf30e75	-0.11867992
127	0x3d7a6190	0.0611282
128	0x3e1d763a	0.15377131
129	0xbe36e28f	-0.17859863
130	0xbdd5cdf9	-0.10439677
131	0xbe804327	-0.25051233
132	0x3e82e102	0.25562292
133	0x3d9501fc	0.07275769
134	0xbdd81966	-0.10551719
135	0xbdb283b5	-0.087165274
136	0x3e46dd24	0.19420296
137	0x3de8e095	0.113709606
138	0x3e376c12	0.1791232
139	0xbe1a4b55	-0.150678
140	0x3ddea74a	0.108717516
141	0xbe76852a	-0.24074236
142	0x3e033bc7	0.12815772
143	0x3e4155d2	0.18880394
144	0xbd8a72f3	-0.06760206
145	0x3cb85882	0.022503141
146	0x3e2f883e	0.17141816
147	0x3e2c2cdd	0.16813989
148	0x3e277e2e	0.16356727
149	0xbe7a21f0	-0.24427009
150	0xbe854991	-0.2603269
151	0xbe2baadf	-0.16764401
152	0x3d09aa66	0.03360977
153	0xbe67a308	-0.22620785
154	0xbd9540a6	-0.07287721
155	0xbe8ea54c	-0.27860487
156	0x3e1d36f3	0.15352993
157	0x3d429f40	0.047515154
158	0x3d0f7b18	0.0350295
159	0xbe130bf4	-0.14360029
160	0xbdc4b027	-0.09603911
161	0xbe46e246	-0.19422254
162	0x3e83185c	0.25604522
163	0xbc88c045	-0.016693244
164	0xbe090a52	-0.13382843
165	0xbe711151	-0.23541762
166	0x3df463b8	0.11933082
167	0xbcb659f8	-0.022259697
168	0xbe33550e	-0.17512915
169	0xbe72eb19	-0.23722495
170	0xbb9ac32d	-0.004722974
171	0x3daee693	0.08540072
172	0x3e1e76e3	0.15475039
173	0x3e698d48	0.22807801
174	0xbcf88817	-0.03033833
175	0x3e584607	0.21120463
176	0xbe10f20f	-0.14154838
177	0x3e7e6b77	0.24845682
178	0xbda36747	-0.07978683
179	0x3da56e54	0.08077684
180	0x3d80bbc4	0.062858135
181	0x3dbe27b7	0.09284919
182	0xbc784e88	-0.015155442
183	0xbe8ddcfd	-0.27707663
184	0x3e932efb	0.2874678
185	0x3d749ee7	0.059721854
186	0xbdb47221	-0.08810831
187	0x3e8c078f	0.27349517
188	0x3dcc4398	0.0997383
189	0xbe2e55e3	-0.1702495
190	0xbb8c3990	-0.004279323
191	0x3e3b1c4d	0.18272515
192	0x3e41fda8	0.18944418
193	0x3ddd37d4	0.10801664
194	0xbe931383	-0.28725824
195	0xbe0b1207	-0.13581096
196	0x3da469d8	0.080280006
197	0x3e48a126	0.19592723
198	0x3ddbc24b	0.10730418
199	0xbe910ff1	-0.28332475
200	0xbd4def87	-0.05027726
201	0x3e90b2d1	0.28261426
202	0xbd82bcf0	-0.06383693
203	0xbcae20bd	-0.021255845
204	0x3c8ffd50	0.017576844
205	0xbd141b20	-0.03615868
206	0x3e299e25	0.16564234
207	0xbcfb8ec4	-0.030707724
208	0xbe5eeb89	-0.21769537
209	0xbe08d850	-0.13363767
210	0x3e083341	0.13300802
211	0xbd472753	-0.048621487
212	0xbdb64cf8	-0.089013994
213	0xbe3fe184	-0.18738371
214	0x3d020a52	0.031748123
215	0x3c8adc79	0.016950833
216	0xbd812517	-0.063059025
217	0x3dc17d8e	0.09447776
218	0x3d1ff07c	0.039047703
219	0xbdf75343	-0.12076428
220	0x3e0dcdcc	0.13848037
221	0x3dddbaf2	0.108266726
222	0xbe61f7c8	-0.22067177
223	0xbd894a18	-0.067035854
224	0x3df16694	0.11787143
225	0x3e516ee8	0.20452464
226	0xbe0aabd1	-0.13542105
227	0xbd7d3f70	-0.061828077
228	0xbd7b95ec	-0.061422274
229	0xbd9a14b8	-0.07523483
230	0x3e17ae08	0.14812481
231	0xbdb1830e	-0.08667575
232	0xbe28c826	-0.164826
233	0x3e1c941d	0.15290876
234	0xbe91ae50	-0.28453302
235	0x3e8a0d9b	0.26963505
236	0x3c1cb765	0.009565209
237	0xbe35a1bc	-0.17737478
238	0x3e6b9f48	0.2300998
239	0xbd6a2974	-0.05716844
240	0x3d3801ae	0.044923477
241	0x3d6e74e8	0.05821696
242	0x3e3a97f2	0.18222025
243	0x3dffcbbf	0.12490033
244	0xbe6f7116	-0.23382983
245	0xbe3a9bdb	-0.18223517
246	0xbccee74d	-0.025256777
247	0xbd8760bf	-0.0661025
248	0xbddc6708	-0.10761839
249	0xbe2e39bc	-0.17014211
250	0x3e90c1b3	0.2827278
251	0x3d4117f1	0.047141973
252	0xbd9539fb	-0.072864495
253	0x3d290405	0.0412636
254	0xbe4d3a8b	-0.20041864
255	0x3e94fe0f	0.2910008

model.2.bias f4 [16]
0	0xbe6d5807	-0.23178111
1	0xbe53fd7f	-0.2070217
2	0xba977c1f	-0.0011557377
3	0xbd9486f7	-0.07252305
4	0xbe4fef91	-0.20306231
5	0xbe9171d0	-0.28407145
6	0xbe2a356b	-0.1662194
7	0xbe1fe894	-0.15616065
8	0x3dab6453	0.08368745
9	0xbe346766	-0.17617568
10	0xbdd8c152	-0.10583748
11	0x3e68d072	0.22735766
12	0x3e417bed	0.1889493
13	0x3e53c2a1	0.20679714
14	0xbe2f401a	-0.17114297
15	0xbe0d076c	-0.13772362

model.4.weight f4 [16, 16]
0	0xbe33c4a3	-0.1755548
1	0x3e00feb1	0.12597157
2	0xbe084c9f	-0.13310479
3	0x3e742c07	0.2384492
4	0xbe49267b	-0.19643585
5	0x3d8e4b89	0.06948001
6	0xbe975cd6	-0.29563016
7	0x3d729ee9	0.05923358
8	0x3b5c860d	0.0033649236
9	0xbe5771a1	-0.2103944
10	0xbe224310	-0.15845895
11	0x3d8d6555	0.06904093
12	0xbaf83d1e	-0.0018939113
13	0xbe35f19c	-0.17767948
14	0x3e10d02d	0.14141913
15	0xbda5bcef	-0.08092677
16	0xbe1e2728	-0.15444624
17	0xbda51a91	-0.08061708
18	0xbe2c7e00	-0.1684494
19	0xbddaebcf	-0.10689508
20	0x3cffc273	0.03122065
21	0xbd11fddd	-0.035642494
22	0xbe87d5d0	-0.26530313
23	0xbb1bcddc	-0.0023773825
24	0x3da4a8a7	0.080399804
25	0xbd838f03	-0.06423762
26	0xbc8317fe	-0.016002651
27	0x3d3f15e5	0.04665174
28	0x3e140655	0.1445554
29	0x3d8e4dd5	0.06948439
30	0x3e648341	0.22315694
31	0xbe94b9d2	-0.2904802
32	0x3e2e4436	0.17018208
33	0x3e5da0c3	0.21643357
34	0xbd17892d	-0.036996055
35	0xbce2ccd4	-0.02768556
36	0x3ea07762	0.31341082
37	0xbd3c367a	-0.04595039
38	0xbe2123a0	-0.15736246
39	0x3e155f3c	0.1458711
40	0x3d37c5c5	0.044866342
41	0x3cf9a0d9	0.030472206
42	0x3d62a3fc	0.05533217
43	0x3ca24b43	0.019811278
44	0xbe6b43f1	-0.22975136
45	0x3cb2f4f3	0.021845317
46	0xbe2fde30	-0.17174602
47	0x3d836844	0.064163715
48	0xba1870a7	-0.00058151264
49	0xbd22b3a5	-0.039722104
50	0x3e62321b	0.22089426
51	0xbdd7f872	-0.10545434
52	0xbe5652e2	-0.20930055
53	0x3dfb13a9	0.12259609
54	0x3e853758	0.26018786
55	0x3e5ddbe1	0.21665908
56	0xbdec6e50	-0.11544478
57	0x3e703cf0	0.23460746
58	0x3e653b43	0.22385888
59	0xbe3df3a3	-0.18549971
60	0x3d303df5	0.043027837
61	0xbcd792a4	-0.02631504
62	0xbe9af905	-0.30268112
63	0x3e12a125	0.14319284
64	0x3e935db1	0.28782418
65	0x3aa33edc	0.0012454647
66	0x3e01fcd4	0.12694103
67	0xbe207266	-0.1566864
68	0x3d28cbbc	0.04120992
69	0xbda84586	-0.082163855
70	0x3e6d99a3	0.23203139
71	0xbdc09794	-0.09403911
72	0xbe655899	-0.22397079
73	0x3e929299	0.2862747
74	0xbdb41191	-0.08792413
75	0xbd3b8c8d	-0.045788337
76	0x3df3707a	0.118866876
77	0x3c2b9b5c	0.010474052
78	0x3dc601e2	0.09668328
79	0xbde42432	-0.11139716
80	0xbe520653	-0.20510225
81	0xbd4ae11f	-0.0495311
82	0xbe6ea3c1	-0.23304655
83	0x3e05ae31	0.1305473
84	0x3e2e9f00	0.17052841
85	0xbe98c55e	-0.2983808
86	0xbe08c028	-0.13354552
87	0xbe04907a	-0.12945738
88	0xbddd6591	-0.10810388
89	0x3ca53558	0.020167038
90	0xbd999515	-0.07499138
91	0x3c95def7	0.018294794
92	0xbc117e9c	-0.008880284
93	0x3dcad01e	0.099029765
94	0x3e585b46	0.21128568
95	0xbe6670d6	-0.22503981
96	0x3e5a1b03	0.21299367
97	0x3cb18f83	0.021674877
98	0x3cbe26cb	0.023211857
99	0xbe9f13c4	-0.31069767
100	0xbe1629d5	-0.14664395
101	0x3dd0a178	0.10187048
102	0x3d69b787	0.05705979
103	0x3d38515b	0.04499946
104	0xbe466fb8	-0.19378555
105	0x3def96ee	0.116987094
106	0x3e8cdc58	0.2751186
107	0x3df97ef4	0.121824175
108	0xbba455f3	-0.0050151288
109	0x3e8ecb60	0.27889538
110	0x3e0d2d31	0.1378677
111	0x3e2e7f71	0.17040803
112	0xbe368d74	-0.17827398
113	0xbe8ec424	-0.27884018
114	0x3d711c2e	0.058864765
115	0xbd8435fe	-0.06455611
116	0xbe70fde1	-0.23534347
117	0x3e28f371	0.16499116
118	0xbdc432a3	-0.09579971
119	0xbd9bd84e	-0.07609616
120	0x3d512d99	0.051068876
121	0xbe8d961f	-0.27653596
122	0xbe09515a	-0.1340994
123	0xbcc359ed	-0.02384659
124	0x3da50bef	0.08058917
125	0x3e32c2d1	0.17457129
126	0x3e94b54d	0.29044572
127	0x3d883d5d	0.06652329
128	0xbddcd24e	-0.107823
129	0xbddab5ca	-0.10679205
130	0xbe353032	-0.17694166
131	0xbd905b2e	-0.07048641
132	0xbde800b0	-0.11328256
133	0xbe6ddf79	-0.2322978
134	0x3e10ad7d	0.1412868
135	0xbd44d078	-0.048050374
136	0x3e383857	0.17990242
137	0xbe6df317	-0.23237263
138	0x3e4c1a42	0.19931892
139	0x3e80b0b9	0.2513483
140	0x3e4d7291	0.20063235
141	0xbe2c7d6b	-0.16844718
142	0x3e6e1032	0.23248366
143	0xbd2db6cf	-0.042410668
144	0x3e6bafad	0.23016234
145	0xbe01404a	-0.1262218
146	0x3e39ccb8	0.181445
147	0x3e118624	0.14211327
148	0x3e1c6744	0.15273768
149	0x3e9bc4ff	0.30423734
150	0xbe0577c3	-0.13033967
151	0x3d60c631	0.05487651
152	0x3cf9711a	0.030449439
153	0xbd38b769	-0.04509679
154	0x3df59ece	0.1199318
155	0xbe87cebe	-0.2652492
156	0xbddd76db	-0.108136855
157	0x3db1dcbd	0.086846806
158	0xbd2742cc	-0.040835187
159	0x3d569e02	0.05239678
160	0x3daa8f6a	0.08328135
161	0xbd852342	-0.065008655
162	0x3d8b0727	0.067884736
163	0xbcdb2558	-0.026751205
164	0xbc9a0447	-0.018800868
165	0xbe38a6b8	-0.18032348
166	0x3dbb5cbb	0.09148546
167	0xbe157725	-0.14596231
168	0xbcb19bd9	-0.02168076
169	0xbde8342d	-0.11338077
170	0x3e8d6390	0.27615023
171	0xbca16559	-0.019701647
172	0xbd5283cc	-0.051395223
173	0xbcb4537d	-0.022012467
174	0xbdc58731	-0.09644926
175	0xbdf65960	-0.12028766
176	0x3e63d3cc	0.22248763
177	0xbe0f5001	-0.13995363
178	0xbe3d8373	-0.18507175
179	0xbe2f5aef	-0.17124532
180	0x3d26b9a2	0.040704377
181	0x3e8bad28	0.27280545
182	0x3e3bfcd4	0.18358165
183	0xbe21ebd9	-0.15812625
184	0xbe103ddf	-0.14086102
185	0x39eef47f	0.0004557706
186	0x3d63a91b	0.055581193
187	0xbe6a3ed6	-0.22875533
188	0xbdc09605	-0.09403614
189	0xbe21ca85	-0.15799911
190	0xbda31265	-0.07962493
191	0x3e8a3369	0.26992348
192	0xbe86bfd7	-0.26318237
193	0xbde2b7e1	-0.11070228
194	0xbe87e443	-0.26541337
195	0xbd7e9091	-0.062149588
196	0xbe85bb5e	-0.26119512
197	0xbdc01359	-0.0937869
198	0xbd5f1b3c	-0.054469332
199	0xbe243981	-0.16037561
200	0x3e847e41	0.25877574
201	0x3d6a2a41	0.057169203
202	0x3cecdc1d	0.028913552
203	0xbe353a9a	-0.17698136
204	0x3e8042b5	0.25050893
205	0xbe0e6f94	-0.13909751
206	0x3e85a882	0.26105124
207	0x3e4e4e2d	0.20147009
208	0xbd8e8c31	-0.06960333
209	0xbd1b94af	-0.037983593
210	0x3df7c662	0.120983854
211	0xbc897f4b	-0.01678433
212	0xbe340f16	-0.1758388
213	0xbd9f9657	-0.07792347
214	0xbdef967c	-0.116986245
215	0xbe9c3261	-0.30507186
216	0x3df2166b	0.11820682
217	0x3d737868	0.059441
218	0x3e25b64f	0.16182826
219	0x3e96d586	0.2945978
220	0x3de5f31a	0.112280086
221	0x3d07b5be	0.033132307
222	0x3e990655	0.29887643
223	0xbb8a7fae	-0.0042266464
224	0xbe142065	-0.14465483
225	0x3e0b5c99	0.13609542
226	0xbe2d19d5	-0.16904385
227	0xbe8c1d74	-0.2736622
228	0x3d5185f7	0.05115315
229	0x3e41b623	0.18917136
230	0x3dedea46	0.1161695
231	0xbad8ab84	-0.0016530608
232	0x3d766c8b	0.06016211
233	0x3a6dadb5	0.0009066717
234	0x3e86f7d5	0.26360956
235	0xbdaa891a	-0.08326931
236	0xbe8b83f0	-0.27249098
237	0xbe403140	-0.18768787
238	0x3d5d38a5	0.0540091
239	0x3dd17ffd	0.1022949
240	0x3e0592a4	0.1304422
241	0xbd01d084	-0.031692997
242	0xbdd2e5b5	-0.102977194
243	0x3e81769a	0.25285798
244	0xbd8bdb31	-0.06828917
245	0x3d065197	0.032792654
246	0xbe82a2c8	-0.25514817
247	0xbe326966	-0.17423019
248	0x3e024291	0.12720706
249	0x3dc2a8f2	0.0950488
250	0xbcf1d803	-0.029521948
251	0xbe13bfb0	-0.14428592
252	0x3db53ce1	0.08849502
253	0xbe06f2a8	-0.13178504
254	0x3df030da	0.11728068
255	0xbe6dec8c	-0.23234767

model.4.bias f4 [16]
0	0x3e7c4424	0.24635369
1	0x3e3c09f1	0.18363167
2	0xbe23d0a6	-0.15997562
3	0x3d419427	0.04726043
4	0xbe47b900	-0.19504166
5	0xbda610bc	-0.081086606
6	0x3e167a29	0.14695038
7	0x3e5fe112	0.21863201
8	0x3e021bbe	0.12705895
9	0x3d1e3448	0.038624078
10	0x3e2522eb	0.16126601
11	0x3e0eb00a	0.13934341
12	0x3ce68b27	0.028142525
13	0x3e74615d	0.23865266
14	0x3cd76100	0.02629137
15	0x3d2c2f84	0.042037502

model.6.weight f4 [16, 16]
0	0x3e453359	0.19257869
1	0x3e944b23	0.28963575
2	0xbdd07374	-0.10178271
3	0xbcea5187	-0.028603328
4	0xbe66409d	-0.22485586
5	0xbc322fb8	-0.010875635
6	0xbe0cc2d7	-0.137462
7	0x3bb2785b	0.0054464764
8	0xbdfc7b1b	-0.12328168
9	0xbe343f4e	-0.17602274
10	0x3e2385e6	0.15969047
11	0xbd0e1952	-0.034692116
12	0xbdeb0434	-0.11475411
13	0x3e05dfe9	0.13073696
14	0xbd9045fe	-0.070446
15	0xbd8dd540	-0.0692544
16	0x3dac074c	0.08399829
17	0xbe20ecb6	-0.15715298
18	0xbc3f3f99	-0.011672878
19	0xbe2638c5	-0.16232593
20	0xbe37ee43	-0.17961983
21	0x3ea1bf3e	0.3159122
22	0xbea4b2f3	-0.32167777
23	0x3c76565c	0.015035238
24	0xbe24dff3	-0.16101055
25	0xbe5a7b73	-0.21336155
26	0xbdada837	-0.0847935
27	0xbe677266	-0.22602233
28	0xbdf291ab	-0.1184419
29	0x3e7d93d6	0.24763426
30	0xbdf474fe	-0.11936377
31	0x3e2d76c8	0.16939843
32	0xbda5dded	-0.080989696
33	0xbe329343	-0.17438988
34	0x3bee5034	0.0072727446
35	0x3d565fff	0.052337643
36	0x3e066d6c	0.13127679
37	0xbe9b20e5	-0.30298534
38	0x3e227dee	0.15868351
39	0xbe7fc5e4	-0.24977833
40	0x3d46563e	0.04842209
41	0x3dab8e05	0.083766975
42	0xbcabc78e	-0.020969179
43	0x3c9f74ee	0.019464936
44	0x3c062a9b	0.008188869
45	0xbe5b99d6	-0.21445403
46	0xbc1f216f	-0.009712561
47	0xbe6ad550	-0.22932935
48	0xbd3189dd	-0.043344367
49	0xbda00827	-0.07814055
50	0x3ea27966	0.31733245
51	0x3e45c812	0.19314602
52	0x3de57b8c	0.11205205
53	0xbe7e11b5	-0.24811442
54	0x3da078f6	0.078355715
55	0x3e29d1a0	0.16583872
56	0xbe498649	-0.19680132
57	0x3e64bed3	0.22338419
58	0xbe8135ea	-0.25236446
59	0x3da6d399	0.08145828
60	0x3d81346d	0.063088275
61	0xbd204bbc	-0.039134726
62	0x3e193539	0.14961709
63	0xbdfed578	-0.1244306
64	0xbdc67ba0	-0.09691548
65	0x3e9328eb	0.28742155
66	0x3e3a41a9	0.1818911
67	0x3e45e5b0	0.193259
68	0xbdfdc1a0	-0.12390447
69	0x3db55ae2	0.08855225
70	0xbd4d97df	-0.050193664
71	0x3de90826	0.11378507
72	0xbd8ad908	-0.06779677
73	0x3d44eb59	0.048076008
74	0xbca213bc	-0.0197848
75	0xbd48d315	-0.04902943
76	0xbe2f9dba	-0.17150012
77	0x3d083030	0.03324908
78	0xbe5b5793	-0.21420126
79	0x3a8e62ec	0.0010863221
80	0x3cc7ab42	0.024373654
81	0x3d954f0d	0.07290468
82	0x3dacfe3e	0.0844693
83	0x3dd9983b	0.10624739
84	0x3d3490c8	0.044083387
85	0xbd28bdad	-0.041196514
86	0xbde0797f	-0.109606735
87	0xbcee65bc	-0.029101245
88	0xbe6b1d5b	-0.22960417
89	0x3e96970d	0.29412118
90	0x3e500867	0.20315705
91	0xbe19eda0	-0.15032053
92	0xbd17e6be	-0.037085287
93	0x3e045739	0.12923898
94	0x3e91bc1b	0.28463826
95	0xbea97fb3	-0.3310524
96	0xbdc4955c	-0.095988005
97	0x3e86ec24	0.26352036
98	0x3d61ce05	0.055128116
99	0x3dea0873	0.11427393
100	0xbe826589	-0.2546809
101	0x3e7d7e4f	0.24755214
102	0x3e18bf31	0.14916684
103	0x3e808448	0.25100923
104	0x3e85b914	0.26117766
105	0xbe35c5f1	-0.1775129
106	0x3e27b1f9	0.16376485
107	0xbdab9f06	-0.08379941
108	0x3e8db6c3	0.276785
109	0x3de38843	0.11109974
110	0x3e2c7b64	0.16843945
111	0x3c94adc4	0.018149264
112	0xbcdf7e0b	-0.027281782
113	0x3e78c39e	0.24293372
114	0xbdab97e5	-0.08378581
115	0xbe88733c	-0.26650417
116	0x3dc9969b	0.09843179
117	0xbcba56da	-0.022746492
118	0x3da8e0bf	0.08245992
119	0x3e92ff1d	0.2871026
120	0x3ddcdbf1	0.10784138
121	0x3d35d10a	0.04438881
122	0xbd7508d7	-0.059822883
123	0xbe66df86	-0.22546205
124	0x3b9ad78d	0.0047254027
125	0xbce87c7d	-0.028379673
126	0xbd8cd1b4	-0.06875935
127	0xbde2a79c	-0.11067125
128	0x3e25e06b	0.1619889
129	0x3e86980c	0.26287878
130	0x3cc7a5bc	0.02437102
131	0xbde82a0b	-0.11336144
132	0xbe49b723	-0.19698767
133	0xbe5f9138	-0.2183274
134	0x3dea61c0	0.114444256
135	0x3e240d4e	0.160207
136	0x3e5ef46f	0.21772932
137	0x3b898fe3	0.004198061
138	0xbe13c08e	-0.14428923
139	0x3d83fbc2	0.06444503
140	0x3e053716	0.13009295
141	0x3e751832	0.23935011
142	0x3dc4ed57	0.096155815
143	0x39cf5e87	0.00039552545
144	0x3c0afa97	0.008482597
145	0xbe60f142	-0.21967033
146	0x3dedbc7f	0.116082184
147	0xbdeb3f56	-0.1148669
148	0x3e929618	0.28630137
149	0x3db8534e	0.09000264
150	0x3e6e2181	0.23254968
151	0xbe99f6c9	-0.30071095
152	0xbcb41c0e	-0.021986034
153	0x3e9ee41c	0.3103341
154	0x3e40941e	0.18806502
155	0x3e872a8a	0.26399642
156	0xbe60fa83	-0.21970563
157	0x3e05e494	0.13075477
158	0x3e9d1d38	0.30686355
159	0xbe1fbf63	-0.15600352
160	0x3c9314d5	0.01795427
161	0xbe1f7c6f	-0.15574811
162	0x3d00aade	0.03141295
163	0x3e925b33	0.28585204
164	0xbd236092	-0.03988702
165	0xbe53afad	-0.20672484
166	0x3bb4a0fc	0.005512355
167	0xbe6266d6	-0.22109541
168	0xbe9c6235	-0.30543676
169	0x3bd36ad3	0.0064519434
170	0x3db4f81f	0.08836388
171	0x3d58131a	0.05275259
172	0xbe95cabd	-0.2925624
173	0xbddb5812	-0.107101575
174	0x3dad3cc2	0.08458854
175	0xbe3096ac	-0.17244977
176	0xbdf91491	-0.12162126
177	0xbe893f41	-0.2680607
178	0x3e6d43b6	0.23170361
179	0x3e806878	0.25079703
180	0xbd5df546	-0.05418899
181	0xbe046569	-0.1292931
182	0x3ea63310	0.32460833
183	0x3e02623e	0.12732789
184	0xbe351988	-0.1768552
185	0x3e96a63e	0.29423708
186	0x3d9e6924	0.07734898
187	0x3d8911db	0.06692859
188	0xbea213c8	-0.31655717
189	0x3def5a54	0.116871506
190	0xbe2c9540	-0.1685381
191	0xbe86e752	-0.26348358
192	0x3d7538d7	0.05986866
193	0x3de6fe1f	0.112789385
194	0xbe9f9962	-0.3117171
195	0xbd782171	-0.060578767
196	0xbe74b4a5	-0.23897035
197	0x3e4a95d6	0.1978372
198	0xbd8e10b7	-0.06936782
199	0x3df56975	0.11983005
200	0xbdd6bd4d	-0.10485325
201	0xbea6505d	-0.32483187
202	0xbdcd1f33	-0.100157164
203	0xbdc702de	-0.09717344
204	0xbd26aa1b	-0.04068957
205	0x3d815768	0.063154995
206	0x3de493b7	0.11160987
207	0xbd23e82d	-0.040016342
208	0x3e92762e	0.2860579
209	0xbd09e911	-0.033669535
210	0x3dbbd58e	0.09171592
211	0x3e04cbb5	0.12968333
212	0xbdb7f91b	-0.0898306
213	0x3e8735db	0.26408276
214	0x3ae11832	0.0017173348
215	0x3dd3901c	0.10330221
216	0x3e83bad8	0.25728488
217	0xbe05deef	-0.13073324
218	0x3e3b97f2	0.18319681
219	0x3dd828c1	0.10554648
220	0x3e243cbd	0.16038795
221	0x3cec3d6e	0.028837886
222	0xbe6feae6	-0.2342945
223	0x3e65ba18	0.2243427
224	0xbc8ee85d	-0.017444784
225	0x3e7544cd	0.23952027
226	0xbdee399d	-0.116320826
227	0xbe756d5e	-0.23967502
228	0x3dce0284	0.100590736
229	0x3ea0e21b	0.31422505
230	0xbe84cdd9	-0.259383
231	0x3e795960	0.243505
232	0xbe0f8c32	-0.14018324
233	0x3deaf237	0.1147198
234	0xbd919fe9	-0.071105786
235	0x3e14cbbf	0.14530848
236	0x3e43c39c	0.19117588
237	0x3dd45ad8	0.103688896
238	0xbe2e434e	-0.17017862
239	0xbc18d497	-0.009328029
240	0xbe23e5e7	-0.1600567
241	0x3df77885	0.12083534
242	0x3e620d1a	0.2207531
243	0x3db748b0	0.08949411
244	0x3c63cf58	0.013904415
245	0xbc1a62aa	-0.009422937
246	0x3e30dab7	0.17270933
247	0xbbbf52ef	-0.005838744
248	0xbdd31445	-0.103066005
249	0x3e974db6	0.29551476
250	0x3d063e20	0.03277409
251	0x3e2ce5cc	0.16884536
252	0x3e05c092	0.13061741
253	0xbd71c936	-0.05902978
254	0x3da5e3b8	0.081000745
255	0xbd4f25aa	-0.05057303

model.6.bias f4 [16]
0	0x3dd17f2e	0.10229336
1	0x3ddf525a	0.10904379
2	0xbdf9d89d	-0.12199519
3	0xbdb20eea	-0.08694251
4	0xbe2bbaf2	-0.16770533
5	0x3e4da92f	0.2008407
6	0x3dac0291	0.08398927
7	0x3e552296	0.20813975
8	0x3e37f94c	0.17966193
9	0xbdae24fd	-0.08503149
10	0xbd5e0170	-0.05420059
11	0xbe152113	-0.14563398
12	0xbd8d693c	-0.069048375
13	0x3e91a23d	0.2844409
14	0x3d6c1d52	0.05764515
15	0xbe6ed06f	-0.23321699

model.8.weight f4 [16, 16]
0	0x3d998bd4	0.07497373
1	0xbdcbf161	-0.09958149
2	0xbda353a2	-0.07974936
3	0xbc5177db	-0.012784923
4	0xbd97268d	-0.073804
5	0x3b6b4f7e	0.0035905535
6	0xbd22f814	-0.039787367
7	0x3e493b22	0.19651464
8	0x3df1dcd3	0.11809697
9	0xbdf80c6c	-0.12111744
10	0xbd67e203	-0.056612026
11	0xbe53102f	-0.20611642
12	0x3e969c4f	0.2941613
13	0x3d29dbd9	0.04146943
14	0x3dd48502	0.10376932
15	0xbdb45859	-0.088059135
16	0xbd95a69d	-0.073071696
17	0xbe055e03	-0.13024144
18	0xbda3d9e4	-0.08000544
19	0x3debff22	0.11523272
20	0x3dfbd2a9	0.122960396
21	0x3e58318d	0.21112652
22	0x3cb61d6b	0.022230824
23	0xbe99c145	-0.30030265
24	0xbe01b1cc	-0.1266548
25	0x3d93cbee	0.07216631
26	0x3e15aaf9	0.14616002
27	0xbc89e6e3	-0.016833728
28	0xbc6fdf0c	-0.014640581
29	0xbe8cd4a8	-0.27505994
30	0xbc522579	-0.012826317
31	0xbe32b8a4	-0.17453247
32	0x3d8356ba	0.06413026
33	0x3d7bd059	0.061477993
34	0xbe86336d	-0.2621111
35	0xbd0fc35c	-0.03509842
36	0xbe81b0d4	-0.25330222
37	0xbe0a1d8c	-0.13487834
38	0x3e7dea68	0.2479645
39	0x3d94d1c5	0.07266573
40	0xbd472194	-0.048616007
41	0x3da3c1e5	0.07995967
42	0xbe445dc8	-0.191764
43	0xbe366125	-0.17810495
44	0x3e43a1b1	0.19104649
45	0x3e9e8236	0.30958718
46	0x3e769c93	0.24083166
47	0xbdc4cc43	-0.09609272
48	0x3e835c7b	0.25656494
49	0x3dca5ae4	0.09880617
50	0xbe7302d4	-0.23731548
51	0xbe0cfb91	-0.1376784
52	0x3de557e7	0.11198407
53	0xbe594e8e	-0.21221372
54	0xbdc294f4	-0.09501067
55	0x3e08f702	0.13375476
56	0xbe345dd5	-0.17613919
57	0xbe761c28	-0.24034178
58	0xbe1ba296	-0.1519874
59	0xbe26a5e0	-0.16274214
60	0xbd833054	-0.06405702
61	0x3e81997e	0.25312418
62	0x3ceea76d	0.02913257
63	0x3d9d1b6d	0.07671247
64	0x3e833914	0.25629485
65	0x3c54d16a	0.012989381
66	0xbe7cc00f	-0.2468264
67	0x3d81dd4d	0.06341038
68	0x3e23b1a7	0.15985738
69	0x3e5009ab	0.20316188
70	0xbde8206f	-0.11334311
71	0x3e0a2bf3	0.13493328
72	0xbe399091	-0.18121554
73	0xbdde4b54	-0.108542114
74	0xbd25d318	-0.040484518
75	0x3e57d4a6	0.21077213
76	0xbe115b9e	-0.14195105
77	0x3e80367b	0.25041565
78	0xbe3ecd38	-0.18632972
79	0xbe654e86	-0.22393236
80	0x3df453bc	0.119300336
81	0xbd8d024b	-0.06885203
82	0x3d89fea5	0.06738023
83	0xbe979b02	-0.2961045
84	0x3dc54b30	0.096334815
85	0x3d5ee225	0.054414887
86	0x3ea0baf2	0.31392628
87	0x3cdfe61b	0.027331403
88	0xbc59b88d	-0.013288629
89	0xba455866	-0.0007528126
90	0x3c8a0ff2	0.016853306
91	0xbdfbe836	-0.1230015
92	0xbd3fb3f1	-0.046802465
93	0xbc87d0e1	-0.016579093
94	0x3e7f57be	0.24935815
95	0xbe3f40f7	-0.18677126
96	0xbe29b8a7	-0.16574346
97	0xbe439121	-0.19098331
98	0xbd4fc3db	-0.05072389
99	0x3e018eb8	0.12652099
100	0xbda5bde2	-0.08092858
101	0xbcd5acf2	-0.026083443
102	0xbe8ed127	-0.27893946
103	0x3d46faff	0.048579212
104	0x3d970f60	0.073759794
105	0x3e208480	0.15675545
106	0xbcacfd97	-0.021117015
107	0x3e87d8fa	0.26532727
108	0x3ccfc12a	0.025360662
109	0xbe4ce93d	-0.20010848
110	0xbe82c6a6	-0.25542182
111	0xbd608535	-0.054814536
112	0x3d863b24	0.06554249
113	0x3ea0094c	0.31257093
114	0xbe9776a3	-0.295827
115	0xbd95065d	-0.07276604
116	0x3d9fd0d9	0.078035064
117	0xbe39441f	-0.18092392
118	0x3e9edecd	0.31029359
119	0xbe39cb62	-0.1814399
120	0x3d79396d	0.06084578
121	0xbdbe515e	-0.09292863
122	0xbe11aac3	-0.14225297
123	0x3cee354f	0.029078154
124	0x3dfa5998	0.1222412
125	0x3d3d7ede	0.046263568
126	0x3d1231e8	0.035692126
127	0xbe30fde8	-0.17284358
128	0x3e784b30	0.24247432
129	0x3e05660a	0.13027206
130	0xbe6e3daf	-0.23265718
131	0x3e0fb37e	0.14033315
132	0x3e09feea	0.13476148
133	0x3e04c58f	0.12965988
134	0x3e6b9080	0.23004341
135	0x3e51b294	0.20478278
136	0x3e986a1c	0.29768455
137	0xbe88ee8b	-0.26744494
138	0xbda0366c	-0.0782288
139	0x3e1a919a	0.15094605
140	0xbe0cf1a0	-0.13764048
141	0xbbd14d0f	-0.00638736
142	0xbdacdea3	-0.08440902
143	0x3ddab71c	0.106794566
144	0x3e54b3b6	0.2077168
145	0xbcc17678	-0.02361606
146	0xbd27bebd	-0.040953387
147	0xbe35aaec	-0.17740983
148	0xbe14e2c1	-0.14539625
149	0x3bab479c	0.0052270424
150	0x3e13c9ae	0.14432403
151	0xbe14841f	-0.14503525
152	0x3e81288f	0.25226256
153	0xbe3fe421	-0.18739368
154	0xbd43874e	-0.04773646
155	0xbe6eb358	-0.23310602
156	0xbd09e229	-0.03366295
157	0x3e52ab98	0.2057327
158	0x3e4fd4f5	0.2029608
159	0xbe002165	-0.12512739
160	0xbe968196	-0.2939574
161	0xbce75627	-0.028239323
162	0x3e66ca12	0.22538021
163	0x3e5e09e0	0.21683455
164	0xbe2afd40	-0.1669817
165	0x3e12aaf3	0.14323024
166	0xbddad273	-0.10684671
167	0xbdea133f	-0.11429452
168	0xbe8a95df	-0.27067468
169	0x3d054861	0.03253973
170	0x3e1359c1	0.14389707
171	0x3e8c3fd0	0.27392435
172	0xbe035718	-0.12826192
173	0xbd257de1	-0.04040325
174	0xbe05c081	-0.13061716
175	0xbdea4b24	-0.11440113
176	0xbe007b5d	-0.1254706
177	0xbae0fb48	-0.0017164731
178	0xbc96eb68	-0.018422797
179	0x3e731821	0.23739673
180	0xbde91815	-0.113815464
181	0x3d1ae79e	0.037818544
182	0x3c3527f2	0.011056887
183	0x3ce8f902	0.028439049
184	0xbd6cae24	-0.05778326
185	0x3d435679	0.04768989
186	0x3e2c1963	0.1680656
187	0x3e4a14f6	0.19734558
188	0xbe98f173	-0.2987171
189	0xbe575f97	-0.21032558
190	0xbc30f257	-0.010799966
191	0x3e18ad19	0.14909782
192	0xbe5e33ed	-0.21699496
193	0xbe56688b	-0.20938317
194	0x3e6e0a52	0.23246124
195	0xbe3350a7	-0.17511235
196	0xbbeb95e6	-0.0071895
197	0xbd84d139	-0.064852186
198	0xbe8f0650	-0.27934504
199	0xbe5c4220	-0.215096
200	0x3e0b12fa	0.13581458
201	0x3e80ab6b	0.25130782
202	0xbe19f0fe	-0.15033337
203	0xbde4a705	-0.11164669
204	0xbe853956	-0.26020306
205	0xbe4621a9	-0.19348778
206	0xbe7ab3cd	-0.24482651
207	0x3e8d1bb2	0.27560192
208	0xbe8a6b54	-0.2703501
209	0xbe4fefbb	-0.20306294
210	0x3d213ae0	0.03936279
211	0x3cc45a01	0.023968698
212	0x3de59ecb	0.11211928
213	0x3dd3008e	0.1030284
214	0x3b35b15f	0.002772413
215	0xbdaec617	-0.085338764
216	0xbe2715c7	-0.16316901
217	0x3e238d36	0.15971836
218	0xbc88f189	-0.016716735
219	0x3e5b4c60	0.21415854
220	0x3db3d81e	0.087814555
221	0xbe41ac79	-0.1891345
222	0xbd7fc795	-0.062446196
223	0xbd8bd02a	-0.068268135
224	0xbdd3738c	-0.10324773
225	0xbda4c33b	-0.0804505
226	0x3e677c7b	0.2260608
227	0x3e7b08f7	0.24515139
228	0xbe178130	-0.14795375
229	0x3cc16de7	0.023611976
230	0x3e123ffb	0.14282219
231	0xbe6bf0d0	-0.23041081
232	0xba3a1fb3	-0.00071000605
233	0xbdc6348d	-0.09677992
234	0x3e49ba9f	0.19700097
235	0xbe26e4d0	-0.16298223
236	0xbe644985	-0.2229367
237	0xbe0412df	-0.12897824
238	0xbe327bbf	-0.17430018
239	0xbddcc68e	-0.10780059
240	0x3d9fb96e	0.0779904
241	0xbe31984f	-0.17343257
242	0xbe70d4c2	-0.2351866
243	0x3e307a15	0.1723407
244	0x3e0e3100	0.1388588
245	0xbc235cfd	-0.009970901
246	0xbd1d2ecb	-0.038374703
247	0xbde65c04	-0.11248019
248	0x3dd672e4	0.104711324
249	0xbe047928	-0.12936842
250	0x39b2b243	0.0003408362
251	0xbe26861d	-0.16262098
252	0xbcf0171f	-0.0293079
253	0xbc9b6172	-0.018967364
254	0x3d8078bd	0.06273029
255	0xbe3cf348	-0.1845218

model.8.bias f4 [16]
0	0x3d817bb4	0.063224226
1	0xbe4ae1ee	-0.19812748
2	0xbd1e884c	-0.0387042
3	0xbe21dce1	-0.15806915
4	0x3d8898e3	0.06669786
5	0x3e8a75dc	0.27043045
6	0xbe882909	-0.26593807
7	0x3c978e58	0.018500492
8	0x3e68146c	0.2266404
9	0x3e73e2cb	0.23816983
10	0xbe05896f	-0.13040708
11	0xb9803ab3	-0.00024457797
12	0xbd835e4d	-0.06414471
13	0xbdbbde69	-0.09173281
14	0x3d1a0dcf	0.037610825
15	0xbe101a92	-0.14072636

model.10.weight f4 [16, 16]
0	0xbcae21be	-0.021256324
1	0x3cd55a19	0.026043938
2	0xbe9ffead	-0.3124899
3	0x3e29dc3f	0.16587923
4	0x3e098720	0.13430452
5	0x3c4bf6f6	0.012449017
6	0xbe2eb937	-0.17062841
7	0xbe8cfe80	-0.27537918
8	0x3c0f7994	0.008757014
9	0xbd442af4	-0.047892526
10	0x3e266d41	0.16252615
11	0x3e9c723f	0.30555913
12	0x3db17068	0.08664018
13	0x3e350841	0.1767893
14	0x3e568c60	0.20951986
15	0xbd8ad4d1	-0.06778873
16	0xbe76ea26	-0.24112758
17	0x3e42c1c6	0.19019231
18	0xbe89df32	-0.26928097
19	0x3db521e6	0.08844356
20	0x3df229a1	0.11824346
21	0xbdd0a67f	-0.101880066
22	0x3e103b07	0.14085017
23	0xbe0dccc6	-0.13847646
24	0xbe6bdebd	-0.23034187
25	0x3dada85e	0.08479379
26	0x3e646b0b	0.22306459
27	0x3e86bfac	0.2631811
28	0x3e8ab2a9	0.27089432
29	0x3da94978	0.08265966
30	0xbd45b829	-0.048271332
31	0xbe4d9f8e	-0.20080397
32	0xbe70f035	-0.23529132
33	0x3e4e2426	0.20130977
34	0xbe8a7814	-0.27044737
35	0xbdd611dd	-0.10452626
36	0x3df4acdd	0.119470336
37	0xbe9d3b65	-0.30709377
38	0x3cfb8357	0.030702276
39	0x3da247bb	0.07923838
40	0xbe0a4567	-0.13503037
41	0xbd7da157	-0.061921444
42	0x3e1f2e4e	0.15545008
43	0x3cd0584e	0.025432732
44	0x3e2d0a1e	0.1689839
45	0x3d2ab85a	0.041679718
46	0xbe0dc622	-0.13845113
47	0xbe48f7d5	-0.1962579
48	0x3e5c0b01	0.21488573
49	0xbe20e5cc	-0.1571266
50	0x3e94f13a	0.2909029
51	0x3e81ef24	0.25377762
52	0xbdd4deb3	-0.10394039
53	0x3e5e5bea	0.2171475
54	0xbd801e5d	-0.06255791
55	0x3d3ccc51	0.04609329
56	0xbd8f51ae	-0.06998001
57	0xbdaab76c	-0.08335766
58	0xbe5f705c	-0.21820205
59	0xbe8ff7b5	-0.28118673
60	0x3e21e8ae	0.15811417
61	0xbe9f8837	-0.3115861
62	0xbe85bbe4	-0.26119912
63	0xbdb02f3f	-0.086027615
64	0xbe5ed7d0	-0.21762013
65	0x3e859b1b	0.260949
66	0xbe9f6d5e	-0.31138128
67	0xbde17c33	-0.11010017
68	0xbe406e88	-0.18792164
69	0x3da8960a	0.08231743
70	0xbe013ef6	-0.12621674
71	0x3ccb5c99	0.024824427
72	0x3e11bd61	0.14232399
73	0xbb602b44	-0.0034205476
74	0x3e91c20a	0.28468353
75	0x3e9c1b87	0.30489752
76	0x3e971fd5	0.29516473
77	0xbd4574dd	-0.048207153
78	0xbe0a9da1	-0.13536693
79	0xbc726b0e	-0.014796032
80	0x3e65b507	0.22432338
81	0xbe0cef38	-0.1376313
82	0x3e16d584	0.14729887
83	0x3e386ee0	0.18011045
84	0xbe06aa08	-0.131508
85	0xbe022697	-0.12710033
86	0xbe1df74f	-0.15426372
87	0x3dd1a444	0.10236409
88	0x3e4e562e	0.20150062
89	0x3e478c92	0.19487217
90	0x3d97cac3	0.074117206
91	0xbe88f4ff	-0.26749417
92	0xbe87b91d	-0.26508418
93	0x3e21cff5	0.15801986
94	0xbe31d2db	-0.17365591
95	0xbce304ed	-0.02771231
96	0x3ea4723a	0.32118398
97	0xbe8ceaf8	-0.27523017
98	0x3e1b5996	0.15170893
99	0x3d722aef	0.059122976
100	0xbe3c2e72	-0.18377092
101	0xbdbee526	-0.0932105
102	0xbddd90f6	-0.10818665
103	0xbe200aee	-0.1562917
104	0x3e834be0	0.25643826
105	0x3de65d72	0.11248292
106	0xbe7ac6d5	-0.24489911
107	0xbe9089cc	-0.2823013
108	0xbe8aea7d	-0.27132025
109	0x3c2eebaa	0.010676304
110	0xbe51bd51	-0.20482375
111	0xbe0b5e28	-0.13610137
112	0xbe0008e3	-0.1250339
113	0x3e3e2c59	0.18571605
114	0x3e2bdc0a	0.16783157
115	0xbe27866f	-0.16359876
116	0xbdba77ff	-0.09104919
117	0xbe59b15a	-0.2125906
118	0x3dad48ff	0.084611885
119	0xbe6f420f	-0.23365043
120	0xbdb44e16	-0.08803956
121	0xbe217707	-0.15768062
122	0xbde148c7	-0.11000209
123	0x3e956789	0.29180554
124	0x3e3f1c99	0.18663253
125	0x3e0e481d	0.13894697
126	0x3e59e155	0.21277364
127	0xbd310d3c	-0.043225512
128	0x3e1bfa73	0.15232258
129	0xbe01e720	-0.12685823
130	0x3df59ce3	0.119928144
131	0x3dea68e0	0.114457846
132	0x3e8540d1	0.26026013
133	0xbd939b19	-0.07207317
134	0xbe916a1d	-0.2840127
135	0x3e9bdcaf	0.30441806
136	0xbadbc7e1	-0.0016767943
137	0x3d8302c5	0.063970126
138	0xbc3d1f7d	-0.011543152
139	0xbe86d837	-0.26336834
140	0xbe6559c8	-0.2239753
141	0xbe278f35	-0.16363223
142	0xbe6cce48	-0.23125565
143	0x3da48c22	0.08034541
144	0xbd549710	-0.051901877
145	0xbe525d6b	-0.20543449
146	0x3e1c1331	0.15241696
147	0x3e5d6361	0.21619941
148	0xbd9a1499	-0.0752346
149	0x3dd59d3f	0.10430383
150	0xbdeb2d40	-0.1148324
151	0x3e90b257	0.28261063
152	0x3dbd635b	0.09247466
153	0x3de70c45	0.11281637
154	0x3ddaa0aa	0.106751755
155	0xbd86e52c	-0.0658668
156	0xbd6382a3	-0.055544507
157	0xbe64861c	-0.22316784
158	0xbd4497d0	-0.047996342
159	0xbce23bb0	-0.027616352
160	0x3e878ce5	0.26474681
161	0xbe6f2dde	-0.2335734
162	0x3df8db5d	0.12151215
163	0x3e67bae4	0.22629887
164	0x3e5292f1	0.20563866
165	0x3e1e8b6d	0.15482874
166	0x3db99f03	0.09063532
167	0x3d8e542c	0.06949648
168	0x3e52978d	0.20565625
169	0x3d8cd72e	0.0687698
170	0x3ded1d4e	0.11577855
171	0x3d0299bd	0.031884898
172	0xbe263b1e	-0.16233489
173	0xbd740e8a	-0.059584178
174	0xbe4765c8	-0.1947242
175	0x3e271f8a	0.16320625
176	0xbe09bdda	-0.13451329
177	0x3de919d2	0.11381878
178	0x3df30c55	0.118675865
179	0x3d7b9248	0.0614188
180	0xbbed670e	-0.007244951
181	0x3d883872	0.06651391
182	0xbe42be4f	-0.1901791
183	0x3d62aaa8	0.05533853
184	0x3e1a0781	0.15041925
185	0x3e126733	0.1429718
186	0xbe98d738	-0.298517
187	0xbe467775	-0.19381507
188	0xbe842b4c	-0.25814283
189	0xbcbb78c8	-0.022884741
190	0xbe1a0e96	-0.15044627
191	0xbe659ac0	-0.22422314
192	0xbd7710f6	-0.06031891
193	0xbdf38c51	-0.118919976
194	0x3dade22d	0.08490405
195	0x3d9dca48	0.07704598
196	0x3e611732	0.21981505
197	0x3dab38dc	0.083604544
198	0xbda7451b	-0.08167478
199	0xbd125432	-0.035724826
200	0xbe304f38	-0.1721772
201	0x3e00ef33	0.12591247
202	0xbe9a78bb	-0.30170235
203	0xbe1ae6c8	-0.15127099
204	0xbe9ba1cb	-0.30396876
205	0xbe6e2a7b	-0.23258393
206	0x3d506323	0.050875794
207	0xbe609e47	-0.21935378
208	0xbd434ffb	-0.047683697
209	0xbe969827	-0.29412958
210	0x3e162e31	0.14666058
211	0x3e36df55	0.17858632
212	0x3e14973f	0.14510821
213	0x3e950207	0.2910311
214	0x3d03439c	0.0320469
215	0x3e951ca0	0.29123402
216	0x3de5ed34	0.112268835
217	0x3d4f26a7	0.05057397
218	0xbc6f58bb	-0.014608557
219	0x3d841654	0.06449571
220	0xbe8713b5	-0.26382223
221	0x3db259c3	0.08708527
222	0xbcf4b7e4	-0.029872842
223	0x3e15280f	0.14566062
224	0x3d6b5c57	0.05746111
225	0x3e3b65dc	0.18300575
226	0x3e9ce217	0.30641243
227	0xbd607120	-0.054795384
228	0x3dd412bd	0.103551365
229	0x3e814aa0	0.25252247
230	0xbc75bcb0	-0.0149986
231	0x3d2c3355	0.04204114
232	0x3d2c981e	0.042137258
233	0x3c194c5b	0.0093565835
234	0xbe0fc049	-0.14038195
235	0xbe974fa8	-0.2955296
236	0xbe873405	-0.26406875
237	0xbc6461e4	-0.013939355
238	0xbe747414	-0.23872405
239	0x3c49c79b	0.012315656
240	0xbd7ea15d	-0.062165607
241	0xbe4136be	-0.18868539
242	0x3e0a9646	0.13533887
243	0x3e4aa195	0.19788201
244	0xbe3b6bc1	-0.18302824
245	0x3ea51b17	0.3224723
246	0xbe550699	-0.20803298
247	0x3e608457	0.21925484
248	0x3e6f8683	0.23391156
249	0xbdb344a3	-0.08753326
250	0x3cb71037	0.022346599
251	0xbe234bdc	-0.15946907
252	0xbcf7ce0d	-0.03024962
253	0x3de11502	0.10990335
254	0x3c9216ca	0.017833132
255	0x3e4b48cc	0.19851989

model.10.bias f4 [16]
0	0xbc91aefa	-0.01778363
1	0xbe36ddc2	-0.17858031
2	0xbe1b6f28	-0.15179121
3	0xbdb684ca	-0.08912046
4	0xbe236842	-0.1595774
5	0x3deafbef	0.11473834
6	0x3ca7cff1	0.020484896
7	0xbde4317f	-0.11142253
8	0x3b8aeb13	0.004239449
9	0x3e02320e	0.12714407
10	0xbd8b5ef6	-0.06805222
11	0x3e008308	0.12549984
12	0x3d566af5	0.052348096
13	0x3e6c839e	0.23097083
14	0xbe53f584	-0.20699126
15	0x3e9598b3	0.29218063

model.12.weight f4 [16, 16]
0	0x3e1d6fda	0.15374699
1	0xbe8a3cce	-0.26999515
2	0xbe1e4e50	-0.15459561
3	0x3e5017fb	0.20321648
4	0x3d9e2ccc	0.07723388
5	0x3dc181a8	0.09448558
6	0x3ea9e776	0.33184403
7	0xbe2b7c38	-0.16746604
8	0xbba410fd	-0.005006908
9	0xbc3f26ab	-0.011666934
10	0xbdde1f6d	-0.10845838
11	0x3cf0ba57	0.029385729
12	0x3db8f338	0.09030765
13	0x3e4363bd	0.19081016
14	0x3e992b5a	0.29915887
15	0x3d8ce16d	0.06878934
16	0xbde86575	-0.113474764
17	0x3dcb062b	0.09913286
18	0x3e045bdf	0.12925671
19	0x3e83321e	0.25624174
20	0xbe9fe3cc	-0.31228483
21	0x3e56db74	0.20982152
22	0xbd8a47d8	-0.06751984
23	0xbdcc4e44	-0.099758655
24	0xbe04ee9c	-0.12981647
25	0x3e808de3	0.2510825
26	0x3c0fc59a	0.008775139
27	0xbd1e269b	-0.038611036
28	0x3c182e95	0.00928845
29	0x3df40819	0.11915607
30	0x3ded3186	0.115817115
31	0x3c1ee37b	0.00969779
32	0x3df47cb1	0.119378455
33	0xbe932ab6	-0.28743523
34	0xbe8ef8d5	-0.2792422
35	0xbd74571f	-0.059653398
36	0xbe4982a0	-0.19678736
37	0x3e031137	0.12799536
38	0x3e7c5155	0.246404
39	0xbd54597e	-0.05184316
40	0x3e6d2571	0.23158814
41	0xbd85e620	-0.065380335
42	0xbe08e16a	-0.13367239
43	0x3d908504	0.07056621
44	0x3e4c7d5f	0.199697
45	0xbd74e4d9	-0.05978856
46	0x3e6b2f85	0.22967346
47	0x3e9a23c6	0.30105418
48	0xbd914646	-0.07093482
49	0xbe23dbc0	-0.16001797
50	0xbe6682c7	-0.22510825
51	0xbccb2120	-0.024796069
52	0xbe3b6b67	-0.1830269
53	0xbdb2cfa5	-0.08731011
54	0xba43ed67	-0.00074740354
55	0xbea04bca	-0.31307822
56	0x3e824e1f	0.25450227
57	0x3e0da867	0.13833772
58	0x3e881027	0.26574823
59	0x3e9428f4	0.28937495
60	0xbd27608d	-0.040863562
61	0xbc99baf3	-0.018765902
62	0x3e064be8	0.13114893
63	0x3dde3164	0.10849264
64	0xbd95c66a	-0.07313235
65	0x3e3dc016	0.18530306
66	0xbdaf0897	-0.0854656
67	0x3e05e687	0.1307622
68	0xbd4f05b6	-0.050542556
69	0xbe10ab1f	-0.14127778
70	0xbe61c53a	-0.22047892
71	0x3e149fb5	0.14514048
72	0xbe896546	-0.26835078
73	0xbe10b1b1	-0.14130284
74	0xbe666ede	-0.2250323
75	0xbe6f99f2	-0.23398569
76	0xbd984843	-0.07435658
77	0xbe8d810a	-0.27637511
78	0x3d9a35e6	0.075298116
79	0x3dd58450	0.10425627
80	0xbda2df01	-0.07952691
81	0xbdc983ac	-0.098395675
82	0xbcefbafa	-0.029263962
83	0xbe89e554	-0.26932776
84	0x3d502d9b	0.050824743
85	0xbeb44e7f	-0.35216138
86	0xbe90416b	-0.2817491
87	0xbd477de6	-0.04870405
88	0xbe581f3b	-0.21105663
89	0xbe0f4295	-0.13990243
90	0x3e2b4d15	0.16728623
91	0x3ccec642	0.025241021
92	0xbe064640	-0.13112736
93	0xbeab222e	-0.33424515
94	0xbe87ee1b	-0.26548848
95	0xbb8fa662	-0.004383848
96	0xbe4d2386	-0.20033082
97	0xbe167762	-0.14693978
98	0xbd8ef9e7	-0.06981259
99	0xbd0340f2	-0.03204436
100	0xbe1bf024	-0.15228325
101	0xbb72716f	-0.0036993881
102	0x3e6b5877	0.22982965
103	0xbe79cb4f	-0.24393962
104	0x3e3188e9	0.17337383
105	0x3d5b1eb0	0.053496063
106	0x3e679455	0.22615178
107	0x3e002b7b	0.12516586
108	0x3e7529cb	0.23941724
109	0xbcce44b4	-0.025179245
110	0xbe0b5876	-0.13607964
111	0x3e044ba8	0.12919486
112	0xbe088841	-0.13333227
113	0x3e02b6f4	0.12765104
114	0xbe471a98	-0.19443738
115	0x3e1c1918	0.15243948
116	0xbe511359	-0.20417537
117	0x3dc236c4	0.09483102
118	0x3e8c4736	0.2739808
119	0xbccdb964	-0.025112815
120	0x3daedbe2	0.08538033
121	0x3eaf5a58	0.34248614
122	0x3d4c498d	0.04987483
123	0xbdf6e619	-0.120556064
124	0x3e8f150d	0.27945748
125	0x3ea57e66	0.32322997
126	0xbd9a6423	-0.07538631
127	0x3e9bda7f	0.30440137
128	0xbe74cbbb	-0.23905842
129	0xbd200385	-0.039065856
130	0xbea2e639	-0.3181627
131	0x3d86e341	0.06586314
132	0x3d8bd9ad	0.06828628
133	0x3e7bbf84	0.24584776
134	0x3d558fe9	0.052139197
135	0x3e17512a	0.14777055
136	0xbcd39871	-0.025829526
137	0x3e52ab8c	0.20573252
138	0x3e0c8501	0.13722612
139	0x3ddce628	0.10786086
140	0xbd359bae	-0.04433792
141	0x3e561c95	0.2090934
142	0x3cd3970d	0.025828863
143	0x3e4f1154	0.20221454
144	0x3d70ae8e	0.05876022
145	0xbd1218e2	-0.03566826
146	0xbd391e62	-0.04519499
147	0xbe67c3c3	-0.22633271
148	0xbdbe0949	-0.09279115
149	0xbe766809	-0.24063124
150	0xbe18c366	-0.14918289
151	0x3e91b6d5	0.28459802
152	0xbe90a263	-0.2824889
153	0x3da86356	0.08222072
154	0xbe1e454a	-0.15456119
155	0x3d8cdd39	0.068781324
156	0xbdce0281	-0.10059071
157	0x3d087411	0.033313815
158	0x3e317ff0	0.1733396
159	0xbeaa53f8	-0.33267188
160	0xbe853f82	-0.26025015
161	0xbd14923a	-0.036272265
162	0xbdb29405	-0.08719639
163	0xbd8bda19	-0.06828708
164	0x3dfb09e4	0.12257746
165	0x3df2b172	0.11850251
166	0xba3230e4	-0.00067974464
167	0xbe7108bc	-0.23538488
168	0x3e8add92	0.2712217
169	0x3e473ba7	0.1945635
170	0x3dc8c7cf	0.098037355
171	0x3e06e937	0.13174902
172	0x3e7b066d	0.2451417
173	0xbd2daad0	-0.042399228
174	0x3e4dfd2f	0.20116113
175	0x3d1b05f2	0.037847467
176	0xbe77fcf9	-0.24217595
177	0xbe8e16fa	-0.27751905
178	0xbe9e9ed6	-0.30980557
179	0x3e463f4f	0.19360088
180	0xbe59159d	-0.21199651
181	0xbd684631	-0.056707565
182	0xbdd70536	-0.10499041
183	0x3dbc4ec5	0.091947116
184	0x3e2d2b46	0.16911039
185	0xbd658f62	-0.056044944
186	0x3e0b8873	0.1362627
187	0x3e352ea8	0.17693579
188	0x3dda408d	0.10656843
189	0x3cca2a88	0.024678484
190	0xbd35db8e	-0.044398837
191	0x3e114902	0.14188007
192	0xbe246f48	-0.16058075
193	0xbe173dc7	-0.1476966
194	0xbce337d4	-0.027736582
195	0x3e61fe5a	0.22069684
196	0xbe8a2320	-0.26979923
197	0xbd19aaec	-0.03751652
198	0x3e5fadfb	0.21843712
199	0xbe8345cb	-0.25639185
200	0x3c769c73	0.015051949
201	0x3e413c45	0.18870647
202	0x3e8cc34c	0.2749275
203	0x3e5b2f8f	0.21404861
204	0x3dc03edc	0.093869895
205	0x3d84de6e	0.064877376
206	0x3dad7ab4	0.084706694
207	0x3d959b11	0.07304967
208	0x3e3cdc1f	0.18443345
209	0xbd4078f4	-0.04699035
210	0x3cd1545a	0.025552917
211	0xbe36999c	-0.17832035
212	0x3df762f4	0.12079421
213	0xbe999153	-0.29993686
214	0xbdb739ab	-0.08946546
215	0x3ea11732	0.3146301
216	0x3d091a91	0.0334726
217	0xbd978a65	-0.073994435
218	0x3e16f40d	0.14741535
219	0xbe040acd	-0.12894745
220	0xbbcd313b	-0.0062619722
221	0xbe5474c0	-0.20747662
222	0xbdf1384d	-0.11778317
223	0x3d9a3810	0.07530224
224	0xbd49f8b9	-0.049309466
225	0x3d81bb8e	0.06334601
226	0xbdf96723	-0.12177875
227	0xbe67186f	-0.22567914
228	0x3e4c66a7	0.19961034
229	0xbe96e172	-0.29468876
230	0xbde4ca53	-0.11171403
231	0x3e6d7644	0.23189646
232	0xbe986efc	-0.29772174
233	0xbe33eb38	-0.17570198
234	0xbdc820e4	-0.097718984
235	0x3c2564a9	0.0100948
236	0xbe7cbdbf	-0.24681757
237	0xbe534d68	-0.20634997
238	0xbe7b7643	-0.24556832
239	0x3bf963fb	0.0076107956
240	0xbe2041b6	-0.15650067
241	0xbc82e8fc	-0.015980236
242	0xbe593baa	-0.21214166
243	0x3d795b97	0.060878363
244	0x3c4121b5	0.011787822
245	0x3e9c65bc	0.30546367
246	0xbcbd03f1	-0.023073168
247	0x3d7d971e	0.061911695
248	0x3e8cfdfc	0.27537525
249	0x3d0c9456	0.03432115
250	0x3d2d78ac	0.04235141
251	0xbd74502f	-0.05964678
252	0x3dafb3dd	0.08579228
253	0x3e22685c	0.15860122
254	0xbc4f67fb	-0.012659068
255	0x3e731807	0.23739634

model.12.bias f4 [16]
0	0xbe1fed1e	-0.15617797
1	0xbd3e27ae	-0.04642456
2	0x3e858014	0.26074278
3	0x3c18e450	0.009331778
4	0xbe5e2801	-0.21694948
5	0xbe4f98d6	-0.20273146
6	0xbe2123aa	-0.15736261
7	0x3e96b4cc	0.29434812
8	0x3e8f9931	0.28046563
9	0xbd54c494	-0.051945284
10	0x3d3a8c70	0.045544088
11	0x3e558599	0.20851745
12	0x3d6be37b	0.05758999
13	0xbe4f2373	-0.20228367
14	0xbd31305c	-0.04325901
15	0x3d33bcef	0.043881353

model.14.weight f4 [1, 16]
0	0xbe936632	-0.28788906
1	0xbd84ee47	-0.0649076
2	0xbe319f9e	-0.17346045
3	0xbea8bdfa	-0.3295744
4	0x3df22f99	0.11825485
5	0x3e3c8be7	0.18412744
6	0xbea302b4	-0.31838
7	0xbdc8b497	-0.0980007
8	0xbe1e2ff2	-0.15447977
9	0x3e9d6519	0.30741194
10	0xbea2a519	-0.31766585
11	0xbe50039e	-0.2031388
12	0xbe570e41	-0.21001531
13	0x3e69d8ea	0.22836652
14	0x3e80627c	0.25075138
15	0xbeb6367b	-0.3558844
