PINNS/models/HeatEq/checkpoints_Adam/best_dict.pt (torch, 9233 bytes, 23 tensors)

layers.input.weight f4 [6, 2]
00000000: be33 0c3f c3bd 43be 406d 2dbf 1695 e3be
00000010: 73ae 00bf 2e0b 08bf a447 ad3d 82d5 16bf
00000020: 8585 623e 63e2 343d bef7 db3e 765e cb3e
0.5476645 -0.19115357 -0.6774483 -0.4444968 -0.5026619 -0.5314206 0.0846093 -0.5891954
0.22121246 0.04416121 0.4296245 0.39720505

layers.input.bias f4 [6]
00000000: df40 19be 6f83 2fbe 8743 0b3f 91d7 21bf
00000010: 6aca a53e 38ca 0bbf
-0.14966153 -0.17139982 0.54399914 -0.63219553 0.32380992 -0.54605436

layers.hidden_0.weight f4 [6, 6]
00000000: 9676 9b3e 4c36 9ebe 63b2 933e e69c 713e
00000010: 64a3 c6be 4c3f bd3e fcb4 6abd f6d1 6c3e
00000020: 9b95 333e 8600 b73e 0c3d 0ebd fc6a bd3c
00000030: 71db 8c3e 755b babe 2a6d 863e a00d ca3e
00000040: 2b34 9cbe 053a d4bc 2983 e7bd 5862 94bd
00000050: 9491 5e3d 7a43 45be 7e36 65be 2d3d 3d3d
00000060: 7e73 2c3e f77b bc3d e550 ef3d 735e 843e
00000070: bc15 babe 7921 72bd 0130 ab3e f858 a1be
00000080: f29c cabd 7fcf 8c3e 44e2 a6be f322 1abe
0.3036391 -0.309008 0.28847036 0.23595008 -0.38796532 0.36962354 -0.057301506 0.23126969
0.17537539 0.35742587 -0.034726188 0.023122303 0.2751117 -0.363979 0.2625516 0.3946352
-0.3050855 -0.025906572 -0.11304314 -0.0724532 0.054338053 -0.19264022 -0.22384068 0.04620092
0.16840932 0.09203332 0.11685351 0.2585331 -0.36344707 -0.059113953 0.33435062 -0.3151319
-0.09893216 0.27502057 -0.32594502 -0.15052395

layers.hidden_0.bias f4 [6]
00000000: 0cb3 afbe 119d a83e bf61 dabe 3a57 10be
00000010: c783 a6be 58db d93e
-0.3431629 0.32932332 -0.426527 -0.14095774 -0.32522413 0.42550159

layers.hidden_1.weight f4 [6, 6]
00000000: bf43 0e3d 587c 91be 71b0 bebe 33e0 95be
00000010: ed72 513e 7247 c6bd 5502 ab3e 4dec 8abe
00000020: 9ef2 8e3d 1067 56be 089b fe3c 32e4 cabd
00000030: f08f c1be b942 94be b109 913e ebff 67be
00000040: e313 603e a568 d6bd ab7d 88be ce6c a7bd
00000050: 162f 453e 797a 103e 3efb 143e 0737 aa3d
00000060: 2efd 26be d0bd d03d 1645 b33e 34d9 a63e
00000070: d116 463e ee36 54be 724b 923e 2079 b73e
00000080: 7006 163e a92d b73e 8992 113e c491 9fbe
0.034732576 -0.2841518 -0.3724399 -0.29272613 0.20453997 -0.09681596 0.33400217 -0.27133408
0.06979869 -0.20937753 0.031079784 -0.09906806 -0.37805128 -0.28957155 0.28327706 -0.22656219
0.21882586 -0.10469178 -0.26658377 -0.0817505 0.19256243 0.1410922 0.14548966 0.08311277
-0.16307518 0.10192454 0.35013646 0.32587588 0.19344641 -0.20724079 0.28573185 0.358346
0.14650893 0.35777023 0.14216055 -0.31165898

layers.hidden_1.bias f4 [6]
00000000: 47fb a03d 50fe 0a3e 78b5 9e3e 019b debe
00000010: 82ff 853e f3f9 b0bd
0.07860427 0.13573575 0.30997825 -0.43477634 0.261715 -0.08641424

layers.hidden_2.weight f4 [6, 6]
00000000: 8627 853e 6248 a53e 98e7 cabd ec5b 4cbd
00000010: 8836 403e 8dec 1e3e 3717 9a3e 8692 0cbd
00000020: 45a5 b23e a1bd 9c3e 7be6 713e fbd6 76be
00000030: 1ea4 c63d bb57 c03e 9428 8cbe 726b c3bb
00000040: a2df ab3e 0897 b53e ee16 c1be 8a0d 3a3d
00000050: be43 84be c1e5 c9be ac72 bebe d8a6 a6be
00000060: a247 3c3e be12 be3e acda b43e bb22 653e
00000070: 6363 1b3e e61d 3dbe efd5 b7be 931a c93e
00000080: 19b0 31be 3268 b03e 2b7e 62be e153 b43e
0.26006716 0.32281786 -0.09907454 -0.04989235 0.18770802 0.15519924 0.30095837 -0.034319423
0.34891716 0.30613425 0.23623078 -0.24105446 0.096992716 0.37566933 -0.2737471 -0.005963736
0.33569056 0.3546679 -0.37712806 0.045423068 -0.25832933 -0.394331 -0.37196863 -0.32549167
0.18386701 0.37123674 0.35323083 0.2237653 0.15174632 -0.18468437 -0.35905406 0.39278087
-0.17352332 0.34454495 -0.22118442 0.35220245

layers.hidden_2.bias f4 [6]
00000000: 9e5e 86be bca2 20be d741 c1bd db20 23be
00000010: 7d94 4bbe 2ad1 4cbe
-0.26244062 -0.15687078 -0.09436386 -0.15930502 -0.19880863 -0.20001665

layers.hidden_3.weight f4 [6, 6]
00000000: b872 d03c b639 293e eec8 b9bc 0ad3 9a3e
00000010: 148d b0ba a48e 85be a6a4 bb3e 68ba ccbe
00000020: 4677 283e cce9 9abe 5ac9 363e 4084 bb3e
00000030: a65d 74be e485 8a3d f7bc 483e 071c aabe
00000040: 5c8a 21be 1dd0 05be 6e3a 7ebe ad36 eebd
00000050: 6e38 4e3e a62d 9b3e ef75 a03e 91ce 5fbe
00000060: b93f acbe 9acc dcbd 8465 8cbd 69b3 963e
00000070: 402f a3be c8fb 67be 06ca 7dbd d25d c93e
00000080: ac8f bb3d 03c9 42be f13c c93e 1f53 603e
0.025445327 0.16525921 -0.022678819 0.30239135 -0.0013469779 -0.2608539 0.36649054 -0.39985967
0.16451749 -0.30256498 0.17850247 0.36624336 -0.23863849 0.06763819 0.19603334 -0.33224508
-0.15775436 -0.1306767 -0.24826977 -0.11631522 0.20138714 0.30308264 0.31339976 -0.21856143
-0.33642367 -0.10781212 -0.068553 0.29433754 -0.31871986 -0.2265464 -0.061960243 0.39329392
0.091582626 -0.19021992 0.39304307 0.21906708

layers.hidden_3.bias f4 [6]
00000000: 9ace 6b3d 8ef9 203d d537 d73e 77ec 8bbe
00000010: 838f e2bd 5de0 103e
0.057570077 0.039300494 0.42034784 -0.27328846 -0.11062529 0.14148088

layers.hidden_4.weight f4 [6, 6]
00000000: 272a 543e 9445 9a3e ba46 b2be 2dbe 8dbe
00000010: cc38 0abd 1675 813c b4ec d83d 3072 643e
00000020: b3ca 5a3e 4213 0b3e 9562 aa3d d25e 6abe
00000030: 799d d83d 234f 8e3e 4e08 d7bd 6400 b0be
00000040: c254 5dbd 7887 473e a1d6 083e 055b ae3c
00000050: 7626 d13b a20f 99be 619e 803e 86d5 15be
00000060: cc2f 58bd 2435 3e3e b7ee b9bd 9aac 9d3e
00000070: f28e b0be 909b 1fbe c846 d3be 2190 c33e
00000080: e504 6dbe d3b1 963e 31e6 353e 1a13 1abc
0.20719205 0.3013121 -0.34819585 -0.27684155 -0.033745572 0.015802901 0.105920225 0.22309184
0.21366386 0.13581565 0.08319584 -0.22887734 0.105769105 0.27794752 -0.10499631 -0.34375298
-0.05403591 0.19485271 0.13363124 0.021283636 0.0063827587 -0.2989474 0.25120834 -0.14632234
-0.052779958 0.18574959 -0.09078734 0.30795747 -0.3448406 -0.15586686 -0.4126494 0.381959
-0.23146398 0.29432544 0.17763592 -0.009403968

layers.hidden_4.bias f4 [6]
00000000: afed a3be f71b 803d 26d2 913e 9a54 823e
00000010: 1227 b43e e140 133e
-0.32017276 0.06255334 0.28480643 0.2545517 0.35186058 0.14380218

layers.hidden_5.weight f4 [6, 6]
00000000: 5478 53be 44e5 8d3e dd85 2c3e 6583 d9bd
00000010: 7b87 44bd 188c 41be 692c 273e 3f6e 56be
00000020: 1e58 cbbe aa23 943e 6e2e d5be 74c5 bebe
00000030: 950c bf3e 90c9 3dbe 108e 8e3e 56ac abbc
00000040: 254f 34be 61db ab3e f541 acbe dc16 aabe
00000050: d1e9 c53c 1ab6 8d3d 94af 33bb a421 b83e
00000060: 8417 2cbd 948e b2bd 1440 7c3e 0e95 973e
00000070: 9726 f03d e6d2 c33e 6ac6 b9be ee1e ab3e
00000080: bc5e 96be fa90 653e 729c 9ebe 0c9c 17be
-0.2065137 0.27713978 0.1684794 -0.10620765 -0.047980767 -0.18901098 0.16325535 -0.20940493
-0.39715666 0.2893346 -0.41636986 -0.3726002 0.37314287 -0.18533921 0.2784276 -0.0209562
-0.17608316 0.3356581 -0.3364407 -0.33220565 0.024159344 0.06919499 -0.0027417885 0.35963166
-0.042014614 -0.08718601 0.24633819 0.29605907 0.117261104 0.3824684 -0.3628419 0.33422035
-0.29369152 0.22418585 -0.30978733 -0.14805621

layers.hidden_5.bias f4 [6]
00000000: 74c3 683d 9064 8c3e ca56 fa3d 88c8 743d
00000010: b402 a4be c4c8 8abe
0.056827024 0.27420473 0.12223585 0.059761554 -0.32033312 -0.27106297

layers.hidden_6.weight f4 [6, 6]
00000000: 8d61 b2be f6e1 c3be 9c2f 173e aecb 9d3e
00000010: 01e7 12bd 0e22 c53d 0071 5ab9 0cc0 953e
00000020: c75e f43d 28c6 37be bc77 6a3e b9e5 bdbe
00000030: 6104 96be c885 073e cda3 a3be 31d5 8a3e
00000040: a6a5 38be b7ff bc3e ddb7 9a3e 0349 453e
00000050: 006c 1cbe ecad 6fbe f761 a23e 0351 0cbe
00000060: fcd0 49be 0344 0e3d 0311 66be c7a6 d43e
00000070: 7484 28be 88ec 373e 3655 4f3e 6c2a b73c
00000080: c9ba 46be 2f31 443e a8ab 063e 66fe 2bbd
-0.3484005 -0.38258332 0.14764255 0.30819458 -0.035864834 0.09625636 -0.00020832196 0.29248083
0.1193214 -0.17946684 0.22897238 -0.37089327 -0.29300216 0.13234627 -0.31960908 0.27115777
-0.1803194 0.36913845 0.30218402 0.19266133 -0.15275574 -0.2340619 0.31715366 -0.13702779
-0.19708627 0.03473283 -0.22467427 0.4153349 -0.16456777 0.17961323 0.20247349 0.022359096
-0.1940719 0.19159387 0.13151419 -0.04199066

layers.hidden_6.bias f4 [6]
00000000: 0932 053e 33bb 98be 4cfe 613e a4e2 d93d
00000010: 6746 4cbd 2d90 a33e
0.13007368 -0.29830322 0.22069663 0.106389314 -0.04987183 0.31945935

layers.hidden_7.weight f4 [6, 6]
00000000: ec87 9b3e 9c10 c93e 43d6 383e 9dc6 ba3d
00000010: 8300 3cbb 9557 87be 429c 9d3e 891f 4fbe
00000020: 60e4 673c eaa4 c33d 8049 c6be 327d 72be
00000030: 3439 5e3e e567 4b3e cab4 b9bd 9d64 9cbe
00000040: 48ae 1ebe 4536 fdbd 2f2f adbe 0afb c4be
00000050: 6459 543d 848e 30be d82c a83e 015b d0bd
00000060: fc97 52bd bb1c 5c3e e613 0e3e 01c5 043d
00000070: 080b ca3e 21ee bebe a39b 3c3e 7301 043c
00000080: 3a1a cc3e 2025 c939 40fc 54be 784e c5bd
0.30377138 0.39270484 0.18050484 0.09119914 -0.0028686828 -0.26434007 0.30783278 -0.20226873
0.01415357 0.09552939 -0.3872795 -0.2368057 0.21701509 0.19863851 -0.09067686 -0.30545512
-0.1549617 -0.12363867 -0.3382506 -0.38472778 0.051843062 -0.17241865 0.32846713 -0.101736076
-0.051414475 0.21495335 0.13874778 0.03241444 0.3946154 -0.37291053 0.18418746 0.008056986
0.3986376 0.00038365368 -0.2079935 -0.09634107

layers.hidden_7.bias f4 [6]
00000000: db96 0abe ec9d 3d3e c59b dbbe 2fb9 903e
00000010: d7db b1be 9a6a 18bd
-0.1353411 0.18517274 -0.4289228 0.28266284 -0.34738037 -0.03721104

layers.hidden_8.weight f4 [6, 6]
00000000: 6162 403e d3ac 9f3d c16e a03e 7b64 4cbe
00000010: 0da0 993e c259 7cbe cfbb 573e 114e a43e
00000020: f909 91bd 964a b8be ae0e 82be 6b3d 033e
00000030: 9ca7 f7bb 26d6 a73e 51a9 dabd 5465 25be
00000040: 224e d0be 028f 243e dcfb b93e 1f60 3cbe
00000050: 7e6c bdbd 145d c4bb 77f7 303e 2386 5b3e
00000060: d62c 013e aaf4 293e 40c8 aa3c 9f01 4e3e
00000070: 093e 70be 7aed 823e f726 3dbe ee7d 803e
00000080: 0f71 8abe 674b a33e c56b 893e 0932 1bbe
0.18787529 0.077966355 0.313345 -0.19960205 0.30004922 -0.24643615 0.21067737 0.3209081
-0.0708198 -0.35994405 -0.25401825 0.12816398 -0.0075578224 0.3278057 -0.10676826 -0.16151935
-0.4068461 0.16070178 0.36324966 -0.18396042 -0.09249209 -0.005992541 0.172819 0.21437888
0.1261476 0.16597238 0.02084744 0.20117806 -0.23461165 0.25571805 -0.18471895 0.25096077
-0.27039382 0.31893465 0.26840034 -0.15155806

layers.hidden_8.bias f4 [6]
00000000: 06e3 513d 04ca 36be 88c2 f13d a9e4 003e
00000010: 52e2 9b3d 2849 debe
0.051241897 -0.178505 0.11804682 0.12587227 0.076115265 -0.4341519

layers.hidden_9.weight f4 [6, 6]
00000000: 9b6f 0e3e ce3c 31bd 8dac c93d 481a 2e3e
00000010: 604d 49be d44b 9d3d a013 073e 32e2 ac3e
00000020: 299a 8abe c5e2 5ebe 2e0f 1c3e 788e 0dbe
00000030: 66c4 8abc 686e 033e 0cec 89be 06d0 653e
00000040: 7575 ddbd 5222 3a3e 174c d03e fd5b 7c3e
00000050: 9c1d 0fbe fba5 ac3e b84c a5bd ba2e d53e
00000060: 5d57 9bbe dc4d 8b3e 4763 d43d 3dce b1bd
00000070: 9c20 85be c711 1fbc 8d14 853e 2f6f 4d3e
00000080: ec3c d33d cb5e 673e 871f a4bd eba4 81be
0.13909762 -0.04327088 0.098473646 0.17002213 -0.19658422 0.07680479 0.1319108 0.33766323
-0.2707074 -0.21766193 0.15240166 -0.13823879 -0.016939353 0.12835085 -0.26937902 0.22442636
-0.10813419 0.18177155 0.40683052 0.24644466 -0.13976139 0.33720383 -0.080712736 0.41637212
-0.3034009 0.2720784 0.10370498 -0.08681915 -0.2600144 -0.009708828 0.25992242 0.20061944
0.10314354 0.22594754 -0.08013826 -0.25321135

layers.hidden_9.bias f4 [6]
00000000: 1223 3ebe 839d 35be 14c5 20be c69f b1bd
00000010: a561 0a3e 170c 9dbe
-0.18568066 -0.17735867 -0.1570018 -0.086730525 0.13513811 -0.30673286

layers.output.weight f4 [1, 6]
00000000: 6909 a3be e655 67be 8475 063e 4ae1 c6be
00000010: 51dd 063e 2282 7a3c
-0.31843117 -0.22591361 0.13130766 -0.38843757 0.13170363 0.015289815
