PINNS/models/HeatEq/checkpoints_Adam/best_dict.pt (torch, 9233 bytes, 23 tensors)

layers.input.weight f4 [6, 2]
00000000: e20a e33e ae1d bcbd 2e4e ff3d 64a4 283f
00000010: 34ad febe 94f2 903d 7e5e 23bf 044c dbbc
00000020: 9670 11be 88e2 c13e 2c95 86be 5bec 103f
0.4434424 -0.091853485 0.124660835 0.6587584 -0.49741518 0.07077518 -0.6381606 -0.026769646
-0.14203104 0.37868142 -0.26285684 0.5661065

layers.input.bias f4 [6]
00000000: be90 00bf 6a93 743d 9dcc 8e3e 345e 1abf
00000010: 842e 933e 84fe 22bf
-0.5022086 0.059710898 0.27890483 -0.6029999 0.28746426 -0.6366961

layers.hidden_0.weight f4 [6, 6]
00000000: f900 05be 2653 57bd 8572 a23e ab3c 433d
00000010: 4d6f a9be 58c8 a2be a42d 98be 8438 9cbe
00000020: e222 d93e 1a8a 9f3e 9f4a b23b b5bb 8d3e
00000030: 003e b03e 486b 88be c7c1 ed3d 09c8 2c3e
00000040: 4c75 b33e f3db 09be fb03 1e3e a598 693e
00000050: 3ddd d2bd 070c 5d3e b699 813e dcf8 a7be
00000060: c742 4bbe 74ac c2bd d667 803e 9a18 d6bc
00000070: 39b5 85be 3090 6bbd bfed 32be 3158 68be
00000080: fa1f 70bb 0d5e aabe 9e8b bc3e 82e8 e33d
-0.12988652 -0.05256953 0.31727996 0.04766528 -0.33092728 -0.31793475 -0.2972232 -0.30511868
0.42409426 0.3116005 0.0054410244 0.27682272 0.34422302 -0.2664435 0.11609226 0.16873182
0.35050428 -0.1346281 0.15431206 0.22812136 -0.10296104 0.2158662 0.25312585 -0.32807052
-0.19849692 -0.09505549 0.2507922 -0.026134778 -0.26114824 -0.057510555 -0.17473505 -0.22689892
-0.0036640153 -0.3327488 0.3682527 0.11128332

layers.hidden_0.bias f4 [6]
00000000: 6743 243e 80be 263e f833 8a3e 9d32 45be
00000010: b5a0 bf3e 83e1 afbe
0.16041337 0.16283607 0.26992774 -0.19257589 0.37427297 -0.3435174

layers.hidden_1.weight f4 [6, 6]
00000000: 534c 3a3e ee07 8ebd 64c8 60be eba3 a1be
00000010: fec8 0dbe 6147 573e ce0f 7e3b 7ce2 693d
00000020: 19d6 e63d 617d b3be 123f a0bb 32a9 0ebb
00000030: 532a 84be 54db da3d 6076 23be 401f bc3d
00000040: 8f33 c6bd 5a4b aabe f737 24be cda3 993e
00000050: 6d51 5c3e 7176 0bbe abc6 84bd 2552 d23d
00000060: 9066 643c f737 24bd b2e7 76bc 786e 073e
00000070: e038 a4bd 9487 de3d 36e7 773e 76c9 23be
00000080: b159 60be bedd 16be f59a 953e 57c3 8bbe
0.18193178 -0.06935106 -0.21951443 -0.31570372 -0.13846204 0.21023323 0.0038766745 0.057100758
0.11271305 -0.35056594 -0.004890331 -0.0021768329 -0.2581354 0.10686365 -0.15963125 0.09185648
-0.09677803 -0.33260614 -0.16036974 0.30007783 0.21515436 -0.136194 -0.064832054 0.10269574
0.013940468 -0.040092435 -0.015069889 0.13225734 -0.080186605 0.10865703 0.24209294 -0.1599482
-0.21909215 -0.14733025 0.29219785 -0.2729747

layers.hidden_1.bias f4 [6]
00000000: 4fef 2bbd b498 8d3d 9026 113d 972c 763e
00000010: ee50 b03e f88b ae3e
-0.04197627 0.069138914 0.035437167 0.24040447 0.34436744 0.34091163

layers.hidden_2.weight f4 [6, 6]
00000000: 3ecb c43e 4c5d 95be ccf2 ee3d b993 acbe
00000010: a93e 8d3c b2b9 c1be 2a1c b03d d241 06be
00000020: ac29 fabd 1164 af3e af24 68bd 1e6b 16be
00000030: 3f45 33be 30ab c7bd eedf e8bd 13cd 723e
00000040: e6ab 99be 6741 5f3e 56a1 953e 75b7 a9be
00000050: d5ac e83d 44c5 9b3e 4566 38be e9e8 a0bd
00000060: ab9c d1be a5d5 79bd f868 09be eca9 4bbc
00000070: fd5d b93e d095 b3bc 67f8 3dbe 4dba a1be
00000080: 0cb4 073d 89e1 523e a0d1 9abe 975c 283e
0.3843631 -0.29172742 0.116674036 -0.33706453 0.017241793 -0.37836987 0.08599122 -0.13111046
-0.122149795 0.34256032 -0.05667561 -0.146893 -0.17506884 -0.09749448 -0.11370836 0.23711042
-0.3001396 0.21802293 0.29224652 -0.3314778 0.1136109 0.3042394 -0.18007763 -0.07856924
-0.4093984 -0.060994763 -0.13418949 -0.012430649 0.3620452 -0.021922022 -0.18551789 -0.3158745
0.03313069 0.20593847 -0.30238056 0.1644157

layers.hidden_2.bias f4 [6]
00000000: dec2 c33e 241d 3abd 4d9e cc3e 399c 793e
00000010: 0322 a13e 9580 58be
0.3823461 -0.045437947 0.39964524 0.24376 0.3147126 -0.211428

layers.hidden_3.weight f4 [6, 6]
00000000: 3209 f5bc 2472 003e f2f3 dfbd ae0e 82be
00000010: 286d 59bb 7015 bcbd c751 71be 2333 13be
00000020: 976a 75be b668 f73d ff12 aa3d 5e5f 8e3e
00000030: 22d0 4cbe 11c1 9e3e 9c17 123e 809a b5be
00000040: 52c5 62bd 71c2 be3d 48ba c7be c933 7a3e
00000050: 996e 9d3e b681 c93d 6724 793e 5b80 ab3d
00000060: ea65 d2bd 645e 43bd c470 d6be b162 d83d
00000070: 3097 39be 4e9d 0f3e 81df 97be dba8 873e
00000080: 874c 62bd 47c0 d9bc 4f1b 733e 2dc7 80be
-0.029911611 0.12543541 -0.10935201 -0.25401825 -0.0033176634 -0.091837764 -0.23566352 -0.14374976
-0.23966442 0.12080519 0.083044045 0.27807134 -0.20001271 0.31006673 0.14266819 -0.35469437
-0.05536396 0.093144305 -0.3900931 0.24433817 0.30748442 0.098391935 0.24330293 0.08374091
-0.10273345 -0.04769744 -0.41882908 0.10565699 -0.1812408 0.1402485 -0.29662707 0.26496014
-0.055248763 -0.026580943 0.23740886 -0.2515196

layers.hidden_3.bias f4 [6]
00000000: 7f86 b73e 132f 233e 6838 1bbe d906 573e
00000010: 7da1 ccbe 35e7 903e
0.358448 0.15935926 -0.15158236 0.20998706 -0.39966956 0.28301397

layers.hidden_4.weight f4 [6, 6]
00000000: ce0e 713e 6935 7fbd 5612 453e f043 c1be
00000010: 0aee bebe 9a57 80be 142c dabd 2c0f a9be
00000020: a5ef bebe 2540 afbd c797 433e e6c1 b2bd
00000030: 8285 173e 79a3 7f3e 6656 823c 1790 b7be
00000040: 0197 d0be c5f5 b1bd ada9 913e e944 953e
00000050: 480e 3fbe 63bf db3b fcc8 b23d f866 9d3d
00000060: 4de3 833e 0ce6 c83e e943 223d f2c0 c1bd
00000070: 4c97 b0be 02f4 85be aaff 13be 49be c9be
00000080: 58d2 b9be 3e0c d0be f42c 9b3e 89d6 8cbe
0.23540804 -0.062306795 0.19245276 -0.37747145 -0.37290984 -0.25066835 -0.106529385 -0.33019388
-0.3729221 -0.085571565 0.19100867 -0.087283894 0.14797023 0.24964704 0.015910339 -0.3585212
-0.40740207 -0.08689455 0.28449765 0.29154137 -0.18657792 0.0067061647 0.08729741 0.07685655
0.25759354 0.39238012 0.039615545 -0.094606295 -0.3449043 -0.26162726 -0.14452997 -0.3940299
-0.36293292 -0.4063434 0.30307734 -0.27507427

layers.hidden_4.bias f4 [6]
00000000: 418c 803e 1d1e a2bd 68a5 4ebd e424 7ebe
00000010: 86be 41bd 9527 d13c
0.25107005 -0.079159 -0.050450712 -0.2481876 -0.047300838 0.02553157

layers.hidden_5.weight f4 [6, 6]
00000000: ecc1 5abe 78d8 89be 565c dfbd ac30 aa3e
00000010: 10c2 6ebe 42d9 d33e 43fa b5be ae50 b7be
00000020: b9a5 b73d 2fca 9b3d 0e08 b7be 45b1 65be
00000030: 5a71 a73e a327 d5be 7af1 f4bd 6381 9fbe
00000040: 8bfb b8ba 3499 ec3b 5f45 99be 0fd8 f13c
00000050: 2a65 5abe 7a08 85be 4461 c73e ca0b 983c
00000060: fab6 233e af34 3d3e 4fa1 23be f7fe 343e
00000070: ccc7 2cbd 2c41 fcbd 00c7 aebe a45b c1be
00000080: da89 be3e d373 0ebd 8936 e13d 7fa7 99be
-0.21363038 -0.26922965 -0.109062836 0.3324026 -0.23316216 0.41376692 -0.35542497 -0.3580374
0.08967156 0.07606923 -0.35748333 -0.22430904 0.32703668 -0.41631803 -0.119601205 -0.31153402
-0.0014113052 0.0072204117 -0.29935738 0.02952197 -0.21327654 -0.2598303 0.38941395 0.018560309
0.15987769 0.18477128 -0.15979503 0.17675386 -0.04218273 -0.12317118 -0.341362 -0.3776523
0.37214547 -0.034778427 0.1099673 -0.30010602

layers.hidden_5.bias f4 [6]
00000000: ad88 52be 7d2f 833d 8726 80be de9f 9fbe
00000010: f9e9 493e 372b 07be
-0.2055995 0.06405542 -0.25029394 -0.31176656 0.1971816 -0.13200079

layers.hidden_6.weight f4 [6, 6]
00000000: 4ac9 933e 3e37 b93d ff87 bebe f20a c5be
00000010: 47dd 9a3e b546 b4bd 5002 a6be 98d3 a33e
00000020: 3456 44be 7014 8c3e b074 dcbe 0889 b53d
00000030: dd9a 803e 4238 9ebc 6aef 71bd 3345 d93e
00000040: 0694 02bd 7dec edbd 4f38 173e cb84 6a3d
00000050: d1d0 9ebe dc51 8abe 10fa b33e 1a0b b2be
00000060: 0627 6ebc 29ff 03bd bf64 1e3e 4607 c33d
00000070: cc23 44be 1edb 69bd dc4b 353c 6af4 ea3c
00000080: ceca 5b3e c9b7 743e 39a7 13bd 7a22 ef3d
0.2886451 0.0904374 -0.37213132 -0.38484913 0.30246946 -0.08802549 -0.3242364 0.3199737
-0.19173509 0.27359343 -0.43057775 0.08864027 0.2511815 -0.019313935 -0.059066214 0.42435607
-0.031879447 -0.11617372 0.14767574 0.057255547 -0.3101869 -0.2701558 0.3515172 -0.34774095
-0.014535671 -0.03222576 0.15468119 0.09522872 -0.1915428 -0.057093732 0.01106545 0.028680999
0.21464083 0.23898233 -0.036048148 0.11676498

layers.hidden_6.bias f4 [6]
00000000: d7dc 39be 2c5a 6e3e bb2f bb3e 1f2a a9be
00000010: 8e85 b5be 4ff4 24be
-0.1815065 0.23276585 0.36559853 -0.33039948 -0.35453457 -0.16108821

layers.hidden_7.weight f4 [6, 6]
00000000: 542a 8e3c 4c4a 7f3e 8307 9b3d fae6 a4be
00000010: 8d25 b1bd 6dc0 cfbd 2dea 103e 81d0 b6be
00000020: c2ab 8a3e 0a8b 64be 19f8 bb3e 5b8e a53e
00000030: 29f2 b9be ae93 adbd 2562 d7bc 1a0d 36bd
00000040: 16eb a53e 8528 9c3e b5ce b83e b160 523e
00000050: f342 c1bd ba5d 59be 3e28 8b3e 64c5 af3e
00000060: 215f 95be ec8d 85be d31a 04bd 9491 ab3d
00000070: 3d07 b53d d8f8 8fbe 112d 8f3e eda2 efbd
00000080: 3d6d 733d 545d dbbc 0823 bd3e ceed a33e
0.017354168 0.24930686 0.07569792 -0.3220747 -0.0864974 -0.10144124 0.14151831 -0.3570595
0.27084166 -0.22318664 0.3671272 0.3233517 -0.36317566 -0.08475433 -0.026291916 -0.04444609
0.3240592 0.30499664 0.36095205 0.20544697 -0.09436598 -0.2122716 0.2717914 0.34330285
-0.2917414 -0.2608484 -0.032252144 0.08377376 0.08839271 -0.2811954 0.2796407 -0.117009975
0.05943035 -0.0267779 0.3694079 0.32017368

layers.hidden_7.bias f4 [6]
00000000: a096 bb3e 97e6 bc3e 292a 7e3e 4ecd 86be
00000010: 47e3 293e 8f47 613e
0.36638355 0.36894676 0.2482077 -0.2632851 0.16590606 0.21999954

layers.hidden_8.weight f4 [6, 6]
00000000: 348e 753e 3022 a03e 3e30 113e 5831 03be
00000010: b3b9 403d cf04 6fbe e057 cc3e 2ead acbe
00000020: 5600 ca3d 1d87 92be 4814 e53d 77ab 93be
00000030: 7b45 793e f2e9 aa3e 62c0 753e 5c63 4f3e
00000040: 49a1 b8be 7747 f23d 1638 da3c 95fc bdbe
00000050: 75a1 a53e 316a 843e fe5c 323e b253 d73e
00000060: 94c7 793e 2541 abbe 3fb1 a5be 68de 6f3d
00000070: 3cf1 453d b636 ad3d 1a2e 6e3d 1953 a9be
00000080: a283 1cbe 700a 8ebe 73b8 c73e 47fe bc3d
0.23980027 0.31276083 0.14178559 -0.12811792 0.047052097 -0.23341678 0.39910793 -0.33725876
0.09863345 -0.28618708 0.11185509 -0.28841755 0.24342911 0.3338161 0.2399917 0.20252746
-0.3606055 0.11830037 0.026638072 -0.37106767 0.32349744 0.25862268 0.17418286 0.42056042
0.2439254 -0.3344814 -0.3236179 0.058561713 0.048325762 0.08457701 0.058149435 -0.3307121
-0.15284589 -0.27742338 0.3900791 0.09228187

layers.hidden_8.bias f4 [6]
00000000: 0569 a6be 0bb7 883e 51a4 cfbe ae81 653e
00000010: dd80 a5be 5345 d93e
-0.32502 0.2670215 -0.4055505 0.2241275 -0.32324877 0.42435703

layers.hidden_9.weight f4 [6, 6]
00000000: 9ec6 913d 56b8 b03e 4824 523d 57c5 edbd
00000010: a971 57bd 5dda 893e b087 a83e 51d2 b93e
00000020: 53b1 e1bd 42bc a23e b3b9 c33e ef35 a03d
00000030: 85c4 4cbe f83e d1bd 1c61 09bd 756b c9be
00000040: 773c 16bc 6bcd c9be e59e c2be f6ef 833e
00000050: 9620 443d 8fc7 cd3c 5f95 d7bd 0367 b23e
00000060: f2c2 d9bd f792 8fbe 348e 9ebe 8a78 c33d
00000070: 2fce 64be 3f46 243e 10c0 86be ffcc 66bd
00000080: ec71 533e 38ed 753d 2844 7bbd fd82 933e
0.07117961 0.34515637 0.05130413 -0.11609905 -0.05259863 0.2692441 0.3291602 0.3629327
-0.1102015 0.31784254 0.38227615 0.07822787 -0.19996841 -0.102170885 -0.033539876 -0.39339796
-0.009169689 -0.39414534 -0.38011852 0.25769013 0.04788264 0.025119571 -0.10526537 0.34844217
-0.10632886 -0.28041813 -0.30967867 0.095444754 -0.22344278 0.16042422 -0.26318407 -0.056347843
0.20648926 0.060040683 -0.061344296 0.28810874

layers.hidden_9.bias f4 [6]
00000000: 959b fb3c 3cae aa3e 3014 bf3e f2d5 97be
00000010: 00f1 b23e 3ca4 b73e
0.030713836 0.33336055 0.3732009 -0.29655415 0.34949493 0.35867488

layers.output.weight f4 [1, 6]
00000000: 1ac4 fbbd dd0d 61bd 4c74 8a3e 11a4 e9bc
00000010: 6182 7bbe 0643 c03e
-0.12293263 -0.05494486 0.27041852 -0.028520616 -0.24561454 0.37551135
