Heat/models/_Archieve/best_16_32_1.66811e-05.pt (torch, 640891 bytes, 35 tensors)

model.0.weight f4 [32, 2]
0	0x3c98b0fd	0.018639082
1	0x3f0792b2	0.52958214
2	0xbe62c8d6	-0.22146925
3	0x3f2699ba	0.6507832
4	0x3eeb26b0	0.45927954
5	0x3b8a9378	0.0042290054
6	0xbf1cd1cf	-0.6125764
7	0x3dffb3d9	0.12485475
8	0x3e61549b	0.2200493
9	0xbf299b87	-0.6625294
10	0xbe6fe9d3	-0.2342904
11	0x3f33aa19	0.70181423
12	0xbdc56e2b	-0.096401535
13	0xbf1f398c	-0.62197185
14	0x3ef8459e	0.48490614
15	0xbdd3dfa2	-0.10345389
16	0xbe1182ea	-0.14210096
17	0x3d48cf19	0.04902563
18	0x3f6ab209	0.9167791
19	0x3e4a16f1	0.19735314
20	0xbf1f9084	-0.6232989
21	0xbdf0cece	-0.11758195
22	0x3f23fe1d	0.6405962
23	0x3f254aff	0.6456756
24	0x3f479779	0.77965504
25	0xbe5783f5	-0.21046431
26	0xbf1e59ac	-0.6185558
27	0xbcd9be29	-0.026579933
28	0x3e07dbdb	0.13267462
29	0x3f376eda	0.7165352
30	0xbf0cc7db	-0.54992455
31	0xbf18d2e7	-0.5969681
32	0x3eaaaafc	0.33333576
33	0xbebdfa55	-0.3710505
34	0x3f35a501	0.709549
35	0x3eb2b003	0.3489991
36	0x3eaad2fe	0.333641
37	0xbf23fee9	-0.6406084
38	0x3f4c46a9	0.7979532
39	0xbf1d1013	-0.6135265
40	0x3d8feab8	0.07027191
41	0x3ecf4f84	0.40490353
42	0x3eea8f7a	0.4581259
43	0xbf01d29a	-0.5071198
44	0x3e138c4b	0.14408986
45	0x3ee809cf	0.45319983
46	0xbea75743	-0.32683763
47	0x3ddf3449	0.108986445
48	0x3e8e2de2	0.2776938
49	0xbf01b831	-0.5067168
50	0xbf501ca0	-0.8129368
51	0x3eb2a4ef	0.3489146
52	0x3f02c5db	0.51083153
53	0xbe304b7e	-0.17216298
54	0x3ed6b903	0.41938028
55	0xbeb4e7e4	-0.35333169
56	0xbe4aefbb	-0.19818012
57	0x3dd15c87	0.10222726
58	0xbe82ac33	-0.25522003
59	0xbec3425c	-0.38136566
60	0xbe86f025	-0.2635509
61	0xbeb1e228	-0.34742856
62	0x3f37e224	0.7182944
63	0x3e336fec	0.17523164

model.0.bias f4 [32]
0	0x3efa8f87	0.48937628
1	0xbf29f70e	-0.663926
2	0x3f3154f0	0.6927023
3	0xbdfe4624	-0.12415722
4	0x3e490737	0.19631658
5	0xbe847c82	-0.25876242
6	0x3f31a9b1	0.69399554
7	0xbede1758	-0.43377185
8	0x3d8b1ed3	0.06792989
9	0x3e4481d6	0.19190153
10	0x3f026ccf	0.5094728
11	0x3e84959e	0.258954
12	0xbe59bb60	-0.21262884
13	0xbf07b91e	-0.5301684
14	0xbe000f29	-0.12505783
15	0xbf036d53	-0.5133869
16	0x3f3c44fc	0.7354276
17	0xbe374e85	-0.17901047
18	0xbf228399	-0.6348205
19	0x3f20cfdb	0.6281716
20	0x3e921460	0.2853117
21	0x3e910912	0.28327233
22	0x3f16bf14	0.5888531
23	0x3e357a3e	0.17722413
24	0x3ea3e8d2	0.32013565
25	0x3eeb559c	0.45963752
26	0xbe91f376	-0.28506058
27	0xbf1ba14e	-0.60793006
28	0x3e4f85bc	0.2026586
29	0x3e9af0dc	0.30261886
30	0x3f0fda03	0.56192034
31	0xbd972191	-0.07379449

model.1.weight f4 [32, 32]
0	0xbcebce0b	-0.028784772
1	0xbe78a55e	-0.24281833
2	0xbc703121	-0.014660151
3	0xbe2044ce	-0.15651247
4	0x3db9ca80	0.09071827
5	0xbda428f7	-0.08015626
6	0x3e15c957	0.14627586
7	0x3e0e57b3	0.13900642
8	0xbe05084c	-0.12991446
9	0x3dd26588	0.10273272
10	0xbd447849	-0.047966275
11	0xbdca99a2	-0.098925844
12	0x3d89aa08	0.06721884
13	0xbdc7c252	-0.097538605
14	0xbdbec4d0	-0.09314883
15	0xbe526fb5	-0.20550425
16	0x3d6d1505	0.057881374
17	0xbd8ea091	-0.06964219
18	0x3de83b9f	0.11339497
19	0x3e2b8b68	0.16752398
20	0xbd9e9e62	-0.07745053
21	0x3ed0da0a	0.4079135
22	0x3d9eb0bf	0.077485554
23	0x3d8598ee	0.0652331
24	0x3ea3244d	0.31863633
25	0xbe3aa802	-0.18228152
26	0x3e782390	0.24232316
27	0x3dd8aca7	0.10579806
28	0xbd3dbbf3	-0.04632182
29	0xbd28a1d2	-0.04116995
30	0x3c2a92cd	0.010410977
31	0x3d030b73	0.03199334
32	0xbe0ec572	-0.13942507
33	0xbda9ca96	-0.08290593
34	0xbe2c891c	-0.16849178
35	0x3dd1a8be	0.10237263
36	0x3d918fb4	0.07107487
37	0xbe0b9577	-0.13631235
38	0xbc8003d5	-0.015626827
39	0xbd676936	-0.05649682
40	0xbdb87d18	-0.09008235
41	0x3d449b70	0.0479998
42	0x3cde7428	0.027154997
43	0xbe28bde9	-0.16478695
44	0xbd8f95d9	-0.07011003
45	0xbb808736	-0.0039223684
46	0x3cf7274b	0.030170104
47	0xbe0b3665	-0.13594969
48	0xbbc08e77	-0.005876358
49	0x3e56f5f5	0.20992263
50	0x3d913f59	0.07092161
51	0xbdf1c66e	-0.118054256
52	0x3cdfae69	0.027304845
53	0x3d8d242e	0.06891666
54	0xbe303ad7	-0.17209946
55	0x3dfd25b0	0.12360704
56	0xbd342c8e	-0.043987803
57	0xbe32e141	-0.1746874
58	0x3e290d75	0.1650904
59	0x3d82b3fd	0.06381986
60	0x3d4d4c85	0.050121803
61	0xbdd89bd4	-0.10576597
62	0xbe5505e8	-0.20803034
63	0x3e08db9b	0.13365023
64	0x3cd36524	0.025805064
65	0xbddad345	-0.10684828
66	0x3dc91716	0.098188564
67	0xbd99d2ca	-0.07510908
68	0x3bce1f0d	0.0062903226
69	0xbe2dd50c	-0.16975802
70	0x3e8e3405	0.27774063
71	0x3d5dd70c	0.054160163
72	0x3dab00dc	0.08349773
73	0x3e14c70a	0.14529052
74	0x3e295a23	0.1653829
75	0xbe056c2a	-0.13029543
76	0x3d99a391	0.07501901
77	0xb9f0782b	-0.000458659
78	0xbd1c92e8	-0.03822604
79	0x3d93344a	0.07187708
80	0xbcbc1bbc	-0.022962444
81	0xbe2b323a	-0.16718379
82	0x3cf530d1	0.029930504
83	0x3ce48076	0.027893286
84	0xbe042c1e	-0.12907454
85	0x3dcad67e	0.099041924
86	0xbc4612f2	-0.012089478
87	0xbddc34d2	-0.10752262
88	0x3e462434	0.19349748
89	0x3d417e03	0.047239315
90	0x3da325d0	0.079661965
91	0xbe446d52	-0.19182327
92	0x3dac8022	0.08422877
93	0x3bc43d57	0.0059887576
94	0x3e4dbce6	0.2009159
95	0x3df65a1a	0.12028904
96	0xbd0e9e35	-0.034818847
97	0xbd351c6e	-0.044216566
98	0x3dbfcc13	0.09365096
99	0xbe1be99d	-0.15225835
100	0xbda8378d	-0.082137205
101	0xbc5c5572	-0.013448106
102	0x3d6e6911	0.058205668
103	0x3e3c4e4c	0.18389243
104	0x3de5a8f0	0.11213863
105	0x3dcd49b7	0.100238256
106	0xbd558024	-0.052124158
107	0x3d21bb3b	0.039485198
108	0x3e459281	0.19294168
109	0xbd7f9e6c	-0.062406942
110	0xbd2b7590	-0.041860163
111	0xbd92acb4	-0.07161847
112	0x3e0a0380	0.13477898
113	0x3e1a35b2	0.15059546
114	0x38f06f9d	0.000114648814
115	0xbdb6b0b3	-0.089204215
116	0x3e0d1b7f	0.1378002
117	0xbdf4ed85	-0.11959366
118	0x3dbc3e7a	0.09191604
119	0xbe1ac5a7	-0.15114461
120	0xbe222bf2	-0.15837076
121	0x3c829339	0.015939342
122	0x3e29a414	0.16566497
123	0xbda31be9	-0.07964308
124	0xbd1413fb	-0.036151867
125	0xbdf9b4b4	-0.121926695
126	0xbd89f804	-0.06736758
127	0x3e120edd	0.14263482
128	0x3e05b866	0.13058624
129	0x3d17b1c5	0.03703477
130	0x3be90b00	0.007111907
131	0x3d1a720a	0.037706412
132	0xbea0d3f8	-0.3141172
133	0x3e835310	0.2564931
134	0x3dea3b49	0.11437089
135	0xbcd47e1c	-0.02593904
136	0x3e0b1eb1	0.13585927
137	0xbc60d70f	-0.013723149
138	0xbda31b93	-0.07964244
139	0x3db07ed1	0.08617938
140	0x3dd3de52	0.103451386
141	0xbe521167	-0.20514451
142	0x3e1bbf73	0.15209751
143	0x3d4117a2	0.04714168
144	0xbcc65b2d	-0.024213398
145	0x3e349e94	0.17638618
146	0xbe2716af	-0.16317247
147	0xbdf292dd	-0.11844418
148	0xbd084391	-0.03326756
149	0xbe933af8	-0.28755927
150	0x3de8e487	0.11371713
151	0x3d9c97e0	0.07646155
152	0xbe7d30f6	-0.24725708
153	0x3e19bdbe	0.15013787
154	0x3dcd0e1d	0.100124575
155	0xbd86f385	-0.065894164
156	0x3dfc9bc5	0.12334398
157	0x3c02e449	0.007988998
158	0x3cd14800	0.025547028
159	0x3e1b60f3	0.15173702
160	0xbc186d25	-0.009303366
161	0xbe3dde1a	-0.18541756
162	0xbd14e59e	-0.036351793
163	0xbdc99efc	-0.09844777
164	0xbe0ffcbe	-0.14061257
165	0x3dd96106	0.10614209
166	0xbd0fc883	-0.035103332
167	0x3d8538bd	0.065049626
168	0xbd592867	-0.053017046
169	0xbdc5092c	-0.0962089
170	0xbd5739e1	-0.052545432
171	0x3e1eab70	0.15495086
172	0x3de7e76b	0.11323436
173	0xbd099972	-0.033593602
174	0xbde7970f	-0.11308109
175	0x3b29c089	0.0025902113
176	0x3e0f5ad7	0.13999496
177	0xbdb08475	-0.08619014
178	0x3e3d154f	0.1846516
179	0xbba5285e	-0.0050402125
180	0xbe325cba	-0.17418185
181	0xbd140f29	-0.03614727
182	0xbd0df0b4	-0.03465338
183	0x3c844414	0.016145743
184	0x3d326914	0.04355724
185	0xbd02877a	-0.03186748
186	0xbde3a959	-0.11116285
187	0xbdc84133	-0.09778061
188	0x3c03c0dc	0.008041587
189	0x3ca871e2	0.020562116
190	0xbe49179b	-0.19637911
191	0xbd51952b	-0.05116765
192	0x3d715cc9	0.058926377
193	0xbd84ae2a	-0.06478532
194	0xbbec6007	-0.007213596
195	0x3d736305	0.059420604
196	0xbe3eb10b	-0.18622224
197	0x3e383e4b	0.17992513
198	0x3cc443a6	0.023958039
199	0xbe316947	-0.17325316
200	0x3e0a8eae	0.1353099
201	0xbd84804d	-0.06469784
202	0x3e378fe9	0.17925991
203	0xbbea63c3	-0.007153006
204	0xbe9eca42	-0.31013685
205	0x3dbf7471	0.09348381
206	0xbe0a3630	-0.13497233
207	0x3e676d64	0.22600323
208	0xbb86dc10	-0.004115589
209	0xbe64d3e2	-0.22346452
210	0x3ded4abd	0.11586521
211	0xbe1a4e0b	-0.15068834
212	0xbe3b59df	-0.18296002
213	0xbe645799	-0.22299041
214	0xbd7b070e	-0.061286025
215	0x3e9c41f6	0.30519074
216	0x3d17d614	0.037069395
217	0x3de1467e	0.109997734
218	0xbd31711c	-0.04332076
219	0xbbc1331a	-0.0058959844
220	0x3dc1598c	0.09440908
221	0xbdbdb195	-0.09262387
222	0xbba06d49	-0.0048958403
223	0xbec9c375	-0.39406934
224	0xbdf1de1f	-0.11809944
225	0x3d51b4ea	0.051197924
226	0xbe06ec1f	-0.1317601
227	0xbcc85ae6	-0.024457406
228	0x3cc73a45	0.024319777
229	0xbe06e814	-0.13174468
230	0x3e634b4a	0.22196689
231	0xbe086614	-0.1332019
232	0xbe1505e0	-0.14553022
233	0xbd18eddc	-0.037336215
234	0x3d29e296	0.041475855
235	0xbe97e692	-0.296681
236	0x3b411103	0.0029459603
237	0x3db6db21	0.08928514
238	0xbd4121b2	-0.047151275
239	0xbd415478	-0.047199696
240	0xbc792bd3	-0.015208202
241	0xbec1ebfa	-0.37875348
242	0x3e16e000	0.14733887
243	0xbdafcd5d	-0.08584092
244	0xbe2db8ec	-0.16965073
245	0xbdf01880	-0.11723423
246	0x3dbb7acd	0.09154282
247	0x3dbdece3	0.09273698
248	0x3e191b0b	0.14951722
249	0x3e39dfcb	0.18151776
250	0xbe4d6766	-0.20058975
251	0x3d862358	0.0654971
252	0xbde88ebf	-0.11355352
253	0xbceba1db	-0.028763702
254	0x3e6e1957	0.23251854
255	0xbed43018	-0.41442943

model.1.bias f4 [32]
0	0xbd7e1009	-0.06202701
1	0x3de4d72d	0.11173854
2	0x3e813159	0.25232962
3	0x3dc6384b	0.09678706
4	0x3db5de74	0.0888032
5	0xbc0c1cd9	-0.0085518
6	0x3cf66519	0.030077504
7	0x3d2b5225	0.041826386
8	0x3dc19287	0.09451776
9	0x3df20c18	0.11818713
10	0x3e612527	0.21986829
11	0x3df1af22	0.11800982
12	0x3d611efa	0.054961182
13	0xbda47b28	-0.08031303
14	0xbd605147	-0.054765012
15	0xbd3db3d8	-0.04631409
16	0xbe2dc6da	-0.16970387
17	0x3d685f2f	0.0567314
18	0xbe28c875	-0.16482718
19	0xbd758873	-0.05994458
20	0xbddb6297	-0.10712164
21	0xbe1a1f7e	-0.15051076
22	0xbe3ac3bd	-0.1823873
23	0xbd56e8b9	-0.052468035
24	0x3e16a26b	0.14710395
25	0x3cb27fc7	0.021789445
26	0x3ab36e0c	0.0013689413
27	0x3db70daa	0.08938153
28	0xbe35719b	-0.17719118
29	0xbd096524	-0.03354372
30	0xbe2091c7	-0.1568061
31	0xbbca62a1	-0.0061763083

model.3.weight f4 [32, 32]
0	0xbe2d0446	-0.16896161
1	0x3e36589b	0.17807238
2	0x3c50b25f	0.0127378395
3	0x3c60696c	0.0136970095
4	0xbde92ccc	-0.113854975
5	0x3e302e56	0.17205176
6	0xbcdd2d93	-0.02699927
7	0xbcb6a8b4	-0.02229724
8	0x3d5ae771	0.053443376
9	0xbc028b0a	-0.00796772
10	0xbd7746fe	-0.060370438
11	0xbe1c4714	-0.15261489
12	0x3c8ca1a5	0.017166922
13	0x3d825145	0.06363157
14	0x3ca5ffb1	0.020263525
15	0x3c968dcc	0.01837816
16	0x3dc494d9	0.09598703
17	0x3e1a4980	0.150671
18	0x3ddca283	0.10773184
19	0x3e5e2b79	0.21696271
20	0xbdb0daa1	-0.0863545
21	0xbdd0c1e9	-0.101932354
22	0xbe4af2e1	-0.19819213
23	0x3e1d605f	0.15368794
24	0xbdace9bc	-0.08443019
25	0x3d88a998	0.066729724
26	0x3cb8e4a0	0.022569954
27	0xbd79e130	-0.06100577
28	0xbd0c88b6	-0.034310065
29	0x3d653f9a	0.05596886
30	0x3d1fe7e5	0.03903951
31	0x3d4cc96a	0.04999677
32	0x3e3fafae	0.1871936
33	0xbe12ae41	-0.14324285
34	0xbe158d27	-0.14604627
35	0x3dd87c0d	0.10570536
36	0x3e153ffa	0.14575186
37	0x3d897298	0.0671131
38	0x3ce7d13c	0.028298013
39	0xbd06fc54	-0.032955483
40	0xbe33e2c4	-0.17566973
41	0xbdf98c6b	-0.12184986
42	0x3e171004	0.14752203
43	0x3e351bfa	0.17686453
44	0xbbeb0219	-0.007171881
45	0xbe47ad55	-0.19499715
46	0xbd11de91	-0.035612646
47	0x3d2467b8	0.040137976
48	0xbe518f94	-0.20464927
49	0xbd4a1626	-0.04933753
50	0x3d2252f6	0.0396299
51	0xbe3ffc25	-0.1874853
52	0xbd137452	-0.035999604
53	0xba163693	-0.0005730178
54	0x3e4cc39f	0.19996499
55	0xbddf6bcc	-0.109092325
56	0xbd2447ee	-0.04010766
57	0xbd8c3923	-0.068468355
58	0xbe639761	-0.22225715
59	0xbd8bd052	-0.06826843
60	0x3d0591d7	0.032609787
61	0xbe1e296b	-0.15445487
62	0xbdfd9df3	-0.12383642
63	0x3ded7aed	0.11595712
64	0xbc3282eb	-0.010895471
65	0xbd8d11d4	-0.06888166
66	0x3e0c48e7	0.13699685
67	0xbd45520f	-0.04817396
68	0x3e2c4cc7	0.16826163
69	0x3e335a45	0.17514904
70	0xbbe1c26e	-0.006889633
71	0xbd31a067	-0.043365862
72	0xbdeeec6a	-0.11666186
73	0x3dd3f392	0.10349192
74	0x3dec4ff6	0.11538689
75	0x3e32801e	0.17431685
76	0xbe498faa	-0.1968371
77	0x3e046fe9	0.12933315
78	0xbe08154a	-0.13289371
79	0x3bfbb6e1	0.007681713
80	0x3db4443f	0.088020794
81	0xbe080733	-0.13283996
82	0x3e2e5efa	0.17028418
83	0x3e3e39bd	0.18576713
84	0x3e057484	0.13032728
85	0xbda716d8	-0.08158654
86	0x3d35b002	0.044357307
87	0xbcf47252	-0.029839668
88	0x3e464bee	0.19364902
89	0x3d79ffcb	0.06103496
90	0x3e72c72c	0.2370879
91	0xbe22668e	-0.15859434
92	0x3dce7bf8	0.10082239
93	0x3e4a7abd	0.19773383
94	0xbc8a5b71	-0.016889306
95	0xbdd87e8f	-0.10571014
96	0xbe8ea0c5	-0.27857032
97	0x3d87295e	0.06599687
98	0xbce953f7	-0.02848242
99	0xbe00b379	-0.12568463
100	0xbd9676a2	-0.07346846
101	0x3d746836	0.059669696
102	0x3d7ec184	0.06219627
103	0x3e265403	0.16242985
104	0xbb565fa5	-0.0032710817
105	0xbd864197	-0.06555479
106	0xbd8348fd	-0.06410406
107	0xbca73b1f	-0.020413933
108	0x3db8eb45	0.09029249
109	0xbd928780	-0.07154751
110	0xbd3644fc	-0.044499382
111	0x3d529f92	0.05142171
112	0x3bdf4a39	0.006814268
113	0xbe0a4bf9	-0.13505544
114	0x3e814841	0.25250438
115	0x3e01e0f9	0.12683477
116	0x3e55c131	0.20874478
117	0xbe2424bc	-0.16029638
118	0x3daf22f2	0.08551587
119	0xbea142a7	-0.31496164
120	0xbe6331fb	-0.22187035
121	0xbe8f7f48	-0.28026795
122	0x3eae31f1	0.34022477
123	0xbe033e0b	-0.12816636
124	0x3de89434	0.113563925
125	0x3e6ee1c3	0.23328309
126	0x3e2a319b	0.16620485
127	0x3cd86697	0.026416106
128	0x3da0a746	0.07844405
129	0x3d3cc19f	0.04608309
130	0xbd951dc2	-0.072810665
131	0x3e556be4	0.20841938
132	0xbe48a440	-0.19593906
133	0xbe658817	-0.22415195
134	0xbd7f37b5	-0.062308986
135	0xbdf3cf4b	-0.11904772
136	0xbc80f2c2	-0.015740756
137	0x3e026c69	0.12736668
138	0xbe27f79c	-0.16403049
139	0x3df414f4	0.11918059
140	0x3e59fb83	0.2128735
141	0xbe06f39f	-0.13178872
142	0xbd4d7d4f	-0.05016833
143	0xbd805179	-0.0626554
144	0xbb43967d	-0.0029844337
145	0x3df3b95e	0.1190059
146	0xbcfef484	-0.031122454
147	0x3dbb5997	0.09147947
148	0x3d928bf5	0.07155601
149	0xbde1b427	-0.110206895
150	0x3dc8e5dc	0.09809467
151	0x3e43bd31	0.1911514
152	0x3deb014d	0.114748575
153	0x3dc13b99	0.094351955
154	0xbd9d74f7	-0.07688325
155	0x3e09c797	0.13455044
156	0xbd57a6ff	-0.052649494
157	0xbe5fbd15	-0.21849473
158	0xbe29422f	-0.16529153
159	0x3dff782c	0.12474093
160	0xbd76f6da	-0.06029401
161	0xbe056b15	-0.1302913
162	0x3e027ac6	0.12742147
163	0x3d6b01f8	0.057374924
164	0xbe088d50	-0.13335156
165	0xbd6027ef	-0.054725584
166	0xbe4d3a5a	-0.2004179
167	0xbe04c6f8	-0.12966526
168	0xbdec0ca8	-0.115258515
169	0x3e030811	0.12796046
170	0x3dfa778b	0.12229832
171	0xbdb91c51	-0.09038604
172	0xbc8ba5ea	-0.017046887
173	0xbd0d2c95	-0.034466345
174	0x3daac944	0.083391696
175	0x3d42c6f3	0.047553014
176	0x3e0ec44b	0.13942067
177	0xb9e48777	-0.00043588478
178	0x3dcfc9bf	0.10145902
179	0x3dca94c1	0.09891654
180	0xbdb20471	-0.086922534
181	0x3e3bc52c	0.18336934
182	0xbb28af84	-0.002573938
183	0x3e063fb3	0.13110237
184	0xbda245a0	-0.07923436
185	0xbd2de3bc	-0.042453513
186	0xbe021ffc	-0.12707514
187	0xbdc0b675	-0.09409801
188	0xbe617903	-0.22018819
189	0x3dda78e1	0.10667587
190	0x3d98f4b3	0.07468548
191	0x3e18b86c	0.14914101
192	0x3dd7524d	0.105137445
193	0xbdfa3b1e	-0.12218307
194	0xbd924775	-0.071425356
195	0xbd0fda60	-0.035120368
196	0xbe256285	-0.16150863
197	0xbe221951	-0.1582997
198	0x3d8729a5	0.0659974
199	0x3d03ff85	0.032226104
200	0x3e2e8d74	0.17046148
201	0xbe2dedbb	-0.16985218
202	0xbe3626f0	-0.17788291
203	0xbda0cf08	-0.07851988
204	0xbcb72c97	-0.02236013
205	0xbe2cc0a7	-0.16870366
206	0xbe2cc2d9	-0.16871203
207	0x3e2b37af	0.1672046
208	0xbe2a9076	-0.1665667
209	0xbd8ff34c	-0.07028827
210	0xbcf29da0	-0.029616177
211	0xbe006bf3	-0.1254118
212	0x3da5b5f4	0.080913454
213	0x3d54405b	0.051819187
214	0x3cc20cbd	0.023687715
215	0xbdf03c69	-0.11730272
216	0xbda05701	-0.07829095
217	0x3cfbaca6	0.030721974
218	0xbcadfba6	-0.02123816
219	0x3dd9814e	0.10620366
220	0x3db4f81e	0.08836387
221	0x3e0cc2bb	0.13746159
222	0xbd588ad9	-0.05286679
223	0xbe447edc	-0.19189018
224	0x3c607ba8	0.013701357
225	0xbe095092	-0.13409641
226	0x3d81c517	0.0633642
227	0x3e438ed1	0.19097449
228	0xbde0bdb4	-0.10973683
229	0x3c04d1e9	0.008106687
230	0xbe3af356	-0.18256888
231	0xbd53f5dd	-0.051748145
232	0xbe3a4d2f	-0.18193506
233	0x3b5e9953	0.00339659
234	0xbde57862	-0.11204602
235	0xbd1674ce	-0.036732487
236	0xbdb05ad5	-0.08611075
237	0xbe1b5e7b	-0.1517276
238	0x3cc3e5ff	0.023913382
239	0xbd27f98f	-0.041009482
240	0xbd876d53	-0.06612649
241	0x3bd9e40d	0.0066495
242	0xbdbcac92	-0.09212603
243	0x3de42fc4	0.11141923
244	0xbe108179	-0.1411189
245	0x3e598f80	0.21246147
246	0x3e3357c1	0.17513944
247	0x3e363952	0.17795303
248	0x3dc6aade	0.09700559
249	0x3e68f9af	0.22751497
250	0x3d405d20	0.04696381
251	0xbda6a921	-0.081377275
252	0x3de06749	0.109572
253	0xbe10fbf8	-0.14158618
254	0x3dddb2ba	0.10825105
255	0xbe185ace	-0.14878389

model.3.bias f4 [32]
0	0xbe4c337d	-0.19941516
1	0x3d0c7bec	0.03429787
2	0xbdd09ebe	-0.10186528
3	0x3c381094	0.011234421
4	0x3da1eef2	0.07906903
5	0xbddb071c	-0.106947154
6	0x3e2eb7b5	0.17062266
7	0x3d1ada99	0.037806127
8	0x3e37b868	0.17941439
9	0x3e4b7fa2	0.19872907
10	0x3ddaa3cd	0.10675774
11	0xbe2cd502	-0.16878131
12	0xbc9613f2	-0.018320058
13	0xbc9a8f0f	-0.018867044
14	0x3cfcb98b	0.030850193
15	0xbd97d7d0	-0.0741421
16	0x3c2d8817	0.010591528
17	0x3e0706f9	0.13186254
18	0x3deaac21	0.11458612
19	0xbe013efb	-0.12621681
20	0xbc9b11ed	-0.018929446
21	0x3e017f6d	0.12646265
22	0x3cc2bc77	0.023771508
23	0x3d8201e9	0.063480206
24	0xbdc4043e	-0.09571122
25	0xbe0689bd	-0.1313848
26	0x3dfbb8f6	0.12291138
27	0xbc120248	-0.008911677
28	0xbdbe76fe	-0.0930004
29	0xbe085dc8	-0.13317025
30	0xbde4c724	-0.111707956
31	0x3ba7b8fa	0.0051184865

model.5.weight f4 [32, 32]
0	0x3e0f268b	0.13979547
1	0xbe4ea1a7	-0.20178853
2	0x3e83e2e1	0.25759032
3	0xbdf0df1a	-0.11761303
4	0xbde3d1ce	-0.111240014
5	0xbd75258a	-0.059850253
6	0x3db49247	0.08816963
7	0xbdd20fbb	-0.102569066
8	0xbdc65028	-0.09683257
9	0xbe2966ff	-0.16543196
10	0xbe48920d	-0.19586964
11	0x3dc5e014	0.0966188
12	0xbdc5332e	-0.096289024
13	0xbde05fee	-0.10955797
14	0xbb653c27	-0.003497848
15	0xbce98235	-0.02850447
16	0xbd59280e	-0.053016715
17	0xbe1479f9	-0.14499654
18	0x3e2f6fe5	0.17132528
19	0x3ca71651	0.020396383
20	0xbd17183d	-0.03688835
21	0x3e2f7f3e	0.17138383
22	0x3b16173c	0.0022902032
23	0x3d1dd3a1	0.038531903
24	0x3cf87548	0.030329362
25	0xbdec742e	-0.11545597
26	0x3df7886b	0.120865665
27	0x3e3b6215	0.18299134
28	0xbbff30f2	-0.007787817
29	0x3dce7b98	0.100821674
30	0xbe1e7daf	-0.15477632
31	0x3dfd5bb3	0.12371006
32	0xbe654616	-0.22390017
33	0xbc64826e	-0.0139471125
34	0xbdee3a05	-0.1163216
35	0xbd1d83fd	-0.038455952
36	0x3e0f672e	0.14004204
37	0x3d87cac8	0.06630474
38	0x3e255e54	0.16149265
39	0xbc9c2119	-0.019058751
40	0x3de6412a	0.11242898
41	0xbc97c159	-0.018524813
42	0x3e08f4e1	0.13374664
43	0xbdc2a72b	-0.09504541
44	0x3da1bc20	0.0789721
45	0xbe32e78f	-0.17471145
46	0xbdfa1c0a	-0.12212379
47	0xbe099bab	-0.13438289
48	0x3caab694	0.020839013
49	0x3c42cefe	0.011890171
50	0xbd874360	-0.06604648
51	0x3da7da7c	0.081959695
52	0x3e106f37	0.14104925
53	0xbd40d9e7	-0.047082808
54	0x3dff0eb4	0.12453976
55	0xbd3b2038	-0.045685023
56	0xbdc053cc	-0.09390983
57	0xbd986a1d	-0.074421145
58	0x3ddad2e9	0.10684759
59	0x3df5859b	0.11988374
60	0xbdeed48e	-0.11661635
61	0xbdb12a2a	-0.0865062
62	0x3d34abda	0.044109203
63	0x3d29352c	0.041310474
64	0x3d87a07c	0.06622407
65	0xbc340af3	-0.010988939
66	0x3e22f98a	0.15915504
67	0xbda6259e	-0.08112644
68	0xbe72be95	-0.23705514
69	0x3dc14255	0.0943648
70	0x3d2913a5	0.0412785
71	0xbbcc4c4a	-0.0062346803
72	0xbe716269	-0.23572697
73	0xbe735f46	-0.23766813
74	0x3c7f8f1d	0.015598086
75	0x3e19afa9	0.15008415
76	0xbe548279	-0.20752896
77	0xbcbbaf8e	-0.02291086
78	0x3dff4fa5	0.12466363
79	0x3c91a126	0.017777037
80	0xbcada46a	-0.021196563
81	0x3e574e17	0.21025883
82	0xbda4d2f1	-0.080480464
83	0xbd7ec5b5	-0.062200267
84	0xbd5669ec	-0.05234711
85	0x3d6cf5d8	0.057851642
86	0xbcba4271	-0.02273676
87	0x3d052864	0.032509223
88	0x39f906a9	0.00047497943
89	0x3b86aafa	0.0041097375
90	0x3e17f60d	0.14839955
91	0xbd8efcf1	-0.069818385
92	0x3e09e232	0.13465193
93	0xbc06ef63	-0.008235785
94	0x3e0034a2	0.12520078
95	0xbd24af6a	-0.04020635
96	0x3c54dae3	0.01299164
97	0x3d3af117	0.045640077
98	0xbe2ea5e2	-0.17055467
99	0xbe0991bc	-0.134345
100	0x3e6778a1	0.2260461
101	0xbe3cc208	-0.18433392
102	0x3da859fe	0.0822029
103	0x3dfb26c4	0.12263253
104	0x3e833ebe	0.25633806
105	0x3e0e0b0c	0.13871402
106	0x3e855202	0.2603913
107	0xbe5a697e	-0.21329305
108	0x3e53df8d	0.20690747
109	0xbcd08a24	-0.025456496
110	0xbe548ca1	-0.2075677
111	0xbe53122f	-0.20612405
112	0xbe31b153	-0.173528
113	0xbca830dc	-0.02053111
114	0xbda24c4a	-0.07924707
115	0xbd69b117	-0.05705365
116	0x3d8d21c8	0.06891209
117	0xbe28370c	-0.16427249
118	0xbda27535	-0.07932512
119	0x3aa84cd7	0.0012840283
120	0xbdde7fe3	-0.10864236
121	0x3cfbccd4	0.030737318
122	0x3dd183da	0.10230227
123	0x3b8a350d	0.00421775
124	0xbc212506	-0.009835487
125	0x3d6ee6a5	0.05832543
126	0xbb739a0c	-0.0037170677
127	0xbe2447d0	-0.1604302
128	0x3de44517	0.1114599
129	0xbd429a48	-0.047510415
130	0xbe65a498	-0.22426069
131	0xbe539f36	-0.20666203
132	0x3e16d49c	0.14729542
133	0xbdb27ae2	-0.08714844
134	0x3d692618	0.056921095
135	0xbdbed4b4	-0.09317914
136	0x3e5f754e	0.21822092
137	0x3e4b773e	0.19869706
138	0x3c6ae273	0.014336216
139	0xbce27d3c	-0.027647607
140	0x3df3bc0a	0.119011
141	0xbe418e50	-0.18901944
142	0xba9cdb0b	-0.0011967135
143	0x3dcde4e9	0.10053427
144	0x3d7fba5d	0.06243359
145	0xbe25f3f5	-0.16206343
146	0xbe16e4cb	-0.14735715
147	0xbd1f99bb	-0.03896497
148	0xbc332410	-0.010933891
149	0xbdcc9ed3	-0.09991231
150	0x3d956c38	0.07296032
151	0xbdde6cb7	-0.108605795
152	0xbd81ebbf	-0.06343793
153	0xbe307573	-0.17232303
154	0x3e2a5826	0.16635188
155	0x3e07b834	0.13253862
156	0xbddb17d5	-0.10697905
157	0x3dd9aaf2	0.10628308
158	0x3ddaba08	0.10680014
159	0xbe0f87e9	-0.1401669
160	0x3e2dcd45	0.16972835
161	0xbd1dbc1a	-0.038509466
162	0x3d58af64	0.05290164
163	0xbc7b9d89	-0.0153573835
164	0x3c2d8320	0.010590345
165	0x3cb8e802	0.022571567
166	0xbe9818e9	-0.29706505
167	0xbd549a20	-0.051904798
168	0xbc818bed	-0.015813792
169	0xbc8045ce	-0.015658285
170	0xbe59c307	-0.21265803
171	0xbbab42b4	-0.0052264575
172	0xbd2462ee	-0.04013341
173	0xbc9cc756	-0.01913802
174	0xbcada4a4	-0.02119667
175	0x3dabd6e3	0.08390596
176	0x3e0294f2	0.1275213
177	0xbd031ef3	-0.032011937
178	0x3dc20649	0.09473855
179	0xbda4f271	-0.080540545
180	0x3d0f835a	0.035037376
181	0xbdf94c18	-0.12172717
182	0xbd5a6fc4	-0.053329244
183	0xbda06d4d	-0.078333475
184	0x3d59c2b5	0.053164203
185	0x3c625f8b	0.0138167245
186	0xbd46971b	-0.04848395
187	0xbd3c969c	-0.04604207
188	0xbdce4b6c	-0.10072979
189	0x3db8b833	0.09019508
190	0x3dc248ef	0.09486567
191	0xbdd3bd57	-0.10338848
192	0xbe5120e0	-0.20422697
193	0x3dbb5b46	0.091482684
194	0xbc871e39	-0.016493903
195	0xbe15835e	-0.14600894
196	0x3e499a91	0.19687869
197	0x3d5e2f1a	0.05424414
198	0x3e583214	0.21112853
199	0x3d864433	0.06555977
200	0x3e48cb24	0.19608742
201	0x3d097172	0.033555456
202	0x3da0a78f	0.07844459
203	0xbc289aa9	-0.01029078
204	0x3d927e58	0.071530044
205	0xbd61e7d6	-0.055152737
206	0xbe1944a4	-0.1496759
207	0xbe0ce1de	-0.13758036
208	0x3df35243	0.118809246
209	0xbad32b0c	-0.0016110851
210	0xbe1dcf39	-0.1541108
211	0xbda30dc0	-0.07961607
212	0xbdaeea3d	-0.08540771
213	0xbd1934ef	-0.037403997
214	0xbe283ffe	-0.16430661
215	0xbc3278da	-0.010893071
216	0xbc39332e	-0.011303706
217	0xbd4c56df	-0.049887534
218	0x3dd76257	0.10516804
219	0xbda85aa9	-0.08220417
220	0xbe83f29f	-0.25771043
221	0xbdd7b18b	-0.105319105
222	0xbdf73bf8	-0.12071985
223	0xbd8080cd	-0.06274567
224	0xbcde671a	-0.027148772
225	0xbc399a69	-0.011328318
226	0x3e0f0757	0.13967644
227	0x3cd7b8c2	0.026333217
228	0xbe25a78e	-0.16177198
229	0x3d8cf2c6	0.06882243
230	0xbcbe0345	-0.023194918
231	0x3ccf7bee	0.025327649
232	0xbd7b1e4a	-0.061308183
233	0x3dbe5614	0.09293762
234	0xbcd4e53b	-0.025988212
235	0xbdd324dc	-0.10309765
236	0xbdb883a5	-0.09009484
237	0x3d86e3ef	0.06586444
238	0xbdac20da	-0.084047034
239	0xbe19f117	-0.15033375
240	0x3e114006	0.14184579
241	0xba6d485c	-0.0009051615
242	0x3d8e5b0d	0.0695096
243	0x3e54e634	0.2079094
244	0x3c987259	0.018609213
245	0x3c970b86	0.018438112
246	0xbe341d27	-0.17589246
247	0x3e06f43f	0.1317911
248	0xbdacf494	-0.08445087
249	0xbcede166	-0.029038142
250	0xbdaed7cb	-0.08537253
251	0xbd6e1fe6	-0.05813589
252	0x3e262fad	0.16229124
253	0x3dc92e2b	0.09823259
254	0x3db66dd6	0.08907668
255	0x3db3c99d	0.08778689

model.5.bias f4 [32]
0	0xbd41fc3e	-0.047359698
1	0x3e19bf58	0.15014398
2	0xbe100787	-0.14065371
3	0xbbbfd650	-0.0058544055
4	0xbc9c4ccc	-0.019079588
5	0x3d31a228	0.043367535
6	0x3e57acc5	0.21062
7	0xbd18a58b	-0.03726725
8	0xb98520fe	-0.00025392318
9	0x3d85215e	0.06500505
10	0x3d3b603f	0.045746084
11	0x3e1fb227	0.15595303
12	0x3e049740	0.12948322
13	0xbe104dfa	-0.14092246
14	0xbdc0d9b0	-0.094165206
15	0xbe1a7270	-0.15082717
16	0xbcf19c0a	-0.02949335
17	0xbd00e11d	-0.031464685
18	0x3dfc7fa0	0.1232903
19	0x3d2140e9	0.039368544
20	0x3dd9aa94	0.10628238
21	0x3ddef4c9	0.10886533
22	0xbde7e879	-0.113236375
23	0xbd1bf301	-0.038073543
24	0xbde6b8b0	-0.11265695
25	0x3da1a904	0.07893565
26	0xbe4c956f	-0.1997888
27	0x3d0ce0bb	0.034394007
28	0xbcc03bc9	-0.023466008
29	0x3e0bb94e	0.13644907
30	0xbd73af65	-0.05949344
31	0xbd9e5142	-0.077303424

model.7.weight f4 [32, 32]
0	0xbc8b5140	-0.017006516
1	0x3dd650e7	0.1046465
2	0xbd892e81	-0.06698323
3	0x3d62c4fb	0.055363636
4	0xbe4af211	-0.19818904
5	0x3c6a46a3	0.014299068
6	0x3dc51614	0.09623352
7	0x3de46484	0.11151984
8	0x3e062aa9	0.13102211
9	0xbe544b5f	-0.20731877
10	0x3d858379	0.06519217
11	0x3c889031	0.016670318
12	0xbd0a46b8	-0.03375885
13	0xbe015ff5	-0.12634261
14	0x3df12057	0.117737465
15	0xbd0860e6	-0.033295535
16	0x3d82a997	0.06380003
17	0x3d4960b2	0.04916448
18	0x3e25a64a	0.16176715
19	0x3cdaa160	0.026688278
20	0xbe06d030	-0.13165355
21	0x3c334bd0	0.010943368
22	0x3dae1efb	0.08502003
23	0x3dccc1e0	0.09997916
24	0x3e0d5e89	0.13805594
25	0x3e49c028	0.19702208
26	0x3c79f896	0.015257021
27	0xbe12b42b	-0.14326541
28	0x3da76132	0.081728354
29	0xbd126038	-0.035736293
30	0x3cca6f4d	0.024711275
31	0xbd6b1c29	-0.057399902
32	0x3e10c8df	0.14139126
33	0xbe3fd6c0	-0.18734264
34	0xbddea55d	-0.10871384
35	0xbdea49fc	-0.11439893
36	0xbdef258b	-0.11677083
37	0x3d4a00d3	0.049317192
38	0x3d778e48	0.060438424
39	0x3e3eb24f	0.18622707
40	0xbb6236ab	-0.0034517448
41	0xbe32424b	-0.17408101
42	0x3cbdb6f1	0.023158522
43	0xbe4388bb	-0.19095127
44	0xbda2e692	-0.07954134
45	0xbdf91b7a	-0.12163444
46	0x3bd75d94	0.0065724347
47	0x3d5afc0f	0.053463038
48	0xbc87ac23	-0.016561573
49	0x3d2dd929	0.04244343
50	0x3d48ae96	0.048994623
51	0xbe28f8e4	-0.16501194
52	0x3de1e82d	0.11030612
53	0xbd7fda67	-0.062464144
54	0x3d75de40	0.060026407
55	0x3e0a7b34	0.13523561
56	0xbcb25232	-0.02176771
57	0x3c8b43b8	0.017000064
58	0x3df8851f	0.12134766
59	0x3d35a546	0.04434707
60	0xbe2131ad	-0.15741606
61	0xbe4df20a	-0.20111862
62	0x3dc2beaa	0.095090225
63	0xbe067103	-0.13129048
64	0xbe42e650	-0.1903317
65	0xbdea0922	-0.11427523
66	0x3be7bbb1	0.007071935
67	0x3d46f671	0.04857487
68	0xbdb9d6c7	-0.09074169
69	0xbde0d671	-0.109784015
70	0xbe0addba	-0.13561144
71	0x3e337309	0.17524351
72	0x3dcc55fe	0.09977339
73	0xbcf0ab9d	-0.029378707
74	0xbe6731a9	-0.22577538
75	0xbe7acf14	-0.24493057
76	0x3dadaf36	0.084806845
77	0xbe1bf2f4	-0.15229398
78	0x3e0b3be5	0.13597067
79	0x3e3c298b	0.18375222
80	0xbe4fd3a2	-0.20295575
81	0x3d88cfdf	0.06680273
82	0x3e17bfef	0.1481931
83	0x3e09447b	0.1340503
84	0x3d35a81e	0.044349782
85	0x3cec708b	0.028862258
86	0xbddeb7a5	-0.10874871
87	0xbdc3f436	-0.09568064
88	0x3e0da940	0.13834095
89	0x3d5efc1f	0.05443966
90	0xbc1022b3	-0.008797335
91	0xbd1b5379	-0.037921403
92	0xbde326d6	-0.11091392
93	0x3dca2858	0.09870976
94	0x3bd12e22	0.0063836733
95	0x3e0834d3	0.13301401
96	0x3e0b3db4	0.13597757
97	0x3d94a227	0.072574906
98	0x3e290279	0.1650485
99	0xbda50c32	-0.08058967
100	0x3e5ec12e	0.2175338
101	0x3c474b70	0.012163982
102	0xbd646a6f	-0.055765565
103	0xbe2456fc	-0.16048807
104	0x3d76cfee	0.06025689
105	0x3d16a4f8	0.03677842
106	0x3e351524	0.17683846
107	0x3e284f6a	0.16436544
108	0xbde22b74	-0.11043444
109	0x3e310141	0.17285635
110	0xbe119cca	-0.14219967
111	0xbd196710	-0.037451804
112	0x3e25560d	0.16146107
113	0x3dbdcc9c	0.09267542
114	0xbe26dcf9	-0.16295232
115	0x3da04a1f	0.078266375
116	0x3d7c46e8	0.06159106
117	0xbe46c038	-0.19409263
118	0x3e000525	0.12501962
119	0xbe8ccab9	-0.27498415
120	0x3deefcd6	0.116693184
121	0xbe21e1b6	-0.15808758
122	0x3e38bf5c	0.18041748
123	0xbe513d92	-0.20433643
124	0x3e458643	0.19289498
125	0x3e17587c	0.14779848
126	0xbdf39384	-0.11893371
127	0xbe0e25bc	-0.13881582
128	0x3df798ae	0.12089668
129	0x3c47ab30	0.01218681
130	0x3e617300	0.22016525
131	0x3dd2b4bb	0.10288378
132	0x3df51003	0.119659446
133	0xbd4db2a5	-0.050219197
134	0xbd815aeb	-0.06316169
135	0xbdb7680a	-0.08955391
136	0x38b4fdef	8.630368e-05
137	0xbddde3a4	-0.10834435
138	0x3e5cc687	0.21560107
139	0xbd2fa838	-0.042885035
140	0x3db6cd1b	0.089258395
141	0x3e534967	0.2063347
142	0xbd7eee01	-0.062238697
143	0x3dbbfced	0.09179101
144	0x3e24cb92	0.16093281
145	0x3e269d07	0.16270839
146	0xbd9582bd	-0.07300327
147	0xbdab6b6d	-0.08370099
148	0x3e30c212	0.17261532
149	0xbe712597	-0.23549496
150	0xbe4cdf7d	-0.20007129
151	0xbdf1a518	-0.11799067
152	0xbcadf83a	-0.021236528
153	0x3bdd39c0	0.006751269
154	0xbde5e194	-0.11224666
155	0xbd453bbb	-0.048152667
156	0x3df31c91	0.11870683
157	0xbd97c2a1	-0.074101694
158	0x3dd90480	0.105965614
159	0x3db7170e	0.08939944
160	0xbe24e4be	-0.16102883
161	0x3dbad447	0.0912252
162	0xbd802aad	-0.0625814
163	0xbdb62c75	-0.08895198
164	0xbdf5c0fc	-0.119996995
165	0xbe0a002a	-0.13476625
166	0x3e0c003b	0.13671963
167	0xbe313be2	-0.17308
168	0xbe1330ab	-0.14374034
169	0x3d7877d7	0.060661163
170	0x3e1a1f7e	0.15051076
171	0x3db863ab	0.09003385
172	0xbc09b038	-0.00840383
173	0x3e0b1e06	0.13585672
174	0x3de553b1	0.111976035
175	0x3e048fc3	0.12945466
176	0xbde5c785	-0.11219696
177	0x3d9d162c	0.076702446
178	0x3be215e4	0.006899582
179	0xbeb76cf1	-0.35825303
180	0xbd9e0fbe	-0.07717846
181	0x3e40be19	0.18822517
182	0xbc85bbc3	-0.016324883
183	0xbe691428	-0.22761595
184	0x3e018f4a	0.12652317
185	0xbdad9571	-0.08475769
186	0x3e26441c	0.16236919
187	0x3e0f1a2c	0.13974828
188	0x3dc84b8a	0.09780033
189	0x3e393cf0	0.18089652
190	0x3cd7d53c	0.026346795
191	0xbe31cc26	-0.17363033
192	0xbd483389	-0.048877273
193	0x3e547aca	0.20749965
194	0xbdbb0160	-0.09131122
195	0x3e2fe4de	0.1717715
196	0x3dd30b3f	0.103048794
197	0xbe1f4c79	-0.15556516
198	0x3d89704d	0.06710873
199	0xbe6bfdfb	-0.23046105
200	0x3e01fb49	0.12693514
201	0x3e26982a	0.16268983
202	0xbc896b23	-0.01677472
203	0xbd420ffc	-0.047378525
204	0xbd15b6f9	-0.03655145
205	0x3e926ac6	0.28597087
206	0xbd1bb60e	-0.038015418
207	0x3e6bcd7c	0.23027605
208	0xbc27dd01	-0.0102455625
209	0xbc1d8e17	-0.009616396
210	0xbbc0c2d0	-0.0058825985
211	0xbe8abb46	-0.27096003
212	0x3e333386	0.17500123
213	0xbce86142	-0.028366689
214	0xbe1a47d4	-0.15066463
215	0xbdea7219	-0.11447544
216	0xbcc2e34a	-0.02379002
217	0x3a679637	0.00088343344
218	0x3d1e71c6	0.03868272
219	0xbcb4036a	-0.021974284
220	0x3e502e6a	0.20330206
221	0xbb681ff7	-0.0035419443
222	0x3de3152b	0.11088022
223	0xbdccb822	-0.09996058
224	0xbe161c33	-0.14659195
225	0x3e17a9e3	0.148109
226	0x3d6eb8d8	0.05828175
227	0x3d1373c0	0.03599906
228	0x3e0720cf	0.13196109
229	0xbe2f3d9f	-0.1711335
230	0x3e626150	0.22107434
231	0xbd5c3740	-0.053763628
232	0xbdfe50e5	-0.12417773
233	0x3e4351c3	0.19074158
234	0xbe27939d	-0.16364904
235	0x3e676e57	0.22600685
236	0x3defa62a	0.11701615
237	0x3e38ad4f	0.18034862
238	0x3aff611f	0.00194839
239	0x3e7157c4	0.23568636
240	0x3dbb3866	0.091416165
241	0xbc4ff747	-0.012693233
242	0xbd74229a	-0.05960331
243	0xbe102e93	-0.14080267
244	0xbcf484ca	-0.029848475
245	0x3d182ca1	0.037151936
246	0x3df5514d	0.119783975
247	0xbe2f407c	-0.17114443
248	0x3e246457	0.16053902
249	0xbd90f406	-0.07077794
250	0xbdce9e03	-0.10088732
251	0x3cdafff3	0.026733374
252	0x3de30cee	0.110864505
253	0x3b9f6441	0.004864246
254	0xbe7dc7b2	-0.24783209
255	0x3d14f3e1	0.036365394

model.7.bias f4 [32]
0	0x3c8b8c76	0.01703475
1	0xbe20c2f1	-0.15699364
2	0xbda27a50	-0.079334855
3	0xbd1bbf3a	-0.038024165
4	0x3d6b5ba2	0.057460435
5	0x3d30d4a8	0.043171555
6	0x3e5f2c9e	0.21794364
7	0xbdb463a3	-0.08808067
8	0xbd79f7b3	-0.06102724
9	0xbd946c3a	-0.07247205
10	0xbdd307cf	-0.10304224
11	0x3db111ce	0.08645974
12	0xbe4b4626	-0.19850978
13	0xbd558f9d	-0.052138913
14	0xbda3ddb3	-0.0800127
15	0xbdac4580	-0.084116936
16	0xbd954808	-0.072891295
17	0x3d883174	0.066500574
18	0xbde901e2	-0.11377312
19	0x3de3b85b	0.111191474
20	0x3cab20b3	0.020889616
21	0xbd81044f	-0.0629965
22	0x3e282b38	0.16422737
23	0xbd6ef0ba	-0.058335043
24	0xbe00f8ee	-0.12594959
25	0x3c41284a	0.011789391
26	0xbca0abfb	-0.019613257
27	0x3d34c769	0.044135485
28	0x3c18c909	0.009325274
29	0xbdeb1862	-0.1147926
30	0xbe18bb94	-0.14915305
31	0x3dc37117	0.095430546

model.9.weight f4 [32, 32]
0	0xbb6bf87a	-0.0036006258
1	0x3d8561c8	0.06512791
2	0x3d5102e5	0.05102815
3	0x3e050326	0.12989482
4	0xbd93de14	-0.072200924
5	0xbd33e21a	-0.0439168
6	0xbe52dfd3	-0.20593195
7	0xbe829261	-0.25502303
8	0x3d1e7a1a	0.038690664
9	0x3e6ae53e	0.22939011
10	0x3da8c7de	0.08241247
11	0xbe09b67d	-0.1344852
12	0x3cf46193	0.029831683
13	0xbe767cfd	-0.24071117
14	0xb9b9ea39	-0.0003546046
15	0xbe0083f7	-0.1255034
16	0xbce0ad90	-0.027426511
17	0xbe26dff8	-0.16296375
18	0xbe7035e3	-0.23458056
19	0xbd5b9371	-0.053607408
20	0xbe523f84	-0.20532042
21	0xbd97180b	-0.07377633
22	0xbe814b98	-0.25252986
23	0xbd09885c	-0.033577308
24	0xbc10df4c	-0.008842301
25	0xbd3cdc30	-0.046108425
26	0xbe48f22d	-0.19623633
27	0xbd9bb2bd	-0.07602451
28	0xbd14a2bb	-0.036288004
29	0x3d21cc69	0.03950158
30	0x3daec441	0.08533526
31	0xbd8fb0f1	-0.07016171
32	0x3d87145e	0.065956816
33	0xbbca56a5	-0.0061748796
34	0xbe4ea5cf	-0.20180438
35	0xbdb2c938	-0.08729786
36	0xbdc24ec6	-0.09487681
37	0x3d1fd6e8	0.03902331
38	0x3cc3a920	0.023884356
39	0x3e8cdd3b	0.27512535
40	0xbcbca014	-0.02302555
41	0xbe0f36d0	-0.13985753
42	0xbd84a016	-0.064758465
43	0x3df9bba9	0.121939965
44	0xbea4da19	-0.32197645
45	0x3e8d1017	0.27551338
46	0xbdaec321	-0.08533312
47	0xbd65c58d	-0.056096602
48	0x3d937bf7	0.07201379
49	0x3e03ce48	0.12871659
50	0x3d9ee41d	0.07758353
51	0xbe1e4146	-0.15454587
52	0x3e4868bd	0.19571204
53	0xbd778799	-0.06043205
54	0x3d22ad30	0.039715946
55	0x3d609073	0.054825258
56	0xbdb8b33b	-0.090185605
57	0xbe01e008	-0.12683117
58	0x3e4d7ebc	0.20067877
59	0xbda9ebb7	-0.08296912
60	0x3e029161	0.1275077
61	0x3da9604a	0.08270319
62	0x3d307f2d	0.043090034
63	0xbdb01759	-0.08598203
64	0xbc8da4a3	-0.017290419
65	0xbe65b1b7	-0.22431074
66	0x3e0a7ef3	0.1352499
67	0x3e34b704	0.1764794
68	0xbe4b0174	-0.19824773
69	0xbdaddc4f	-0.08489286
70	0x3e8612f1	0.26186326
71	0x3e7c9205	0.24665077
72	0xbd58167f	-0.05275583
73	0xbe0cc93b	-0.13748638
74	0xbe649e8a	-0.22326103
75	0x3e3933e4	0.18086201
76	0xbdfa0d24	-0.122095376
77	0x3e924705	0.2856981
78	0xbe71e25f	-0.2362151
79	0xbca93ac9	-0.020657914
80	0x3d5addb0	0.053434074
81	0xbdcde80e	-0.100540265
82	0x3e38a11a	0.18030205
83	0x3d68635b	0.056735378
84	0x3be89eb9	0.0070989993
85	0x3c91fed5	0.017821709
86	0x3e290921	0.16507389
87	0x3e18a927	0.14908276
88	0x3e239965	0.15976484
89	0xbe4ac2a2	-0.19800809
90	0x3e15c853	0.14627199
91	0xbdf352fd	-0.11881063
92	0x3e085fae	0.13317749
93	0x3cbf5274	0.023354746
94	0xbe281b6d	-0.16416712
95	0x3d6bce33	0.057569694
96	0x3e1fb958	0.15598047
97	0x3e777474	0.24165517
98	0x3e40b9b5	0.18820842
99	0xbd89d835	-0.06730691
100	0x3e243feb	0.16040008
101	0xbe4159b8	-0.18881881
102	0xbe2d0612	-0.16896847
103	0xbdddb7e8	-0.10826093
104	0x3d3f2d42	0.04667402
105	0x3e4aed03	0.19816975
106	0xbdaf9455	-0.08573214
107	0x3d38a109	0.04507545
108	0x3e90164d	0.28142014
109	0xbb762b24	-0.0037562335
110	0x3e3a3c4a	0.18187061
111	0x3d4d645b	0.050144535
112	0xbc86150e	-0.016367462
113	0xbd934234	-0.071903616
114	0xbe276d73	-0.16350345
115	0xbb1e0ad6	-0.0024115345
116	0xbe654e1a	-0.22393075
117	0xbd6d0818	-0.057869047
118	0xbe01389a	-0.12619248
119	0xbe41302e	-0.18866035
120	0xbe076bc6	-0.13224706
121	0x3e4390e1	0.19098236
122	0xbbfa0eb8	-0.007631149
123	0xbe40f26c	-0.18842477
124	0xbe3063fa	-0.17225638
125	0x3d36873c	0.044562563
126	0xbd8298d7	-0.06376808
127	0x3da59c27	0.08086424
128	0xbd1ffaf2	-0.03905768
129	0x3e0c4eb8	0.13701904
130	0x3d4f9fa7	0.050689366
131	0xbdca0aca	-0.09865339
132	0xbe4ce46f	-0.20009016
133	0xbd6a79d8	-0.057245106
134	0x3d914ec9	0.07095105
135	0xbdfa0306	-0.12207608
136	0x3e4d4668	0.20046389
137	0xbda9d3c5	-0.08292345
138	0xbc843b0d	-0.016141439
139	0xbccd9b75	-0.025098542
140	0xbdceb59c	-0.10093233
141	0xbd29625a	-0.04135356
142	0xbd82d0ad	-0.06387458
143	0x3d17d51e	0.03706848
144	0x3d6117e8	0.05495444
145	0xbc7c3503	-0.015393498
146	0x3e2611a6	0.1621767
147	0xbd7b5919	-0.061364267
148	0xbdca72bb	-0.09885164
149	0xbcfef63f	-0.031123279
150	0x3e284e6e	0.16436169
151	0x3e355d33	0.17711334
152	0xbe058c87	-0.13041888
153	0xbe43838b	-0.19093148
154	0x3e15d20c	0.14630908
155	0xbde57316	-0.112035915
156	0xbdc157c1	-0.09440566
157	0xbe3d2b5f	-0.18473576
158	0xbd3a3328	-0.045458943
159	0xbe12ae73	-0.1432436
160	0x3d766fb1	0.06016511
161	0x3eb5aac3	0.35481843
162	0xbd499fb2	-0.049224563
163	0x3dadc02a	0.08483918
164	0x3d9b0570	0.075693965
165	0x3db1a7a0	0.0867455
166	0xbbcff82a	-0.006346722
167	0xbe4c40b6	-0.1994656
168	0xbd49faa8	-0.04931131
169	0x3e87aa8a	0.26497298
170	0x3d8faa1a	0.07014866
171	0x3dc86b40	0.09786081
172	0x3ac0c86c	0.0014708168
173	0xbe462bd0	-0.1935265
174	0x3d445148	0.04792908
175	0xb9c21ca2	-0.00037023897
176	0xbe0b1c77	-0.13585077
177	0xbea36f97	-0.31921074
178	0x3d7c9b3d	0.061671484
179	0x3e685a86	0.22690782
180	0xbe8bc611	-0.2729955
181	0xbd7efbea	-0.062251963
182	0xbd96477d	-0.07337854
183	0xbd988622	-0.07447459
184	0xbca6a407	-0.020341886
185	0x3e9e9742	0.30974776
186	0xbd9c1924	-0.07621983
187	0x3d7cae56	0.061689697
188	0xbe1c4095	-0.15259011
189	0x3e4d2818	0.20034826
190	0x3e69ce1d	0.22832532
191	0xbc7d4de8	-0.015460469
192	0x3dd56da8	0.10421306
193	0xbc3e1cea	-0.011603573
194	0xbdb9cbe0	-0.09072089
195	0xbd7506c5	-0.05982091
196	0xbdab6179	-0.08368201
197	0x3b1487d5	0.002266397
198	0x3dc8f0f8	0.09811586
199	0xbcbd74aa	-0.023126919
200	0x3e36efec	0.1786496
201	0x3d652b29	0.055949364
202	0x3ccd39a8	0.025051907
203	0xbe27ed40	-0.16399097
204	0xbda0d4be	-0.07853077
205	0xbcf93a89	-0.03042342
206	0xbdd54a80	-0.104146
207	0x3d3d47b9	0.04621098
208	0x3ddcf8a8	0.10789615
209	0xbe25d91d	-0.16196103
210	0xbe0ab653	-0.13546114
211	0x3de450b5	0.11148206
212	0x3d538690	0.051642
213	0x3d6c9b88	0.057765514
214	0x3e15179e	0.1455979
215	0x3e428865	0.18997343
216	0x3d4faee2	0.05070389
217	0x3e31ec86	0.17375383
218	0xbdf6f2ac	-0.12058005
219	0xbd0e60e2	-0.034760363
220	0xbde05ae1	-0.10954834
221	0xbd4d8e88	-0.050184757
222	0x3c384d16	0.0112488475
223	0xbcfa0ddb	-0.030524185
224	0x3d0fb588	0.03508523
225	0xbb6b6e76	-0.0035923994
226	0xbde3f874	-0.11131373
227	0xbddb4656	-0.10706775
228	0x3d49e3dd	0.049289573
229	0xbd47b0f3	-0.048752736
230	0xbd5a992d	-0.053368736
231	0x3d804f17	0.06265085
232	0x3d80a3b2	0.062812224
233	0xbcc57d75	-0.024107674
234	0x3e07c899	0.13260116
235	0x3e5ba099	0.21447982
236	0x3e825ede	0.25463003
237	0x3e262b85	0.16227539
238	0xbe291adc	-0.16514152
239	0xbda91ddf	-0.082576506
240	0xbd881dac	-0.066462845
241	0xbc1b7f2c	-0.009490769
242	0x3d9b4c13	0.075828694
243	0xbc5c1191	-0.0134319225
244	0x3d08322a	0.033250965
245	0xbe1ce68f	-0.15322326
246	0xbbc9c92f	-0.006158016
247	0xbab3a847	-0.0013706767
248	0xbe5aaeb8	-0.21355712
249	0x3e0a22b5	0.13489802
250	0x3d17a50c	0.037022635
251	0xbd3ba6d3	-0.045813393
252	0x3d8bd8fe	0.06828497
253	0x3e3a23c0	0.181777
254	0x3cd1c58c	0.025606893
255	0xbe20d0eb	-0.15704696

model.9.bias f4 [32]
0	0x3dbb4155	0.091433205
1	0xbe16f723	-0.14742713
2	0xbdd61db9	-0.10454888
3	0xbdac605a	-0.08416815
4	0xbd6cf5d6	-0.057851635
5	0xbe2185a0	-0.1577363
6	0xbe2579ac	-0.16159695
7	0x3d4daa2c	0.050211117
8	0xbc7e68e8	-0.015527941
9	0x3c4c9c06	0.012488371
10	0x3d2708e5	0.040779967
11	0x3d73b677	0.059500184
12	0xbda3b3ce	-0.079932794
13	0x3d1202af	0.03564709
14	0x3e0b689c	0.13614124
15	0x3e2cc04e	0.16870233
16	0xbcfc8001	-0.030822756
17	0x3e08dbbf	0.13365076
18	0xbe347c1f	-0.17625473
19	0xbe05e646	-0.13076124
20	0xbd3306a5	-0.04370751
21	0x3ca0d737	0.019633872
22	0x3d05cd08	0.032666236
23	0xbe3fbd7a	-0.18724623
24	0x3dfa44e5	0.12220172
25	0xbe269c2f	-0.16270517
26	0xbdcd337f	-0.10019588
27	0x3dad1375	0.08450977
28	0xbcfea515	-0.031084577
29	0xbe18da9c	-0.14927143
30	0x3ba05e53	0.004894057
31	0x3d65be95	0.056089956

model.11.weight f4 [32, 32]
0	0x3da830ec	0.08212456
1	0xbd9d2a65	-0.07674102
2	0xbe005bdb	-0.1253504
3	0x3d845d6d	0.06463132
4	0x3cf6fc4f	0.030149607
5	0x3cc2eef3	0.02379558
6	0x3df289ca	0.118426874
7	0x3d9bf131	0.07614363
8	0x3b18bd37	0.002330614
9	0x3d055687	0.032553222
10	0x3bdf4167	0.0068132165
11	0xbde8772f	-0.113508575
12	0xbdc1da3e	-0.094654545
13	0xbdb3dca5	-0.08782319
14	0xbdb051c2	-0.08609344
15	0xbdaa9f6d	-0.08331189
16	0x3cb2105c	0.021736316
17	0x3db95a66	0.09050445
18	0xbe280718	-0.16408956
19	0xbd432ab2	-0.04764814
20	0xbd9f2f4f	-0.07772695
21	0x3e282dd0	0.16423726
22	0xbe346975	-0.17618354
23	0xbd96d4bc	-0.073647946
24	0x3e362e57	0.17791115
25	0xbd23d17f	-0.039994713
26	0x3e33ed04	0.17570883
27	0xbd174c9e	-0.036938302
28	0x3c7f567a	0.015584582
29	0xbdf97b73	-0.12181749
30	0xbbda0f03	-0.0066546216
31	0xbd95a966	-0.07307701
32	0x3d0a7e90	0.033812106
33	0xbd453580	-0.048146725
34	0xbd5fa076	-0.054596387
35	0x3d0067f4	0.031349137
36	0x3ccfbdf9	0.02535914
37	0xbb6ae3e8	-0.003584141
38	0x3dd41837	0.10356181
39	0x3cbddf1c	0.023177676
40	0x3e0c316d	0.1369073
41	0x3e1d3b2d	0.15354605
42	0x3b413d3e	0.0029485966
43	0x3e36e708	0.17861569
44	0xbe07bfbf	-0.13256739
45	0xbe2080fa	-0.156742
46	0x3e2102a4	0.15723664
47	0xbe176665	-0.14785154
48	0x3dd1c2c1	0.102422245
49	0xbc3b19cd	-0.011419726
50	0xbe106d71	-0.14104249
51	0x3e9bc46d	0.30423298
52	0xbe000e9e	-0.12505576
53	0x3d904636	0.07044642
54	0xbc811197	-0.015755458
55	0x3b6a24fc	0.003572761
56	0x3d170326	0.036868237
57	0x3e3f4835	0.18679889
58	0x3e1b840b	0.15187089
59	0x3e470027	0.19433652
60	0x3e1c5fd1	0.15270926
61	0x3e43cd51	0.1912129
62	0xbd828d35	-0.06374589
63	0x3d9e4a3b	0.07729002
64	0x3da74ba2	0.08168723
65	0xbe3e1d78	-0.18565929
66	0xbdd42450	-0.103584886
67	0x3e2f1835	0.17099078
68	0xbde33259	-0.110935874
69	0x3e04c6b3	0.12966423
70	0x3d8be413	0.06830611
71	0x3dea5ba5	0.11443261
72	0xbcf689ec	-0.030095063
73	0xbd38c0cc	-0.04510574
74	0xbd4f5297	-0.050615873
75	0x3dad79ed	0.08470521
76	0x3dd54c2d	0.1041492
77	0xbd190125	-0.037354607
78	0x3ce2dcf1	0.027693244
79	0xbe3885eb	-0.18019836
80	0x3d164c24	0.036693707
81	0xbdea2d27	-0.114343934
82	0x3e3f0a65	0.18656309
83	0x3eacc169	0.3374131
84	0xbd73d0a0	-0.059525132
85	0xbe67f5e9	-0.22652401
86	0x3df2d28a	0.118565634
87	0x3e50eea4	0.20403534
88	0xbe855d0e	-0.26047558
89	0x3e33cbf9	0.17558278
90	0xbc9972ef	-0.018731562
91	0x3c9f70e9	0.01946302
92	0xbd9c545f	-0.0763328
93	0x3cdebdbf	0.027190087
94	0x3e4f2c0b	0.20231645
95	0xbc01d32e	-0.007923884
96	0x3e5a6f4b	0.21331517
97	0xbd2b079a	-0.041755296
98	0xbdab2212	-0.08356108
99	0x3cabaaf1	0.020955535
100	0x3d6bfc46	0.057613634
101	0x3de82977	0.11336034
102	0x3e10918f	0.14118026
103	0xbd23e355	-0.040011723
104	0xbe253c9a	-0.16136399
105	0xbd208322	-0.039187558
106	0x3e03d7a5	0.1287523
107	0x3cce7f02	0.025207046
108	0x3e340112	0.17578533
109	0x3bc0e3dd	0.0058865384
110	0x3e244319	0.1604122
111	0xbddaad66	-0.106776044
112	0xbd7edae9	-0.062220488
113	0x3ce06891	0.027393611
114	0x3db958a5	0.09050111
115	0x3debdaf9	0.11516375
116	0xbbe57a86	-0.0070031313
117	0xbe47df31	-0.19518735
118	0x3cfdeae4	0.030995794
119	0xbd9debf7	-0.07711022
120	0xbe3c00f8	-0.18359745
121	0x3dbd1660	0.09232783
122	0xbe2b3c89	-0.16722311
123	0x3e2fae3e	0.17156312
124	0x3e194f4c	0.14971656
125	0x3e1e3922	0.15451482
126	0x3da7fc18	0.0820238
127	0x3dd8201a	0.10552998
128	0xbe08c917	-0.1335796
129	0x3deda206	0.11603169
130	0xbd9fbb9d	-0.07799456
131	0xbde7f051	-0.113251336
132	0xbe6145d7	-0.21999298
133	0x3e147433	0.14497451
134	0xbd30cdd6	-0.04316505
135	0x3e201c1c	0.15635723
136	0xbe27eb9d	-0.16398473
137	0xbe19710e	-0.14984533
138	0x3e0278e3	0.12741427
139	0xbdff9de0	-0.12481284
140	0x3d84410d	0.0645772
141	0x3d48e437	0.049045768
142	0xbe34fb9e	-0.1767411
143	0x3e3cc5cf	0.18434833
144	0x3d3c0e92	0.045912333
145	0xbe10a36b	-0.14124839
146	0xbd2f44b9	-0.04279015
147	0xbe6f93fc	-0.23396295
148	0xbdb817e4	-0.08988932
149	0xbb54fa94	-0.003249799
150	0x3c26419f	0.010147481
151	0xba779a72	-0.00094453164
152	0x3d5d0481	0.053959373
153	0xbe219683	-0.15780072
154	0xbe1dd173	-0.1541193
155	0xbd186799	-0.037208173
156	0xbe237b7b	-0.15965073
157	0xbe2b1174	-0.16705877
158	0x3db389f5	0.087665476
159	0xbe31d0ac	-0.17364758
160	0x3e50b725	0.20382364
161	0xbd6a7960	-0.05724466
162	0x3c02b110	0.007976785
163	0x3c57df8a	0.013175854
164	0xbe362c6d	-0.17790385
165	0x3d35fefe	0.044432633
166	0xbd23e4c4	-0.04001309
167	0x3d28a47c	0.04117249
168	0xbbcfa1aa	-0.0063364105
169	0xbd161d60	-0.036649108
170	0xbe3b814f	-0.18311046
171	0xbdf9b5d9	-0.12192888
172	0x3ca70980	0.020390272
173	0xbc04f732	-0.008115577
174	0x3e0018fb	0.1250953
175	0xbe4930eb	-0.19647567
176	0xbddb23d8	-0.10700196
177	0xbe48dd8f	-0.19615768
178	0xbdfdf0d8	-0.12399453
179	0x3e0085cc	0.1255104
180	0x3db07820	0.08616662
181	0xbe6904e0	-0.22755766
182	0x3e25088a	0.16116539
183	0x3c906d4b	0.01763024
184	0x3c9830ce	0.01857796
185	0x3d9ba2de	0.07599424
186	0x3ddda309	0.10822112
187	0x3d8a8135	0.067629255
188	0xbd6bc8a8	-0.057564408
189	0xbd596cef	-0.053082403
190	0x3e639480	0.22224617
191	0xbe23265f	-0.15932606
192	0xbd8d6606	-0.06904225
193	0x3e3d1466	0.18464813
194	0x3e19dfc9	0.15026774
195	0xbd229fb3	-0.039703082
196	0xbe29a51c	-0.1656689
197	0x3dacfc31	0.08446539
198	0xbdb1d365	-0.086828984
199	0x3ca71234	0.020394422
200	0x3da08649	0.07838113
201	0xbe184133	-0.14868622
202	0x3d834c73	0.06411066
203	0xbe5f4360	-0.21803045
204	0xbd8eba45	-0.06969122
205	0xbe1189fa	-0.1421279
206	0x3d28cf69	0.041213427
207	0x3e2c0033	0.16796951
208	0xbd9febae	-0.07808624
209	0xbb04143d	-0.0020153665
210	0xbe375cc2	-0.17906478
211	0xbe22c10b	-0.15893953
212	0x3dae54d3	0.08512273
213	0xbcc26e88	-0.023734346
214	0xbe28e16c	-0.16492242
215	0xbe325d62	-0.17418435
216	0x3d81e816	0.06343095
217	0x3dfd8182	0.12378217
218	0x3bb04860	0.0053797215
219	0xbddb48a7	-0.10707217
220	0x3e522365	0.20521314
221	0x3cc07441	0.023492934
222	0x3d3da934	0.046303943
223	0xbe3e7f1c	-0.18603176
224	0xbdf59c40	-0.11992693
225	0xbd7a36c5	-0.06108739
226	0x3db1b026	0.08676176
227	0x3c73a429	0.014870682
228	0x3e52e587	0.2059537
229	0xbe226108	-0.15857327
230	0xbd915489	-0.07096202
231	0xbe207598	-0.15669858
232	0xbd7000ef	-0.05859464
233	0x3e25aae6	0.16178474
234	0x3d5e5909	0.05428413
235	0x3dab835c	0.08374664
236	0x3de1f477	0.11032956
237	0x3dc14e96	0.09438817
238	0xbdfb876f	-0.12281691
239	0xbda9b7f2	-0.08287038
240	0x3df7f033	0.12106361
241	0xbe1e13e5	-0.15437277
242	0x3e1e2b66	0.15446243
243	0x3c0df07f	0.008663296
244	0x3e098349	0.13428988
245	0xbd67450d	-0.056462336
246	0x3e3aa5c3	0.18227296
247	0xbdfa4524	-0.12220219
248	0xbe286700	-0.16445541
249	0x3e1fb7e7	0.15597497
250	0x3e165cd3	0.14683847
251	0xbdfb3c6c	-0.12267384
252	0xbe1c0b49	-0.1523868
253	0xbcafd98e	-0.021466043
254	0x3cc3663c	0.02385246
255	0x3e35a0e0	0.1773715

model.11.bias f4 [32]
0	0x3e2f8b26	0.17142925
1	0x3e2af29c	0.1669411
2	0xbe0c59b6	-0.13706097
3	0xbe004b3c	-0.125287
4	0xbdd376b1	-0.10325373
5	0xbe526677	-0.205469
6	0x3c2ea7c3	0.010660115
7	0x3d7b45d9	0.06134591
8	0xbe2c54ef	-0.16829275
9	0xbe493d71	-0.19652344
10	0x3e03d3c4	0.12873751
11	0xbbd8f242	-0.0066206763
12	0x3dd6700d	0.10470591
13	0xbe023bae	-0.12718078
14	0xbc1374e2	-0.009000035
15	0xbc90457c	-0.017611258
16	0xbe3aae0b	-0.18230455
17	0x3dc72971	0.09724701
18	0xbccb95a9	-0.024851637
19	0xbdf22768	-0.118239224
20	0x3db3c0ce	0.08777009
21	0xbdf67f41	-0.120359905
22	0x3e1e145f	0.15437458
23	0x3e82babd	0.25533095
24	0xbd93f6f9	-0.07224841
25	0x3d8ac1d8	0.06775254
26	0xbd5143c4	-0.051090017
27	0xbe264cc3	-0.1624022
28	0x3d0d49d4	0.034494236
29	0x3dbb5f71	0.091490634
30	0x3d90d65b	0.07072135
31	0x3d935267	0.071934514
