PINNS/HeatEq/models/checkpoints_Adam/_Archieve/best_dict.pt (torch, 21917 bytes, 23 tensors)

layers.input.weight f4 [10, 2]
0	0x3e98d71c	0.29851615
1	0x3eccb6cd	0.39983216
2	0xbe8aa631	-0.2707992
3	0xbdfa2170	-0.12213409
4	0x3f4accf6	0.79218996
5	0xbe4af31f	-0.19819306
6	0x3f4d5501	0.8020783
7	0x3e0fd8a9	0.14047493
8	0xbf80ba44	-1.0056844
9	0x3f9c9747	1.2233666
10	0xbedad5ce	-0.42741245
11	0xbec182f3	-0.3779522
12	0xbd486280	-0.048922062
13	0x3eaf49f5	0.34236112
14	0x3f4935e7	0.78597873
15	0x3dd8af62	0.105803266
16	0x3ec78d1c	0.38974845
17	0xbf08cc0f	-0.5343637
18	0xbf21f31f	-0.632616
19	0xbd8b96bc	-0.0681586

layers.input.bias f4 [10]
0	0xbe4fbafc	-0.20286173
1	0xbe9f70c7	-0.3114073
2	0xbe4059b0	-0.18784213
3	0x3f009490	0.5022669
4	0x3e6d22eb	0.23157851
5	0x3e9e7b82	0.30953604
6	0xbdd72383	-0.1050482
7	0x3e440643	0.19143014
8	0x3f2c1722	0.672228
9	0xbf16bf1d	-0.58885366

layers.hidden_0.weight f4 [10, 10]
0	0xbeb0f070	-0.3455844
1	0x3e115963	0.14194255
2	0xbebc8629	-0.36821106
3	0x3e88e8d3	0.2674013
4	0xbe8ba32a	-0.27272922
5	0x3e466b37	0.19376837
6	0x3ead9501	0.33902743
7	0x3e06e6a1	0.13173915
8	0xbf04dbe2	-0.51898015
9	0xbd2bb136	-0.04191705
10	0x3e275e3f	0.16344546
11	0xbcfbb70e	-0.030726936
12	0x3f03a376	0.51421297
13	0x3da56ae9	0.08077032
14	0x3e74893e	0.23880479
15	0xbe8173e3	-0.25283727
16	0xbe722c1e	-0.23649642
17	0x3e4ea8ff	0.20181654
18	0x3e169d34	0.14708406
19	0x3d9d36be	0.07676457
20	0xbe739a09	-0.23789228
21	0x3dd1bf09	0.10241515
22	0x3e283fcf	0.16430591
23	0xbcd2d7bd	-0.025737638
24	0xbec770f3	-0.3895336
25	0xbe41dc9f	-0.18931817
26	0xbea9df51	-0.3317819
27	0xbe9d376a	-0.3070634
28	0xbe4d2e60	-0.20037222
29	0xbe768dfe	-0.24077603
30	0xbe73dc67	-0.23814546
31	0xbd2c80e7	-0.04211512
32	0x3c54f748	0.01299841
33	0xbd00db22	-0.03145898
34	0x3ecf1b4f	0.40450522
35	0x3eeb47ee	0.45953315
36	0xbe255573	-0.16145878
37	0xbe857d46	-0.2607214
38	0xbd2f90b1	-0.042862598
39	0x3ebce4dd	0.3689336
40	0xbde0f794	-0.10984722
41	0xbd49ae08	-0.049238235
42	0x3f1a2308	0.60209703
43	0x3e5c4a07	0.21512614
44	0xbe986f18	-0.29772258
45	0x3e8311d4	0.2559954
46	0xbf0f3d3a	-0.559528
47	0x3c93e8aa	0.018055279
48	0x3f1d46e0	0.6143627
49	0xbe91de9c	-0.2849015
50	0xbcf8b015	-0.0303574
51	0x3cf8dc2c	0.030378424
52	0xbe34073d	-0.17580886
53	0x3e158d03	0.14604573
54	0x3e87ef5a	0.26549798
55	0x3dce01d9	0.10058946
56	0x3e279963	0.16367106
57	0x3d0a8f43	0.03382803
58	0xbec119dd	-0.37715045
59	0x3ccebaac	0.025235496
60	0xbd9a4a83	-0.07533743
61	0xbda38ce9	-0.07985861
62	0x3e77b035	0.24188311
63	0xbe2aed23	-0.16692023
64	0x3ea8b6f5	0.32952085
65	0x3d61735f	0.055041667
66	0xbe8231a6	-0.25428504
67	0xbe79ea9a	-0.244059
68	0x3e93771d	0.28801814
69	0x3d8de2b7	0.06928008
70	0xbe1734ae	-0.1476619
71	0x3e3b0144	0.18262202
72	0xbc44b023	-0.012004885
73	0xbcdbac35	-0.026815513
74	0x3ea62f8e	0.32458156
75	0x3eb6a01f	0.35669038
76	0x3d45239a	0.048129655
77	0x3c366b25	0.011133944
78	0xbdc59834	-0.09648171
79	0xbe3efc3a	-0.18650904
80	0x3da98c49	0.082787104
81	0x3eb19b87	0.3468897
82	0xbe8b8471	-0.27249482
83	0x3d8fbb7a	0.0701818
84	0xbf11fe06	-0.57028234
85	0xbe9c3e85	-0.3051645
86	0x3e646c8c	0.22307032
87	0xbdea548b	-0.114419065
88	0xbeb2b778	-0.349056
89	0xbebfd405	-0.37466446
90	0x3d0f6808	0.03501132
91	0xbe421812	-0.18954495
92	0xbdc83e45	-0.09777502
93	0xbe675a21	-0.22592975
94	0x3e6007f8	0.2187804
95	0xbd6e075d	-0.05811249
96	0xbe28aae1	-0.16471435
97	0x3de2522c	0.11050829
98	0x3f0582c7	0.52152675
99	0x3d41eb5a	0.04734359

layers.hidden_0.bias f4 [10]
0	0xbe47a5a7	-0.19496785
1	0xbe28212f	-0.16418909
2	0xbc4cf7b8	-0.012510233
3	0xbdfb5cf6	-0.1227359
4	0xbdc0cd25	-0.09414128
5	0x3e79c3a2	0.24391034
6	0x3d99b576	0.07505314
7	0xbe52a22b	-0.20569675
8	0x3ebbf18d	0.36707726
9	0x3c3e7b80	0.011626124

layers.hidden_1.weight f4 [10, 10]
0	0xbe0719d9	-0.13193454
1	0x3e497c22	0.19676259
2	0xbebdf29e	-0.37099165
3	0xbe8f8b4c	-0.28035963
4	0x3e13b20c	0.14423388
5	0x3dc83c2a	0.097771004
6	0x3e1f59ee	0.15561649
7	0x3d8cb413	0.06870284
8	0xbf095561	-0.536459
9	0x3e624170	0.22095275
10	0xbdf5f9d2	-0.1201054
11	0xbde2281b	-0.11042806
12	0x3d7b6a3b	0.061380606
13	0x3d1a858b	0.037725013
14	0x3dee2572	0.11628236
15	0x3e1780c6	0.14795217
16	0x3e76d462	0.24104455
17	0x3d85ad28	0.065271676
18	0xbf51fb30	-0.82023907
19	0x3e837394	0.25674117
20	0x3e367ba1	0.17820598
21	0xbe29a554	-0.16566974
22	0x3ec33e24	0.38133347
23	0xbdb4dddc	-0.08831379
24	0x3e772d6e	0.24138424
25	0x3ce400ef	0.027832476
26	0xbe2b742f	-0.1674354
27	0xbe138de5	-0.14409597
28	0x3f4abcd1	0.7919436
29	0xbe3015af	-0.17195772
30	0xbe6be74d	-0.23037453
31	0xbc11c28f	-0.008896484
32	0xbefb6c5a	-0.49106103
33	0x3d18f109	0.037339244
34	0xbee21e99	-0.4416397
35	0x3e5ad81a	0.21371499
36	0xbe87c8c6	-0.26520365
37	0x3f40b3f2	0.75274575
38	0xbf4ac596	-0.7920774
39	0xbd901340	-0.07034922
40	0xbe887174	-0.26649058
41	0x3f50ec81	0.81610876
42	0xbe0a844b	-0.13527028
43	0xbebf4f4a	-0.3736518
44	0xbe071d1a	-0.13194695
45	0x3ca44933	0.020054435
46	0xbdd56739	-0.10420079
47	0xbf2646ba	-0.6495167
48	0xbeb6eed9	-0.357291
49	0x3eb379b2	0.35053784
50	0x3ddb89c3	0.10719635
51	0x3e734aaf	0.23758958
52	0xbe3c0c03	-0.18363957
53	0x3eb7fd60	0.35935497
54	0xbd3e9fe9	-0.04653922
55	0x3d6e91e8	0.058244616
56	0x3ea2bd04	0.31784832
57	0x3e1c72ce	0.1527817
58	0xbf62b86f	-0.88562673
59	0x3e29e421	0.1659093
60	0x3f0431a4	0.51638246
61	0x3dedfc3f	0.11620378
62	0x3ee7dff8	0.45288062
63	0xbda86304	-0.08222011
64	0xbedaa5c7	-0.42704603
65	0x3e606d4e	0.21916696
66	0xbdf4e0fe	-0.11956976
67	0x3ed01b44	0.40645802
68	0x3f56dce4	0.839308
69	0xbdfdcc5c	-0.12392494
70	0x3e68522d	0.22687598
71	0xbe6631de	-0.2247996
72	0x3d96d630	0.07365072
73	0xbcf6271d	-0.030047948
74	0xbda0fac1	-0.078603275
75	0x3cc818de	0.02442592
76	0x3e3610bd	0.17779823
77	0xbb9dc156	-0.004814307
78	0x3f1ed63b	0.6204564
79	0xbe98c970	-0.29841185
80	0x3ed00166	0.40626067
81	0xbead2903	-0.33820352
82	0x3e8bcc41	0.2730427
83	0xbdf4c277	-0.11951154
84	0x3942082b	0.00018504325
85	0xbdaacfeb	-0.083404385
86	0xbebb5ea5	-0.36595646
87	0x3e59a43e	0.2125406
88	0x3f2b2e58	0.6686759
89	0x3e826e1c	0.25474632
90	0xbe5f5a3f	-0.2181177
91	0xbe73bea9	-0.238032
92	0x3df2bd45	0.118525065
93	0xbec98dc1	-0.39365962
94	0x3db6b8a5	0.08921937
95	0x3b7f8681	0.0038990083
96	0xbe8fcaa8	-0.28084302
97	0xbee90f2d	-0.4551939
98	0x3e583d8c	0.21117228
99	0x3cc5025f	0.024048982

layers.hidden_1.bias f4 [10]
0	0xbe5cccfa	-0.21562567
1	0xbdbe0a71	-0.09279335
2	0xbd1a52e7	-0.037676718
3	0x3dc5c0ff	0.09655952
4	0x3e5177a0	0.2045579
5	0xbd8e8236	-0.069584295
6	0xbdecb308	-0.11557585
7	0x3d0359fa	0.03206823
8	0xbe162266	-0.1466156
9	0xbd81540e	-0.0631486

layers.hidden_2.weight f4 [10, 10]
0	0xbe6d776b	-0.23190086
1	0xbee6a580	-0.4504814
2	0x3e8b3911	0.27191976
3	0x3e15901d	0.14605756
4	0xbe13b68f	-0.1442511
5	0xbe3fb380	-0.18720818
6	0x3eb60bee	0.35555977
7	0x3e957099	0.29187468
8	0x3e2ef976	0.1708735
9	0xbe7c9fc5	-0.24670322
10	0x3ea51f72	0.32250553
11	0x3ea2bd44	0.31785023
12	0x3e07fa94	0.13279182
13	0xbd299a6e	-0.04140704
14	0xbe9f40d6	-0.31104153
15	0x3e94b54d	0.29044572
16	0x3bbf91b1	0.005846225
17	0x3cc12ab0	0.023579925
18	0xbe2f51ea	-0.17121091
19	0xbe11891c	-0.1421246
20	0x3ea9a3cd	0.33132783
21	0x3d935bf6	0.071952745
22	0xbe219d3a	-0.15782633
23	0x3f0c9dd1	0.5492831
24	0x3e6f9422	0.23396352
25	0x3f06df57	0.5268454
26	0xbec71370	-0.38882017
27	0xbe1563b1	-0.1458881
28	0x3d8b3687	0.0679751
29	0xbe9e1bcc	-0.30880582
30	0x3ef6959c	0.48161018
31	0x3eb6d811	0.3571172
32	0xbd5e947b	-0.05434082
33	0xbd4a8a57	-0.049448337
34	0xbe3d7464	-0.18501431
35	0x3c66fcfb	0.014098401
36	0xbe15d68d	-0.14632626
37	0x3cf6ddc6	0.030135047
38	0xbe78406e	-0.24243328
39	0x3d25b759	0.040458057
40	0xbe6a8620	-0.22902727
41	0xbeaa3d8b	-0.3325008
42	0x3e1a778b	0.15084665
43	0xbea5545b	-0.3229092
44	0xbe2e6b2e	-0.17033073
45	0xbf201d3f	-0.62544626
46	0xbe2b4842	-0.16726783
47	0x3e356e7f	0.17717932
48	0x3e2590d7	0.16168533
49	0xbda5b458	-0.080910385
50	0xbe11947c	-0.14216799
51	0xbdd45613	-0.1036798
52	0x3d26b036	0.04069539
53	0x3f052b39	0.5201908
54	0xbe66d042	-0.22540382
55	0xbe922927	-0.28547022
56	0x3ef87cfa	0.4853285
57	0x3e48cac2	0.19608596
58	0x3daf3479	0.0855493
59	0x3ca0c6d5	0.01962606
60	0xbdb0337d	-0.086035706
61	0xbe001b38	-0.12510383
62	0x3ec1b974	0.37836802
63	0xbdb475bd	-0.08811519
64	0x3e763ebb	0.24047367
65	0xbecfefaf	-0.40612552
66	0x3e76d5ed	0.24105044
67	0xbd042242	-0.032259233
68	0x3e0b9d09	0.13634123
69	0x3e541220	0.20710039
70	0xbed6d9da	-0.41963083
71	0x3e1e782d	0.15475531
72	0x3d6bc4cf	0.05756074
73	0xbe1e1e9d	-0.15441366
74	0xbeb04734	-0.34429324
75	0xbeb4b824	-0.35296738
76	0x3e5ebcb0	0.21751666
77	0x3d697ead	0.057005573
78	0x3de6f2b8	0.11276764
79	0xbebc0775	-0.3672444
80	0xbddf682f	-0.10908543
81	0x3e0dddb3	0.13854103
82	0xbe96159f	-0.2931337
83	0x3e318f96	0.1733993
84	0xbe0537cd	-0.13009568
85	0x3f0f1f0a	0.55906737
86	0xbed62cae	-0.41830963
87	0x3d92ecc6	0.07174067
88	0x3df96482	0.121773735
89	0x3c6b4f96	0.0143622365
90	0x3ca03b3b	0.019559493
91	0xbc809876	-0.015697699
92	0xbe57a165	-0.21057661
93	0x3ee37629	0.44426087
94	0x3cb60ecc	0.022223853
95	0x3ef6e995	0.48225084
96	0x3d9b46a5	0.07581834
97	0xbe95ffd5	-0.29296747
98	0xbe2495f9	-0.16072835
99	0xbe9350fb	-0.2877272

layers.hidden_2.bias f4 [10]
0	0xbe2631f3	-0.16229992
1	0x3e5b898f	0.21439193
2	0xbe95b43b	-0.29239067
3	0xbe1b3266	-0.15155944
4	0x3ea78f8f	0.32726714
5	0xbdf5dffc	-0.12005612
6	0x3e57433a	0.21021739
7	0x3e8a7091	0.27039006
8	0xbda47ca5	-0.080315866
9	0xbea0bdc4	-0.3139478

layers.hidden_3.weight f4 [10, 10]
0	0x3dff2b22	0.12459399
1	0xbe116efc	-0.14202493
2	0xbe3bfbe2	-0.18357804
3	0xbecb1064	-0.39660943
4	0x3ea90e95	0.33018938
5	0xbe1c28dd	-0.15249963
6	0x3f256766	0.646109
7	0x3e010dda	0.1260294
8	0xbefdc3e4	-0.49563515
9	0xbed58025	-0.4169933
10	0xbe7fe97b	-0.2499141
11	0x3d71fb0e	0.059077315
12	0x3f375763	0.71617717
13	0x3e13ed79	0.14446057
14	0xbeb35651	-0.35026792
15	0xbe5990f3	-0.212467
16	0xbef2c64f	-0.47416922
17	0xbed969d4	-0.42463553
18	0x3eb70f21	0.3575373
19	0x3ea55343	0.32290086
20	0xbe9adbd1	-0.30245832
21	0xbc309635	-0.010778
22	0x3ec5da98	0.38643336
23	0xbeb233d0	-0.34805155
24	0xbe689fa4	-0.22717148
25	0xbe932002	-0.28735358
26	0xbdac761e	-0.084209666
27	0xbdc04cd5	-0.093896545
28	0x3dca82e7	0.09888249
29	0x3d1adbc0	0.037807226
30	0xbe48073a	-0.19534007
31	0xbd8e0cd9	-0.06936044
32	0x3c54c1dd	0.012985674
33	0x3e0e32a0	0.138865
34	0x3eb205ce	0.34770054
35	0xbe8f2549	-0.27958134
36	0xbbb81a72	-0.005618387
37	0x3d22c92d	0.039742637
38	0x3ef0b852	0.47015625
39	0x3e9bd61f	0.304368
40	0x3eaffefb	0.34374222
41	0xbe41a9e2	-0.18912461
42	0xbf13294f	-0.57484907
43	0xbea321b5	-0.31861654
44	0x3d4515b2	0.048116393
45	0xbe470d33	-0.19438629
46	0x3f104d68	0.5636811
47	0x3eec7a48	0.46187043
48	0xbe88148b	-0.26578173
49	0xbde2399d	-0.11046145
50	0x3e59204b	0.21203725
51	0x3e19a808	0.15005505
52	0x3ebd8b94	0.37020552
53	0x3de322d9	0.11090631
54	0xbe63ab3e	-0.22233292
55	0xbe9e69fc	-0.30940235
56	0xbf052c4f	-0.52020735
57	0x3cbbea10	0.022938758
58	0x3e3820b1	0.17981221
59	0x3d798e32	0.060926624
60	0x3e8072fe	0.25087732
61	0xbe3f26ae	-0.18667099
62	0x3ea157b0	0.31512213
63	0xbeb5409a	-0.3540085
64	0x3c4f93c5	0.012669508
65	0x3df81e2c	0.1211513
66	0x3eeb0795	0.45904222
67	0xbe86bf0f	-0.2631764
68	0xbe664427	-0.22486936
69	0x3e809f3f	0.25121495
70	0x3c7d8b29	0.015475073
71	0xbdafb707	-0.085798316
72	0xbe908a3e	-0.2823047
73	0x3e193af2	0.14963892
74	0xbe172d70	-0.14763427
75	0xbe01ff49	-0.1269504
76	0xbe6d8e03	-0.23198704
77	0x3f0ba41a	0.54547274
78	0x3e823d42	0.2543736
79	0xbda54173	-0.08069124
80	0x3eef13ef	0.46694896
81	0x3d4ef844	0.050529733
82	0xbcc23d0e	-0.023710754
83	0xbea25cea	-0.31711513
84	0x3da01d29	0.07818062
85	0x3efc969c	0.49333656
86	0x3d75eee5	0.06004228
87	0xbc38e571	-0.011285172
88	0xbd4497ac	-0.047996208
89	0x3e511319	0.20417441
90	0xbe9867e0	-0.2976675
91	0x3e124059	0.14282359
92	0xbe2d53ec	-0.16926545
93	0x3eef950f	0.4679341
94	0x3e3c184e	0.18368647
95	0xbf1b5145	-0.6067088
96	0xbe5a89a0	-0.21341562
97	0xbe1bbb58	-0.15208185
98	0x3e86de88	0.26341653
99	0xbebd14b0	-0.36929846

layers.hidden_3.bias f4 [10]
0	0x3e8e15f5	0.27751127
1	0xbe4e1eff	-0.20129012
2	0xbdcda8c5	-0.10041956
3	0xbe820245	-0.25392357
4	0x3e69a7c6	0.22817907
5	0xbdd95e35	-0.10613672
6	0x3e374ce4	0.17900425
7	0xbd126146	-0.0357373
8	0xbda9d860	-0.082932234
9	0x3ea40e69	0.32042244

layers.hidden_4.weight f4 [10, 10]
0	0x3e85dd33	0.26145324
1	0xbeb0b6ad	-0.3451437
2	0xbe91b57b	-0.2845877
3	0x3d6f89f3	0.058481168
4	0x3e60b2cf	0.2194321
5	0xbd2f554b	-0.04280595
6	0xbe91d668	-0.2848389
7	0xbe60436b	-0.21900718
8	0xbcb4e837	-0.022083385
9	0xbe40027f	-0.18750952
10	0x3d95c83e	0.07313584
11	0xbe0c7de4	-0.13719898
12	0xbecf3de2	-0.404769
13	0xbcb7fa51	-0.022458227
14	0xbd89e56e	-0.06733213
15	0x3d00c592	0.031438418
16	0xbebc8dc6	-0.36826915
17	0x3eddadbd	0.43296614
18	0x3f2af08e	0.6677331
19	0xbeea8a7a	-0.45808774
20	0xbee4bb08	-0.44673944
21	0x3d8014be	0.06253956
22	0xbd85355b	-0.065043174
23	0x3eb235d3	0.3480669
24	0x3b4855f7	0.0030568817
25	0x3d776a1d	0.060403932
26	0xbe8acff4	-0.2711178
27	0x3ec28123	0.37989148
28	0x3dd7b07c	0.105317086
29	0x3e175b52	0.1478093
30	0xbe51badb	-0.20481436
31	0xbc81523a	-0.015786279
32	0xbe945601	-0.28971866
33	0x3d98b33c	0.07456061
34	0x3c9fd1ad	0.01950916
35	0x3df76042	0.120789066
36	0xbee9d6cb	-0.45671687
37	0x3e8eab8b	0.27865252
38	0xbe8b836f	-0.27248713
39	0x3e72d0a7	0.23712407
40	0xbd7e973e	-0.062155955
41	0xbd78d83a	-0.060753085
42	0xbe80d6b2	-0.251638
43	0xbeb90ca0	-0.36142445
44	0x3df64fa6	0.120269105
45	0x3e3d7203	0.18500523
46	0x3e9d8138	0.3076265
47	0xbe5c4c0b	-0.21513383
48	0x3f35979b	0.70934457
49	0xbea6b1b2	-0.32557446
50	0x3edb740c	0.42861974
51	0xbee647a6	-0.44976538
52	0xbe3a44bc	-0.18190283
53	0xbdd488e2	-0.10377671
54	0x3e93d62a	0.28874332
55	0xbdd0da60	-0.10197902
56	0x3c5445d1	0.012956099
57	0xbdb0a523	-0.08625247
58	0x3e09027b	0.13379852
59	0x3e2da981	0.16959192
60	0xbe8685a3	-0.26273832
61	0x3ed14c53	0.40878543
62	0x3db5a3e2	0.08869149
63	0x3e994a82	0.29939657
64	0xb7b9e675	-2.2161033e-05
65	0x3f00f82f	0.503787
66	0xbdd42f99	-0.10360641
67	0xbb8be1c8	-0.0042688586
68	0x3e61136e	0.21980068
69	0xbdeca7d5	-0.11555449
70	0xbed6a1f2	-0.4192043
71	0x3e4ec026	0.20190486
72	0x3ea0f6fc	0.31438434
73	0x3edf0b41	0.43563274
74	0xbede828b	-0.4345897
75	0x3ecf1ef6	0.4045331
76	0xbdea268e	-0.11433135
77	0x3b59f6b2	0.0033258614
78	0xbd33109e	-0.04371702
79	0xbe81d5f5	-0.2535855
80	0x3e10d68d	0.14144345
81	0x3d7aca93	0.061228346
82	0xbd3d514f	-0.04622012
83	0x3e706467	0.234758
84	0x3e10e4cd	0.1414978
85	0xbca86513	-0.020556008
86	0xbec92f11	-0.3929372
87	0x3ddde092	0.10833849
88	0xbec14c6a	-0.37753612
89	0x3ecff802	0.40618902
90	0xbebb8070	-0.36621428
91	0x3e846808	0.2586062
92	0x3dcf9c8a	0.10137279
93	0x3e1bd55d	0.1521811
94	0xbdc34e5d	-0.09536431
95	0x3ecf7383	0.40517816
96	0xbe9aa511	-0.3020406
97	0xbe904dff	-0.28184506
98	0xbd8b22bc	-0.067937344
99	0x3d431771	0.047629777

layers.hidden_4.bias f4 [10]
0	0xbde1a104	-0.110170394
1	0xbe1c7dfe	-0.15282437
2	0x3e424a9e	0.18973777
3	0xbdeb37b2	-0.114852324
4	0xbe6b4293	-0.22974615
5	0xbc8bfb04	-0.017087467
6	0xbd0d5c06	-0.03451159
7	0xbd09c20c	-0.033632323
8	0xbe66b4fd	-0.22529979
9	0xbe54ccea	-0.20781294

layers.hidden_5.weight f4 [10, 10]
0	0xbf1b0dc6	-0.6056789
1	0xbf22d1b5	-0.6360124
2	0x3ec55b2c	0.3854612
3	0x3e29c7d6	0.16580138
4	0xbef4fc3f	-0.47848698
5	0xbe38ec1f	-0.18058823
6	0x3e81475e	0.2524976
7	0x3de66a3e	0.11250733
8	0xbdf86aa8	-0.12129718
9	0x3dc97983	0.0983763
10	0xbe8a5da6	-0.27024573
11	0x3e46bc1c	0.19407696
12	0xbdcfcb4a	-0.10146196
13	0x3cf77a11	0.030209573
14	0xbe744530	-0.23854518
15	0xbd92dbe6	-0.071708485
16	0x3f08cd8d	0.53438646
17	0x3ea11bd0	0.31466532
18	0x3da22c07	0.07918554
19	0x3f0c5b33	0.5482666
20	0xbe8691a7	-0.26283
21	0xbe5d6ba2	-0.2162309
22	0xbe0cff41	-0.13769247
23	0x3ea7f861	0.32806686
24	0x3e6330df	0.22186612
25	0xbeb8832f	-0.36037585
26	0x3eed28f3	0.46320304
27	0x3eb547a9	0.35406235
28	0x3e8c6417	0.27420112
29	0xbe00793b	-0.12546246
30	0x3e74079e	0.2383103
31	0x3ed74a26	0.42048758
32	0x3e101584	0.14070708
33	0x3e0e4c26	0.13896236
34	0xbe4023d4	-0.18763667
35	0x3e9431ab	0.28944144
36	0x3e118e38	0.14214408
37	0x3de32f83	0.110930465
38	0x3e8e1055	0.27746835
39	0xbeccd75d	-0.4000806
40	0x3f1428dc	0.57874846
41	0x3f1787de	0.5919169
42	0xbe281f51	-0.16418196
43	0xbed3a99a	-0.41340333
44	0x3ec1d730	0.37859488
45	0xbe3f1002	-0.1865845
46	0x3d6f1250	0.058367074
47	0x3e42bfd8	0.19018495
48	0xbedef77c	-0.4354819
49	0xbc1c1bf2	-0.009528147
50	0x3ce1c3a1	0.027559103
51	0x3d444aa9	0.047922764
52	0x3e1a2337	0.15052496
53	0x3f08cb0e	0.53434837
54	0xbe7de7be	-0.24795434
55	0xbec750a8	-0.38928723
56	0xbe24ee0c	-0.16106433
57	0x3eb096ad	0.34489956
58	0x3ec0b389	0.37636974
59	0xbd9b8e2d	-0.07595477
60	0xbe410d35	-0.18852694
61	0xbd75c17e	-0.05999898
62	0xbb823328	-0.0039733835
63	0xbd8e5385	-0.06949524
64	0x3d5e43b9	0.054263804
65	0xbeb54204	-0.35401928
66	0x3eec094c	0.46100843
67	0xbe05d14d	-0.13068123
68	0xbdeeb9f9	-0.11656565
69	0x3e818009	0.25292996
70	0x3caedab3	0.021344518
71	0x3d851f84	0.06500152
72	0x3ead842a	0.33889896
73	0x3da201c8	0.07910496
74	0x3cb9573b	0.022624603
75	0xbee4f0b3	-0.4471489
76	0x3d7ec20f	0.062196787
77	0x3f066f36	0.52513444
78	0x3e386349	0.18006624
79	0x3ed628f2	0.41828114
80	0x3e4aaee8	0.19793284
81	0xbe9cc044	-0.30615437
82	0xbdb2a5d0	-0.087230325
83	0xbee76d94	-0.4520079
84	0xbc0b433d	-0.008499918
85	0x3df63c6a	0.12023242
86	0xbe0624a5	-0.13099916
87	0xbe287b5f	-0.16453312
88	0xbe631523	-0.22176032
89	0xbe98d54f	-0.29850242
90	0x3d0f0675	0.034918267
91	0xbe4d5327	-0.20051251
92	0x3e5045c7	0.20339118
93	0xbdb10a30	-0.08644521
94	0xbddd6edc	-0.108121604
95	0xbedc9ac4	-0.43086827
96	0x3e9bf3e9	0.30459526
97	0x3e246417	0.16053806
98	0x3d5cb0cc	0.053879544
99	0x3ea52b36	0.3225953

layers.hidden_5.bias f4 [10]
0	0x3ea8f8e6	0.33002394
1	0xbe153051	-0.14569212
2	0xbd307aba	-0.04308579
3	0xbe0fd703	-0.14046864
4	0x3d78f9e9	0.060785208
5	0x3e967022	0.29382426
6	0x3d447f90	0.047973216
7	0xbeb9bece	-0.36278385
8	0xbcec16e8	-0.028819516
9	0x3e40e477	0.18837152

layers.hidden_6.weight f4 [10, 10]
0	0xbed9ff1a	-0.4257744
1	0x3d531651	0.051534954
2	0xbeaed477	-0.34146473
3	0x3e388aac	0.18021649
4	0x3d1222e2	0.035677798
5	0xbe975241	-0.29554942
6	0xbd85564b	-0.065106
7	0xbc72744b	-0.014798234
8	0x3ece99b8	0.40351653
9	0xbe96ee89	-0.29478863
10	0xbe9bbec2	-0.30418974
11	0x3f04fb6e	0.5194615
12	0x3ebc5503	0.3678361
13	0xbda7ac35	-0.08187143
14	0x3dc1012d	0.094240524
15	0xbd72c84c	-0.05927305
16	0x3f3508be	0.70716465
17	0x3f1081e2	0.56448185
18	0xbed7ee58	-0.4217403
19	0x3d908096	0.07055776
20	0xbea5c548	-0.32377076
21	0x3e2d4530	0.16920924
22	0x3e375d7d	0.17906757
23	0x3e845059	0.2584255
24	0xbcbfa0fc	-0.023392193
25	0x3d85597e	0.0651121
26	0xbece3d15	-0.40280977
27	0x3c263508	0.01014448
28	0xbeb4b24f	-0.3529229
29	0x3e058727	0.13039838
30	0x3e3667ff	0.17813109
31	0xbd4d4769	-0.05011693
32	0x3e8ebe40	0.27879524
33	0x3edb2246	0.42799586
34	0xbe5255c9	-0.20540537
35	0x3ee88564	0.4541427
36	0xbc7f0078	-0.015564077
37	0xbd1a7bc8	-0.037715703
38	0xbea86a9f	-0.32893845
39	0x3de16132	0.11004867
40	0x3d7b1ac6	0.06130483
41	0x3e7b5dbe	0.24547479
42	0x3e8ded57	0.27720138
43	0xbe33431d	-0.1750607
44	0xbe5c925b	-0.21540205
45	0x3de8b24b	0.11362132
46	0xbdb28142	-0.0871606
47	0x3ef2303b	0.47302422
48	0xbea0e88c	-0.3142742
49	0xbda1208f	-0.07867538
50	0xbdbd43f1	-0.092414744
51	0x3e1dd929	0.15414871
52	0x3ecda1b4	0.40162432
53	0x3e1da955	0.15396626
54	0x3dc14fdc	0.0943906
55	0x3ebe8016	0.37207097
56	0x3da2a3b8	0.07941383
57	0x3e2a65aa	0.16640344
58	0xbe1ac747	-0.15115081
59	0xbc25b2d2	-0.010113435
60	0xbd2960d9	-0.041352127
61	0xbea9d476	-0.33169907
62	0xbeb0833d	-0.34475127
63	0xbda13026	-0.07870512
64	0xbd277c1a	-0.040889837
65	0xbeb70baa	-0.35751086
66	0x3e0c5703	0.13705067
67	0xbe283664	-0.16426998
68	0x3e2281f9	0.15869893
69	0x3d389d87	0.045072105
70	0x3e079f65	0.13244398
71	0x3d3daf5a	0.046309806
72	0x3e5f05f2	0.21779612
73	0xbe8627ea	-0.26202327
74	0xbecd24e5	-0.4006721
75	0x3e60d255	0.21955235
76	0x3eb879e3	0.36030492
77	0x3d93a54d	0.07209263
78	0xbe136f5e	-0.14397952
79	0x3eef73bb	0.46767983
80	0x3eecaff8	0.46228004
81	0x3e9b9566	0.3038742
82	0x3bffbeed	0.0078047425
83	0xbe8d506b	-0.27600417
84	0xbf09cb9c	-0.5382631
85	0x3eb19824	0.34686387
86	0x3e67ed7d	0.22649188
87	0xbe40bfcb	-0.18823163
88	0x3d2efff1	0.042724553
89	0x3f04eb7c	0.5192182
90	0xbe8ffb21	-0.28121284
91	0x3e3d447a	0.18483153
92	0xbdfee2df	-0.12445616
93	0x3ef1c753	0.47222385
94	0x3ed95408	0.42446923
95	0x3d220a84	0.03956081
96	0xbf0656ea	-0.5247637
97	0xbd698268	-0.05700913
98	0x3e9aa3d2	0.3020311
99	0xbd8eeb83	-0.06978514

layers.hidden_6.bias f4 [10]
0	0xbdddb926	-0.1082633
1	0xbe901fb9	-0.28149202
2	0x3d86b4f4	0.06577483
3	0x3dbf37c7	0.093368106
4	0xbe913f03	-0.28368387
5	0xbc96d6f5	-0.018413046
6	0xbd6c17a0	-0.057639718
7	0x3e8a7b93	0.27047405
8	0x3db1eeed	0.086881496
9	0xbda138e0	-0.07872176

layers.hidden_7.weight f4 [10, 10]
0	0xbe21bd92	-0.15794972
1	0x3da2732e	0.07932125
2	0xbd9c3db0	-0.076289535
3	0xbd9e5a77	-0.077320985
4	0x3ec1a2bc	0.3781947
5	0x3d14be65	0.036314387
6	0xbeb75240	-0.3580494
7	0x3e6dba86	0.23215684
8	0x3e1f612f	0.15564416
9	0xbe97ae42	-0.29625136
10	0x3e86bedf	0.26317498
11	0x3ea62a3d	0.324541
12	0x3ecac9cf	0.39607093
13	0xbea7fb04	-0.32808697
14	0x3d8af8fe	0.06785773
15	0x3c47439c	0.012162115
16	0x3e838c32	0.25692898
17	0xbe8427a7	-0.25811502
18	0xbe718c85	-0.2358876
19	0x3e7d65f0	0.24745917
20	0x3dc4726e	0.09592138
21	0x3e0868ed	0.13321276
22	0xbe993480	-0.29922867
23	0xbebe448b	-0.3716167
24	0x3d50ab8d	0.050944854
25	0xbec35b27	-0.3815548
26	0x3ec87bc9	0.3915694
27	0x3e15639b	0.14588778
28	0x3e1a12b6	0.150462
29	0xbd6c2898	-0.0576559
30	0x3daf6610	0.08564389
31	0xbeb14ff5	-0.34631315
32	0xbebb0fb8	-0.3653543
33	0xbc622f7a	-0.013805265
34	0xbdf7c892	-0.120988026
35	0x3d8a66a6	0.0675786
36	0xbe30027e	-0.1718845
37	0xbe914797	-0.2837493
38	0x3dbd5a81	0.09245778
39	0x3e88e531	0.2673736
40	0xbe24c36e	-0.16090176
41	0x3c5dca20	0.01353696
42	0x3e037949	0.12839235
43	0x3d6bdd49	0.05758408
44	0xbe9e6fac	-0.30944574
45	0xbe9addd6	-0.30247372
46	0x3d35f5ee	0.04442399
47	0x3e779724	0.2417875
48	0x3dfa10e1	0.12210251
49	0xbe383460	-0.1798873
50	0xbe4bc078	-0.1989764
51	0x3dcc9ab0	0.09990442
52	0x3e4a5d46	0.19762143
53	0x3d580c4a	0.052746095
54	0x3e9d960c	0.3077854
55	0xbd4a47f0	-0.04938501
56	0x3d243235	0.040086944
57	0x3e2d7ec8	0.16942894
58	0xbe8622ac	-0.26198328
59	0x3dab8f86	0.08376984
60	0xbe2bda52	-0.16782501
61	0xbe07004e	-0.1318371
62	0xbecfcab6	-0.40584344
63	0xbeaf0cd3	-0.34189472
64	0xbe31b0d3	-0.1735261
65	0x3d271c5b	0.040798526
66	0xbe14668a	-0.1449224
67	0xbe809253	-0.25111637
68	0xbe332e60	-0.1749816
69	0xbe7bc265	-0.24585874
70	0x3f09d741	0.53844076
71	0x3e7b1f57	0.24523674
72	0xbbbc1618	-0.0057399385
73	0xbf2e4b39	-0.6808353
74	0x3e1147b4	0.14187509
75	0xbec41536	-0.38297433
76	0x3d7fb93c	0.062432513
77	0xbee39b17	-0.44454262
78	0xbeb44e68	-0.3521607
79	0x3d8bccb8	0.068261564
80	0x3d4db112	0.050217696
81	0xbcb06c7b	-0.021536103
82	0x3e84eddb	0.2596272
83	0xbe45207d	-0.19250675
84	0x3e951b9e	0.29122633
85	0xbce875a9	-0.028376417
86	0xbe408b3d	-0.18803115
87	0x3e67ec84	0.22648817
88	0xbdf7c2fe	-0.12097739
89	0x3d81da8d	0.063405134
90	0xbe6e2414	-0.2325595
91	0xbee73ea3	-0.45164976
92	0xbe165311	-0.14680125
93	0xbe1ed685	-0.1551152
94	0xbe499ff7	-0.19689928
95	0xbea6a7c6	-0.32549876
96	0xbb529de0	-0.0032137558
97	0x3da05a94	0.078297764
98	0x3eb94e6f	0.36192653
99	0xbedcfd4c	-0.43162

layers.hidden_7.bias f4 [10]
0	0x3e568e22	0.20952657
1	0xbdcf7203	-0.10129168
2	0xbeb2b949	-0.34906986
3	0x3c52baeb	0.0128619475
4	0xbdc9c7d3	-0.098525666
5	0xbe850603	-0.2598115
6	0xbeaf3b1e	-0.3422479
7	0xbe55b897	-0.20871197
8	0x3e562425	0.20912226
9	0xbe1aac31	-0.15104748

layers.hidden_8.weight f4 [10, 10]
0	0x3dac42ea	0.084112
1	0x3eb49550	0.35270166
2	0xbd4c314f	-0.04985171
3	0xbe10ce6b	-0.14141242
4	0xbecf0e79	-0.4044073
5	0x3eaa6889	0.3328288
6	0xbe5da899	-0.21646346
7	0x3daee0af	0.08538949
8	0x3d8e1070	0.06936729
9	0xbf024753	-0.5089008
10	0x3e976239	0.29567125
11	0xbe255f3c	-0.1614961
12	0xbebd5a40	-0.36982918
13	0xbe6aa0e0	-0.22912931
14	0xbd11c832	-0.03559131
15	0xbdcf9d2a	-0.101373985
16	0xbe8d0446	-0.27542323
17	0xbe34308a	-0.17596641
18	0x3e566e65	0.2094055
19	0xbdad9cd1	-0.08477176
20	0x3eac3017	0.3363044
21	0xbe5c3633	-0.2150505
22	0xbecf2158	-0.40455127
23	0x3e2e655a	0.1703085
24	0x3ddfcac2	0.10927345
25	0x3e1eb689	0.15499319
26	0x3e05f344	0.1308108
27	0xbeb3d0b4	-0.35120165
28	0x3c174e5b	0.00923499
29	0xbe98fdfb	-0.29881272
30	0x3e94951b	0.29020008
31	0x3e65f087	0.22455035
32	0xbeaf0659	-0.3418453
33	0xbe70af95	-0.23504479
34	0x3e3cdaea	0.18442884
35	0x3e887a04	0.2665559
36	0x3c94324b	0.018090388
37	0x3df8b959	0.12144727
38	0xbdfa2e24	-0.12215832
39	0xbdf0e46e	-0.117623195
40	0xbcc3d8be	-0.023907062
41	0xbd03602c	-0.03207414
42	0xbdc07175	-0.0939664
43	0xbe6bda5d	-0.23032518
44	0x3e927793	0.28606853
45	0xbdf9ef31	-0.12203825
46	0x3e27422a	0.16333833
47	0x3e936979	0.28791407
48	0xbea8dc98	-0.329808
49	0x3e444ea8	0.1917063
50	0xbe413e9d	-0.18871541
51	0x3e91120f	0.2833409
52	0x3ee863a9	0.45388535
53	0x3e8d6886	0.27618808
54	0x3db87531	0.090067275
55	0x3e1aa767	0.15102921
56	0x3eccddf8	0.400131
57	0x3ebf3e3b	0.37352166
58	0xbdf7bdfa	-0.12096782
59	0xbc3672f4	-0.011135805
60	0x3e79cfb7	0.24395643
61	0xbe8fd702	-0.28093725
62	0x3e510b21	0.20414402
63	0x3e4bf3b1	0.1991718
64	0xbdb994a1	-0.09061552
65	0x3e5d7652	0.21627167
66	0x3db76597	0.089549236
67	0x3e8daefd	0.27672568
68	0xbebd0245	-0.36915794
69	0x3ee8b81e	0.4545297
70	0x3e4eeadb	0.20206778
71	0x3eb18da2	0.3467837
72	0xbdeef5ea	-0.11667998
73	0xbe80a1a4	-0.25123322
74	0xbe19b3be	-0.15009972
75	0x3e904aa9	0.2818196
76	0x3d7f4b3a	0.0623276
77	0x3dfb7b15	0.122793354
78	0x3abc66a7	0.0014373855
79	0xbee6ab9c	-0.45052803
80	0xbdf01180	-0.11722088
81	0xbe43fa33	-0.19138412
82	0xbe0d9720	-0.13827181
83	0xbcf7c218	-0.030243918
84	0xbe1e1f87	-0.15441714
85	0xbd288fe5	-0.041152854
86	0xbe10517e	-0.14093587
87	0x3d98911b	0.07449552
88	0xbe8fb6e2	-0.28069216
89	0xbd286682	-0.041113384
90	0xbe423422	-0.189652
91	0xbd0c9a89	-0.034327064
92	0x3e32348e	0.1740286
93	0xbe45696f	-0.19278501
94	0x3dc08f42	0.09402324
95	0xbc9c1741	-0.019054057
96	0x3e0d7739	0.13815011
97	0x3e940ae7	0.28914568
98	0xbe864c45	-0.26230064
99	0x3ddeee99	0.10885353

layers.hidden_8.bias f4 [10]
0	0x3e0f59a9	0.13999046
1	0xbe81519d	-0.25257578
2	0x3e329242	0.17438605
3	0x3eb2bcdc	0.34909713
4	0xbd896d76	-0.06710331
5	0x3ce28f7b	0.027656307
6	0x3d57caa3	0.052683484
7	0x3e98613b	0.2976168
8	0xbdc14263	-0.094364904
9	0x3deb4bad	0.114890434

layers.hidden_9.weight f4 [10, 10]
0	0x3e560e2e	0.20903847
1	0xbe4eb33e	-0.20185563
2	0x3e6fb08e	0.23407194
3	0x3e03c934	0.12869722
4	0xbea122b6	-0.31471795
5	0x3d92198b	0.07133778
6	0xbe671ff1	-0.22570778
7	0x3e9204d0	0.28519297
8	0xbe8ee781	-0.27910998
9	0xbeabeba2	-0.3357821
10	0x3d8d9bdc	0.069144934
11	0xbeff2835	-0.49835363
12	0x3e35afec	0.1774289
13	0x3cd3663b	0.025805583
14	0xbe1476d3	-0.14498453
15	0x3c7c783e	0.015409527
16	0x3e74381a	0.23849526
17	0xbec67d24	-0.3876735
18	0x3decb067	0.115570836
19	0xbd754477	-0.059879746
20	0xbde6539f	-0.11246418
21	0x3dd7c65b	0.1053588
22	0xbe1ace35	-0.15117724
23	0x3ee560de	0.44800466
24	0xbe4d65a7	-0.20058309
25	0xbe540ee4	-0.20708805
26	0x3d0c8c69	0.034313593
27	0x3cdcc048	0.026947156
28	0xbd88343e	-0.066505894
29	0xbed7a985	-0.4212152
30	0xbd72d61a	-0.059286214
31	0xbe7e24fc	-0.24818796
32	0xbe780ce2	-0.24223664
33	0xbeeed2ab	-0.46645102
34	0x3de86ad6	0.11348502
35	0x3e67f0c4	0.22650439
36	0xbdb9a0d6	-0.0906388
37	0xbe52b2b8	-0.20575988
38	0xbe0c3a76	-0.13694176
39	0xbe348da3	-0.17632155
40	0xbddfd62c	-0.10929522
41	0xbd5a7ff9	-0.0533447
42	0xbde45109	-0.11148269
43	0xbead085e	-0.33795446
44	0x3e6c5098	0.23077619
45	0xbd9c9160	-0.076449156
46	0x3ede0cd9	0.43369177
47	0x3dc450e0	0.09585738
48	0x3d751562	0.059834845
49	0x3e11fad8	0.14255846
50	0xbe1cc6c4	-0.15310198
51	0xbe89c176	-0.2690541
52	0xbe9c4702	-0.30522925
53	0xbeb79f67	-0.35863802
54	0xbda04834	-0.07826272
55	0xbdd6c086	-0.1048594
56	0x3e7635d4	0.24043971
57	0x3d8ea65e	0.06965326
58	0xbddceb27	-0.10787039
59	0xbe58afd4	-0.21160823
60	0x3edca0ef	0.43091533
61	0x3c7a463e	0.015275536
62	0x3ea61887	0.32440588
63	0x3d7e909d	0.062149633
64	0x3d2dff07	0.04247954
65	0xbe48450f	-0.19557594
66	0xbe632c49	-0.22184862
67	0xbc75a59b	-0.014993097
68	0x3e637120	0.22211123
69	0xbe5d6516	-0.21620592
70	0x3e979d1d	0.29612055
71	0x3aac391d	0.001313958
72	0x3ddad00d	0.10684214
73	0x3ec2e27f	0.38063428
74	0xbe4d5c3a	-0.20054713
75	0xbe2cc68c	-0.16872615
76	0xbe6e7c61	-0.23289634
77	0x3d8a92b9	0.067662664
78	0xbb1d9984	-0.0024047801
79	0x3d912f45	0.07089094
80	0xbdb42080	-0.087952614
81	0xbe361e21	-0.17784931
82	0xbd7627f9	-0.060096715
83	0xbe21098d	-0.157263
84	0x3b2ded0e	0.0026539
85	0x3ed7dbe2	0.42159945
86	0x3e00da14	0.1258319
87	0xbe076c00	-0.13224792
88	0x3ea591c9	0.32337788
89	0x3d385e01	0.045011524
90	0x3edf0377	0.4355733
91	0x3e33096b	0.17484061
92	0x3d5b19d4	0.05349143
93	0xbce27ac0	-0.027646422
94	0xbe8233a4	-0.25430024
95	0x3d99471d	0.07484267
96	0xbe4bfff2	-0.19921854
97	0x3e89c3dd	0.26907244
98	0x3ea7b73f	0.32756993
99	0x3e20895f	0.15677403

layers.hidden_9.bias f4 [10]
0	0x3eb6838e	0.35647243
1	0xbebf9b03	-0.37422952
2	0xbdd102a6	-0.10205583
3	0x3c10bdd9	0.008834326
4	0xbe636017	-0.22204624
5	0xbd4d8adb	-0.05018125
6	0x3d51036b	0.05102865
7	0x3ea00fe5	0.31262127
8	0xbe800c3e	-0.2500934
9	0x3eb62bb1	0.3558021

layers.output.weight f4 [1, 10]
0	0x3eda3882	0.42621237
1	0xbe697bd1	-0.22801138
2	0x3dfcbbf4	0.12340537
3	0xbe9296ff	-0.28630826
4	0xbdb31bc3	-0.087455295
5	0xbe214016	-0.15747103
6	0x3f0f906a	0.56079733
7	0x3ec134a0	0.37735462
8	0xbe8b3d04	-0.2719499
9	0x3e8337db	0.25628552
