PINNS/HeatEq/models/checkpoints_Adam/_Archieve/best_dict_0.0004555733.pt (torch, 43037 bytes, 23 tensors)

layers.input.weight f4 [10, 2]
0.79289967 0.1407211 0.35424557 0.2541442 0.18726014 0.1083418 0.24787 0.62681985
-0.6957361 0.8684706 0.24473716 -0.30519882 -0.5350704 0.54178804 0.121603586 0.29821774
-0.7237418 0.65591264 0.30902976 -0.2072927
00000000: 79fb 4a3f 3119 103e ad5f b53e 301f 823e
00000010: 1fc1 3f3e 4ee2 dd3d a2d1 7d3e 4477 203f
00000020: c31b 32bf 1754 5e3f 619c 7a3e 0543 9cbe
00000030: 60fa 08bf 9fb2 0a3f 4d0b f93d ffaf 983e
00000040: 2547 39bf e4e9 273f 2639 9e3e 8a44 54be

layers.input.bias f4 [10]
-0.2600952 -0.24838533 0.9676196 -0.9721837 0.3078087 0.1253781 -0.32975703 -0.07375399
0.028074728 0.32488868
00000000: 332b 85be b958 7ebe ebb5 773f 08e1 78bf
00000010: 1a99 9d3e 1e63 003e ead5 a8be 550c 97bd
00000020: f9fc e53c cf57 a63e

layers.hidden_0.weight f4 [10, 10]
0.95473725 -0.26894218 0.07556147 0.03612915 -0.3558058 0.36609024 -0.08401455 -0.4281592
-0.043838073 0.1409433 0.12060239 0.09900077 0.21808912 0.5253301 -0.11037275 -0.016563715
-0.3527339 0.018745799 -0.3515485 0.2823725 0.099738166 -0.07195157 -0.08187157 -0.24526162
-0.19803119 0.40717676 -0.7386969 0.046849553 -0.54133505 0.05109742 0.45361036 0.13747881
0.33026087 0.12680146 -0.17080557 0.26679355 -0.20997132 -0.0016305245 -0.24342503 0.12773299
0.28136346 0.24761444 0.12361035 0.055287197 -0.022276234 -0.15831943 0.04359017 0.26129085
-0.5332278 0.20588711 0.39625835 -0.13010211 -0.28445536 0.86177564 -0.047385212 -0.70768243
0.7031676 0.022430997 0.20694733 -0.40395266 0.293644 -0.09507644 0.29993507 -0.14754213
-0.030998243 0.11597498 -0.63271075 0.24647924 -0.16133568 0.10660079 -0.26775622 -0.060805704
-0.11736797 -0.50714844 -0.071090505 0.22856282 -0.5843953 0.11870884 -0.12402095 0.48445386
-0.011838271 -0.112478614 0.022411384 0.2989552 -0.6263207 0.73719054 -0.33741423 -0.28446272
-0.9454832 0.23789485 0.19026878 0.09645844 0.1329327 0.4858611 -0.109987855 -0.1856134
-0.2387669 0.34939736 -0.039323743 0.18616746
00000000: a969 743f cab2 89be f9bf 9a3d 29fc 133d
00000010: 2e2c b6be 2e70 bb3e d20f acbd af37 dbbe
00000020: 8d8f 33bd 7153 103e 63fe f63d eac0 ca3d
00000030: c152 5f3e 097c 063f 1c0b e2bd a1b0 87bc
00000040: 8a99 b4be ca90 993c 2afe b3be 2193 903e
00000050: 8643 cc3d 585b 93bd 48ac a7bd dd25 7bbe
00000060: b0c8 4abe 7979 d03e 3d1b 3dbf 51e5 3f3d
00000070: ef94 0abf 874b 513d 9e3f e83e 3fc7 0c3e
00000080: f417 a93e 3ed8 013e a8e7 2ebe 2a99 883e
00000090: b902 57be 53b7 d5ba 6944 79be 70cc 023e
000000a0: df0e 903e a48e 7d3e 6c27 fd3d d474 623d
000000b0: a67c b6bc 7d1e 22be 9b8b 323d eac7 853e
000000c0: 9e81 08bf 12d4 523e 60e2 ca3e 7d39 05be
000000d0: 22a4 91be 549d 5c3f ff16 42bd ad2a 35bf
000000e0: cb02 343f 36c1 b73c 00ea 533e e2d2 cebe
000000f0: 8258 963e 70b7 c2bd 1791 993e 4915 17be
00000100: 07f0 fdbc 4a84 ed3d 55f9 21bf 0e65 7c3e
00000110: 2e35 25be 8451 da3d 5817 89be 670f 79bd
00000120: 9e5e f0bd 7bd4 01bf e697 91bd 5f0c 6a3e
00000130: ee9a 15bf 9f1d f33d b2fe fdbd 560a f83e
00000140: 4ff5 41bc 305b e6bd 1498 b73c a810 993e
00000150: 8e56 20bf 85b8 3c3f 8fc1 acbe 19a5 91be
00000160: 300b 72bf b59a 733e d2d5 423e 018c c53d
00000170: 821f 083e c9c2 f83e 5041 e1bd 7011 3ebe
00000180: 4f7f 74be 36e4 b23e ef11 21bd afa2 3e3e

layers.hidden_0.bias f4 [10]
0.11485578 0.15319341 -0.11270113 0.005685782 0.23695895 -0.2232778 0.3493515 0.14909486
0.24739377 0.085196406
00000000: 8239 eb3d bcde 1c3e dacf e6bd cc4f ba3b
00000010: 5ea5 723e f0a2 64be 33de b23e 53ac 183e
00000020: cb54 7d3e 747b ae3d

layers.hidden_1.weight f4 [10, 10]
-0.056307893 -0.34324986 -0.3330166 -0.58934176 -0.60060006 0.47794363 -0.6623021 -0.5314243
-0.5070398 -0.060790535 0.11218112 -0.5077807 -0.11947134 -0.47535908 -0.41294324 0.13855125
-0.14804411 0.09819963 -0.35852087 -0.20308419 -0.39940786 -0.08867329 -0.06908249 -0.37264603
-0.07420345 0.17403387 -0.12733765 -0.09209341 -0.6780116 -0.0783497 -0.14730994 -0.06665737
0.11887179 -0.13118319 0.1021584 0.048182998 -0.22984797 0.18231599 0.712894 0.15869795
-0.42916578 0.29346526 -0.29181904 0.1386192 -0.16243753 0.21743284 -0.27426603 -0.15687105
0.53979534 0.4573739 0.4207115 -0.22954519 0.097338125 0.18428032 -0.22975214 -0.44093448
-0.06677797 0.011257349 -0.8436552 -0.4734752 -0.22440772 -0.54882586 0.05283401 -0.3207249
-0.61045766 -0.3414745 -0.24769646 0.16879274 -0.04937117 -0.45794165 0.30402124 -0.2549044
0.07107433 -0.1600925 -0.38458496 -0.34354275 -0.09543375 -0.13806635 -0.13819136 0.11566966
0.007076616 -0.3569953 0.17469127 0.11730219 -0.057205528 -0.03803408 -0.14400713 0.14169529
-0.33369955 -0.20096155 -0.5673303 0.19832627 0.75710624 0.34679884 0.014443557 -0.04348912
-0.14327747 0.2602692 1.7797877 0.056138776
00000000: 1ba3 66bd 72be afbe 2781 aabe 1adf 16bf
00000010: edc0 19bf 07b5 f43e a18c 29bf 6c0b 08bf
00000020: 5ccd 01bf 7fff 78bd 37bf e53d eafd 01bf
00000030: 64ad f4bd 4462 f3be 4c6d d3be 61e0 0d3e
00000040: e098 17be e31c c93d 0c90 b7be 4df5 4fbe
00000050: 307f ccbe 589a b5bd 1f7b 8dbd 76cb bebe
00000060: faf7 97bd ef35 323e cd64 02be 789b bcbd
00000070: 2b92 2dbf cf75 a0bd 6bd8 16be a983 88bd
00000080: 0e73 f33d e354 06be 6c38 d13d 895b 453d
00000090: 445d 6bbe 0bb1 3a3e 3980 363f b781 223e
000000a0: 9ebb dbbe 1441 963e 4e69 95be 31f2 0d3e
000000b0: 0656 26be b7a6 5e3e 996c 8cbe cea2 20be
000000c0: 0730 0a3f e92c ea3e 7f67 d73e e50d 6bbe
000000d0: 3659 c73d fbb3 3c3e 2544 6bbe 2ac2 e1be
000000e0: e3c2 88bd be70 383c caf9 57bf 576b f2be
000000f0: 23cb 65be da7f 0cbf 7a68 583d 0e36 a4be
00000100: f446 1cbf bfd5 aebe 24a4 7dbe 01d8 2c3e
00000110: 6d39 4abd 5477 eabe aca8 9b3e d482 82be
00000120: 6b8f 913d 4aef 23be 52e8 c4be d6e4 afbe
00000130: c572 c3bd 4461 0dbe 0982 0dbe 37e4 ec3d
00000140: f5e2 e73b 17c8 b6be 45e2 323e 213c f03d
00000150: 5850 6abd a0c9 1bbd 9b76 13be 9218 113e
00000160: abda aabe ddc8 4dbe 8f3c 11bf 0b16 4b3e
00000170: b7d1 413f 9e8f b13e aba4 6c3c a621 32bd
00000180: 54b7 12be 0142 853e 15d0 e33f c6f1 653d

layers.hidden_1.bias f4 [10]
0.07058183 -0.3277714 -0.1407365 0.30011347 0.26568753 0.10865533 -0.076680556 -0.37838858
-0.05455752 -0.29917583
00000000: 358d 903d a7d1 a7be 3b1d 10be 79a8 993e
00000010: 3208 883e b086 de3d b20a 9dbd 26bc c1be
00000020: b577 5fbd 932d 99be

layers.hidden_2.weight f4 [10, 10]
-0.1088533 -0.11654662 0.12018249 0.38633296 0.6506695 -0.67007333 -0.22894756 -0.42241174
-0.30554366 0.21772586 0.028103763 -0.27489215 -0.06970797 0.654856 0.32051203 -0.32220325
-0.2180417 -0.042591386 0.20719746 0.901975 -0.5738439 -0.13303208 0.35530108 0.17530987
0.17507435 -0.083692305 0.43398938 0.10580948 0.15352738 -0.0012054532 -0.5848333 -0.14472952
-0.08072647 0.12150972 0.009391435 -0.047351595 0.079766735 -0.20523843 -0.3046484 -0.24215461
-0.17271844 -0.12860566 0.22684614 -0.18200274 0.38782075 -0.4886557 0.073553205 -0.32226637
-0.22082616 0.09792543 0.04080871 -0.14844365 -0.45112643 -0.060621377 0.3916592 0.022615595
-0.33251673 -0.40537524 0.19990017 0.044667225 0.56032175 -0.08009786 0.1325927 0.2770366
-0.22148298 0.31605297 -0.4757963 0.10790145 0.23507924 0.12461994 0.13593827 0.47778833
0.41112193 -0.38385302 -0.5062274 0.17919944 0.47234532 0.37948042 0.5105509 -0.26723823
-0.051972136 -0.054314233 0.16139904 0.23121461 -0.4369116 0.15986025 -0.5260279 0.12945467
-0.015418258 -0.26779065 -0.082052186 -0.6207661 -0.3930802 0.37710914 -0.14684333 0.08641705
-0.44526288 -0.5867646 -0.33260596 0.009080206
00000000: 7bee debd ffaf eebd 3d22 f63d 6fcd c53e
00000010: 4792 263f ed89 2bbf 3b71 6abe 5a46 d8be
00000020: 3870 9cbe 87f3 5e3e dd39 e63c aabe 8cbe
00000030: 0dc3 8ebd a5a4 273f 271a a43e d3f7 a4be
00000040: 5346 5fbe 4e74 2ebd 922b 543e d5e7 663f
00000050: 6fe7 12bf 9039 08be 06ea b53e 6e84 333e
00000060: b146 333e df66 abbd db33 de3e a4b2 d83d
00000070: 4836 1d3e 4c00 9eba a3b7 15bf fa33 14be
00000080: eb53 a5bd 17da f83d 89de 193c bff3 41bd
00000090: be5c a33d 062a 52be e0fa 9bbe 61f7 77be
000000a0: 1add 30be 34b1 03be 5b4a 683e ed5e 3abe
000000b0: 7190 c63e 1431 fabe 10a3 963d 1900 a5be
000000c0: 4120 62be 218d c83d 0927 273d 9d01 18be
000000d0: 0bfa e6be 1f4e 78bd 8e87 c83e 5744 b93c
000000e0: a23f aabe 588d cfbe a1b2 4c3e fbf4 363d
000000f0: 3f71 0f3f 590a a4bd 61c6 073e bed7 8d3e
00000100: 6fcc 62be b2d1 a13e 939b f3be 6ffb dc3d
00000110: 9db8 703e bd38 ff3d 6733 0b3e aca0 f43e
00000120: 937e d23e 6288 c4be 1e98 01bf 0f80 373e
00000130: 3fd7 f13e 424b c23e 77b3 023f 73d3 88be
00000140: bce0 54bd 9a78 5ebd ca45 253e 86c3 6c3e
00000150: e1b2 dfbe 68b2 233e c4a9 06bf c48f 043e
00000160: dc9c 7cbc db1b 89be fa0a a8bd 87ea 1ebf
00000170: cf41 c9be 7314 c13e 195e 16be 6cfb b03d
00000180: 7ff9 e3be 3436 16bf 544b aabe 25c5 143c

layers.hidden_2.bias f4 [10]
-0.19847953 -0.039153837 -0.11327703 0.13157019 0.3644306 0.3861436 -0.20371535 0.07994152
-0.3328131 0.4850325
00000000: 383e 4bbe c65f 20bd cafd e7bd 56ba 063e
00000010: a696 ba3e 9db4 c53e c29a 50be 61b8 a33d
00000020: 7b66 aabe 2e56 f83e

layers.hidden_3.weight f4 [10, 10]
-0.0019234477 0.20927554 -0.25146878 0.037462197 0.19176665 -0.19074608 0.10581588 0.1845436
0.002274593 0.2971047 -0.26080948 0.27619874 -0.17151818 -0.62132895 0.086286075 -0.37502593
0.49166587 -0.22597894 0.1644702 -0.101789385 -0.45912647 -0.109957956 0.29239506 0.1030759
-0.38298333 -0.2751451 -0.11030514 0.47328135 0.26289967 0.15543841 -0.46119407 0.14382361
-0.48362178 -0.0840083 -0.17331256 -0.17313169 0.32355115 0.14816082 0.19741182 0.065986834
-0.022253614 0.21074457 -0.49922442 0.07747356 0.19992812 0.45722684 -0.06144509 -0.015609676
-0.2985234 0.5269984 0.13088991 0.15886874 -0.13069811 0.06583589 0.2990697 0.4265774
0.19194913 -0.28921413 -0.14129357 0.46946663 -0.03600894 -0.44169143 0.15554672 -0.011913812
0.2564576 -0.20159842 -0.4577847 0.29172233 0.10206755 -0.048525352 -0.24808487 0.20417945
0.5857929 -0.004405088 0.2111954 -0.2549929 -0.16210012 -0.29177937 -0.4882613 -0.33273816
-0.2627946 -0.121686 -0.075078145 0.35399806 -0.08027358 -0.09376344 0.105540775 0.20249328
0.5858314 0.13998638 0.55716944 -0.22268555 -0.32085487 -0.5087137 0.09521345 -0.14822586
0.37688693 0.02499689 0.28349772 -0.6239401
00000000: 321c fcba 544c 563e 84c0 80be f671 193d
00000010: 7a5e 443e f152 43be ffb5 d83d fff8 3c3e
00000020: 5711 153b 1b1e 983e d288 85be ec69 8d3e
00000030: 76a2 2fbe 6a0f 1fbf c1b6 b03d 6603 c0be
00000040: a1bb fb3e 0667 67be e06a 283e f476 d0bd
00000050: a012 ebbe a331 e1bd ceb4 953e 7519 d33d
00000060: 6416 c4be d2df 8cbe a9e7 e1bd ef51 f23e
00000070: c99a 863e 3f2b 1f3e a121 ecbe 7f46 133e
00000080: 469d f7be 8b0c acbd d978 31be 6f49 31be
00000090: 7fa8 a53e 78b7 173e 5326 4a3e 1b24 873d
000000a0: 364d b6bc 6dcd 573e 589a ffbe 75aa 9e3d
000000b0: f5b9 4c3e a319 ea3e d9ad 7bbd babf 7fbc
000000c0: 0fd8 98be 5ee9 063f 0108 063e 7dae 223e
000000d0: bad5 05be f8d4 863d aa1f 993e 5a68 da3e
000000e0: 508e 443e e013 94be 43af 10be ee5d f03e
000000f0: 1c7e 13bd 6125 e2be a447 1f3e 2632 43bc
00000100: 694e 833e d16f 4ebe c262 eabe a15c 953e
00000110: cb08 d13d 85c2 46bd f609 7ebe 6b14 513e
00000120: 86f6 153f 8e58 90bb 9b43 583e 6e8e 82be
00000130: 93fd 25be 1b64 95be 63fd f9be a85c aabe
00000140: 048d 86be 8236 f9bd 92c2 99bd 3c3f b53e
00000150: 7a66 a4bd 0c07 c0bd c325 d83d 665a 4f3e
00000160: 0cf9 153f 9758 0f3e a8a2 0e3f ae07 64be
00000170: 1747 a4be 103b 02bf 45ff c23d 85c8 17be
00000180: 53f7 c03e 47c6 cc3c 9d26 913e 8aba 1fbf

layers.hidden_3.bias f4 [10]
0.044449568 0.08756687 0.083235554 0.28401753 -0.04986735 0.07623993 -0.12502314 -0.20500599
-0.13311295 -0.016020486
00000000: c010 363d 4256 b33d 6777 aa3d bf6a 913e
00000010: b541 4cbd ae23 9c3d 1106 00be 17ed 51be
00000020: c34e 08be 653d 83bc

layers.hidden_4.weight f4 [10, 10]
-0.27663016 0.063958764 0.062419742 -0.5600771 -0.41043565 -0.4143224 0.0060609654 0.042763565
-0.014285437 0.31803983 -0.053442944 0.11142828 -0.08590337 0.052839793 0.38850042 0.46069765
-0.25973022 -0.12407053 -0.22934134 0.004722698 0.22332579 -0.52128494 -0.016738866 -0.30889562
0.01536279 -0.08665014 0.32780564 0.19939725 0.09149908 -0.4776711 -0.040664766 0.19250949
0.3825538 0.6209183 0.32345137 0.111237474 0.10825928 -0.1653547 0.17972447 -0.103645824
-0.008393392 -0.5230177 0.053938087 -0.25315386 0.24083066 0.07867843 0.33256784 -0.17392638
-0.31833246 -0.05814496 0.09607539 -0.072731465 -0.28251806 -0.32748315 -0.26240414 -0.1417742
0.16542915 0.22735831 0.083504945 -0.100226216 -0.2560681 0.046595935 -0.26950255 -0.46903187
-0.42067382 -0.15408371 0.06417247 -0.034658715 -0.39399976 -0.2725478 0.34425172 0.42677453
-0.4343937 0.18558761 -0.13924426 -0.24903665 -0.13236207 0.029860333 -0.16654852 -0.03247749
-0.30936742 -0.23785049 0.19803214 -0.07899811 -0.094729766 -0.31746584 0.23332366 -0.15647805
0.1586518 -0.04173658 0.10083811 0.42532247 -0.13221301 0.21439248 0.16425087 0.29013562
-0.17662778 -0.087385714 0.21185088 0.14428414
00000000: 78a2 8dbe d0fc 823d d8ab 7f3d 3661 0fbf
00000010: 9f24 d2be 1122 d4be 109b c63b d928 2f3d
00000020: 770d 6abc 1ed6 a23e fde6 5abd 8334 e43d
00000030: 1bee afbd 8a6e 583d 87e9 c63e 90e0 eb3e
00000040: 5cfb 84be b118 febd 75d8 6abe ddc0 9a3b
00000050: 84af 643e ee72 05bf f21f 89bc 9127 9ebe
00000060: 36b4 7b3c a175 b1bd 24d6 a73e cb2e 4c3e
00000070: df63 bb3d 4e91 f4be 1990 26bd 3521 453e
00000080: 17de c33e 80f4 1e3f 6b9b a53e 79d0 e33d
00000090: 0bb7 dd3d be52 29be b109 383e 4344 d4bd
000000a0: 7084 09bc 7de4 05bf 2fee 5c3d 629d 81be
000000b0: 509c 763e 2822 a13d 5546 aa3e c219 32be
000000c0: 79fc a2be 6929 6ebd 2dc3 c43d 3cf4 94bd
000000d0: 35a6 90be dfab a7be d659 86be 422d 11be
000000e0: 4266 293e 9ed0 683e a404 ab3d 6743 cdbd
000000f0: 5c1b 83be 61db 3e3d 3dfc 89be f224 f0be
00000100: 8f62 d7be 1fc8 1dbe db6c 833d 4cf6 0dbd
00000110: 56ba c9be 638b 8bbe c341 b03e 3182 da3e
00000120: da68 debe ae0a 3e3e 0c96 0ebe 7703 7fbe
00000130: ec89 07be a89d f43c b28b 2abe 1e07 05bd
00000140: 6865 9ebe 148f 73be f0c8 4a3e c3c9 a1bd
00000150: ae01 c2bd e28a a2be 66ec 6e3e c83b 20be
00000160: 9e75 223e faf3 2abd 3684 ce3d dec3 d93e
00000170: d962 07be b489 5b3e 6131 283e a88c 943e
00000180: eadd 34be 48f7 b2bd 70ef 583e 39bf 133e

layers.hidden_4.bias f4 [10]
0.16977634 0.15198612 -0.010117924 -0.10379667 -0.2430889 0.23602054 -0.19035113 0.03456457
0.16818704 -0.0033041514
00000000: d9d9 2d3e 40a2 1b3e a6c5 25bc 5993 d4bd
00000010: 4cec 78be 5eaf 713e 68eb 42be 9493 0d3d
00000020: 3939 2c3e 768a 58bb

layers.hidden_5.weight f4 [10, 10]
0.10803741 0.0063274335 -0.45866996 0.05923765 -0.17747314 -0.059560157 -0.18062547 -0.15042573
0.13688616 0.23961993 0.12671314 -0.30605513 0.16886547 0.016757427 0.010544872 -0.10870884
-0.25712147 -0.28618404 0.21429428 -0.23151219 -0.61269444 0.59614646 -0.05815076 0.6614386
-0.02227494 -0.4977976 -0.49687463 -0.5056345 0.042489503 0.110713825 -0.04768424 -0.15181895
0.06352981 -0.0065631727 -0.2048547 -0.06000097 0.02849755 -0.11729328 0.030841904 -0.5040145
0.24084274 0.105250075 0.049249627 -0.20137557 -0.316632 -0.12705837 -0.0779943 -0.27174482
0.0037936661 0.136416 0.17708682 0.03717708 0.2678212 -0.25434566 0.15672481 0.32004732
0.03885873 0.062066384 0.31164044 -0.2222089 0.19358541 -0.2531646 0.15040007 -0.08350411
0.31332952 0.20316757 0.15874279 -0.17168072 -0.16996266 0.113996044 -0.042829018 0.38122934
-0.14228933 0.19796275 -0.008758308 -0.15268175 -0.20675252 0.29825744 -0.15550996 -0.087353624
0.29805094 -0.107245386 0.03430221 -0.18422307 -0.07309366 0.11367411 -0.2981629 -0.25188082
0.07832858 0.07100527 0.08468586 -0.03815246 0.30003682 0.09940222 0.22861707 0.15665878
0.029903106 0.047845844 0.15823951 -0.19458173
00000000: b842 dd3d 5c56 cf3b cad6 eabe 2ea3 723d
00000010: 85bb 35be 5af5 73bd e2f5 38be 3409 1abe
00000020: e32b 0c3e ed5e 753e 17c1 013e 42b3 9cbe
00000030: 12eb 2c3e df46 893c 66c4 2c3c bea2 debd
00000040: 6da5 83be b786 92be f66f 5b3e 8811 6dbe
00000050: 8bd9 1cbf 0e9d 183f 7e2f 6ebd 0a54 293f
00000060: ef79 b6bc 54df febe 5a66 febe 4371 01bf
00000070: 7909 2e3d eebd e23d 8d50 43bd 6d76 1bbe
00000080: eb1b 823d e20f d7bb 6ec5 51be 94c3 75bd
00000090: b273 e93c 7637 f0bd 29a8 fc3c 1807 01bf
000000a0: 7b9f 763e 5a8d d73d fab9 493d 6635 4ebe
000000b0: 971d a2be 971b 02be 7abb 9fbd 2322 8bbe
000000c0: 289f 783b a3b0 0b3e 3f56 353e fe46 183d
000000d0: dc1f 893e 9839 82be 787c 203e 3edd a33e
000000e0: 552a 1f3d 5239 7e3d 568f 9f3e bb8a 63be
000000f0: 413b 463e ca9e 81be 7a02 1a3e 3404 abbd
00000100: ba6c a03e 290b 503e 788d 223e 12cd 2fbe
00000110: b10a 2ebe c276 e93d 7b6d 2fbd 7e30 c33e
00000120: 4bb4 11be bfb6 4a3e 027f 0fbc 9b58 1cbe
00000130: efb6 53be 33b5 983e 013e 1fbe 75e6 b2bd
00000140: 229a 983e 78a3 dbbd 7980 0c3d f9a4 3cbe
00000150: 21b2 95bd f9cd e83d cfa8 98be 86f6 80be
00000160: bc6a a03d 366b 913d c86f ad3d c145 1cbd
00000170: 6d9e 993e 6493 cb3d 981a 6a3e 296b 203e
00000180: 5cf7 f43c 01fa 433d 8a09 223e 6f40 47be

layers.hidden_5.bias f4 [10]
0.027189016 -0.23411001 0.16662009 -0.28113556 0.02089816 0.3810207 -0.054772433 0.04168512
-0.07910115 -0.1324166
00000000: 80bb de3c 89ba 6fbe 759e 2a3e 00f1 8fbe
00000010: 9e32 ab3c 2515 c33e 0f59 60bd 04be 2a3d
00000020: c9ff a1bd 3898 07be

layers.hidden_6.weight f4 [10, 10]
-0.23396938 -0.07898064 -0.42486507 0.026339961 -0.08269023 0.18618643 0.27117383 0.017905723
-0.046181854 -0.121788464 0.14123192 -0.13629591 0.41576275 -0.35060397 0.08958567 -0.23630661
0.042478964 -0.033355054 0.17799163 -0.10888557 0.18447442 -0.20298637 0.16101715 -0.27267978
-0.056503236 0.1117496 -0.15263525 0.09665623 0.014716074 0.023442317 -0.2103018 0.31797174
0.14391968 -0.34736317 0.083792366 0.4229642 0.31223267 -0.2972996 0.06421066 0.36826092
-0.054445148 0.29277813 -0.112974145 0.11695929 0.01761268 -0.16642408 -0.22348443 -0.242951
-0.06282803 -0.063559204 0.26947936 -0.15830357 0.056848306 0.38918874 -0.19995059 0.22527117
-0.010361678 0.107172616 -0.2663079 -0.058660764 -0.22426333 0.0033955232 0.26152274 -0.1575431
-0.25973886 -0.3075029 0.05433763 0.37309495 -0.13508682 0.22540002 -0.23436852 -0.13932592
-0.2062596 0.26635727 -0.037574377 0.10642125 0.021022141 -0.26344335 0.057204872 0.26151446
0.09362912 0.23827629 0.1327472 -0.2098465 -0.13404122 0.40680194 0.04636336 -0.33541194
0.002617926 -0.08495994 -0.07523327 0.23758176 -0.6452456 -0.2628473 -0.009755047 0.12350258
0.29570353 -0.06074892 0.029743977 0.42024398
00000000: ab95 6fbe 9ac0 a1bd ea87 d9be e7c6 d73c
00000010: 7f59 a9bd a8a7 3e3e 4cd7 8a3e 06af 923c
00000020: 2f29 3dbd 3b6c f9bd 1a9f 103e 2891 0bbe
00000030: dbde d43e 5d82 b3be b178 b73d 5cfa 71be
00000040: 6cfe 2d3d 4f9f 08bd 7043 363e 66ff debd
00000050: dde6 3c3e a9db 4fbe aee1 243e af9c 8bbe
00000060: f06f 67bd f9dc e43d 6a4c 1cbe b4f3 c53d
00000070: b01b 713c 1a0a c03c 5b59 57be 31cd a23e
00000080: ae5f 133e 96d9 b1be 559b ab3d c38e d83e
00000090: f6dc 9f3e a737 98be e180 833d b28c bc3e
000000a0: e001 5fbd 04e7 953e fd5e e7bd 5a88 ef3d
000000b0: 7848 903c 136b 2abe 1ad9 64be 26c8 78be
000000c0: fbab 80bd 542b 82bd 33f9 893e 551a 22be
000000d0: c5d9 683d bf43 c73e d9bf 4cbe 7cad 663e
000000e0: 07c4 29bc 517d db3d 8259 88be 4546 70bd
000000f0: 49a5 65be 6d87 5e3b 4fe6 853e fa52 21be
00000100: 7efc 84be 0571 9dbe 2291 5e3d 4d06 bf3e
00000110: 3354 0abe 43cf 663e 4dfe 6fbe 74ab 0ebe
00000120: b735 53be fb5f 883e 97e7 19bd 62f3 d93d
00000130: a036 ac3c 0ce2 86be a84f 6a3d 39e5 853e
00000140: a0c0 bf3d b3fe 733e e2ee 073e 00e2 56be
00000150: 1a42 09be 5848 d03e 82e7 3d3d 1dbb abbe
00000160: 8391 2b3b 7aff adbd e713 9abd a248 733e
00000170: d12e 25bf ec93 86be a2d3 1fbc ecee fc3d
00000180: 7466 973e dcd3 78bd a4a9 f33c 382a d73e

layers.hidden_6.bias f4 [10]
0.25201505 -0.11164612 -0.023161368 0.43404552 -0.109830484 0.019875027 -0.170049 0.08715386
-0.09062621 -0.06319613
00000000: 1e08 813e b9a6 e4bd e9bc bdbc 373b de3e
00000010: ceee e0bd f4d0 a23c 5321 2ebe b97d b23d
00000020: 3c9a b9bd f96c 81bd

layers.hidden_7.weight f4 [10, 10]
-0.2454824 0.47173014 -0.028008232 -0.41294432 0.1975903 -0.15043364 0.015732218 -0.25619596
-0.035070267 -0.093075864 -0.24248299 0.14901105 0.20164663 -0.0024960914 -0.18192415 -0.096883364
0.022877287 0.000907095 -0.34609282 -0.364361 0.30076075 0.26790416 0.10004182 -0.22515465
-0.1733863 0.21229292 -0.21777716 -0.34848478 0.008429078 -0.3112272 -0.13337041 -0.070294715
-0.02601663 -0.2836283 -0.08006973 -0.13286018 0.04545177 -0.42469013 0.14986935 -0.20994778
-0.23979615 0.32416448 -0.02712752 -0.3800543 0.33935437 -0.046246152 0.33116132 -0.15644029
-0.06535505 0.17028995 -0.18696927 0.07875648 -0.069196574 0.32148197 0.08827882 -0.08606158
-0.12479611 0.27216533 0.19602735 0.22485965 -0.019143928 0.08893163 -0.047831252 0.3340189
0.04730301 -0.056481242 -0.15796088 0.13361292 0.3689625 0.2028932 0.11890867 -0.12704389
0.0054375688 0.15219213 0.053167876 -0.27172202 -0.18772069 0.19159752 -0.13577434 0.28249815
0.26627165 -0.37104172 -0.29690298 0.100653075 0.15148477 -0.093638785 -0.28422382 0.38205284
-0.27525762 0.57512766 0.18514168 -0.37764487 -0.2675565 0.10069339 0.17680389 -0.1790972
-0.25476986 0.09624865 0.01617972 0.13101688
00000000: bd5f 7bbe 9d86 f13e 8571 e5bc 706d d3be
00000010: 1d55 4a3e 470b 1abe dae0 803c 1e2c 83be
00000020: d7a5 0fbd 8f9e bebd 764d 78be 5a96 183e
00000030: 747c 4e3e 7795 23bb 534a 3abe c96a c6bd
00000040: 2669 bb3c 1dca 6d3a 1433 b1be 868d babe
00000050: 50fd 993e bc2a 893e bae2 cc3d f18e 66be
00000060: 2e8c 31be 5163 593e fa00 5fbe 996c b2be
00000070: 1e1a 0a3c 2c59 9fbe 4192 08be adf6 8fbd
00000080: d420 d5bc bb37 91be 99fb a3bd 800c 08be
00000090: a32b 3a3d fc70 d9be 5a77 193e 8dfc 56be
000000a0: 1f8d 75be e3f8 a53e 883a debc 7a96 c2be
000000b0: dbbf ad3e 9b6c 3dbd fa8d a93e e231 20be
000000c0: ded8 85bd 7d60 2e3e df74 3fbe 144b a13d
000000d0: efb6 8dbd 4999 a43e 87cb b43d 0e41 b0bd
000000e0: 1a95 ffbd 4159 8b3e 65bb 483e 9c41 663e
000000f0: bad3 9cbc c921 b63d b4ea 43bd 8604 ab3e
00000100: cdc0 413d e058 67bd 7fc0 21be d3d1 083e
00000110: a7e8 bc3e 3cc3 4f3e 6486 f33d cb17 02be
00000120: a22d b23b 41d8 1b3e 8fc6 593d 261f 8bbe
00000130: da39 40be 2432 443e 6e08 0bbe 99a3 903e
00000140: c254 883e 2ef9 bdbe ab03 98be 3323 ce3d
00000150: d31e 1b3e b1c5 bfbd c985 91be 6e9c c33e
00000160: 91ee 8cbe 913b 133f c895 3d3e ab5a c1be
00000170: 2afd 88be 5638 ce3d 140c 353e 4265 37be
00000180: 3271 82be 031e c53d 558b 843c 4a29 063e

layers.hidden_7.bias f4 [10]
-0.29016724 0.22169639 0.0679883 0.06252498 0.21123406 0.11775516 -0.17495202 -0.122675404
-0.2850826 0.36841726
00000000: cd90 94be 6104 633e 733d 8b3d 190d 803d
00000010: be4d 583e 9e29 f13d 9f26 33be 3e3d fbbd
00000020: 59f6 91be 30a1 bc3e

layers.hidden_8.weight f4 [10, 10]
-0.47160754 -0.22011553 0.12085323 -0.22680478 -0.1661764 0.4262926 0.09775501 -0.19925895
0.16345845 0.094056584 0.2619471 -0.08331102 0.031036135 0.012507938 0.11189875 -0.19791755
-0.1094717 -0.36385015 -0.043186665 -0.24812855 -0.26156592 -0.22129853 -0.29659125 0.027960282
-0.03521134 -0.059999175 0.17345291 -0.009758252 0.3284888 0.073648 -0.18688314 0.23007911
-0.028596751 -0.107873395 -0.25519913 0.34305382 0.22074243 0.22313 0.26588774 -0.12705787
-0.23193419 -0.3518121 -0.21437405 -0.21095383 0.11485533 0.09560355 -0.10331305 0.360032
0.3163391 0.08339454 0.092448056 -0.246209 -0.046919685 0.07196713 -0.35750824 0.08005696
0.037292313 0.38791353 -0.10353075 0.4129829 -0.15631548 -0.29148448 -0.12923773 -0.24548294
-0.059786975 0.19130233 -0.27508336 0.16044791 0.3131413 0.15102017 0.01704623 0.1761753
0.08996502 0.4724856 0.053298686 0.2236302 -0.26865512 -0.19602582 -0.469756 0.2343777
-0.47256303 0.26628092 -0.23761632 -0.22017732 -0.29984707 0.078553624 0.16910964 -0.29354033
0.1309911 0.4818742 0.005703447 -0.30482253 -0.04749594 -0.15393923 -0.01833659 0.046238393
0.31327316 0.14965346 0.3491112 -0.01443364
00000000: 8b76 f1be f765 61be e681 f73d 833f 68be
00000010: 252a 2abe 0643 da3e c733 c83d 8a0a 4cbe
00000020: a761 273e bda0 c03d ee1d 863e f89e aabd
00000030: 7e3f fe3c 18ee 4c3c 2c2b e53d e6aa 4abe
00000040: b332 e0bd 914a babe 80e4 30bd 6915 7ebe
00000050: f8eb 85be 159c 62be cfda 97be f60c e53c
00000060: c439 10bd b2c1 75bd a49d 313e 13e1 1fbc
00000070: af2f a83e c3d4 963d 4b5e 3fbe dc99 6b3e
00000080: bc43 eabc baec dcbd 76a9 82be c0a4 af3e
00000090: 4e0a 623e 317c 643e 7022 883e 751b 02be
000000a0: 2880 6dbe b720 b4be df84 5bbe 4804 58be
000000b0: 4539 eb3d cbcb c33d cb95 d3bd 1d56 b83e
000000c0: 33f7 a13e c2ca aa3d 6855 bd3d 361e 7cbe
000000d0: db2e 40bd 8163 933d 520b b7be e7f4 a33d
000000e0: d3bf 183d 9a9c c63e ee07 d4bd 7f72 d33e
000000f0: 2a11 20be 743d 95be e556 04be e15f 7bbe
00000100: 30e3 74bd c2e4 433e bad7 8cbe 754c 243e
00000110: 0e54 a03e 08a5 1a3e 89a4 8b3c 4c67 343e
00000120: 953f b83d a2e9 f13e b94f 5a3d 51ff 643e
00000130: 2a8d 89be feba 48be dc83 f0be b500 703e
00000140: c8f3 f1be f955 883e b151 73be 2a76 61be
00000150: 8e85 99be b9e0 a03d 142b 2d3e eb4a 96be
00000160: 8822 063e 37b8 f63e fbe3 ba3b b311 9cbe
00000170: 1a8b 42bd 3fa2 1dbe 9e36 96bc 7864 3d3d
00000180: 5765 a03e c23e 193e b4be b23e 137b 6cbc

layers.hidden_8.bias f4 [10]
0.3733434 -0.16923982 -0.031409234 0.30723223 0.16036008 0.2420909 0.044452533 0.0202919
0.31649727 -0.0015321097
00000000: de26 bf3e 344d 2dbe f8a6 00bd 8b4d 9d3e
00000010: 6f35 243e ade6 773e dc13 363d 333b a63c
00000020: ee0b a23e 12d1 c8ba

layers.hidden_9.weight f4 [10, 10]
-0.07832456 -0.25821203 0.44681522 -0.014522519 0.23892497 0.38164395 0.10283101 -0.4220182
-0.1466571 -0.100245826 0.04012444 0.1460808 -0.13832624 0.1307811 0.020559942 0.008163154
-0.16515075 -0.08526911 -0.31142533 -0.24773034 -0.15855138 0.23620546 0.12454624 -0.38596338
-0.4843451 0.09303756 0.036084883 -0.20753741 -0.29782087 -0.19061568 -0.003769344 0.07832205
0.07266069 -0.2814506 -0.25923845 0.08577087 -0.3949172 0.25819543 0.16697742 -0.5190888
0.4826998 -0.23746128 -0.05358796 0.35462502 -0.12486628 0.43634018 0.31429294 0.10988262
0.44822097 -0.15385044 0.11430451 -0.23998861 0.3575426 -0.16961907 -0.044148594 0.39840847
0.25010052 -0.1264119 0.018060671 0.026855666 0.0523615 -0.048131414 0.0061739143 0.058539286
0.33401665 -0.18820474 0.035661202 -0.2549153 0.40040454 0.37941065 0.31579295 0.050946306
0.32828355 0.01779135 -0.077381015 0.09176192 0.37199327 0.010215339 0.2884202 0.1025555
0.36112845 -0.3074563 -0.06253097 0.016830564 0.379887 -0.020956216 0.31595683 -0.35064963
-0.04326517 -0.11618654 0.15069667 0.14297377 0.3410109 -0.0053664166 -0.058189567 -0.051568355
0.36726478 -0.3412629 0.25977415 0.4111499
00000000: a068 a0bd 5e34 84be f7c4 e43e dcef 6dbc
00000010: bfa8 743e d666 c33e 1199 d23d c512 d8be
00000020: 472d 16be af4d cdbd 8659 243d 3596 153e
00000030: 65a5 0dbe 7beb 053e 536d a83c c0be 053c
00000040: 471d 29be 92a1 aebd 2473 9fbe 06ad 7dbe
00000050: 4b5b 22be d8df 713e 1912 ff3d fe9c c5be
00000060: 15fc f7be 7a8a be3d becd 133d b084 54be
00000070: fa7b 98be c230 43be 1907 77bb 5067 a03d
00000080: 21cf 943d 4b1a 90be e7ba 84be a3a8 af3d
00000090: 9632 cabe 3132 843e 21fc 2a3e 01e3 04bf
000000a0: 6e24 f73e 0d29 73be 0c7f 5bbd 6991 b53e
000000b0: e4b9 ffbd fb67 df3e 01eb a03e 240a e13d
000000c0: 387d e53e f88a 1dbe 7c18 ea3d 93bf 75be
000000d0: d30f b73e 9fb0 2dbe 28d5 34bd 32fc cb3e
000000e0: 2d0d 803e 1f72 01be f9f3 933c 6a00 dc3c
000000f0: 0379 563d 7225 45bd 8c4e ca3b e4c6 6f3d
00000100: 3b04 ab3e beb8 40be 7b11 123d 4284 82be
00000110: d301 cd3e 1d42 c23e 9daf a13e 13ad 503d
00000120: c814 a83e 2abf 913c f079 9ebd aced bb3d
00000130: e775 be3e 3d5e 273c d0ab 933e 9e08 d23d
00000140: d4e5 b83e ea6a 9dbe 3d10 80bd 40e0 893c
00000150: 8d80 c23e 5fac abbc 18c5 a13e 5988 b3be
00000160: d236 31bd 35f3 edbd 3a50 1a3e b767 123e
00000170: fb98 ae3e c4d8 afbb 2f58 6ebd 5739 53bd
00000180: 210a bc3e 03ba aebe 1e01 853e 3d82 d23e

layers.hidden_9.bias f4 [10]
0.19305947 -0.02891105 0.03377601 0.086720146 -0.08272679 -0.14039046 0.024449088 -0.11819603
0.09713295 0.0811194
00000000: 62b1 453e ded6 ecbc b758 0a3d 559a b13d
00000010: aa6c a9bd 84c2 0fbe 7449 c83c c310 f2bd
00000020: a4ed c63d ee21 a63d

layers.output.weight f4 [1, 10]
0.32331976 -0.1236966 -0.4069958 -0.16877772 0.3515598 0.2122624 0.3653164 0.3530959
0.45788366 0.47538906
00000000: 2b8a a53e a554 fdbd c161 d0be 11d4 2cbe
00000010: a5ff b33e 515b 593e c00a bb3e fcc8 b43e
00000020: ba6f ea3e 3266 f33e
